HW1_Split_nb/checkpoints/model_origin_6.pt (torch, 250586 bytes, 10 tensors)

conv1.weight f4 [6, 1, 5, 5]
0	0xbd444a36	-0.047922336
1	0x3e9b9d5a	0.30393487
2	0xbe324f7c	-0.17413133
3	0x3e99d632	0.3004623
4	0x3d9513aa	0.07279141
5	0x3d2adada	0.04171262
6	0x3e85f390	0.26162386
7	0x3dc1b324	0.094579965
8	0x3e5f69d7	0.21817718
9	0x3e3c6ae7	0.18400155
10	0xbe31b523	-0.17354254
11	0x3d64e2e6	0.05588045
12	0xbe6117ca	-0.21981731
13	0x3e66427a	0.22486296
14	0x3e887245	0.2664968
15	0xbe171305	-0.14753349
16	0xbe97c346	-0.2964117
17	0xbebb8644	-0.36625874
18	0x3e2a04a8	0.16603339
19	0x3d80b464	0.06284407
20	0xbe21e062	-0.15808252
21	0xbeaee9eb	-0.3416284
22	0xbee5acdc	-0.44858444
23	0x3e1e9db1	0.15489842
24	0xbdf7aada	-0.12093134
25	0x3e2ead86	0.17058381
26	0x3e5da693	0.21645574
27	0x3dfc3bb4	0.12316075
28	0xbeec3ea8	-0.46141553
29	0xbed8d1d8	-0.42347598
30	0xbe095115	-0.13409837
31	0x3e761b25	0.24033792
32	0x3ee38c1d	0.44442835
33	0xbe5c3048	-0.21502793
34	0xbf016903	-0.5055086
35	0x3d9c3f0d	0.076292135
36	0x3dc1e2b0	0.09467065
37	0x3e2f6b7c	0.17130846
38	0xbe33f0f4	-0.17572385
39	0xbe83a48e	-0.25711483
40	0xbe8ee829	-0.279115
41	0x3ec789a6	0.38972205
42	0x3ea95b2a	0.33077365
43	0xbe3918c6	-0.18075857
44	0xbe629ae1	-0.22129394
45	0xbda8d01e	-0.0824282
46	0x3e649fbb	0.22326557
47	0x3eb7e7b5	0.35918966
48	0xbdf8c730	-0.12147367
49	0x3cf41c60	0.029798687
50	0xbe53740d	-0.20649739
51	0x3ce7ed85	0.0283115
52	0xbe67135d	-0.2256598
53	0xbe5e4052	-0.21704224
54	0xbdf212d3	-0.11819997
55	0xbde9b969	-0.11412317
56	0x3e6f2133	0.23352508
57	0x3e429cd1	0.19005133
58	0x3d9df176	0.07712071
59	0xbc650749	-0.013978788
60	0x3de14dd4	0.11001173
61	0x3e957666	0.29191893
62	0x3e598fc6	0.21246251
63	0x3e7365c5	0.23769291
64	0xbd5f7fa0	-0.054565072
65	0x3e415c17	0.18882786
66	0x3da25d35	0.07927934
67	0x3db58d96	0.08864896
68	0x3db1787e	0.0866556
69	0xbe55e987	-0.20889865
70	0x3c50a025	0.012733494
71	0xbdd516e1	-0.104047544
72	0xbd7f8360	-0.06238115
73	0xbea99f63	-0.33129415
74	0xbe357e5e	-0.17723987
75	0xbe707393	-0.23481588
76	0x3e3cd467	0.184404
77	0xbe25e05a	-0.16198865
78	0x3d8c6422	0.06855036
79	0xbe531f41	-0.20617391
80	0xbd6b68a0	-0.057472825
81	0xbd93e783	-0.07221892
82	0x3d7bc386	0.061465763
83	0x3b46ce2d	0.0030335293
84	0xbda06505	-0.07831768
85	0xbc9a6b2f	-0.018849937
86	0x3e5dd950	0.2166493
87	0x3d0f2ca1	0.03495467
88	0x3e697f67	0.22802506
89	0xbcb5df46	-0.022201192
90	0x3dca4f02	0.09878351
91	0x3eb835a8	0.35978436
92	0xbdce1847	-0.10063224
93	0xbda6d47a	-0.081459954
94	0x3da65b8d	0.08122931
95	0x3e1e1ae8	0.15439951
96	0x3e8bd0e4	0.27307808
97	0x3c70679f	0.014673143
98	0xbe1239c9	-0.14279856
99	0xbd1654af	-0.036701854
100	0x3e08e8b1	0.13370015
101	0xbd3e47ce	-0.046455197
102	0xbdf2d210	-0.118564725
103	0xbe542915	-0.20718797
104	0xbe336b52	-0.17521408
105	0x3ddac622	0.10682322
106	0x3e2c08d6	0.16800246
107	0xbccde9f3	-0.02513597
108	0xbdcee735	-0.10102693
109	0xbe222f1e	-0.15838286
110	0x3e5db257	0.21650063
111	0x3eb25df1	0.34837297
112	0x3e52d791	0.20590045
113	0xbc0e9058	-0.008701406
114	0xbe5793de	-0.210525
115	0x3dcb7960	0.0993526
116	0x3e6a82da	0.22901478
117	0xbdb730bd	-0.08944843
118	0x3c2a2a88	0.010386117
119	0xbedefc2f	-0.43551776
120	0x3e2291ef	0.15875982
121	0xbdc898af	-0.09794747
122	0xbd01ee15	-0.031721193
123	0xbe8c5c7a	-0.27414304
124	0xbe41cf66	-0.18926772
125	0xbdf13206	-0.11777119
126	0xbebf7c75	-0.3739964
127	0xbe9524fe	-0.29129785
128	0xbf4b4028	-0.7939477
129	0xbed1e031	-0.40991357
130	0x3e4f5672	0.2024782
131	0xbe937063	-0.28796682
132	0xbff1ba29	-1.8884937
133	0xc0048154	-2.0703936
134	0xbe8a0b6c	-0.2696184
135	0x3e41d642	0.18929389
136	0xbe8c0de9	-0.27354363
137	0xbfc18173	-1.511763
138	0xbf9acd82	-1.2093966
139	0x3e82d978	0.2555654
140	0x3eb762a0	0.35817432
141	0x3e749362	0.23884347
142	0x3ae0b11f	0.001714263
143	0xbd639521	-0.055562142
144	0x3e7d84a5	0.24757631
145	0x3ea057cb	0.3131698
146	0x3e1fc40d	0.15602131
147	0x3e647c75	0.22313102
148	0xbb74b5ca	-0.00373398
149	0x3dc82ed2	0.09774555

conv1.bias f4 [6]
0	0x3d732154	0.059357956
1	0x3c337fa2	0.010955723
2	0xbcbae6e3	-0.022815173
3	0xbd9794a9	-0.074014015
4	0x3e8dc06a	0.27685863
5	0x3eb96e96	0.36217183

conv2.weight f4 [16, 6, 5, 5]
0	0xbdd2ca72	-0.1029252
1	0xbe7a7e38	-0.24462211
2	0xbee096dc	-0.43865097
3	0xbe8965ce	-0.26835483
4	0x3e71e57d	0.23622699
5	0xbe238815	-0.1596988
6	0xbe81ffc7	-0.25390455
7	0xbe4bb760	-0.19894171
8	0xbe93ceb9	-0.28868654
9	0x3c25b191	0.010113136
10	0xbe2a4e8c	-0.16631526
11	0xbdfd1e21	-0.12359262
12	0xbdbc4124	-0.09192112
13	0x3d8b8e19	0.06814212
14	0x3e632c7c	0.22184938
15	0xbe0da85c	-0.13833755
16	0xbe4a8371	-0.19776703
17	0xbe597c51	-0.21238829
18	0x3b295440	0.002583757
19	0x3e3a6694	0.18203193
20	0xbd41cdb9	-0.047315333
21	0x3db64614	0.08900085
22	0xbcad4ee7	-0.021155788
23	0x3c3ace7c	0.011401769
24	0x3d30d9b1	0.043176357
25	0x3eca085e	0.3945951
26	0xbf32f1e0	-0.6990032
27	0xbf3cf2d8	-0.7380805
28	0x3cd99970	0.026562423
29	0x3e3ff116	0.1874431
30	0xbd39dfd0	-0.04537946
31	0xbf049e5f	-0.51804155
32	0xbf0ae19f	-0.5425052
33	0xbcba537c	-0.022744887
34	0x3e35e56b	0.17763297
35	0xbea7ce0e	-0.32774395
36	0xbeeba9bb	-0.46027932
37	0xbf11d231	-0.5696135
38	0x3d30a685	0.043127555
39	0x3e01f9c3	0.12692933
40	0xbe3ea7f0	-0.1861875
41	0xbef5bba5	-0.47994724
42	0xbf299bab	-0.66253155
43	0x3b141bd9	0.0022599606
44	0x3da604de	0.08106397
45	0xbea9f6db	-0.33196148
46	0xbf28f48b	-0.6599814
47	0xbf2080fa	-0.626968
48	0xbe5d7e13	-0.21630125
49	0xbc2c1a5f	-0.010504334
50	0xbe686393	-0.22694235
51	0xbe80f9a0	-0.2519045
52	0xbe435258	-0.1907438
53	0x3d3d665c	0.046240196
54	0x3cb0410d	0.021515394
55	0xbd4bb390	-0.04973179
56	0xbe056383	-0.13026242
57	0xbc2433d3	-0.0100221215
58	0x3e324359	0.17408504
59	0x3d5f84fb	0.05457018
60	0xbe26fb5e	-0.16306826
61	0x3d5a0a2b	0.053232353
62	0xbbeb9b5f	-0.0071901525
63	0x3e328d1a	0.17436638
64	0x3dde01d7	0.10840195
65	0xbba1eedf	-0.0049418057
66	0x3d5336b5	0.051565845
67	0x3b5a2b63	0.003329002
68	0x3dfbd542	0.12296535
69	0x3d140f3d	0.036147345
70	0x3dc847c1	0.09779311
71	0x3dc9e123	0.098573945
72	0x3e03b91c	0.12863582
73	0x3e4168ab	0.18887584
74	0xbe2a0862	-0.1660476
75	0xbe8f1eca	-0.27953178
76	0xbe4c44dc	-0.19948143
77	0x3bca1ad9	0.0061677513
78	0x3d93c81b	0.072159015
79	0x3ce1a47f	0.027544258
80	0xbe3e21d7	-0.18567596
81	0xbd3c5e4b	-0.045988362
82	0x3da151d5	0.07876936
83	0x3e000b54	0.12504321
84	0x3d84afac	0.06478819
85	0xbd299a31	-0.041406814
86	0xbb2e5696	-0.0026601902
87	0x3deda294	0.11603275
88	0x3dafb041	0.0857854
89	0x3dd3a2f4	0.10333815
90	0x3c02928b	0.007969509
91	0x3dc84640	0.09779024
92	0x3df92492	0.12165178
93	0x3d8323ba	0.06403299
94	0x3d1131f8	0.035448045
95	0x3c8772f4	0.016534306
96	0x3dcc3782	0.09971525
97	0x3e11d257	0.14240395
98	0x3da97d68	0.082758725
99	0xbdee0116	-0.11621301
100	0x3da7091d	0.08156035
101	0xbdfc30fb	-0.1231403
102	0xbd2041e5	-0.039125342
103	0x3d9464d0	0.07245791
104	0x3d43f5e3	0.047841918
105	0x3d9d7783	0.07688811
106	0xbc8b6cfa	-0.017019738
107	0x3d70f856	0.05883058
108	0x3e1f0b72	0.1553171
109	0xbc9546f6	-0.018222313
110	0xbe0a29d0	-0.13492513
111	0xbd81d44e	-0.06339322
112	0xbe2c9054	-0.16851932
113	0x3e35dd88	0.17760289
114	0x3df0fde0	0.11767173
115	0xbcad9751	-0.021190317
116	0xbe6f3eeb	-0.23363845
117	0xbdcc800d	-0.09985361
118	0x3e2d393e	0.16916367
119	0x3dc01010	0.09378064
120	0xbb6241a8	-0.0034523997
121	0xbddace68	-0.106839
122	0x3d3a2182	0.04544211
123	0x3e4a9172	0.19782045
124	0x3e308d19	0.17241324
125	0x3f66aa40	0.9010353
126	0x3ed12558	0.40848804
127	0xbf0a200d	-0.53955156
128	0xbf0b4f77	-0.5441813
129	0xbe3c47e0	-0.18386793
130	0x3ecc5173	0.3990589
131	0x3e10b056	0.14129767
132	0xbea1a3e2	-0.31570345
133	0xbe6d7c46	-0.23191938
134	0xbe144035	-0.14477618
135	0x3ecf0fcf	0.40441748
136	0x3c333e8a	0.010940203
137	0xbe4e53c6	-0.20149145
138	0xbe748a55	-0.23880894
139	0xbd064c61	-0.032787684
140	0x3e2d2164	0.16907269
141	0x3dabe829	0.083938904
142	0xbc13b346	-0.00901491
143	0xbe5d7b8f	-0.21629165
144	0xbe053d05	-0.13011558
145	0xbe0ad824	-0.13559014
146	0xbf02dc75	-0.5111764
147	0xbe41e12f	-0.18933557
148	0x3e8b0cef	0.27158305
149	0x3d68e861	0.05686224
150	0xbdb812b7	-0.089879446
151	0x3cc355b1	0.023844572
152	0x3dc0e3d1	0.094184525
153	0x3cfc5da5	0.030806372
154	0xbe99ceca	-0.3004058
155	0xbe1c04e2	-0.15236238
156	0x3da94d86	0.082667395
157	0x3e574931	0.21024014
158	0x3ec6bb70	0.38814878
159	0xbd8cac4b	-0.068688
160	0xbe59edb3	-0.21282081
161	0xbec5a39c	-0.38601387
162	0xbd1391f1	-0.036027852
163	0x3ef3b8ae	0.47601837
164	0x3eb2a87b	0.34894165
165	0xbe57f1b1	-0.21088292
166	0xbea438f9	-0.32074717
167	0xbd91a36e	-0.0711125
168	0x3e48e4bf	0.1961851
169	0xbd62496b	-0.055245798
170	0x3e1b0758	0.1513952
171	0x3cd30f56	0.025764149
172	0x3dd2b266	0.10287933
173	0x3e44c849	0.19217028
174	0xbdc24236	-0.09485285
175	0xbe2d7b18	-0.16941488
176	0xbf13fd41	-0.5780831
177	0xbe074f90	-0.13213944
178	0xb8d88979	-0.00010325289
179	0x3e2fc0db	0.17163412
180	0xbe6fdcae	-0.23424026
181	0xbe34a552	-0.1764119
182	0xbc66d782	-0.014089467
183	0x3d21a4d8	0.039463848
184	0x3ddd9dbf	0.10821103
185	0xbc635dd7	-0.013877354
186	0x3ea3d2db	0.31996807
187	0x3e954b84	0.29159176
188	0x3d2d2fb8	0.042281836
189	0x3e004bd8	0.12528932
190	0x3de7cb94	0.11318126
191	0x3ee8ea16	0.45491093
192	0x3ef60d46	0.48057002
193	0x3e744222	0.23853353
194	0x3e16ee74	0.147394
195	0xbe00e324	-0.12586647
196	0x3ec512c8	0.3849089
197	0x3f174dda	0.5910317
198	0x3b45db0d	0.003019038
199	0xbd0cc23d	-0.034364928
200	0xbc902488	-0.017595544
201	0xbdd31051	-0.103058465
202	0xbc8506cd	-0.016238594
203	0xbc61840a	-0.013764391
204	0xbcfe883e	-0.031070825
205	0x3e210d56	0.15727744
206	0xbdc2d284	-0.09512809
207	0xbd63bbb4	-0.05559893
208	0xbd6f33eb	-0.058399122
209	0x3d43225e	0.047640197
210	0x3c4e8337	0.012604526
211	0xbd910819	-0.07081623
212	0xbcec6b60	-0.028859794
213	0x3d15874b	0.03650598
214	0xbd2dccfe	-0.042431824
215	0x3d7e6c65	0.06211509
216	0x3d9b941f	0.07596611
217	0xbd605b09	-0.054774318
218	0xbe07da0b	-0.1326677
219	0xbe0bb180	-0.1364193
220	0x3e8840b9	0.2661188
221	0x3e31ac05	0.17350776
222	0x3c9fe0af	0.019516317
223	0xbb404cb9	-0.0029342605
224	0x3d158620	0.036504865
225	0xbdb77c02	-0.089591995
226	0xbe6b2ff8	-0.22967517
227	0xbd7d89ef	-0.06189912
228	0x3c1c030b	0.00952221
229	0x3d31b2c4	0.043383375
230	0xbe09c11d	-0.13452573
231	0xbdfa4675	-0.1222047
232	0xbe43be7f	-0.19115637
233	0xbc8ae822	-0.016956393
234	0x3de45aef	0.11150157
235	0xbdb09b9e	-0.086234316
236	0x3c07a1ad	0.008278293
237	0xbe273763	-0.16329722
238	0xbd96994e	-0.07353459
239	0xbc99c3f7	-0.018770201
240	0x3d5e64a1	0.054295186
241	0x3e034bb5	0.12821849
242	0x3c1413f5	0.009037961
243	0xbdbc6ad1	-0.09200061
244	0xbca883b4	-0.020570613
245	0x3dd23839	0.1026463
246	0x3d223b34	0.03960724
247	0xbce58d88	-0.028021589
248	0xbdf7ed73	-0.12105837
249	0xbdab1168	-0.08352929
250	0xbd2d2f86	-0.04228165
251	0xbe764391	-0.24049212
252	0xbdd12458	-0.1021201
253	0x3d443991	0.047906462
254	0xbb706883	-0.0036683388
255	0xbd86269b	-0.06550332

conv2.bias f4 [16]
0	0x3e58559e	0.2112641
1	0xbd6ef516	-0.0583392
2	0xbd6a7d8f	-0.05724865
3	0x3e5be089	0.21472372
4	0x3e35d66b	0.17757575
5	0x3e19ce59	0.15020122
6	0x3e746a52	0.23868683
7	0x3dd692a4	0.10477188
8	0xbddd61fe	-0.10809706
9	0x3d988bc1	0.07448531
10	0xbd2a68ec	-0.041603968
11	0x3e9d1789	0.30682018
12	0xbd4f98bf	-0.05068278
13	0xbdbee087	-0.09320169
14	0x3e271f4f	0.16320537
15	0x3e8b1377	0.27163288

fc1.weight f4 [120, 400]
0	0x3d47bfb6	0.048766814
1	0xbde1c174	-0.110232264
2	0xbd5f8cc0	-0.05457759
3	0x3e022349	0.12708773
4	0x3e7eea0b	0.24893968
5	0xbd69ca40	-0.057077646
6	0x3cd2a388	0.025712743
7	0xbd2cb09b	-0.04216061
8	0x3d991b1d	0.074758746
9	0x3daefb34	0.08544007
10	0xbd4e56aa	-0.050375618
11	0x3db0f201	0.086399086
12	0xbd60d109	-0.05488685
13	0x3983412b	0.0002503482
14	0xbe40e3c8	-0.18836892
15	0x3d151634	0.036398128
16	0x3bccb5f5	0.006247277
17	0xbb8aa0ba	-0.004230586
18	0x3d132a7c	0.035929188
19	0xbe1c1037	-0.1524056
20	0x3e4e6851	0.20156981
21	0x3cd5479d	0.026035124
22	0x3dc6d51b	0.097086154
23	0x3cadc161	0.021210374
24	0xbe6b5cb8	-0.22984588
25	0x3da1969d	0.07890055
26	0x3d9dd217	0.07706087
27	0x3e7c53bd	0.24641319
28	0x3c501b2b	0.01270179
29	0xbddfee00	-0.10934067
30	0xbd225d66	-0.039639853
31	0x3c4fb2ff	0.012676953
32	0x3e6a8a04	0.22904211
33	0x3dd96ed8	0.10616845
34	0xbcaf8a0a	-0.021428127
35	0xbcbe018e	-0.0231941
36	0x3c2b1bca	0.010443637
37	0x3e1f0e11	0.1553271
38	0x3da2e098	0.07952994
39	0x3d276387	0.0408664
40	0x3daf1cdf	0.085504286
41	0xbc958a07	-0.018254293
42	0xbd2801f7	-0.0410175
43	0x3d8c035b	0.068365775
44	0xbe06ef55	-0.13177235
45	0x3d25bc78	0.04046294
46	0xbd08827d	-0.03332757
47	0xbdc92b4d	-0.09822712
48	0x3e4889f4	0.19583875
49	0xbd425f85	-0.047454376
50	0xbcf2c2d1	-0.029633911
51	0x3bbcae7a	0.005758104
52	0x3d5b0515	0.053471643
53	0x3d241698	0.04006061
54	0xbd676df7	-0.056501355
55	0xbbef9f48	-0.007312689
56	0x3c6fb18c	0.014629733
57	0x3b634bb7	0.003468258
58	0xbd8051d8	-0.062656105
59	0xbd685532	-0.056721874
60	0xbaed7cb9	-0.0018118835
61	0x3d474aa4	0.048655167
62	0xbd338fa8	-0.043838173
63	0xbd3555c0	-0.04427123
64	0xbcc2ce08	-0.023779884
65	0x3d9557b3	0.07292118
66	0x3d95b834	0.073105246
67	0x3d882ec0	0.06649542
68	0xbd772f29	-0.06034771
69	0xbd2c7a0e	-0.042108588
70	0x3c5a64f6	0.013329735
71	0x3c5ebca7	0.013594783
72	0x3c51beed	0.012801868
73	0xbc863140	-0.016380906
74	0xbd01e1e2	-0.03170956
75	0x3e35d3a9	0.17756523
76	0x3e11abbf	0.14225672
77	0xbac6fd29	-0.0015181649
78	0x3e0a7476	0.13520989
79	0x3e662949	0.22476687
80	0xbb9a0e63	-0.004701422
81	0x3d877b6b	0.06615337
82	0x3d3213e7	0.04347601
83	0xbd8b1800	-0.06791687
84	0x3cbcf652	0.023066673
85	0xbd808be3	-0.06276681
86	0x3d961bb3	0.07329502
87	0x3dcf5a04	0.10124591
88	0xbd394044	-0.045227304
89	0x3d0612fa	0.03273294
90	0x3c6a2335	0.014290621
91	0x3d7931b8	0.06083843
92	0x3e189de7	0.14903985
93	0x3d245dc4	0.040128484
94	0x3d8f7d6f	0.070063464
95	0x3d2aef53	0.041732144
96	0x3c9dbea3	0.019255942
97	0x3de58586	0.11207108
98	0x390fdfe8	0.00013720954
99	0x3c392a60	0.011301607
100	0x3ba29491	0.004961558
101	0x39617db7	0.00021504505
102	0x3c12c10d	0.00895716
103	0xbe3c6346	-0.18397245
104	0xbd682d8d	-0.056684066
105	0x3b5ae72f	0.0033401956
106	0xbdc613a7	-0.09671717
107	0xbd5b95e9	-0.053609762
108	0xbd46b071	-0.04850811
109	0xbe20319e	-0.15643927
110	0xbd9d157f	-0.07670116
111	0x3d498e86	0.049208187
112	0x3e342253	0.17591219
113	0x3e42a1d7	0.1900705
114	0xbd5255ab	-0.05135123
115	0xbe13a1c9	-0.14417185
116	0x3b548b33	0.0032431602
117	0x3d2d068c	0.04224257
118	0x3da2d9de	0.07951711
119	0xbda1bc11	-0.07897199
120	0xbefca0d4	-0.49341452
121	0x3df1ba96	0.118031666
122	0xbe035471	-0.1282518
123	0xbc91f28e	-0.017815854
124	0x3e438927	0.19095288
125	0x3e1588a5	0.14602907
126	0xbd50a55f	-0.05093896
127	0xbdb4e7f8	-0.08833307
128	0xbc47d3f9	-0.012196534
129	0x3d1488d2	0.036263295
130	0x3cd1e047	0.02561964
131	0xbd13ca19	-0.036081407
132	0x3c0e604d	0.008689952
133	0x3c82119d	0.01587754
134	0xbdaa4dd3	-0.08315625
135	0x3c56d1cc	0.013111543
136	0xbd4738c5	-0.048638124
137	0x3d3c8f40	0.04603505
138	0x3cdbcbdf	0.026830612
139	0xbdda218c	-0.1065093
140	0xbe16ba25	-0.14719446
141	0xbd4ede4a	-0.05050496
142	0xbb36bf99	-0.0027885197
143	0x3da282e8	0.07935125
144	0xbd9e2f35	-0.07723848
145	0x3c251198	0.010074995
146	0x3cd28b79	0.025701271
147	0x3cdf2260	0.027238071
148	0x3e51929b	0.20466082
149	0xbe83758b	-0.25675616
150	0x3e24a2a1	0.16077663
151	0x3e11f2b2	0.14252737
152	0x3d08b96f	0.03337997
153	0xbcaabdae	-0.0208424
154	0x3ad00b7e	0.0015872566
155	0xbbcda667	-0.00627594
156	0xbd0f4c78	-0.034985036
157	0xbd0fe5b6	-0.03513118
158	0xbde6e48e	-0.11274062
159	0xbe30a8f8	-0.17251956
160	0xbd9ce5e2	-0.07661034
161	0x3cc1ebf3	0.02367208
162	0xbd3ef0ec	-0.04661648
163	0xbd8b8de0	-0.0681417
164	0xbe5e1e86	-0.21691331
165	0xbdcb95f4	-0.09940711
166	0xbc576d1d	-0.013148573
167	0x3daed5ae	0.0853685
168	0x3d973ed6	0.07385032
169	0xbe510928	-0.20413649
170	0xbdbe8b66	-0.09303932
171	0x3d2fa9fa	0.04288671
172	0x3d551a44	0.052027002
173	0x3e25bd65	0.1618553
174	0xbe683a84	-0.22678572
175	0x3d90b593	0.070658825
176	0xbc8f3e2b	-0.017485699
177	0x3e0468d1	0.1293061
178	0xbe02b62b	-0.12764804
179	0xbca6e3df	-0.02037233
180	0xbe0210b9	-0.12701692
181	0x3d2ff985	0.04296257
182	0xbd42c090	-0.047546923
183	0x3d3232e6	0.04350557
184	0x3cbb1119	0.022835301
185	0x3c137d07	0.009001977
186	0x3de22acc	0.11043319
187	0xbd3e649c	-0.046482667
188	0x3a0f1e5c	0.0005459541
189	0x3cc6b8d5	0.024258057
190	0xbdf7a5f4	-0.120922
191	0xbd68c858	-0.056831688
192	0xbde87f4d	-0.11352406
193	0xbb98c367	-0.0046619656
194	0x3a350a1a	0.00069061073
195	0xbedc872d	-0.4307188
196	0xbe7c1ef7	-0.24621187
197	0x3b3165a6	0.0027068644
198	0xbe1c46b1	-0.15261342
199	0xbe7c0966	-0.2461296
200	0x3ceec5f3	0.029147124
201	0xbcc09860	-0.023510158
202	0x3b929e40	0.0044744313
203	0xbc1f046d	-0.009705645
204	0xbd4f2783	-0.05057479
205	0xbc7cd867	-0.015432454
206	0xbd3f64c2	-0.04672695
207	0x3ccb2bbd	0.02480113
208	0x3ce2a603	0.027667051
209	0xbd3dd70f	-0.046347674
210	0x3be48b0d	0.006974584
211	0x3c5c345a	0.013440216
212	0x3d1136c7	0.03545263
213	0xbc7402e5	-0.014893268
214	0xbcdd613d	-0.027023906
215	0xbd1e580a	-0.03865818
216	0x3d2a7efa	0.041625
217	0xbd0988cf	-0.033577736
218	0xbbf14dc0	-0.007364005
219	0x3d1970d0	0.037461102
220	0xbcfc1d1d	-0.030775601
221	0x3c6d1813	0.014471072
222	0xbc844b0a	-0.016149063
223	0xbd422bc5	-0.047405023
224	0xbc94dff3	-0.018173194
225	0xbd28e843	-0.041237127
226	0x3e25e15d	0.1619925
227	0xbd9a02df	-0.07520079
228	0x3dd55b9e	0.10417865
229	0x3dafe9a3	0.085894845
230	0x3cc65631	0.024211021
231	0x3e4c143d	0.19929595
232	0xbce0c6e2	-0.027438585
233	0x3de4bfb0	0.11169374
234	0xbdb10b4b	-0.08644732
235	0x3df989a9	0.1218446
236	0x3dd4ba48	0.10387093
237	0x3c71d79e	0.01476088
238	0x3cab4969	0.020909028
239	0x3cd363f7	0.025804503
240	0x3e3b0f9f	0.18267678
241	0xbdaa206f	-0.083069675
242	0xbe3ffd9a	-0.18749085
243	0xbd0dcf5e	-0.03462159
244	0xbd2d3cde	-0.042294376
245	0x3e83ce35	0.2574326
246	0xbe499a6d	-0.19687815
247	0xbea5e712	-0.32402855
248	0xbd84ce19	-0.064846225
249	0xbe1aa057	-0.15100227
250	0xbbdeb6a4	-0.006796675
251	0x3e830550	0.2558999
252	0xbd255651	-0.04036552
253	0xbe306d58	-0.17229211
254	0xbdee7b77	-0.11644643
255	0x3dc1ac83	0.09456732

fc1.bias f4 [120]
0	0x3def6b8e	0.11690436
1	0x3d913a7b	0.070912324
2	0x3e131cd8	0.14366472
3	0x3d036f06	0.032088302
4	0xbd73bf4b	-0.059508603
5	0xbd4caaae	-0.04996746
6	0xbcfd750b	-0.0309396
7	0xbcaa33c1	-0.020776631
8	0xbd8ad2ff	-0.067785256
9	0xbc8efc8e	-0.017454412
10	0xbcd29cdd	-0.025709564
11	0xbd44cd63	-0.048047435
12	0x3ddb75f3	0.107158564
13	0x3e4907bc	0.19631857
14	0x3d583305	0.05278303
15	0xbc951dbf	-0.01820266
16	0x3abeed0b	0.0014566494
17	0x3e19c576	0.15016732
18	0x3dd0dfe5	0.101989545
19	0x3cc0ae65	0.023520658
20	0xbd5fe101	-0.05465794
21	0xbd2fd6ec	-0.042929575
22	0xbd638eb8	-0.05555603
23	0x3dacd913	0.08439841
24	0xbd8ac8ec	-0.06776604
25	0x3afafcff	0.0019148885
26	0x3cad9ce2	0.021192972
27	0x3df71118	0.12063807
28	0x3c20e41c	0.0098200105
29	0x3e284dda	0.16435948
30	0xbdb73d34	-0.089472204
31	0xbd3bbaa5	-0.045832295
32	0x3e619017	0.22027622
33	0xbd7937b7	-0.06084415
34	0xbd7f7192	-0.06236417
35	0xbd647298	-0.055773348
36	0xbb4685c9	-0.0030292145
37	0x3d8b52b7	0.06802886
38	0x3d8e40bb	0.0694594
39	0x3db97945	0.090563335
40	0xbcf12a2c	-0.029439054
41	0x3de05035	0.10952798
42	0x3e103c98	0.14085615
43	0x3dcdd604	0.10050586
44	0xbcd97fea	-0.026550252
45	0xbe289163	-0.1646171
46	0xbd60affe	-0.05485534
47	0xbd908bf0	-0.07057941
48	0x3db44def	0.08803927
49	0xbbc047bd	-0.005867927
50	0x3e12c24b	0.1433193
51	0xbd9b477c	-0.07581994
52	0x3db29b80	0.087210655
53	0x3db5b279	0.088719316
54	0xbccfe757	-0.025378866
55	0x3cc45580	0.02396655
56	0xbbce9343	-0.006304176
57	0x3d4536ea	0.048148073
58	0x3d3c2d11	0.045941416
59	0xbd05fbd9	-0.032710884
60	0x3cfe38ec	0.031033002
61	0xbc793bb8	-0.015211992
62	0x3dba0834	0.09083596
63	0xbd87305c	-0.06601021
64	0xbd61305c	-0.05497776
65	0xbd97b2bd	-0.074071385
66	0xbd07841e	-0.03308498
67	0x3e625f5b	0.22106688
68	0x3dada358	0.08478421
69	0x3dc45f66	0.09588508
70	0x3c912056	0.017715614
71	0x3e0c62bc	0.13709539
72	0x3e02b759	0.12765254
73	0x3d97ee0d	0.074184515
74	0x3c0bc144	0.008529965
75	0x3d93e579	0.07221503
76	0x3dcb3c18	0.09923571
77	0x3d93d441	0.072182186
78	0xbda05516	-0.07828729
79	0xbb34bf8c	-0.002757999
80	0xbc458f59	-0.0120581025
81	0xbd0126a4	-0.03153099
82	0x3b89c54e	0.0042044288
83	0x3e3c6bbb	0.18400471
84	0x3e89576e	0.26824516
85	0xbd5ed273	-0.05439992
86	0xbc2e9e9d	-0.010657934
87	0xbd530595	-0.051518995
88	0x3d702fa9	0.058639202
89	0xbd8b64db	-0.06806346
90	0x3e587bbb	0.2114095
91	0xbdf6405f	-0.120239966
92	0x3dd7d87e	0.105393395
93	0x3e4f2c6d	0.20231791
94	0xbc6c04d9	-0.014405453
95	0x3e5e5ac7	0.21714316
96	0xbd5d3c93	-0.054012846
97	0x3dfdacc9	0.12386472
98	0xbc2796c1	-0.010228814
99	0xbca18340	-0.019715905
100	0x3b833a0b	0.004004722
101	0x3dea9a0f	0.114551656
102	0xbc4fdad3	-0.012686449
103	0x3c92cae3	0.01791901
104	0xbd878449	-0.06617028
105	0x3d92c2be	0.071660504
106	0x3def9d26	0.116998956
107	0x3da6bafc	0.08141133
108	0x3e380b18	0.17972982
109	0xbd8963a8	-0.06708461
110	0x3e0b9d02	0.13634112
111	0x3cf0051d	0.029299313
112	0x3e21e6ba	0.15810671
113	0x3e1518bc	0.14560217
114	0x3dfdb37e	0.12387751
115	0x3dfee94a	0.1244684
116	0xbd7aa7ef	-0.06119531
117	0xbd53bccc	-0.051693723
118	0x3da7f7d8	0.08201569
119	0x3e0ca72a	0.13735643

fc2.weight f4 [84, 120]
0	0xbd7a56b0	-0.061117828
1	0x3e92190d	0.28534737
2	0xbd86bdec	-0.065791935
3	0x3e8808c1	0.2656918
4	0xbd568d55	-0.05238088
5	0xbd14d545	-0.036336202
6	0xbccf33bc	-0.025293224
7	0x3c123af7	0.008925191
8	0xba034ca3	-0.0005008673
9	0xbc944021	-0.018096985
10	0xbdab58ed	-0.083665706
11	0xbd510c5c	-0.051037177
12	0x3d894f5f	0.06704592
13	0x3e0b120e	0.13581106
14	0xbead27c9	-0.33819416
15	0xbc93206a	-0.017959792
16	0xbe51c623	-0.2048574
17	0xbf0d9d5d	-0.5531824
18	0x3e590f51	0.21197249
19	0x3ee10e2f	0.43956134
20	0x3b7303ca	0.0037081116
21	0xbd6e5bf7	-0.058193173
22	0x3cdc1b5b	0.026868513
23	0xbe92561a	-0.28581315
24	0xbdd75d0c	-0.10515794
25	0x3c7a2c0e	0.0152692925
26	0xbe66ab64	-0.22526318
27	0x3df6995e	0.12040971
28	0x3e45b29b	0.19306414
29	0x3e7683ae	0.2407367
30	0x3e2ad10f	0.16681312
31	0x3cfc5911	0.030804189
32	0x3da3a479	0.07990355
33	0x3c198912	0.009371059
34	0x3df1aea0	0.11800885
35	0xbda8a93b	-0.08235403
36	0xbd1ace17	-0.0377942
37	0xbe770b1f	-0.24125336
38	0x3ead4f74	0.3384968
39	0x3e562f24	0.2091642
40	0xbd871568	-0.0659588
41	0x3e1466c2	0.14492324
42	0xbd609198	-0.05482635
43	0xbdb0b7aa	-0.08628781
44	0xbdb84a39	-0.08998532
45	0xbeeaafa2	-0.45837122
46	0x3d39e736	0.045386516
47	0x3d65b5fb	0.056081753
48	0xbdc0340f	-0.093849294
49	0xbe97e87a	-0.29669553
50	0xbd33650f	-0.04379755
51	0x3dda33fa	0.10654445
52	0x3e3a815a	0.18213406
53	0xbd96e905	-0.07368664
54	0xbecfed6d	-0.4061083
55	0x3d290420	0.0412637
56	0x3ec008cf	0.3750672
57	0x3e487bb7	0.19578443
58	0x3d5f4a55	0.054514248
59	0x3d128858	0.03577456
60	0xbe6ea3a1	-0.23304607
61	0x3c8b723b	0.017022243
62	0x3dc49ab9	0.095998235
63	0xbcaf62a6	-0.021409344
64	0x3d8b5ad8	0.068044364
65	0x3e081987	0.13290988
66	0x3d9abdf9	0.07555766
67	0x3ea35e13	0.3190771
68	0xbdb2bbd0	-0.08727229
69	0xbe266d4b	-0.1625263
70	0xbe6cac43	-0.23112588
71	0x3d72836e	0.059207372
72	0xbebd4690	-0.36967897
73	0xbd5e3dae	-0.05425804
74	0xbc618e00	-0.013766766
75	0xbd65ad2a	-0.056073345
76	0xbd7db2c8	-0.061938077
77	0x3b15eee3	0.0022877983
78	0xbda23106	-0.07919507
79	0x3eb86a22	0.36018473
80	0xbd9a0350	-0.07520163
81	0xbd98154a	-0.074259356
82	0x3df0455e	0.11731981
83	0xbd8faa32	-0.07014884
84	0x3d14d13f	0.036332365
85	0x3dbd42ca	0.09241255
86	0xbe7e5bfd	-0.24839778
87	0xbf196162	-0.5991422
88	0x3e094d9e	0.13408515
89	0x3d5efcef	0.054440435
90	0xbd68db9c	-0.05685006
91	0x3d6697b5	0.056297023
92	0x3d988826	0.07447843
93	0x3e9cad1d	0.30600825
94	0xbe38afce	-0.18035814
95	0xbe20b4e1	-0.15694
96	0x3db75ce8	0.08953267
97	0xbcaec7ef	-0.02133557
98	0xbcb3a2c3	-0.021928197
99	0xbd1cc8c4	-0.038277403
100	0xbe0d2550	-0.13783765
101	0xbeb4c2ad	-0.35304776
102	0x3dab084d	0.083511926
103	0xbe808a6d	-0.2510561
104	0xbd6424e9	-0.055699263
105	0x3dcce509	0.100046225
106	0x3e1c94af	0.15291093
107	0xbe67a9e7	-0.22623406
108	0xbeb45afe	-0.35225672
109	0xbca39830	-0.01997003
110	0xbec14d06	-0.37754077
111	0x3e136df8	0.14397418
112	0x3ea2466a	0.31694347
113	0x3e8deee5	0.27721325
114	0x3e3060ec	0.17224473
115	0x3d8d56e9	0.069013424
116	0x3ac3c285	0.0014935291
117	0x3dd08724	0.10182026
118	0x3e436cde	0.19084498
119	0xbeb69850	-0.3566308
120	0x3e097326	0.13422832
121	0x3dac2186	0.084048316
122	0xbe0c724a	-0.13715473
123	0xbdc16aaa	-0.09444173
124	0xbb2b5a30	-0.0026146285
125	0x3ca0ee77	0.019644959
126	0x3cd8d689	0.026469486
127	0x3d2f3121	0.042771462
128	0xbd0f74e8	-0.0350236
129	0x3d974f35	0.073881544
130	0xbda1d1c4	-0.07901338
131	0x3d173e9e	0.03692495
132	0x3d49e7ed	0.049293447
133	0xbd95027f	-0.07275867
134	0x3e2c9560	0.16853857
135	0xbd3f3bca	-0.04668788
136	0xbd1bf252	-0.03807289
137	0x3ea7d500	0.32779694
138	0x3def94ac	0.11698279
139	0xbee29c03	-0.44259652
140	0xbda7e176	-0.081973
141	0x3d631800	0.05544281
142	0xbbc55c20	-0.006022945
143	0x3e3c4957	0.18387352
144	0xbda3099b	-0.079608165
145	0xbd98919b	-0.07449647
146	0x3e1f0323	0.1552854
147	0x3eb9e65d	0.36308566
148	0xbe906e08	-0.28208947
149	0x3e442761	0.19155647
150	0xbd35567d	-0.044271935
151	0x3d24b140	0.0402081
152	0x3d5c3ea8	0.05377069
153	0x3be412a3	0.0069602295
154	0x3dbefd27	0.09325629
155	0x3dbd9ca1	0.0925839
156	0xbd3006e0	-0.042975307
157	0x3d4818f1	0.04885191
158	0xbd876678	-0.06611341
159	0xbe3c05d0	-0.18361592
160	0x3db53df1	0.08849705
161	0x3dce0757	0.10059994
162	0x3e4298b5	0.19003566
163	0x3e5d3727	0.2160307
164	0xbd8a6d4f	-0.0675913
165	0x3e31b224	0.17353112
166	0xbd096996	-0.03354796
167	0x3d518d82	0.051160343
168	0x3dd6bf21	0.10485674
169	0x3df2d8f0	0.11857784
170	0xbe4edb59	-0.20200862
171	0x3bd3728b	0.0064528636
172	0xbe2c03d8	-0.16798341
173	0xbe820546	-0.25394648
174	0xbe37a558	-0.17934167
175	0x3dcb527b	0.09927841
176	0xbde444e5	-0.11145953
177	0xbe5fb05a	-0.21844617
178	0x3e846489	0.25857952
179	0x3d7d8415	0.06189354
180	0xbc1986ea	-0.009370545
181	0xbc1cf1aa	-0.009579102
182	0xbe085998	-0.13315427
183	0x3d7750f8	0.060379952
184	0xbe1314e5	-0.1436344
185	0x3d5ee159	0.054414127
186	0xbdd14f5a	-0.10220213
187	0x3e35c0ef	0.1774938
188	0xbdc5c9cf	-0.096576326
189	0xbd896fa8	-0.0671075
190	0xbcf41e93	-0.029799735
191	0x3e2462c3	0.160533
192	0x3e01c1fb	0.12671654
193	0x3e41b118	0.18915212
194	0xbebc963e	-0.36833376
195	0x3dd8a14c	0.1057764
196	0x3e0eb954	0.13937885
197	0xbe0958b9	-0.13412751
198	0xbb59a54a	-0.0033210092
199	0xbcb54aaf	-0.022130338
200	0xbc65813f	-0.014007865
201	0x3db379b6	0.08763449
202	0x3e4de98a	0.2010862
203	0xbe34c3ce	-0.17652819
204	0xbd2a3e33	-0.041563224
205	0xbddea56e	-0.10871397
206	0x3d8c3946	0.068468615
207	0x3e1241b7	0.1428288
208	0xbd4b311f	-0.049607392
209	0xbd90a070	-0.07061851
210	0xbdd6c27e	-0.10486315
211	0xbdd9fb7c	-0.1064367
212	0x3e7d041e	0.24708602
213	0x3c09c07e	0.00840771
214	0x3da5bd52	0.080927506
215	0xbdc19609	-0.09452445
216	0x3da162fe	0.078802094
217	0x3c66cbde	0.014086692
218	0xbd8b6ed8	-0.06808251
219	0xbd1dee36	-0.038557254
220	0xbefc6767	-0.4929764
221	0x3e17fd4b	0.14842717
222	0x3d234ab6	0.03986617
223	0xbdc0f492	-0.09421648
224	0x3da16ae7	0.07881718
225	0x3e37cec3	0.17949967
226	0x3d9695f6	0.073528215
227	0x3e377c66	0.17918548
228	0x3e1bea75	0.15226157
229	0xbe4e638d	-0.20155163
230	0x3bb65fdf	0.005565628
231	0xbd82307c	-0.06356904
232	0xbc1691bf	-0.009190022
233	0xbd95b0d4	-0.07309118
234	0xbdb8a306	-0.09015469
235	0xbdaba01b	-0.08380147
236	0xbe08ef4e	-0.13372537
237	0xbc6f2917	-0.014597199
238	0xba2484d2	-0.0006275895
239	0xbdfefec1	-0.12450934
240	0xbe11974f	-0.14217876
241	0xbc96f6d9	-0.018428253
242	0xbe7ae135	-0.24499972
243	0xbdae6fba	-0.08517404
244	0x3d13e08e	0.036102824
245	0x3cc6eddb	0.02428334
246	0xbcb633f1	-0.022241564
247	0x3a3cb169	0.0007198067
248	0x3c1e9e09	0.009681233
249	0x3d89fb0a	0.06737335
250	0xbd666a01	-0.056253437
251	0x3ce79f56	0.02827422
252	0xbd86f0db	-0.06588908
253	0xbe8291b9	-0.25501803
254	0xbe49ff3c	-0.1972627
255	0xbd7541bc	-0.059877142

fc2.bias f4 [84]
0	0x3e854d26	0.26035422
1	0x3d8f5386	0.06998353
2	0x3e0999f5	0.13437636
3	0x3c298bda	0.010348285
4	0x3e960f73	0.29308662
5	0x3e2eb8a7	0.17062627
6	0xbe548321	-0.20753147
7	0xbd9a8090	-0.075440526
8	0x3de2f6d5	0.11082236
9	0xbcbce285	-0.023057232
10	0x3e73a998	0.23795164
11	0x3e990b4a	0.29891425
12	0xbdfbb680	-0.122906685
13	0xbe13c79b	-0.14431612
14	0xbde25455	-0.11051241
15	0x3d5d6a2c	0.05405633
16	0x3d1c14a1	0.03810561
17	0x3e1b84b8	0.15187347
18	0xbdbf314f	-0.09335577
19	0xbd936ad5	-0.07198111
20	0xbe269c6e	-0.1627061
21	0xbd8b8d8b	-0.068141066
22	0x3d7a5704	0.06111814
23	0x3e8dc922	0.27692515
24	0x3e6a9a29	0.2291037
25	0x3e74f01c	0.2391972
26	0x3e82f16b	0.25574812
27	0xbe056029	-0.13024963
28	0x3cd8e290	0.02647522
29	0xbe662c14	-0.22477752
30	0xbe177b4a	-0.14793125
31	0x3dc8740a	0.09787758
32	0x3d63571e	0.055503003
33	0x3cad5d51	0.02116266
34	0x3e8dc02a	0.27685672
35	0x3e37d295	0.17951424
36	0xbddd1d53	-0.10796609
37	0xbe345c0d	-0.1761324
38	0x3d69b171	0.057053987
39	0x3e265e87	0.16246997
40	0x3a6a2777	0.00089322723
41	0x3db8b6e2	0.09019257
42	0x3e342e3b	0.1759576
43	0x3e06f0df	0.13177823
44	0x3e667e97	0.22509228
45	0xbe00422c	-0.12525243
46	0x3d360fbc	0.0444486
47	0x3e610dbf	0.219779
48	0xbdb6cbf8	-0.08925623
49	0xbbb206c7	-0.005432937
50	0xbe145265	-0.14484556
51	0xbd9bd13f	-0.0760827
52	0x3c85e226	0.016343188
53	0xbe070f77	-0.13189493
54	0x3e8179da	0.25288278
55	0xbbf88f8f	-0.007585473
56	0x3e424e24	0.18975121
57	0x3e641c43	0.22276406
58	0xbdca06f4	-0.098646075
59	0x3d5b23fb	0.05350111
60	0xbde51b92	-0.11186899
61	0x3e383e34	0.17992479
62	0x3e4f9842	0.20272925
63	0xbe04b3d5	-0.12959225
64	0x3e0ac655	0.1355222
65	0x3db552f2	0.08853711
66	0x3d1be86a	0.038063444
67	0xbdab62c9	-0.08368451
68	0x3da1b841	0.07896472
69	0x3e04be04	0.1296311
70	0x3e495e16	0.19664797
71	0xbe3a210f	-0.18176673
72	0xbde93db6	-0.113887236
73	0x3d16fc4e	0.03686171
74	0x3e5c64c7	0.21522819
75	0x3dd7ec0c	0.10543069
76	0x3de310b8	0.11087173
77	0xbd1e6e11	-0.038679186
78	0x3e29ba50	0.16574979
79	0x3d900671	0.070324786
80	0xbdb161e3	-0.086612485
81	0x3cec9cfe	0.028883453
82	0xbe2e0948	-0.16995728
83	0x3e153de4	0.1457439

fc3.weight f4 [10, 84]
0	0xbd962f1f	-0.073332064
1	0x3e43667a	0.1908206
2	0xbaf02faf	-0.0018324758
3	0x3ded8508	0.11597639
4	0xbdb97855	-0.09056155
5	0x3e316380	0.17323112
6	0x3cf6978e	0.030101564
7	0xbcd319f7	-0.025769217
8	0xbd0d9b37	-0.034571853
9	0xbd977238	-0.073948324
10	0x3e362745	0.17788418
11	0x3dc037d0	0.093856454
12	0xbc8e9816	-0.017406505
13	0xbd35e79d	-0.044410337
14	0x3e3fbcca	0.18724361
15	0x3ccdd88e	0.025127675
16	0x3bf3944d	0.0074334503
17	0xbe76de02	-0.24108127
18	0xbca6893f	-0.020329116
19	0xbd0f7e85	-0.035032768
20	0x3a0d4fee	0.00053906336
21	0x3ae22d0e	0.0017255859
22	0xbca3b2fa	-0.019982804
23	0xbe0dbf13	-0.1384242
24	0xbe180e3f	-0.14849184
25	0xbe1b2d1c	-0.15153927
26	0x3e0868b6	0.13321194
27	0x3cef5d6c	0.029219352
28	0xbf1d7133	-0.61500853
29	0x3b08b9bd	0.0020862662
30	0xbdb27dad	-0.08715377
31	0x3dcff934	0.101549536
32	0xbe4f12cb	-0.20222013
33	0xbe472808	-0.19448864
34	0x3def6361	0.11688877
35	0xbe3cb529	-0.18428482
36	0x3d8d6a72	0.069050685
37	0xbe222654	-0.15834934
38	0x3dc3f539	0.09568257
39	0x3dafad38	0.08577961
40	0x3d709e0b	0.05874447
41	0x3e13f891	0.1445029
42	0x3e10220c	0.14075488
43	0xbebf9abe	-0.37422746
44	0xbc4f9bb8	-0.012671404
45	0xbd36e0b6	-0.044647895
46	0x3d862b9b	0.06551286
47	0xbdc8b04d	-0.09799252
48	0xbdf4e8e1	-0.119584806
49	0x3d26faf3	0.040766668
50	0xbde9bb71	-0.11412705
51	0x3b57497e	0.0032850201
52	0xbea75f96	-0.32690114
53	0xbb5e5686	-0.0033926084
54	0xbe228244	-0.15870005
55	0x3d5955bd	0.053060282
56	0x3d71afa8	0.05900541
57	0x3e1792c0	0.14802074
58	0x3adce5d5	0.0016853163
59	0x3b1f6f9c	0.0024328
60	0x3d1e430c	0.03863816
61	0xbdc00ccb	-0.0937744
62	0x3ddd72a8	0.108128846
63	0xbc4d18b2	-0.012518095
64	0x3e78ebc4	0.24308687
65	0x3e0d4b62	0.13798288
66	0xbd33d9c5	-0.043908853
67	0x3d5e904d	0.054336835
68	0xbe85862d	-0.2607893
69	0xbe49154a	-0.19637027
70	0xbe49d9b7	-0.19711958
71	0xbdc7ee68	-0.09762269
72	0xbd2a0011	-0.04150397
73	0xbd9c7d48	-0.07641083
74	0xbe282b9a	-0.16422883
75	0xbd9f99f7	-0.07793038
76	0xbea44220	-0.320817
77	0xbdc63fed	-0.096801616
78	0xbe6f23eb	-0.23353545
79	0xbebba12d	-0.36646405
80	0xbdddadc9	-0.108241625
81	0x3e328755	0.17434438
82	0xbbcb7c53	-0.006209889
83	0x3dae75d6	0.08518569
84	0x3ef48dfa	0.4776457
85	0xbe4adb3f	-0.19810198
86	0xbe559cb2	-0.20860556
87	0x3e35085b	0.17678969
88	0xbd974ecb	-0.073880754
89	0xbf061e0c	-0.523896
90	0xbef3aebf	-0.47594258
91	0xbe1a750b	-0.15083711
92	0xbe1b588b	-0.15170495
93	0x3d8e0b85	0.06935791
94	0xbe38541f	-0.1800084
95	0x3e0fc20c	0.14038867
96	0xbde5a933	-0.11213913
97	0xbd37c85c	-0.044868812
98	0xbdcd2d4a	-0.10018404
99	0x3d9f4252	0.077763215
100	0x3b7edf60	0.0038890466
101	0x3d373f2e	0.044737987
102	0xbde5bc01	-0.112174995
103	0xbe85a5d0	-0.26103067
104	0xbb1090e8	-0.0022059027
105	0x3e47d58a	0.19515052
106	0x3ec54ff5	0.38537565
107	0xbeab1d48	-0.33420777
108	0xbe96a8a4	-0.29425538
109	0xbe3787c0	-0.17922878
110	0xbea9f287	-0.33192846
111	0xbd67f7fa	-0.056632973
112	0xbebc8f3a	-0.36828023
113	0xbe1cdb95	-0.15318139
114	0xbc77afdb	-0.015117611
115	0x3d151a7d	0.036402214
116	0xbea2a4ca	-0.3176635
117	0xbea94be9	-0.33065727
118	0xbe852abb	-0.26009163
119	0x3da39aae	0.07988487
120	0xbdc2e430	-0.095161796
121	0xbe02a0d7	-0.12756668
122	0x3e4507cd	0.19241257
123	0xbdde2ed5	-0.10848776
124	0x3df087e8	0.11744672
125	0x3dc178b0	0.094468474
126	0xbde3809a	-0.11108513
127	0xbd7587aa	-0.059943832
128	0xbeb877a6	-0.36028785
129	0xbe699baf	-0.22813295
130	0xbe6e13d4	-0.23249751
131	0xbf13c2e5	-0.5771926
132	0x3e3b0554	0.18263751
133	0x3e023c3b	0.12718289
134	0x39129950	0.00013980758
135	0x3c9099eb	0.017651519
136	0x3d150a38	0.0363867
137	0x3d0f504e	0.034988694
138	0xbba7c168	-0.0051194914
139	0x3dc983d4	0.09839597
140	0x3cea8822	0.028629366
141	0xbeb3cf1e	-0.35118955
142	0xbe195aee	-0.14976093
143	0xbe3738f8	-0.17892826
144	0xbe9dfa29	-0.3085492
145	0xbe29f379	-0.16596784
146	0xbe9923b8	-0.29910064
147	0xbe076c40	-0.13224888
148	0xbec8e8e1	-0.39240173
149	0xbea7aee8	-0.3275063
150	0x3e265f70	0.16247344
151	0xbdb85ef5	-0.090024866
152	0xbef4c989	-0.4781001
153	0xbd578967	-0.05262127
154	0xbb9e6d40	-0.004834801
155	0xbe53c8c0	-0.20682049
156	0xbdb2655c	-0.08710739
157	0x3e476594	0.19472343
158	0x3de50b5d	0.11183808
159	0x3e70fb25	0.23533304
160	0x3e01ce8d	0.12676449
161	0xbcea6772	-0.02861378
162	0xbdcebc16	-0.10094468
163	0xbc74c77d	-0.01494014
164	0xbd31c9ba	-0.043405272
165	0xbe4dc16f	-0.2009332
166	0xb977a9a4	-0.00023618952
167	0xbe321c10	-0.17393517
168	0xbd4f0df4	-0.050550416
169	0xbea7b338	-0.3275392
170	0xbd8a5fcd	-0.06756554
171	0xbe295932	-0.16537932
172	0x3de39095	0.11111561
173	0x3e005050	0.12530637
174	0xbed8dc09	-0.42355374
175	0x3d9d6dd4	0.07686964
176	0xbe97240b	-0.29519686
177	0xbeacef96	-0.3377654
178	0x3e5d413b	0.21606915
179	0xbf0d897b	-0.55287904
180	0xbe4c310e	-0.19940588
181	0xbe2155b1	-0.15755345
182	0x3d2dfd1f	0.042477723
183	0x3e28d7f4	0.1648863
184	0xbe725851	-0.23666503
185	0x3dbf5270	0.093418956
186	0xba9c4508	-0.0011922428
187	0x3d8b3577	0.06797307
188	0xbc874f0b	-0.016517183
189	0xbea372cc	-0.3192352
190	0xbc815cba	-0.015791286
191	0xbceba99e	-0.028767403
192	0x3e005bcd	0.12535019
193	0xbd89c0da	-0.06726237
194	0x3ca7bd1b	0.020475915
195	0x3d74ef94	0.059798792
196	0x3bcc29d4	0.0062305722
197	0x3ef731fd	0.48280326
198	0x3d8bdf99	0.06829757
199	0x3cf819bf	0.030285714
200	0xbdbd2371	-0.092352755
201	0x3e2a9972	0.16660097
202	0x3d7c225e	0.061556213
203	0x3d571a41	0.052515272
204	0xbd600b2f	-0.054698166
205	0x3c8a64c0	0.016893744
206	0xbe32aeb4	-0.17449456
207	0xbe3aa1d4	-0.18225795
208	0x3dcfdda2	0.10149695
209	0xbe0d381c	-0.13790935
210	0xbe32b08e	-0.17450163
211	0x3d5a25da	0.053258754
212	0x3d6c63b7	0.057712283
213	0xbde82ce1	-0.11336685
214	0x3e211fb0	0.15734744
215	0xbd98264c	-0.074291795
216	0xbd9a395c	-0.07530472
217	0xbe97674b	-0.29570994
218	0xbd75c64a	-0.060003556
219	0x3b871b9f	0.0041231657
220	0xbe31e505	-0.1737252
221	0xbe0abb11	-0.13547923
222	0xbd98ceb5	-0.07461301
223	0x3e1e1bc7	0.15440284
224	0x3dc5533b	0.096350156
225	0x3df2f266	0.1186264
226	0xbc5c3de5	-0.013442491
227	0xbdcf2268	-0.10113984
228	0xbe2e5380	-0.1702404
229	0x3ddbea49	0.10738046
230	0xbe82e970	-0.25568724
231	0xbe10649b	-0.14100878
232	0xbbbf0bb7	-0.005830254
233	0x3e583ac5	0.21116169
234	0xbd8d24a4	-0.06891754
235	0xbdf4d29b	-0.11954232
236	0xbce647d0	-0.028110415
237	0xbdc42dab	-0.09579023
238	0xbe03bc56	-0.12864813
239	0x3c43cce2	0.011950703
240	0xbdb1ee3c	-0.08688018
241	0xbe984e61	-0.29747298
242	0xbcd48e86	-0.025946867
243	0xbe825fd2	-0.2546373
244	0x3d28c9c9	0.041208062
245	0x3ca6e44f	0.020372538
246	0xbe13e8db	-0.14444296
247	0xbe268797	-0.16262661
248	0xbda4f941	-0.08055354
249	0x3d58f96b	0.05297224
250	0xbe0e2f9e	-0.13885352
251	0xbdb09ba8	-0.08623439
252	0xbe07061e	-0.13185927
253	0x3cde1fcc	0.027114771
254	0xbec10aa3	-0.37703428
255	0xbe197cf0	-0.14989066

fc3.bias f4 [10]
0	0xbdf75aa3	-0.120778345
1	0xbe8b806f	-0.27246425
2	0xbd3eda8a	-0.046595134
3	0x3db1057b	0.086436234
4	0xbe331631	-0.17488934
5	0xbb989191	-0.0046560247
6	0x3e18a015	0.14904816
7	0x3d0be5e7	0.0341548
8	0x3dc7947f	0.0974512
9	0xbdee9571	-0.116495974
