HW1_Split_nb/checkpoints/model_dropout_5.pt (torch, 250600 bytes, 10 tensors)

conv1.weight f4 [6, 1, 5, 5]
0	0x3e917151	0.28406766
1	0x3e7556f5	0.23958953
2	0x3ea2822b	0.31739935
3	0xbd8d23d3	-0.068915986
4	0xbdd0e55d	-0.101999976
5	0xbd2a3525	-0.04155459
6	0xbc8d4559	-0.017244982
7	0x3e7f9af7	0.24961458
8	0x3d629676	0.055319272
9	0xbdb531fc	-0.088474244
10	0xbe434d2b	-0.19072406
11	0xbe7245e3	-0.23659472
12	0x3e88692d	0.26642743
13	0xbc8cb5d6	-0.01717655
14	0x3e5fc525	0.21852548
15	0xbee51f1a	-0.4475029
16	0xbeb5e854	-0.35528815
17	0x3d916847	0.070999674
18	0x3cf834ed	0.030298674
19	0x3d8fd795	0.07023541
20	0xbe9ede03	-0.31028756
21	0xbe280e3b	-0.16411678
22	0x3ea7ad37	0.3274934
23	0xbd0aa199	-0.033845518
24	0xbd5206f9	-0.05127618
25	0x3ed41a25	0.41426197
26	0xb84d27d7	-4.8912912e-05
27	0xbe731cf7	-0.23741518
28	0xbdf74434	-0.120735556
29	0xbe1a8ee1	-0.15093566
30	0x3e829a5a	0.25508386
31	0xbdc53fd2	-0.096313134
32	0xbe9bf43f	-0.30459782
33	0x3ddc8e14	0.10769287
34	0x3e25897e	0.1616573
35	0xbe22b4e4	-0.15889317
36	0xbea097e3	-0.3136588
37	0xbe004601	-0.12526704
38	0x3e4d6267	0.20057069
39	0x3e950d1e	0.2911157
40	0xbdefa2ed	-0.117009975
41	0xbedae289	-0.42750958
42	0xbe5357f9	-0.20639028
43	0x3ed0be9a	0.40770417
44	0x3eaa9ef3	0.33324394
45	0xbd87ca0b	-0.066303335
46	0xbea33541	-0.31876567
47	0xbc2e93df	-0.010655372
48	0x3dd9ef91	0.10641397
49	0x3e075edd	0.13219781
50	0xbcaeec28	-0.021352842
51	0xbe983966	-0.29731292
52	0xbf5ec774	-0.8702309
53	0xbe7d03ed	-0.24708529
54	0xbe98c2fb	-0.29836258
55	0xbf6fcad0	-0.9366884
56	0xbfe29994	-1.7703118
57	0xbfe5854a	-1.7931302
58	0xbebc44f8	-0.3677137
59	0x3e1f60c2	0.15564254
60	0xbe3bb550	-0.18330884
61	0xbfc70f19	-1.5551482
62	0xbf9e0e33	-1.2348083
63	0x3c61ea94	0.013788838
64	0x3e0d1219	0.13776435
65	0x3e2ea22c	0.17054051
66	0xbe4b760d	-0.19869252
67	0xbdb39c8d	-0.08770094
68	0xbd29b3ea	-0.041431345
69	0x3e382f81	0.17986871
70	0x3f0a800d	0.5410164
71	0x3e877016	0.26452702
72	0x3e29eeb6	0.16594967
73	0xbd9f2ae7	-0.07771855
74	0x3e9786bf	0.2959499
75	0xbe91af4d	-0.28454056
76	0x3db7bf9c	0.089720935
77	0xbe1dad55	-0.15398152
78	0x3de2b50f	0.110696904
79	0x3e141b4d	0.1446354
80	0xbdf0533c	-0.11734626
81	0xbe4360ef	-0.19079946
82	0xbd9984be	-0.07496022
83	0x3e724eec	0.23662919
84	0x3cacc8be	0.021091815
85	0xbde509ef	-0.11183535
86	0xbe6fd93f	-0.23422717
87	0x3bc845b5	0.0061118254
88	0x3d9a5a28	0.07536727
89	0x3e572843	0.21011452
90	0xbdbc3e99	-0.09191627
91	0x3e151bc1	0.14561369
92	0x3d121183	0.03566123
93	0x3e8da153	0.27662143
94	0x3e00db17	0.12583576
95	0x3dc74517	0.09729975
96	0xbdf133ff	-0.117774956
97	0x3c9bd5fc	0.019022934
98	0xbd087c57	-0.033321705
99	0x3e437550	0.1908772
100	0x3db1de80	0.08685017
101	0x3e085f44	0.13317591
102	0xbe3f4bb2	-0.18681219
103	0x3d7f04cb	0.06226043
104	0x3d96550c	0.0734044
105	0x3d8ee9f0	0.06978214
106	0xbd152558	-0.036412567
107	0x3e1e4600	0.1545639
108	0x3dc19974	0.09453097
109	0x3e2b7b75	0.16746314
110	0x3e60e24a	0.21961322
111	0x3e91ff1b	0.28514943
112	0xbd10f792	-0.03539235
113	0x3e193f9e	0.14965674
114	0xbe356818	-0.1771549
115	0x3d77fc1e	0.060543172
116	0xb97432a0	-0.00023288513
117	0xbd92249e	-0.071358904
118	0xbe243eca	-0.16039577
119	0xbd0ef723	-0.034903657
120	0xbe8a2330	-0.2697997
121	0xbd150c12	-0.036388464
122	0xbe97638d	-0.2956814
123	0xbd1a38e5	-0.037651915
124	0xbd4c4daa	-0.049878754
125	0xbe55a9f0	-0.20865607
126	0x3d371c5e	0.044704787
127	0xbe059746	-0.13045987
128	0x3e69ad93	0.2282012
129	0x3d4bdd55	0.049771626
130	0xbc28c090	-0.010299817
131	0xbd8652db	-0.06558772
132	0x3dfde6ba	0.12397523
133	0x3e5ff637	0.21871267
134	0xbd85d95d	-0.065355994
135	0xbcf8ca34	-0.030369855
136	0xbe1930ef	-0.14960073
137	0xbc365b1d	-0.011130122
138	0x3e522380	0.20521355
139	0xbe0855d3	-0.1331399
140	0xbe5d5f0e	-0.21618292
141	0xbe16c5f1	-0.14723946
142	0x3dddd873	0.108323
143	0x3e8f1ff5	0.2795407
144	0x3c478ab4	0.0121790655
145	0xbe2de446	-0.1698161
146	0x3d810597	0.06299894
147	0x3e331f20	0.17492342
148	0x3c9ba24d	0.01899829
149	0x3dcf3273	0.10117044

conv1.bias f4 [6]
0	0xbd4426e5	-0.047888655
1	0x3d7d3557	0.061818447
2	0x3eaa8769	0.33306435
3	0xbe134814	-0.14382964
4	0xbe1d48ff	-0.15359877
5	0x3ddc29cc	0.107501596

conv2.weight f4 [16, 6, 5, 5]
0	0x3c9c9d9f	0.019118128
1	0xbe921052	-0.28528076
2	0xbf0d6eaa	-0.55246985
3	0xbefd22dc	-0.49440658
4	0x3f229b71	0.63518435
5	0x3a07f156	0.0005185803
6	0xbcda3afc	-0.026639454
7	0xbeca62ea	-0.3952859
8	0xbf044e1d	-0.5168169
9	0x3d3c9fe0	0.046050906
10	0xbdf00811	-0.117202885
11	0x3dac1c4d	0.084038354
12	0xbdbf29a4	-0.09334114
13	0xbf18ba97	-0.59659714
14	0xbe0bf773	-0.13668613
15	0xbcce87e8	-0.02521129
16	0x3e207736	0.15670475
17	0xbe332761	-0.1749549
18	0xbf71ef2f	-0.9450559
19	0xbf2c74e0	-0.6736584
20	0xbc96153b	-0.01832067
21	0x3eca354b	0.39493784
22	0x3e9eac10	0.30990648
23	0xbd83b1b9	-0.06430382
24	0xbdd93dc0	-0.10607481
25	0x3dee56a6	0.11637621
26	0x3da89213	0.082309864
27	0x3e5a1be3	0.212997
28	0xbd16cccd	-0.036816407
29	0x3d56785f	0.05236089
30	0xbd6101b2	-0.054933257
31	0x3ddb573e	0.107099995
32	0xbd9b3d31	-0.07580031
33	0x3da1de15	0.07903687
34	0xbc452960	-0.01203379
35	0x3cab0ea3	0.020881003
36	0x3d8d3096	0.06894033
37	0xbe39496e	-0.18094417
38	0xbe27cf14	-0.16387588
39	0x3d9ae1c1	0.075625904
40	0x3cf62420	0.030046523
41	0x3e1fa4ae	0.15590164
42	0xbda90822	-0.08253504
43	0xbf41925a	-0.7561394
44	0xbec7b1fe	-0.39002985
45	0xbd925ca5	-0.07146577
46	0x3e70b95c	0.23508209
47	0xbdc63aea	-0.09679206
48	0xbf741931	-0.9535094
49	0xbf45d2f7	-0.7727503
50	0x3cd597f5	0.026073435
51	0x3e9db632	0.30803066
52	0xbd3d7e72	-0.046263166
53	0xbe4cd9c3	-0.20004945
54	0x3e33c2fc	0.1755485
55	0xbe2ac9d9	-0.16678561
56	0x3deb20dc	0.11480877
57	0xbeac359e	-0.33634657
58	0xbf5b2085	-0.85596496
59	0xbf27dc4c	-0.6557052
60	0xbeb12216	-0.34596318
61	0xbe8cc5af	-0.2749457
62	0xbe27a1ab	-0.16370265
63	0xbe67e8aa	-0.22647348
64	0xbf164c0b	-0.5870978
65	0xbeced01d	-0.40393153
66	0xbe815c4c	-0.2526573
67	0x3e6a59f2	0.22885874
68	0xbd003661	-0.03130186
69	0xbf07fe9c	-0.5312288
70	0xbedd74e9	-0.43253258
71	0xbe7496ad	-0.23885603
72	0xbe199e68	-0.15001833
73	0xbe26d668	-0.16292727
74	0xbf23331a	-0.6374985
75	0x3de3b5c2	0.11118652
76	0xbe521983	-0.20517544
77	0xbe62dc62	-0.22154382
78	0xbdbc6b54	-0.09200159
79	0xbe5ee356	-0.2176641
80	0x3e3831ab	0.17987697
81	0xbc6104ad	-0.013734025
82	0xbc820381	-0.015870811
83	0xbe804d97	-0.25059196
84	0xbde5fec5	-0.11230234
85	0x3cf6bbaa	0.030118782
86	0x3e31ae3d	0.17351623
87	0x3c7b3736	0.0153329875
88	0xbe309382	-0.1724377
89	0xbe158bf6	-0.14604172
90	0x3d3595c8	0.044332296
91	0x3e0976fd	0.13424297
92	0x3e46b81b	0.19406168
93	0xbe05a0f7	-0.13049684
94	0xbe07d78b	-0.13265817
95	0xbe5f722a	-0.21820894
96	0x3df9d207	0.12198263
97	0x3e56ff65	0.20995863
98	0xbe61435f	-0.21998356
99	0xbe57f9e3	-0.21091418
100	0xbdc92837	-0.098221235
101	0x3add0fe6	0.00168657
102	0xbddb5e2c	-0.10711321
103	0xbe7e5a3a	-0.24839106
104	0xbe844727	-0.25835535
105	0x3cff5589	0.031168716
106	0xbc2945f9	-0.010331624
107	0x3d34f444	0.044178262
108	0xbdd93105	-0.10605053
109	0xbda3192e	-0.07963787
110	0xbd9f1022	-0.07766749
111	0x3d894feb	0.06704696
112	0x3dcfaab8	0.10139984
113	0xbdba2854	-0.09089723
114	0xbbd68c36	-0.006547476
115	0xbe003576	-0.12520394
116	0x3c8634d8	0.01638262
117	0xbceeb04b	-0.029136797
118	0xbd9d4db0	-0.07680833
119	0x3dec1402	0.11527254
120	0xbe62963b	-0.22127621
121	0xbdf6a98d	-0.12044058
122	0x3d786cc6	0.06065061
123	0x3e81a6b2	0.2532249
124	0x3e4eef64	0.20208508
125	0x3d8f5ed8	0.07000512
126	0xbd7dad12	-0.06193263
127	0xbd95b817	-0.07310503
128	0xbd9de902	-0.07710458
129	0xbe42b7df	-0.19015454
130	0x3ddb94a9	0.10721714
131	0x3d9a1e15	0.07525269
132	0x3db40c06	0.08791356
133	0xbc40bfaf	-0.011764451
134	0xbdc08497	-0.094002895
135	0x3d76f6e0	0.060294032
136	0x3e03c98f	0.12869857
137	0x3db9f9b4	0.0908083
138	0xbdb2920c	-0.087192625
139	0xbc83e3b7	-0.016099794
140	0xbbdcd5f6	-0.0067393733
141	0x3dadd24c	0.084873766
142	0x3e1aae17	0.15105473
143	0xbdd034b1	-0.101663
144	0xbbbedd34	-0.0058247093
145	0xbe278f75	-0.16363318
146	0x3e1276b2	0.14303091
147	0x3e0a211b	0.13489191
148	0xbd7585ab	-0.05994193
149	0xbdfb76c4	-0.12278512
150	0xbe815902	-0.2526322
151	0x3d2fee74	0.042952016
152	0xbe98b377	-0.2982442
153	0xbd91d749	-0.071211405
154	0x3d09f99c	0.03368531
155	0xbdce7be3	-0.10082223
156	0x3dd965ae	0.10615097
157	0xbe09e2f9	-0.1346549
158	0xbe8c8030	-0.2744155
159	0xbd1af74a	-0.03783349
160	0xbd04e6fa	-0.03244684
161	0x3d75c47e	0.060001843
162	0x3e765104	0.24054343
163	0x3d3ff52c	0.046864673
164	0x3e2194f2	0.15779474
165	0xbe686da1	-0.2269807
166	0x3d9e2a2c	0.077228874
167	0x3e9e7c35	0.30954137
168	0x3e34cb65	0.17655714
169	0x3eb9817e	0.36231607
170	0xbe8502f5	-0.2597882
171	0x3e604bfb	0.21903984
172	0x3e7be438	0.24598777
173	0x3e119bc8	0.14219582
174	0x3e68f018	0.22747838
175	0x3ea3455b	0.31888852
176	0xbcb790ec	-0.022407971
177	0xbe82347c	-0.25430667
178	0x3dce0d4e	0.100611314
179	0xbd4e9638	-0.05043623
180	0x3e18216e	0.14856502
181	0xbdf3cdb4	-0.11904469
182	0xbe2714d7	-0.16316544
183	0xbc654f59	-0.013995969
184	0x3ddff165	0.10934714
185	0xbb8fea9a	-0.0043919804
186	0xbe6fac0d	-0.23405476
187	0xbd29b0c8	-0.041428357
188	0x3d218a9b	0.039438825
189	0x3e5ea744	0.21743494
190	0xbeb2a113	-0.34888515
191	0xbd91dbad	-0.07121978
192	0x3ce962f0	0.02848956
193	0x3de3e7c7	0.111281924
194	0x3e3afe6c	0.18261117
195	0xbf2537d9	-0.6453834
196	0x3dd17472	0.10227288
197	0xbc9e9949	-0.019360201
198	0x3e62503a	0.22100917
199	0x3e5cc341	0.21558858
200	0xbdfedd1e	-0.124445185
201	0xbe76f989	-0.24118628
202	0x3e179df7	0.14806353
203	0x3e5b8470	0.2143724
204	0xbd51d4e2	-0.05122841
205	0xbebb36a9	-0.3656514
206	0xbec481bf	-0.38380238
207	0x3e0976cc	0.13424224
208	0x3d4b7390	0.049670756
209	0xbf46701b	-0.7751481
210	0xbf07d275	-0.53055507
211	0xbf050ca9	-0.5197244
212	0xbf03318a	-0.51247466
213	0xbeaff9f2	-0.3437038
214	0xbf510183	-0.8164293
215	0xbe6acc96	-0.22929606
216	0x3d3f0266	0.046633147
217	0xbdb3dad2	-0.08781971
218	0xbd7ee041	-0.062225584
219	0xbef9df91	-0.4880338
220	0x3e171641	0.14754583
221	0x3e9ecdd0	0.31016397
222	0x3d4f9c05	0.0506859
223	0xbe16f1a7	-0.1474062
224	0xbf094804	-0.5362551
225	0x3e16d1d0	0.14728475
226	0x3d3b5a9d	0.045740712
227	0xbe59d515	-0.2127269
228	0xbe128cd8	-0.1431154
229	0xbe7612af	-0.24030565
230	0x3e222529	0.15834488
231	0xbd457589	-0.048207793
232	0xbdff4324	-0.12463978
233	0x3d209bf2	0.03921122
234	0xbe4066f3	-0.18789272
235	0x3e158e7c	0.14605135
236	0x3d6764a7	0.056492474
237	0xbe15111c	-0.14557308
238	0x3b8970e6	0.0041943667
239	0xbccd1191	-0.02503279
240	0xbd71434e	-0.058902077
241	0xbd82fdf5	-0.06396095
242	0x3d4151ed	0.04719727
243	0x3d247fca	0.04016093
244	0xbd5bd075	-0.053665597
245	0xbe2fa285	-0.1715184
246	0x3d2a3b7c	0.041560635
247	0x3dcae2d7	0.099065475
248	0x3cfbe94f	0.030750899
249	0x3db9d999	0.090747066
250	0xbca9c0e6	-0.020721864
251	0xbd2fb3d6	-0.042896114
252	0x3b468487	0.0030291395
253	0xbe02fa56	-0.12790808
254	0xbe23cfb5	-0.15997203
255	0x3d4d8116	0.050171934

conv2.bias f4 [16]
0	0x3e21eeec	0.15813798
1	0x3dd4c9c3	0.103900455
2	0xbcca4bba	-0.024694312
3	0xbdc8a6ce	-0.097974405
4	0x3e906891	0.28204778
5	0xbc13ce60	-0.009021372
6	0x3ddd711b	0.10812589
7	0xbd224210	-0.039613783
8	0xbd693017	-0.056930628
9	0xbd3e9910	-0.04653269
10	0x3d0a7112	0.03379924
11	0x3de06367	0.109564595
12	0x3e84f7bb	0.25970253
13	0xbda502e5	-0.08057193
14	0x3d7f311a	0.062302686
15	0x3e36617c	0.17810625

fc1.weight f4 [120, 400]
0	0xbe0b4d94	-0.13603812
1	0x3d3100d8	0.043213695
2	0x3e04df35	0.12975772
3	0xbe80177c	-0.25017917
4	0x3dee2be5	0.11629466
5	0xbe11254a	-0.14174381
6	0xbee00217	-0.43751594
7	0xbd752b5b	-0.0598558
8	0xbea0014b	-0.31250986
9	0xbd2bc749	-0.0419381
10	0xbd82653b	-0.063669644
11	0xbdb58b29	-0.08864433
12	0xbda646e5	-0.08118991
13	0xbe678c7f	-0.22612189
14	0xbdea49d4	-0.11439863
15	0xbdcfaabf	-0.10139989
16	0xbd23a9e0	-0.039956927
17	0xbd4480a7	-0.047974255
18	0xbd07a2f0	-0.033114374
19	0x3da16658	0.07880849
20	0x3e25b205	0.1618119
21	0xbcd32c75	-0.025778035
22	0xbc3f63b4	-0.011681486
23	0x3e0a966e	0.13533947
24	0x3e45e1da	0.19324437
25	0x3e17aeb5	0.14812739
26	0x3dbb9267	0.091587834
27	0xbe973d95	-0.2953917
28	0xbe01ada5	-0.12663896
29	0xbd1f4ade	-0.03888976
30	0xbd878676	-0.06617443
31	0x3d5b2a06	0.053506874
32	0xbde488c9	-0.11158902
33	0xbe139ae9	-0.14414562
34	0x3b953f23	0.0045546456
35	0xbe1e27d5	-0.15444882
36	0xbe38db08	-0.18052304
37	0x3e20e609	0.15712751
38	0xbcbffb93	-0.02343539
39	0x3df342e3	0.11877992
40	0x3c06f20f	0.008236422
41	0xbd97f27d	-0.07419298
42	0x3e2590d7	0.16168533
43	0x3ddfbee6	0.10925083
44	0xbcf24fd8	-0.029579088
45	0x3dd4bab5	0.10387174
46	0x3dfdcae5	0.12392215
47	0x3d2a9034	0.04164143
48	0x3d96194d	0.073290445
49	0x3ca758c4	0.020428069
50	0xbe207cc1	-0.1567259
51	0x3e195ee7	0.14977609
52	0x3d1488df	0.036263343
53	0x3e716a0f	0.23575614
54	0x3d628a4c	0.05530767
55	0xbdbc37b6	-0.091903135
56	0xbe7dabb0	-0.24772525
57	0x3da60916	0.08107202
58	0x3db43546	0.087992236
59	0x3d04df86	0.03243973
60	0xbe6e9744	-0.23299891
61	0xbe4fb729	-0.20284714
62	0xbd99e31e	-0.07514022
63	0xbf099e17	-0.5375685
64	0xbda49ade	-0.08037351
65	0xbd94ef7b	-0.0727224
66	0xbc04fa45	-0.0081163095
67	0xbc649a0d	-0.013952744
68	0xbe3ff97c	-0.18747514
69	0xbdbd4e99	-0.09243507
70	0xbd1eaec0	-0.038740873
71	0xbe022e0b	-0.12712876
72	0xbe64e57b	-0.22353165
73	0xbe318e14	-0.17339355
74	0xbd5d1b85	-0.053981323
75	0xbd06795b	-0.032830577
76	0x3e2df297	0.16987072
77	0x3e0e3afe	0.13889691
78	0x3d4649cf	0.048410233
79	0x3c928284	0.0178845
80	0x3e052a9a	0.13004532
81	0x3ebc2e2e	0.36753982
82	0x3df35f5a	0.11883421
83	0x3e6e7e04	0.23290259
84	0x3e33594f	0.17514537
85	0x3d0aaa63	0.0338539
86	0x3ecfb25a	0.4056576
87	0x3dff5e3e	0.12469147
88	0x3d5dc1a1	0.054139737
89	0x3e058b58	0.13041437
90	0xbdcc42b2	-0.099736586
91	0x3cc6b70d	0.024257207
92	0x3c2d3899	0.010572576
93	0xbd9266bd	-0.07148502
94	0xbdd660eb	-0.104677044
95	0xbd0c9bb7	-0.03432819
96	0xbde5739f	-0.112036936
97	0xbe8b1644	-0.27165425
98	0xbe00f1b2	-0.125922
99	0x3c3ee421	0.01165107
100	0x3bedf3da	0.0072617354
101	0xbdd7b387	-0.10532289
102	0x3df35750	0.11881888
103	0xbe1588e9	-0.14603008
104	0xbdcda8ed	-0.10041986
105	0xbe23386e	-0.15939495
106	0x3e3387be	0.1753225
107	0x3d8d3f69	0.0689686
108	0xbe5d848c	-0.21632594
109	0xbda95f75	-0.0827016
110	0xbe2e6f36	-0.17034611
111	0x3e916378	0.283962
112	0xbd1d9ec5	-0.038481493
113	0xbe508511	-0.20363261
114	0xbd86a492	-0.06574358
115	0x3df6fb65	0.120596685
116	0x3e835c9c	0.25656593
117	0x3ccd8a33	0.025090313
118	0x3d12e3dc	0.035861835
119	0xbcbba3a3	-0.022905177
120	0x3e127ce9	0.14305462
121	0x3c7e7f03	0.015533212
122	0xbe1adc49	-0.15123095
123	0xbe017635	-0.12642749
124	0xbdc51d72	-0.09624757
125	0xbea621cf	-0.3244767
126	0xbd0f7870	-0.035026968
127	0x3d6efd9e	0.058347337
128	0xbe7bd91b	-0.24594538
129	0x3c4dd5aa	0.0125631485
130	0xbe7e75e1	-0.24849655
131	0xbd4da024	-0.05020155
132	0xbd65e6f3	-0.056128453
133	0xbd78748e	-0.06065803
134	0x3c846098	0.01615934
135	0xbe8531ae	-0.26014465
136	0x3d3d9423	0.046283852
137	0x3e3ab1f6	0.18231949
138	0xbc1daf1b	-0.009624268
139	0xbdde5b11	-0.10857213
140	0xbd8c2408	-0.0684281
141	0x3e5499aa	0.20761743
142	0xbc60bcee	-0.013716919
143	0x3e263252	0.16230133
144	0xbde038fa	-0.109483674
145	0x3b7b7343	0.0038368262
146	0x3dbe478c	0.0929099
147	0x3df12444	0.11774495
148	0xbca8868c	-0.02057197
149	0x3e19d4f2	0.15022638
150	0xbe57a889	-0.21060385
151	0xbe8d7a29	-0.27632263
152	0x3d6deb3c	0.058085665
153	0xba32f9c1	-0.00068273774
154	0x3d92aa2c	0.07161364
155	0xbe49a9b3	-0.19693641
156	0xbe1bf8ad	-0.15231581
157	0x3c5ddc54	0.0135413
158	0xbe20bd63	-0.15697245
159	0x3e09f664	0.13472897
160	0xbd6495f8	-0.055807084
161	0x3e5a85d8	0.2134012
162	0xbe174c95	-0.14775307
163	0xbd7c9c16	-0.061672293
164	0xbda05036	-0.07827799
165	0x3e72992d	0.23691244
166	0x3e2af34a	0.1669437
167	0x3d3f0e1f	0.046644326
168	0xbe196474	-0.14979726
169	0x3c6e00f4	0.014526594
170	0x3e09aee6	0.13445625
171	0x3e1bf033	0.15228347
172	0x3ccb4db2	0.024817321
173	0xbde70e65	-0.112820424
174	0xbdd43d19	-0.10363216
175	0xbd8072df	-0.0627191
176	0xbe5ba8b9	-0.21451081
177	0x3bec9fe1	0.0072212075
178	0xbbc06611	-0.0058715423
179	0xbdeb7c14	-0.114982754
180	0xbe7fed91	-0.24992968
181	0x3d9b4dda	0.075832084
182	0x3d83f5f2	0.06443395
183	0x3e1464e6	0.14491615
184	0xbd4d68af	-0.050148662
185	0xbd00eabe	-0.031473868
186	0x3e147454	0.144975
187	0x3d24d9c3	0.040246736
188	0xbe9a423d	-0.3012866
189	0xbdac5942	-0.08415462
190	0x3df7bb33	0.12096252
191	0x3da0a72a	0.07844384
192	0xbd9042cb	-0.0704399
193	0xbdb596ec	-0.08866677
194	0xbe00d848	-0.12582505
195	0x3e629e7d	0.22130771
196	0xbac8e8b0	-0.0015328135
197	0x3cef0e1f	0.029181538
198	0xbd8d489e	-0.06898616
199	0x3da10c12	0.0786363
200	0xbd40f745	-0.047110815
201	0x3bbabc1d	0.0056986944
202	0x3d8411f8	0.0644874
203	0xbd02b4bc	-0.031910643
204	0xbd209468	-0.03920403
205	0x3dabdc73	0.08391657
206	0xbe2768e4	-0.16348606
207	0x3e40680d	0.18789692
208	0x3e09bbaa	0.13450494
209	0x3d348d9a	0.044080354
210	0x3e0affd8	0.13574159
211	0xbd62faf7	-0.05541512
212	0x3e380846	0.17971906
213	0x3d3e787c	0.04650162
214	0x3d912f06	0.07089047
215	0xbe3e493b	-0.18582623
216	0x3c43e53b	0.011956508
217	0x3b16fad0	0.002303768
218	0x3d2e98c8	0.042626172
219	0x3d888ae2	0.06667115
220	0xbe2ed0e5	-0.17071874
221	0x3b3bd2f4	0.0028659673
222	0xbe1482fb	-0.1450309
223	0xbd42b3ea	-0.04753486
224	0x3de0c718	0.10975474
225	0x3dea4f25	0.11440877
226	0x3c81aed5	0.015830437
227	0xbc35d728	-0.0110986605
228	0xbcd22284	-0.025651224
229	0x3e377801	0.17916872
230	0xbdbda734	-0.09260407
231	0xbc3ac81e	-0.011400251
232	0x3d7eb754	0.062186554
233	0xbd5fdc27	-0.054653313
234	0x3cc661af	0.024216501
235	0xbe219c6f	-0.15782331
236	0x3eaed60f	0.3414769
237	0x3e2fda5d	0.17173143
238	0xbe1bf9d5	-0.15232022
239	0x3cbf25bf	0.023333428
240	0xbcaf5d9e	-0.021406945
241	0x3e8319cd	0.25605622
242	0xbe17e288	-0.14832509
243	0x3caefed5	0.021361748
244	0xbd5aab76	-0.053386174
245	0x3dcf761f	0.10129952
246	0x3d4d995d	0.050195087
247	0xbd9d2d3a	-0.07674642
248	0xbe08def6	-0.13366303
249	0xbdcd543d	-0.10025833
250	0xbd582d2e	-0.05277746
251	0xbe73dae9	-0.23813976
252	0xbd069cca	-0.03286437
253	0x3e630d31	0.22173001
254	0xbd30ed00	-0.04319477
255	0xbe176adc	-0.14786857

fc1.bias f4 [120]
0	0x3d9f9ecf	0.07793962
1	0x3e311bc7	0.17295752
2	0xbcdd2c7c	-0.02699875
3	0xbd8dc308	-0.06921965
4	0xbd9bcb1b	-0.07607099
5	0x3e0ab849	0.13546862
6	0x3d769866	0.060203932
7	0xbd3209b8	-0.0434663
8	0x3d99bc14	0.07506576
9	0x3e0f15fd	0.13973232
10	0x3db7658f	0.08954918
11	0x3e0e69a2	0.13907483
12	0x3e243432	0.16035536
13	0x3dfddf21	0.12396074
14	0x3d74de3f	0.059782263
15	0x3e1a9979	0.15097608
16	0x3d6f88ad	0.058479954
17	0xbc316b9a	-0.010828877
18	0x3ea98a33	0.3311325
19	0x3df50a4b	0.11964854
20	0x3e2a34d7	0.1662172
21	0x3e3881b2	0.18018225
22	0xbd2078d9	-0.03917775
23	0x3e08ee36	0.1337212
24	0x3d34203d	0.043976057
25	0xbdb0d52d	-0.0863441
26	0xbbb6e3be	-0.005581348
27	0x3d224a4c	0.039621636
28	0xbd7a9c58	-0.061184257
29	0x3d3aeb89	0.04563478
30	0x3d6b8398	0.057498544
31	0x3e92b748	0.28655457
32	0x3d93cea5	0.07217149
33	0x3dd99f8d	0.10626135
34	0x3e22d76f	0.15902494
35	0x3e0acd3e	0.13554856
36	0x3e5a53d6	0.21321043
37	0x3de531d2	0.11191143
38	0x3cd04742	0.025424603
39	0xbde3c253	-0.11121049
40	0x3e247cd6	0.16063246
41	0x3e805f2c	0.2507261
42	0x3e519834	0.20468217
43	0x3d78f28c	0.060778186
44	0x3e1a42ab	0.15064494
45	0x395d5995	0.00021109574
46	0x3dcea3dc	0.100898474
47	0x3df0a7f4	0.117507845
48	0xbd5ab856	-0.053398453
49	0xbc426716	-0.011865398
50	0x3e0e35bd	0.13887687
51	0xbd7aa0af	-0.061188396
52	0xbdeca4a1	-0.11554838
53	0x3e13a99e	0.14420173
54	0xbc6b20e0	-0.0143511
55	0x3dc1f3c0	0.0947032
56	0x3d813afa	0.06310077
57	0x3e0a17e3	0.13485675
58	0xbd49ec31	-0.049297515
59	0xbc2818fc	-0.010259863
60	0x3d9b425e	0.07581018
61	0x3e386299	0.18006362
62	0xbd5327a0	-0.05155146
63	0x3e336ba1	0.17521526
64	0xbd4c12ec	-0.049822733
65	0x3e07f82a	0.13278261
66	0x3e16ca79	0.14725675
67	0x3cbc0b17	0.022954507
68	0x3d935e46	0.071957156
69	0x3dcb75c6	0.09934573
70	0x3d327f41	0.04357839
71	0x3e37dd2d	0.17955466
72	0xbd35716d	-0.044297624
73	0x3dc2dea2	0.0951512
74	0x3d234e07	0.039869335
75	0x3dc25697	0.09489172
76	0x3df6c9d2	0.12050213
77	0x3e0d65bf	0.13808344
78	0xbd6cdb5c	-0.057826385
79	0x3d6fc5fa	0.058538415
80	0x3d63e809	0.055641208
81	0x3e545246	0.2073451
82	0xbd1d0d8d	-0.038343
83	0x3da7def8	0.08196825
84	0x3d4af495	0.049549658
85	0x3d98ac32	0.07454719
86	0x3e3c0247	0.18360244
87	0x3d93a6ac	0.072095245
88	0x3d55e770	0.05222267
89	0x3d9b877a	0.075941995
90	0x3e5dbbf3	0.21653728
91	0x3dcb6215	0.09930817
92	0xbd4fa458	-0.05069384
93	0xbbd74da0	-0.006570533
94	0x3df47b33	0.11937561
95	0x3db6b64c	0.08921489
96	0x3db2296c	0.08699307
97	0x3e514138	0.20435035
98	0xbccf1d60	-0.025282562
99	0x3deb5b89	0.11492068
100	0x3e22c325	0.15894754
101	0xbd4b5210	-0.049638808
102	0x3d635965	0.055505175
103	0x3d4598c2	0.048241384
104	0x3de095b7	0.10966056
105	0xbde1f366	-0.11032753
106	0x3dbe4c07	0.09291845
107	0xbd21dbb5	-0.03951617
108	0x3b538860	0.003227733
109	0x3e0b1706	0.13583001
110	0x3d765076	0.060135327
111	0xbd6d4016	-0.057922445
112	0xbd0b7c93	-0.03405435
113	0x3df3bc6c	0.11901173
114	0x3b7b823b	0.0038377184
115	0x3e2ea0cb	0.17053525
116	0x3dd93be3	0.106071256
117	0xbce6a8ae	-0.028156605
118	0xbd6c751e	-0.05772888
119	0x3dc418f2	0.095750704

fc2.weight f4 [84, 120]
0	0xbeb8615e	-0.36011785
1	0xbdd28c64	-0.10280684
2	0x3bd2cfce	0.0064334637
3	0x3dd00e6e	0.10159002
4	0xbe48ca1e	-0.19608352
5	0x3d44e331	0.04806823
6	0x3d6aa663	0.057287585
7	0xbe68b4e0	-0.22725248
8	0x3e5e928a	0.21735588
9	0x3db71355	0.08939234
10	0x3e8707a0	0.26373005
11	0xbdfcb9a1	-0.123400934
12	0xbe7f63cd	-0.24940415
13	0xbd978d36	-0.07399981
14	0xbe84f9ac	-0.25971735
15	0xbec1b828	-0.37835813
16	0xbdab8b43	-0.083761714
17	0x3dddd1df	0.10831045
18	0xbe385300	-0.18000412
19	0xbe278f7d	-0.1636333
20	0x3e74f98e	0.23923323
21	0xbe73c116	-0.23804125
22	0x3d31a69f	0.043371793
23	0xbe50af8e	-0.20379469
24	0x3e2511b8	0.1612004
25	0xbe568c1c	-0.20951885
26	0xbe4739e2	-0.19455674
27	0x3d97bd48	0.074091494
28	0xbd104951	-0.03522617
29	0xbdd992b6	-0.10623686
30	0xbcca72b4	-0.024712898
31	0x3caeea97	0.021352096
32	0x3e31ee18	0.17375982
33	0x3c1430dc	0.009044852
34	0x3d810c2e	0.06301151
35	0x3d9e09b6	0.07716696
36	0x3e6be192	0.23035267
37	0xbe9ed064	-0.31018364
38	0xba97b05c	-0.0011572945
39	0xbd150f2c	-0.036391422
40	0xbe0edf81	-0.13952447
41	0xbdfafe4e	-0.12255536
42	0xbdfdc955	-0.12391917
43	0x3d991ee5	0.07476596
44	0x3e033fe1	0.12817337
45	0x3d0436f4	0.03227897
46	0xbcf178eb	-0.029476603
47	0x3d5f04ee	0.05444806
48	0xbebb38b8	-0.3656671
49	0xbe1aec2d	-0.15129156
50	0xbe6efe15	-0.23339112
51	0x3e97bbcf	0.29635474
52	0xbebb99d7	-0.36640808
53	0xbae6683f	-0.0017578675
54	0x3e85e12b	0.26148352
55	0x3c8683a0	0.016420186
56	0x3db746a6	0.08949022
57	0xbd2ac7e7	-0.041694548
58	0x3d8f468d	0.06995878
59	0x3df4c63e	0.11951874
60	0xbe1f5733	-0.15560608
61	0xbe6d24ac	-0.2315852
62	0x3d1ce85d	0.038307536
63	0x3c312f1d	0.010814455
64	0x3d192846	0.037391923
65	0xbe5794f0	-0.21052909
66	0xbd35bed3	-0.044371437
67	0xbc932d85	-0.017966041
68	0xbe238908	-0.15970242
69	0xbe9e9e69	-0.30980232
70	0xbd841bc3	-0.06450608
71	0x3da0f5a0	0.07859349
72	0x3c855260	0.016274631
73	0x3e3363ec	0.17518586
74	0x3e0dedbf	0.13860224
75	0x3d8e276b	0.06941112
76	0xbea2463e	-0.31694216
77	0xbea9de67	-0.33177492
78	0x3e4a4475	0.19752677
79	0xbe2afe84	-0.16698653
80	0x3dc4dc59	0.096123405
81	0x3bdeb053	0.006795922
82	0x3d9a06f5	0.07520858
83	0xbc84a5f3	-0.016192412
84	0xbe6a7a03	-0.22898106
85	0x3e68acd4	0.22722179
86	0x3d943435	0.0723652
87	0xbe45df04	-0.19323355
88	0x3e8b63dd	0.27224627
89	0xbe42c428	-0.1902014
90	0x3e5e844a	0.21730152
91	0x3d3725d6	0.044713818
92	0xbcea19a5	-0.028576681
93	0xbe9a1649	-0.30095127
94	0xbe4e1125	-0.20123728
95	0xbe019222	-0.12653401
96	0xbecce38f	-0.40017363
97	0xbe760afb	-0.24027626
98	0xbdd88f66	-0.10574226
99	0xbecd650e	-0.4011616
100	0xbcab7890	-0.020931512
101	0xbe9da1c7	-0.3078749
102	0xbdb7a6ff	-0.08967399
103	0xbd8bd082	-0.06826879
104	0xbe48c561	-0.19606544
105	0xbe13f8d3	-0.14450388
106	0xbc20d7b5	-0.009817054
107	0xbd8642fe	-0.065557465
108	0x3dc8cea4	0.098050386
109	0xbe320e0a	-0.17388168
110	0xbec99d39	-0.39377764
111	0x3c260605	0.010133271
112	0xbd9fb7a7	-0.07798701
113	0x3de3ed60	0.1112926
114	0x3d274e44	0.040846124
115	0x3dc87990	0.09788811
116	0xbeaeeffc	-0.3416747
117	0xbd44c464	-0.048038855
118	0x3c8f75f3	0.017512297
119	0xbe07c369	-0.13258137
120	0xbde43705	-0.11143307
121	0xbca4922a	-0.020089228
122	0xbe822953	-0.25422153
123	0x3deaa7fd	0.114578225
124	0xbe358edc	-0.17730278
125	0xbcd4fb02	-0.025998596
126	0xbe8210c0	-0.25403404
127	0xbe9fb36c	-0.31191576
128	0xbddc646c	-0.107613415
129	0xbb208824	-0.0024495209
130	0xbe402394	-0.18763572
131	0xbdacb256	-0.084324524
132	0x3c8ee2c6	0.017442118
133	0x3d9a9a29	0.07548935
134	0xbd31717d	-0.04332112
135	0xbe492b1e	-0.19645354
136	0x3bd80292	0.0065921033
137	0xbec78d6e	-0.3897509
138	0x3d940472	0.072274104
139	0xbe1c32eb	-0.15253799
140	0x3d1e2409	0.038608585
141	0xbd1cdf1d	-0.038298715
142	0xbcd6b20b	-0.026207944
143	0xbd07530e	-0.03303819
144	0xbe0b3c1c	-0.13597149
145	0xbe9970c1	-0.29968837
146	0xbd3ab42c	-0.04558198
147	0xbdb1f2cc	-0.08688888
148	0xbda561ed	-0.080753185
149	0xbcbddf86	-0.023177873
150	0x3d6cf611	0.057851855
151	0x3da2d030	0.07949865
152	0xbe536c10	-0.20646691
153	0xbd746bd0	-0.05967313
154	0x3dc981af	0.09839188
155	0xbd7315e8	-0.059347063
156	0xbdf61b27	-0.12016898
157	0xbcb14b9b	-0.021642497
158	0xbef37991	-0.47553685
159	0x3dc3ed4a	0.09566744
160	0x3dcd9d95	0.10039822
161	0x3de67956	0.11253612
162	0xbdbce85f	-0.09224009
163	0x3d0aa003	0.033844005
164	0xbdf30454	-0.1186606
165	0xbd94f2b1	-0.07272852
166	0x3c040f51	0.008060292
167	0x3d461ee0	0.04836929
168	0xbc9dc1b8	-0.019257411
169	0x3d02df38	0.03195116
170	0xbdb77671	-0.08958138
171	0xbde149b7	-0.11000388
172	0xbe3559c9	-0.17710032
173	0xbd8bf50e	-0.0683385
174	0xbe97d437	-0.29654095
175	0xbdd114ad	-0.10209022
176	0xbe08e318	-0.1336788
177	0xbe3a057f	-0.18166159
178	0x3d39d340	0.04536748
179	0xbe17c567	-0.14821397
180	0xbdb3c307	-0.08777433
181	0xbcbb40fc	-0.022858135
182	0xbc0ea62f	-0.008706613
183	0xbd3403f5	-0.043949086
184	0xbc983d72	-0.018583987
185	0xbdb19a49	-0.08672006
186	0xbda4c81d	-0.08045981
187	0xbd6a8b63	-0.057261836
188	0x3d318e8b	0.04334883
189	0x3cd17d85	0.025572548
190	0xbdc4f192	-0.096163884
191	0xbd6a4a3e	-0.05719971
192	0xbd816491	-0.0631801
193	0xbe0cfde4	-0.13768727
194	0x3c86d4c8	0.016458884
195	0xbd864fcb	-0.06558188
196	0xbc72cb80	-0.014819026
197	0xbdda6590	-0.10663903
198	0xbe93926a	-0.28822643
199	0xbcc27312	-0.02373651
200	0xbe806395	-0.25075975
201	0x3cfb6474	0.030687548
202	0x3da7347c	0.081643075
203	0xbe0fcaea	-0.1404225
204	0xbe1cea5a	-0.15323773
205	0xbdb110b2	-0.086457625
206	0xbd8ac603	-0.06776049
207	0x3d8c0bdd	0.068382
208	0xbdcca15e	-0.09991716
209	0x3c94243b	0.018083682
210	0x3e3cc30f	0.18433784
211	0x3d61cac6	0.05512502
212	0xbc49befe	-0.0123136025
213	0x3d27e270	0.040987432
214	0x3ddb0fee	0.10696398
215	0x3dffa48f	0.12482559
216	0x3dec63c8	0.11542469
217	0xbc707747	-0.014676875
218	0xbe35931d	-0.177319
219	0xbb947ec7	-0.0045317146
220	0xbd0c6e1c	-0.034284696
221	0xbe37e1fe	-0.17957303
222	0x3e0e6c5f	0.13908528
223	0x3950e2b0	0.00019920873
224	0xbd9d9e63	-0.076962255
225	0x3dfe5e1d	0.124202944
226	0xbd8bd2cc	-0.06827316
227	0x3d76ec91	0.0602842
228	0xbddfa0a9	-0.10919315
229	0x3d432afd	0.04764842
230	0x3d9fc048	0.078003466
231	0xbd3f6e26	-0.046735905
232	0x3dc30224	0.09521893
233	0x3dc6bf6a	0.09704478
234	0xbdd94527	-0.10608893
235	0x3db68155	0.08911387
236	0xbd13f98a	-0.03612665
237	0xbefcce3e	-0.493761
238	0x3d0dafd6	0.03459152
239	0xbd3d6cdc	-0.046246395
240	0xbc74c25c	-0.014938917
241	0x3e082506	0.13295373
242	0xbe0b9a5d	-0.13633104
243	0xbe6d2c94	-0.23161536
244	0xbd9bb39f	-0.076026194
245	0x3d7fef75	0.062484223
246	0xbe3beacf	-0.18351291
247	0x3d3d8ed4	0.04627879
248	0x3d81e812	0.06343092
249	0x3e41c1f5	0.18921645
250	0x3cd6ab28	0.02620466
251	0x3c828c41	0.015936019
252	0x3d9d4641	0.076794155
253	0x3e769121	0.240788
254	0x3ddef449	0.108864374
255	0x3cec95b2	0.028879974

fc2.bias f4 [84]
0	0x3e03903a	0.12847987
1	0x3eeeaa87	0.46614477
2	0x3e9cb0f4	0.30603755
3	0x3d490928	0.049080998
4	0x3ea85852	0.32879883
5	0x3e53b9b7	0.20676313
6	0x3f0b3493	0.54377097
7	0x3e90e48f	0.28299376
8	0x3eb5ea93	0.35530528
9	0x3e65ef15	0.22454484
10	0x3edaec68	0.4275849
11	0x3e442217	0.19153629
12	0x3ebbeffd	0.36706534
13	0x3e9ca75a	0.3059643
14	0x3d608b57	0.054820385
15	0x3e37d0c0	0.17950726
16	0x3eafeaf2	0.34358937
17	0x3e92e25b	0.2868832
18	0x3e579bfa	0.21055594
19	0x3e6e4d7f	0.2327175
20	0x3e2532a0	0.16132593
21	0x3ebb22eb	0.36550078
22	0x3ea266b1	0.31718972
23	0x3eb14d68	0.3462937
24	0x3d907993	0.070544384
25	0x3e3a3e6b	0.18187873
26	0x3c4e18cc	0.012579154
27	0x3e524e3c	0.20537657
28	0x3d3efad2	0.04662592
29	0x3d300f5d	0.0429834
30	0x3ec64a13	0.3872839
31	0x3ea323b6	0.31863183
32	0x3e657224	0.22406822
33	0x3ede9fcc	0.4348129
34	0x3e6e1e55	0.23253758
35	0x3e5dc726	0.21658
36	0x3e441e31	0.19152142
37	0x3e8e3496	0.27774495
38	0x3e7378f0	0.23776603
39	0xbd97394a	-0.07383974
40	0x3e53fe26	0.20702419
41	0x3ea8d0c7	0.32971784
42	0x3eff33f6	0.4984433
43	0xbe0993a9	-0.13435234
44	0x3e281dc7	0.16417609
45	0x3e9058f8	0.28192878
46	0x3e57f7ca	0.21090618
47	0x3e16a1de	0.14710185
48	0x3eb5358e	0.3539242
49	0x3ecbba8a	0.39790756
50	0x3e0b83ef	0.13624547
51	0x3e7a692c	0.24454182
52	0x3e9a1913	0.30097255
53	0x3e11a1b5	0.14221843
54	0x3e38a184	0.18030363
55	0x3e7f22c7	0.2491561
56	0x3f037130	0.51344585
57	0x3d8eebfb	0.069786035
58	0x3e69c8f9	0.22830571
59	0x3c72584f	0.014791562
60	0x3e94e643	0.29081926
61	0x3e9c81e7	0.30567858
62	0x3da85ac0	0.08220434
63	0xbdf41ee7	-0.11919957
64	0xbcd50432	-0.026002977
65	0x3e707d4c	0.23485297
66	0x3dcdb792	0.10044779
67	0xbd99133e	-0.07474373
68	0x3dbd8e8e	0.09255706
69	0x3e8a837e	0.27053446
70	0x3db1f663	0.08689573
71	0x3e4fe15f	0.20300816
72	0x3eb916f7	0.36150333
73	0x3e86523c	0.26234615
74	0x3e8971b4	0.2684456
75	0x3e90574a	0.28191596
76	0x3e102e75	0.14080222
77	0x3e6b4eec	0.22979325
78	0x3ee2270f	0.44170424
79	0x3edd6047	0.43237516
80	0x3e818d1b	0.25302967
81	0x3e2dfb74	0.16990453
82	0x3e954999	0.29157713
83	0x3ecf8b4d	0.40535966

fc3.weight f4 [10, 84]
0	0xbe1aa920	-0.15103579
1	0x3d8883f1	0.06665791
2	0x3e169e20	0.14708757
3	0x3d4b583e	0.0496447
4	0xbe070e43	-0.13189034
5	0xbe4ab038	-0.19793785
6	0x3da94850	0.08265746
7	0x3dc68e08	0.09695059
8	0xbe9c5fb1	-0.30541757
9	0x3e030c80	0.12797737
10	0xbe207443	-0.1566935
11	0xbeb078f6	-0.34467286
12	0xbe756e1e	-0.23967788
13	0x3d138832	0.036018558
14	0x3d81f2b0	0.06345117
15	0xbc7df329	-0.015499868
16	0x3def54b2	0.11686076
17	0xbc4099d2	-0.011755424
18	0x3e103f90	0.14086747
19	0xbe873531	-0.2640777
20	0xbd404932	-0.046944804
21	0x3ccf5fa4	0.02531416
22	0xbe1e103a	-0.15435877
23	0x3df16822	0.1178744
24	0xbd427573	-0.04747529
25	0x3e4ee52e	0.20204613
26	0xbdf2ca90	-0.11855042
27	0xbd4f6c36	-0.050640307
28	0x3e09287b	0.13394348
29	0xbdefbd0e	-0.11705981
30	0x3c77e28a	0.015129695
31	0xbd38c5d5	-0.045110542
32	0x3c862910	0.016377002
33	0xbe527a0d	-0.20554371
34	0x3e0b57cd	0.13607712
35	0x3d296114	0.041352347
36	0xbdc41525	-0.095743455
37	0x3dd91a13	0.106006764
38	0xbe5836db	-0.21114676
39	0x3e484f6b	0.19561546
40	0x3d60866b	0.05481569
41	0x3d90eca1	0.070763834
42	0xbe69b5f5	-0.22823317
43	0xbc588117	-0.013214371
44	0xbd82516f	-0.063631885
45	0xbd6bdd93	-0.057584357
46	0xbdbff71c	-0.09373304
47	0x3d25dcfb	0.040493947
48	0xbe9c4d3a	-0.3052767
49	0xbe1b5f1b	-0.15172999
50	0x3d40caa4	0.047068253
51	0x3ccc4940	0.024937272
52	0xbcda0991	-0.02661589
53	0xbe1d1949	-0.15341677
54	0xbe3db9d5	-0.1852792
55	0x3e24d449	0.16096605
56	0x3df6e0db	0.120546065
57	0xbdba98cc	-0.09111175
58	0xbe46b79e	-0.19405982
59	0xbef89936	-0.4855439
60	0xbd3d3970	-0.046197355
61	0x3ba534ce	0.005041695
62	0xbe057d80	-0.13036156
63	0xbe350ff4	-0.17681867
64	0x3cdec044	0.027191289
65	0xbf317737	-0.6932253
66	0xbe152187	-0.14563571
67	0x3cfa76b4	0.03057418
68	0x3cf6d85d	0.030132467
69	0x3b15e022	0.002286919
70	0xbe98236b	-0.29714522
71	0x3d87cd14	0.066309124
72	0x3dd642d0	0.10461962
73	0x3d0595c4	0.03261353
74	0xbd8ee4f4	-0.06977263
75	0xbdc3b55a	-0.095560744
76	0xbd506373	-0.050876092
77	0x3e13bb13	0.14426832
78	0xbea36a91	-0.3191724
79	0xbcd8c3c2	-0.026460532
80	0xbe8bedd5	-0.2732989
81	0x3dc4dc19	0.09612293
82	0x3d4b46c3	0.04962803
83	0xbd3decfb	-0.04636858
84	0x3eda3974	0.42621958
85	0xbeeb5292	-0.45961434
86	0xbea6913b	-0.32532677
87	0x3dbcdff3	0.092224024
88	0xbdcc9154	-0.09988657
89	0x3d42e0b3	0.04757757
90	0xbeba35cc	-0.3636917
91	0xbe82b765	-0.25530544
92	0xbe843ed9	-0.258292
93	0x3d95811f	0.073000185
94	0xbe3f6695	-0.18691476
95	0xbe524b50	-0.20536542
96	0x3cfa6a9a	0.03056841
97	0x3d3c5301	0.045977596
98	0xbe45564c	-0.19271201
99	0xbec58510	-0.3857808
100	0x3d99ea29	0.07515366
101	0xbe40138c	-0.18757457
102	0xbe811121	-0.2520838
103	0x3e55204e	0.20813105
104	0x3e2ae1fd	0.1668777
105	0xbea1f801	-0.31634524
106	0x3e4ac55b	0.19801848
107	0x3d282fda	0.04106126
108	0x3ea64f0e	0.3248219
109	0x3d7c7f38	0.061644763
110	0x3e1ad03f	0.15118502
111	0xbe428d4a	-0.1899921
112	0x3de25aca	0.11052473
113	0xbdecb0c0	-0.1155715
114	0x3e39dfa8	0.18151724
115	0xbdb7e68c	-0.0897952
116	0xbcf83c7d	-0.03030228
117	0xbe5be056	-0.21472296
118	0x3e14d694	0.1453498
119	0xbde81c1a	-0.11333485
120	0x3d4484e9	0.047978316
121	0xbe102ab2	-0.14078787
122	0x3db7b047	0.08969169
123	0xbe925cf9	-0.28586558
124	0xbdd1fb6e	-0.102530345
125	0x3da8b6e2	0.08238007
126	0xbeb3588e	-0.350285
127	0xbdfddf43	-0.123960994
128	0xbdf5959e	-0.11991428
129	0xbdbb2dd3	-0.091396
130	0xbdf146fb	-0.117811166
131	0xbd6ed82b	-0.058311623
132	0x3e2b103f	0.16705416
133	0xbeda1b79	-0.42599085
134	0x3e28e005	0.16491707
135	0xbe73fb55	-0.23826344
136	0xbd7b23f7	-0.061313596
137	0xbe914161	-0.28370193
138	0xbe9e77a7	-0.30950662
139	0xbd56e697	-0.052466
140	0xbe806371	-0.25075868
141	0xbdcfb8ac	-0.10142645
142	0xbe255935	-0.16147311
143	0xbe980bd9	-0.2969654
144	0xbd27a01d	-0.04092418
145	0x3de687c4	0.11256364
146	0xbcd7b8c5	-0.026333222
147	0xbe300a24	-0.17191368
148	0xbe3440e1	-0.17602874
149	0xbeea93e2	-0.4581595
150	0xbdcce691	-0.100049146
151	0x3e1487ca	0.14504924
152	0xbbb14632	-0.0054099793
153	0xbd4c7582	-0.04991675
154	0xbedd845e	-0.4326505
155	0x3d9331cb	0.07187232
156	0xbe19f8bc	-0.15036291
157	0xbe8edfe7	-0.279052
158	0xbdfdf2e2	-0.12399842
159	0x3d88bebd	0.066770054
160	0x3e0e78f0	0.13913321
161	0xbd8c6d68	-0.06856805
162	0xbef9724b	-0.4872001
163	0xbe0984b4	-0.13429528
164	0xbe54ee66	-0.20794067
165	0xbe9b9023	-0.30383405
166	0xbeac08ff	-0.33600613
167	0x3e14f705	0.14547355
168	0x3d8cd1b7	0.068759374
169	0x3d7e2f7c	0.062057003
170	0xbdc7a8bb	-0.0974898
171	0xbe89302d	-0.26794568
172	0xbe8e4615	-0.27787843
173	0x3cb7fd90	0.022459775
174	0x3dcc4df6	0.09975807
175	0x3d22803d	0.03967308
176	0x3de01223	0.10940959
177	0x3dfec518	0.124399364
178	0xbe5f859d	-0.21828313
179	0xbe88ed7b	-0.26743683
180	0xbe3a104d	-0.18170281
181	0xbe5226a8	-0.20522559
182	0xbe36f7ea	-0.17868009
183	0xbd3cae3f	-0.04606461
184	0xbeae1c4f	-0.34005973
185	0x3bcbafe9	0.0062160385
186	0xbe98ee4c	-0.29869306
187	0x3c541bf9	0.012946122
188	0xbc591218	-0.013248943
189	0x3d2cc9b4	0.042184547
190	0x3cc95a7e	0.024579283
191	0x3e408da8	0.18804038
192	0xbda60f46	-0.08108382
193	0xbe93872b	-0.28814062
194	0x3df070a7	0.11740237
195	0xbd879439	-0.06620068
196	0xbd53d9e7	-0.05172148
197	0xbe8659b7	-0.26240322
198	0x3e4e25cb	0.20131604
199	0xbdf58dcb	-0.119899355
200	0xbe99a9a6	-0.30012244
201	0x3e36e21c	0.17859691
202	0x3da6d2cf	0.08145677
203	0xbdb44810	-0.08802807
204	0x3d69d408	0.057086974
205	0xbe872e9b	-0.26402745
206	0xbdfb71de	-0.12277578
207	0xbcf5da97	-0.030011458
208	0x3c38c3b4	0.011277128
209	0x3dca51d6	0.0987889
210	0x3e24b921	0.16086246
211	0xbd5cf267	-0.05394211
212	0xbe2d2087	-0.1690694
213	0x3e2dee14	0.16985351
214	0xbebbb8a6	-0.36664313
215	0xbe1c96e7	-0.1529194
216	0xbecdf1b7	-0.40223476
217	0xbcaf2860	-0.021381557
218	0xbeae7bfc	-0.34078968
219	0x3e25805a	0.16162243
220	0x3dc28683	0.09498312
221	0x3e6611d9	0.22467746
222	0x3db47e8a	0.08813198
223	0x3e1f20e0	0.15539885
224	0x3e11aa6d	0.14225169
225	0xbda9a0a9	-0.082825966
226	0xbe053bcf	-0.13011096
227	0xbe22abbf	-0.15885828
228	0xbe441824	-0.19149834
229	0xbe407912	-0.18796185
230	0x3df200a7	0.11816531
231	0xbe83f164	-0.25770104
232	0xbde1e65f	-0.11030268
233	0xbef9526a	-0.4869569
234	0xbdd3fdad	-0.10351119
235	0x3c6bec02	0.01439953
236	0xbdefb061	-0.117035635
237	0x3d2f5c8e	0.042812876
238	0xbe38257b	-0.17983048
239	0x3d047b44	0.032344118
240	0xbc9f4c19	-0.019445466
241	0xbea10221	-0.31446937
242	0xbe928be1	-0.28622344
243	0xbe1378d7	-0.14401565
244	0xbd243cc0	-0.040097
245	0xbd007bc5	-0.031368036
246	0x3dc503bc	0.09619853
247	0xbdc8c535	-0.09803239
248	0xbf060d06	-0.5236362
249	0x3e2fd106	0.1716958
250	0xbe3ca54e	-0.18422434
251	0xbdbe2993	-0.092852734
252	0xbe5984bc	-0.2124204
253	0xbdcda9bb	-0.10042139
254	0xbe5edd3b	-0.2176408
255	0xbcd7d663	-0.026347345

fc3.bias f4 [10]
0	0xbe5131f9	-0.2042922
1	0xbe6440cc	-0.22290343
2	0x3d56e8de	0.052468173
3	0x3da35960	0.07976031
4	0xbe15f6fc	-0.14644998
5	0xbd288dbf	-0.041150805
6	0xbca40658	-0.020022556
7	0x3dfc5fee	0.12322985
8	0x3e2609da	0.16214696
9	0xbe0bb2b2	-0.13642386
