HW1_Split_nb/checkpoints/model_weightdecay_1.pt (torch, 250656 bytes, 10 tensors)

conv1.weight f4 [6, 1, 5, 5]
0.28408965 -0.017194504 -0.14564998 0.019430222 0.0955537 0.30644977 0.06495946 -0.19271313
0.26194507 0.16626619 0.16049854 -0.010297427 -0.28594384 0.15097992 0.1602826 -0.09883914
-0.32803792 -0.43255362 0.21831328 0.16931064 -0.14738992 -0.36336625 -0.55614114 -0.08274977
0.37299973 0.020389216 -0.019125026 0.017040946 0.037532024 -0.11877773 0.03483833 0.17784832
-0.07186531 0.23184375 0.054834675 -0.084239006 0.19717555 0.28468493 0.25671592 0.06531595
-0.19735691 -0.013546536 0.16737166 0.23087001 0.19277273 -0.035642423 0.16740681 0.08874226
0.0508757 0.1926335 0.2501181 0.14601788 -0.16023365 -0.0927509 -0.22166297 -0.08195132
-0.00303044 0.110629976 -0.06438475 -0.22953624 0.16935427 0.14621423 0.112396106 -0.06651638
-9.2944494e-05 0.2733065 0.336525 0.21208198 0.06197191 -0.28081086 0.13771833 0.033266827
-0.00035414187 0.11106562 -0.149392 -0.4981647 -0.35162598 -0.38026884 -0.45258456 -0.18093356
-0.27530384 -0.52654946 -0.49492577 -0.086965196 0.14655587 0.013575386 -0.2807716 -0.21981364
0.15135083 -0.023091568 0.2643991 0.09105447 -0.070283055 0.18037523 0.055332113 0.3145782
0.29810265 0.18744232 -0.03352582 0.06312221 -0.09335072 0.04021391 -0.059750732 -0.19724086
-0.119487435 -0.013490425 -0.060217824 0.019414775 0.0012069468 -0.24190508 0.16739702 0.23378572
-0.07131352 -0.15879068 -0.25651357 0.1969319 -0.009753259 0.12978823 0.15422998 0.016025934
0.019941892 0.1894692 0.05478535 -0.090419024 -0.025536876 -0.009890055 -0.102820165 -0.30695957
-0.38067064 -0.20449448 -0.010263607 -0.38740575 -0.21818902 -0.43976554 0.06082653 -0.2388519
-0.20644006 -0.48709193 -0.44890028 0.082957454 -0.09557046 -0.15780288 -0.31763455 -0.18554665
-0.09905137 0.093824044 -0.22095329 -0.43802327 -0.2529276 0.16815384
00000000: 3374 913e 7ddb 8cbc 4525 15be 212c 9f3c
00000010: a9b1 c33d fce6 9c3e 7709 853d 9756 45be
00000020: aa1d 863e af41 2a3e bb59 243e 8ab6 28bc
00000030: 3b67 92be 7b9a 1a3e 1f21 243e 2d6c cabd
00000040: 96f4 a7be ab77 ddbe 848d 5f3e c55f 2d3e
00000050: 62ed 16be 240b babe 445f 0ebf b678 a9bd
00000060: d2f9 be3e 4907 a73c 16ac 9cbc 7499 8b3c
00000070: 2ebb 193d bd41 f3bd a3b2 0e3d df1d 363e
00000080: 1f2e 93bd 7368 6d3e 539a 603d 8085 acbd
00000090: 63e8 493e 39c2 913e 4570 833e 5ec4 853d
000000a0: ee17 4abe 4af2 5dbc 7a63 2b3e 3069 6c3e
000000b0: 3766 453e cafd 11bd b16c 2b3e 81be b53d
000000c0: 0a63 503d b741 453e 7b0f 803e b685 153e
000000d0: 4a14 24be 2ff4 bdbd 9efb 62be 18d6 a7bd
000000e0: 599a 46bb f891 e23d 27dc 83bd 8c0b 6bbe
000000f0: 356b 2d3e 2fb9 153e ee2f e63d bd39 88bd
00000100: 32eb c2b8 d4ee 8b3e 014d ac3e 052c 593e
00000110: 42d6 7d3d 71c6 8fbe 0906 0d3e cc42 083d
00000120: 1eac b9b9 5f76 e33d 37fa 18be 720f ffbe
00000130: 5208 b4be 99b2 c2be 2ab9 e7be a646 39be
00000140: a0f4 8cbe f2cb 06bf e966 fdbe cf1a b2bd
00000150: be12 163e 4c6b 5e3c 4cc1 8fbe d416 61be
00000160: b6fb 1a3e 872a bdbc 525f 873e c47a ba3d
00000170: 90f0 8fbd 49b4 383e eda3 623d 6510 a13e
00000180: e9a0 983e e1f0 3f3e 5f52 09bd 3846 813d
00000190: aa2e bfbd 57b7 243d 2fbd 74bd 82f9 49be
000001a0: d4b5 f4bd f206 5dbc f7a6 76bd bc0b 9f3c
000001b0: 6a32 9e3a f7b5 77be 206a 2b3e 8665 6f3e
000001c0: d30c 92bd 069a 22be bf55 83be 84a8 493e
000001d0: 22cc 1fbc 35e7 043e 77ee 1d3e d248 833c
000001e0: 2e5d a33c 3704 423e 9a66 603d 9c2d b9bd
000001f0: b632 d1bc e609 22bc 6193 d2bd ce29 9dbe
00000200: 43e7 c2be 0067 51be b028 28bc 0c5a c6be
00000210: f16c 5fbe f328 e1be 3d25 793d 9895 74be
00000220: 0665 53be 1d64 f9be 42d6 e5be 99e5 a93d
00000230: 72ba c3bd 1497 21be ffa0 a2be f1ff 3dbe
00000240: 72db cabd d226 c03d 9441 62be 9644 e0be
00000250: ba7f 81be 8530 2c3e

conv1.bias f4 [6]
0.10505653 0.0043191575 0.017925115 0.15100342 0.2132915 0.31390554
00000000: e127 d73d b887 8d3b b1d7 923c a4a0 1a3e
00000010: 1669 5a3e 3ab8 a03e

conv2.weight f4 [16, 6, 5, 5]
0.113880485 0.004342657 0.09061123 0.09938744 0.26592463 0.23999514 0.11446079 0.090844415
0.006514529 0.0941534 0.26777062 0.09794959 0.0839914 -0.08036295 -0.12408863 0.20834506
0.16689758 0.13348827 -0.042239636 -0.12449163 0.04557421 0.122168325 0.0682835 0.024031391
-0.15704289 0.06464936 0.027180586 -0.17818421 -0.07892741 -0.1766047 -0.008539303 0.026072202
0.013443052 -0.092347994 -0.14761175 0.07984836 0.0145180095 -0.078387536 -0.12443607 -0.09885487
-0.051252518 0.06310155 -0.05099129 -0.0021283436 0.021042943 -0.057559032 0.018071335 -0.03097576
0.014403699 0.05160689 -0.056579333 0.023255242 -0.0028035787 -0.13784136 -0.034916893 -0.04270132
0.00544763 0.05998961 -0.037797276 -0.042815447 -0.03046019 0.07034335 0.046992756 0.05131917
-0.06811154 -0.030089656 0.05758739 0.08284446 0.07292959 0.03176952 -0.0847278 -0.08496608
-0.027868744 -0.053411182 0.029342096 0.07098145 0.22709255 0.2899972 0.34947592 0.32666802
0.16220674 0.13300852 0.25958142 0.33901685 0.379824 -0.056316253 -0.0350336 0.068871394
0.18648167 0.2640083 0.040730968 -0.0454306 0.095345095 0.1830031 0.29031926 -0.051581245
-0.025951482 -0.039057717 -0.017789368 0.08846557 0.0011366656 0.10952527 -0.020742375 -0.051295444
-0.009676158 0.03330883 0.02163608 0.08486443 0.037852757 0.0363339 -0.06343011 -0.06025626
0.066362545 0.042377234 -0.055837233 0.012387155 -0.047908615 0.015954258 0.076380305 0.035575315
-0.005526807 -0.06381857 -0.00023589656 -0.05446464 0.13115837 0.023253353 0.025912605 0.11575728
0.22940984 0.282848 0.03815337 0.03003348 0.10640225 0.16701926 0.19197452 -0.052452564
-0.049918827 -0.03274734 0.21842293 0.17456408 -0.11630491 0.0001350993 -0.06584227 0.07567155
0.034345847 -0.12305296 -0.08482312 -0.07349303 0.042706087 0.02473176 0.073442526 0.04804142
-0.037844434 -0.1659259 0.044785585 -0.02433481 -0.12260708 -0.056394517 -0.13184573 -0.064592786
0.06046869 -0.13720776 -0.18154725 -0.10072029 0.05930577 -0.020687811 -0.18191546 -0.21914057
-0.10321475 -0.084738575 0.045018278 -0.0685568 -0.12680069 -0.12832588 -0.0037088657 -0.0898625
0.062076345 0.078409754 0.019092428 -0.0383704 0.004042655 0.03809801 -0.028683372 -0.038688894
-0.015840847 -0.07268704 -0.026831692 0.0731706 0.0036664244 -0.009859454 0.0701408 0.1151133
0.08895444 -0.030245056 -0.07760175 0.0051467107 0.099089086 0.06499761 -0.0062078144 0.052993037
-0.033966858 -0.08037819 -0.042394064 0.052131034 0.008455096 -0.041814886 -0.09842655 0.065719426
-0.038116965 0.01811337 -0.04750743 -0.0031221814 -0.060057733 0.049249183 -0.037635718 -0.05025106
-0.07323725 -0.016793814 0.0054518427 0.056534033 -0.08751993 -0.06340637 -0.03129731 0.054904453
-0.04623471 0.14788191 0.0056243697 -0.062394258 0.004080476 0.032660324 0.037741493 0.02017847
-0.008330816 -0.030049007 0.027134927 0.14672254 0.01696988 -0.06352168 -0.011307851 0.0169378
0.054361004 -0.05911853 -0.037747897 -0.020317938 -0.030733908 -0.08877743 -0.1330216 -0.058047704
-0.06889125 -0.032312978 0.08846464 0.049341712 0.0442447 0.15728325 0.029067254 0.10198598
00000000: 2c3a e93d d94c 8e3b 6192 b93d a48b cb3d
00000010: 4627 883e 49c1 753e 6b6a ea3d a30c ba3d
00000020: d577 d53b 7fd3 c03d 3b19 893e cb99 c83d
00000030: af03 ac3d 5595 a4bd 2e22 febd 6858 553e
00000040: 33e7 2a3e 26b1 083e 7803 2dbd 78f5 febd
00000050: 06ac 3a3d 6333 fa3d 38d8 8b3d 7bdd c43c
00000060: dacf 20be e266 843d d2a9 de3c ec75 36be
00000070: b2a4 a1bd ddd7 34be 6fe8 0bbc 5f95 d53c
00000080: 3f40 5c3c f220 bdbd 8927 17be 8987 a33d
00000090: f2dc 6d3c a589 a0bd 57d8 febd 6c74 cabd
000000a0: 29ee 51bd 633b 813d 3edc 50bd ae7b 0bbb
000000b0: 4062 ac3c 05c3 6bbd 560a 943c e1c0 fdbc
000000c0: 7efd 6b3c bf61 533d bbbf 67bd c781 be3c
000000d0: 3fbc 37bb 4926 0dbe 0405 0fbd 94e7 2ebd
000000e0: 0882 b23b aab7 753d 51d1 1abd 405f 2fbd
000000f0: a687 f9bc 2d10 903d 7a7b 403d 0d34 523d
00000100: 107e 8bbd 957e f6bc c1e0 6b3d 5baa a93d
00000110: 1c5c 953d c220 023d c585 adbd b202 aebd
00000120: fe4c e4bc afc5 5abd d65e f03c b95e 913d
00000130: f38a 683e 837a 943e 82ee b23e 0841 a73e
00000140: 8619 263e 6333 083e dbe7 843e 9e93 ad3e
00000150: 4b78 c23e dfab 66bd 647f 0fbd 720c 8d3d
00000160: 0df5 3e3e 192c 873e 84d5 263d 7015 3abd
00000170: 4a44 c33d 2a65 3b3e baa4 943e db46 53bd
00000180: 3498 d4bc fcfa 1fbd 02bb 91bc 702d b53d
00000190: 2bfc 943a c94e e03d eaeb a9bc 2c1b 52bd
000001a0: c088 1ebc d76e 083d 263e b13c 67cd ad3d
000001b0: 7e0b 1b3d dbd2 143d a5e7 81bd 45cf 76bd
000001c0: 16e9 873d c093 2d3d 95b5 64bd 7ef3 4a3c
000001d0: d33b 44bd 81b2 823c 476d 9c3d 6cb7 113d
000001e0: 381a b5bb 4fb3 82bd 005b 77b9 5016 5fbd
000001f0: 614e 063e d17d be3c ac46 d43c 2712 ed3d
00000200: 6aea 6a3e 74d1 903e b546 1c3d c608 f63c
00000210: 6ce9 d93d 1907 2b3e f894 443e 80d8 56bd
00000220: af77 4cbd 1322 06bd 43aa 5f3e edc0 323e
00000230: 4531 eebd 71a9 0d39 50d8 86bd b0f9 9a3d
00000240: 3bae 0c3d 3103 fcbd beb7 adbd 8483 96bd
00000250: 94ec 2e3d 439a ca3c 0969 963d 14c7 443d
00000260: c402 1bbd 7be8 29be 1771 373d cc59 c7bc
00000270: 6c19 fbbd f0fd 66bd 9102 07be 3949 84bd
00000280: 04ae 773d 3180 0cbe 86e7 39be 7046 cebd
00000290: 9bea 723d 7c79 a9bc 0c48 3abe 6366 60be
000002a0: 4162 d3bd 6b8b adbd 1665 383d 8267 8cbd
000002b0: 0ad8 01be dc67 03be 7110 73bb d509 b8bd
000002c0: c443 7e3d 4b95 a03d b967 9c3c 482a 1dbd
000002d0: 4078 843b a90c 1c3d 64f9 eabc 3f78 1ebd
000002e0: aac4 81bc f1dc 94bd 23ce dbbc 78da 953d
000002f0: 6548 703b 8c89 21bc fba5 8f3d 86c0 eb3d
00000300: bf2d b63d 7bc4 f7bc abed 9ebd bda5 a83b
00000310: 38ef ca3d 781d 853d ec6a cbbb 3a0f 593d
00000320: d520 0bbd 529d a4bd 66a5 2dbd 5a87 553d
00000330: 3e87 0a3c 1646 2bbd dc93 c9bd e897 863d
00000340: 8920 1cbd 7d62 943c 2797 42bd 839d 4cbb
00000350: 19ff 75bd 83b9 493d e927 1abd 0ed4 4dbd
00000360: 69fd 95bd 2e93 89bc 5fa5 b23b 3b90 673d
00000370: a63d b3bd 33db 81bd 9c31 00bd 7ee3 603d
00000380: 9b60 3dbd 5b6e 173e a24c b83b 1f91 7fbd
00000390: 83b5 853b d5c6 053d d396 1a3d 524d a53c
000003a0: fa7d 08bc 5629 f6bc 114a de3c 6f3e 163e
000003b0: 6b04 8b3c a817 82bd 9144 39bc 24c1 8a3c
000003c0: a5a9 5e3d 4626 72bd 8a9d 1abd ce71 a6bc
000003d0: adc5 fbbc f1d0 b5bd d036 08be 6ec3 6dbd
000003e0: db16 8dbd 9d5a 04bd f32c b53d 891a 4a3d
000003f0: ee39 353d dc0e 213e 731e ee3c 07de d03d

conv2.bias f4 [16]
-0.057693426 0.08152993 0.025801513 0.03460227 0.001242012 0.033547413 -0.04264672 0.18751809
0.012317206 0.04179222 0.015311708 0.04294924 0.18904962 -0.018362856 -0.0062975115 -0.07249225
00000000: f14f 6cbd 2af9 a63d b25d d33c 1cbb 0d3d
00000010: 02cb a23a 0369 093d 54ae 2ebd be04 403e
00000020: 1bce 493c 522e 2b3d f5dd 7a3c 8beb 2f3d
00000030: 3996 413e b36d 96bc 5b5b cebb d176 94bd

fc1.weight f4 [120, 400]
-0.00792226 -0.0070693404 -0.0064712414 -0.011183687 -0.0192457 -0.006364338 -0.0049197227 -0.0021056891
-0.0055155586 -0.013733225 -0.00689071 -0.0012329748 -1.506867e-07 -0.00035278423 -0.0075992593 -0.0007187561
-2.9247403e-06 -2.8301503e-07 -7.2277007e-06 -0.004840216 -0.00014661162 -4.3879827e-05 -3.688324e-05 -0.00019370933
-0.0070535513 -9.477697e-05 -0.0064046965 -0.012882196 -0.016733492 -0.00872812 0.00012645734 -0.008515389
-0.016784357 -0.022242911 -0.013943858 -0.002329578 -0.012807477 -0.017847616 -0.020674111 -0.012962073
-0.001370243 -0.010136669 -0.012104712 -0.013630649 -0.007527239 -0.000108420434 -0.0037588822 -0.0045530237
-0.0059913886 -0.0024042698 -0.015529493 -0.008155593 -0.009517848 -0.007681575 -0.020795817 -0.0123434225
-0.006846697 -0.007480661 -0.0036812082 -0.018314006 -0.013610159 -0.005985912 -0.0020052698 -0.0015754867
-0.011741745 -0.009791551 -0.0024913398 -0.0012440942 -0.0005692022 -0.0054903305 -0.0039360058 -0.0007371944
-0.0009638106 -0.0009031108 -0.0062749735 -0.0031359345 -0.005765959 -0.004482236 -0.020091789 -0.029285222
-0.003253574 -0.0024537363 -0.00030249942 -0.012991764 -0.028505694 -0.0017228826 -0.00030989858 -5.069801e-05
-0.007863951 -0.02484989 -1.3929204e-05 -8.794442e-05 -8.046815e-05 -0.0038757287 -0.023671106 -0.00010063128
-0.00081416866 -0.00084694277 -0.0049045477 -0.023417443 -0.0093178265 -0.022511445 -0.016949309 -0.02177965
-0.0021274085 -0.010435516 -0.027958654 -0.02109393 -0.024892319 -0.0033707432 -0.017425837 -0.031176623
-0.018539589 -0.014154293 -0.0015362506 -0.019083884 -0.022358397 -0.0063177566 -0.0039041138 -0.00014288042
-0.016730933 -0.009642417 -0.0009967249 -0.0006627466 -8.283453e-05 -0.006014824 -0.017692529 -0.022358203
-0.018663328 -0.0027295263 -0.0071202074 -0.022585792 -0.02973214 -0.024428796 -0.0077576195 -0.012233629
-0.027133735 -0.028902953 -0.02277358 -0.008588255 -0.012221835 -0.022201112 -0.02055621 -0.0148469
-0.002238146 -0.008576418 -0.011994256 -0.010384357 -0.0071967673 -5.8813086e-05 7.282685e-26 -5.9076856e-26
-4.1795754e-25 -9.569614e-25 2.0267864e-25 4.1419546e-25 -3.9025696e-25 1.6701067e-26 3.5372816e-25 6.6402736e-25
2.1764574e-25 5.818912e-26 -5.9065566e-25 7.660188e-25 8.934941e-25 -3.4921193e-25 5.721175e-25 2.733582e-25
-6.559643e-26 -1.1673508e-25 5.3431827e-25 1.2640235e-25 -6.628288e-25 2.8499106e-25 2.4809158e-26 -0.0082069915
-0.016053 -0.014213686 -0.010218474 8.885315e-07 -0.012363891 -0.022059076 -0.016771873 -0.019129828
-0.0028370349 -0.008841017 -0.022061659 -0.021707611 -0.022689015 -0.008519913 -0.017731415 -0.024586894
-0.022914097 -0.024088455 -0.013672904 -0.015257052 -0.019320078 -0.017938353 -0.020292629 -0.009423706
-0.0015579814 -0.012775764 -0.016776102 -0.013746178 -0.0011376538 -0.0018184509 -0.016647747 -0.02362596
-0.0215006 -0.008733888 -0.0027287542 -0.019366948 -0.025574533 -0.02182884 -0.01217009 -0.004556339
-0.01749671 -0.02056329 -0.017386636 -0.0073228395 -0.0017416032 -0.01082705 -0.01109764 -0.009251253
-0.001588175 -0.021120986 -0.026348397 -0.025259323 -0.025293663 -0.01096742 -0.022479802 -0.028642405
-0.021956928 -0.01739308 -0.007712412 -0.027748512 -0.025766706 -0.0109545 -0.0040381225 -0.00050461985
-0.024131801 -0.010947044 -0.00044166113 -0.00022581955 -1.3518429e-05 -0.017249933 -0.004822522 -2.3017983e-05
-6.369392e-05 -5.8179092e-05 -0.0059739063 -0.005086375 -0.0038843106 -0.01148351 -0.01615666 -0.004861823
00000000: 5ecc 01bc eda5 e7bb b50c d4bb c83b 37bc
00000010: 29a9 9dbc f08b d0bb a035 a1bb 9aff 09bb
00000020: dcbb b4bb 5201 61bc 77cb e1bb c59b a1ba
00000030: 72cc 21b4 e6f5 b8b9 3503 f9bb e86a 3cba
00000040: a846 44b6 4af1 97b4 7a85 f2b6 ad9a 9ebb
00000050: c2bb 19b9 9b0b 38b8 14b3 1ab8 741e 4bb9
00000060: 7a21 e7bb 00c3 c6b8 7dde d1bb d90f 53bc
00000070: ad14 89bc 6300 0fbc a299 0439 2184 0bbc
00000080: 597f 89bc c436 b6bc c874 64bc d5ab 18bb
00000090: 74d6 51bc 2a35 92bc c15c a9bc e05e 54bc
000000a0: ba99 b3ba 4514 26bc d852 46bc 1653 5fbc
000000b0: 0fa7 f6bb c75f e3b8 9457 76bb 8831 95bb
000000c0: 6953 c4bb f490 1dbb 6a6f 7ebc 099f 05bc
000000d0: bff0 1bbc b9b5 fbbb fd5b aabc 113c 4abc
000000e0: 425a e0bb 5520 f5bb 6d40 71bb 4107 96bc
000000f0: 25fd 5ebc 7825 c4bb d86a 03bb 9080 ceba
00000100: 7360 40bc be6c 20bc bf45 23bb e010 a3ba
00000110: 8336 15ba 3be8 b3bb 9cf9 80bb 4740 41ba
00000120: 3ca8 7cba bdbe 6cba 4b9e cdbb 4084 4dbb
00000130: 5ff0 bcbb b9df 92bb 8997 a4bc 90e7 efbc
00000140: ea39 55bb ddce 20bb c998 9eb9 68db 54bc
00000150: c684 e9bc 59d2 e1ba e279 a2b9 93a4 54b8
00000160: cdd7 00bc ff91 cbbc 7ab1 69b7 cd6e b8b8
00000170: 02c1 a8b8 f0ff 7dbb e8e9 c1bc 020a d3b8
00000180: ef6d 55ba 5e05 5eba 54b6 a0bb f0d5 bfbc
00000190: cca9 18bc ec69 b8bc 47d9 8abc 3d6b b2bc
000001a0: fe6b 0bbb baf9 2abc 8c09 e5bc 2dcd acbc
000001b0: faea cbbc b0e7 5cbb a1c0 8ebc 1e66 ffbc
000001c0: 56e0 97bc 68e7 67bc 045c c9ba ce55 9cbc
000001d0: f528 b7bc 2f05 cfbb 29dc 7fbb 2cd2 15b9
000001e0: 4f0f 89bc 3afb 1dbc 8aa4 82ba 2cbc 2dba
000001f0: 73b7 adb8 0018 c5bb ecef 90bc 8d28 b7bc
00000200: d6e3 98bc dae1 32bb a150 e9bb d705 b9bc
00000210: d190 f3bc e61e c8bc a133 febb 8f6f 48bc
00000220: 9147 debc e3c5 ecbc a98f babc c1b5 0cbc
00000230: 173e 48bc 1bdf b5bc 7f65 a8bc 6940 73bc
00000240: dcad 12bb 1b84 0cbc 8e83 44bc 2623 2abc
00000250: dcd2 ebbb 12ae 76b8 804f b415 6844 9295
00000260: 025a 0197 2615 9497 6de7 7a16 f22f 0017
00000270: af8e f196 3c66 a514 77f2 da16 ab81 4d17
00000280: 58b7 8616 bd11 9015 90cc 3697 4312 6d17
00000290: f342 8a17 d726 d896 d10f 3117 5633 a916
000002a0: ad68 a295 d382 1096 0e5d 2517 817a 1c16
000002b0: b522 4d97 a366 b016 b0b2 f514 9e76 06bc
000002c0: 9581 83bc 85e0 68bc 636b 27bc 6b83 6e35
000002d0: eb91 4abc 3cb5 b4bc 2b65 89bc 28b6 9cbc
000002e0: 8ced 39bb ead9 10bc a7ba b4bc 29d4 b1bc
000002f0: 50de b9bc 1b97 0bbc 7941 91bc 746a c9bc
00000300: 58b6 bbbc 2755 c5bc 5104 60bc b7f8 79bc
00000310: 2445 9ebc 74f3 92bc ba3c a6bc e365 1abc
00000320: 2e35 ccba 7051 51bc 096e 89bc a637 61bc
00000330: 541d 95ba 1659 eeba db60 88bc 3b8b c1bc
00000340: 0722 b0bc 9518 0fbc e6d4 32bb 6fa7 9ebc
00000350: af81 d1bc 65d2 b2bc 0f65 47bc 574d 95bb
00000360: 4355 8fbc 5874 a8bc 6b6e 8ebc 6ef4 efbb
00000370: 8246 e4ba f063 31bc e0d2 35bc 9192 17bc
00000380: 4f2a d0ba eb05 adbc 98d8 d7bc a4ec cebc
00000390: a834 cfbc b2b0 33bc 9027 b8bc 7aa3 eabc
000003a0: 04df b3bc ef7b 8ebc 67b8 fcbb d950 e3bc
000003b0: b314 d3bc 817a 33bc 3a52 84bb 7748 04ba
000003c0: 0eb0 c5bc 3b5b 33bc c18e e7b9 f9c9 6cb9
000003d0: 36cd 62b7 bb4f 8dbc 3f06 9ebb be16 c1b7
000003e0: 6a93 85b8 5305 74b8 c2c0 c3bb 9bab a6bb
000003f0: eb8f 7ebb 5525 3cbc f95a 84bc ed4f 9fbb

fc1.bias f4 [120]
-0.014499307 0.04790312 -0.002063326 0.025800278 -0.06465485 -0.006386196 -0.020450778 -0.02567262
6.983293e-05 0.029058605 0.059780646 -0.022332149 -0.01290695 -0.050149925 -0.0070749717 0.03501422
-0.0033325613 0.07233918 0.1019877 -0.06851855 0.09954215 -0.0066891094 0.055244062 -3.1234893e-05
0.015278744 0.05426148 0.011385671 -9.012446e-06 0.06557338 -0.0018123626 -0.014007169 -0.007442534
-4.5337797e-10 0.047561582 -0.04318399 -0.01598766 0.07964425 -0.025162267 0.048369367 -0.014097386
0.025294593 -0.018463774 -2.8263317e-05 -0.00036142333 0.07497734 -0.010479832 -0.021764208 0.010342924
0.048329335 0.007946446 -8.77831e-06 -0.04875731 -0.029852426 0.039977133 -0.022020513 0.0097055435
-0.06583981 -0.0071574547 -4.521199e-08 -6.94294e-07 -2.2081727e-05 0.06946645 -0.025864217 0.07135074
-3.7932217e-08 0.05076868 0.046032883 -0.0002221093 -0.012771043 0.10825628 -0.0018653881 -0.004097054
-0.00083105994 0.07117436 0.007939161 -1.22702295e-05 -0.0150882285 0.030010972 -0.0059487578 -0.002081134
-0.0156224985 -3.17509e-07 -0.014393879 0.06208901 0.06851266 0.08124259 0.054858405 -0.043192398
0.06410582 -0.005138539 -0.067684144 -5.659212e-11 -6.7571236e-08 -1.7204375e-10 -0.045510434 -1.9854447e-06
-0.048197586 -0.046567526 0.04004442 0.035353944 -0.0002544793 -0.027437601 -0.024535954 -0.024505025
0.07081408 -0.003520255 -3.2225686e-05 0.096243076 -0.0028120193 0.07455957 0.0093398215 -0.013367676
-0.0005579005 0.10701404 -0.020126939 -0.03562035 -0.008880574 0.08887491 -8.842811e-08 -0.0015760923
00000000: 808e 6dbc 1036 443d de38 07bb 1b5b d33c
00000010: c369 84bd 4b43 d1bb 6488 a7bc 634f d2bc
00000020: 4573 9238 500c ee3c 8ddc 743d e9f1 b6bc
00000030: ac77 53bc 026a 4dbd 2ad5 e7bb 126b 0f3d
00000040: 1a67 5abb 9026 943d edde d03d 7453 8cbd
00000050: c1dc cb3d 5130 dbbb 9947 623d 3602 03b8
00000060: b253 7a3c 4941 5e3d f78a 3a3c 2934 17b7
00000070: 564b 863d cc8c edba 537e 65bc 80e0 f3bb
00000080: 473f f9af efcf 423d b2e1 30bd 8ef8 82bc
00000090: 861c a33d 1921 cebc f51e 463d b9f8 66bc
000000a0: 9b36 cf3c 5741 97bc 0317 edb7 6b7d bdb9
000000b0: b88d 993d 9ab3 2bbc da4a b2bc 5e75 293c
000000c0: fbf4 453d cf31 023c 8e46 13b7 bfb5 47bd
000000d0: 138d f4bc 10bf 233d 5d64 b4bc 0004 1f3c
000000e0: 06d7 86bd 1589 eabb 1c2f 42b3 855f 3ab5
000000f0: 263c b9b7 6d44 8e3d 32e1 d3bc 5620 923d
00000100: eaea 22b3 d2f2 4f3d fa8c 3c3d 03e6 68b9
00000110: a33d 51bc 78b5 dd3d 0a80 f4ba 9440 86bb
00000120: 7ddb 59ba ddc3 913d 4113 023c 3cdc 4db7
00000130: 9e34 77bc 92d9 f53c cced c2bb a263 08bb
00000140: 82f5 7fbc 1b76 aab4 4ed4 6bbc 0c51 7e3d
00000150: 5e50 8c3d 8462 a63d 35b3 603d 83ea 30bd
00000160: ea49 833d 3061 a8bb fc9d 8abd 10e5 78ae
00000170: ae1b 91b3 032a 3daf 2669 3abd ae3d 05b6
00000180: d56a 45bd 97bd 3ebd 9e05 243d 4ccf 103d
00000190: a26b 85b9 d2c4 e0bc a0ff c8bc c3be c8bc
000001a0: f906 913d 14b4 66bb 112a 07b8 171b c53d
000001b0: db49 38bb b0b2 983d 0d06 193c 1904 5bbc
000001c0: 1240 12ba 2d2a db3d 40e1 a4bc a5e6 11bd
000001d0: d47f 11bc 0c04 b63d dee5 bdb3 e294 ceba

fc2.weight f4 [84, 120]
-0.050017066 0.011561654 -0.0071874703 0.01345909 -0.09856908 -0.105362885 0.06341488 -0.0044383593
1.1100695e-09 0.1189965 0.03343356 0.08066277 -1.0994689e-24 -0.05177445 0.004055401 0.044361714
0.0040703756 -0.094893195 -0.043459173 0.0225494 0.10277662 -4.14771e-11 -0.060172096 -5.9452473e-25
-0.0021533777 -0.055693462 0.05132957 -5.30845e-12 0.023820162 -9.35379e-23 0.07827906 0.009654188
-8.481761e-25 0.118444934 0.06687352 -0.008674865 -0.010080918 0.09782266 -0.058866195 0.081009254
-0.05047128 0.13701177 -1.6366299e-25 -0.0015202445 -0.03437634 0.12538758 0.027338434 0.0111771505
0.07050596 -0.01695891 3.3170382e-20 -0.10038327 -0.063508056 0.055465713 0.083603315 -0.2596643
0.14324525 0.0020544454 8.9323595e-18 1.466657e-24 -0.00031010687 0.16130374 0.02509434 -0.002278041
-6.3961547e-25 0.082152516 0.0011043943 0.005963708 0.008550612 0.023719015 0.03942423 -0.004147798
-5.8350616e-25 0.17406781 0.05272709 1.5292524e-24 -0.010429069 -0.20147721 -0.008816201 1.4252005e-06
1.7741035e-23 2.8699397e-24 -0.0042735185 0.21199696 -0.038558006 0.14436287 -0.06838509 0.03294036
0.05062002 -7.4040034e-25 0.13302478 1.5289793e-24 4.45095e-25 3.625984e-16 0.15202868 -7.823936e-25
0.19865309 0.13784425 0.08825047 -0.054916646 0.010885127 -0.026100704 -0.13139315 0.01701969
-0.08380972 -0.00037065858 -2.589263e-26 -0.018212544 1.2211133e-18 0.08252118 0.20785692 0.01158079
2.2106757e-23 0.04430501 0.13456015 -0.029127944 -4.5231993e-25 -0.07091275 1.1089894e-24 2.1122469e-24
2.9568822e-25 0.018590204 -7.4992214e-25 -0.017297003 -6.336724e-05 -0.087286174 -0.0062856255 -8.9856365e-17
-3.3114542e-25 0.054528154 -0.03685009 0.0002951028 3.684791e-24 5.4271303e-15 -9.206931e-25 -0.0033872342
0.00034386388 -0.07007068 0.004077454 0.0010173242 -0.07203467 9.482335e-16 -0.029190274 3.626289e-26
-0.020185394 0.020048972 -0.035825938 -1.1588273e-24 0.033064455 -6.136412e-24 -0.025538895 -9.562722e-25
-7.6111854e-25 -0.048170656 1.7143131e-07 -1.3540371e-24 -0.0042743892 2.7008584e-05 -0.011084507 -0.013664784
-0.017553879 -0.053567637 -3.871163e-25 7.588643e-16 0.017761104 0.007177 -0.004989405 -0.056861077
0.01652759 -0.018986924 1.7941569e-25 0.00021298615 -0.0015939395 -0.020147584 -0.018949484 -0.011404312
0.0212571 4.9638377e-25 2.290985e-24 3.7118366e-25 -2.1895583e-22 0.0025518264 -0.0373516 0.002318631
-1.11761745e-26 -0.016508823 -0.01736944 -9.962264e-10 -1.4794467e-24 -0.0038364271 0.028172946 2.042504e-24
4.4528235e-25 -0.02692499 0.02538174 -2.0429344e-24 -7.2782565e-25 0.0153874885 -4.4619624e-25 -1.0207031e-24
5.3970565e-25 2.2323785e-24 0.030626094 -0.007634275 0.047196954 0.059162345 0.045884486 -0.024235563
-0.0066164946 -1.376693e-24 -0.022061577 2.5372626e-25 -2.4378765e-25 8.917696e-26 -0.000103725746 5.5572726e-25
0.0032721767 -0.0055695334 -0.010159894 -0.06506792 0.0018126739 -2.3069407e-13 -0.062236797 -6.542366e-11
0.028678527 5.3655924e-07 -1.4834294e-24 -0.029231578 5.076799e-25 0.068430565 0.03841232 2.2841063e-14
-7.8470435e-26 -0.033563048 0.04110669 -0.07504098 5.0124153e-25 -0.06691906 1.6374263e-25 6.458164e-26
1.3392139e-21 -0.0014462351 9.588196e-25 -0.0003789213 -1.9072735e-25 -0.0022284847 -4.2167223e-05 3.7348296e-26
1.08341115e-23 -0.00040123527 -0.0023021654 -0.0008444868 1.4465231e-21 -6.045439e-24 -5.2040192e-25 -0.0006788343
00000000: b2de 4cbd 176d 3d3c df84 ebbb 8483 5c3c
00000010: 96de c9bd 7fc8 d7bd a9df 813d a86f 91bb
00000020: 1991 9830 70b4 f33d a1f1 083d 8632 a53d
00000030: 7322 aa97 7211 54bd 2be3 843b a1b4 353d
00000040: c960 853b 5d57 c2bd 3f02 32bd 85b9 b83c
00000050: 8c7c d23d 106b 36ae 0477 76bd 1aff 3797
00000060: af1f 0dbb d41e 64bd f53e 523d 44c6 baac
00000070: 8022 c33c 2829 e29a c650 a03d 992c 1e3c
00000080: b83f 8397 4293 f23d fcf4 883d 0521 0ebc
00000090: 6f2a 25bc 3f57 c83d ae1d 71bd 2ee8 a53d
000000a0: f9ba 4ebd d04c 0c3e df9a 4a96 f142 c7ba
000000b0: 35ce 0cbd 9a65 003e daf4 df3c 5e20 373c
000000c0: 6e65 903d 69ed 8abc 88a4 1c1f be95 cdbd
000000d0: 8310 82bd 0430 633d 3738 ab3d b8f2 84be
000000e0: e2ae 123e e0a3 063b e0c5 2423 45f4 e217
000000f0: d795 a2b9 cf2c 253e a592 cd3c 304b 15bb
00000100: 8ff3 4597 943f a83d 53c1 903a 356b c33b
00000110: de17 0c3c 614e c23c 4d7b 213d 40ea 87bb
00000120: 1f96 3497 d53e 323e 5cf8 573d eea3 ec17
00000130: b0de 2abc 0b50 4ebe d471 10bc 8449 bf35
00000140: ad94 ab19 030d 5e18 df08 8cbb bb15 593e
00000150: 00ef 1dbd dcd3 133e 7b0d 8cbd 79ec 063d
00000160: f056 4f3d 8f24 6597 a637 083e 1c99 ec17
00000170: 0fc0 0917 1406 d125 68ad 1b3e 9b23 7297
00000180: b76b 4b3e 0b27 0d3e aabc b43d 47f0 60bd
00000190: 8857 323c 25d1 d5bc ed8b 06be e06c 8b3c
000001a0: 6ea4 abbd f454 c2b9 cf36 0095 7932 95bc
000001b0: 5b34 b421 dd00 a93d 72d8 543e 5bbd 3d3c
000001c0: aecd d519 2c79 353d 23ca 093e ba9d eebc
000001d0: 7afc 0b97 b43a 91bd 999b ab17 5c6d 2318
000001e0: ab05 b716 7c4a 983c f416 6897 72b2 8dbc
000001f0: 07e4 84b8 18c3 b2bd a6f7 cdbb d631 cfa4
00000200: 16f8 cc96 ea58 5f3d 1ff0 16bd 07b8 9a39
00000210: 678c 8e18 7188 c327 6978 8e97 5cfc 5dbb
00000220: a148 b439 3781 8fbd 2a9c 853b bc57 853a
00000230: ea86 93bd a4a7 8826 7120 efbc ad90 3315
00000240: d75b a5bc be3d a43c 38be 12bd e151 b397
00000250: 986e 073d 1564 ed98 f236 d1bc d8f9 9397
00000260: 068e 6b97 984e 45bd ae12 3834 f086 d197
00000270: 2d10 8cbb 7e90 e237 cb9b 35bc 42e2 5fbc
00000280: 27cd 8fbc bd69 5bbd 079d ef96 4dba 5a26
00000290: bc7f 913c 0a2d eb3b 2a7e a3bb 29e7 68bd
000002a0: de64 873c 778a 9bbc 1a1b 5e16 0955 5f39
000002b0: bceb d0ba 8c0c a5bc f33b 9bbc 27d9 3abc
000002c0: 5f23 ae3c 939f 1917 a241 3118 66c0 e516
000002d0: c659 849b 8b3c 273b fefd 18bd 2cf4 173b
000002e0: f05d 5d94 833d 87bc 5b4a 8ebc 9aeb 88b0
000002f0: ecee e497 916c 7bbb f3ca e63c f607 1e18
00000300: e7ce 0917 cc91 dcbc 5eed cf3c 7c10 1e98
00000310: 4a40 6197 ce1b 7c3c 4f17 0a97 37f2 9d97
00000320: e307 2717 d0b8 2c18 93e3 fa3c f128 fabb
00000330: 9851 413d 3754 723d 5ff1 3b3d a989 c6bc
00000340: 2ecf d8bb 6e08 d597 7bba b4bc 880c 9d16
00000350: b2e5 9696 9dca dc15 5687 d9b8 40fd 2b17
00000360: 0472 563b a280 b6bb af75 26bc 5442 85bd
00000370: 3e97 ed3a 85de 81aa 03ec 7ebd 3fde 8fae
00000380: 3bef ea3c 1208 1035 b18c e597 1077 efbc
00000390: 8c1e 1d17 5325 8c3d 3d56 1d3d e8bb cd28
000003a0: 8c48 c295 6879 09bd 7d5f 283d 16af 99bd
000003b0: 7220 1b17 dc0c 89bd 1cb4 4a16 7ae5 9f15
000003c0: 5460 ca1c 998f bdba c25e 9417 f5a9 c6b9
000003d0: e91b 6c96 c50b 12bb b6dc 30b8 97f0 3815
000003e0: ec8f 5119 e35c d2b9 eddf 16bb 8d60 5dba
000003f0: a797 da1c 21df e998 7d0e 2197 ccf3 31ba

fc2.bias f4 [84]
0.05709993 -0.03391422 0.023494843 0.08505251 0.043747738 -0.0047563356 -0.0071083843 0.10111683
0.09047998 -0.015296855 0.036183804 0.05026549 -4.0366736e-18 -0.009657191 -0.0016940939 -0.035230752
-0.060539443 0.0074584493 0.020006135 0.061326087 0.079064496 0.08671728 0.10061657 -0.06663099
-1.5255536e-06 -0.038140092 0.010934245 0.09362562 -0.0012725419 0.025910847 0.007314873 0.04060249
-0.029190628 0.056643926 0.07206682 0.062090326 0.14629994 0.11306114 -0.11871118 -1.0718635e-06
0.09710516 0.02469479 0.011675564 0.07656425 -0.00012733317 0.017254064 0.00941473 0.026939679
0.0069535095 0.016836282 -0.008444191 -0.045164365 0.120838225 -0.011167575 0.054508243 0.012246518
-5.3507e-12 -6.81057e-22 0.044014648 0.028230265 -0.04017533 0.042561527 0.1149547 0.10111494
0.032858517 -0.08824263 -0.0021968377 0.075434655 0.1057824 -0.004972722 -0.028573895 -0.00017684934
0.07654082 0.13317546 0.084870584 -0.017724408 0.03560153 0.011409225 0.05825978 0.02770521
0.012515514 0.010890095 0.16946033 0.014952577
00000000: 9ee1 693d a3e9 0abd 4278 c03c 0330 ae3d
00000010: d430 333d 09db 9bbb 73ed e8bb 5716 cf3d
00000020: 914d b93d a99f 7abc 7835 143d 30e3 4d3d
00000030: 4eed 94a2 3239 1ebc 5c0c deba 1f4e 10bd
00000040: 35f8 77bd 0266 f43b e8e3 a33c 1031 7b3d
00000050: 91ec a13d d498 b13d 0f10 ce3d d475 88bd
00000060: 9fc1 ccb5 c938 1cbd 8c25 333c cabe bf3d
00000070: 6ccb a6ba fc42 d43c 9ab1 ef3b cc4e 263d
00000080: 2f21 efbc 7603 683d c597 933d 6d52 7e3d
00000090: a7cf 153e 998c e73d d91e f3bd f3dc 8fb5
000000a0: 12df c63d ba4c ca3c dd4a 3f3c b8cd 9c3d
000000b0: bd84 05b9 6558 8d3c 3d40 1a3c 9ab0 dc3c
000000c0: 44da e33b 3eec 893c 8159 0abc 45fe 38bd
000000d0: 087a f73d 34f8 36bc 0944 5f3d 9fa5 483c
000000e0: d242 bcac 3cd6 4d9c b448 343d 2843 e73c
000000f0: e38e 24bd ff54 2e3d 5f6d eb3d 5a15 cf3d
00000100: a796 063d 8db8 b4bd d2f8 0fbb 7c7d 9a3d
00000110: 71a4 d83d 37f2 a2bb cd13 eabc a270 39b9
00000120: 6fc1 9c3d 265f 083e a1d0 ad3d c732 91bc
00000130: e9d2 113d c2ed 3a3c cfa1 6e3d 09f6 e23c
00000140: df0d 4d3c 5e6c 323c 0287 2d3e a7fb 743c

fc3.weight f4 [10, 84]
0.06638237 0.046741147 0.0024448696 0.10982143 -0.07655087 -0.008187115 -0.12333358 -0.10527953
0.075708695 5.497708e-21 -0.0063152006 0.029131426 1.8085104e-24 1.8576534e-11 0.008262041 -0.15973035
-0.16355693 -0.04437791 -0.0007295138 -0.006652425 -0.0722395 0.06515482 -0.0009463885 0.011745231
-1.1639543e-21 -0.11337729 -0.018539285 0.06888045 -0.020083938 -0.009038065 0.0019452882 -0.04559112
-0.056934353 -0.05824919 0.034639478 -0.08393028 -0.052365772 0.08378198 -0.07002011 1.0827164e-21
0.10867501 -0.011461036 -0.04131156 0.027554031 -1.7045306e-22 0.007762685 0.14863105 0.0834214
-0.027407726 -0.17835213 -0.06093981 0.03583238 -0.09298781 -0.12636927 0.056490887 -0.13079008
2.4997606e-12 -8.86763e-25 0.08494974 0.07407738 -0.016819553 -0.28632563 0.009771934 0.029787231
0.09358707 0.024997681 -0.01304043 0.056447204 0.17456934 0.021993825 -0.0091487365 -2.4019142e-08
-0.004798904 -0.15991503 0.063677974 -0.04160225 0.03325742 0.028038936 -0.0034843083 0.005283358
0.076133646 -0.22255372 -0.061501775 -0.18448825 0.08447171 0.022026306 7.786514e-05 -0.031163165
-0.028880417 -0.014258629 0.13469224 -0.08960204 0.072598316 3.8959394e-22 0.0007436898 -0.095259674
-1.6827033e-23 -7.6893116e-14 0.0038701105 -0.20440823 -0.018165797 -0.00205591 0.019024303 -0.24724083
-0.08587664 -0.057508834 -0.21292035 0.013000379 5.042843e-24 -0.0053676944 0.10923893 -0.17241338
0.0060826233 -0.0014367519 0.00010963868 0.036431286 0.096873224 0.12319348 0.030203832 -0.055178836
-0.043413654 -0.2277807 -0.04164524 -3.1527085e-23 -0.15917848 -0.0008055649 -0.005996933 0.092715055
-9.93371e-24 0.20450889 -0.09619353 0.01698258 -0.1946051 -0.1430458 0.025157142 0.0037383228
-0.30259475 -0.19609217 0.041860584 -0.15844487 -1.9836842e-15 -2.6249846e-24 -0.09153081 0.14748594
-0.03116162 -0.13981874 0.12767594 -0.12850678 -0.1768848 -0.14396276 -0.03685506 -0.03709329
-0.19695367 0.09303501 0.0076606474 3.271222e-08 0.060062923 0.09452517 -0.020737875 0.004726304
-0.16094969 0.15353718 0.18774664 -0.06498305 -0.026671069 0.085278384 -0.053027682 0.1218722
-0.064507544 -0.021775987 -0.0002545114 0.059525695 0.012538752 0.00028725222 -0.16362159 0.054938834
0.089191176 -2.5217237e-09 0.0015247967 -0.05139349 4.0758696e-24 2.2557817e-11 0.016947953 -0.028783511
-0.061956108 0.03852507 0.004010214 -0.017756378 -0.11274179 -0.15706067 -0.012716578 0.028386727
-7.3619024e-22 -0.054238744 0.01335986 0.088931 0.0029784797 6.557945e-05 2.579379e-05 -0.10269328
0.2308488 -0.090888344 0.08844601 -0.019670324 0.03770766 -0.1953785 -0.27604088 -2.8675465e-22
-0.0698722 -7.833334e-05 -0.008273236 0.0038060949 2.1614154e-16 0.14516816 -0.00068650604 -0.05444074
-0.009457292 0.053260747 -0.072588526 0.001283686 -0.06348917 -0.15415892 0.033001866 0.067709364
-2.7622834e-14 -3.793309e-25 -0.098614775 -0.41858155 0.031360213 0.046226274 0.10657847 0.06862056
-0.12288009 -0.08706633 0.018557576 0.13720345 -0.024958353 0.06781777 -0.011490818 4.2966946e-09
-0.07840084 -0.03361557 -0.24027221 -0.007010224 0.11879649 0.09402147 -0.3430257 0.057146624
0.055329427 -0.0045332657 -0.017732995 0.03169913 -0.012625311 -0.0403708 0.0003601871 0.013327958
00000000: 7bf3 873d a573 3f3d 1b3a 203b 0fea e03d
00000010: b4c6 9cbd 4023 06bc 5196 fcbd cb9c d7bd
00000020: 290d 9b3d 92b2 cf1d beef cebb 07a5 ee3c
00000030: 3ded 0b18 a366 a32d 835d 073c 5a90 23be
00000040: 787b 27be 9dc5 35bd d83c 3fba 96fc d9bb
00000050: 4ef2 93bd e46f 853d 0f17 78ba 126f 403c
00000060: 4de4 af9c 5a32 e8bd b3df 97bc 3211 8d3d
00000070: 1287 a4bc 6414 14bc 0af9 fe3a c1bd 3abd
00000080: ff33 69bd b496 6ebd 20e2 0d3d a3e3 abbd
00000090: 7e7d 56bd e395 ab3d b466 8fbd 909d a31c
000000a0: 0191 de3d 12c7 3bbc 4f36 29bd feb8 e13c
000000b0: ab10 4e9b 1f5e fe3b bd32 183e d7d8 aa3d
000000c0: 2b86 e0bc f1a1 36be 069c 79bd f9c4 123d
000000d0: 6570 bebd f266 01be fd62 673d d6ed 05be
000000e0: afe7 2f2c 4d38 8997 21fa ad3d e2b5 973d
000000f0: 29c9 89bc 4699 92be 761a 203c 5a04 f43c
00000100: 94aa bf3d f0c7 cc3c 87a7 55bc 2f35 673d
00000110: 4ec2 323e 652c b43c 95e4 15bc a752 ceb2
00000120: 2040 9dbb c4c0 23be 9969 823d 1f67 2abd
00000130: ef38 083d e9b1 e53c fe58 64bb 0520 ad3b
00000140: f5eb 9b3d 1fe5 63be 49e9 7bbd 7dea 3cbe
00000150: 81ff ac3d 8370 b43c 874b a338 e549 ffbc
00000160: a096 ecbc 069d 69bc c3ec 093e 4681 b7bd
00000170: 6dae 943d be7e eb1b 2df4 423a 8117 c3bd
00000180: b7bd a299 dd25 ada9 aea1 7d3b 6450 51be
00000190: 70d0 94bc 72bc 06bb dbd8 9b3c b32c 7dbe
000001a0: 18e0 afbd 628e 6bbd cb07 5abe 8bff 543c
000001b0: e615 c318 7ce3 afbb a9b8 df3d 228d 30be
000001c0: be50 c73b 6551 bcba d1ed e538 f938 153d
000001d0: 7865 c63d dd4c fc3d 076e f73c 3403 62bd
000001e0: 84d2 31bd 583f 69be 3394 2abd a474 189a
000001f0: afff 22be 8c2c 53ba ec81 c4bb 64e1 bd3d
00000200: 5925 4099 c76a 513e 1d01 c5bd 0d1f 8b3c
00000210: 8f46 47be 997a 12be 5a16 ce3c a6fe 743b
00000220: b3ed 9abe 63cc 48be 0176 2b3d 5f3f 22be
00000230: 84f0 0ea7 2d19 4b98 8174 bbbd 8e06 173e
00000240: a746 ffbc a52c 0fbe 7bbd 023e 4897 03be
00000250: 4a21 35be f96a 13be 55f5 16bd 22ef 17bd
00000260: 39ae 49be 2489 be3d 2b06 fb3b 777f 0c33
00000270: 8a04 763d 6a96 c13d 7ae2 a9bc 1ddf 9a3b
00000280: ffcf 24be da38 1d3e a840 403e d515 85bd
00000290: 497d dabc 6fa6 ae3d 8e33 59bd 2298 f93d
000002a0: 881c 84bd 8e63 b2bc f16f 85b9 37d1 733d
000002b0: 566f 4d3c 579a 9639 6b8c 27be 8b07 613d
000002c0: dda9 b63d a24a 2db1 b0db c73a fb81 52bd
000002d0: 75ad 9d18 b06b c62d 6fd6 8a3c 66cb ebbc
000002e0: b0c5 7dbd 77cc 1d3d 1d68 833b d375 91bc
000002f0: 2be5 e6bd 83d4 20be 3259 50bc 488b e83c
00000300: f67f 5e9c 7229 5ebd 50e3 5a3c 7521 b63d
00000310: 9932 433b b387 8938 be5f d837 db50 d2bd
00000320: a163 6c3e ab23 babd 2f23 b53d a923 a1bc
00000330: 5973 1a3d 4d11 48be 3b55 8dbe 2255 ad9b
00000340: 2819 8fbd e446 a4b8 788c 07bc ad6f 793b
00000350: b931 7925 f6a6 143e a4f6 33ba 41fd 5ebd
00000360: c2f2 1abc f127 5a3d 4ba9 94bd 5b41 a83a
00000370: 9c06 82bd d6db 1dbe f72c 073d 35ab 8a3d
00000380: ebcd f8a8 61cb ea96 8bf6 c9bd 5250 d6be
00000390: 9173 003d c357 3d3d d045 da3d f088 8c3d
000003a0: 8ea8 fbbd d54f b2bd 0f06 983c 107f 0c3e
000003b0: 7675 ccbc 0be4 8a3d fc43 3cbc 20a2 9331
000003c0: 9f90 a0bd 7bb0 09bd eb09 76be 05b6 e5bb
000003d0: 934b f33d 548e c03d 11a1 afbe 9412 6a3d
000003e0: 1ca1 623d ca8b 94bb c944 91bc f2d6 013d
000003f0: 64da 4ebc da5b 25bd 7fd7 bc39 825d 5a3c

fc3.bias f4 [10]
-0.07723211 -0.107684314 0.058245968 -0.0025042875 -0.15617251 0.042616624 0.1412989 0.025470203
-0.019209055 -0.148335
00000000: de2b 9ebd 9889 dcbd 5393 6e3d f91e 24bb
00000010: b0eb 1fbe c58e 2e3d a9b0 103e e3a6 d03c
00000020: 4f5c 9dbc 21e5 17be
