HW1_Split_nb/checkpoints/model_dropout_9.pt (torch, 250600 bytes, 10 tensors)

conv1.weight f4 [6, 1, 5, 5]
00000000: 3926 9c3e b881 683e 3fd1 a33e 263e 04be
00000010: 833d 02be 99c4 fc3b ab22 4db9 2a4d 943e
00000020: daa1 053d 37c7 cdbd a520 6abe 4234 a3be
00000030: 5eef 943e 1d19 0c3a 3cc4 623e 8256 e7be
00000040: 4d97 dabe c330 e13d c974 833d edf6 a13d
00000050: c026 83be 1c82 69be c0d4 ae3e e594 fdbc
00000060: c98d 63bd ae4a ef3e 045b 113c b09d 94be
00000070: 3eaa 9abd be30 25be 279a 9a3e 96b6 66bd
00000080: 09af d5be f864 e73d a7ce da3d 5d44 0ebe
00000090: e3d6 9abe 5b38 53be df69 8f3e 839d a43e
000000a0: a066 dcbd 55e4 ebbe 2f23 90be 68f0 033f
000000b0: 212e a63e f290 5cbc 335c 9bbe 825d 3fbd
000000c0: 74c1 323e 8930 b03d 73d0 9c3d 8576 5d3e
000000d0: a419 f8be e72d 52bd e515 d1be c65d 8bbf
000000e0: 9b16 30c0 f30e 21c0 0050 e6be 062f f03d
000000f0: 5e70 2abe 9605 07c0 cb6e d7bf b00a 45bd
00000100: 6132 5c3e e47e 6d3e a6c7 43be 13a9 d8bc
00000110: 518d 28bd b63f 8b3e d0c0 0d3f c69b 903e
00000120: 1f39 123e ca56 41be 7912 8b3e 8aa9 9abe
00000130: 5b2d f13d e2ca 2bbe ea41 553d 81de 113e
00000140: 5aaa 18be 77d7 3fbe b25f bbbd 3dd2 4a3e
00000150: e39b bd3c cfab 00be c025 67be 5322 183c
00000160: c3bf 833d a347 623e 31aa 4dbd 1e09 4d3e
00000170: a246 803d 9c2b 873e ca5e 143e 16b4 fa3d
00000180: d7cb b5bd c4d2 1b3d d439 78bd b6e1 3a3e
00000190: 367c adbc a0f3 1a3d 9a95 6abe 225f a93d
000001a0: b6de 863b 0ab1 9a3d 5dce c4bc 8409 3e3e
000001b0: 2091 113e 3d8c c33d a522 ba3e 4858 d23e
000001c0: 2c3b b03d 443a 663e 05ea 7abe 709a 2a3e
000001d0: 4614 5c3c 7081 dbbd 98e4 acbe 88d1 9abe
000001e0: cb05 b1be 51f8 6cbe 7f7e 09bf 26cc 7fbe
000001f0: 5653 4cbe a347 2bbe 4b03 873d 2907 b2bd
00000200: 5181 643e e3e8 5c3d 375d 093c 0118 6bbd
00000210: 7811 123e 8724 543e 67e1 9bbd c627 45bc
00000220: 904e 32be 4461 2abc ac42 543e bab4 0cbe
00000230: 082d 3bbe bb30 43be a091 af3d a2e7 853e
00000240: c3a3 d13a 06ff 0fbe bf95 f33b 068a 143e
00000250: 504a 93bc f341 b93d
0.30497912 0.22705734 0.3199558 -0.12914333 -0.12718777 0.007713866 -0.00019563238 0.28965122
0.032625057 -0.10047763 -0.22864015 -0.31875807 0.29088873 0.00053443183 0.2214517 -0.45183188
-0.42693558 0.10995629 0.064187594 0.079084255 -0.256155 -0.22803539 0.3414669 -0.030954788
-0.05555514 0.46736664 0.0088717975 -0.29026556 -0.07552002 -0.16131875 0.30195734 -0.05632647
-0.41735104 0.11298555 0.10683947 -0.13893266 -0.3024207 -0.20626967 0.2801046 0.32151422
-0.10761762 -0.4607264 -0.28151843 0.51538706 0.3245707 -0.013462292 -0.3034378 -0.046720035
0.17456609 0.08603007 0.07656946 0.21627243 -0.48457062 -0.051313307 -0.40837017 -1.0887992
-2.7513797 -2.5165374 -0.4498291 0.11727719 -0.16644427 -2.109716 -1.6830686 -0.048105896
0.21503593 0.23192936 -0.19119129 -0.026447808 -0.041150395 0.27197045 0.55372334 0.28243846
0.14279602 -0.18880764 0.2716253 -0.30207473 0.11776229 -0.16776612 0.052064814 0.14245035
-0.14908734 -0.18734537 -0.09149112 0.19806762 0.023145622 -0.1256554 -0.22572994 0.009285527
0.0643306 0.2209764 -0.050211135 0.20023009 0.06263472 0.2640046 0.14489284 0.1224138
-0.0887677 0.0380428 -0.060602024 0.18250164 -0.021177392 0.037829995 -0.22908631 0.08270098
0.0041159047 0.07553299 -0.024024183 0.18558317 0.14215517 0.09548233 0.36354557 0.41082978
0.08605036 0.22483164 -0.24503334 0.16660476 0.013432568 -0.107180476 -0.33768153 -0.30237985
-0.34574732 -0.231416 -0.5370864 -0.2498022 -0.19953665 -0.16726546 0.06592425 -0.08692772
0.22314955 0.053933036 0.008384041 -0.05739594 0.14264476 0.20717059 -0.076113515 -0.0120334085
-0.17412782 -0.0103991665 0.20728558 -0.13740817 -0.18278897 -0.19061558 0.08572698 0.26153284
0.0015994239 -0.14062127 0.0074336226 0.14505777 -0.01797977 0.09045782

conv1.bias f4 [6]
00000000: 14ee 1ebd 7f33 4c3d 4b37 b83e 8156 82be
00000010: 2fa2 90bd 5501 173d
-0.038801268 0.049853798 0.35979685 -0.25456622 -0.07062184 0.036866505

conv2.weight f4 [16, 6, 5, 5]
00000000: 503b 383d 0cf6 8cbe 4d4e efbe 6e68 b4bd
00000010: 2e04 433f ae7e 12bd b940 5cbd aff4 99be
00000020: 6c41 c4bd 5952 783d 422d 76be 5b8f 7a3d
00000030: ed4e 9cbc 00c2 d8be 7e83 44be 6f6c bdbd
00000040: 757f 843e 84fa afbc ad68 5abf c130 42bf
00000050: 7685 c7bc d4c5 d23e 0591 b43e 0c2a 813b
00000060: 83ca 29be 766d 493e c3d7 f53d bab2 a73e
00000070: fbeb 18be 011a 723d a29c d53a 12a3 a23d
00000080: 3b07 193d e72f 6f3e 6290 0b3d 4c9d 9bbc
00000090: d16a 073d e67d 7fbe 11a0 c2bc 234e 813e
000000a0: b94b fbbc 3616 613e 8441 02be 3726 3fbf
000000b0: 6dd4 9bbe 27c9 26bd 6e6c 9e3e 8a43 90be
000000c0: 6e68 a4bf dea8 45bf ab08 bf3c 16a4 a83e
000000d0: b944 1dbe ba9d 3dbe 5e09 b43e f028 53be
000000e0: a2b8 7d3d de1b 40bf 18ee 88bf 8524 38bf
000000f0: 9352 a9be 16b9 a0be cb5e f2bd 320d 4cbe
00000100: e4a2 ffbe ba9f d3be 161a 52be 03d5 033f
00000110: bdb8 833e aad1 adbe d7a6 d9be bd77 26be
00000120: 641b 6abe 85df b7bd cbc0 18bf 3e4e 8d3d
00000130: 3671 7ebe 225d 36be 0ba2 bbbd 4ffa 53be
00000140: 6609 3d3e 37ff 10bd 4d0e c83c 6b62 81be
00000150: bb27 63be 4e8a 0e3d 02f1 143e 12d5 4e3d
00000160: 536b 33be ccee 43be 0295 7b3c a188 ed3d
00000170: 6ab7 883e dda8 e9bd 98e5 94bd 5560 76be
00000180: 5d72 b73d 2ee1 9a3e 5c33 14be 2ffa 52bd
00000190: ffa7 8dbd f05a 2f3e 5191 5c3d 1973 65be
000001a0: 81fe fdbc af7f 0a3d 5a84 ed3c 0c9f 553e
000001b0: e586 65bd b5fa 9f3d fc68 fdbd e776 12bd
000001c0: fa06 0d3e da68 98bd db39 a23e db06 8cbe
000001d0: b444 7ebe 998d 34bd 97eb ebbd af28 833e
000001e0: 14c4 dfbe 5147 b0be d59a 043e e80a ba3e
000001f0: c082 ae3e 5b36 393d 107e 14be 0fc3 15be
00000200: cb16 67be cef4 9dbe c97a 0a3e 05e9 253d
00000210: e67f 9d3d a23e 6ebd 2c1b 30be bc0e 903d
00000220: 0a06 d73d 741a 963d 6e32 23be b7dd c2bd
00000230: 7415 ddbc 348f d73d 5adb 2d3e 6c25 37be
00000240: 30c8 c1bd 2db1 34be 4f33 113e a9b4 023e
00000250: 4b14 04be 77d8 45be 73cb 57be 52d5 293e
00000260: 9526 abbe 0761 62be c877 b1bc b327 61bd
00000270: bcc3 b83d d7a0 11be 864c 2dbe 37ba a33c
00000280: b93c a63c b0bb afbd 3361 6c3e 32d3 ae3d
00000290: ebbf c43d 57fc b9be 77af f6bc 0048 813e
000002a0: 53c3 ec3d ef6b b13e febf 96be 461b 793e
000002b0: b6ac 503e a73c de3d e430 883e 999f a93e
000002c0: d94e 8b3c c59a 1cbe 42b7 2cbc 3457 e4bd
000002d0: 1b7a 313e bfbf 6ebe 4006 65be 4d74 51bd
000002e0: 0dce e23d b3cb 9c3d ae51 d9be 9096 873b
000002f0: 8a5f 223d 6676 2c3e b3f6 e3be 1163 87bd
00000300: ef34 823d 2425 8a3c 165c 0d3e c14f 72bf
00000310: d7bf 343e 9da4 21bd 2ea3 713e e803 483e
00000320: 86c1 19be 2c5e 7fbe 9403 693e 2207 a73e
00000330: 614e 1b3d 50ae d6be 1650 15bf 93cc 383e
00000340: c46d 8a3c 822d 82bf a5b7 01bf e8e9 31bf
00000350: e5f7 21bf 3c6a b6be 6f3a 82bf 034f 06be
00000360: 35ad 7f3e dbd4 b9bd deaf 8ebe 3902 56bf
00000370: 4b29 ba3e 53be e53e 268e 4ebc ae51 c4be
00000380: a104 45bf 4bb3 403e 8ca2 d43d d4f1 7ebe
00000390: 2fd9 05be 48eb 5dbe f3f8 e23d d8a6 c6bd
000003a0: 2de8 3abe ff8a 00bd 11ec 87be eaaa 363e
000003b0: 13ae a1bb ce82 27be 06e6 e93c 910a 0fbe
000003c0: ca82 d13d 7874 cebc 46ec 883d 3877 123d
000003d0: f9f7 89be 327a 37bd 4344 1e3e 9502 ad3d
000003e0: 9b64 1fbd 544c fcbd c35f 313e 22dc 2e3e
000003f0: ff5f ff3d 5e20 0fbe b240 97be 4613 d13d
0.04497844 -0.2753147 -0.46739426 -0.08808981 0.7617825 -0.035765342 -0.05377266 -0.3006949
-0.09582791 0.060625408 -0.24040702 0.06117187 -0.019080603 -0.4233551 -0.19190785 -0.09249198
0.25878492 -0.02148176 -0.8531597 -0.7585564 -0.024355631 0.41166556 0.3526689 0.00394178
-0.16581158 0.19670662 0.12004044 0.32753545 -0.1493377 0.05910683 0.001629729 0.079412594
0.03736041 0.23358117 0.03407324 -0.018995903 0.033060852 -0.2495037 -0.023757966 0.25254926
-0.030675756 0.21981129 -0.12720305 -0.74667686 -0.30435506 -0.040719178 0.309421 -0.28176528
-1.284437 -0.77210796 0.023319563 0.32937688 -0.15358247 -0.18517199 0.35163397 -0.20621085
0.061943658 -0.7504252 -1.069766 -0.71930724 -0.33070812 -0.3139121 -0.118344866 -0.19926909
-0.49928963 -0.413328 -0.20517763 0.51496905 0.25726882 -0.33949023 -0.425101 -0.16256614
-0.22862011 -0.0897818 -0.5966918 0.06899689 -0.24847874 -0.17808965 -0.091617666 -0.20700954
0.18460616 -0.03539964 0.024420882 -0.252704 -0.22183125 0.034799866 0.14545062 0.05049617
-0.1752141 -0.19134063 0.01535535 0.115983255 0.26702434 -0.11409161 -0.07270354 -0.24060185
0.0895736 0.30249923 -0.14472717 -0.051508125 -0.06916808 0.17124534 0.053849522 -0.22407188
-0.031005146 0.033813175 0.028993774 0.20861453 -0.05603685 0.078114904 -0.1237354 -0.035757925
0.13772193 -0.07441874 0.31684765 -0.2734898 -0.24830896 -0.04408035 -0.115195446 0.25616977
-0.43704283 -0.3442941 0.12949689 0.36336446 0.3408413 0.045217853 -0.14501214 -0.1462519
-0.22567289 -0.30850834 0.13523401 0.040505428 0.0769041 -0.0581652 -0.17197865 0.0703406
0.10499199 0.07329264 -0.15937206 -0.09514945 -0.026987769 0.10525361 0.16978207 -0.17885369
-0.09462011 -0.17645712 0.14179729 0.12764229 -0.12898366 -0.19320856 -0.21073703 0.16585281
-0.33427873 -0.22107325 -0.021663561 -0.0549695 0.09021708 -0.14221512 -0.16923723 0.019986255
0.020292627 -0.085807204 0.23083954 0.08536376 0.09606918 -0.36325333 -0.030112965 0.25250244
0.11560693 0.3465266 -0.29443353 0.2432681 0.20378384 0.10851412 0.265998 0.33129576
0.01700537 -0.15293415 -0.010541739 -0.11149445 0.17331736 -0.23315333 -0.22365665 -0.051136304
0.11074457 0.0765604 -0.4244513 0.0041378215 0.039641894 0.1684204 -0.44524154 -0.06610692
0.063577525 0.016863413 0.13804659 -0.94652945 0.17651306 -0.039463628 0.23597404 0.1953274
-0.1501523 -0.24938267 0.22755271 0.3262263 0.037916545 -0.41929865 -0.58325326 0.18046789
0.016898043 -1.0170138 -0.50670844 -0.6949754 -0.6326888 -0.35627925 -1.0174083 -0.13116078
0.24968417 -0.09073802 -0.2786855 -0.8359714 0.3635963 0.44871768 -0.012607133 -0.38343567
-0.7696019 0.18818395 0.10382566 -0.24896938 -0.1307113 -0.21671784 0.110826395 -0.09699792
-0.1825263 -0.031382557 -0.26547292 0.17838636 -0.0049340813 -0.16358492 0.028552067 -0.13968875
0.10230024 -0.025202021 0.066856906 0.035758227 -0.26947 -0.04479427 0.15455727 0.08447758
-0.038914304 -0.12319246 0.17321686 0.17076162 0.12469482 -0.13977191 -0.29541546 0.10208754

conv2.bias f4 [16]
00000000: 097d 633e 446d 0a3e 996a 8ebd e2fd 22be
00000010: 92fe 983e f769 74bd 8309 d23d 8814 88bd
00000020: fd31 0fbe 7217 02be 2de3 a1bc cfa7 c13d
00000030: b27c 8a3e ef3e bdbd 7082 693c f300 273e
0.22215666 0.13518244 -0.06953926 -0.15917161 0.29881722 -0.05967137 0.102557205 -0.06644541
-0.13983913 -0.12704256 -0.019761646 0.09455835 0.2704826 -0.09240519 0.01425229 0.16308956

fc1.weight f4 [120, 400]
00000000: 7e30 51be 94a1 a63d 77cc f63d e1d5 bebe
00000010: 69b7 6fbe f064 ccbc 68c2 efbe ba0a 4fbd
00000020: 9a48 a0be 404e aebc a6e0 99bc 8868 94be
00000030: e28c 063d 72ef 9ebe 26d6 0cbe 0ce8 003c
00000040: c7ff 23be 3357 e8bd 8e5f b5bd 1ed1 0d3e
00000050: 5a03 9c3d 7a50 4abe 5e39 0a3e 6fa3 993d
00000060: e910 553e 3fc9 c53d 2394 cd3d 87a4 0fbf
00000070: fce3 82be 7ca2 e73d b5c6 07bd 128d acbd
00000080: 883f 10bc a40f 0fbe 059c 8cbd 2efd 76be
00000090: 1c47 c4bd dd80 5f3e 215e b23d f596 133d
000000a0: a2de 8f3d 101a c83d 0ca4 5d3e b9c7 523d
000000b0: 3a56 49be 672c f23b d936 5b3e 5b42 7cbd
000000c0: 904a bb3d 4582 e4bc 4621 2fbe 44a2 bf3d
000000d0: a238 6f3d e606 bb3e 091e 033c fc55 2cbe
000000e0: 9bd7 c3be 9879 db3c cd1d 673e 1554 8dbd
000000f0: bd88 90be f95e 85bd 658c 6abe 8434 3fbf
00000100: e4dc c1be 474d e43c 611d 173d 20a0 dfbb
00000110: 227a f3bd a3a2 64bd e40c 6cbd 3ace 5dbd
00000120: 2a8f 5dbe 9f08 21be c6d6 39bd 98af e6bd
00000130: 6706 0f3e e2e2 4b3e 5fa3 01be ec01 bf3d
00000140: 88c5 503e f37a bc3e adca 9f3d 8b8d 763e
00000150: 7212 1e3e 6c87 c33b 396d 103f 2ce8 413e
00000160: c42e 5b3e 5e09 0c3e a27c afbd 5b8a 1d3d
00000170: e6dd a03a a7bd 11bd a0d7 80bd c0c5 a0bd
00000180: ca47 a4bd b1b8 30be 1fc2 1fbe ce1a 0e3d
00000190: 2f03 16be 1e8f 22be e175 c63c 5d82 3e3d
000001a0: 4a57 933d 0566 45be 5055 a03d 07b1 af3d
000001b0: 55d6 73be 385a d8bd f36f d6bd 534f 913e
000001c0: b4e9 a1bd 50ea 43be c06e 1dbd 87c5 813e
000001d0: 84c3 373e 28b9 9b3d dde5 c4bc 60e1 15be
000001e0: 8201 613e 7242 733e 8977 ebbd 47b4 3cbe
000001f0: 9ba1 843d 99df d6be ef42 9a3d ea70 c43c
00000200: 1a79 0ebe cb65 10be fe30 82be 7222 8ebd
00000210: 013d 6c3c 5970 3cbe 9669 7e3b ce5f 4abe
00000220: 8c1d 523d 2575 d43e 84a6 403b 6b70 f6bd
00000230: 5b6c bb3c cf19 7c3e 20bd 463e f2c4 d93d
00000240: c0c4 0cbe 0cd1 2b3d 276b 893d efc8 3c3e
00000250: df3b e2bc e1dd bb3e ba4b fabe 9cc6 00bf
00000260: 3631 b13d 3f23 9d3d 0892 a73c 683a c4be
00000270: 0384 56be 147d 01bd 2574 563d 0b35 e43d
00000280: 47a7 47be 8c68 ff3d 289f 9cbd a647 87bd
00000290: 479f c63c 58f1 8c3e 3556 873d 0696 d33d
000002a0: 2bec 3fbe 1ff1 eebc 89df 483e a818 853e
000002b0: bffb a63e 8553 3bbe cb56 aebd f2e2 b63a
000002c0: b1e6 22be 6277 cb3c f068 fa3d 7f72 3fbe
000002d0: 6e74 26be 1856 833d 7d30 d23d 0a0c 423e
000002e0: 3461 23be ba07 35bd 1268 103e 42f7 663d
000002f0: 307f 06bf 71fa 37bd 970f a53d eb38 b13d
00000300: baa8 133e 78fe 25be c30e 28be daa9 b93e
00000310: a138 6dbd ab95 a63e 2b76 1ebe 2e0d 7e3e
00000320: 0b6f fbbc c9f2 6bbe 3a8f b43d 2789 a4bd
00000330: fd6d 993d fc93 e63d 7036 c0be 66ff 6d3e
00000340: a9a5 5e3e e41c 833c 5a6a b93e fc98 9ebd
00000350: 1ab0 eb3d 19ae f23d aedb b23c 82b4 15be
00000360: 095b 60bc 7260 a63d 9c0e 9a3d 8a09 033e
00000370: b200 afbd 273f 1dbe 59ed c2bd 41a6 e9bd
00000380: 6e96 b03d a1a3 4a3e 734d 11be 8e93 fc3c
00000390: f9a5 1dbc 187c 4b3e c00e 8dbe 29bc a83d
000003a0: c5e3 8c3e aef1 febd 234e 60bd 5250 ed3d
000003b0: b7ef 063f 7245 893e e791 85be 6276 f9bd
000003c0: a91d b8bb 7868 af3e 86e2 03be 6d8c 09be
000003d0: a1b5 7bbd d367 4e3e bf7c 8c3b be50 a1bd
000003e0: 9376 a9be 2cfb adbd 4a3c ee3a c52a 82be
000003f0: a436 b5bc 4b67 8c3e b173 eb3c 5f45 90bd
-0.20428655 0.08136287 0.12050717 -0.37272552 -0.23409809 -0.024950475 -0.46828008 -0.05054734
-0.3130539 -0.021277547 -0.018783879 -0.28986 0.0328492 -0.31042057 -0.13753566 0.007867824
-0.1601554 -0.11344757 -0.08856116 0.13849303 0.07617827 -0.19757262 0.13498446 0.075018756
0.20807232 0.09657525 0.100380205 -0.56110424 -0.25564563 0.11310288 -0.033148486 -0.084253445
-0.0088042095 -0.1397081 -0.06865696 -0.24120018 -0.095838755 0.21826501 0.0870936 0.036032636
0.07024886 0.09770596 0.2164461 0.05146 -0.19661799 0.007390547 0.21407641 -0.06158672
0.09145081 -0.027894149 -0.17102537 0.093571216 0.05840362 0.365287 0.008002766 -0.16829675
-0.3825043 0.026791379 0.22569962 -0.06900803 -0.28229323 -0.06512255 -0.22905119 -0.7468951
-0.3786384 0.02786888 0.036893252 -0.0068245083 -0.11888529 -0.055819165 -0.05762948 -0.05415175
-0.21636644 -0.15725945 -0.04537084 -0.112639606 0.13967286 0.19910768 -0.12659977 0.093265384
0.20387852 0.36812553 0.07802329 0.24077432 0.15436724 0.0059670713 0.5641666 0.18936223
0.21404558 0.13675448 -0.08568694 0.038462024 0.0012273162 -0.035581257 -0.06291127 -0.07850218
-0.08021505 -0.17257954 -0.15601395 0.03469353 -0.14649652 -0.15874907 0.02422613 0.046511043
0.071943834 -0.19277199 0.07828772 0.08578687 -0.2381223 -0.10564083 -0.10470571 0.28380832
-0.079059035 -0.19132352 -0.038435698 0.25346014 0.17945677 0.07603675 -0.024035389 -0.14636755
0.21973231 0.23755816 -0.11497409 -0.18428145 0.06476136 -0.41967466 0.07532298 0.023979623
-0.13913384 -0.14101331 -0.25428003 -0.06940164 0.014418841 -0.18402232 0.0038820258 -0.19763109
0.05129771 0.41495624 0.0029396126 -0.12033161 0.022878816 0.2461922 0.19408083 0.106332675
-0.13746929 0.04194741 0.06709891 0.18436025 -0.02761644 0.36692718 -0.488859 -0.50303054
0.08651964 0.07672738 0.020455375 -0.3832581 -0.20948796 -0.031613424 0.052356858 0.1114293
-0.19497405 0.124711126 -0.07647544 -0.06605463 0.024245871 0.2752788 0.066082396 0.10331349
-0.18742435 -0.02916771 0.19616522 0.25995374 0.32613942 -0.18293579 -0.08512648 0.0013953133
-0.15908314 0.0248372 0.122270465 -0.1869602 -0.16255352 0.064129055 0.10263155 0.18949905
-0.15955049 -0.04419682 0.141022 0.056388147 -0.5253782 -0.044916574 0.08059614 0.08653434
0.14419833 -0.16210353 -0.16411881 0.362624 -0.057915334 0.32536063 -0.15474765 0.24809715
-0.030692598 -0.23041834 0.08816381 -0.08033972 0.07491682 0.112586945 -0.37541533 0.23241958
0.21742882 0.016004987 0.36213952 -0.07744023 0.11508198 0.11849613 0.021833267 -0.1461964
-0.0136935795 0.08123864 0.07522318 0.12796608 -0.085450545 -0.15356122 -0.09517927 -0.114086635
0.08622442 0.19788982 -0.14189701 0.030832078 -0.0096220905 0.19871557 -0.27550316 0.08239014
0.27517524 -0.124484405 -0.054762017 0.115875855 0.52709526 0.26810795 -0.26087877 -0.12180783
-0.00561877 0.3425939 -0.1287938 -0.13432474 -0.06145251 0.20156793 0.004287332 -0.078767285
-0.33098277 -0.08495173 0.0018175927 -0.25423256 -0.022120781 0.27422556 0.02874169 -0.070444815

fc1.bias f4 [120]
00000000: 3750 1e3e bfe4 303e 6e40 6fbc a787 56bd
00000010: c29a adbd 25e4 2a3e f889 db3d 2521 af3c
00000020: 9bb6 ee3c dd72 df3d b0aa 1f3e 8cea e83d
00000030: 69ec 2f3e a712 663d a2bf 1c3d 5f32 db3d
00000040: a860 cb3d c1d8 483c e764 c33e 16e6 333e
00000050: 9a2e 1b3e 09c7 8d3d d978 20bd 43da 263e
00000060: 0698 d13c 1545 73bd e822 a3bd 5b5b 1c3e
00000070: 97c6 fbbd 0ee9 5bbd f271 0d3e 6e50 cb3e
00000080: 63ea 5b3d eba7 353e c985 033e f060 513e
00000090: c32f 9b3e 2cf4 fb3d 13e1 343c 3028 c0bd
000000a0: 7460 303e 86c1 a83e 44c8 843e f764 623d
000000b0: b137 473e 9cb9 4239 4055 d13d b89f 6e3e
000000c0: e480 dabd 792c abbd 9b80 323e c25e e4bc
000000d0: d2b8 89bd 9b6d 053e 591a 02bd be01 1d3e
000000e0: 5a42 e93d 01f9 5f3e 31ec 49bd 0b29 0e3d
000000f0: 8616 883d 0f24 363e 6fcc d2bd b9c3 413e
00000100: a1a1 3a3d f286 2c3e 1f1e 2f3e e528 973d
00000110: a49c a53d a90a 133e 17ea 743d 30ec 283e
00000120: 6d71 35bd 5901 0c3e 8e3e 153d c2c9 163e
00000130: 2485 263e 8685 043e 41a8 163c 09d4 cb3c
00000140: 0c08 953d 19d6 643e 8d0d 1dbd d885 3b3e
00000150: c169 403d d155 103e f2f0 743e 1b3b 033e
00000160: 7eca 823d 431b eb3d 3d91 853e 180a ff3d
00000170: 58a4 4fbd 1028 9bbd a2f0 2d3e 9876 2d3d
00000180: 4245 cf3d 294b 6a3e 84f5 cbbd e33d bf3d
00000190: eb04 463e d21e 64bd 8432 b33d 6e5f e13d
000001a0: 690a 703d 26b5 a4bc 0113 373e b5db 21bd
000001b0: 9c8d 233e 65e9 2c3e f220 9b3d 1640 6dbd
000001c0: 5c76 22bd bd60 083e f0c8 833d d167 873e
000001d0: ca92 ab3c 175e 3c3b 1e75 6cbd 3550 1b3e
0.15460287 0.1727476 -0.014602764 -0.052375462 -0.08476783 0.16688593 0.10719675 0.02137811
0.029139807 0.1091058 0.15592456 0.11372861 0.17180027 0.056170132 0.038268693 0.10702967
0.09930545 0.012258709 0.3816292 0.1756824 0.15154496 0.069227286 -0.03917775 0.16294198
0.025585186 -0.059392054 -0.07965642 0.15269224 -0.122937374 -0.053689055 0.13812998 0.397098
0.053690325 0.17739837 0.12844004 0.20447135 0.30309877 0.123024315 0.01103999 -0.09382665
0.17224294 0.32960147 0.2593404 0.05527207 0.19454838 0.00018570427 0.10221338 0.23303115
-0.10669115 -0.08358092 0.17431872 -0.027877215 -0.06724705 0.13030092 -0.03176341 0.15332696
0.11389609 0.21872331 -0.049297515 0.03470711 0.06644921 0.17787193 -0.10292899 0.18922319
0.045564298 0.16848353 0.17101334 0.07380847 0.080865175 0.14359535 0.059793558 0.16496348
-0.044297624 0.13672389 0.03643661 0.14725402 0.16261727 0.1294156 0.009195388 0.02488138
0.072769254 0.22347297 -0.038343 0.18312776 0.046975855 0.14095236 0.23920038 0.12815516
0.063862786 0.11479809 0.2608737 0.12453097 -0.05069384 -0.07576001 0.16986325 0.042349428
0.10120632 0.22880234 -0.09958938 0.09337976 0.19337814 -0.055693455 0.087498695 0.1100453
0.058603678 -0.02010591 0.17878343 -0.03951617 0.15971988 0.16885908 0.07574643 -0.057922445
-0.039663658 0.13318153 0.0643481 0.26446393 0.020944018 0.0028742605 -0.05772888 0.15167315

fc2.weight f4 [84, 120]
00000000: 79ae eebe 97f3 f9bd 04f1 f43d 5d3d 593e
00000010: 177c abbe fcda da3d f821 e93d f49f c9be
00000020: 0856 463e 159f 1fbe 5623 8b3e 614c cabd
00000030: c9c9 8ebe 05ca 33be 9781 cabe 8b3b c0be
00000040: af28 50be 129a aa3e 03ca 5cbe 6d05 f3bd
00000050: de8f c43e 1553 d6be 9fa6 313d 7ecc c3be
00000060: 9395 5e3e fe3e 26bc 9e45 70be fe33 b43d
00000070: 64dc bcbc 416d 213c d254 2a3e 7a3d febb
00000080: e2ee 813e c213 f03c 4ebf 4cbd 4901 f9bd
00000090: e399 413e fe72 88be 057b 423e 4236 5dbd
000000a0: a6ee 5dbd 3530 dabc 3f9f 21be e6d3 df3d
000000b0: fe2b 0c3e f5cb 053d c770 86bd 62ef 483d
000000c0: 3a36 adbe 45d7 17be afe7 a7be b8be d33e
000000d0: 4897 e2be b2af a83d 9f47 b93e 3b50 43bc
000000e0: 46e1 513e 7ff8 a03d 8d46 8f3d 775d 1d3e
000000f0: 8ea9 a8be 91ab b9be 5de8 1c3d 5069 3ebc
00000100: ab1b 90bd f0c3 cabe ae7d 50be 8fe8 41bc
00000110: 634c b8be 3b09 96be 7c03 d7bd 93d6 0f3e
00000120: 6052 853c 72c0 113e 3848 183e 6bdc 663e
00000130: 47f3 81be 6357 15bf caa5 7e3e fed6 e5bd
00000140: b8a2 243e 3803 0fbe f506 9a3d 93c2 13be
00000150: 665a d7be 20fa af3e 22a1 903b cb4b 41be
00000160: 6faa 833e 37e5 cdbe 1749 343e 7892 f53d
00000170: a519 eabc c022 63be 0a27 71be d886 d7bd
00000180: 61e5 dfbe 5295 02be a5d2 88bc 75e4 debe
00000190: 3e68 56bc bca9 a6be cffc ce3b 789a b93b
000001a0: 5c6f 94be bdeb 81bd b0f9 263c fe42 86bd
000001b0: 6e0e 1a3e 4030 0cbe 0915 0cbf 0506 263c
000001c0: 6b28 2cbe 34cc a23d 3e86 0f3d 1aad 62bd
000001d0: fa97 a0be dcb6 5d3d f375 8f3c 9ce3 81bd
000001e0: 515b 63be c3b4 aabd 78f0 8cbe 63f4 603e
000001f0: 0cec 2abe b793 a2bc 53d3 ccbe e489 b8be
00000200: a19c 12be 6595 53bd f1e4 80be 12dc 1fbe
00000210: 218b 54bc fccf 8fbd e292 123e 96e2 70be
00000220: 5e06 95bc 92e3 5abe c283 c13d 0849 9cbe
00000230: 9110 bb3b 3641 2cbd 0bb2 d6bc e928 c4bb
00000240: ca9a 63be 80f5 e2be d04f 813e ae95 203d
00000250: 1046 6cbd 8bb2 063d 513d 163e adcd 083e
00000260: 61ce babe 0203 2dbe 7f96 6c3c 207b 99bd
00000270: d3b7 64be 6ee9 53bb 1a2d 0ebf fc70 5fbd
00000280: e447 673e a003 003e 9f6e 1cbd c7c9 aabd
00000290: 5614 35be b1f2 94bd 70a6 61bd c078 01bd
000002a0: 16b2 4cbc 97f3 13bd 3d94 f1bc 5601 8cbe
000002b0: 79e6 90be 0a35 9f3d 7a5b 7ebe c257 ecbd
000002c0: 4431 9cbe 5b8a 68be 40d3 393d 416b 83be
000002d0: c899 96be 128b d53b 2fa6 0ebc bca8 33bd
000002e0: 1a8d 3c3d 3008 09be fd7c 99be c459 2bbe
000002f0: e1c1 8f3b 76e7 873b 0751 63be 7441 9fbd
00000300: 9164 81bd afe7 1ebe dbfd 7b3c 9159 c4bc
00000310: 7d25 c03c b1ad 9dbd 6273 d6be ec82 18be
00000320: c154 b6be 0453 9d3d 7c34 a73d 39e4 a4be
00000330: b4b1 84be 8e57 18be 8689 dbbc f790 563d
00000340: 4d30 1cbe f7da ec3c 2137 523e 6dc2 163e
00000350: febe 49bc be58 ab3d 69bd 1b3e af08 1d3e
00000360: 5b37 343e a0a8 b4bd 016b 3dbe 212b b43d
00000370: 5f86 003d 0998 7dbe 5e34 fc3d 6c21 933d
00000380: 9fb9 48be 999e 053d 66e0 6fbc 91ec 763d
00000390: 97b5 acbe 2478 38bd 53d9 f03d 266e 3fbd
000003a0: be29 b23d f12f 123e 6d72 95be 7d99 a53d
000003b0: 8c19 da3c ab2a ddbe d6af 0d3d cce7 aebd
000003c0: e952 c5bd aacd 043e 8e86 4cbe 766e 65be
000003d0: 1a4d 2cbe 00e6 713d a576 b0be 0cec 813d
000003e0: 884e 163e 676c 7f3e 7bce e23d 17b3 e63d
000003f0: 53fb 163e 6b74 883e da7d c63d 6ceb 0a3d
-0.46617487 -0.12204664 0.119600326 0.21214814 -0.3349311 0.10686299 0.11383432 -0.39379847
0.19368756 -0.15588029 0.27175397 -0.09877849 -0.27888325 -0.17557533 -0.39551994 -0.37545428
-0.2032802 0.3332067 -0.21561436 -0.11866269 0.38391012 -0.41860262 0.043371793 -0.38241953
0.21736746 -0.010146854 -0.23464057 0.08798979 -0.02305431 0.009852708 0.16633919 -0.0077587934
0.25377566 0.029306296 -0.04998713 -0.12158448 0.1890636 -0.26650232 0.1899224 -0.054006822
-0.05418267 -0.026634315 -0.15783404 0.10929088 0.13688657 0.03266521 -0.06564479 0.04905642
-0.33830434 -0.14828213 -0.32793948 0.41356444 -0.44256043 0.08236636 0.36187455 -0.011920984
0.20496091 0.07859897 0.06995878 0.15367685 -0.3294186 -0.36263707 0.038307536 -0.011621788
-0.07036527 -0.39602613 -0.20360443 -0.011835231 -0.35995778 -0.29303917 -0.104987115 0.14046697
0.016274631 0.14233568 0.148713 0.2254502 -0.25380918 -0.58336467 0.24867931 -0.11222647
0.16077697 -0.13966072 0.07520858 -0.14429693 -0.42061156 0.34370518 0.00441374 -0.18876569
0.25715968 -0.4021394 0.17606007 0.11990827 -0.028576681 -0.22181225 -0.23550048 -0.10523766
-0.4372969 -0.12752274 -0.016702006 -0.43533674 -0.013086377 -0.32551372 0.006316758 0.005664166
-0.2899121 -0.06343792 0.010191366 -0.065557465 0.15044567 -0.13690281 -0.547196 0.010133271
-0.16812293 0.07949105 0.035040133 -0.055340864 -0.3136595 0.054129466 0.017512297 -0.06342241
-0.22202803 -0.08335259 -0.27527213 0.21968226 -0.16691607 -0.019845827 -0.40004978 -0.36042702
-0.14317562 -0.051656146 -0.25174668 -0.15611294 -0.012972624 -0.07022092 0.14313844 -0.23523936
-0.018191513 -0.21375874 0.09448959 -0.30524468 0.005708762 -0.042054377 -0.026207944 -0.005986322
-0.22227016 -0.44327927 0.25256205 0.039205246 -0.057684004 0.032885116 0.14671828 0.13359709
-0.3648558 -0.16895679 0.014440178 -0.07494187 -0.22335748 -0.003233518 -0.5553757 -0.05455111
0.22586018 0.12501383 -0.038191434 -0.08339267 -0.17683539 -0.07272852 -0.055090368 -0.031609297
-0.012493631 -0.036120977 -0.02948963 -0.2734477 -0.28300837 0.07773788 -0.24839583 -0.11540176
-0.30506337 -0.22709028 0.04536748 -0.25667766 -0.294142 0.0065168226 -0.008706613 -0.04386209
0.046033002 -0.1338203 -0.2997817 -0.16733462 0.004387126 0.0041474653 -0.22198878 -0.07776156
-0.0631801 -0.15518068 0.015380348 -0.02396849 0.023455376 -0.07699145 -0.41884905 -0.14893693
-0.35611537 0.076818496 0.081643075 -0.3220537 -0.25916827 -0.1487715 -0.026798975 0.052384343
-0.152528 0.028913004 0.20528843 0.14722605 -0.0123136025 0.083665356 0.15208973 0.15335344
0.17599241 -0.08821225 -0.1849785 0.08797289 0.031378146 -0.24765028 0.12314676 0.07184109
-0.19602059 0.032621954 -0.014640903 0.0602842 -0.33732292 -0.04503645 0.11760201 -0.046735905
0.08699368 0.142761 -0.29188862 0.08085916 0.02662351 -0.43196616 0.03459152 -0.085403055
-0.096349545 0.1296908 -0.19973204 -0.22405419 -0.16826287 0.059057236 -0.3446552 0.063438505
0.14678395 0.24943696 0.11074539 0.112646274 0.1474431 0.2665132 0.09691973 0.033915922

fc2.bias f4 [84]
00000000: dcf8 863e 16a1 193f 5902 cb3e 35dd fb3d
00000010: eecd ca3e 7550 363e bf71 183f 4679 d63e
00000020: 9b3f d03e fb5e ce3e f5f4 103f 879c 9e3e
00000030: 4515 de3e 100d b83e f32e a33c aa34 7a3e
00000040: 2b6a 0e3f 4042 9b3e 2bc1 b53e 0193 c33e
00000050: 79ef 8d3e 0c27 e33e fc79 ed3e c13e fc3e
00000060: 42a6 4b3e 486f 693e 6c2c 393d 12aa 793e
00000070: 7988 3b3e 780a 483d d819 ed3e a488 8d3e
00000080: e9e5 9b3e f607 183f 0fa6 b23e 6221 be3e
00000090: c1df 853e 20d5 ee3e 7f5e b93e 9f8f 5d3d
000000a0: c64a 9b3e 4e06 e93e db79 183f ad3c 40bd
000000b0: 7dcb 753e c21d a53e e30e 843e f347 853e
000000c0: 6972 163f ff78 0c3f 2a25 5e3e 87bf b03e
000000d0: 2c11 963e 59ea 633e fa92 7e3e ee3a be3e
000000e0: 3855 1b3f 4a6a 3f3e 89e9 bf3e 60bb a03d
000000f0: eb87 d93e 4cd7 ad3e 99fe 1d3e 6682 223b
00000100: e246 91bd 4342 863e b975 293e eb19 5bbe
00000110: 31ee bf3c 9a83 ac3e 758a 0d3e b2c4 983e
00000120: ac1e 053f cd9e a63e 495a a33e db6e 8c3e
00000130: 423a 9b3e 23a6 b23e 3915 223f b341 023f
00000140: b7ae c53e 089a 373e fa72 f43e b79d fa3e
0.2636174 0.6001142 0.3965023 0.12298051 0.39610237 0.1780413 0.5954856 0.418894
0.40673527 0.4030684 0.56623775 0.30978796 0.43375602 0.35947466 0.019919848 0.24434152
0.5563075 0.30323982 0.35498938 0.38198093 0.27721766 0.44365728 0.4638213 0.49266627
0.19887641 0.22796357 0.04520838 0.24381283 0.18313779 0.04883811 0.4630878 0.2764331
0.30448845 0.5938715 0.34892318 0.37134844 0.26147273 0.46646976 0.36204907 0.054092046
0.30330485 0.45512623 0.59560937 -0.046932865 0.24003406 0.32249266 0.25792608 0.26031455
0.58768326 0.54872125 0.21693864 0.34521124 0.29309976 0.22257365 0.24860755 0.37154335
0.6067691 0.1869289 0.3748286 0.07848239 0.4248651 0.3395332 0.15429153 0.0024796962
-0.07093598 0.2622243 0.16548814 -0.21396606 0.023429008 0.33694154 0.13822348 0.29837567
0.51999927 0.3254303 0.3190482 0.27428326 0.30317885 0.34892377 0.63313633 0.508815
0.3860986 0.17929852 0.4774397 0.48948452

fc3.weight f4 [10, 84]
00000000: 1d3f 25be e531 c53d c0e5 403e e1ec b93c
00000010: 78b1 43be 6ba3 d9bd 596d 963d 3f85 c03d
00000020: 6918 c3be 05d3 063e f299 34be 029a 18bf
00000030: 8442 a8be b649 98ba c2a6 d03d bb28 fcbd
00000040: a425 e73d 9f64 ae3c 4fef 1b3e cd61 83be
00000050: 0636 15bd 406d c93c 0e48 16be 51d8 0b3e
00000060: 99cf 23bd 2784 653e 9003 f8bd 0647 2a3d
00000070: ddae 043e dd8e 19be 0658 8b3c 0f46 b9bb
00000080: 6dba 2d3d a079 4ebe 15be 0f3e 877d 82bb
00000090: d768 f6bd f075 dd3d 109d 62be e697 4f3e
000000a0: 0979 0f3e 7ddd b53d cc77 d6be 8ab1 38be
000000b0: 2b68 663d 673b a1bd 3eb9 32be f4b2 f7bb
000000c0: 29ed b5be 6604 7abe f836 323d 5dd7 573c
000000d0: 2b6c e5bc 48bc d8bd efbb 76be 485a 1e3e
000000e0: bc08 0f3e f91c c3bc dcc9 26be 1048 e6be
000000f0: 1386 bebd c4a7 66bc 282e fbbd d88d d9be
00000100: 6f8b 523d afbc 4cbf 8cf9 82be 5349 1a3c
00000110: 6f4e bc3d 7084 2a3c 4ce0 1bbf 577e b73d
00000120: 4136 e83d 240e 1a3d 4dfa 173d 9049 a8bd
00000130: a0f0 b9bd a892 163e 2034 dcbe ff24 febd
00000140: c826 a9be 8be5 843d c3d9 ae3d dcbe b4bc
00000150: ce8f 083f 36dd 47bf 8ca3 ebbe e72b e43d
00000160: 4182 d9bd 24f0 1d3e 45e3 1cbf 5db2 9fbe
00000170: 611b b4be f064 9e3d 1312 b6be cf46 cbbe
00000180: f692 803e b2e8 f53d 7b73 4bbe cc75 ddbe
00000190: 3f2f ed3d fbcf 9fbe aa6b 8ebe 5ad6 5a3e
000001a0: 0ada 4c3e daaf d1be 4b88 703e 7c66 f83b
000001b0: d446 c43e bb9b 9c3d a845 063e 2cb3 44be
000001c0: b298 873d d058 cabd 4ebb 643e 4255 31be
000001d0: b5f7 5bbd ed3a 5dbe 25b9 0a3e 4c80 03bc
000001e0: 561c 5f3d 7464 3cbe eb1f b83d 1f1a f0be
000001f0: 3e23 53be df8c 1f3e dcb9 92be 60a5 90bd
00000200: 364f 4bbe 0b80 a8bd 215e 7bbe 42ac 17be
00000210: 28b3 3a3e 8f00 0abf 6b85 253e fac1 21be
00000220: fd7c 6b3d 1579 a3be 1262 a7be e018 e2bd
00000230: aca6 8abe 7d70 e8bd 750d dbbd d860 a9be
00000240: 89e1 21be 923f 343b b21a 77bd 41dd b8be
00000250: a186 21be f306 0bbf b90c 2cbe 9918 0f3e
00000260: 7fa6 d3bd 0cee 8cbc 7690 08bf a0f3 ce3d
00000270: ccc3 82be 8cae bcbe dc38 babd bb92 9b3d
00000280: 0626 cd3d 7e69 febd da92 13bf 6992 48be
00000290: bdab adbe 87b5 c0be 1361 dbbe fccc 9f3e
000002a0: 3248 02bd 33ec 253d 92f7 ffbd 4b8a 8bbe
000002b0: 1a0f b9be b421 bf39 73b4 d83d 99c2 a83d
000002c0: 3f5e 023e 603b 1a3e 2232 9abe b1d3 a4be
000002d0: 44ae 67be 8f17 86be df95 b7be c0fa 04be
000002e0: 569f e2be 8133 3d3d 8b4d b1be d506 8a3c
000002f0: dfa0 f1bb ca31 913d 5124 c8bd c6b0 253e
00000300: a002 ddbd ee9f aabe 8946 123e e576 19bd
00000310: fbea 37bd ed61 91be 69f8 563e cd4f 48be
00000320: 2a41 c1be 8ed7 493e 2a3f 143e cdc8 4bbe
00000330: b4bc 703d 9958 98be 849d 50be d4f6 67bd
00000340: fc69 ecbc a5fb ed3d ecf8 1d3e d884 85be
00000350: 2ef8 66be 8112 2b3e 8f26 91be 9f99 19be
00000360: bf65 f5be a8cf 52bd 2b56 b8be ffbf 5d3e
00000370: a479 e73d 01fd 853e 5558 e63d 085a 133e
00000380: 5ce5 153e 8746 b6bd c5cf dabd 659d b3bd
00000390: e3e7 3fbe b040 8ebe f416 063e 7b64 b5be
000003a0: afe7 07be 9135 f4be 9168 97bd e1a4 053d
000003b0: 8fcf 08be b295 4e3d d87a 8cbd f91f 6c3d
000003c0: 948f 0f3d f61a c1be e8bb b7be d17c bfbd
000003d0: 8057 293e 0de2 713c 5a8b f63d db55 09be
000003e0: a30c 39bf be49 583e 7f43 64be dcd1 16be
000003f0: 31c2 68be 5db5 08be 75b3 77be 3d1d d23b
-0.16137357 0.09628657 0.18837643 0.02269596 -0.19110668 -0.10626873 0.07345075 0.09400415
-0.3810456 0.13166435 -0.1763685 -0.5961 -0.32863247 -0.0011618647 0.101880565 -0.12312456
0.11286476 0.021288214 0.15228008 -0.25660554 -0.036428474 0.024588227 -0.14675924 0.13656737
-0.039992902 0.22413693 -0.121100545 0.04157164 0.1295733 -0.14995904 0.017009746 -0.0056541036
0.042414118 -0.20163584 0.14037354 -0.003982249 -0.12031715 0.108135104 -0.22130227 0.20272788
0.14011015 0.08880136 -0.41888273 -0.18036476 0.056251686 -0.07872658 -0.17453477 -0.0075591747
-0.355325 -0.2441574 0.043509454 0.013173905 -0.02800568 -0.10582787 -0.24095128 0.15464127
0.13968176 -0.023817526 -0.1628794 -0.44976854 -0.093029164 -0.014078084 -0.12264663 -0.4249103
0.051402505 -0.7997541 -0.25581014 0.009416896 0.091946475 0.010407552 -0.60889125 0.08959644
0.11338473 0.03761114 0.03710394 -0.08217156 -0.09079099 0.14704382 -0.43008518 -0.124094
-0.330374 0.06489094 0.085376285 -0.022063665 0.5334443 -0.78071916 -0.46023214 0.11141186
-0.10620547 0.15423638 -0.61284286 -0.31190768 -0.35177138 0.07734096 -0.35560665 -0.3970246
0.25112122 0.12007274 -0.19868271 -0.43253934 0.11581277 -0.31213364 -0.27816516 0.21370831
0.2000505 -0.40954477 0.23489492 0.0075805765 0.38335288 0.07646891 0.13112509 -0.19208974
0.06620921 -0.09880221 0.22337076 -0.1731768 -0.05370303 -0.2160451 0.1354719 -0.008026194
0.054470383 -0.18397695 0.08990463 -0.4689493 -0.20618913 0.15581082 -0.28657424 -0.07062793
-0.19854435 -0.08227547 -0.24547626 -0.14811805 0.18232405 -0.539071 0.16164176 -0.15796652
0.057492245 -0.31928316 -0.3269201 -0.11039901 -0.27080286 -0.113495804 -0.10695926 -0.33081698
-0.15808691 0.0027503711 -0.060328193 -0.36106303 -0.15774013 -0.5430748 -0.16801728 0.13974227
-0.10334491 -0.017203353 -0.5334543 0.101050615 -0.25540006 -0.3685192 -0.09092876 0.07596346
0.10017018 -0.12422465 -0.5764595 -0.19587101 -0.33920088 -0.37638494 -0.428475 0.31211078
-0.031807132 0.04050846 -0.12498392 -0.27253947 -0.36144334 0.0003645547 0.10581293 0.082402416
0.12731265 0.15061712 -0.30116373 -0.32192758 -0.22625071 -0.2618985 -0.3585653 -0.12986279
-0.4426219 0.046191696 -0.34629473 0.01684896 -0.0073739137 0.07089575 -0.09772552 0.16180715
-0.10791516 -0.33325142 0.1428472 -0.037466902 -0.04490183 -0.28395024 0.20993198 -0.19561692
-0.3774503 0.19711134 0.1447722 -0.19900818 0.05877371 -0.29755095 -0.20372587 -0.056631878
-0.028859131 0.11620263 0.15426987 -0.26077914 -0.2255561 0.16706277 -0.2834973 -0.15000008
-0.4792919 -0.051467568 -0.3600324 0.21655272 0.11302498 0.2616959 0.11247317 0.14389813
0.14638275 -0.08900171 -0.1068416 -0.08770255 -0.18740802 -0.27783728 0.13094693 -0.35428223
-0.13271974 -0.47697118 -0.07392991 0.032627944 -0.13360427 0.05043573 -0.06859368 0.05764768
0.035049036 -0.37715882 -0.3588555 -0.09349979 0.16537285 0.014763367 0.12038298 -0.13411658
-0.7228491 0.2112188 -0.22291373 -0.14728492 -0.22730328 -0.13350435 -0.24189551 0.006412177

fc3.bias f4 [10]
00000000: af03 85be 2b4a 98be 658b e73b 146c 463e
00000010: 1390 c3bd ee35 2fbc 7f6b 03bd 77b5 e43d
00000020: fa25 1a3e 4cc0 15be
-0.25979373 -0.29744086 0.0070661777 0.19377166 -0.09548964 -0.01069401 -0.03208494 0.11167424
0.1505355 -0.14624137
