HW1_Split_nb/checkpoints/model_weightdecay_11.pt (torch, 250670 bytes, 10 tensors)

conv1.weight f4 [6, 1, 5, 5]
0.4369467 0.093757205 -0.36109838 0.030144865 -0.11968824 0.38358477 0.09376009 -0.47721586
0.32012326 0.044319857 0.17777786 -0.07346801 -0.56867534 0.4391398 0.28771943 -0.081632674
-0.44015875 -0.75304437 0.60024613 0.426563 0.07990927 -0.37101364 -0.91972184 0.18962117
0.57879734 0.09977993 0.0029378121 -0.13722025 -0.02706628 -0.33350977 0.0921612 0.2522779
-0.19910349 0.18401018 -0.15938878 -0.102742866 0.23603107 0.10652956 0.28575003 -0.056590833
-0.23643842 0.054761626 0.048728865 0.33534482 0.17234586 -0.14336832 0.15503661 -0.0348929
0.11249802 0.13976412 0.02851334 0.14916496 -0.21219786 -0.22624835 -0.28770798 -0.24225345
0.32366022 0.26764858 -0.23191296 -0.34331542 -0.015280731 0.4947192 0.34049344 -0.066011086
0.068325564 0.2115443 0.5949975 0.32927215 -0.107027665 -0.40532437 0.026641699 0.11108743
-0.06073683 -0.17867266 -0.42242947 -0.76736283 -1.3794924 -1.3050121 -1.0365468 -0.105253465
-0.26289362 -1.4399672 -1.3530926 0.05865169 0.63361084 0.26186097 -0.032157373 -0.14387158
0.25177944 0.21752435 0.3746974 0.15986739 -0.07101632 0.16634957 0.024709314 0.3718503
0.26646286 0.083318226 -0.0730309 -0.041382585 -0.25002906 -0.094991885 -0.21207328 -0.3285995
-0.16322576 0.0065643373 0.004756635 -0.07314459 -0.15848176 -0.2610936 0.24331062 0.35055864
-0.06146611 -0.16952127 -0.17595372 0.239378 0.10765819 0.16663818 0.18038201 0.15935753
0.0035632264 0.22947852 0.073972136 -0.037887268 0.11188506 0.38843173 0.4868008 0.0022196937
-0.027995402 0.0061166314 0.05166648 -0.27641964 -0.6106485 -0.19341162 0.15523419 -0.6807464
-1.2127545 -0.90209544 -0.6393018 0.03310256 -0.28915095 -0.9645258 -0.84714353 -0.47365767
0.058903426 0.33322603 0.079582915 -0.32059935 -0.26441976 0.058087178
00000000: 7ab7 df3e c703 c03d e3e1 b8be 5df2 f63c
00000010: 1c1f f5bd 3965 c43e 4a05 c03d a355 f4be
00000020: 32e7 a33e bd88 353d 660b 363e 6576 96bd
00000030: b594 11bf efd6 e03e f64f 933e 082f a7bd
00000040: 7d5c e1be 84c7 40bf bba9 193f 7766 da3e
00000050: 79a7 a33d 80f5 bdbe e472 6bbf 0d2c 423e
00000060: 102c 143f 6c59 cc3d 4f88 403b 7783 0cbe
00000070: 1aba ddbc cbc1 aabe 03bf bc3d 922a 813e
00000080: c9e1 4bbe 2a6d 3c3e d036 23be da6a d2bd
00000090: 21b2 713e 2c2c da3d d44d 923e cacb 67bd
000000a0: ea1c 72be ba4d 603d eb97 473d 51b2 ab3e
000000b0: 6f7b 303e 25cf 12be ebc1 1e3e dceb 0ebd
000000c0: 5d65 e63d 531e 0f3e cf94 e93c b3be 183e
000000d0: 654a 59be a6ad 67be 764e 93be 4a11 78be
000000e0: cbb6 a53e 3c09 893e 977a 6dbe 0ac7 afbe
000000f0: 085c 7abc d64b fd3e 2855 ae3e d230 87bd
00000100: 46ee 8b3d 129f 583e c251 183f 5c96 a83e
00000110: 5231 dbbd ad86 cfbe b13f da3c ce81 e33d
00000120: 2fc7 78bd f7f5 36be ad48 d8be e471 44bf
00000130: 3593 b0bf a30a a7bf 91ad 84bf 218f d7bd
00000140: fe99 86be d850 b8bf 2332 adbf c13c 703d
00000150: 5234 223f a412 863e 73b7 03bd 1253 13be
00000160: 3ce9 803e b4be 5e3e 56d8 bf3e 47b4 233e
00000170: 0171 91bd 8b57 2a3e 306b ca3c 2a63 be3e
00000180: d26d 883e bfa2 aa3d 3991 95bd c980 29bd
00000190: cf03 80be 1b8b c2bd bd29 59be 323e a8be
000001a0: a724 27be a719 d73b 8cdd 9b3b d5cc 95bd
000001b0: 0b49 22be 0fae 85be 6b26 793e 6c7c b33e
000001c0: e3c3 7bbd fc96 2dbe 362d 34be 821f 753e
000001d0: e67b dc3d 33a3 2a3e 10b6 383e 9f2e 233e
000001e0: 0585 693b 6bfc 6a3e b47e 973d ae2f 1bbd
000001f0: ff23 e53d 86e0 c63e f43d f93e 4878 113b
00000200: 9d56 e5bc 066e c83b 3ba0 533d e086 8dbe
00000210: 7653 1cbf b20d 46be b6f5 1e3e 6545 2ebf
00000220: 8a3b 9bbf baef 66bf 48a9 23bf 8d96 073d
00000230: 980b 94be 2aeb 76bf 66de 58bf 4283 f2be
00000240: b844 713d 9a9c aa3e 5efc a23d 9925 a4be
00000250: 0762 87be d2ec 6d3d

conv1.bias f4 [6]
-0.018428762 -0.24617174 0.02899751 0.26214677 0.15077578 0.4672453
00000000: eaf7 96bc 7214 7cbe 308c ed3c 1a38 863e
00000010: f764 1a3e c73a ef3e

conv2.weight f4 [16, 6, 5, 5]
0.060315106 0.06933513 -0.13299257 0.03468124 0.74466914 0.10251015 0.37392032 0.067452885
-0.23133847 0.22546282 0.07304662 0.16243425 0.10293832 -0.25781092 -0.49720916 0.20860583
0.22176005 0.127138 0.17416362 -0.41441533 0.03500598 0.19694896 0.090316154 0.30270368
-0.258497 0.017247109 0.10307384 -0.11047065 -0.1410667 -0.13632612 -0.11575283 -0.041805036
0.05667996 -0.33689764 -0.3911638 0.020031143 -0.10400502 -0.046489097 -0.15731114 -0.19034708
0.034207605 0.004694864 -0.122383244 -0.013924239 0.020807344 -0.082504444 -0.08005929 -0.145062
0.02994002 0.092745535 -0.11611585 -0.08367189 -0.015812881 -0.10714438 0.28454554 -0.01019571
-0.16092564 0.016795404 -0.030510215 -0.28868985 -0.09017971 -0.15928544 0.0016467368 0.08547073
-0.29512185 -0.029013187 0.05604688 0.08522182 -0.044757448 -0.10804903 -0.14648397 -0.014935105
-0.04159711 -0.27703136 0.09044931 -0.209963 0.08945842 0.19560389 0.18947315 -0.0933829
0.16492505 0.17756471 0.33981565 0.32172439 0.44755167 -0.09806847 -0.10271092 -0.14420761
0.27878135 0.5797927 -0.012136057 0.104031906 0.04202049 -0.039132155 0.2648057 -0.06607459
-0.038379233 -0.17426006 -0.2571626 0.048913162 -0.2156768 -0.19871764 -0.27204612 -0.3735937
-0.317523 -0.0024857544 -0.12043408 -0.020848004 0.06140432 -0.1631442 -0.09309052 -0.20286243
-0.049876053 0.23023023 0.052794997 -0.0029209729 0.003050912 -0.00862835 0.119474664 0.1312735
-0.1524295 -0.104957774 -0.114997216 -0.17137624 0.11594181 -0.019396365 0.084994115 0.1836671
0.32886627 0.31004524 0.014999629 -0.026792228 0.129413 0.48922148 0.44857535 -0.05163957
0.009436146 0.038421202 0.24223894 0.14491168 -0.16811094 -0.12306141 -0.17292063 -0.021094251
-0.06476193 -0.23916844 -0.08367012 0.01319838 0.11967473 -0.14882797 -0.31606135 0.24251221
-0.0725929 0.12349452 -0.027260065 -0.22057673 -0.08324677 -0.049774576 -0.04166867 -0.17685767
0.065735675 -0.04496958 -0.0033619555 -0.39989606 -0.24880989 0.19276012 -0.21680336 -0.44159272
-0.2913325 0.3995943 0.2577729 -0.26266238 -0.5456975 -0.07474559 0.49654898 -0.06440677
-0.07985094 -0.004938272 0.13787043 0.1556015 -0.19546314 -0.27732685 -0.26359305 -0.123571925
0.008660645 -0.2010796 -0.13592735 0.04488169 0.09857116 -0.03281018 0.03972557 0.13360864
0.124034345 -0.04193228 -0.17016275 0.01143109 0.044122733 -0.075132266 -0.29769927 -0.2838979
0.22603971 0.068597615 0.34093216 0.021732505 0.031531002 -0.2248352 -0.16952299 -0.07604918
-0.26370892 -0.27614945 -0.19165863 -0.08879496 -0.23678194 0.011253628 0.055614594 0.13481529
0.045982696 0.12582295 0.41058034 0.28628764 0.1590791 -0.08213668 0.076915 0.12590045
-0.31751338 0.3655225 0.2866514 -0.2007678 0.005597307 -0.054220203 0.19186798 0.08032176
-0.45484906 -0.062648565 0.3894867 0.08492499 -0.17319725 -0.1266264 0.22910917 0.49920744
0.047978435 -0.22398789 -0.1362309 0.026673432 -0.21961653 0.056738157 -0.14351106 0.015611141
-0.20144315 -0.5462246 0.19767739 -0.0018870042 0.049452085 0.10090521 -0.032621346 -0.18276809
00000000: f90c 773d 94ff 8d3d 342f 08be ea0d 0e3d
00000010: a3a2 3e3f d7f0 d13d 7c72 bf3e bd24 8a3d
00000020: fee3 6cbe badf 663e 7799 953d 2a55 263e
00000030: 53d1 d23d cbff 83be 3392 febe c49c 553e
00000040: 1115 633e 7730 023e f357 323e 3f2e d4be
00000050: 6e62 0f3d fdac 493e adf7 b83d fafb 9a3e
00000060: b859 84be cf49 8d3c 6118 d33d 703e e2bd
00000070: ca73 10be 1399 0bbe d20f edbd c23b 2bbd
00000080: 3f29 683d d97d acbe 9f46 c8be 5a18 a43c
00000090: 9500 d5bd 5a6b 3ebd 2c16 21be 58ea 42be
000000a0: 461d 0c3d 60d7 993b 11a4 fabd 7e22 64bc
000000b0: 2a74 aa3c 17f8 a8bd 20f6 a3bd 228b 14be
000000c0: c644 f53c 5ff1 bd3d 26ce edbd 2b5c abbd
000000d0: 048a 81bc 836e dbbd f4af 913e e80b 27bc
000000e0: b1c9 24be 8496 893c 8ff0 f9bc 28cf 93be
000000f0: 24b0 b8bd b91b 23be 51d7 d73a 470b af3d
00000100: 361a 97be 10ad edbc 6a91 653d c788 ae3d
00000110: 9653 37bd cf48 ddbd e5ff 15be 5fb2 74bc
00000120: bb61 2abd 0ed7 8dbe 7d3d b93d 8a00 57be
00000130: fa35 b73d 634c 483e 4005 423e 893f bfbd
00000140: 1de2 283e 86d3 353e 51fc ad3e 0fb9 a43e
00000150: 7e25 e53e 1fd8 c8bd 1a5a d2bd 29ab 13be
00000160: 6ebc 8e3e 4b6d 143f 50d6 46bc ae0e d53d
00000170: ad1d 2c3d 0a49 20bd 9d94 873e 1d52 87bd
00000180: 8b33 1dbd 3b71 32be d1aa 83be 2b59 483d
00000190: 61da 5cbe a37c 4bbe a149 8bbe ac47 bfbe
000001a0: 6092 a2be 0ae8 22bb 25a6 f6bd 6fc9 aabc
000001b0: 1983 7b3d 460f 27be 3ea6 bebd 2bbb 4fbe
000001c0: d54a 4cbd 79c1 6b3e 913f 583d cb6d 3fbb
000001d0: cff1 473b ec5d 0dbc 22af f43d 8f6c 063e
000001e0: 7b16 1cbe 1af4 d6bd a983 ebbd 417d 2fbe
000001f0: e672 ed3d 20e5 9ebc 6511 ae3d 3a13 3c3e
00000200: 2961 a83e 40be 9e3e 01c1 753c 607b dbbc
00000210: d784 043e 3d7b fa3e abab e53e 0484 53bd
00000220: 119a 1a3c 8d5f 1d3d 7c0d 783e ba63 143e
00000230: 4625 2cbe 9f07 fcbd 1b12 31be dacd acbc
00000240: e7a1 84bd 92e8 74be 3d5b abbd 053e 583c
00000250: 0618 f53d 5c66 18be cbd2 a1be 1f55 783e
00000260: 96ab 94bd b2ea fc3d 8050 dfbc dede 61be
00000270: 487d aabd 6de0 4bbd c4ac 2abd 2d1a 35be
00000280: 6da0 863d 0632 38bd 4154 5cbb 2dbf ccbe
00000290: 05c8 7ebe e962 453e b301 5ebe 7118 e2be
000002a0: 8929 95be a097 cc3e cffa 833e af7b 86be
000002b0: d5b2 0bbf 3714 99bd ab3b fe3e b2e7 83bd
000002c0: e488 a3bd 3ad1 a1bb e82d 0d3e 0056 1f3e
000002d0: 7d27 48be c9fd 8dbe abf5 86be 4713 fdbd
000002e0: 61e5 0d3c d0e7 4dbe 8a30 0bbe ddd5 373d
000002f0: addf c93d f863 06bd 47b7 223d b4d0 083e
00000300: b805 fe3d 2fc1 2bbd 253f 2ebe 7749 3b3c
00000310: 0aba 343d f2de 99bd 0a6c 98be 115b 91be
00000320: f476 673e e87c 8c3d a98e ae3e 5e08 b23c
00000330: a726 013d 333b 66be 6f97 2dbe acbf 9bbd
00000340: db04 87be 7663 8dbe 2942 44be 22da b5bd
00000350: f776 72be 2361 383c 21cc 633d 050d 0a3e
00000360: 5a58 3c3d bbd7 003e 9637 d23e 4b94 923e
00000370: a2e5 223e 4737 a8bd 9d85 9d3d 0cec 003e
00000380: 1d91 a2be c425 bb3e f9c3 923e 1396 4dbe
00000390: 9d69 b73b 0116 5ebd 0a79 443e bc7f a43d
000003a0: fae1 e8be e44d 80bd cd6a c73e 27ed ad3d
000003b0: 9f5a 31be 5aaa 01be 989b 6a3e 1e98 ff3e
000003c0: 0985 443d 155d 65be 1d80 0bbe 3e82 da3c
000003d0: 28e3 60be 4566 683d 90f4 12be dfc5 7f3c
000003e0: 1d47 4ebe 60d5 0bbf f16b 4a3e 5b55 f7ba
000003f0: 458e 4a3d 64a7 ce3d f69d 05bd 8f27 3bbe

conv2.bias f4 [16]
-0.19639547 0.15610708 0.14572437 0.14510986 0.1733566 0.39871594 -7.330023e-14 0.34882578
0.15179059 0.33050576 -0.031057524 0.1797651 0.36156473 -0.016404398 -0.04287716 -0.15640903
00000000: e51b 49be 89da 1f3e c538 153e ae97 143e
00000010: 6484 313e 7f24 cc3e b50e a5a9 4b99 b23e
00000020: fe6e 1b3e 0d38 a93e 596c febc 5814 383e
00000030: 031f b93e 8462 86bc f69f 2fbd b029 20be

fc1.weight f4 [120, 400]
1.2211879e-29 3.120452e-29 -3.6796653e-15 -8.609004e-15 -6.4389735e-22 -4.8992017e-24 -1.6372903e-24 2.5995e-41
-3.590158e-23 -1.9422e-41 -9.764107e-20 9.9094e-41 -2.4605e-41 -2.4647e-41 2.4886e-41 -2.4591e-41
2.6207e-41 -2.563e-41 -2.4629e-41 2.5553e-41 -3.0236e-41 -3.0979e-41 -2.512e-41 2.4874e-41
-2.4793e-41 2.4947e-41 -2.468e-41 -2.4624e-41 -2.4816e-41 2.475e-41 2.469e-41 -2.4748e-41
-2.4883e-41 -2.4632e-41 2.4569e-41 2.4531e-41 2.4667e-41 -2.4817e-41 2.453e-41 2.491e-41
-2.4645e-41 2.4901e-41 2.4569e-41 2.5065e-41 2.476e-41 -2.4586e-41 -2.572e-41 -2.473e-41
2.5082e-41 2.5194e-41 -9.953253e-37 -2.4667e-41 -2.482e-41 2.4803e-41 -2.4636e-41 2.4614e-41
-2.493e-41 5.3251e-41 -2.4771e-41 3.0698333e-34 -2.4821e-41 2.4604e-41 2.5113e-41 -2.4572e-41
2.4691e-41 2.2265477e-33 -2.4694e-41 2.5122e-41 2.4548e-41 -2.475e-41 2.485e-41 -2.5038e-41
-2.5e-41 -2.4827e-41 -2.4547e-41 -2.4598e-41 1.28449e-40 2.4775e-41 -1.0098363e-15 -1.9865016e-14
2.4933e-41 -2.47e-41 -2.5202e-41 -1.2334297e-16 -2.53876e-13 2.4587e-41 2.4793e-41 -2.4995e-41
-2.492e-41 -2.872418e-25 1.20301e-40 2.4542e-41 2.4584e-41 -2.5003e-41 -2.4622e-41 2.4656e-41
-2.4824e-41 3.04e-41 1.083e-41 2.4649e-41 -1.4092723e-21 2.4545e-41 2.1098221e-29 -3.75921e-32
-2.8636e-41 -5.117555e-16 -2.4727e-41 -8.23201e-23 -4.6302e-41 -1.525932e-23 -8.2034555e-21 -2.2112369e-23
-9.254246e-23 -2.4603e-41 -2.468e-41 -6.287146e-21 -4.2423867e-20 2.4593e-41 -2.5258e-41 2.4842e-41
5.064e-42 2.4653e-41 2.4733e-41 -2.4586e-41 -2.4576e-41 2.533e-41 -2.479e-41 -4.3091615e-38
2.4569e-41 -8.874467e-37 -2.5082e-41 -2.4898e-41 -2.4877e-41 -2.4715e-41 2.4598e-41 -2.4541e-41
3.87617e-40 -1.6446381e-31 8.1234e-38 -8.184e-42 -2.52e-41 -2.4799e-41 1.475848e-39 -1.8249e-41
-2.4653e-41 2.4764e-41 2.49e-41 2.4911e-41 -2.4635e-41 -2.5746e-41 2.454e-41 -2.64701e-40
-2.4897e-41 -2.9733e-41 2.5613e-41 3.1423e-41 -2.9025e-41 2.2520856e-17 2.4617e-41 3.0048e-41
2.6506e-41 -1.56333e-40 2.7921e-41 3.0904e-41 -3.1514e-41 -2.7607e-41 -2.8994e-41 -2.6667e-41
-2.5219e-41 -2.5237e-41 -3.0787e-41 2.4545e-41 2.6082e-41 2.628e-41 9.031879e-18 2.4841e-41
2.5057e-41 2.4622e-41 3.0452e-41 -2.4547e-41 -2.4874e-41 2.4942e-41 2.4881e-41 2.456e-41
2.462e-41 -2.4807e-41 2.5708e-41 2.508e-41 -2.4629e-41 -2.473e-41 2.4593e-41 2.4765e-41
-2.4908e-41 -2.5172e-41 2.4601e-41 2.5326e-41 -2.4842e-41 2.4545e-41 -2.5167e-41 -2.4795e-41
2.4528e-41 2.4755e-41 -2.4747e-41 2.4667e-41 -2.4996e-41 2.4799e-41 2.477e-41 -2.538e-41
2.4531e-41 2.4598e-41 2.5445e-41 -2.4617e-41 -2.5394e-41 3.11e-41 4.010376e-29 2.5048e-41
2.4723e-41 2.5051e-41 2.4526e-41 2.4741e-41 2.557e-41 2.534e-41 -2.4528e-41 -2.5547e-41
2.4855e-41 -2.7989583e-34 -2.4809e-41 -2.5758685e-38 2.4611e-41 2.4818e-41 2.4691e-41 -6.955261e-37
-1.4378186e-26 -2.4733e-41 -2.4698e-41 1.3796121e-37 -1.1728248e-34 2.4911e-41 -2.7307e-41 -2.619e-41
-2.4607e-41 -2.4858e-41 -2.8738e-41 -2.9794e-41 2.8388e-41 -2.4747e-41 2.4601e-41 -2.623e-41
2.8438e-41 -2.4765e-41 -9.227999e-19 -2.7437553e-35 -2.4782e-41 4.6500787e-37 -9.296535e-32 5.203639e-39
00000000: b3af 770f c839 1e10 ec92 84a7 0616 1ba8
00000010: 259b 429c 5887 bd98 c05b fd97 7748 0000
00000020: 019c 2d9a 2436 0080 688c e69f 3c14 0100
00000030: 9744 0080 b544 0080 5f45 0000 8d44 0080
00000040: 0e49 0000 7247 0080 a844 0080 3b47 0000
00000050: 4954 0080 5b56 0080 0646 0080 5745 0000
00000060: 1d45 0080 8b45 0000 cc44 0080 a444 0080
00000070: 2d45 0080 fe44 0000 d344 0000 fd44 0080
00000080: 5d45 0080 aa44 0080 7d44 0000 6244 0000
00000090: c344 0000 2e45 0080 6144 0000 7045 0000
000000a0: b344 0080 6a45 0000 7d44 0000 df45 0000
000000b0: 0545 0000 8944 0080 b247 0080 f044 0080
000000c0: eb45 0000 3b46 0000 8858 a983 c344 0080
000000d0: 3045 0080 2445 0000 ad44 0080 9d44 0000
000000e0: 7f45 0080 7194 0000 0d45 0080 8206 cc07
000000f0: 3145 0080 9644 0000 0146 0000 7f44 0080
00000100: d444 0000 6ff9 3809 d644 0080 0846 0000
00000110: 6e44 0000 fe44 0080 4645 0000 cc45 0080
00000120: b145 0080 3545 0080 6d44 0080 9244 0080
00000130: 1066 0100 1045 0000 6288 91a6 9ced b2a8
00000140: 8145 0000 db44 0080 4146 0080 6b34 0ea5
00000150: 63eb 8eaa 8a44 0000 1d45 0000 ad45 0080
00000160: 7845 0080 48cb b196 5a4f 0100 6a44 0000
00000170: 8844 0000 b345 0080 a344 0080 bb44 0000
00000180: 3345 0080 be54 0000 311e 0000 b644 0000
00000190: 95f6 d49c 6c44 0000 1df6 d50f 7930 438b
000001a0: d34f 0080 e480 13a6 ee44 0080 ad09 c79a
000001b0: 1281 0080 3f94 9399 7af5 1a9e 93db d599
000001c0: 02c1 df9a 9544 0080 cc44 0080 8c85 ed9d
000001d0: 4f57 489f 8e44 0000 6946 0080 4045 0000
000001e0: 1e0e 0000 b944 0000 f244 0000 8944 0080
000001f0: 8244 0080 9c46 0000 1b45 0080 f29c 6a81
00000200: 7d44 0000 c1fd 9683 eb45 0080 6845 0080
00000210: 5945 0080 e544 0080 9244 0000 6944 0080
00000220: 8538 0400 7a7c 558c d623 dd01 d016 0080
00000230: 3f46 0080 2145 0080 1012 1000 df32 0080
00000240: b944 0080 0845 0000 6945 0000 7145 0000
00000250: ac44 0080 c547 0080 6844 0000 e1e1 0280
00000260: 6745 0080 e252 0080 6647 0000 9857 0000
00000270: e950 0080 deb7 cf23 9f44 0000 c353 0000
00000280: e349 0000 cbb3 0180 d54d 0000 2656 0000
00000290: d957 0080 f54c 0080 d350 0080 564a 0080
000002a0: 4d46 0080 5a46 0080 d255 0080 6c44 0000
000002b0: b548 0000 4249 0000 d89b 2623 3f45 0000
000002c0: d945 0000 a344 0000 e354 0000 6d44 0080
000002d0: 5745 0080 8745 0000 5c45 0000 7744 0000
000002e0: a144 0000 2745 0080 aa47 0000 ea45 0000
000002f0: a844 0080 f044 0080 8e44 0000 0945 0000
00000300: 6f45 0080 2b46 0080 9444 0000 9946 0000
00000310: 4045 0080 6c44 0000 2846 0080 1e45 0080
00000320: 6044 0000 0245 0000 fc44 0080 c344 0000
00000330: ae45 0080 2145 0000 0c45 0000 c046 0080
00000340: 6244 0000 9244 0000 ee46 0000 9f44 0080
00000350: ca46 0080 b256 0000 a859 4b10 d345 0000
00000360: eb44 0000 d545 0000 5e44 0000 f844 0000
00000370: 4747 0000 a346 0000 6044 0080 3747 0080
00000380: 4945 0000 cf05 ba87 2845 0080 5e3e 0c81
00000390: 9b44 0000 2f45 0000 d444 0000 deac 6c83
000003a0: 0865 8e94 f244 0080 d944 0080 77c8 3b02
000003b0: 29e5 1b87 7145 0000 1f4c 0080 0249 0080
000003c0: 9844 0080 4b45 0080 1c50 0080 0e53 0080
000003d0: 224f 0000 fc44 0080 9444 0000 1e49 0080
000003e0: 464f 0000 0945 0080 652e 88a1 10e2 1186
000003f0: 1545 0080 e63b 1e03 135a f18b a1a9 3800

fc1.bias f4 [120]
-3.8959092e-16 0.12633958 -7.746758e-05 0.06246457 -1.0727793e-12 0.084300905 -0.046007466 -2.2055995e-06
-1.3443615e-06 -0.08794397 0.23144701 -0.016758678 -2.0267748e-12 -9.8243174e-05 -0.0022651854 -0.0068203537
-2.390947e-05 0.18870945 0.12543845 -0.003909987 -0.10223141 -0.012777183 0.15222807 -0.032866277
0.08161673 0.093633905 -0.04932403 -3.4333108e-31 0.02289318 -7.3223394e-34 -0.01861688 -0.033623487
-0.012532627 -0.016594466 -0.00040059973 -0.0028626658 0.12764743 -0.03275959 -0.038547322 0.036198534
0.056761242 -0.035069663 -0.000120864184 -1.1871839e-20 0.16094497 -0.0031109343 0.21080488 0.029996807
0.10966074 -0.016870704 -3.651811e-05 -6.6212585e-10 0.047187306 -0.036317766 -0.046857182 0.008871338
-0.010519667 -0.007928783 -1.3433656e-09 -0.00018460443 -2.3220859e-17 0.1652488 -1.0459903e-05 0.09161128
-0.00013883189 0.034369696 0.1637214 -0.045975897 -0.0009812035 0.07709923 0.0093473615 -7.946914e-06
-0.0458189 0.07766657 -0.045760565 -0.0011592212 -5.8119435e-06 0.019338667 -1.5542836e-12 -0.00014559428
-1.2948913e-16 -0.034487218 -0.024537187 0.024001526 0.10705199 0.039584305 0.021643197 -0.1162271
0.18642336 -0.014060727 -0.033752363 -6.974328e-09 -0.0017781615 -1.8237845e-11 -0.030154945 -2.6113537e-06
-0.014390391 -0.07449282 0.13760816 0.2114995 -1.2798818e-17 -0.0005443573 0.14245832 -4.3787123e-17
-0.06477963 -0.044328928 -0.00023326941 -3.206939e-05 -9.946546e-31 0.13340259 -0.04671361 -0.03619492
-0.02649675 0.19396909 0.05253015 0.010769522 -4.2405915e-10 0.08570917 -0.07069643 -7.3458614e-14
00000000: 7995 e0a5 2a5f 013e 1776 a2b8 d9da 7f3d
00000010: f3fa 96ab f4a5 ac3d 5372 3cbd e903 14b6
00000020: e96f b4b5 f81b b4bd 7200 6d3e 7f49 89bc
00000030: 219f 0eac e707 ceb8 8173 14bb 467d dfbb
00000040: 3291 c8b7 0d3d 413e f072 003e 591f 80bb
00000050: b45e d1bd 6457 51bc ade1 1b3e ca9e 06bd
00000060: ac26 a73d 22c3 bf3d fe07 4abd a9d5 de8c
00000070: 7a8a bb3c 9353 7388 6d82 98bc c8b8 09bd
00000080: a655 4dbc 1ef1 87bc 9607 d2b9 909b 3bbb
00000090: 02b6 023e eb2e 06bd cce3 1dbd ea44 143d
000000a0: 7a7e 683d 35a5 0fbd 7778 fdb8 b140 609e
000000b0: c2ce 243e d1e0 4bbb 3cdd 573e ddbb f53c
000000c0: cf95 e03d 6e34 8abc 062b 19b8 f700 36b0
000000d0: 7a47 413d f0c1 14bd 51ed 3fbd 1759 113c
000000e0: ae5a 2cbc bae7 01bc 7aa1 b8b0 6092 41b9
000000f0: b42c d6a3 fb36 293e f17c 2fb7 b29e bb3d
00000100: 6793 11b9 3dc7 0c3d 95a6 273e 3951 3cbd
00000110: ba9b 80ba 33e6 9d3d ad25 193c bc53 05b7
00000120: 99ac 3bbd a70f 9f3d 6e6f 3bbd 02f1 97ba
00000130: 3704 c3b6 206c 9e3c f8be daab abaa 18b9
00000140: 724a 15a5 7842 0dbd 3602 c9bc d99e c43c
00000150: 133e db3d 2723 223d 134d b13c 7908 eebd
00000160: c4e5 3e3e f75e 66bc eb3f 0abd d6a2 efb1
00000170: 3311 e9ba fa6b a0ad 8107 f7bc b73e 2fb6
00000180: adc5 6bbc b18f 98bd 27e9 0c3e 5393 583e
00000190: b618 6ca3 33b3 0eba 98e0 113e b6ee 49a4
000001a0: 2fab 84bd 4092 35bd c899 74b9 3f82 06b8
000001b0: 5664 a18d b09a 083e c556 3fbd 2041 14bd
000001c0: b60f d9bc d59f 463e db29 573d a672 303c
000001d0: 0521 e9af 4a88 af3d 4ac9 90bd 026a a5a9

fc2.weight f4 [84, 120]
-5.93364e-11 0.17031349 -3.609714e-05 0.06357175 -0.00017979782 -0.19370593 0.2797548 -0.00097487716
-2.8560426e-05 0.16316763 -0.040512897 -0.0054763923 -2.235787e-06 0.0003674002 0.0027762468 0.07602705
0.00176713 -0.20131636 0.12826136 -0.011660192 0.058201227 0.025167404 -0.057042856 0.02225939
-0.13954777 -0.093489096 -0.017701492 -8.894643e-09 0.034680903 -7.43652e-16 0.12318703 0.011122031
0.011348781 0.14333004 0.013071973 -0.006148238 0.19884057 -0.04071527 0.059235584 -0.008979655
0.008332932 0.37477854 -0.00038909115 -3.868387e-08 -0.046911657 0.11548868 0.084767096 0.028922139
0.017610695 -0.13993683 6.409262e-08 -0.0003624994 -0.31865397 0.16178274 0.22869125 -0.10019603
0.0013281464 0.009510263 0.00013100669 6.9976713e-10 1.117545e-12 0.16568905 1.0111924e-06 -0.066606924
9.680806e-06 0.35791442 -0.088280715 0.05895932 0.0001504237 -0.010172392 0.0013525997 4.470209e-08
-0.0042195064 0.06818764 0.011547751 0.00854971 0.00020960072 -0.30123916 -4.2243388e-22 -0.03663968
-8.67368e-13 0.019873742 0.002665044 0.1468876 -0.108418405 0.36237258 0.033603903 0.08445973
-0.05384861 -0.03167599 0.016741805 3.8642966e-06 -0.027359754 -4.3141277e-05 0.1840056 0.00019467564
0.3052972 0.0071058925 0.059925288 0.018362641 2.2370626e-10 -0.0044656317 -0.10927142 9.911515e-11
-0.2860138 0.046557043 -0.001582796 -0.03546297 8.5064205e-09 0.06306106 0.21949609 -0.0044311387
-0.037569676 -0.031007757 0.16424903 -0.16873367 1.4327129e-06 -0.11316913 -0.074472845 -4.284837e-06
3.1334e-41 -0.00018944454 2.5827e-41 -0.00012498701 3.0716e-41 -1.2445697e-09 -1.785627e-06 -2.6417e-41
-2.7622e-41 4.300645e-09 -6.238732e-06 0.0006700757 2.456e-41 1.69336e-40 2.5892e-41 -7.926241e-34
-2.4656e-41 -0.00032315624 -1.979106e-05 1.4711998e-32 -0.0007703312 2.55881e-40 -4.051357e-05 2.9126e-41
-6.902009e-05 -4.46161e-09 -2.8448837e-06 -2.9405e-41 1.6253999e-08 -2.7907e-41 -3.1826156e-07 -3.0768e-41
2.0121912e-31 -1.7496202e-08 -2.7615e-41 2.7297e-41 -7.821027e-07 0.00016001346 -7.2061084e-05 -0.00024547323
-1.1176926e-08 0.0001401881 2.4598e-41 2.4991e-41 -2.9685964e-08 -1.1014123e-30 8.45379e-06 -0.00079893775
1.2029332e-07 0.0004758516 -2.5958e-41 9.67462e-40 -0.00067592814 -0.0007527341 5.647592e-07 -0.00323555
2.5492e-41 1.04884e-40 2.4575e-41 2.8999075e-32 -2.7981e-41 -8.1573045e-05 2.5008e-41 -0.00042671696
-2.1041158e-09 -2.5209189e-11 -8.099616e-05 -2.8973e-41 8.3508135e-35 -1.4878196e-13 2.4732295e-18 -2.6569e-41
2.5299e-41 -0.00017897665 -7.6537246e-05 7.9543e-41 1.6967e-40 0.00069484336 -2.4629e-41 3.0885e-41
2.4804e-41 -3.0206e-41 -0.00010729454 -0.00015940126 1.7144889e-06 -0.00081364624 1.3571615e-12 -1.1797368e-06
-2.1932824e-12 -2.455e-41 -1.9184077e-30 2.5509e-41 7.52188e-40 2.4538e-41 -0.00059067406 2.8086e-41
-0.00031708824 -5.6363842e-06 -0.00034402657 -1.46295696e-08 -2.4628e-41 -1.711324e-06 -3.5947665e-05 1.22859e-40
-0.0013773841 2.4565e-41 2.7423e-41 -6.035319e-10 -2.4556e-41 -4.757948e-05 -1.0774419e-10 -3.0993e-41
2.5795e-41 -2.0309905e-07 -0.0023025812 -1.1633483e-08 2.4545e-41 1.2339177e-07 -2.7334e-41 2.8515e-41
2.6913e-41 -0.040665 1.484203e-39 -0.015170767 5.9550094e-25 -0.017845364 -0.018716302 1.1857425e-12
-2.5138e-41 -0.0332954 -0.006598387 -0.041023172 -2.5222e-41 -2.4666e-41 2.7034e-41 -0.002517006
00000000: 6c7b 82ae a966 2e3e 0267 17b8 e831 823d
00000010: 1c88 3cb9 d95a 46be 053c 8f3e e68e 7fba
00000020: 0c95 efb7 6a15 273e daf0 25bd 4f73 b3bb
00000030: 870a 16b6 9f9f c039 b1f1 353b 12b4 9b3d
00000040: 0b9f e73a e025 4ebe f256 033e 640a 3fbc
00000050: 6964 6e3d df2b ce3c c5a5 69bd 5359 b63c
00000060: 9ce5 0ebe 3677 bfbd b802 91bc 0ecf 18b2
00000070: 900d 0e3d d557 56a6 7b49 fc3d 2e39 363c
00000080: 3df0 393c 1cc5 123e d42b 563c 2977 c9bb
00000090: dd9c 4b3e 0ec5 26bd 03a1 723d 671f 13bc
000000a0: da86 083c f9e2 bf3e eefe cbb9 5d25 26b3
000000b0: 7026 40bd 5485 ec3d 5f9a ad3d 1fee ec3c
000000c0: 4e44 903c 9a4b 0fbe 4aa3 8933 d90d beb9
000000d0: 9d26 a3be 60aa 253e 0a2e 6a3e 9433 cdbd
000000e0: 3315 ae3a efd0 1b3c d75e 0939 bc59 4030
000000f0: cd47 9d2b 64aa 293e 4eb8 8735 3669 88bd
00000100: bf6a 2237 8f40 b73e 85cc b4bd 547f 713d
00000110: 0ebb 1d39 1baa 26bc b749 b13a 78fe 3f33
00000120: c943 8abb f6a5 8b3d c732 3d3c 1514 0c3c
00000130: 44c8 5b39 053c 9abe 7a58 ff9b 7d13 16bd
00000140: 7424 74ab 42ce a23c 05a8 2e3b b469 163e
00000150: 780a debd e688 b93e 3fa4 093d 39f9 ac3d
00000160: 5c90 5cbd afbe 01bd 1c26 893c 0eaa 8136
00000170: 9021 e0bc 98f2 34b8 f76b 3c3e d821 4c39
00000180: ea4f 9c3e 8cd8 e83b 3874 753d 406d 963c
00000190: b7f7 752f 6f54 92bb b2c9 dfbd def4 d92e
000001a0: 6770 92be 99b2 3e3d d275 cfba 9f41 11bd
000001b0: a223 1232 2826 813d 95c3 603e 1633 91bb
000001c0: a9e2 19bd fb03 febc e630 283e 85c8 2cbe
000001d0: a44b c035 38c5 e7bd 3885 98bd 78c6 8fb6
000001e0: 5957 0000 a2a5 46b9 ff47 0000 f20e 03b9
000001f0: a055 0000 670d abb0 ada9 efb5 a449 0080
00000200: 004d 0080 e0c4 9331 4d56 d1b6 05a8 2f3a
00000210: 7744 0000 0ad8 0100 2d48 0000 80b2 8388
00000220: bb44 0080 4c6d a9b9 fa04 a6b7 33c7 980a
00000230: 0df0 49ba 4bc9 0200 1ded 29b8 3151 0000
00000240: e1be 90b8 bd4c 99b1 bbea 3eb6 f851 0080
00000250: ec9e 8b32 cb4d 0080 89dd aab4 c555 0080
00000260: 4399 820c 8e4a 96b2 fb4c 0080 184c 0000
00000270: b0f1 51b5 49c9 2739 801f 97b8 dcb2 80b9
00000280: a404 40b2 75ff 1239 9244 0000 aa45 0000
00000290: 2000 ffb2 e1b6 b28d c0d4 0d37 ce6f 51ba
000002a0: fa29 0134 b87b f939 5c48 0080 e488 0a00
000002b0: c530 31ba 2153 45ba f599 1735 850b 54bb
000002c0: 1047 0000 6024 0100 8144 0000 6292 160b
000002d0: 004e 0080 3212 abb8 b645 0000 fbb8 dfb9
000002e0: ff97 10b1 0cbe ddad 7bdc a9b8 c450 0080
000002f0: b100 de06 7b83 27aa fc7d 3622 104a 0080
00000300: 8646 0000 aeab 3bb9 9f82 a0b8 bcdd 0000
00000310: f9d8 0100 2626 363a a844 0080 1856 0000
00000320: 2545 0000 3454 0080 5103 e1b8 f324 27b9
00000330: 641d e635 e04a 55ba e500 bf2b 7357 9eb5
00000340: aa56 1aac 6f44 0080 c5a3 1b8e 1c47 0000
00000350: cb30 0800 6744 0000 77d7 1aba 4b4e 0000
00000360: dd3e a6b9 2c20 bdb6 775e b4b9 8755 7bb2
00000370: a744 0080 a5b0 e5b5 83c6 16b8 7b56 0100
00000380: 5789 b4ba 7a44 0000 724c 0000 c8e5 25b0
00000390: 7444 0080 1490 47b8 96ee ecae 6556 0080
000003a0: e847 0000 7113 5ab4 e7e6 16bb 99dc 47b2
000003b0: 6c44 0000 ac7d 0434 324c 0080 7d4f 0000
000003c0: 064b 0000 5890 26bd 5b29 1000 cf8e 78bc
000003d0: 724c 3817 7130 92bc ee52 99bc e0e0 a62b
000003e0: 1346 0080 c260 08bd 4837 d8bb ea07 28bd
000003f0: 4f46 0080 c244 0080 5c4b 0000 5af4 24bb

fc2.bias f4 [84]
-0.06747639 -0.0018250796 -0.06451871 -0.07371734 0.30757412 -0.0003578457 0.04920776 0.21263506
-0.013183855 -0.010495092 -0.00561099 0.16028266 -4.4817726e-12 -7.330773e-18 -1.3744386e-08 0.14130469
-0.01949404 0.13572161 -0.0017011069 0.13102691 0.28906232 0.25896394 0.097118326 0.018538674
-0.005565605 -0.040580023 0.2420729 0.15260573 -0.00894493 -0.01793431 -3.5349995e-08 0.06788735
0.052292716 0.09994499 0.090776026 0.24816753 0.24041241 0.18476678 -0.15512556 -1.5716082e-06
0.04673513 -0.002334651 -8.285049e-12 0.13698854 -0.004123593 -0.01905971 0.0777236 0.10109814
0.14440775 -0.012781768 0.122183144 -0.014791675 0.20991093 0.10405797 0.16979143 0.08704356
-3.1955315e-07 -0.028089415 0.09424144 0.0010938836 -1.23656675e-11 0.23245479 -0.0075798235 0.1510137
0.022447493 -0.035015464 -0.00041087603 0.020738937 0.14511329 -0.09571335 -0.00015035336 -4.905905e-07
0.1379825 0.22984378 0.16927129 -1.0972928e-08 0.097976185 0.06810398 0.1031747 -0.023575086
-0.010851228 -0.028498195 0.2480243 0.058273364
00000000: 1031 8abd 8237 efba 6322 84bd 1ef9 96bd
00000010: 5b7a 9d3e 3d9d bbb9 138e 493d 01bd 593e
00000020: 1901 58bc 9bf3 2bbc 65dc b7bb 2321 243e
00000030: 38b0 9dac 993a 07a3 7320 6cb2 2db2 103e
00000040: f7b1 9fbc 9bfa 0a3e adf7 deba eb2b 063e
00000050: faff 933e ec96 843e f9e5 c63d 6bde 973c
00000060: ae5f b6bb 3d37 26bd f5e1 773e ad44 1c3e
00000070: c18d 12bc f9ea 92bc bbd3 17b3 8608 8b3d
00000080: e330 563d f5af cc3d c8e8 b93d a11f 7e3e
00000090: ac2e 763e 8133 3d3e 3cd9 1ebe 0cf0 d2b5
000000a0: 566d 3f3d f200 19bb 8bc0 11ad b946 0c3e
000000b0: 351f 87bb 1c23 9cbc 8d2d 9f3d 8b0c cf3d
000000c0: a0df 133e 9f6a 51bc 283b fa3d c858 72bc
000000d0: e4f2 563e 581c d53d cedd 2d3e e543 b23d
000000e0: 0d8f abb4 c61b e6bc a801 c13d a560 8f3a
000000f0: 048a 59ad a108 6e3e 2b60 f8bb 56a3 1a3e
00000100: cee3 b73c 606c 0fbd d96a d7b9 b4e4 a93c
00000110: 9498 143e 5c05 c4bd 2ca8 1db9 1fb1 03b5
00000120: 494b 0d3e 2b5c 6b3e 7455 2d3e 7383 3cb2
00000130: bda7 c83d 197a 8b3d 424d d33d 8a20 c1bc
00000140: 59c9 31bc 0c75 e9bc 15fa 7d3e 0db0 6e3d

fc3.weight f4 [10, 84]
0.19784018 -0.0005656638 0.019672321 0.21694997 -0.1884354 -0.00062939525 -0.2575868 -0.29563394
0.08624308 0.025238818 -0.00054768345 0.050101534 5.415711e-07 -1.4082608e-05 -3.023009e-05 -0.43556467
-0.33809417 -0.2763671 0.011135771 -0.03729193 -0.30056667 0.02125743 0.026686927 0.3137912
-0.0073004025 -0.11083563 -0.12176695 0.15263577 0.0037915197 0.05252381 -3.592098e-08 -0.11939598
0.057456363 -0.1262004 0.08783664 -0.26729465 -0.14583719 0.12956797 0.069164574 0.00010225887
0.10123559 0.0006706039 -6.85021e-09 0.14862633 -0.0031748207 -0.35583878 0.22922449 -0.22513044
-0.106047496 -0.34788704 -0.101526946 -0.012212618 -0.12969281 -0.24217784 0.047986776 -0.30303863
-2.9392959e-05 -0.00044709316 0.14183348 0.16522768 -6.888441e-12 -0.76024634 -0.030556368 0.07471793
0.18446212 -0.03762146 0.02364005 0.1187382 0.28489694 -0.07786649 0.00010842413 -9.6902495e-06
0.057457443 -0.33494937 -0.058892906 2.7622398e-05 0.118402004 0.07151637 -0.08835069 -0.06287889
0.1577915 -0.33981878 -0.2367739 -0.41442695 0.08569487 0.00082158134 -0.021648651 -0.35179207
-0.13887838 1.950333e-08 0.03261633 -0.2707524 0.12870823 0.0025650123 -0.002611864 -0.2809466
3.5749354e-16 -6.8553946e-18 -3.211375e-10 -0.25471032 -0.21547316 -0.13953863 -2.74735e-05 -0.6127221
0.036436133 -0.03823541 -0.27484486 -0.064331695 0.001826835 -0.1887047 0.23308463 -0.59288317
-0.00030718092 -0.0045158193 6.6408347e-18 -0.05277005 0.08477259 0.12015679 -0.13799885 0.06973747
-0.33963627 -0.37385324 -0.19438031 2.9440458e-05 -0.19739601 -0.00075061026 -9.1232045e-37 0.068309054
-2.3373948e-05 0.369047 -0.24923162 0.21987318 -0.13919993 -0.27692807 -0.045102052 -0.025275102
-0.35427845 -0.27223763 0.09870916 -0.5987397 -1.2627497e-11 0.019145418 -0.22975007 0.36799628
8.102645e-20 -0.67233944 0.29875654 -0.33976334 -0.30632827 -0.043420494 -4.3688797e-05 -0.2737822
-0.6233827 0.12081566 -6.573604e-10 -1.1067627e-08 0.044584576 0.2907292 -0.1182563 1.2051355e-09
-0.4330942 0.40347016 0.47763744 -0.11386442 -0.320949 0.01285467 0.080554344 0.29105365
-0.12947528 0.004111306 -0.00413723 0.0897234 0.021033613 0.00019596917 -0.31458735 0.10978875
0.09743594 0.040532798 -0.0065371515 -0.3102953 4.103085e-08 1.6089327e-08 0.004182648 -0.089172564
-0.28818446 0.04550841 -0.002618191 -0.12854081 -0.3268741 -0.50565916 -0.03573506 0.13635485
-0.0009912552 -0.20099396 0.005445853 0.14145513 -0.00045745718 -0.018070005 -6.898581e-11 -0.17910504
0.5673758 -0.26724982 0.1175373 -0.21912824 0.111068904 -0.22040273 -0.20595402 -0.0019486448
0.02397243 -0.009303398 6.230898e-05 0.05181099 0.0034309924 0.11413178 -0.097163744 -0.31699196
-0.1283684 0.13973804 -0.16000406 0.04829643 -0.040902473 -0.27342898 0.056132335 0.15011957
-0.0014148131 0.053015407 -0.19285446 -0.6370338 -9.255727e-08 0.1499684 0.13864364 0.09894125
-0.14089765 -0.15383571 0.004681568 0.13431 0.02912434 -0.0035365217 1.0511704e-05 -1.4576623e-08
-0.13790897 0.037932727 -0.3958749 7.6239314e-07 0.25099382 0.0923987 -0.5200855 -0.13137437
0.086974874 0.0047187856 0.05429586 0.14461897 -0.019201316 0.02087728 0.010130617 -0.16206737
00000000: 9e96 4a3e 0e49 14ba d927 a13c 2228 5e3e
00000010: 36f5 40be 00fe 24ba 6be2 83be 555d 97be
00000020: 36a0 b03d a3c1 ce3c 6a92 0fba 4437 4d3d
00000030: 7c60 1135 5744 6cb7 a096 fdb7 5502 dfbe
00000040: ae1a adbe fd7f 8dbe cf72 363c 6cbf 18bd
00000050: e0e3 99be 1024 ae3c 8b9e da3c 3da9 a03e
00000060: 3738 efbb cafd e2bd f360 f9bd 8d4c 1c3e
00000070: 257b 783b 3523 573d 8947 1ab3 e185 f4bd
00000080: 5d57 6b3d ad3a 01be b2e3 b33d d8da 88be
00000090: 5856 15be 77ad 043e 28a6 8d3d d073 d638
000000a0: 9b54 cf3d 77cb 2f3a 165f ebb1 8031 183e
000000b0: a710 50bb 8030 b6be d3b9 6a3e 9888 66be
000000c0: 6e2f d9bd 401e b2be 5ced cfbd 6f17 48bc
000000d0: 31ce 04be 78fd 77be c88d 443d e127 9bbe
000000e0: e690 f6b7 d467 eab9 cc3c 113e 7231 293e
000000f0: 905d f2ac 819f 42bf 5951 fabc b705 993d
00000100: a3e3 3c3e f618 1abd c7a8 c13c 032d f33d
00000110: 03de 913e 7778 9fbd c361 e338 4e93 22b7
00000120: 7f58 6b3d 7c7e abbe b039 71bd a6b6 e737
00000130: c07c f23d 2d77 923d 35f1 b4bd a6c6 80bd
00000140: 1894 213e bafc adbe db74 72be c52f d4be
00000150: cb80 af3d 645f 573a 8358 b1bc 171e b4be
00000160: 2236 0ebe 4788 a732 b398 053d 0fa0 8abe
00000170: 17cc 033e c419 283b ce2b 2bbb 3cd8 8fbe
00000180: bc14 ce25 5feb fca2 168c b0af 6469 82be
00000190: ffa4 5cbe 37e3 0ebe e476 e6b7 5bdb 1cbf
000001a0: 0e3e 153d bc9c 1cbd 77b8 8cbe 56c0 83bd
000001b0: 6972 ef3a ce3b 41be bdad 6e3e 31c7 17bf
000001c0: 200d a1b9 70f9 93bb e900 f522 6825 58bd
000001d0: 409d ad3d c314 f63d 924f 0dbe 85d2 8e3d
000001e0: cee4 adbe b169 bfbe a20b 47be e7f6 f637
000001f0: 2e22 4abe 9ac4 44ba 2939 9b83 9ee5 8b3d
00000200: 2c13 c4b7 baf3 bc3e 9336 7fbe 6f26 613e
00000210: 6d8a 0ebe 84c9 8dbe eebc 38bd bb0d cfbc
00000220: fc63 b5be bb62 8bbe 0728 ca3d 0147 19bf
00000230: 3125 5ead dad6 9c3c 9a43 6bbe 026a bc3e
00000240: 7c51 bf1f 701e 2cbf 9ef6 983e 76f5 adbe
00000250: 0fd7 9cbe b0d9 31bd 7d3e 37b8 2e2d 8cbe
00000260: 0296 1fbf 336e f73d a0b1 34b0 f023 3eb2
00000270: 519e 363d 75da 943e 5c30 f2bd f0a1 a530
00000280: 86be ddbe a493 ce3e e58c f43e c031 e9bd
00000290: 6d53 a4be 659c 523c adf9 a43d fc04 953e
000002a0: 2b95 04be 22b8 863b 9a91 87bb e7c0 b73d
000002b0: af4e ac3c 137d 4d39 9811 a1be edd8 e03d
000002c0: 7e8c c73d b805 263d 9a35 d6bb 07df 9ebe
000002d0: e639 3033 ce34 8a32 980e 893b 1ba0 b6bd
000002e0: ea8c 93be 0767 3a3d f595 2bbb 34a0 03be
000002f0: 0b5c a7be e172 01bf ed5e 12bd 9ba0 0b3e
00000300: 01ed 81ba 5cd1 4dbe 2073 b23b 9dd9 103e
00000310: ddd6 efb9 8c07 94bc 8fb3 97ae 5067 37be
00000320: 8a3f 113f f8d4 88be 65b7 f03d 2763 60be
00000330: 1878 e33d 41b1 61be 9ce5 52be ab69 ffba
00000340: d461 c43c 486d 18bc e1ab 8238 c337 543d
00000350: 80da 603b ecbd e93d c9fd c6bd c54c a2be
00000360: 0173 03be 7d17 0f3e 1bd8 23be 7ad2 453d
00000370: 5a89 27bd e2fe 8bbe 05eb 653d f2b8 193e
00000380: 4071 b9ba af26 593d a47b 45be a614 23bf
00000390: e6c3 c6b3 5191 193e 99f8 0d3e b6a1 ca3d
000003a0: 7947 10be 1c87 1dbe d767 993b 9088 093e
000003b0: 2b96 ee3c fdc4 67bb 6d5b 3037 aa6c 7ab2
000003c0: 0238 0dbe 595f 1b3d 1db0 cabe 42a7 4c35
000003d0: 4382 803e 883b bd3d 5324 05bf 0187 06be
000003e0: e21f b23d 0ba0 9a3b 5665 5e3d ff16 143e
000003f0: 144c 9dbc d406 ab3c e3fa 253c fdf4 25be

fc3.bias f4 [10]
-0.19660051 -0.1951451 0.04816741 0.14892817 -0.18054259 -0.03272407 0.19343066 0.035190966
0.22324316 -0.23227808
00000000: a551 49be 1ed4 47be 314b 453d a080 183e
00000010: 28e0 38be ad09 06bd b012 463e 6724 103d
00000020: db99 643e 4eda 6dbe
