HW1_Split_nb/checkpoints/model_origin_7.pt (torch, 250586 bytes, 10 tensors)

conv1.weight f4 [6, 1, 5, 5]
000000 32 7e 13 bd d7 2d a0 3e 4a 0b 38 be 67 59 a0 3e
       -0.03600902 0.31284973 -0.17973056 0.3131821
000010 b1 34 9c 3d 78 a1 5c 3d e7 8e 8e 3e b3 ef d3 3d
       0.076272376 0.053864926 0.278434 0.103484534
000020 ec 38 74 3e 74 f4 49 3e 7a 48 38 be 9f 0d 3e 3d
       0.23849839 0.19722158 -0.17996398 0.04639971
000030 1b f0 65 be 4f f6 78 3e 69 77 94 3e 3d 8f 1e be
       -0.22454874 0.2431271 0.28997353 -0.15484329
000040 b5 84 a1 be 90 08 c5 be 19 f0 32 3e 58 11 a6 3d
       -0.3154656 -0.38483095 0.17474402 0.08108777
000050 9d 60 19 be e9 06 b2 be 7b a3 e9 be 35 e2 2e 3e
       -0.14978261 -0.34770897 -0.45632538 0.17078479
000060 62 30 cf bd 90 04 21 3e fd 5b 74 3e ff e5 18 3e
       -0.1011665 0.15724397 0.23863216 0.14931487
000070 5d 79 f3 be af e5 cf be 3a 45 1d be f0 bf 86 3e
       -0.4755353 -0.40604922 -0.15358439 0.26318312
000080 0b 14 f5 3e 11 01 6b be 07 76 00 bf 38 8a 6f 3d
       0.47866854 -0.22949626 -0.50180095 0.058481425
000090 05 e5 e8 3d a4 b7 4e 3e fa b6 3c be 99 a2 7c be
       0.11371807 0.20187241 -0.18429175 -0.24671401
0000a0 89 4a 96 be 9a f2 cc 3e 6e 20 b7 3e db 65 38 be
       -0.2935374 0.4002884 0.3576693 -0.18007605
0000b0 87 68 4d be 5b 8e d0 bd 73 4a 62 3e 1b cd be 3e
       -0.20059405 -0.10183402 0.22098713 0.37265858
0000c0 e5 89 fe bd 91 7f 45 3d 72 a6 87 be 45 61 55 bc
       -0.12428645 0.04821736 -0.26494175 -0.013023679
0000d0 5a eb 8c be 74 37 81 be bb 46 18 be 3e 41 21 be
       -0.2752331 -0.2523762 -0.14870732 -0.15747544
0000e0 a7 c2 55 3e 4e dd 31 3e ff 9e bc 3d 0c f6 ac 3a
       0.20875035 0.17369577 0.092100136 0.0013195886
0000f0 27 b7 f7 3d 60 04 98 3e cd ae 5d 3e bf c9 83 3e
       0.120954804 0.29690838 0.21648712 0.25739858
000100 56 8b 5b bd a9 8d 60 3e 28 53 a5 3d 50 9c 88 3d
       -0.053599678 0.21929039 0.080725014 0.06670439
000110 7e 90 96 3d c5 bc 6e be 80 d3 b9 3c 36 7a 03 be
       0.073517784 -0.23314197 0.022683859 -0.12839589
000120 87 ee d4 bd be df b9 be c0 21 44 be 80 41 6c be
       -0.10397058 -0.36303514 -0.191535 -0.23071861
000130 bd 85 49 3e b6 7b 22 be 0c da a9 3d 43 95 52 be
       0.19679923 -0.15867504 0.08293542 -0.20564751
000140 16 8f 4d bd c7 3d 4c bd 6e ce 9b 3d 20 5a b2 3c
       -0.050185286 -0.049863603 0.07607733 0.02177149
000150 73 a3 98 bd 78 84 a9 bb ba a4 70 3e 72 a8 33 3d
       -0.074530505 -0.005173262 0.23500338 0.043861814
000160 97 99 80 3e 77 f3 57 bc ad 6b fd 3d 5a 65 c3 3e
       0.2511718 -0.013180605 0.12374053 0.38163263
000170 25 0d c5 bd 3e 7b 80 bd 72 62 a7 3d fd 89 47 3e
       -0.09621648 -0.062735066 0.08173074 0.19486232
000180 d1 99 96 3e 58 de 01 3c 3b 99 0e be ba d3 34 bd
       0.29414228 0.007926546 -0.1392564 -0.04414723
000190 8d 2d 08 3e 51 06 fe bc 26 3b df bd f1 0b 38 be
       0.13298626 -0.031008871 -0.108999535 -0.17973305
0001a0 5d ef 20 be 78 c3 e4 3d da 71 3e 3e f0 1f 64 bc
       -0.1571631 0.11170095 0.18598118 -0.01392363
0001b0 5b b1 95 bd 31 20 07 be 2b 2c 73 3e fd d5 bd 3e
       -0.073092185 -0.13195874 0.23747317 0.37077323
0001c0 6c 26 57 3e 02 1b b2 3a 0a 3d 48 be 98 f6 04 3e
       0.2101075 0.0013588371 -0.19554535 0.12984693
0001d0 fc 95 82 3e 17 1d b0 bd 35 44 7c 3c 53 b1 d9 be
       0.25505054 -0.085992984 0.015397121 -0.425181
0001e0 10 3d 30 3e 8d aa bf bd bb d9 3e bd 8b 7a 8c be
       0.17210793 -0.09358702 -0.046594363 -0.27437243
0001f0 a5 cd 36 be b8 ea e3 bd 3f 68 c4 be 66 61 75 be
       -0.17851885 -0.111287534 -0.38360783 -0.23962936
000200 8f d2 47 bf df cd e5 be 97 07 57 3e f3 01 ac be
       -0.7805566 -0.4488363 0.20998989 -0.33595237
000210 d4 b0 09 c0 52 ba 14 c0 d0 a0 93 be 70 5c 4d 3e
       -2.1514177 -2.323872 -0.28833628 0.20054793
000220 87 bc 87 be 3d b5 d3 bf 7b 88 a2 bf 6b ee 96 3e
       -0.26511022 -1.6539685 -1.26979 0.29478773
000230 38 4f ba 3e 64 db 87 3e 74 df cf 3b e7 6a 6c bd
       0.36388564 0.2653457 0.0063437764 -0.057719138
000240 2b 22 7a 3e d4 6b a1 3e 6d dc 2f 3e 75 79 64 3e
       0.24427097 0.3152758 0.1717393 0.22311957
000250 7e 0a 3c bc 4b 53 a1 3d
       -0.011477111 0.07877215

conv1.bias f4 [6]
000000 83 b2 83 3d ff 12 34 bc e8 38 49 bd 3d 82 a7 bd
       0.06430533 -0.010990857 -0.049126536 -0.08179138
000010 6e c0 86 3e a9 5f bf 3e
       0.26318687 0.3737767

conv2.weight f4 [16, 6, 5, 5]
000000 68 70 92 bd 71 48 55 be 98 41 01 bf d6 2d 92 be
       -0.07150346 -0.20828415 -0.50490713 -0.28550595
000010 e1 92 71 3e f4 17 17 be 6d 32 7a be 7e 27 5e be
       0.23591186 -0.14755231 -0.24433298 -0.21694753
000020 66 74 8b be c6 e5 03 3d a7 c8 1f be 45 22 de bd
       -0.27237242 0.03220155 -0.15603887 -0.1084638
000030 79 c1 8c bd e2 cd b0 3d cc a1 8b 3e 74 ec 28 be
       -0.068728395 0.08633019 0.2727188 -0.1649645
000040 3e 48 49 be 9e 03 56 be 4f dc e0 ba 04 d7 4c 3e
       -0.19656464 -0.20899817 -0.0017155501 0.20003897
000050 13 08 ce bd d5 3e 8e 3d 89 69 03 bd 09 6a 1f bc
       -0.10060134 0.06945578 -0.032083068 -0.009729871
000060 52 0e df 3c 63 26 e4 3e da 3e 47 bf 52 27 3e bf
       0.027228508 0.44560537 -0.7783028 -0.7427875
000070 48 f4 cc bc 8d 3c 3a 3e b7 af 15 bd ac e9 15 bf
       -0.025018826 0.18187161 -0.036544528 -0.5855968
000080 56 7c 1b bf b0 86 38 bd 61 e9 43 3e 02 35 ba be
       -0.60736597 -0.045050323 0.19131996 -0.36368567
000090 38 61 f6 be 45 4a 29 bf 1a cb ca 3c ab fc 13 3e
       -0.48121047 -0.6612895 0.02475505 0.14451854
0000a0 09 8e 5d be 7c 50 00 bf 74 07 44 bf 56 10 c7 bc
       -0.21636213 -0.5012281 -0.7657387 -0.024299782
0000b0 ce 72 9a 3d de 49 8f be 13 0b 1a bf 7a 16 25 bf
       0.075414285 -0.27986044 -0.6017315 -0.6448742
0000c0 ee ee 66 be dc 7e 08 bd 5e dc 4f be a1 03 84 be
       -0.22552082 -0.033324108 -0.20298907 -0.2578402
0000d0 a2 60 33 be 68 4a 13 3d 57 c4 ee 3c fd fa d2 bc
       -0.17517331 0.03595963 0.029146357 -0.025754446
0000e0 75 c9 04 be da 91 93 bb 72 e8 33 3e 36 4b a0 3d
       -0.12967475 -0.004503471 0.1756914 0.07826845
0000f0 b0 b1 19 be 44 a6 cb 3d c3 bd 38 3b a3 fa 2e 3e
       -0.15009189 0.09943822 0.0028189279 0.17087798
000100 d9 b5 f9 3d 28 99 22 b9 58 73 93 3d 25 d3 2f bb
       0.12192888 -0.00015506579 0.071997344 -0.0026828733
000110 dc 15 f3 3d ce 3d d1 3c ba f2 d5 3d 07 13 e4 3d
       0.11869404 0.025542166 0.10446687 0.11136442
000120 e2 a0 ee 3d 91 bb 30 3e 2e 4e 5f be 07 69 93 be
       0.1165178 0.17259051 -0.21807167 -0.28791067
000130 8d 30 65 be a1 31 7d 3b 16 a0 9b 3d e9 3a 3f 3d
       -0.22381802 0.0038634317 0.07598893 0.04668704
000140 e6 0e 4c be bc 77 9d bd a8 1f 8b 3d fd 31 01 3e
       -0.19927558 -0.07688853 0.06793147 0.12616725
000150 a5 90 a1 3d ba 93 57 bd a7 0a bb bc bd 6c b6 3d
       0.07888917 -0.052631117 -0.022832228 0.08907459
000160 25 16 a2 3d 96 c1 db 3d 30 f7 bb 3b b8 03 9a 3d
       0.0791438 0.10730283 0.005736254 0.075202405
000170 ec f2 c6 3d 9d 45 5d 3d da c8 a0 3c ef 3f e4 3c
       0.097143024 0.054021467 0.019627023 0.027862517
000180 cb b7 ce 3d b1 60 01 3e ff 2b 84 3d 6f bd 1a be
       0.100936495 0.12634541 0.06453704 -0.15111326
000190 bd 3a 01 3e 58 04 fd bd 61 0c f0 bc c7 95 aa 3d
       0.12620063 -0.12354344 -0.029302778 0.08329349
0001a0 e6 b3 33 3d 7c 3e d7 3d c3 c6 68 bc 81 d4 53 3d
       0.043872736 0.10509965 -0.014207545 0.05171633
0001b0 5c 9c 39 3e b9 f6 47 3b 01 4a f6 bd 9d fb 67 bd
       0.18126053 0.0030512048 -0.12025834 -0.05663644
0001c0 38 f8 59 be 4e 15 40 3e 9a cb 11 3e fb 7e 90 bc
       -0.21286094 0.18758127 0.14237824 -0.017638674
0001d0 35 ed 81 be ed 47 10 be 1b 8f 41 3e f4 df e2 3d
       -0.25376287 -0.14089938 0.18902247 0.11077872
0001e0 5b 08 04 3d 32 5e ad bd b1 87 5f 3d e2 29 73 3e
       0.03223453 -0.08465232 0.054572765 0.23746446
0001f0 91 a9 36 3e 94 23 6a 3f 05 0d c5 3e e8 80 13 bf
       0.17838122 0.9146054 0.38486496 -0.5761857
000200 bb 68 0d bf a1 50 2d be 14 56 d1 3e 02 9b 03 3e
       -0.5523793 -0.16925289 0.40885985 0.128521
000210 5c f5 a9 be 29 0a 84 be bb 6b 0f be f4 cf d1 3e
       -0.33195007 -0.25789002 -0.1400594 0.40978968
000220 1d 33 3c 3c 6b 25 2a be ee 81 55 be db 5e 7b bc
       0.011486796 -0.16615836 -0.20850345 -0.0153424395
000230 27 f3 3e 3e 17 b3 d0 3d 0c 60 67 3c fa 4e 71 be
       0.18647443 0.10190409 0.01412202 -0.23565283
000240 e5 94 16 be 15 61 15 be bf a0 0d bf d6 68 7a be
       -0.14705236 -0.14587815 -0.55323404 -0.24454054
000250 05 e0 b1 3e 77 84 cb 3d 45 cd 5f bd da 36 f8 3c
       0.34741226 0.09937375 -0.05463912 0.030299593
000260 9f 58 cf 3d 82 cc 58 3d d3 a1 93 be 8e ce 1d be
       0.10124325 0.05292941 -0.288344 -0.15410826
000270 50 f6 a3 3d bb 6d 67 3e bf 39 d5 3e 7c b7 b7 bd
       0.08005965 0.22600453 0.4164562 -0.08970544
000280 f8 dd 4f be da ee cd be bb d9 0a bd b2 d6 01 3f
       -0.20299518 -0.40221292 -0.03389905 0.50718224
000290 d8 14 c3 3e 13 01 37 be e5 44 a6 be 14 9e 9e bd
       0.3810184 -0.17871504 -0.32474437 -0.07744995
0002a0 6f fd 49 3e 7d fb 5a bd 99 c4 34 3e 3b 6d c8 3c
       0.19725583 -0.053462494 0.17653121 0.024466148
0002b0 c2 9b ba 3d 67 3e 2e 3e d4 02 06 be 79 01 3b be
       0.0911174 0.17015992 -0.13087016 -0.1826228
0002c0 ab 48 14 bf 46 a3 a0 bd ca 2d 8d bc 89 53 15 3e
       -0.5792338 -0.07843642 -0.017233748 0.14582647
0002d0 18 cb 7f be 0f a8 3d be 85 7d 15 3d 51 68 22 3d
       -0.24979818 -0.1852114 0.036496658 0.039650265
0002e0 29 3a d1 3d 1f ff 87 bc 47 15 a7 3e 2e 33 a9 3e
       0.10216171 -0.016601143 0.3263342 0.3304686
0002f0 9b fc 02 3d 14 c6 f9 3d e0 e1 ed 3d 66 0c ee 3e
       0.031979185 0.121959835 0.11615348 0.46493834
000300 32 04 00 3f a4 4d 5e 3e f7 e7 0a 3e 6a 22 01 be
       0.500064 0.21709305 0.1356505 -0.12610784
000310 37 b6 be 3e 7b 39 17 3f ab 44 30 bd 6e 82 76 bd
       0.37248394 0.59072083 -0.043034237 -0.06018298
000320 0b 75 06 bc 60 97 d3 bd 9d 73 f1 bb ea c8 26 bd
       -0.008206616 -0.10331607 -0.0073685185 -0.04071895
000330 71 7c 49 bd 0d 4a 5c 3e 28 0c af bd cb bf 85 bd
       -0.049190942 0.21512623 -0.085472405 -0.06530722
000340 fd 7b a1 bd 24 01 1e 3d 09 c2 94 3c d3 61 9d bd
       -0.07884977 0.038575307 0.01815893 -0.07684674
000350 d7 58 46 bd 8c ef 96 3c 16 2f 38 bd 08 f4 85 3d
       -0.048424568 0.018424772 -0.04496678 0.06540686
000360 ed d6 6f 3d 9d 0b ae bd c1 e2 2b be 44 6a 1c be
       0.05855458 -0.08498309 -0.16785719 -0.15274912
000370 b4 e7 8d 3e eb 78 26 3e e1 d0 7e bc af 03 08 bd
       0.27715838 0.16257064 -0.01555273 -0.033206638
000380 89 ad b9 3c 03 ba de bd 13 72 72 be 32 7b 92 bd
       0.022665756 -0.10875323 -0.23676328 -0.07152404
000390 df 2f 52 ba e6 cc 28 3d 52 f9 10 be 0b f9 04 be
       -0.00080179976 0.04121103 -0.14157608 -0.12985627
0003a0 8e fc 53 be e3 5d ef bc 08 18 e6 3d a2 90 cb bd
       -0.2070181 -0.029219573 0.11235052 -0.09939696
0003b0 27 8a 98 3b e9 0d 37 be 57 43 a8 bd 8e 0b a0 bc
       0.004655141 -0.178764 -0.08215969 -0.01953676
0003c0 e9 9c 34 3d d2 29 09 3e cd b8 0a 3c 25 9d b2 bd
       0.044094954 0.1339486 0.0084669115 -0.08721379
0003d0 fd 03 6c bc 4c c3 c4 3d f9 bf 4f 3d 23 76 a0 bc
       -0.014405248 0.096075624 0.05072019 -0.019587582
0003e0 48 f8 eb bd 06 7b a0 bd 97 56 f4 bc 6c 4e 78 be
       -0.11521965 -0.07835965 -0.029826446 -0.24248666
0003f0 1a 84 91 bd ad 7a 59 3d 4d e1 91 bc fb 58 3c bd
       -0.071052745 0.05309551 -0.017807627 -0.045983296

conv2.bias f4 [16]
000000 f1 1f 60 3e 73 4d 5d bd 8f 7d 6a bd eb 07 49 3e
       0.21887185 -0.05402894 -0.05724865 0.19631927
000010 53 d0 3d 3e 3a 32 2b 3e 4e d1 6c 3e 2d 9b d7 3d
       0.185365 0.16718379 0.23126718 0.10527644
000020 fe 61 dd bd 35 56 77 3d ee d7 63 bd 23 20 a0 3e
       -0.10809706 0.060384948 -0.05562585 0.31274518
000030 bf 98 4f bd 87 e0 be bd 01 c6 4d 3e ca ea 95 3e
       -0.05068278 -0.09320169 0.20095064 0.29280692

fc1.weight f4 [120, 400]
000000 a1 24 5c 3c f5 2f fd bd 8f 73 6b bd 19 bb 86 3d
       0.013436467 -0.12362663 -0.057483252 0.06578655
000010 21 3a 78 3e 49 8e a7 bd 64 89 b7 3c ac b8 98 bd
       0.24240924 -0.081814356 0.02240438 -0.07457098
000020 69 89 41 3d 01 8c 9d 3d bb 22 62 bd 1c 0d 85 3d
       0.047250185 0.07692719 -0.055208903 0.06496641
000030 09 a4 af bd 95 ed 96 bb 1d 75 60 be d6 9d 10 3d
       -0.08576209 -0.0046059587 -0.21919675 0.035306774
000040 f3 d8 60 bd c7 a8 fd bc 3e 0c d7 3c a7 32 2c be
       -0.0548944 -0.030964268 0.026250955 -0.16816197
000050 85 f7 5c 3e f2 2d 2b bd bc d1 8b 3d 06 57 e1 bc
       0.21578796 -0.041791864 0.06827113 -0.027507316
000060 cd 31 8c be cc c2 51 3d 27 1b a3 3d ef 27 9a 3e
       -0.27381745 0.051211163 0.07964163 0.30108592
000070 16 d9 95 bb 28 ff 2c be 95 04 cd bd a3 00 b8 3b
       -0.004572998 -0.1689421 -0.100106396 0.0056153103
000080 cd cb 4d 3e 92 56 90 3d e1 4e 21 bd 3b 38 56 bd
       0.20097275 0.07047762 -0.039381865 -0.05229972
000090 17 14 f6 bc c4 ee 0c 3e b9 96 6e 3d eb 41 f4 3c
       -0.030038876 0.13762957 0.05824921 0.029816588
0000a0 05 d7 a4 3d 4f 9b 10 bd 2e 3f f0 bc c8 33 6f 3c
       0.08048824 -0.035304364 -0.029327001 0.014599748
0000b0 35 d9 22 be 85 b7 21 3d 60 02 92 bb 82 9a d3 bc
       -0.1590317 0.03948166 -0.0044558495 -0.025830511
0000c0 96 eb 02 3e fd d3 0b bd d1 c2 f2 bc 7a ae bc 3b
       0.12785181 -0.034137715 -0.029633911 0.005758104
0000d0 15 05 5b 3d 98 16 24 3d f7 6d 67 bd 48 9f ef bb
       0.053471643 0.04006061 -0.056501355 -0.007312689
0000e0 8c b1 6f 3c b7 4b 63 3b d8 51 80 bd 32 55 68 bd
       0.014629733 0.003468258 -0.062656105 -0.056721874
0000f0 b9 7c ed ba a4 4a 47 3d a8 8f 33 bd c0 55 35 bd
       -0.0018118835 0.048655167 -0.043838173 -0.04427123
000100 08 ce c2 bc b3 57 95 3d 34 b8 95 3d c0 2e 88 3d
       -0.023779884 0.07292118 0.073105246 0.06649542
000110 29 2f 77 bd 0e 7a 2c bd f6 64 5a 3c a7 bc 5e 3c
       -0.06034771 -0.042108588 0.013329735 0.013594783
000120 ed be 51 3c 40 31 86 bc e2 e1 01 bd 40 fd 1b 3e
       0.012801868 -0.016380906 -0.03170956 0.15233326
000130 fd 48 0e 3e 92 09 bc ba 25 e5 bc 3d 96 ba 61 3e
       0.1389503 -0.0014346114 0.09223393 0.22043833
000140 6c 11 1a bd 12 e1 b6 3d 91 27 a2 3c 92 3d df bd
       -0.03761427 0.089296475 0.019794257 -0.109004155
000150 4c b5 aa 3c 59 71 b8 bd 84 22 a0 3d f5 45 5f 3d
       0.020838402 -0.09005994 0.07819083 0.054510076
000160 9f aa 66 bd a0 f2 4f 3c 2c b5 e2 b9 1e 50 df 3c
       -0.05631506 0.012692124 -0.00043241063 0.027259883
000170 30 e3 f7 3d d0 8c 4a 3d da 33 5f 3d ff 97 38 3d
       0.121038795 0.049450696 0.05449281 0.04506683
000180 bc 0f 93 bc db 38 76 3d e1 b4 25 3b a7 5a f1 bc
       -0.017951839 0.060112815 0.0025284814 -0.029462172
000190 d5 b9 17 bb 34 04 e9 3b 47 1b a8 bb c5 f6 54 be
       -0.0023151536 0.0071110968 -0.005130205 -0.2079726
0001a0 2d 5b 83 bd 9f 88 6c 3c 1c 49 8b bd f6 22 80 bd
       -0.06413875 0.01443687 -0.06801054 -0.06256668
0001b0 36 ab 3f bd 57 70 24 be 3d 27 1a be d1 02 2f bc
       -0.04679414 -0.16058479 -0.1505403 -0.010681824
0001c0 43 c9 23 3e 22 ad 51 3e 50 4c 5a bd 13 5e 2b be
       0.15994744 0.20476201 -0.053295434 -0.16735105
0001d0 74 3a 96 bc 2b 79 81 3c 5f df 87 3d e6 96 bd bd
       -0.01833842 0.015804848 0.066344015 -0.09257297
0001e0 ff 70 0d bf b9 64 bd 3d 54 e1 41 be 57 7d 91 bd
       -0.55250543 0.09247727 -0.18933612 -0.07103985
0001f0 00 f5 1c 3e c2 d7 d9 3d 49 b0 f1 bd 66 d0 f4 bd
       0.15327835 0.10636856 -0.11801202 -0.11953811
000200 73 c9 87 bd f3 84 97 bc fc 6e 10 bd 7d 2a 26 bd
       -0.0663022 -0.018496012 -0.035262093 -0.040567864
000210 f0 95 d9 3c a0 26 4c 3c 61 0a da bd 75 9d db bc
       0.026560754 0.012460381 -0.10646511 -0.02680848
000220 7c fd 29 bd a2 f4 d7 3d 6c fd 27 3d 05 6e e4 bd
       -0.041501507 0.10544707 0.041013166 -0.11153797
000230 74 be 48 be 91 76 b4 bd e1 b6 11 3d 78 78 15 3e
       -0.19603902 -0.08811677 0.035574798 0.14596736
000240 9e 77 59 bd 4f c9 60 bc 1a e9 a9 bc 6e 5a ba bb
       -0.05309259 -0.013719871 -0.020741034 -0.0056870496
000250 e9 d7 5c 3e 46 78 94 be 8e 42 00 3e d4 86 09 3e
       0.21566738 -0.2899801 0.12525389 0.13430339
000260 0c 1e 58 3c 94 fd ba bc 99 84 e7 bc 5d 90 03 bd
       0.0131907575 -0.022825994 -0.02826147 -0.032120097
000270 ec 55 29 bd 09 90 80 bd a7 c2 f0 bd 2d 23 6d be
       -0.041341707 -0.062774725 -0.11755877 -0.2315795
000280 af f6 df bd 24 96 8d 3c f4 72 96 bd 8f 0f 8e bd
       -0.10935723 0.017283507 -0.07346144 -0.06936561
000290 a6 e6 85 be 9b fc fa bd 3b 12 18 bd 94 0b cd 3d
       -0.26152533 -0.12255212 -0.03712676 0.10011974
0002a0 dd 27 b8 3d 7a f7 68 be 13 72 e1 bd 46 8d 3e 3c
       0.08991978 -0.22750655 -0.11008086 0.011630362
0002b0 f7 59 6e 3d b5 8c 36 3e e8 c7 72 be 72 ad 8e 3c
       0.058191266 0.17827113 -0.2370907 0.01741669
0002c0 e2 5d 7d bd 4b 0e da 3d 99 d9 29 be d9 00 99 bd
       -0.06185711 0.106472574 -0.16586913 -0.07470865
0002d0 76 01 53 be 48 ab c7 3c 3e 53 94 bd b3 37 99 3c
       -0.20606026 0.024373665 -0.0724244 0.018703317
0002e0 a1 29 79 bb 12 db 4d bc 5a fa 18 3e ef df 89 bc
       -0.0038019198 -0.012564437 0.14939252 -0.016830413
0002f0 2b 8c 12 bd 97 bd 88 bb a8 a8 f4 bd 80 ff 19 bd
       -0.035778206 -0.0041729915 -0.11946231 -0.03759718
000300 b1 6c 43 bd 86 41 0b bd cc b1 8d bc 83 dd e9 be
       -0.047711078 -0.033998035 -0.017296694 -0.45676813
000310 73 46 86 be 7f bf 30 3c 22 15 3a be e4 0d 87 be
       -0.26225623 0.010787844 -0.18172124 -0.26377785
000320 f3 c5 ee 3c 60 98 c0 bc 40 9e 92 3b 6d 04 1f bc
       0.029147124 -0.023510158 0.0044744313 -0.009705645
000330 83 27 4f bd 67 d8 7c bc c2 64 3f bd bd 2b cb 3c
       -0.05057479 -0.015432454 -0.04672695 0.02480113
000340 03 a6 e2 3c 0f d7 3d bd 0d 8b e4 3b 5a 34 5c 3c
       0.027667051 -0.046347674 0.006974584 0.013440216
000350 c7 36 11 3d e5 02 74 bc 3d 61 dd bc 0a 58 1e bd
       0.03545263 -0.014893268 -0.027023906 -0.03865818
000360 fa 7e 2a 3d cf 88 09 bd c0 4d f1 bb d0 70 19 3d
       0.041625 -0.033577736 -0.007364005 0.037461102
000370 1d 1d fc bc 13 18 6d 3c 0a 4b 84 bc c5 2b 42 bd
       -0.030775601 0.014471072 -0.016149063 -0.047405023
000380 f3 df 94 bc 55 40 7a bd e4 75 17 3e dd b0 d3 bd
       -0.018173194 -0.061096508 0.14791065 -0.10336468
000390 47 d5 e3 3d 8a 1a ac 3d 18 44 02 3c 79 10 19 3e
       0.11124664 0.084034994 0.007950805 0.1494769
0003a0 01 03 8a bd 22 94 ac 3d 7d 9d 06 be ef d2 f9 3d
       -0.06738854 0.084266916 -0.13146015 0.121984355
0003b0 7d 14 c9 3c 8c 9a db bc b7 02 07 bd a2 06 3e bd
       0.024545902 -0.026807092 -0.032961573 -0.046393044
0003c0 79 b4 26 3e 5c d1 14 be fd 59 86 be 2d 7e b3 bd
       0.16279782 -0.1453299 -0.2624053 -0.087643005
0003d0 db d9 fa bd 4e 1b 7b 3e cc 8d 5a be 43 cf c2 be
       -0.12248584 0.24522135 -0.21343154 -0.38048753
0003e0 c3 62 39 bd 16 d5 5c be 79 c3 18 bd 39 74 6d 3e
       -0.045260202 -0.21565661 -0.037295792 0.23188867
0003f0 1c ba 6f bd f1 5f 30 be c2 ac 2f be dc 40 11 3e
       -0.058527097 -0.17224099 -0.17155746 0.14184898

fc1.bias f4 [120]
000000 c4 51 9c 3d e3 78 e0 3d 31 49 10 3e e7 6c d7 3c
       0.07632783 0.10960557 0.1409042 0.026297046
000010 4b bf 73 bd ae aa 4c bd 0b 75 fd bc c1 33 aa bc
       -0.059508603 -0.04996746 -0.0309396 -0.020776631
000020 ff d2 8a bd 8e fc 8e bc dd 9c d2 bc 63 cd 44 bd
       -0.067785256 -0.017454412 -0.025709564 -0.048047435
000030 3c 89 08 3e b8 20 41 3e ea ae 09 3d bf 1d 95 bc
       0.13333601 0.18860137 0.033614077 -0.01820266
000040 b5 d3 d5 bb fe bc 1d 3e 04 4a eb 3d dc fb 47 3d
       -0.0065254816 0.15404126 0.11488727 0.048824176
000050 01 e1 5f bd ec d6 2f bd e9 cd 59 bd 6e 16 d2 3d
       -0.05465794 -0.042929575 -0.053174887 0.102581844
000060 ec c8 8a bd ff fc fa 3a 61 00 dc 3c cb 70 cb 3d
       -0.06776604 0.0019148885 0.02685565 0.09933623
000070 c1 75 0b 3c d1 2a 23 3e 34 3d b7 bd a5 ba 3b bd
       0.008511961 0.15934302 -0.089472204 -0.045832295
000080 33 33 64 3e b7 37 79 bd 92 71 7f bd 98 72 64 bd
       0.22285156 -0.06084415 -0.06236417 -0.055773348
000090 c9 85 46 bb 05 76 24 3d bc 84 8e 3d ed b1 c5 3d
       -0.0030292145 0.040151615 0.06958911 0.09653077
0000a0 2c 2a f1 bc 92 0c c6 3d d9 47 0d 3e dc ef b4 3d
       -0.029439054 0.09670366 0.13796939 0.08834812
0000b0 ea 7f d9 bc 68 29 12 be fe af 60 bd f0 8b 90 bd
       -0.026550252 -0.14273608 -0.05485534 -0.07057941
0000c0 d0 25 99 3d 62 89 f8 bb aa df 12 3e 7c 47 9b bd
       0.07477915 -0.0075847367 0.14343134 -0.07581994
0000d0 7e f1 e8 3d 88 76 fa 3d 03 3c 36 bc c0 d5 e3 3c
       0.11374186 0.12229639 -0.011122706 0.027811885
0000e0 1f 71 9d 3b d8 3e 2b 3d 7b b3 9a 3d d9 fb 05 bd
       0.004804745 0.04180798 0.075537644 -0.032710884
0000f0 19 6c e2 3c b8 3b 79 bc 78 b9 eb 3d 04 a8 80 bd
       0.027639436 -0.015211992 0.11509985 -0.062820464
000100 93 2d 78 bd bd b2 97 bd 03 c7 d5 bc 78 25 61 3e
       -0.060590338 -0.074071385 -0.026095873 0.2198695
000110 02 7e 9a 3d 47 2d a3 3d d7 20 c6 3b 0d 5e f7 3d
       0.07543565 0.0796762 0.0060463953 0.12078486
000120 82 76 12 3e 0b db aa 3d f4 56 cd 3b f0 42 ed 3d
       0.1430302 0.083425604 0.006266469 0.11585033
000130 e4 f1 f0 3d 59 e1 3c 3d 27 63 96 bd 4f da 9a 3c
       0.11764887 0.046113346 -0.073431306 0.018902926
000140 59 8f 45 bc a4 26 01 bd c2 bd 88 bc 37 fa 47 3e
       -0.0120581025 -0.03153099 -0.016692046 0.19529043
000150 c4 c8 8d 3e c1 7e 0b bd e6 52 24 3c b2 9e 33 bd
       0.27692235 -0.03405643 0.01002953 -0.043852516
000160 ec 5c 83 3d db 64 8b bd 9d 9b 54 3e 6a 13 09 be
       0.06414208 -0.06806346 0.20762487 -0.13386312
000170 6d 13 c9 3d 41 72 60 3e a0 68 4d bc af 03 5c 3e
       0.09818158 0.21918584 -0.012537152 0.2148578
000180 93 3c 5d bd 44 81 f0 3d c1 96 27 bc 40 83 a1 bc
       -0.054012846 0.117434055 -0.010228814 -0.019715905
000190 c4 a2 25 ba f1 00 e1 3d d3 da 4f bc ab 8e 58 3b
       -0.00063185045 0.10986508 -0.012686449 0.003304402
0001a0 49 84 87 bd 73 14 c9 3d 9b 60 c0 3d 16 29 ba 3d
       -0.06617028 0.098183535 0.09393426 0.09089868
0001b0 5d 72 44 3e 4e fe b3 bd 63 92 18 3e d7 7f d8 3c
       0.19184251 -0.08788739 0.14899592 0.026428146
0001c0 5c ea 2f 3e 2f 64 31 3e 9b b1 13 3e df f4 05 3e
       0.17179245 0.17323373 0.1442322 0.13081692
0001d0 ef a7 7a bd cc bc 53 bd f1 c0 b7 3d b6 59 2b 3e
       -0.06119531 -0.051693723 0.089723475 0.16733441

fc2.weight f4 [84, 120]
000000 71 4b 8c bd 16 15 a1 3e 89 19 68 bd 54 20 9c 3e
       -0.06850327 0.314614 -0.056664977 0.30493414
000010 55 8d 56 bd 45 d5 14 bd bc 33 cf bc f7 3a 12 3c
       -0.05238088 -0.036336202 -0.025293224 0.008925191
000020 a3 4c 03 ba 21 40 94 bc ed 58 ab bd 5c 0c 51 bd
       -0.0005008673 -0.018096985 -0.083665706 -0.051037177
000030 c8 ca 8d 3d ad ae 1f 3e 17 ab a9 be 6a 20 93 bc
       0.06923443 0.15593977 -0.33138344 -0.017959792
000040 4c 8b 76 be e0 8c 23 bf 52 9e 1d 3e ba 48 f9 3e
       -0.24076575 -0.63886833 0.15392426 0.48688298
000050 ca 03 73 3b f7 5b 6e bd dc 2b c2 3c b0 08 9b be
       0.0037081116 -0.058193173 0.023702554 -0.30280066
000060 0c 5d d7 bd 0e 2c 7a 3c c6 7d 50 be e7 64 ea 3d
       -0.10515794 0.0152692925 -0.20360479 0.11445027
000070 a5 05 3f 3e 85 87 82 3e 0f d1 2a 3e 11 59 fc 3c
       0.18654497 0.25494018 0.16681312 0.030804189
000080 c2 de c6 3d 12 89 19 3c a0 ae f1 3d 3b a9 a8 bd
       0.097104564 0.009371059 0.11800885 -0.08235403
000090 17 ce 1a bd f5 24 81 be 0c bc b9 3e c4 b1 3f 3e
       -0.0377942 -0.25223508 0.3627628 0.18720156
0000a0 68 15 87 bd 56 d1 e2 3d ea 7b fb bd a9 bc 05 be
       -0.0659588 0.11075084 -0.12279494 -0.1306025
0000b0 39 4a b8 bd b6 14 ea be 36 e7 39 3d fb b5 65 3d
       -0.08998532 -0.45718926 0.045386516 0.056081753
0000c0 fd a7 d1 bd 62 c8 86 be e3 3e a7 bd fa 33 da 3d
       -0.10237119 -0.26324755 -0.081662916 0.10654445
0000d0 47 51 50 3e 02 f0 94 bd 02 24 e8 be 81 c2 da 3d
       0.20343505 -0.0727234 -0.45339972 0.1068163
0000e0 a1 98 b3 3e 1a 6d 5a 3e b2 83 6c 3d 58 88 12 3d
       0.35077384 0.21330681 0.057742782 0.03577456
0000f0 c0 30 94 be 3b 72 8b 3c ae 74 f6 3d 66 38 17 bb
       -0.28943443 0.017022243 0.12033974 -0.0023074388
000100 d8 79 bb 3d 87 19 08 3e d8 18 97 bc 7d e0 96 3e
       0.09154099 0.13290988 -0.018444464 0.29468146
000110 bb 5f 61 bd 9e 12 00 be b3 f0 8f be 8f b2 1c 3d
       -0.055022936 -0.12507102 -0.28113326 0.038256224
000120 b0 93 c9 be 25 2c 88 bc 5f 34 23 3c 2e 64 9e bd
       -0.3937049 -0.016622612 0.009961217 -0.077339515
000130 42 3e dd bd fc 3d 88 bc 0c 87 78 bc a1 ad c8 3e
       -0.1080289 -0.016631119 -0.015168916 0.39194968
000140 50 03 9a bd 4a 15 98 bd 79 c0 f7 3d 70 5b 9c bd
       -0.07520163 -0.074259356 0.12097258 -0.07634628
000150 6b 22 66 3c 27 05 c0 3d 7d e8 8f be 73 b5 28 bf
       0.014046292 0.09375983 -0.28107062 -0.6590187
000160 fa 95 da 3d ef fc 5e 3d c2 c3 f0 bd 9c 8b 3e 3d
       0.10673137 0.054440435 -0.11756088 0.04651986
000170 85 bc 60 3d 06 67 b0 3e 5f 7c 37 be 30 d8 27 be
       0.054867286 0.344536 -0.17918538 -0.16391063
000180 e8 5c b7 3d f9 ec 3e 3c c3 a2 b3 bc c4 c8 1c bd
       0.08953267 0.011653178 -0.021928197 -0.038277403
000190 2b 7f f1 bd b4 3b c1 be 4d 08 ab 3d cd 43 81 be
       -0.117918335 -0.37740862 0.083511926 -0.2524704
0001a0 e9 24 64 bd 28 df 1e 3e 12 1e 21 3e a6 37 56 be
       -0.055699263 0.15514815 0.15734127 -0.20919666
0001b0 69 fe b3 be cd 33 86 bc 96 55 cc be f0 3f d6 3d
       -0.35155037 -0.016382122 -0.39909047 0.10461414
0001c0 31 c6 b0 3e 1d 74 9f 3e 24 92 39 3e ac a3 07 3e
       0.34526208 0.31143275 0.18122154 0.1324603
0001d0 85 c2 c3 3a 24 87 d0 3d 2e 32 5e 3e 6d b9 ca be
       0.0014935291 0.10182026 0.2169883 -0.39594594
0001e0 55 a8 ee 3d 36 3f 5f 3d de 21 19 be 39 ab 1e be
       0.116532005 0.054503642 -0.14954326 -0.15495004
0001f0 30 5a 2b bb 77 ee a0 3c 89 d6 d8 3c 21 31 2f 3d
       -0.0026146285 0.019644959 0.026469486 0.042771462
000200 e8 74 0f bd 35 4f 97 3d c4 d1 a1 bd 9e 3e 17 3d
       -0.0350236 0.073881544 -0.07901338 0.03692495
000210 8a d4 4d 3c 8b 11 b2 bd 52 d1 2a 3e ca 3b 3f bd
       0.01256288 -0.08694752 0.16681412 -0.04668788
000220 47 d2 ee bb e5 2c c8 3e 25 1a 27 3e 10 29 00 bf
       -0.0072882506 0.39096752 0.16318567 -0.50062656
000230 76 e1 a7 bd 00 18 63 3d f9 ea b8 bb bc 61 56 3e
       -0.081973 0.05544281 -0.0056432453 0.2093572
000240 9b 09 a3 bd 9b 91 98 bd d9 36 32 3e 25 f6 cc 3e
       -0.079608165 -0.07449647 0.17403735 0.40031543
000250 7d 5a 89 be 76 fb 50 3e 7d 56 35 bd 40 b1 24 3d
       -0.2682685 0.20408425 -0.044271935 0.0402081
000260 d4 60 97 3d a3 12 e4 3b 27 fd be 3d a1 9c bd 3d
       0.073915154 0.0069602295 0.09325629 0.0925839
000270 e0 06 30 bd fe a1 99 3d bc d7 ef bd 7c 10 10 be
       -0.042975307 0.07501601 -0.1171107 -0.14068788
000280 f1 3d b5 3d a5 0d f3 3d 21 d1 52 3e cf eb 6e 3e
       0.08849705 0.11867837 0.20587589 0.23332141
000290 4f 6d 8a bd f3 8e 6c 3e 96 69 09 bd 82 8d 51 3d
       -0.0675913 0.23101406 -0.03354796 0.051160343
0002a0 b6 4b dd 3d 46 9f 2c 3e ed a6 49 be 8b 72 d3 3b
       0.10805456 0.16857633 -0.19692583 0.0064528636
0002b0 80 94 4d be c2 c3 a2 be 1a 28 4a be 40 8b 78 3d
       -0.2007618 -0.31789976 -0.1974186 0.060679674
0002c0 67 5d a9 bd f1 00 60 be f6 29 8c 3e 15 84 7d 3d
       -0.08269768 -0.21875359 0.27375764 0.06189354
0002d0 10 38 cb bd aa f1 1c bc 39 dc c9 bd 0a c0 59 3d
       -0.099228024 -0.009579102 -0.09856457 0.05316166
0002e0 79 4c 4a be 59 e1 5e 3d 4a cb 83 bd 8b 1a 3c 3e
       -0.19755735 0.054414127 -0.06435259 0.183695
0002f0 8c bc 1b be 0e e6 7f bd 9d c2 a1 3c 6e 3e 36 3e
       -0.15208644 -0.062475257 0.01974612 0.17797253
000300 1a ec 0b 3e 3e 9a 1e 3e fa 22 c4 be 0b 1d e5 3d
       0.13664284 0.15488526 -0.38307935 0.1118718
000310 8d 11 00 3e 50 02 1d be d5 5d 12 3d ce b0 81 3d
       0.12506695 -0.15332913 0.035734016 0.06332551
000320 3f 81 65 bc b6 79 b3 3d c0 2a 36 3e a4 74 45 be
       -0.014007865 0.08763449 0.17789745 -0.19282776
000330 ac 83 61 bd 96 ec 17 be 75 4f fe 3d 29 f1 1f 3e
       -0.055057213 -0.14836344 0.12417499 0.15619339
000340 83 70 89 bc 70 a0 90 bd 7f e3 f8 bd 77 9e 03 be
       -0.016777283 -0.07061851 -0.121527664 -0.12853418
000350 6b ca 91 3e 32 12 ab 3c d9 bb 67 3d fb 0e a7 bd
       0.28474745 0.0208827 0.05657563 -0.08157154
000360 fe 62 a1 3d ef a5 e2 bc d8 6e 8b bd 36 ee 1d bd
       0.078802094 -0.027667014 -0.06808251 -0.038557254
000370 65 6f 09 bf 4a e6 1f 3e b6 4a 23 3d 90 86 0a be
       -0.536856 0.15615192 0.03986617 -0.13527894
000380 e7 6a a1 3d 4c 91 55 3e 9f 37 03 3d e7 90 4c 3e
       0.07881718 0.20856208 0.032035466 0.19977151
000390 04 92 38 3e 57 47 2f be 1d 8e 71 bc 3e 85 2a bd
       0.1802445 -0.17117058 -0.014743355 -0.041630976
0003a0 86 63 64 3b 22 0a c1 bd 1b 91 88 bd d3 b7 ea bd
       0.003484936 -0.09425761 -0.06668302 -0.11460843
0003b0 4e ef 08 be 17 29 6f bc cc e0 74 3d b4 d4 ff bd
       -0.13372537 -0.014597199 0.059784696 -0.12491742
0003c0 6d 5b 0d be e1 b8 c0 3c 92 e9 80 be 55 6f 91 bd
       -0.13804407 0.023525657 -0.251782 -0.07101313
0003d0 8e e0 13 3d db ed c6 3c f1 33 b6 bc 69 b1 3c 3a
       0.036102824 0.02428334 -0.022241564 0.0007198067
0003e0 09 9e 1e 3c 0a fb 89 3d 01 6a 66 bd 56 9f e7 3c
       0.009681233 0.06737335 -0.056253437 0.02827422
0003f0 0f ca da bc 6c 68 82 be 84 21 59 be bc 41 75 bd
       -0.026707677 -0.25470293 -0.21204191 -0.059877142

fc2.bias f4 [84]
000000 e5 62 8d 3e 84 98 ae 3d 6f 7e 1f 3e 55 93 5c 3c
       0.27614513 0.08525184 0.15575574 0.013462861
000010 6c a1 92 3e c2 48 2d 3e 91 9c 41 be 3d 5e b7 bd
       0.2863878 0.16922286 -0.18907382 -0.089535214
000020 fd 10 e0 3d 95 fb b6 3b 06 d3 62 3e 53 d8 a6 3e
       0.1094074 0.00558419 0.22150812 0.32586917
000030 80 b6 fb bd 9b c7 13 be e2 e9 ea bd e5 ce 18 3d
       -0.122906685 -0.14431612 -0.11470391 0.037306685
000040 e0 c7 32 3d 45 36 21 3e 4f 31 bf bd dd f6 b1 bd
       0.043647647 0.15743358 -0.09335577 -0.086896636
000050 79 68 2d be c6 22 7a bd 3d 73 56 3d 88 24 9c 3e
       -0.16934384 -0.06106832 0.052355994 0.3049662
000060 8a 95 81 3e 8a 9e 7c 3e 75 70 87 3e 29 60 05 be
       0.25309402 0.24669853 0.26452985 -0.13024963
000070 1b cd f6 3c 80 f8 77 be 4a 7b 17 be f8 31 bf 3d
       0.030127099 -0.24215889 -0.14793125 0.09335703
000080 05 49 57 3d 8e 00 89 3d c8 c8 86 3e c6 3d 40 3e
       0.05255987 0.06689559 0.2632506 0.18773565
000090 53 1d dd bd 0d 5c 34 be f0 1e 91 3d c5 c1 2a 3e
       -0.10796609 -0.1761324 0.07085979 0.1667548
0000a0 61 15 7e bc 56 14 bf 3d d6 73 42 3e 62 de fa 3d
       -0.015508027 0.09330051 0.189895 0.122494474
0000b0 6b 1f 97 3e 2c 42 00 be 32 06 8b 3d e9 2f 7f 3e
       0.29516158 -0.12525243 0.06788291 0.2492062
0000c0 02 56 ba bd 6c 60 f9 3c 65 52 14 be c4 d1 0c be
       -0.09098436 0.030441485 -0.14484556 -0.13751894
0000d0 ee 28 82 bb 18 58 07 be 4e 11 9c 3e a2 37 33 bd
       -0.0039721644 -0.13217199 0.30481952 -0.043754227
0000e0 8c d3 45 3e 07 05 6c 3e f4 06 ca bd e9 a3 25 3d
       0.1931898 0.23048793 -0.098646075 0.04043952
0000f0 45 ba 05 be 86 f8 4a 3e df 72 68 3e da 2c eb bd
       -0.13059337 0.19821367 0.2270007 -0.11483164
000100 1e 84 04 3e de 69 bb 3d 11 37 e0 3c ed ad c9 bd
       0.12941024 0.09151052 0.027370008 -0.09847627
000110 15 e0 9a 3d f9 38 10 3e fe 95 6b 3e 0f 21 3a be
       0.075622715 0.14084233 0.23006436 -0.18176673
000120 64 3c 1b be f7 77 38 3d 30 86 76 3e 5e 17 9e 3d
       -0.15159756 0.045036282 0.24074626 0.07719301
000130 29 ba f3 3d ab fb ff bc 7b de 42 3e 6e 0c cf 3d
       0.119007416 -0.031247934 0.19030182 0.10109793
000140 e3 61 b1 bd 95 6d 8c 3c 48 09 2e be f6 b5 2a 3e
       -0.086612485 0.017142097 -0.16995728 0.16670975

fc3.weight f4 [10, 84]
000000 5f 7c b0 bd 81 72 3d 3e ab a6 86 bc c3 63 04 3e
       -0.08617472 0.18500711 -0.016436895 0.12928681
000010 14 f3 98 bd c9 bd 3b 3e 99 11 34 3d 8f 7c 9c bc
       -0.074682385 0.18334116 0.043962095 -0.019102363
000020 c8 cb 90 bd 94 6c 8f bd be a2 26 3e 2a da c1 3d
       -0.07070118 -0.070031315 0.16273019 0.094654396
000030 16 98 8e bc 9d e7 35 bd ac 25 1a 3e 9c 6b 9b 3c
       -0.017406505 -0.044410337 0.15053433 0.01897221
000040 45 08 88 bb 32 84 64 be 3f 89 a6 bc d3 76 7a bd
       -0.0041513764 -0.22316054 -0.020329116 -0.061148476
000050 71 23 04 bc ec 20 31 bd 01 a9 66 bd 19 18 08 be
       -0.0080650905 -0.043244287 -0.05631352 -0.13290443
000060 00 5a 14 be 73 b9 3e be 0d 47 10 3e 6c 5d ef 3c
       -0.14487457 -0.18625431 0.14089604 0.029219352
000070 93 7b 32 bf 6d ba c7 bb ad 7d b2 bd d5 c1 cb 3d
       -0.6971981 -0.0060952217 -0.08715377 0.0994908
000080 42 e4 52 be 28 79 79 be 33 3d f0 3d 36 23 3a be
       -0.20594886 -0.24362624 0.11730423 -0.18177494
000090 72 6a 8d 3d 54 26 22 be 8c ec bf 3d 4a ce ac 3d
       0.069050685 -0.15834934 0.093712896 0.08437784
0000a0 d3 3d 8c 3d d6 d4 d3 3d 73 72 11 3e b7 c4 d3 be
       0.068477295 0.103433296 0.14203815 -0.4136102
0000b0 7f 19 fb bb b6 e0 36 bd 88 c1 8b 3d b6 d4 e9 bd
       -0.0076629515 -0.044647895 0.068240225 -0.114175245
0000c0 f1 c2 cc bd 01 9f 5e 3d 71 bb e9 bd 5e 68 70 bd
       -0.099981196 0.054350857 -0.11412705 -0.058693282
0000d0 49 cb a4 be ca da 5e bb 9f e7 16 be 48 af 71 3d
       -0.32186344 -0.003400492 -0.14736794 0.05900505
0000e0 21 2e 8c 3d 2c 65 22 3e d5 e5 dc 3a 83 96 e2 3b
       0.06844736 0.15858907 0.0016853163 0.006914915
0000f0 2f a0 df 3d 2c 86 a6 bd e9 49 c8 3d 10 ca b7 bc
       0.109192245 -0.0813106 0.09779722 -0.022435218
000100 1b 94 7b 3e c4 e6 10 3e 15 63 2d bd d8 75 5e 3d
       0.24568217 0.1415053 -0.04233082 0.054311603
000110 0d b3 82 be c8 d0 7f be 59 8b 5b be 68 ee c7 bd
       -0.2552723 -0.24981987 -0.21439876 -0.09762269
000120 a6 0a 2a bd e3 04 e5 bd ef 78 4c be ef dd b5 bd
       -0.04151406 -0.11182573 -0.19968008 -0.08880221
000130 5c b3 bb be b6 c5 c3 be 30 b1 8c be 54 f2 cb be
       -0.36660278 -0.3823678 -0.27478933 -0.3983332
000140 c9 ad dd bd 04 d9 29 3e 53 7c cb bb aa 35 99 3d
       -0.108241625 0.16586691 -0.006209889 0.07480939
000150 69 b4 fd 3e af 23 57 be 4f 5b 89 be ee 0b 58 3e
       0.49551705 -0.21009706 -0.26827475 0.21098301
000160 32 e8 cc bd 0c a5 09 bf fa 5b 18 bf 28 91 1a be
       -0.10005225 -0.53767467 -0.59515345 -0.15094435
000170 64 aa 0f be d7 b5 80 3d e8 7e 0b be 8d fb 25 3e
       -0.14029843 0.06284683 -0.1362263 0.1620924
000180 33 a9 e5 bd 5c c8 37 bd af 82 0b be 97 6c ae 3d
       -0.11213913 -0.044868812 -0.1362407 0.085168056
000190 20 53 23 3c 6c 14 46 3d 01 bc e5 bd e1 1f a3 be
       0.009968549 0.04835932 -0.112174995 -0.3186026
0001a0 2d 4c 17 bb 4b e3 5c 3e bc 5c dc 3e 9c fc c1 be
       -0.0023086176 0.2157108 0.430395 -0.37888038
0001b0 27 49 a8 be 0f f3 3a be 8a e8 b5 be fa f7 67 bd
       -0.3286831 -0.18256782 -0.35528976 -0.056632973
0001c0 c5 4f d3 be 42 eb 20 be db af 77 bc 9f 42 2f 3d
       -0.41271797 -0.15714744 -0.015117611 0.042788144
0001d0 93 28 b7 be 98 fb ae be 55 88 88 be 14 8a 42 3d
       -0.35773143 -0.34176326 -0.26666513 0.047494963
0001e0 30 e4 c2 bd d7 a0 02 be 68 0b 59 3e bf 04 e0 bd
       -0.095161796 -0.12756668 0.21195757 -0.10938405
0001f0 2b 08 02 3e 35 7a da 3d bf 87 ff bd 92 5b 94 bd
       0.12698428 0.106678404 -0.124770634 -0.07244028
000200 a1 c1 bc be af 9b 69 be ac 5e a2 be c2 5b 1f bf
       -0.36866477 -0.22813295 -0.31712854 -0.62249386
000210 ea eb 43 3e 5e 95 1d 3e 50 99 12 39 a2 09 22 bd
       0.19132963 0.1538901 0.00013980758 -0.039559968
000220 2b cd cc 3c 4e 50 0f 3d cf 9d cf bb ea 1e d2 3d
       0.025000175 0.034988694 -0.006335951 0.10259803
000230 cf c5 2b 3d ca 4f bc be ee 5a 19 be e2 85 40 be
       0.04193669 -0.36779624 -0.14976093 -0.18801072
000240 c7 ba b9 be 0e b7 30 be d5 f8 a1 be 22 37 02 be
       -0.36275312 -0.1725733 -0.31635156 -0.12716344
000250 dd 2c df be f0 1c c1 be eb 26 2c 3e 27 6e b8 bd
       -0.43588915 -0.3771739 0.16811721 -0.09005385
000260 28 28 0e bf 00 18 08 be 1f f5 b8 bb c0 c8 53 be
       -0.55530024 -0.13290405 -0.005644455 -0.20682049
000270 6a 65 b2 bd 32 4c 5d 3e 66 e3 ec 3d d3 66 87 3e
       -0.087107494 0.21611097 0.1156681 0.26445636
000280 6b 87 f1 3d 3d 82 ae bd 29 55 bf bd 7f 5c 32 bc
       0.11793407 -0.08520935 -0.09342415 -0.010886311
000290 ba c9 31 bd 34 48 67 be a4 a9 77 b9 3d 56 46 be
       -0.043405272 -0.22586137 -0.00023618952 -0.19368835
0002a0 e1 de 68 bd 58 c8 d3 be f3 1c 94 bd d5 f9 56 be
       -0.05685318 -0.41363788 -0.07232084 -0.20993741
0002b0 11 db c7 3d b3 28 05 3e bf cc f5 be 05 81 a7 3d
       0.097585805 0.13003807 -0.4800777 0.081789054
0002c0 d8 f9 9d be dd 50 bd be ab 74 59 3e 2b 13 28 bf
       -0.30854678 -0.36975756 0.21235912 -0.6565425
0002d0 0e 31 4c be b1 55 21 be d4 93 d4 bc b9 01 26 3e
       -0.19940588 -0.15755345 -0.025949396 0.16211595
0002e0 77 0d 8b be f1 33 b9 3d 08 45 9c ba f9 3b 8f 3d
       -0.2715871 0.0904311 -0.0011922428 0.06993861
0002f0 c8 55 ca bc 70 bf ce be 42 61 d6 bc 93 c6 1b bd
       -0.024699107 -0.4038043 -0.026169423 -0.038031172
000300 bc 4f fc 3d 05 ca 96 bd 1b b7 6b 3c 94 ef 74 3d
       0.123198956 -0.07362751 0.014386917 0.059798792
000310 9a d9 7b bd b8 f9 02 3f 99 df 8b 3d c7 21 ad 3c
       -0.061486818 0.5116229 0.06829757 0.02113427
000320 1e cf f2 bd 1a 7f 2f 3e ca e2 62 3d c6 81 1d 3d
       -0.11855911 0.17138329 0.055392064 0.03845384
000330 2f 0b 60 bd c0 64 8a 3c f4 d5 42 be b5 c3 40 be
       -0.054698166 0.016893744 -0.19026929 -0.18824656
000340 f3 e5 c9 3d 3f 45 df bd c8 f4 4c be e6 4a 4b 3d
       0.098583125 -0.109018795 -0.20015252 0.049631976
000350 f7 82 f6 3c e1 2c e8 bd 3c c4 26 3e b0 36 ae bd
       0.030091746 -0.11336685 0.16285795 -0.085065246
000360 df 6f fd bd ca a0 a5 be 4a c6 75 bd 36 53 d0 bc
       -0.12374853 -0.32349235 -0.060003556 -0.025430303
000370 4d e0 63 be 0c c0 0a be 51 8d 7c bd 85 36 1e 3e
       -0.22253533 -0.13549823 -0.061658207 0.15450485
000380 87 45 bd 3d 6a 7a f8 3d e5 3d 5c bc e4 21 cb bd
       0.09241777 0.12132724 -0.013442491 -0.099185735
000390 c2 e0 3e be 22 dc d3 3d 0f 48 9e be 36 d6 e5 bd
       -0.18640426 0.103447214 -0.3091435 -0.11222498
0003a0 6b 30 83 3b b3 b7 51 3e 6d 8e c6 bd 48 eb f4 bd
       0.0040035746 0.20480232 -0.09695134 -0.11958939
0003b0 26 e2 97 bd 95 08 e0 bd 8b 0d 09 be e2 cc 43 3c
       -0.07416181 -0.10939137 -0.13384072 0.011950703
0003c0 41 0c b2 bd 88 bc c3 be cf 3f 0b bd 55 23 84 be
       -0.086937435 -0.38229775 -0.0339964 -0.25808206
0003d0 e9 ed 33 3d 51 32 44 be 21 d7 03 be 14 0d 4e be
       0.04392806 -0.19159819 -0.12875034 -0.20122176
0003e0 41 f9 a4 bd 60 89 76 3d 9e 2f 0e be 87 4c b5 bd
       -0.08055354 0.060189605 -0.13885352 -0.08852487
0003f0 84 55 15 be 17 5f 02 3d 54 27 fc be 85 e3 23 be
       -0.14583403 0.031828966 -0.49248755 -0.1600476

fc3.bias f4 [10]
000000 d3 c1 04 be d5 50 9c be 68 e5 86 bd e3 c8 d7 3d
       -0.12964563 -0.3053042 -0.065867245 0.10536363
000010 88 d2 2d be 3e 3a e7 3b 0e d8 1c 3e ca 02 43 3d
       -0.16974843 0.0070565036 0.15316793 0.04761008
000020 62 e7 02 3e 15 71 0b be
       0.12783578 -0.13617356
