HW1_Split_nb/checkpoints/model_batchnorm_15.pt (torch, 253730 bytes, 18 tensors)

conv1.weight f4 [6, 1, 5, 5]
0	0xbe5694a7	-0.20955144
1	0x3e4d1cce	0.2003052
2	0x3d7aba13	0.06121261
3	0x3e88e00f	0.26733443
4	0xbe34a971	-0.17642762
5	0xbe0f318f	-0.13983749
6	0x3e34591b	0.17612116
7	0x3d371ff1	0.044708196
8	0x3ede340d	0.43399087
9	0xbee055fe	-0.43815607
10	0xbe8369b9	-0.25666597
11	0x3e6f17d3	0.23348932
12	0x3ea0382a	0.3129285
13	0x3f593a1b	0.84854287
14	0xbe7074c1	-0.23482038
15	0xbdbf17e1	-0.093307264
16	0x3e69ad8e	0.22820112
17	0x3e8b256a	0.27176982
18	0x3f5ceef7	0.8630213
19	0x3daccc54	0.0843741
20	0xbb6c4f2c	-0.0036057932
21	0xbe403334	-0.18769532
22	0xbe81c3b7	-0.2534463
23	0x3e62c52d	0.22145529
24	0xbe286959	-0.16446437
25	0x3ea48097	0.32129356
26	0x3e7260c6	0.23669729
27	0xbeaa9990	-0.33320284
28	0xbeaa698a	-0.33283645
29	0xbe8c3628	-0.27385068
30	0x3d6adc7e	0.057339184
31	0x3edb8278	0.42872977
32	0x3ea14f28	0.31505704
33	0xbeb865cb	-0.36015162
34	0x3da2f448	0.07956749
35	0xbca7720e	-0.020440128
36	0xbdab6fb9	-0.08370919
37	0x3ea04827	0.31305048
38	0xbd2a6363	-0.04159869
39	0x3e18bfcb	0.14916913
40	0xbe9b431a	-0.30324632
41	0xbdf542d5	-0.11975638
42	0x3d0b31c7	0.03398302
43	0x3eaddd7a	0.33958036
44	0x3e012705	0.12612541
45	0xbde72864	-0.11287001
46	0xbeed1085	-0.46301666
47	0xbe961443	-0.29312333
48	0x3eb05da8	0.34446454
49	0xbd9b3ec8	-0.07580334
50	0x3e26560f	0.16243766
51	0xbe5e3586	-0.21700105
52	0xbe250b14	-0.16117507
53	0xbdaeaa4c	-0.08528575
54	0x3d9c677a	0.07636924
55	0x3e89f818	0.26947093
56	0xbe10e3af	-0.14149354
57	0xbe558d9b	-0.208548
58	0x3e5ae01e	0.21374556
59	0x3e0f3e41	0.13988592
60	0xbe4d83b4	-0.20069772
61	0xbf35aebc	-0.7096975
62	0xbc609484	-0.013707284
63	0x3eece1c4	0.46265996
64	0x3e0d1cf1	0.13780572
65	0xbec754dc	-0.3893193
66	0xbf36b1dc	-0.7136514
67	0xbb940338	-0.0045169853
68	0x3e39c96f	0.18143247
69	0x3e8f684c	0.2800926
70	0x3d11bd33	0.035580825
71	0xbe8941c1	-0.2680798
72	0xbe3a14dd	-0.18172021
73	0xbe41c8d7	-0.1892427
74	0xbe605e86	-0.21911058
75	0xbd3d5f32	-0.046233363
76	0xbec95361	-0.39321426
77	0x3e66f314	0.22553664
78	0x3e350047	0.17675887
79	0x3d4483cf	0.047977265
80	0x3dc4353d	0.09580467
81	0xbede970e	-0.4347462
82	0x3ead8571	0.3389087
83	0x3da235c9	0.07920415
84	0xbdc93e3a	-0.09826322
85	0x3e938faa	0.28820544
86	0xbe872bb0	-0.26400518
87	0xbe2e1596	-0.17000422
88	0x3e2060dc	0.15661949
89	0xbd2a72e2	-0.041613467
90	0x3ea40b97	0.32040092
91	0xbd689c74	-0.05678983
92	0xbe54770e	-0.20748541
93	0xbeb30ecf	-0.34972236
94	0x3e8500da	0.25977212
95	0x3eaeffec	0.34179628
96	0xbe76a3a0	-0.24085855
97	0x3ddb2641	0.10700656
98	0xbd5c0bfb	-0.053722363
99	0xbe43a5d8	-0.19106233
100	0x3d41a5c8	0.047277242
101	0x3e8623c2	0.26199156
102	0x3eb38332	0.35061032
103	0x3daf6849	0.08564813
104	0xbe0dbc82	-0.13841441
105	0xbe18490f	-0.1487162
106	0xbd6ecd97	-0.058301535
107	0x3b3c55de	0.0028737704
108	0xbde5ae46	-0.11214881
109	0xbdfffc7a	-0.12499328
110	0xbe15e759	-0.14639033
111	0xbf8784ec	-1.058744
112	0xbf9fe901	-1.2492982
113	0xbe5c71ed	-0.21527834
114	0x3e1bcc2f	0.15214609
115	0x3e284e32	0.16436079
116	0x3d42eaa4	0.047587052
117	0xbea8d326	-0.32973593
118	0xbdc2ec57	-0.095177345
119	0x3d5b3fb8	0.053527564
120	0x3dcb98b1	0.09941233
121	0x3ed6eb97	0.41976616
122	0x3cb2b89a	0.02181654
123	0x3da664e5	0.08124713
124	0xbd2a2980	-0.041543484
125	0x3e630605	0.22170265
126	0x3d77f3b5	0.06053515
127	0x3e148f8f	0.14507888
128	0xbbe97f8a	-0.0071257995
129	0xbe805f46	-0.25072688
130	0x3dc38236	0.0954632
131	0xbd291c43	-0.041286718
132	0x3e59d455	0.21272404
133	0xbed32ece	-0.41246647
134	0xbc496df9	-0.012294286
135	0x3e9c686b	0.30548415
136	0x3e423760	0.18966436
137	0x3e43736e	0.19087002
138	0xbec20187	-0.3789179
139	0xbe9e946c	-0.30972612
140	0x3e5186a2	0.20461515
141	0x3d8c6a60	0.06856227
142	0x3e8be273	0.27321205
143	0xbef815ba	-0.48454076
144	0xbe22ef6d	-0.15911646
145	0x3e7c7741	0.24654867
146	0x3e2d447b	0.16920654
147	0x3e968555	0.293986
148	0xbec1d44b	-0.3785728
149	0xbe8fefb0	-0.28112555

conv1.bias f4 [6]
0	0xbd8fc434	-0.07019845
1	0xbda117c4	-0.07865861
2	0x3d280d69	0.041028414
3	0xbdd204a6	-0.10254793
4	0x3df385eb	0.11890777
5	0x3d6420f7	0.0556955

conv2.weight f4 [16, 6, 5, 5]
0	0xbe73de8c	-0.23815364
1	0x3ded1d7b	0.115778886
2	0xbc862c5e	-0.016378578
3	0x3e1770c4	0.1478911
4	0x3e899891	0.2687421
5	0xbe8d8177	-0.27637836
6	0xbba7d722	-0.0051220814
7	0xbe158a9c	-0.14603657
8	0x3dd30585	0.10303787
9	0x3e172b86	0.14762697
10	0xbe55e439	-0.20887841
11	0xbe5a2a86	-0.21305284
12	0xbe90c555	-0.28275552
13	0x3e38fc34	0.18064958
14	0xbd3a3e8c	-0.045469806
15	0xbd8c25b0	-0.06843126
16	0xbe1a4648	-0.15065873
17	0xbed9851a	-0.4248436
18	0x3caa32bc	0.020776145
19	0xbd86235e	-0.065497145
20	0x3dd1a724	0.10236958
21	0xbe64fa56	-0.2236112
22	0xbf1dd5bc	-0.6165426
23	0xbddee2ad	-0.10883079
24	0xbe72537b	-0.23664658
25	0xbecf3e3e	-0.40477175
26	0xbea59868	-0.3234284
27	0xbebf0628	-0.37309384
28	0xbd5b0347	-0.053469922
29	0x3ea59d93	0.32346782
30	0x3e48a7b1	0.19595219
31	0xbe0cf3a8	-0.13764822
32	0xbf0b2ead	-0.54368097
33	0xbd00c331	-0.03143615
34	0xbde134f8	-0.10996431
35	0x3ac3eb3b	0.0014947423
36	0xbea9ea02	-0.33186346
37	0x3ead025a	0.33790857
38	0x3e219d16	0.1578258
39	0x38fefed6	0.00012159131
40	0x3df6623b	0.12030455
41	0xbe24dd3a	-0.16100016
42	0xbe0c4519	-0.13698234
43	0x3e7f1a26	0.24912319
44	0x3e275306	0.16340265
45	0xbc83a680	-0.016070604
46	0x3da2e247	0.07953315
47	0xbbffdd30	-0.00780835
48	0x3e5772a1	0.21039821
49	0x3cbda9bd	0.023152227
50	0x3ea607da	0.32427865
51	0x3e9065fd	0.2820281
52	0x3e121190	0.14264512
53	0x3dc1b022	0.09457423
54	0x3c943bac	0.01809486
55	0x3d99dbef	0.07512652
56	0x3d274208	0.040834457
57	0xbf1b4025	-0.6064475
58	0xbe26b520	-0.16280031
59	0x3d433e64	0.047666922
60	0x3dd7356a	0.10508235
61	0xbe951e95	-0.29124895
62	0xbf5db292	-0.866006
63	0xbeb58cda	-0.35459024
64	0xbee84c28	-0.45370603
65	0x3d73a2d2	0.05948145
66	0xbeda5460	-0.42642498
67	0xbe488719	-0.19582786
68	0x3e408b94	0.18803245
69	0xbe13b8df	-0.14425991
70	0xbdef2ea4	-0.11678818
71	0xbe65855f	-0.22414158
72	0x3e0c8f84	0.13726622
73	0x3ecbddc9	0.39817646
74	0x3dc1cded	0.09463105
75	0x3ea24897	0.31696007
76	0x3e4fe8da	0.2030367
77	0x3e33d29d	0.17560811
78	0xbebe1e7b	-0.3713263
79	0x3e0d9d80	0.13829613
80	0xbe112b0b	-0.14176576
81	0xbdc94991	-0.09828485
82	0x3e1701c0	0.14746761
83	0xbe9808de	-0.29694265
84	0xbe06c57a	-0.13161269
85	0x3d0dfccd	0.034664918
86	0xbe112e0c	-0.14177722
87	0xbef2339d	-0.47305003
88	0xbd3714fb	-0.044697743
89	0x3e8eb359	0.27871206
90	0x3c030825	0.007997547
91	0xbd952b34	-0.07283631
92	0xbe731b2e	-0.23740837
93	0xbe11af1b	-0.14226954
94	0x3dc739e8	0.097278416
95	0x3a0781e3	0.0005169196
96	0x3e0bf1fe	0.13666531
97	0xbd69fb6f	-0.05712455
98	0x3e06c6c8	0.13161767
99	0xbe0558b5	-0.1302212
100	0x3f251275	0.6448129
101	0x3f4d2a38	0.80142546
102	0x3ebabe6d	0.36473408
103	0x3b80d9d8	0.003932219
104	0xbed99c62	-0.42502123
105	0x3eb36fac	0.35046136
106	0x3d51bbe9	0.051204596
107	0x3d9a38bb	0.07530352
108	0x3e5127fc	0.20425409
109	0xbeb655e1	-0.35612395
110	0x3d1f706e	0.03892558
111	0x3cf6f34f	0.030145315
112	0xbd672028	-0.05642715
113	0xbda4d04c	-0.08047542
114	0x3d7939e2	0.060846217
115	0xbec3024c	-0.3808769
116	0xbed5627d	-0.41676703
117	0xbe680246	-0.22657117
118	0xbe7511f3	-0.23932628
119	0x3e1bd1f8	0.15216815
120	0xbe64dea2	-0.22350553
121	0xbd8cfa8f	-0.06883728
122	0xbae75e81	-0.0017652066
123	0x3d964932	0.0733818
124	0x3ecdb87b	0.4017981
125	0xbe348da2	-0.17632154
126	0x3ddb9ed7	0.10723656
127	0x3de1d584	0.11027053
128	0xbeb3d2cc	-0.35121763
129	0xbd486aad	-0.04892986
130	0xbea0d187	-0.31409857
131	0xbd51ae88	-0.051191837
132	0xbe127b3a	-0.1430482
133	0xbe16ed54	-0.14738971
134	0x3d089e4f	0.0333541
135	0xbe4618a1	-0.19345333
136	0xbcc5ceef	-0.024146525
137	0xbde248c8	-0.11049038
138	0xbd45a1f6	-0.04825016
139	0x3e313a7a	0.17307463
140	0xbd733a6f	-0.0593819
141	0x3ea70f78	0.3262899
142	0x3e6b6431	0.22987439
143	0x3dcd019b	0.10010072
144	0x3daaa5f3	0.083324336
145	0xbdd30d08	-0.1030522
146	0x3ef5cb38	0.48006606
147	0x3ebe9ceb	0.37229094
148	0x3e25d72a	0.1619536
149	0xbda3fa3f	-0.08006715
150	0xbef85eb4	-0.48509753
151	0xbe975572	-0.29557377
152	0x3e2370f5	0.15961058
153	0xbe1a9a1c	-0.1509785
154	0x3e6a6dcf	0.22893451
155	0xbf0500c2	-0.5195428
156	0x3cadbfa2	0.021209542
157	0x3ea64783	0.32476434
158	0xbc9ac0b6	-0.01889072
159	0xbd32f0e4	-0.043686762
160	0xbea41fd4	-0.32055533
161	0xbdf37c83	-0.11888983
162	0xbd07b624	-0.033132687
163	0x3ae186d7	0.0017206323
164	0xbd802880	-0.06257725
165	0xbe365677	-0.17806421
166	0x3d0edc39	0.03487799
167	0x3cfe6132	0.031052206
168	0x3e63d93f	0.22250842
169	0xbddc92e3	-0.10770204
170	0xbe1a8627	-0.15090238
171	0xbe73aabe	-0.23795602
172	0xbdc93d0e	-0.098260984
173	0x3d1cf0bb	0.038315516
174	0x3cd6b82c	0.026210867
175	0xbf08610f	-0.532731
176	0xbdd87557	-0.10569256
177	0xbdc1cf9f	-0.09463429
178	0x3e566e7e	0.20940587
179	0x3e318c42	0.1733866
180	0x3d943697	0.07236975
181	0xbe5a94e8	-0.21345866
182	0xbe68ce31	-0.22734906
183	0x3ecd45da	0.40092355
184	0x3d607937	0.0548031
185	0xbe8d0c91	-0.2754865
186	0xbefe5de1	-0.49681
187	0xbe76c681	-0.2409916
188	0x3e801daf	0.25022647
189	0x3e39c4b8	0.18141448
190	0x3e4b7f70	0.19872832
191	0x3dcfee30	0.101528525
192	0xbe6d0eac	-0.23150128
193	0x3dfe4715	0.124159016
194	0x3b8d9909	0.0043212217
195	0x3e4274df	0.18989895
196	0x3d3f4b05	0.046702404
197	0xbebd7d8e	-0.37009853
198	0xbc8fda9e	-0.0175603
199	0x3e88db71	0.2672992
200	0xbd03dfbb	-0.032195788
201	0xba1ac11a	-0.0005903408
202	0xbdecc184	-0.11560348
203	0xbea1ffe1	-0.31640533
204	0x3ed242a0	0.41066456
205	0xbd5bbf04	-0.053648964
206	0x3c27741a	0.010220552
207	0x3aec55dd	0.001803096
208	0xbeac127a	-0.33607846
209	0x3e53f3a5	0.20698412
210	0xbd4bcb2d	-0.04975431
211	0x3dbba9ba	0.09163232
212	0x3cd846cb	0.026400944
213	0xbf180a89	-0.59391075
214	0xbdf1cfd3	-0.118072174
215	0x3d48ce28	0.04902473
216	0xbce88a9a	-0.028386403
217	0xbe14a9e8	-0.14517939
218	0xbe9e728d	-0.3094677
219	0xbe1f95b5	-0.15584452
220	0x3d2864a7	0.041111615
221	0xbde607db	-0.11231967
222	0xbec856ba	-0.39128667
223	0xbe94e81f	-0.29083344
224	0x3d87de26	0.06634168
225	0xbf172500	-0.5904083
226	0xbedbb4b2	-0.42911297
227	0x3ec302a1	0.38087943
228	0x3ec44f9d	0.3834199
229	0x3d8d66de	0.06904386
230	0x3e95e163	0.2927352
231	0x3e22c2ed	0.15894671
232	0xbe1c546e	-0.15266582
233	0xbddabeb3	-0.10680904
234	0x3d95bd9b	0.07311555
235	0xbd8a7e24	-0.06762341
236	0x3e006101	0.12537004
237	0x3d818084	0.063233405
238	0xbdf0e523	-0.11762454
239	0x3dec0f98	0.11526412
240	0x3e197320	0.14985323
241	0x3ecbbb02	0.39791113
242	0xbd4d79b3	-0.05016489
243	0xbf11db40	-0.56975174
244	0xbe22e45f	-0.15907429
245	0x3e2fb6fd	0.17159648
246	0x3dcc72bf	0.099828236
247	0xbe8757dd	-0.26434222
248	0xbe167ef4	-0.14696866
249	0xbe79a256	-0.24378332
250	0x3f3bd386	0.73369634
251	0x3e3a2897	0.18179546
252	0xbee631f0	-0.44959974
253	0xbe9a3fdb	-0.30126843
254	0x3f24727d	0.64237195
255	0xbd1d8ed0	-0.038466275

conv2.bias f4 [16]
0	0x3e37cb62	0.17948678
1	0xbe8a596e	-0.27021354
2	0xbe3a7cea	-0.18211713
3	0x3c6983e6	0.014252638
4	0x3d6c3391	0.057666365
5	0x3d098300	0.033572197
6	0xbcd638ba	-0.026150096
7	0x3d5c4893	0.05378015
8	0x3e01dfa0	0.12682962
9	0xbb266a46	-0.0025392934
10	0x3ca281cb	0.01983728
11	0xbdff19b0	-0.124560714
12	0x3c8cd93f	0.017193435
13	0x3cbde69d	0.023181254
14	0xbcbbd76b	-0.022929868
15	0x3d871f2d	0.06597743

bn1.weight f4 [6]
0	0x3f0c34f2	0.5476829
1	0x3f77c3ad	0.9678295
2	0x3f8bd1a1	1.0923349
3	0x3f905b47	1.1277856
4	0x3fb86d8b	1.440843
5	0x3f148851	0.580205

bn1.bias f4 [6]
0	0xbeda469e	-0.42632002
1	0xbe043ea6	-0.12914523
2	0xbe9ebb73	-0.31002387
3	0xbdf74819	-0.120742984
4	0xbf1f2e3a	-0.6217991
5	0x3de2e1fd	0.1107826

bn1.running_mean f4 [6]
0	0x3f0541f9	0.5205379
1	0xbdbd760b	-0.092510305
2	0xbee7a1ce	-0.45240635
3	0xbdf1d11b	-0.11807462
4	0xbef229b0	-0.4729743
5	0x3d3dc9a0	0.046334863

bn1.running_var f4 [6]
0	0x3f1af91d	0.60536367
1	0x3d441fa2	0.04788173
2	0x3ef4ce57	0.47813675
3	0x3d29b802	0.04143525
4	0x3f0aec4f	0.5426683
5	0x3e9cf334	0.306543

bn2.weight f4 [16]
0	0x3f8cb461	1.0992547
1	0x3f8ad242	1.0845416
2	0x3f73ab91	0.95183665
3	0x3f752e7e	0.95774066
4	0x3f8a2714	1.0793176
5	0x3f70fbe7	0.9413437
6	0x3f6aa3c0	0.9165611
7	0x3f6a2c82	0.91474164
8	0x3f6fa20f	0.93606657
9	0x3f89be5f	1.0761222
10	0x3f9ad8e0	1.2097435
11	0x3f8eb9d2	1.1150458
12	0x3f75da58	0.9603629
13	0x3f55d365	0.8352569
14	0x3f79ae2d	0.97531396
15	0x3f855b27	1.0418442

bn2.bias f4 [16]
0	0xbf0c251a	-0.5474411
1	0xbef7f412	-0.48428398
2	0xbeea2fbf	-0.45739552
3	0xbf0d9f7f	-0.55321497
4	0xbf198b05	-0.5997775
5	0xbef9befd	-0.48778525
6	0xbf06cbe2	-0.5265485
7	0xbec2d11e	-0.3805017
8	0xbefed5fd	-0.49772635
9	0xbf01e19f	-0.50734895
10	0xbf0f8879	-0.56067616
11	0xbf41f086	-0.75757635
12	0xbf1e49c6	-0.6183132
13	0xbf18216d	-0.59426004
14	0xbed7599e	-0.4206056
15	0xbf15bde9	-0.58492905

bn2.running_mean f4 [16]
0	0xbf0dee0e	-0.5544137
1	0xbf69d0a5	-0.9133399
2	0xbf8aa582	-1.0831759
3	0xbf3b019e	-0.7304934
4	0xbece6d8c	-0.40317953
5	0xbfc27c61	-1.5194207
6	0xbf55901f	-0.83423036
7	0xbfcc089f	-1.5940131
8	0x3ec0cb3c	0.37655056
9	0xbfb9c19f	-1.4512213
10	0xbfd56d53	-1.6673988
11	0xbfc2b7a0	-1.5212288
12	0x3df98da9	0.12185223
13	0x3f1c4914	0.6104901
14	0xbf8217ea	-1.0163548
15	0x3e5731bb	0.21015064

bn2.running_var f4 [16]
0	0x3fc08819	1.5041534
1	0x3ff2f767	1.8981751
2	0x3ff72be3	1.9310268
3	0x3f96dc1b	1.1785921
4	0x404aca5d	3.1686013
5	0x4017a75e	2.3695903
6	0x3fac865d	1.3478504
7	0x403852e6	2.8800597
8	0x3fac0942	1.3440325
9	0x406105fe	3.5159907
10	0x407bd580	3.934906
11	0x3fe46f88	1.7846537
12	0x40157a77	2.3355997
13	0x402a6b77	2.6628091
14	0x3fd5023b	1.6641306
15	0x3fda310f	1.7046221

fc1.weight f4 [120, 400]
0	0x3df48cd1	0.11940921
1	0x3d45fd51	0.048337284
2	0xbe163bff	-0.14671324
3	0xbf242356	-0.6411642
4	0xbdcb63ad	-0.09931121
5	0xbd7abeb6	-0.061217032
6	0xbe34d62f	-0.1765983
7	0xbe756df5	-0.23967727
8	0xbe008561	-0.1255088
9	0xbea38f2e	-0.31945175
10	0xbe4b84e9	-0.1987492
11	0xbd4e3d56	-0.050351463
12	0xbe7038b1	-0.23459126
13	0x3e2b270d	0.16714115
14	0xbea6f9fb	-0.32612595
15	0x3ced3aa5	0.028958628
16	0xbe0ec104	-0.13940817
17	0x3d04cc63	0.03242148
18	0x3e28675a	0.16445675
19	0xbea174a4	-0.31534302
20	0x3eb8af46	0.36071223
21	0xbe53ba11	-0.20676447
22	0xbd84c31f	-0.06482529
23	0xbe80a387	-0.2512476
24	0xbec7bd89	-0.3901179
25	0xbe7002cc	-0.23438567
26	0xbe89502a	-0.26818973
27	0x3e2b3d60	0.16722631
28	0xbe6514a3	-0.22371154
29	0xbeee1e15	-0.46507326
30	0x3d3352cd	0.043780137
31	0x3e888de3	0.2667075
32	0xbede9f99	-0.43481138
33	0xbc332258	-0.010933481
34	0xbdf23cef	-0.118280284
35	0xbe2af88a	-0.16696373
36	0xbdb58710	-0.08863652
37	0xbe33c956	-0.17557272
38	0xbe683d4b	-0.22679631
39	0x3d6c04ab	0.05762164
40	0xbd1c6902	-0.03818608
41	0xbdd4491f	-0.10365509
42	0x3e70bf35	0.2351044
43	0xbe64ddca	-0.22350231
44	0xbe19fc9c	-0.15037769
45	0xbd769e18	-0.060209364
46	0xbe3252f3	-0.17414455
47	0x3d24196e	0.040063314
48	0xbe9c2e4b	-0.3050407
49	0x3d78aa52	0.060709305
50	0x3e5c36d0	0.21505284
51	0x3e0ad135	0.13556369
52	0xbe05e2d4	-0.1307481
53	0x3e41105d	0.18853898
54	0xbe02fe67	-0.1279236
55	0x3e451697	0.19246899
56	0x3ecd0e12	0.40049797
57	0x3e375d0f	0.17906593
58	0xbe5101e1	-0.20410873
59	0x3deba9c1	0.11506987
60	0x3e0c05d0	0.13674092
61	0x3ddf62a9	0.1090749
62	0x3dc3dc95	0.09563557
63	0xbde47791	-0.11155618
64	0x3eae0f2c	0.3399595
65	0xbed7cffd	-0.4215087
66	0xbc33b5b9	-0.010968619
67	0xbccadd88	-0.024763837
68	0xbe3ba570	-0.18324828
69	0x3eac2073	0.33618507
70	0x3e11b9c4	0.1423102
71	0x3b7bea01	0.0038439038
72	0x3b512be2	0.0031917025
73	0xbe7fa2d1	-0.24964453
74	0x3cf1781c	0.029476218
75	0xbe2024bb	-0.15639012
76	0x3ea69f83	0.32543573
77	0xbedf0027	-0.43554804
78	0xbe891229	-0.26771668
79	0xbe82616e	-0.25464958
80	0xbe80b6c3	-0.25139436
81	0xbdeaca42	-0.11464359
82	0xbec3dde8	-0.3825524
83	0xbeb48378	-0.35256553
84	0xbe8b5f53	-0.27221164
85	0xbc5634e9	-0.013074138
86	0xbe4ab9d9	-0.19797458
87	0xbed43fe5	-0.41454998
88	0xbea9f544	-0.33194935
89	0xbe121b9e	-0.14268348
90	0x3e6ae5ca	0.2293922
91	0xbdee79b6	-0.11644308
92	0xbee01631	-0.4376693
93	0xbebb3f0a	-0.36571532
94	0xbccc6a39	-0.024952995
95	0x3db10aa9	0.086446114
96	0x3d3e517a	0.04646442
97	0x3eae6ca5	0.34067264
98	0xbdce36e3	-0.100690626
99	0xbd47bffc	-0.048767075
100	0xbdd9bb28	-0.106314
101	0x3ef5a0db	0.47974285
102	0x3ddb0ad3	0.10695424
103	0xbed0365b	-0.4066647
104	0x3e6485e9	0.22316708
105	0xbe4c2915	-0.19937547
106	0xbcf29221	-0.029610695
107	0x3e3dba37	0.18528067
108	0xbdd7a7c1	-0.105300434
109	0xbd82ad63	-0.06380727
110	0x3e4c7924	0.19968086
111	0xbec23369	-0.37929848
112	0xbe91f663	-0.2850829
113	0x3e1da1c2	0.15393737
114	0x3d3587fa	0.04431913
115	0x3ea981de	0.33106893
116	0xbeb3df7c	-0.35131443
117	0xbe0482e9	-0.12940563
118	0x3f3c1b2e	0.7347897
119	0xbe633743	-0.2218905
120	0x3e19ba5a	0.15012494
121	0x3ce9bbc0	0.028531909
122	0xbea5ba1d	-0.32368556
123	0x3e7602fe	0.24024579
124	0xbe0c5611	-0.13704707
125	0xbe0dfa4c	-0.13865012
126	0xbef7a4cc	-0.48367918
127	0xbec6eea7	-0.38853952
128	0xbe17a142	-0.14807609
129	0x3e0f9fe2	0.14025834
130	0x3c177eec	0.009246569
131	0xbdb8df1d	-0.090269305
132	0xbe88acea	-0.26694423
133	0xbf1789e2	-0.5919477
134	0x3e916fb4	0.28405535
135	0xbe9e1ea5	-0.30882755
136	0x3c895435	0.016763786
137	0xbd9796e9	-0.07401831
138	0x3e1219bb	0.14267628
139	0x3e9e3c31	0.30905297
140	0xbea202f1	-0.3164287
141	0xbe1ea055	-0.1549085
142	0x3e3954d0	0.1809876
143	0xbdc8d190	-0.09805596
144	0xbed2483c	-0.41070735
145	0x3c08ccb5	0.008349587
146	0x3e0e3e02	0.13890842
147	0x3ba6b89d	0.0050879256
148	0xbe6b410e	-0.22974035
149	0xbf10ee22	-0.5661336
150	0x3e36a949	0.17838015
151	0x3cb1ac28	0.021688536
152	0x3e656f40	0.2240572
153	0xbf12214f	-0.57082075
154	0xbdd187d8	-0.10230988
155	0xbf1881b9	-0.5957294
156	0xbe3e067c	-0.18557161
157	0x3e7b104d	0.24517937
158	0xbe3377c7	-0.1752616
159	0xbe3d0642	-0.18459418
160	0x3e42c958	0.19022119
161	0xbdb9331a	-0.0904295
162	0xbe834ea6	-0.25645941
163	0x3d15290d	0.036416102
164	0xbd2f2153	-0.04275639
165	0x3b59d685	0.0033239436
166	0xbd82fe65	-0.06396178
167	0x3e700835	0.2344063
168	0x3df97a67	0.121815495
169	0x3e6d4613	0.23171262
170	0xbd31d334	-0.04341431
171	0xbd256ef8	-0.04038903
172	0x3e4f0a9d	0.20218892
173	0x3e46974d	0.19393654
174	0x3c36305e	0.01111993
175	0xbd9af25f	-0.0756576
176	0xbe7284a2	-0.23683408
177	0x3c25818b	0.010101686
178	0x3cec7d9e	0.028868493
179	0xbf235f5e	-0.63817394
180	0xbeafa9b2	-0.34309155
181	0xbeb7507d	-0.35803595
182	0xbe9af44b	-0.30264506
183	0xbd2077f5	-0.0391769
184	0xbec8ff72	-0.3925739
185	0xbdd88ee7	-0.105741315
186	0xbdd26983	-0.10274031
187	0xbe16cd9e	-0.14726874
188	0x3d0331d9	0.03202996
189	0xbe6a10b6	-0.22857937
190	0xbd15eb74	-0.0366015
191	0xbde13118	-0.10995692
192	0xbe8d66b9	-0.27617434
193	0xbc15657d	-0.009118435
194	0xbe287f79	-0.16454877
195	0x3eaeff1c	0.34179008
196	0x3dfa3e8c	0.12218961
197	0xbd2c96e4	-0.042136088
198	0xbe72da12	-0.23716
199	0x3df136df	0.11778044
200	0xbd89470e	-0.06703006
201	0x3e0fee57	0.14055763
202	0x3dbd77ed	0.0925139
203	0xbd55e77d	-0.052222718
204	0xbf03e05c	-0.5151422
205	0x3e720e3b	0.23638241
206	0x3c77b371	0.015118466
207	0x3e83e26b	0.2575868
208	0xbe592083	-0.21203808
209	0xbf088b77	-0.53337806
210	0x3db7baec	0.089711994
211	0xbd7da002	-0.061920173
212	0xbc59eae2	-0.013300629
213	0x3ea9fa1d	0.33198634
214	0xbe1a74fc	-0.15083688
215	0xbe284cbd	-0.16435523
216	0x3e97ab22	0.2962275
217	0x3e17a853	0.14810304
218	0x3e91af4c	0.28454053
219	0x3e16b83d	0.14718719
220	0x3e78ea96	0.24308237
221	0xbe1b6e35	-0.1517876
222	0xbd580523	-0.052739274
223	0x3d1659b7	0.036706652
224	0xbd5fd583	-0.05464698
225	0x3ebd704d	0.3699974
226	0x3dadc35c	0.084845275
227	0x3bf9930b	0.007616406
228	0x3e59da9d	0.212748
229	0xbe0a70ae	-0.13519546
230	0xbe3b64b5	-0.18300135
231	0x3e891520	0.2677393
232	0xbed2d63e	-0.4117908
233	0xbf0d3041	-0.55151755
234	0xbf034ff9	-0.51293904
235	0xbde9c521	-0.114145525
236	0x3d0523f1	0.03250498
237	0xbbc7631a	-0.006084812
238	0xbc8aad48	-0.01692833
239	0xbe5c80be	-0.21533486
240	0xbea3cd5d	-0.31992617
241	0x3e8cbfc2	0.2749005
242	0xbda3df06	-0.08001523
243	0x3e9f0d9e	0.31065077
244	0xbdc8d08a	-0.09805401
245	0xbdd5d252	-0.10440506
246	0xbaa32c93	-0.0012449197
247	0xbe20ae79	-0.15691556
248	0xbeb4a7f5	-0.3528439
249	0x3d07c72c	0.03314893
250	0xbf414630	-0.7549772
251	0xbe4880e5	-0.1958042
252	0xbd5d9471	-0.054096643
253	0xbf174634	-0.59091496
254	0xbe402e00	-0.18767548
255	0x3ccc5d8f	0.024946956

fc1.bias f4 [120]
0	0xbe3c8e53	-0.18413667
1	0xbc208597	-0.009797475
2	0x3d998019	0.07495136
3	0xbd699b37	-0.05703279
4	0xbd219c53	-0.039455723
5	0xbd6fa1cd	-0.058503915
6	0x3def219c	0.11676332
7	0xbc88f515	-0.016718427
8	0x3e3df203	0.18549351
9	0xbdb66efa	-0.08907886
10	0x3e56efe6	0.20989951
11	0x3c8e0397	0.017335696
12	0x3dbc0559	0.091807075
13	0x3e72f93c	0.23727888
14	0xbc8a6ea6	-0.016898464
15	0x3c2b10bc	0.0104410015
16	0x3ccbb52a	0.02486666
17	0x3cdcb40d	0.026941324
18	0x3d77347a	0.06035278
19	0xbdbef90b	-0.09324845
20	0xbd81bcec	-0.06334862
21	0xbde93ef2	-0.11388959
22	0xbd155d3c	-0.03646587
23	0x3d24e4f0	0.040257394
24	0xbd5c8739	-0.053839896
25	0xbce2349e	-0.02761298
26	0x3e45972e	0.19295952
27	0x3d7a60cb	0.061127465
28	0x3a5c8c2e	0.00084132224
29	0x3db70f91	0.08938516
30	0xbe0a5ec1	-0.13512708
31	0x3d9f4a11	0.07777799
32	0xbd121537	-0.035664763
33	0xbd307b66	-0.043086432
34	0x3cfaaadc	0.03059905
35	0xba31ad67	-0.0006777853
36	0xbaf5cf19	-0.0018753737
37	0x3c4c2fa9	0.012462535
38	0x3e0b5e0e	0.13610098
39	0xbdac314e	-0.084078416
40	0x3e22d58c	0.15901774
41	0xbd88f0d5	-0.0668656
42	0x3deca479	0.11554808
43	0x3db2db94	0.087332875
44	0xbd13ce5b	-0.036085468
45	0x3db8581a	0.09001179
46	0x3e1020e8	0.14075053
47	0x3d175f69	0.036956225
48	0xbd041546	-0.03224685
49	0xbd753b62	-0.059871085
50	0xbd6daada	-0.058024265
51	0xbd5a93c1	-0.053363565
52	0xbc42e8a8	-0.01189629
53	0x3e65c488	0.22438252
54	0xbe4a4a5e	-0.19754931
55	0xbd65f1a7	-0.05613866
56	0xbc3ae16b	-0.011406283
57	0x3d169964	0.03676738
58	0x3e62b74a	0.22140232
59	0x3dcc399b	0.09971925
60	0x3e04e842	0.12979224
61	0xbe0a65bd	-0.13515373
62	0x3dfc6374	0.12323657
63	0x3d833223	0.06406047
64	0xbd3d7eb1	-0.0462634
65	0xbcf9050e	-0.030397918
66	0xbd4d4036	-0.050110064
67	0x3dbaf191	0.091281064
68	0x3ded1603	0.11576464
69	0x3d4d4953	0.050118756
70	0xbdb87111	-0.09005941
71	0x3e418782	0.18899348
72	0x3c0a8922	0.008455547
73	0xbe6370ef	-0.2221105
74	0xbbdec6ad	-0.0067985863
75	0xbdcb5c71	-0.09929741
76	0xbe1f429e	-0.15552756
77	0xbc81a0e4	-0.015823789
78	0x3d2fc1d8	0.042909473
79	0xbc83c105	-0.01608325
80	0x3cb8d8f0	0.022564381
81	0x3e34ee97	0.1766914
82	0xbd738735	-0.059455115
83	0x3d88f037	0.06686442
84	0xbd33bf23	-0.043883454
85	0xbce4590f	-0.027874498
86	0x3c3c1f06	0.011482006
87	0x3d4f8d61	0.05067194
88	0x3e31c7f6	0.17361435
89	0xbc854881	-0.016269924
90	0xbda55981	-0.08073712
91	0x3ce2037e	0.027589556
92	0x3d3ea659	0.04654536
93	0xbcc6efd5	-0.024284283
94	0xbda3c626	-0.07996778
95	0xbd163e0f	-0.036680277
96	0x3e1ca0bc	0.1529569
97	0xbe5e0476	-0.21681389
98	0x3e237024	0.15960747
99	0xbd01497b	-0.031564217
100	0x3e02b029	0.12762512
101	0xbb8dfdde	-0.004333242
102	0x3b08492a	0.0020795562
103	0x3d8edb92	0.069754735
104	0x3de1ed82	0.11031629
105	0xbd2bdaa3	-0.041956555
106	0x3d7d52bf	0.06184649
107	0x3c565488	0.013081677
108	0x3d9d8a15	0.07692353
109	0xbbb2b3bb	-0.0054535544
110	0xbd9241dc	-0.07141468
111	0xbc6b50b6	-0.014362505
112	0x3cfed6e7	0.031108333
113	0x3d8bb7c1	0.06822158
114	0x3e5a2e51	0.21306731
115	0x3e48b21d	0.19599195
116	0x3d26e541	0.040745977
117	0xbda98649	-0.08277566
118	0xbcd0c12e	-0.02548274
119	0x3d23b849	0.03997067

fc2.weight f4 [84, 120]
0	0xbeacd63e	-0.33757204
1	0x3a34e007	0.0006899838
2	0xbe8a96a7	-0.27068064
3	0xbd9454c1	-0.07242728
4	0xbb0f39ce	-0.0021854523
5	0xbc7811f8	-0.015141003
6	0x3d90c21e	0.07068275
7	0x3e045ed5	0.129268
8	0xbedf59ce	-0.43623203
9	0x3dd9e383	0.106390975
10	0xbe51e484	-0.20497328
11	0x3d211b6d	0.039332796
12	0x3d7ad1a8	0.0612351
13	0xbe377baa	-0.17918268
14	0x3de955c9	0.11393315
15	0x3e306a48	0.17228043
16	0x3d805bcb	0.06267508
17	0x3d8a3626	0.06748609
18	0x3d18b879	0.0372853
19	0x3d66d0ef	0.0563516
20	0x3ce04b4d	0.027379656
21	0x3ea29e4b	0.31761393
22	0xbd5763b7	-0.05258533
23	0xbec8eacf	-0.39241645
24	0x3ee75a7c	0.45186222
25	0xbd10d801	-0.035362247
26	0xbb392bba	-0.0028254823
27	0xbf130a88	-0.57437944
28	0xbca8e0bb	-0.020614972
29	0xbd238b65	-0.03992786
30	0xbe21a338	-0.1578492
31	0x3e806ff1	0.25085405
32	0xbda0787c	-0.078354806
33	0x3d5b2c11	0.053508822
34	0x3d311816	0.04323586
35	0xbdf19b4c	-0.11797199
36	0x3d3b9262	0.0457939
37	0x3d4422a2	0.04788459
38	0xbe763546	-0.2404376
39	0x3e9f2da8	0.3108952
40	0xbdf44af4	-0.11928359
41	0x3dd9fc83	0.10643866
42	0xbda4d9f6	-0.08049385
43	0x3e870cb4	0.2637688
44	0x3b6dddc8	0.0036295522
45	0x3eb71aae	0.35762542
46	0xbd486b10	-0.048930228
47	0xbc2868be	-0.010278879
48	0xbef1311c	-0.4710778
49	0x3e61a221	0.22034504
50	0x3d81fbf0	0.063468814
51	0x3e580432	0.2109535
52	0xbc234d10	-0.009967104
53	0xbbc99575	-0.00615185
54	0x3e4f52fd	0.20246501
55	0x3c6dcaf2	0.014513718
56	0x3d273971	0.040826265
57	0xbd9639f0	-0.073352695
58	0x3e94894e	0.29011005
59	0x3ea7b2dc	0.32753646
60	0xbf01ee99	-0.50754696
61	0xbdae3c85	-0.08507637
62	0x3d742407	0.05960467
63	0xbd137e5f	-0.03600919
64	0xbe22dbf0	-0.15904212
65	0x3c3a8c01	0.011385919
66	0x3db9e07b	0.090760194
67	0x3d13c563	0.036076915
68	0x3e5aa9d3	0.21353845
69	0x3c5b791d	0.013395575
70	0x3d288bde	0.041149013
71	0xbe0e1d28	-0.1387831
72	0x3e5d030f	0.21583198
73	0xbe10017b	-0.14063065
74	0x3e283754	0.16427356
75	0xbd0e6c26	-0.034771107
76	0xbe928203	-0.28614816
77	0xbe05bd08	-0.13060391
78	0xbda34a13	-0.07973113
79	0x3c936700	0.01799345
80	0xbd9816c9	-0.07426221
81	0xbddc4d02	-0.107568756
82	0xbe0624fc	-0.13100046
83	0x3e2e2c53	0.17009096
84	0xbd5208e0	-0.051277995
85	0xbd612dc3	-0.054975282
86	0xbd70aead	-0.058760334
87	0xbca3276f	-0.019916264
88	0xbc3c4ee3	-0.011493417
89	0xbedebea6	-0.43504828
90	0x3d85ffee	0.06542955
91	0x3da3806f	0.07983481
92	0xbe24d266	-0.16095886
93	0xbdda3006	-0.10653691
94	0xbd9fdc51	-0.07805694
95	0x3ea3ba1e	0.31977934
96	0xbe96a5e1	-0.2942343
97	0x3f179aca	0.59220564
98	0xbde03258	-0.10947102
99	0x3d7f297c	0.062295422
100	0x3ddd24a0	0.10798001
101	0xbd38bbe2	-0.045101054
102	0xbe35d856	-0.17758307
103	0xbe480d6f	-0.19536375
104	0xbe984764	-0.29741967
105	0xbe24ea7d	-0.16105075
106	0x3ebd6b05	0.36995712
107	0xbcf13240	-0.029442906
108	0xbed26f6b	-0.4110063
109	0xba9a16eb	-0.0011756098
110	0xbdd30906	-0.103044555
111	0xbe7c29b9	-0.24625291
112	0x3df5f2ab	0.12009176
113	0xbe305908	-0.17221463
114	0x3d3be893	0.045876097
115	0xbe88f510	-0.26749468
116	0x3ee37729	0.4442685
117	0xbdc2bd8d	-0.0950881
118	0x3e19c4eb	0.15016524
119	0x3e3a2340	0.1817751
120	0x3e04e1fd	0.12976833
121	0xbf1d03e9	-0.6133409
122	0xbea55dcc	-0.32298124
123	0xbbee37d5	-0.0072698393
124	0xbe58b761	-0.21163704
125	0x3e9f7bc0	0.311491
126	0x3d995998	0.07487792
127	0x3edc8483	0.43069848
128	0x3ea57d40	0.3232212
129	0x3e6d2923	0.23160224
130	0xbe90307f	-0.28162
131	0x3d297103	0.041367542
132	0x3d845ec3	0.06463387
133	0xbe5a8d80	-0.2134304
134	0xbd6b2012	-0.05740363
135	0xbed88466	-0.42288512
136	0xbcd4a47c	-0.025957339
137	0x3e576a46	0.21036634
138	0x3e0e3800	0.1388855
139	0x3acbdefd	0.0015554127
140	0x3c1aa927	0.009439743
141	0x3d400f4b	0.046889585
142	0x3d82e813	0.06391921
143	0x3e083d25	0.13304575
144	0x3e1f0381	0.1552868
145	0xbe05f11f	-0.13080262
146	0xbe814c7b	-0.25253662
147	0x3e5b132f	0.21394037
148	0xbd5a7016	-0.05332955
149	0x3e66e1ea	0.22547117
150	0x3d9ddaa6	0.077077195
151	0xbea9ed87	-0.3318903
152	0x3dc7a7e4	0.097488195
153	0xbf3e45c1	-0.74325186
154	0xbda853ac	-0.08219084
155	0xbd8926f3	-0.06696882
156	0xbda260ea	-0.07928641
157	0x3da67f78	0.081297815
158	0xbe816c79	-0.2527807
159	0xbd8e915b	-0.06961318
160	0xbedef986	-0.43549746
161	0xbd0cbe99	-0.034361456
162	0x3dfe9551	0.124308236
163	0x3e543601	0.20723726
164	0x3da2e92c	0.0795463
165	0xbeced62e	-0.4039778
166	0xbd9cfa2a	-0.076649025
167	0xbe156dd0	-0.14592671
168	0xbe025157	-0.12726341
169	0xbe72e01a	-0.237183
170	0xbd4ea7c9	-0.05045298
171	0x3d45fafc	0.04833506
172	0x3c221a01	0.009893895
173	0xbde7ce16	-0.11318605
174	0xbd3ea475	-0.046543557
175	0xbe716a8f	-0.23575805
176	0x3e80d370	0.25161314
177	0x3c89807b	0.016784897
178	0xbe91a84a	-0.28448707
179	0x3e096814	0.13418609
180	0x3ecef819	0.40423658
181	0x3df776b1	0.120831855
182	0xbed85033	-0.42248687
183	0xbd5ecf2a	-0.054396786
184	0x3ea2c1f6	0.31788605
185	0x3d8302cf	0.0639702
186	0x3cba0ba8	0.022710636
187	0x3dd61e31	0.10454977
188	0xbdc72ddb	-0.09725543
189	0xbdda3a30	-0.1065563
190	0x3d3c92ed	0.046038557
191	0x3e6fde69	0.23424686
192	0xbf416b73	-0.7555458
193	0x3e3662e9	0.17811169
194	0x3d63eb35	0.055644233
195	0xbd2050e1	-0.039139632
196	0x3d2d07a8	0.04224363
197	0x3f111822	0.5667745
198	0x3b67e46a	0.0035383948
199	0x3d926038	0.071472585
200	0x3da69557	0.08133953
201	0xbe64a9e9	-0.2233044
202	0x3d1d5ae5	0.038416762
203	0xbe8ddfbf	-0.27709767
204	0x3d303967	0.043023493
205	0xbd5b450d	-0.05353265
206	0x3d78a24a	0.060701646
207	0x3e850c85	0.25986114
208	0x3e810981	0.25202563
209	0x3d533eca	0.051573552
210	0x3d9ce86c	0.076615185
211	0xbe80924a	-0.2511161
212	0xbd2b2989	-0.041787658
213	0xbd78163b	-0.060568076
214	0x3ce7b2fe	0.028283592
215	0xbf1172b2	-0.56815636
216	0xbdc521b4	-0.09625569
217	0x3e2fab78	0.17155254
218	0xbe9cd406	-0.3063051
219	0xbdeafd85	-0.11474136
220	0x3da54112	0.08069052
221	0x3e0a94d1	0.13533331
222	0x3e3da86f	0.18521284
223	0xbeae8289	-0.34083965
224	0x3de08db7	0.1096453
225	0x3e84e90d	0.25959054
226	0x3da12e29	0.078701325
227	0xbd69d454	-0.057087258
228	0x3d91856e	0.07105528
229	0x3cd71b6a	0.02625819
230	0xbd041943	-0.032250654
231	0x3dc649b1	0.09682024
232	0x3e72c29f	0.23707055
233	0xbe33cebb	-0.1755933
234	0x3daf3f59	0.085570045
235	0x3e1630fc	0.14667124
236	0xbe08f37e	-0.13374135
237	0xbe7256f3	-0.23665981
238	0xbd2f2127	-0.042756226
239	0xbe00499f	-0.12528084
240	0x3c3633d7	0.011120758
241	0xbd5586da	-0.052130558
242	0x3b7a08dd	0.0038152256
243	0xbd9a2206	-0.07526021
244	0xbd3bcef2	-0.045851655
245	0x3beddb1e	0.007258787
246	0xbd8de88e	-0.06929122
247	0xbd0c1224	-0.034196988
248	0xbd62dfc9	-0.0553892
249	0xbc83690d	-0.016041303
250	0xbdbfa96e	-0.09358488
251	0x3d611676	0.05495306
252	0xbd1d4bd6	-0.0384024
253	0xbe2af902	-0.16696551
254	0xbda22955	-0.0791804
255	0xbd4748a0	-0.048653245

fc2.bias f4 [84]
0	0xbd3aad77	-0.045575585
1	0xbe9d4d42	-0.30723006
2	0xbe05b46f	-0.13057111
3	0xbd9d2252	-0.07672562
4	0x3e07f697	0.1327766
5	0x3eb48767	0.35259554
6	0x3e3b63dc	0.18299812
7	0xbe0fb42b	-0.14033572
8	0x3ef41c28	0.47677732
9	0x3ca07e55	0.01959149
10	0x3e996aa1	0.29964164
11	0xbce4c295	-0.027924815
12	0x3e53a537	0.20668493
13	0x3df347f5	0.11878959
14	0x3e037070	0.1283586
15	0x3d9a5ae4	0.07536867
16	0x3e02c8ec	0.12771958
17	0x3e28255a	0.16420498
18	0x3d43cc36	0.047802173
19	0x3ea2d2ad	0.31801358
20	0xbe824734	-0.2544495
21	0x3ba081ab	0.00489827
22	0xbe282380	-0.16419792
23	0x3e1133de	0.14179942
24	0x3e1cbb0c	0.15305728
25	0xbbafa750	-0.0053605214
26	0xbd5e33bf	-0.054248568
27	0x3e082d45	0.13298519
28	0x3e403abf	0.1877241
29	0xbe783bf4	-0.2424162
30	0x3aff0f22	0.0019459466
31	0xbe2bbca8	-0.16771185
32	0x3e1c2581	0.15248682
33	0xbe6f6f61	-0.23382331
34	0xbe1a77a1	-0.15084697
35	0xbb6dc85c	-0.0036282754
36	0xbe751ae9	-0.23936047
37	0x3e53721f	0.20649002
38	0x3e58dfa1	0.21179058
39	0x3df056f2	0.117353335
40	0x3e634025	0.22192438
41	0x3e0d06b2	0.13772085
42	0xbe3d4774	-0.18484288
43	0xbe49766a	-0.19674078
44	0xbe03a57f	-0.128561
45	0xbe561b47	-0.20908843
46	0x3e21d886	0.15805253
47	0xbd718913	-0.058968615
48	0x3ec6feb3	0.38866195
49	0xbdea2426	-0.11432676
50	0x3e27e99e	0.16397712
51	0xbd059db8	-0.032621115
52	0x3d25ec0a	0.040508308
53	0xbe033067	-0.12811433
54	0x3ea2adbb	0.3177317
55	0xbcad3620	-0.021143973
56	0x3e25acd4	0.1617921
57	0x3e0c2236	0.13684925
58	0xbd9db9ed	-0.07701478
59	0xbd2e2a4e	-0.042520814
60	0x3d5a2c8a	0.053265132
61	0x3e16dcd2	0.14732674
62	0xbdd5437b	-0.104132615
63	0xbe39975f	-0.1812415
64	0x3ce97401	0.028497698
65	0xbeaba7f4	-0.33526576
66	0x3e11402c	0.14184636
67	0x3dcd75b4	0.10032216
68	0xbe69b223	-0.2282186
69	0xbe4c13d2	-0.19929436
70	0x3e4e998a	0.20175758
71	0x3ce31d7d	0.027724022
72	0xbe6c2c04	-0.23063666
73	0x3e1ea47c	0.15492433
74	0x3e0d1570	0.13777709
75	0x3e90dd24	0.28293717
76	0xbba818ac	-0.0051298942
77	0x3da92c35	0.08260385
78	0x3ddbef28	0.10738975
79	0x3e189078	0.1489886
80	0xbdae61ec	-0.08514771
81	0x3e3a34c1	0.18184187
82	0xbca1b842	-0.019741181
83	0xbe196dbc	-0.14983267

fc3.weight f4 [10, 84]
0	0x3e270295	0.16309579
1	0x39169574	0.0001436079
2	0xbe0b908a	-0.13629356
3	0x3dd6e576	0.10492985
4	0xbe258eef	-0.16167806
5	0xbf359649	-0.7093244
6	0xbe7c4237	-0.24634634
7	0xbee938f7	-0.45551273
8	0xbe5fed0d	-0.21867771
9	0x3df8e75a	0.12153502
10	0xbe00d58b	-0.1258146
11	0x3e16388c	0.14670008
12	0xbd4d1801	-0.05007172
13	0xbe31b08f	-0.17352508
14	0x3e270cba	0.16313449
15	0xbed304d8	-0.41214633
16	0xbe9965b8	-0.29960418
17	0xbe9fb79b	-0.31194767
18	0xbe9e6491	-0.309361
19	0xbe68c58b	-0.22731607
20	0xbeaaa9ba	-0.33332616
21	0x3e9e9910	0.30976152
22	0xbdba57f1	-0.09098805
23	0x3dc50e27	0.0962184
24	0x3d59f060	0.053207755
25	0x3e8e4074	0.2778355
26	0x3e229fe9	0.15881313
27	0x3e175fbd	0.14782615
28	0xbf00d95b	-0.5033166
29	0x3d99b474	0.07505122
30	0x3d82738f	0.06369697
31	0xbda79203	-0.081821464
32	0xbeb89560	-0.36051464
33	0x3d3ac4eb	0.04559795
34	0x3c2cdf93	0.010551351
35	0x3d7cea41	0.06174684
36	0xbec6100b	-0.38684115
37	0x3e24fbd8	0.16111696
38	0xbdc7e713	-0.09760871
39	0x3e66a5e5	0.22524221
40	0xbd83a7bd	-0.06428478
41	0xbe919710	-0.28435564
42	0xbf75317f	-0.9577865
43	0xbe2e9bad	-0.17051573
44	0x3dd94570	0.10608947
45	0x3d1012a6	0.035174035
46	0xbf215518	-0.6302047
47	0x3e51c806	0.20486459
48	0xbee7ec06	-0.4529726
49	0x3dba71fe	0.091037735
50	0x3db70d5c	0.08938095
51	0xbe2c45e7	-0.1682354
52	0x3dc4bb54	0.096060425
53	0xbd113bd1	-0.035457436
54	0xbebe92d7	-0.37221405
55	0x3eda2c6f	0.42612025
56	0x3d1719eb	0.03688995
57	0xbf50a634	-0.81503606
58	0x3d2f0376	0.04272791
59	0x3dea5725	0.11442403
60	0x3e3066e3	0.17226748
61	0x3e3a4ab1	0.18192555
62	0x3e24cd44	0.16093928
63	0xbe0273d0	-0.12739491
64	0xbec2c9c1	-0.3804455
65	0xbe0b8faa	-0.13629022
66	0x3e68d044	0.22735697
67	0x3e69792f	0.22800134
68	0x3d7814c0	0.060566664
69	0xbd5c580d	-0.05379491
70	0xbe688954	-0.22708637
71	0xbd5d6d2c	-0.054059193
72	0xbd5028a0	-0.050819993
73	0xbf11668a	-0.5679709
74	0xbe8fb1fb	-0.28065476
75	0x3bb1de96	0.0054281456
76	0xbe0dda03	-0.13852696
77	0xbed75cb8	-0.42062926
78	0xbec85a2d	-0.391313
79	0xbea6ef73	-0.3260456
80	0x3e30b208	0.17255414
81	0xbd59dca4	-0.053188935
82	0xbd084ed1	-0.03327829
83	0xbf9687b8	-1.1760168
84	0xbf55a66d	-0.8345707
85	0x3eb3ea4f	0.351397
86	0xbe16895e	-0.14700839
87	0x3e7a457e	0.24440572
88	0xbe47dd06	-0.19517908
89	0x3cdbcb74	0.026830412
90	0x3e78ac9c	0.24284595
91	0x3ee28f9d	0.44250193
92	0xbe6d4671	-0.23171403
93	0xbeef9021	-0.4678965
94	0xbf259472	-0.64679635
95	0x3d3068c3	0.04306866
96	0xbe455a1e	-0.19272658
97	0xbea24501	-0.3169327
98	0xbbe52f18	-0.0069941394
99	0x3dca07c3	0.09864762
100	0xbeec4cfb	-0.4615248
101	0x3e350dff	0.1768112
102	0xbf3df786	-0.74205816
103	0xbf0738bb	-0.5282094
104	0xbec0092a	-0.37506992
105	0xbd8571f0	-0.065158725
106	0x3e57798b	0.21042459
107	0x3e311505	0.17293175
108	0xbe760f79	-0.2402934
109	0x3e3c87fe	0.18411252
110	0x3ecb764d	0.39738694
111	0x3db9668a	0.09052761
112	0xbe92bb42	-0.2865849
113	0xbea2d0bd	-0.3179988
114	0x3f0e09a9	0.5548349
115	0xbe698bc9	-0.2280723
116	0x3e238d86	0.15971956
117	0xbeacd64b	-0.33757243
118	0xbf204d82	-0.6261827
119	0xbebc4885	-0.36774078
120	0xbf509aca	-0.8148619
121	0xbe24f295	-0.16108163
122	0x3d913b3a	0.07091375
123	0xbedef6b8	-0.43547606
124	0xbee51ead	-0.44749966
125	0xbf051e89	-0.5199972
126	0xbe55aaf4	-0.20865995
127	0x3cb4a894	0.02205304
128	0x3d3b907d	0.04579209
129	0xbdfa4ce3	-0.12221696
130	0xbf109a01	-0.5648499
131	0x3deb31af	0.11484086
132	0xbc2ded21	-0.010615618
133	0xbf27b6c3	-0.6551325
134	0x3e4b4761	0.19851448
135	0xbd1c4a0b	-0.03815655
136	0xbf23f5c2	-0.6404687
137	0x3d18c18a	0.03729395
138	0x3e2e8f8f	0.17046951
139	0x3da29f71	0.07940567
140	0xbf130c3f	-0.5744056
141	0x3eeb0d40	0.45908546
142	0xbd0df3a5	-0.034656186
143	0xbe05d449	-0.13069262
144	0xbfaf3134	-1.3686891
145	0x3e85d151	0.26136258
146	0xbf111514	-0.5667279
147	0x3e8ec23a	0.27882558
148	0x3edf23d3	0.4358202
149	0xbe274c7a	-0.16337767
150	0xbebf6fc5	-0.3738996
151	0xbf13148e	-0.5745324
152	0x3e4c0765	0.19924696
153	0xbe920a15	-0.28523317
154	0xbe5a89de	-0.21341655
155	0x3e43c387	0.19117557
156	0xbe287017	-0.16449009
157	0x3d31c082	0.04339648
158	0xbec73eae	-0.38915008
159	0xbe296446	-0.16542158
160	0xbf5796b1	-0.8421431
161	0xbe7c01cd	-0.24610062
162	0xbe6ec196	-0.23316035
163	0x3e2e615f	0.17029332
164	0xbda2ae04	-0.07943347
165	0xbf162605	-0.58651763
166	0xbe2507b8	-0.16116226
167	0xbf42f438	-0.761539
168	0xbdc13125	-0.09433202
169	0xbe9b3145	-0.30311027
170	0xbd0e10cb	-0.034683984
171	0x3d26d390	0.040729105
172	0x3dd7b533	0.10532608
173	0x3e40c89f	0.18826531
174	0xbd5d7f20	-0.054076314
175	0xbe2a9d29	-0.16661514
176	0xbf02c8c8	-0.5108762
177	0xbf21433e	-0.6299323
178	0x3e155bdd	0.14585824
179	0xbdd14faa	-0.10220273
180	0x3e16948d	0.14705105
181	0x3c52a4f3	0.01285671
182	0xbce39cbe	-0.027784701
183	0xbe0f1316	-0.13972124
184	0x3d7ba915	0.061440546
185	0xbeb9232e	-0.36159652
186	0xbe4e0dea	-0.20122495
187	0x3e0c7720	0.13717318
188	0xbeab688f	-0.3347821
189	0x3e009b2b	0.12559192
190	0xbd14d497	-0.036335554
191	0x3e100f43	0.14068322
192	0xbf05eb93	-0.5231258
193	0xbe92a94b	-0.28644785
194	0xbec26b60	-0.37972546
195	0xbef4b9ff	-0.47798154
196	0xbd1c21a3	-0.038118016
197	0xbef50519	-0.47855452
198	0xbec6d233	-0.38832244
199	0xbd59854a	-0.05310563
200	0xbe9325e4	-0.28739846
201	0xbed722c8	-0.42018723
202	0xbcc118f0	-0.023571461
203	0xbc0f74b5	-0.0087558525
204	0xbed78d9e	-0.42100233
205	0xbdc93c6e	-0.09825979
206	0xbef5139b	-0.4786652
207	0x3e9b7daa	0.30369312
208	0xbe9b3c70	-0.30319548
209	0xbd9c927c	-0.07645127
210	0xbd42a8bc	-0.0475242
211	0xbda1ebaa	-0.079062775
212	0xbf14dfba	-0.5815388
213	0xbbb04f02	-0.005380512
214	0xbf4dc1e8	-0.80374
215	0x3c2bd416	0.010487577
216	0x3ddea0a3	0.10870483
217	0xbcfd957c	-0.030955069
218	0xbe71b32c	-0.23603505
219	0xbeef72e9	-0.46767357
220	0xbe14bfcb	-0.14526288
221	0xbcb202b2	-0.0217298
222	0xbf1362c6	-0.5757259
223	0xbe95cbff	-0.292572
224	0x3b68cac0	0.003552124
225	0x3e518312	0.20460156
226	0xbe189fbc	-0.14904684
227	0xbdf25a07	-0.118335776
228	0x3e0225e4	0.12709767
229	0x3e3fbb3d	0.1872377
230	0x3e5303da	0.20606938
231	0x3def4af0	0.11684215
232	0xbe607318	-0.21918905
233	0xbe69d35e	-0.22834536
234	0xbe61dab6	-0.22056088
235	0xbdf05501	-0.11734963
236	0xbf1f7e36	-0.6230196
237	0xbcb47d89	-0.022032516
238	0x3caf808f	0.021423606
239	0x3c8144bb	0.015779844
240	0xbe2b9324	-0.16755348
241	0x3ea09690	0.3136487
242	0x3d83ffa6	0.064452454
243	0x3d2d42be	0.04229998
244	0xbf1d41df	-0.61428636
245	0x3e1c76e5	0.1527973
246	0x3e31698f	0.17325424
247	0xbdcf1cfd	-0.10112951
248	0x3e44cea4	0.19219452
249	0x389e8ba9	7.560041e-05
250	0x3d1d59e3	0.0384158
251	0xbef74cc5	-0.48300758
252	0xbe01cc68	-0.12675631
253	0x3dd1abb4	0.10237828
254	0xbcaeb16e	-0.02132484
255	0x3e33137b	0.174879

fc3.bias f4 [10]
0	0xbe0cfc8a	-0.13768211
1	0xbe89256c	-0.26786363
2	0xbcf93b99	-0.030423926
3	0x3e89dba1	0.26925376
4	0xbda88733	-0.08228912
5	0xbeac9381	-0.33706287
6	0x3d811441	0.06302691
7	0x3e444c63	0.19169764
8	0x3e276d79	0.16350354
9	0xbe5424ce	-0.20717165
