HW1_Split_nb/checkpoints/model_origin_2.pt (torch, 250586 bytes, 10 tensors)

conv1.weight f4 [6, 1, 5, 5]
000000 0a be 38 be fa 23 6a 3e ce 8b e2 bd c5 90 8c 3e
       -0.18041244 0.22865286 -0.11061822 0.274542
000010 50 44 b3 3d ac 33 9e bd ff 26 2c 3e a3 54 aa 3d
       0.08753264 -0.077246994 0.16811751 0.083169244
000020 a1 48 13 3e b5 c8 17 3e 7c a9 29 be c8 d5 be 3d
       0.14383174 0.14822657 -0.1656856 0.09318119
000030 34 48 25 be 7b 71 1c 3e 81 2c 3d 3e 4d 6a 81 bd
       -0.16140825 0.15277664 0.18474008 -0.063191034
000040 66 b8 08 be 1c 13 43 be b9 98 24 3e 7e 4f 38 3c
       -0.13351592 -0.19050258 0.16073884 0.011249421
000050 ba e9 19 be 5a 16 66 be d5 7a 9d be e2 e8 0a 3e
       -0.15030566 -0.22469464 -0.30757776 0.135654
000060 99 10 20 be cd 4a 67 3e e2 fb 26 3e 83 a4 ee 3b
       -0.15631332 0.22587128 0.16307023 0.007282795
000070 ee 9f b9 be 29 20 f1 be ce 1f 06 bd b5 c7 24 3e
       -0.3625483 -0.4709485 -0.032745175 0.16091807
000080 3c 5e 7c 3e f3 52 0b be b8 d9 f7 be 46 2b 39 3e
       0.24645323 -0.13605861 -0.48408294 0.18082914
000090 95 cd 60 3d bd 1c 49 3c 79 f2 db bd a8 8d 89 be
       0.05488356 0.012274918 -0.10739607 -0.26865888
0000a0 ea 8f 07 be 4a 6b ce 3e da 39 4d 3e 0e 6a f9 bd
       -0.13238493 0.4031623 0.200416 -0.121784315
0000b0 87 f1 7a be 77 47 8f 3d be 9f 8d 3e 8f d5 95 3e
       -0.24506198 0.06996053 0.27660936 0.29264495
0000c0 d1 0f 4e bd 5e 1f 84 3c 6f 22 9a bd 56 0b 9a 3d
       -0.050308052 0.016128238 -0.07526099 0.075216934
0000d0 3b 13 df bd 52 3f 14 be 98 cc 8a bd b9 a5 28 bc
       -0.1089234 -0.1447728 -0.067773044 -0.010293418
0000e0 e6 a2 86 3e e3 8f 6b 3e dd f5 44 bb 1c d7 fc bd
       0.26296157 0.23004107 -0.0030053772 -0.12345716
0000f0 7b 91 db 3d 97 b2 74 3e 54 88 3a 3e 3a d1 09 3e
       0.107211076 0.23896252 0.18216068 0.1345872
000100 e1 4c c3 bd 5a 52 05 3e 02 fb 31 3d 4a 4e 2f 3e
       -0.09536148 0.13019696 0.04345227 0.17119709
000110 b6 53 ff 3d fe 32 d6 bd 51 67 b2 3c 24 13 08 bd
       0.124671385 -0.10458945 0.02177778 -0.03322138
000120 e0 32 ec 3d 03 78 3e be 41 0c de 3b 59 9a 2d be
       0.11533141 -0.18600468 0.006776363 -0.1695341
000130 b4 e3 53 3e fd ae c5 bd bb 23 c1 3d 27 a4 46 be
       0.2069233 -0.09652517 0.09430643 -0.19398557
000140 2d 9b 79 3d 03 5d 01 bd 6b ab 21 3e 5f bb f0 3c
       0.060939003 -0.031582844 0.15788047 0.02938622
000150 f5 79 ca bd d1 98 65 3d 6e b1 74 3e 96 5a fb 3d
       -0.09886543 0.05605394 0.23895809 0.12273137
000160 37 7a 74 3e 18 11 29 bd f8 1f 0d 3e 56 07 af 3e
       0.23874746 -0.041276067 0.13781726 0.34185284
000170 ab f0 24 bd 7e f1 81 bd f2 6f 08 3e b9 46 36 3e
       -0.04026858 -0.06344889 0.13323954 0.17800416
000180 49 81 92 3e 93 05 e1 3d 2e 58 c7 bd be 8f 28 3d
       0.28614262 0.10987391 -0.09733616 0.04115271
000190 80 b5 57 3e d3 e3 8c bc 4c c6 8a bd f1 2d 69 be
       0.2106533 -0.017198479 -0.067761034 -0.22771432
0001a0 66 ba 56 be f1 76 05 3e fb a0 1e 3e c2 82 46 bc
       -0.20969543 0.13033654 0.15491097 -0.012116136
0001b0 3e 6b 25 be 95 ae 68 be bd 94 33 3e 7a 03 9a 3e
       -0.16154191 -0.22722848 0.17537208 0.30080777
0001c0 1b 5d 78 3e 3c 41 8c 3b 90 1a 50 be 6c e2 7a 3c
       0.24254267 0.0042802375 -0.20322633 0.015312772
0001d0 19 82 39 3e 97 7a bf bc 14 51 a3 3d 99 fb b3 be
       0.18116035 -0.023373885 0.07974449 -0.3515289
0001e0 2b 9f eb 3d 80 d5 97 bd 25 63 c2 3d d2 d5 40 be
       0.11504968 -0.07413769 0.094915666 -0.18831566
0001f0 17 d1 af bd 7a 83 32 be b0 73 b1 be 31 ca 32 be
       -0.085848026 -0.17432967 -0.34658575 -0.17459942
000200 68 70 03 bf 53 9e a2 be 2d e1 22 3e a3 15 a5 bd
       -0.51343393 -0.31761417 0.1590621 -0.080607675
000210 b1 a4 3b bf cb 24 4b bf 63 6f 6b be 6d 3e 96 3d
       -0.73298174 -0.79353017 -0.2299171 0.073361255
000220 b8 1e ab be 18 d7 63 bf 58 b1 40 bf 4b 4d 18 3d
       -0.33421874 -0.8900008 -0.75270605 0.037183087
000230 02 5f 9b 3e e0 da 0d 3e 11 a4 83 bd 9d a5 d1 bd
       0.30345923 0.13853025 -0.064277776 -0.10236666
000240 3f f2 46 3e 8f c0 8a 3e d4 8f aa 3d 29 d8 32 3e
       0.19428347 0.27100036 0.08328214 0.17465271
000250 6c 6f a4 bc 23 1b eb 3d
       -0.020072661 0.11479785

conv1.bias f4 [6]
000000 76 80 51 3d ed 7e d4 3c 79 0b 61 3c 61 0f e5 3b
       0.0511479 0.02593943 0.013735645 0.0069903587
000010 67 2e 9f 3e 10 cd 75 3e
       0.3109009 0.24004006

conv2.weight f4 [16, 6, 5, 5]
000000 ae 6e 6f be 0b 46 38 be d0 67 85 be 3c 00 20 be
       -0.23382065 -0.1799547 -0.26055765 -0.1562509
000010 81 e5 fe 3d e7 81 53 be 0c bb d5 bd 65 e1 ab bd
       0.12446118 -0.20655023 -0.10436067 -0.083926
000020 05 7d 5a be 01 e9 eb bd 17 f0 41 be 21 d3 09 bd
       -0.21336754 -0.11519051 -0.18939243 -0.033648614
000030 35 e9 d3 bd 13 12 8d 3c 2f b8 3c bd 39 f4 13 be
       -0.10347215 0.017220533 -0.04607409 -0.14448632
000040 e8 4a cb bd b2 2d 0a be 9e 0c 0c bd b7 5f 9e bd
       -0.099263966 -0.13493994 -0.03419172 -0.077331
000050 06 24 05 bd 20 89 d1 3d b4 1a fa 3b df 5c b3 3c
       -0.032505058 0.10231233 0.007632578 0.02189487
000060 c1 9d e5 bd c8 80 58 3e 7b d8 d0 be 7f cf 1f bf
       -0.1121173 0.21142876 -0.40790161 -0.6242599
000070 dc 2e 8b 3d b5 86 97 3e 5b 32 f1 bc ba cd eb be
       0.06796047 0.2959496 -0.029442957 -0.46055394
000080 c8 43 c8 be 53 f0 2d bd 94 df 77 3e a1 df f5 bd
       -0.39114213 -0.04246552 0.24206382 -0.120055445
000090 87 29 e4 be 8b 10 aa be 5e 9d b0 3c 0f 04 41 3e
       -0.44562933 -0.33215746 0.021559414 0.18849204
0000a0 ff 25 80 3d 72 c7 93 be 37 ec 49 be 0c ec 9a 3d
       0.06257247 -0.28863102 -0.19719015 0.075645536
0000b0 b1 84 3a 3e 9b c5 2c be 11 5f 0b bf e2 a7 83 be
       0.1821468 -0.16872256 -0.54441935 -0.25714022
0000c0 df 24 05 be 74 3a d9 3d eb b0 31 be 1f 5e 32 be
       -0.13002346 0.10606852 -0.17352645 -0.17418717
0000d0 cc fe d6 bd 88 7c 5d 3d 66 25 24 3d 0c f4 b9 3b
       -0.104978174 0.05407384 0.04007473 0.0056748446
0000e0 ca bc 04 be a0 17 bc 3c 9b 10 01 3e 26 8a 79 3d
       -0.12962642 0.022960484 0.1260399 0.060922764
0000f0 fc 07 f3 bd d6 63 84 bc 86 be 72 3c c3 0b 94 3d
       -0.11866757 -0.016160887 0.014815932 0.07228806
000100 83 95 63 3d 74 21 e0 bc c0 de b1 3c 3f da 15 3d
       0.055562507 -0.027359702 0.02171266 0.03658509
000110 24 69 34 3d 4f 0f 1e 3d 75 91 c1 3c 85 c4 7d 3d
       0.044045582 0.03858882 0.02362893 0.061954994
000120 6b 15 03 3e 10 a0 08 3e 25 d9 9b bd 86 7b 41 be
       0.12801139 0.13342309 -0.076097764 -0.18894777
000130 df f5 0a be 66 b4 7a 3c ed a2 01 3d 26 c8 2b 3b
       -0.13570355 0.015301799 0.03164952 0.0026211827
000140 26 b9 fa bd d2 7a cc bc c6 8c 6a 3d 19 bd ac 3d
       -0.122423455 -0.024960909 0.05726316 0.08434505
000150 01 13 98 3c 5e a4 03 bd 95 5d f5 bc 23 37 e9 3d
       0.01856375 -0.032139175 -0.02995185 0.113874696
000160 4d 6c 23 3d 25 f8 4f 3d 88 85 91 bc d6 b2 75 3d
       0.039898206 0.05077376 -0.017763868 0.059985004
000170 e7 8e f4 3d 42 49 0c 3d 58 92 35 3d a2 57 41 bd
       0.11941319 0.03424955 0.044329017 -0.047202714
000180 2b 59 05 3d c9 3d 18 3e 86 86 d9 3d 49 72 82 bc
       0.03255574 0.14867319 0.106213614 -0.015923636
000190 b6 46 48 bd d2 9b 3c be 65 e7 c4 bd d5 71 e8 3c
       -0.04889556 -0.18418816 -0.096144475 0.028374592
0001a0 72 70 15 3e c7 3f bd 3c 8b 1d fa bd 72 9c a5 3c
       0.14593676 0.0231017 -0.12212666 0.0202162
0001b0 3c bc bb 3d 7c 6f 47 3d 56 c9 5b bd 8a 9b 59 bd
       0.09166762 0.048690304 -0.053658806 -0.05312685
0001c0 b3 34 82 bd 43 bd 0d 3e a3 1b 04 3e 2d 5b 90 3d
       -0.06357708 0.13841729 0.12901168 0.070486404
0001d0 2e b6 c5 bd 01 6c 0c 3d 36 51 f5 3d 2c f9 bf 3d
       -0.09653889 0.034282688 0.119783804 0.09373698
0001e0 96 83 e4 3b 5e 0d e6 bc dd f8 29 3d ba f2 7c 3d
       0.006973694 -0.028082546 0.0414971 0.06175492
0001f0 bd f1 2e 3e 5e eb 3c 3f dd 0a c2 3e 5e ae 9a be
       0.17084403 0.7379664 0.37898913 -0.30211157
000200 d8 2f 04 bf 4d 2e 0a be be e2 c7 3e c8 b5 19 3e
       -0.51635504 -0.13494225 0.39040178 0.1501075
000210 81 e5 5b be bf bc 99 be 9b 45 35 be 16 17 c5 3e
       -0.21474268 -0.30026814 -0.17702334 0.38494176
000220 96 db 2b bd 39 07 8d be 45 d3 9f be fb 58 ef bd
       -0.04195746 -0.27544573 -0.31215873 -0.116868936
000230 62 50 5d 3e bf f2 97 3d c9 79 e1 bc 00 5b 57 be
       0.21612695 0.07419347 -0.027523892 -0.21030807
000240 41 75 33 be 09 10 8e 3d 4b 3a 3f be fa 3e 9e 3c
       -0.17525198 0.06936652 -0.18674581 0.019317139
000250 53 05 89 3c ca a6 99 bd 9b 11 a7 3b 48 3e 76 3d
       0.016726172 -0.075025156 0.0050985343 0.06011799
000260 e5 2c 6d 3e 06 b9 22 3e 75 fb 27 be 7f 5a f9 bb
       0.23161657 0.15890893 -0.16404517 -0.007609665
000270 eb 7a d6 3d 8f 4c 68 3e 3a 4e ab 3e 67 29 50 3d
       0.104726635 0.22685455 0.3345812 0.050820734
000280 ad a0 31 bd 76 8d 18 be d1 fa fc 3d 5b ff d4 3e
       -0.043366123 -0.14897713 0.12352527 0.4160107
000290 04 92 81 3e 59 a1 1d be 83 fe 54 be aa 82 1b 3e
       0.25306714 -0.1539358 -0.20800214 0.15186563
0002a0 b3 52 b0 3e ec 70 c0 3d 86 10 a8 3b d9 10 ea bd
       0.34438094 0.09396538 0.005128923 -0.11428995
0002b0 be 60 d9 3d a9 86 83 3e bc 52 e7 3d ce 40 2d 3d
       0.10614155 0.25688675 0.11295077 0.04229813
0002c0 1d b0 9a be 0a 48 c0 bd e6 b2 9c 3d 3d c2 9f 3e
       -0.3021249 -0.0938874 0.0765131 0.3120288
0002d0 cd 3d a2 bd 94 71 10 bc 27 e3 86 bc 1b a9 23 3d
       -0.07921944 -0.008816142 -0.016465737 0.039956193
0002e0 a3 bc 2e 3e b0 5a 80 bc f5 e3 9e 3e 48 6b 3e 3e
       0.17064147 -0.015668243 0.31033292 0.18595612
0002f0 8e dc 0c 3d 46 8b 29 3e bc 1d df 3d 61 be c5 3e
       0.034390025 0.16557035 0.10894343 0.3862181
000300 7e b9 a1 3e 14 4a 58 3e fb 0e 4c 3e 98 91 99 bd
       0.31586832 0.21122009 0.1992759 -0.07498473
000310 0d ab c9 3e a0 15 bf 3e c5 4e 2c 3d ce 46 82 3d
       0.39388314 0.37321186 0.042067308 0.06361161
000320 2f f9 74 bd 03 dc fb bd d4 98 10 bc 28 88 6f 3d
       -0.059807952 -0.12297823 -0.0088255 0.058479458
000330 25 81 80 3d 9d 0b 72 3c 29 94 0f be 65 f3 e2 bc
       0.06274632 0.014773277 -0.14021362 -0.02770395
000340 a8 47 c9 bc a6 b2 77 3d dc 6f 94 bd c2 6d a4 bd
       -0.024570301 0.060473107 -0.07247898 -0.08028747
000350 55 ff ab bc 32 00 49 3d 41 44 44 bd 0a 3f f8 3b
       -0.020995775 0.049072452 -0.047916654 0.007575874
000360 db 1f 25 3d 52 da 9d bd 06 58 c1 bd 50 76 a4 bd
       0.040313583 -0.07707657 -0.09440617 -0.08030379
000370 67 8b 30 3e fa b5 f4 3d 51 69 e7 bc c6 29 e5 ba
       0.17240678 0.11948772 -0.028248461 -0.0017483763
000380 13 4b 82 3d 50 41 8d bd c8 4f 2e be 2e 23 ff bb
       0.063619755 -0.06897223 -0.17022622 -0.007786176
000390 59 88 97 3d 6f 76 a0 3d 8a 5e 09 be 89 cd 8f bd
       0.07399053 0.078350894 -0.1341497 -0.070216246
0003a0 c4 56 e7 bd c9 6c 16 3d 7a 0a e5 3d ec 7c b6 bd
       -0.11295846 0.03672484 0.11183639 -0.08910546
0003b0 cc f3 56 3c c6 a2 0c be e1 56 3a bd 19 41 05 3c
       0.013119649 -0.13733968 -0.04549301 0.008133196
0003c0 1e bc 40 3d be 19 e8 3d 8b 00 8d bb 63 ca d2 bd
       0.047054403 0.11333035 -0.0043030432 -0.102925085
0003d0 69 b4 68 3c a8 7b 00 3e a0 86 2c 3d a1 2a 46 bd
       0.014203169 0.12547171 0.042120576 -0.048380498
0003e0 48 d4 05 be 9a b7 22 bd 32 f3 e0 bc a3 6c 32 be
       -0.1306926 -0.039725877 -0.027459715 -0.17424254
0003f0 59 c7 99 bb 0c 2d dd 3d 88 10 a6 3d d5 93 fc bd
       -0.0046929535 0.10799608 0.08108622 -0.12332884

conv2.bias f4 [16]
000000 5e 76 ab 3d 1b dc 07 bb 8f 7d 6a bd ad bb 65 3e
       0.08372186 -0.0020730558 -0.05724865 0.22434874
000010 f6 69 18 3e 0c ad f2 3d 71 a4 5e 3e dd 99 10 3e
       0.14884171 0.11849412 0.21742417 0.14121194
000020 fe 61 dd bd 02 0b ee 3d 55 12 a9 3d d6 ea 34 3e
       -0.10809706 0.11623193 0.0825545 0.17667708
000030 bf 98 4f bd 87 e0 be bd 21 f5 b4 3d 9f 68 16 3e
       -0.05068278 -0.09320169 0.08835817 0.14688347

fc1.weight f4 [120, 400]
000000 88 5b cc 3d 46 df ae bd 48 e9 d4 bd dd e5 22 3e
       0.09978396 -0.0853868 -0.10396057 0.15907998
000010 a6 34 61 3d 33 0f 36 3d f0 22 c7 bd 6f da 5a bd
       0.05498185 0.04444809 -0.09723461 -0.05343097
000020 ec 51 d2 3d 30 4b 67 3c 0a 1e 56 3c c5 b6 2a bd
       0.102695316 0.014117047 0.013068685 -0.04167821
000030 77 bd 10 bc 18 67 1b bc eb 50 2a be 75 8b ed 3c
       -0.008834234 -0.009485029 -0.1663243 0.028997162
000040 bb 0f 3e bc 50 89 09 3d 1e 5b 08 3d dd 53 c5 bd
       -0.01160043 0.033578217 0.03329002 -0.09635136
000050 b2 2a d5 3d 81 3f 9b 3d 23 90 07 3e 69 8e a2 3d
       0.10408534 0.07580472 0.13238578 0.07937319
000060 8e 61 bc bd 61 1e 35 3e fe 46 43 3d b0 81 10 3e
       -0.091982946 0.1768737 0.047675125 0.14111972
000070 97 85 fc 3c be 32 04 bd 5f 07 6a 3d 78 e7 fc 3c
       0.03082542 -0.032274954 0.057135936 0.030872092
000080 9d 2d 23 3e 66 99 ec 3d af 7f c6 bc b1 d2 50 b9
       0.15935369 0.11552696 -0.024230806 -0.00019914914
000090 09 fc 94 3c b8 07 ef 3d 29 10 ea 3d ca 6e f3 3c
       0.018186586 0.11671394 0.114288636 0.029715914
0000a0 89 d0 b3 3d ce 9d 87 bd d8 1d c8 bd 6b 88 57 3d
       0.08780009 -0.06621896 -0.09771317 0.052620333
0000b0 2a 97 2e 3d 70 7f 43 3d e7 8f 77 bd a6 a8 40 be
       0.04262463 0.047728956 -0.06043997 -0.18814334
0000c0 50 bd 3f 3e ee 95 0e 3d d1 c2 f2 bc 7a ae bc 3b
       0.1872456 0.034810953 -0.029633911 0.005758104
0000d0 15 05 5b 3d 98 16 24 3d f7 6d 67 bd 48 9f ef bb
       0.053471643 0.04006061 -0.056501355 -0.007312689
0000e0 8c b1 6f 3c b7 4b 63 3b d8 51 80 bd 32 55 68 bd
       0.014629733 0.003468258 -0.062656105 -0.056721874
0000f0 b9 7c ed ba a4 4a 47 3d a8 8f 33 bd c0 55 35 bd
       -0.0018118835 0.048655167 -0.043838173 -0.04427123
000100 08 ce c2 bc b3 57 95 3d 34 b8 95 3d c0 2e 88 3d
       -0.023779884 0.07292118 0.073105246 0.06649542
000110 29 2f 77 bd 0e 7a 2c bd f6 64 5a 3c a7 bc 5e 3c
       -0.06034771 -0.042108588 0.013329735 0.013594783
000120 ed be 51 3c 40 31 86 bc e2 e1 01 bd 1a f6 20 3e
       0.012801868 -0.016380906 -0.03170956 0.1571888
000130 f3 7e c0 3d b4 06 d1 bc cc 88 ce 3d be 11 cd 3d
       0.09399214 -0.025515892 0.10084686 0.1001315
000140 d1 bd 8c 3d c0 63 d7 bc 24 44 11 3c 26 cf b8 bc
       0.06872142 -0.026292682 0.008866344 -0.022559714
000150 48 d5 06 3c 76 05 01 3b b1 1c b3 bc 92 27 8c 3d
       0.008229561 0.0019687093 -0.021864267 0.06843485
000160 8f 4f 88 bc 34 88 9c 3c 8e ad bc 3a 23 a2 d0 3b
       -0.016639499 0.019107915 0.0014394985 0.0063669845
000170 15 a1 18 3d 4f 23 8f 3c 1c 41 23 3d 74 55 02 3c
       0.037262995 0.017472891 0.039857015 0.007954944
000180 91 17 29 3d 1d 88 2a bc a5 c3 b1 3c d2 2c a9 3b
       0.04128224 -0.0104084285 0.021699736 0.0051628137
000190 b3 fa dd 3d 60 88 1e 3a 60 3f 29 3d 77 c3 b6 bd
       0.10838833 0.0006047543 0.041320205 -0.08924001
0001a0 d0 6f 38 bd df 5d 95 bc d6 9c 09 be 61 f5 9f bd
       -0.045028508 -0.018233238 -0.13438734 -0.07810474
0001b0 07 16 8b bd 2f 03 92 bd 57 9c c4 bc ed 55 3b 3d
       -0.06791311 -0.071295135 -0.02400033 0.045736242
0001c0 7c 6b ea 3d a7 3b a6 3d 12 ad c5 3c 96 6a b7 bd
       0.11446282 0.081168465 0.024130378 -0.089558765
0001d0 99 02 fe 3b aa 69 58 3d 65 c7 bc 3d dc 0e 14 3d
       0.0077517745 0.052835144 0.09217719 0.036146984
0001e0 89 75 80 be b3 82 81 3c 1b f7 30 3d ee 8d 03 3e
       -0.25089672 0.015809393 0.04320441 0.1284711
0001f0 c5 24 2f 3e 74 64 e0 3d 7b 68 60 bc 3e c0 98 bd
       0.1710387 0.1095666 -0.013696785 -0.07458542
000200 c1 98 81 3d 5b 7b 8e 3d f5 e1 1c 3d 37 c3 f6 3c
       0.063279636 0.06957122 0.038301427 0.030122383
000210 27 d9 10 bd f2 65 b9 bc 48 93 b6 bc 80 81 52 bc
       -0.035363343 -0.02263162 -0.022287026 -0.012848258
000220 04 10 d3 bb eb b4 19 3c 2c 91 16 bd 43 45 d7 bd
       -0.006441118 0.009381513 -0.03675954 -0.105112575
000230 49 bf ca bd 75 cb 89 3b d0 f6 ad bb 47 6d ce 3c
       -0.09899766 0.004205162 -0.0053089634 0.025198592
000240 ed 2d f0 bd 6c 14 09 3c e7 4f f1 3c 3b 76 89 3d
       -0.1172751 0.008366685 0.029457046 0.06712004
000250 2e d2 ba 3d 1a 60 39 be f5 53 d3 3d 03 48 8a 3d
       0.0912212 -0.18103066 0.10318748 0.067520164
000260 ab 87 db 3c 7a 27 8c bc 39 35 9c 3d 4a 0b c6 3b
       0.02679809 -0.017108668 0.07627339 0.006043826
000270 0e 29 9f bc c7 cc 4d bc 61 bc 91 bd a9 f3 97 bd
       -0.019428756 -0.01256103 -0.071160085 -0.07419521
000280 14 e7 17 3c 62 a2 25 3d 87 8f 1e bc 9a a4 51 bd
       0.009271402 0.040438063 -0.009677774 -0.051182367
000290 66 fa 2b be 56 7a 27 bd bb 7b 85 bc 92 1b f6 3c
       -0.16794738 -0.040888153 -0.01629435 0.030042443
0002a0 5a fa 16 3c 41 c0 3f be b4 84 8e bd a3 4d bb 3b
       0.009214962 -0.18725683 -0.06958905 0.005716042
0002b0 5f c9 57 3c 45 4c b1 3d 67 5e 5a be 30 33 52 3e
       0.013170569 0.086571254 -0.21325074 0.20527339
0002c0 f8 e3 d4 3d 99 21 17 3e 12 1e d6 bc 97 ac c6 3d
       0.10395044 0.1475891 -0.026137386 0.09700888
0002d0 a4 2c 31 bd b2 00 16 3d e6 be 74 3d a5 6b 32 3d
       -0.043255463 0.036621757 0.059752367 0.04355969
0002e0 3c 3e 4d bc f5 b6 84 3d 79 c1 13 3d 40 a9 eb bc
       -0.012527045 0.06480209 0.03607318 -0.028767228
0002f0 1d 18 bd 3c 62 75 5b bc 27 98 04 bd e8 92 75 bd
       0.023082787 -0.013394685 -0.032371666 -0.059954554
000300 bb 6f 9e bd dd d1 05 bc 9e 80 01 bc 39 4e 88 be
       -0.07736155 -0.008167711 -0.0079042 -0.2662218
000310 10 1d 04 be a4 6a a8 3c 8b 0a c4 bd 99 95 30 be
       -0.12901711 0.020558663 -0.095723234 -0.17244567
000320 f3 c5 ee 3c 60 98 c0 bc 40 9e 92 3b 6d 04 1f bc
       0.029147124 -0.023510158 0.0044744313 -0.009705645
000330 83 27 4f bd 67 d8 7c bc c2 64 3f bd bd 2b cb 3c
       -0.05057479 -0.015432454 -0.04672695 0.02480113
000340 03 a6 e2 3c 0f d7 3d bd 0d 8b e4 3b 5a 34 5c 3c
       0.027667051 -0.046347674 0.006974584 0.013440216
000350 c7 36 11 3d e5 02 74 bc 3d 61 dd bc 0a 58 1e bd
       0.03545263 -0.014893268 -0.027023906 -0.03865818
000360 fa 7e 2a 3d cf 88 09 bd c0 4d f1 bb d0 70 19 3d
       0.041625 -0.033577736 -0.007364005 0.037461102
000370 1d 1d fc bc 13 18 6d 3c 0a 4b 84 bc c5 2b 42 bd
       -0.030775601 0.014471072 -0.016149063 -0.047405023
000380 f3 df 94 bc a7 a1 60 3c 78 b4 76 bc 91 15 61 bc
       -0.018173194 0.013710416 -0.015057676 -0.013738052
000390 8a fb 21 3d 0e 2a 70 3c e0 5f 14 3d 02 88 03 3e
       0.039546527 0.014658464 0.036224246 0.12844852
0003a0 b5 2e 88 3b 66 7d 84 3d e2 93 a6 bd 37 73 76 3d
       0.0041559585 0.0646923 -0.08133675 0.06016847
0003b0 65 0c de 3d b3 a7 29 3c 90 35 bc 3d 8d b5 00 3d
       0.10842208 0.010354924 0.09189904 0.03142314
0003c0 83 4e e8 3d ac fb de 3b 38 4b 07 be a0 7a f5 3d
       0.113431 0.006804904 -0.13212287 0.119862795
0003d0 80 21 82 bd e9 22 4c 3e 3c 09 b6 bd 0c ec 10 be
       -0.06354046 0.19935192 -0.0888848 -0.14152545
0003e0 fd 32 82 3d 85 62 43 be b5 8f 81 3d 5a 6a 5d 3e
       0.063573815 -0.19080551 0.06326238 0.21622601
0003f0 93 85 0a 3c f5 42 cc bd 20 39 89 bc 08 08 dc 3c
       0.008454698 -0.099737085 -0.016750872 0.026859298

fc1.bias f4 [120]
000000 2f 7e fc 3d 75 60 6b 3c eb 65 ee 3d a2 90 e4 ba
       0.12328755 0.014366259 0.11640533 -0.0017438123
000010 4b bf 73 bd ae aa 4c bd 0b 75 fd bc c1 33 aa bc
       -0.059508603 -0.04996746 -0.0309396 -0.020776631
000020 ff d2 8a bd 8e fc 8e bc 32 74 d0 bc 63 cd 44 bd
       -0.067785256 -0.017454412 -0.025446031 -0.048047435
000030 d1 6f 92 3d 75 7f 1a 3e 6a 37 8d 3d bf 1d 95 bc
       0.071502335 0.15087683 0.06895335 -0.01820266
000040 7c 28 29 bc 8e a2 21 3e bf 10 0a 3d 4d f7 2b bd
       -0.010324594 0.15784666 0.033707377 -0.04198389
000050 01 e1 5f bd ec d6 2f bd b2 e7 03 bd 8a 7b 5c 3d
       -0.05465794 -0.042929575 -0.032203384 0.053828754
000060 ec c8 8a bd ff fc fa 3a 0f c5 dc bb 86 78 fe 3d
       -0.06776604 0.0019148885 -0.0067373584 0.12425332
000070 b3 d8 24 bc 49 4d d9 3d 34 3d b7 bd a5 ba 3b bd
       -0.010061431 0.10610444 -0.089472204 -0.045832295
000080 f0 e1 2e 3e b7 37 79 bd 92 71 7f bd 98 72 64 bd
       0.17078376 -0.06084415 -0.06236417 -0.055773348
000090 c9 85 46 bb fe f3 0a 3d 61 3e 8f bb 34 7c de 3c
       -0.0030292145 0.033924095 -0.00437145 0.027158834
0000a0 2c 2a f1 bc f9 7d ab 3d 78 d5 cf 3d c6 c6 8f 3d
       -0.029439054 0.08373637 0.10148138 0.07020335
0000b0 ea 7f d9 bc f0 9e a0 bd fe af 60 bd f0 8b 90 bd
       -0.026550252 -0.07842815 -0.05485534 -0.07057941
0000c0 c0 36 44 3d 4e f0 8d ba 3d b2 e1 3d 7c 47 9b bd
       0.047903776 -0.0010829063 0.110203244 -0.07581994
0000d0 af 60 0d 3d b2 c9 aa 3d c2 5a b1 bc 83 e6 95 3c
       0.034516033 0.083392516 -0.021649722 0.018298393
0000e0 8c 1b 0f 3c 9d 15 9f 3d 25 45 66 3c d9 fb 05 bd
       0.008734595 0.07767794 0.014054571 -0.032710884
0000f0 22 29 bf 3c d6 09 13 bc 8e 33 19 3d 3b b5 2e bd
       0.023335043 -0.008974513 0.037402682 -0.042653304
000100 f2 a1 1a bd 2c b8 67 bd 73 ba a8 bc c6 2d 00 3e
       -0.0377521 -0.056572124 -0.020596718 0.12517461
000110 fb 39 e6 3d 0d 15 62 3d 14 4a c6 3d bc 54 ea 3d
       0.11241528 0.055195857 0.09682098 0.11441943
000120 8f f2 13 3e 5f 0a f9 3c 89 2a 9e bc ac 6e 62 3d
       0.14447998 0.030400453 -0.019307392 0.055281326
000130 47 36 20 3c ce 4b b7 3d 0a d1 99 bd 8d cc 42 3b
       0.009778566 0.089500055 -0.07510574 0.0029723973
000140 59 8f 45 bc a4 26 01 bd 25 0c 17 3d 1f 6f 38 3e
       -0.0120581025 -0.03153099 0.036876816 0.1801114
000150 ec 6d 15 3e 96 df 3d bc b9 c1 36 3c 5a af 9e bd
       0.14592713 -0.011588952 0.0111545855 -0.077482894
000160 33 c7 88 3d db 64 8b bd 65 83 41 3e 64 2e 89 bd
       0.06678619 -0.06806346 0.1889778 -0.066983014
000170 a7 6d cc 3c 54 89 3a 3e 6c 16 d5 bc aa f8 03 3e
       0.02495463 0.18216449 -0.026011668 0.12887827
000180 93 3c 5d bd 47 fc e4 3d c1 96 27 bc 40 83 a1 bc
       -0.054012846 0.111809306 -0.010228814 -0.019715905
000190 92 b1 13 3d 3e a9 96 3d d3 da 4f bc ab 16 4f 3d
       0.036058016 0.07356499 -0.012686449 0.050558727
0001a0 49 84 87 bd ca de 89 3c cc 08 cc 3d e1 c7 d4 3d
       -0.06617028 0.016829867 0.09962615 0.103896864
0001b0 53 3d 24 3e 77 a7 56 bd d0 33 15 3e 01 a7 92 3b
       0.16039018 -0.0524058 0.14570546 0.004475475
0001c0 0b 1a 05 3e e7 6a 92 3d af 28 7d 3d eb 2d d3 3d
       0.12998216 0.07149296 0.061806377 0.103114925
0001d0 eb e5 9b bc fd 17 3b bd b7 a9 74 3d a3 a5 99 3d
       -0.019030532 -0.045677174 0.059732165 0.07502296

fc2.weight f4 [84, 120]
000000 00 a5 00 bd c4 55 d7 3d 81 1c 1e be 6a 31 43 3e
       -0.031407356 0.10514405 -0.15440561 0.19061819
000010 55 8d 56 bd 45 d5 14 bd bc 33 cf bc f7 3a 12 3c
       -0.05238088 -0.036336202 -0.025293224 0.008925191
000020 a3 4c 03 ba 21 40 94 bc 2a 39 ba bd 5c 0c 51 bd
       -0.0005008673 -0.018096985 -0.090929344 -0.051037177
000030 25 5d 1e 3d 1d 09 cf bd 9b 02 09 be 6a 20 93 bc
       0.03866305 -0.1010916 -0.133799 -0.017959792
000040 26 f1 93 bd eb 4c 40 be 9f 6e 84 3e 18 ff cc 3e
       -0.0722373 -0.18779342 0.25865647 0.4003837
000050 ca 03 73 3b f7 5b 6e bd b2 14 8f 3d 26 ee 17 be
       0.0037081116 -0.058193173 0.06986369 -0.1483694
000060 0c 5d d7 bd 0e 2c 7a 3c f3 ca 5f be c3 ea 54 3e
       -0.10515794 0.0152692925 -0.21854763 0.2079268
000070 f5 0c 34 3e e5 6d 1a 3e 0f d1 2a 3e 11 59 fc 3c
       0.17583068 0.15080984 0.16681312 0.030804189
000080 2c db 04 3e 12 89 19 3c a0 ae f1 3d 3b a9 a8 bd
       0.12974232 0.009371059 0.11800885 -0.08235403
000090 17 ce 1a bd a1 77 69 be 2a 1f 55 3e 51 24 d5 bc
       -0.0377942 -0.22799541 0.2081267 -0.026018294
0000a0 68 15 87 bd 04 98 86 3d f4 ef 64 bd 4a a4 64 3d
       -0.0659588 0.065719634 -0.0558929 0.05582074
0000b0 39 4a b8 bd ff d1 c3 be 36 e7 39 3d fb b5 65 3d
       -0.08998532 -0.38246152 0.045386516 0.056081753
0000c0 34 bb 56 3d 18 20 99 be 52 96 2e bd fa 33 da 3d
       0.052424625 -0.29907298 -0.042623825 0.10654445
0000d0 37 c2 d3 3d a8 32 26 bd ae 1c 55 be ab e3 e1 bb
       0.10339778 -0.040575653 -0.20811722 -0.006893595
0000e0 72 f8 7e 3e 49 5d c1 3d b6 c0 e4 3d 58 88 12 3d
       0.24899462 0.09441621 0.11169569 0.03577456
0000f0 90 9e 99 bd 0a 84 8c 3d 0f f2 30 be b2 c5 d1 3b
       -0.075009465 0.06861122 -0.17279838 0.006401741
000100 e5 1a ab 3d 62 8a 92 3d 60 ce 08 3e 22 b7 6b 3e
       0.08354739 0.07155301 0.13359976 0.23019078
000110 98 eb 6f bd da 94 d7 bd 4b c9 bd bd 76 cb be 3d
       -0.05857429 -0.10526438 -0.09266909 0.09316151
000120 e2 f0 17 be 61 4e 4b bc 15 c8 e0 bc ef 25 2e bd
       -0.14837983 -0.012408824 -0.027439157 -0.042516645
000130 4f 4f a7 bd 3b 34 37 bd 59 76 af bd 98 c1 72 3e
       -0.08169424 -0.044727545 -0.08567495 0.23706663
000140 50 03 9a bd 4a 15 98 bd 8c a2 1c 3e 2d 41 57 be
       -0.07520163 -0.074259356 0.15296382 -0.21020956
000150 04 22 c2 bd 0a 69 0c 3d ac 33 16 be 58 3d 9b be
       -0.09479144 0.03427986 -0.14668149 -0.3032024
000160 33 14 5f 3d ef fc 5e 3d f7 31 a2 3c dc 1c 99 3b
       0.054462623 0.054440435 0.019799216 0.0046726298
000170 d4 b9 38 3d 9a 46 7b 3e a8 a6 3a be 9e e0 35 be
       0.045099095 0.24538651 -0.18227637 -0.17761466
000180 e8 5c b7 3d 21 b9 e2 bd c3 a2 b3 bc c4 c8 1c bd
       0.08953267 -0.11070467 -0.021928197 -0.038277403
000190 a7 8b af bd 80 cd 5f be 4d 08 ab 3d e1 6b 23 be
       -0.085715584 -0.21855736 0.083511926 -0.15959121
0001a0 e9 24 64 bd 33 75 b2 bd d7 b3 40 3e e7 fc 0c be
       -0.055699263 -0.0871376 0.18818603 -0.1376835
0001b0 a4 51 49 be a2 f0 ba bb 63 9e 8c be 10 48 f5 bc
       -0.1966005 -0.005704955 -0.2746459 -0.029941589
0001c0 d8 2a 6b 3e 77 6f 3b 3e 28 80 c3 3d 34 49 d6 3d
       0.22965562 0.18304239 0.09545928 0.10463181
0001d0 0f cb 70 bd 17 a4 07 3e 62 b3 13 3e 30 ca 05 be
       -0.0587874 0.13246189 0.14423898 -0.1306541
0001e0 a6 32 0a 3e a3 9c c5 3d 68 14 4b bc 48 d1 13 ba
       0.13495883 0.09649017 -0.012395002 -0.00056387903
0001f0 30 5a 2b bb 77 ee a0 3c 89 d6 d8 3c 21 31 2f 3d
       -0.0026146285 0.019644959 0.026469486 0.042771462
000200 e8 74 0f bd 35 4f 97 3d 1d b1 a0 bd 9e 3e 17 3d
       -0.0350236 0.073881544 -0.07846282 0.03692495
000210 59 1b ac 3d a2 ab 08 bd 5a bf e4 3d ca 3b 3f bd
       0.08403654 -0.033366807 0.1116931 -0.04668788
000220 9a ed 8e bd 64 4f 40 3e 00 6b 81 3d 7a d9 97 be
       -0.06978913 0.18780285 0.06319237 -0.2965811
000230 76 e1 a7 bd 00 18 63 3d 48 89 5a 3d 46 d7 ad 3d
       -0.081973 0.05544281 0.053353578 0.08488326
000240 9b 09 a3 bd 9b 91 98 bd 9d a6 c3 3d 4a a2 a7 3e
       -0.079608165 -0.07449647 0.09553263 0.32741004
000250 cd 4b 6c be ff 08 94 3d 7d 56 35 bd 40 b1 24 3d
       -0.2307579 0.07228278 -0.044271935 0.0402081
000260 c5 d3 72 3d a3 12 e4 3b 27 fd be 3d a1 9c bd 3d
       0.05928399 0.0069602295 0.09325629 0.0925839
000270 e0 06 30 bd 8c 35 4a 3d 68 20 19 3d 92 ed 88 bd
       -0.042975307 0.049367473 0.03738442 -0.06685938
000280 f1 3d b5 3d 7d a1 e9 3c 21 f8 32 3d ac e8 23 3e
       0.08849705 0.028519386 0.043693665 0.16006726
000290 4f 6d 8a bd 70 50 07 3e 96 69 09 bd 82 8d 51 3d
       -0.0675913 0.13214278 -0.03354796 0.051160343
0002a0 e4 03 0e 3d 63 de e7 3c 7b 59 2d be 8b 72 d3 3b
       0.03467168 0.028304284 -0.16928665 0.0064528636
0002b0 d9 48 b1 bd 9e 06 77 be c6 a6 1f be cf 51 ce 3d
       -0.08656473 -0.24123618 -0.15590963 0.100741975
0002c0 7a a7 0d be 58 be e8 bd 8c bd 09 3e 15 84 7d 3d
       -0.13833418 -0.1136443 0.13451213 0.06189354
0002d0 bb ad 36 3c aa f1 1c bc 06 38 98 bd e9 d3 69 bd
       0.011149819 -0.009579102 -0.074325606 -0.05708686
0002e0 f0 7a 1f 3d 47 ff 1b 3d 09 e2 d2 bd 0c fe 30 3e
       0.0389356 0.03808525 -0.10297019 0.17284411
0002f0 ea 84 6f bd bf 86 62 bd 37 0c d7 bc cd 96 3c 3d
       -0.058476366 -0.055304285 -0.026250942 0.046042252
000300 54 6e bf 3d b7 63 20 3e ea 35 56 be aa df d7 3d
       0.09347215 0.15663038 -0.20919004 0.105407074
000310 62 27 11 3e fc de 69 bd fb 2c 4a bd 06 bd 9f bd
       0.1417518 -0.05709742 -0.049359303 -0.07799725
000320 3f 81 65 bc b6 79 b3 3d 4c 37 69 3e 49 3f 11 be
       -0.014007865 0.08763449 0.22775 -0.14184298
000330 f0 72 7f bc 6d fb 2f bd 49 2e 26 bd 58 93 9e 3d
       -0.015591368 -0.042964388 -0.040571485 0.07742947
000340 92 b5 19 bc 70 a0 90 bd 71 fc 06 bd 9b 32 dd bc
       -0.009381669 -0.07061851 -0.03295559 -0.02700167
000350 32 25 a6 3d d3 ac 47 3d 92 cf 44 3d ea 5e ab bd
       0.08112563 0.048748802 0.048049517 -0.08367713
000360 fe 62 a1 3d a9 0e 36 3d d8 6e 8b bd 36 ee 1d bd
       0.078802094 0.044447575 -0.06808251 -0.038557254
000370 14 eb 5a be 94 c4 e1 3d b6 4a 23 3d dc c7 8b bd
       -0.21378738 0.110238224 0.03986617 -0.068252295
000380 e7 6a a1 3d 6b 23 c0 3d 1b fd ae 3d d9 61 1a 3e
       0.07881718 0.093817554 0.0854437 0.15076388
000390 04 9d 1d 3e b2 ab 1e be dd 96 05 3d 92 9b 9e bb
       0.15391928 -0.15495184 0.032614578 -0.004840323
0003a0 54 61 1e bd e5 0f a1 3b d7 89 15 bd 85 86 60 3c
       -0.038667038 0.004915225 -0.036508407 0.013703947
0003b0 93 68 9b bd c3 0d 91 bc 70 47 62 bc 47 0f f7 bc
       -0.07588305 -0.017706757 -0.013810977 -0.030158652
0003c0 9a 9f ed bd a3 ad f4 bc 75 57 02 be f1 da 48 bd
       -0.11602707 -0.029867953 -0.12728675 -0.049036924
0003d0 8e e0 13 3d db ed c6 3c f1 33 b6 bc 69 b1 3c 3a
       0.036102824 0.02428334 -0.022241564 0.0007198067
0003e0 09 9e 1e 3c 0a fb 89 3d 01 6a 66 bd 56 9f e7 3c
       0.009681233 0.06737335 -0.056253437 0.02827422
0003f0 54 e7 3d 3c 40 0e 8e be e9 02 e2 bd bc 41 75 bd
       0.011590797 -0.27745247 -0.11035711 -0.059877142

fc2.bias f4 [84]
000000 12 3c f9 3d eb 36 a7 3d fd c6 1d 3b af 46 53 3c
       0.12169661 0.08164772 0.0024074905 0.01289527
000010 48 59 2e 3e 76 b5 3b 3e 2c 4f 26 be 45 5d 3b 3c
       0.17026246 0.1833094 -0.16241139 0.011435811
000020 7d f9 a5 3d 41 46 c4 bc 49 ca 4c 3e 6c cc 6a 3e
       0.08104227 -0.02395928 0.1999904 0.22929543
000030 80 b6 fb bd 15 2f aa bd 81 8d 03 be 04 98 2e 3d
       -0.122906685 -0.083097614 -0.12846948 0.042625442
000040 53 b7 84 bd 08 dd a9 3d 97 4b 44 bd 64 2d 92 bd
       -0.06480279 0.082941115 -0.04792365 -0.07137564
000050 db e2 c2 bd c5 b3 14 bc 8f be a2 3d a9 43 09 3e
       -0.095159255 -0.0090760635 0.079465024 0.13404717
000060 60 6d 2b 3e 04 a2 4a 3e 97 eb 4e 3e 28 eb b5 bd
       0.16740942 0.19788367 0.20207058 -0.08882743
000070 05 5c ba bc 11 30 f8 bd 5a 67 d7 bd c3 3c 91 3d
       -0.022748956 -0.12118543 -0.105177596 0.070916675
000080 da a1 ad 3a 14 3d ca 3c 3a 4f 5b 3e 60 79 8e 3d
       0.0013247088 0.024687327 0.21416941 0.06956744
000090 53 1d dd bd 07 ed 10 be 10 ac 23 3c a4 62 f1 3d
       -0.10796609 -0.14152919 0.009989753 0.11786392
0000a0 61 d6 89 3d bd d1 c9 3d 8c 81 4b 3d cf a2 fb 3d
       0.06730343 0.098544575 0.049684092 0.12286913
0000b0 7b 21 e9 3d a3 0b c6 bd 98 04 c4 3d 21 99 a0 3d
       0.11383339 -0.09670188 0.09571189 0.07841707
0000c0 1f 7d 9f bd 14 81 95 3b 50 e2 e3 bd 3f d1 9b bd
       -0.07787537 0.0045625065 -0.1112715 -0.0760827
0000d0 5b ac aa 39 b1 61 d4 bd fc 37 df 3d d8 cb d2 3d
       0.00032553342 -0.10370196 0.1089935 0.10292786
0000e0 a4 52 2c 3e a7 5f 42 3e 3b 14 98 bd 3e 67 9d 3c
       0.168284 0.18981801 -0.07425734 0.019214269
0000f0 df 83 9d bc 84 5b bd 3d 04 7d b9 3d aa e9 ea bd
       -0.01922792 0.09245971 0.09057048 -0.11470349
000100 43 2c 8a 3d c2 0c 07 3e 6e b1 3a 3c 0d bf bd bc
       0.067467235 0.1318846 0.011394842 -0.02316239
000110 90 58 89 3d 52 4d 54 3d 32 47 cd 3d b0 81 ef bd
       0.06706345 0.05183155 0.10023345 -0.11694658
000120 30 f4 c3 bd c4 32 53 3d 9d 53 3d 3e 1f 61 2e 3d
       -0.095680594 0.051562086 0.18488927 0.04257309
000130 e3 38 b4 3d 11 6e 1e bd ac bb d1 3d 1a 2d e2 bc
       0.08799913 -0.038679186 0.10240874 -0.027609397
000140 e3 61 b1 bd 50 ce 49 3d 26 bd cb bd 2a cb a2 3d
       -0.086612485 0.04926902 -0.099481866 0.07948907

fc3.weight f4 [10, 84]
000000 ee 05 77 bd 19 ee 36 3e be 6c 9c bc 24 18 ed 3d
       -0.06030839 0.17864265 -0.019094821 0.1157687
000010 57 70 9d bd 46 29 db 3d db f7 5e 3d dc 92 16 3e
       -0.07687443 0.10701232 0.054435592 0.1470446
000020 1a be 40 bd d5 89 bd bc ea e9 28 3e b9 68 ae 3d
       -0.047056295 -0.023137012 0.16495481 0.08516068
000030 16 98 8e bc 57 48 9c bb 71 5d aa 3d 81 99 6b bc
       -0.017406505 -0.004769366 0.08318604 -0.01437986
000040 b5 21 37 bd e3 64 27 be e8 22 97 bc 15 67 24 bd
       -0.04470988 -0.16347079 -0.018449262 -0.04013737
000050 e9 1f 4e bc ec 79 34 bc 04 b3 79 3c 1b 64 99 bd
       -0.01258085 -0.011015397 0.015240435 -0.07489797
000060 90 bd c6 bd 5b e7 01 be c4 86 de 3d d5 6c 6f 3c
       -0.09704125 -0.12685911 0.10865548 0.01461335
000070 6f cb a8 be bb da 2f bc 4b 4c b2 bd 0c ab ae 3d
       -0.32967708 -0.010733302 -0.08705958 0.08528718
000080 72 71 cd bd c1 3b da bd 6c 47 ef 3d 6a a9 fd bd
       -0.100314036 -0.106559284 0.116835445 -0.12385829
000090 72 6a 8d 3d e9 9c 1b be 78 cc 5d 3d 9c f6 7c 3d
       0.069050685 -0.15196575 0.054150075 0.061758623
0000a0 0f 31 74 3d 64 ed 07 3e f0 0e d4 3d d6 db 5e be
       0.0596171 0.13274151 0.103544116 -0.21763548
0000b0 09 a2 fa bc 44 8b 31 bd 08 45 9d 3d 0f bb 9e bd
       -0.030594843 -0.043345705 0.07679182 -0.07750522
0000c0 f8 ab 8b bd 39 b4 ff 3c a5 bb a4 bd 7e 49 57 3b
       -0.0681991 0.031213867 -0.08043603 0.0032850201
0000d0 bc 93 7b be 76 1f a8 3a bd 92 53 bd da e1 29 3d
       -0.24568075 0.0012826759 -0.051653612 0.041475154
0000e0 36 db 6e 3d f5 fa 06 3e a1 9d eb bd 53 e8 03 3e
       0.058314525 0.1318167 -0.11504675 0.12881593
0000f0 27 7e 38 3d f2 3d 85 bd a6 2d b9 3d e0 fe 8c 3d
       0.045042183 -0.06505956 0.0904191 0.06884551
000100 93 0b 3c 3e 05 19 e8 3d d7 a8 cd bc b8 e5 84 ba
       0.1836379 0.11332897 -0.025104923 -0.0010139262
000110 13 bc d4 bd 6f d5 00 be 27 74 12 be 21 ee c6 bd
       -0.10387435 -0.12581418 -0.14302121 -0.09713388
000120 15 b6 29 bd 0e 97 7f bd c5 d7 5f bc 1e 6c ea bc
       -0.041433413 -0.062399916 -0.013662283 -0.028616007
000130 aa 11 25 be ed 3f c6 bd 26 84 c6 bd 9f 99 72 be
       -0.1612002 -0.096801616 -0.09693174 -0.23691414
000140 c9 ad dd bd 72 50 11 3e 68 7a fb 3d da 99 84 3d
       -0.108241625 0.14190844 0.122792065 0.06474657
000150 a2 67 a9 3e 42 00 21 be 21 a3 55 be 1c 23 d2 3d
       0.33086878 -0.15722755 -0.2086301 0.10260603
000160 c6 6b f0 bb 20 87 70 be 2d 30 70 bc 9e 97 d1 bd
       -0.0073370663 -0.23489046 -0.0146599235 -0.10233997
000170 eb e3 dd bd e4 aa 17 3d f3 bd 1e be 6d 2d 6e 3d
       -0.108344875 0.03702821 -0.15502147 0.05814879
000180 33 a9 e5 bd 2a 3f d9 bd e7 0d c9 3c 23 6d 6c 3d
       -0.11213913 -0.10607751 0.024542762 0.05772127
000190 b8 23 86 bd 81 fb 91 3c 23 e8 e3 bd 7e b1 26 be
       -0.065497816 0.017820122 -0.11128261 -0.16278645
0001a0 60 31 c0 bc 9a 82 e0 3d 5b 39 67 3e 3c 37 2f be
       -0.023461044 0.1096241 0.22580473 -0.17110914
0001b0 4f fc 2d be 86 53 88 bd 05 20 c8 bd 82 75 5d bd
       -0.1699078 -0.06656556 -0.09771732 -0.054067142
0001c0 0e 69 64 be 42 c6 08 be 3e 95 77 bc 84 96 08 3d
       -0.223057 -0.1335688 -0.015111266 0.033346668
0001d0 c1 84 3f be cb 46 1e be 2f 41 2d be d7 26 b0 3d
       -0.18702985 -0.15456693 -0.16919397 0.08601158
0001e0 30 e4 c2 bd 6f 96 0b be ae 8f bd 3d 20 44 2f bd
       -0.095161796 -0.13631605 0.0925592 -0.04278958
0001f0 e6 8b c1 3d 87 0f b3 3d bb 64 b1 bd e5 9a 04 bd
       0.09450512 0.08743196 -0.08661791 -0.03237428
000200 70 95 6b be 84 be 33 be e6 59 c9 bd 20 10 ba be
       -0.23006225 -0.17553145 -0.098316 -0.36340427
000210 05 1e e2 3d 75 1e ac 3d 5d 1a 80 3d eb 99 90 3c
       0.11040882 0.08404247 0.062550284 0.017651519
000220 31 2a b5 3d b7 06 aa 3d 89 13 38 bd 00 2a 8f 3d
       0.08845938 0.08302062 -0.044940505 0.06990433
000230 28 b9 6b 3d b9 d6 1d be 88 7e f2 bd bc af cd bd
       0.057549626 -0.15413941 -0.1184054 -0.10043284
000240 6d ee 89 bd 5e 39 8a bd 83 75 18 be a7 15 01 bd
       -0.06734929 -0.06749223 -0.14888577 -0.03151479
000250 4d b5 07 be c3 0b 1b be bf c5 05 3e ff b9 26 bd
       -0.13252755 -0.15141205 0.13063715 -0.040704723
000260 f2 09 78 be 2f dc f0 3c 58 19 95 bc 88 89 48 be
       -0.24222544 0.029401867 -0.018200561 -0.19583714
000270 21 64 b2 bd 0b 40 f6 3d cd a7 a0 3d 0b 8e 1a 3e
       -0.08710504 0.12023934 0.078445055 0.15093248
000280 15 48 ab 3d 72 67 ea bc ad 4e ac bd 5f 59 1f bb
       0.08363358 -0.02861378 -0.08413444 -0.0024314744
000290 ba c9 31 bd 67 05 05 be 52 61 9d 3c 27 94 14 be
       -0.043405272 -0.12990342 0.019211445 -0.1450964
0002a0 e6 c1 13 bd 75 61 99 be b3 18 d0 bd b4 ef b2 bd
       -0.036073588 -0.29957166 -0.10160961 -0.08737126
0002b0 63 5e e0 3d ba 9d e9 3d ee 36 da bb e5 23 89 3c
       0.10955503 0.11407037 -0.00665938 0.016740749
0002c0 0a 11 76 be ab 50 8d be 6a 11 43 3e 94 29 d2 be
       -0.24029937 -0.27600607 0.19049612 -0.41047347
0002d0 0e 31 4c be 6d c5 f1 bd fd 01 2f 3d 23 c5 16 3e
       -0.19940588 -0.11805234 0.042726506 0.14723639
0002e0 50 7a 1a be fb dc 5d 3d 62 a8 7e ba a7 e7 4f 3d
       -0.15085721 0.05416582 -0.0009714422 0.05075803
0002f0 ee 61 52 3c 06 de 28 be 5f 4f de bc 5e 5e c8 bc
       0.012840731 -0.16490945 -0.027137456 -0.02445906
000300 d2 a7 d6 3d 99 c1 09 bd 11 b3 0c 3d e4 c6 98 3d
       0.10481228 -0.033631895 0.03435046 0.074598104
000310 46 48 88 3d bb 9b 9d 3e 9d 07 8c 3d 0b 47 48 3d
       0.0665441 0.30782875 0.068373896 0.048895877
000320 a5 00 d4 bd d5 fb f4 3d 8c ac 32 3d 56 ce f7 3c
       -0.103516854 0.11962096 0.043621585 0.030249756
000330 2f 0b 60 bd 5f 27 c5 3c d0 c2 f7 bd 75 0b 07 be
       -0.054698166 0.024066625 -0.120977044 -0.13187964
000340 a3 95 c8 3d 08 e1 b2 bd d9 27 00 be 84 c4 fc 3c
       0.09794166 -0.087343276 -0.125152 0.030855425
000350 2c e6 75 3d 5b 9f e7 bd 97 41 09 3e e1 32 9c bd
       0.060033962 -0.113096915 0.13403927 -0.07626892
000360 67 f7 9c bc 57 de 31 be ab 67 4f bd 9f 1b 87 3b
       -0.01916094 -0.17369972 -0.050635975 0.0041231657
000370 ac 77 9a bd 1f ae 08 be 03 de b2 bd 79 21 01 3e
       -0.07542357 -0.13347672 -0.087337516 0.12610425
000380 0e d5 ae 3d f8 bf cd 3d 29 f6 53 3d 21 8d d0 bd
       0.08536731 0.10046381 0.05174843 -0.10183168
000390 c5 0a 9f 3c db 1f a8 3d 9b b3 55 be 8f 91 ad bc
       0.019414315 0.08209201 -0.20869295 -0.021187572
0003a0 cf 67 bf bc f9 a0 2d 3e 6a f5 55 bd b1 6b 22 bd
       -0.02336493 0.16955937 -0.052236 -0.039653484
0003b0 2f f0 16 bd f4 b0 f9 bc 30 7b d1 bd f9 da 44 3c
       -0.03685015 -0.030479886 -0.10228574 0.012015098
0003c0 3d ca b1 bd 4e 2b 54 be b3 44 0e bd 32 61 04 be
       -0.08681152 -0.20719644 -0.034733485 -0.12927702
0003d0 67 dc 51 3c 4f e4 a6 3c 4f b5 44 bd d5 1f 66 bd
       0.012808896 0.020372538 -0.04802447 -0.0561827
0003e0 41 f9 a4 bd e3 7e fc 3c 7b 90 3b be 25 6b a4 bd
       -0.08055354 0.030822223 -0.18316834 -0.08028249
0003f0 c7 7d 91 bd 36 1a 49 3d 38 5b 00 be b8 55 df bd
       -0.07104068 0.049097262 -0.12534797 -0.109050214

fc3.bias f4 [10]
000000 ca 6e 03 bd e9 56 14 be 64 d6 9b bb d8 29 49 3c
       -0.03208808 -0.14486279 -0.004755782 0.012278043
000010 77 27 3c be d9 e2 29 bd fe 8a d0 3d b6 a5 83 bb
       -0.1837443 -0.041476104 0.10182761 -0.004017557
000020 e7 e8 e5 bb a2 8e 0b bd
       -0.0070162895 -0.034071572
