HW1_Split_nb/checkpoints/model_origin_13.pt (torch, 250600 bytes, 10 tensors)

conv1.weight f4 [6, 1, 5, 5]
000000 ff ab fe bc 53 b3 95 3e 16 5b 7c be f8 a5 9b 3e
       -0.031087874 0.29238376 -0.24644122 0.30400062
000010 44 df 4f 3d 19 1b 7a 3d b1 d1 aa 3e a5 54 12 3e
       0.050750032 0.061061 0.33363107 0.14290102
000020 f1 e6 8e 3e 93 33 42 3e d0 65 65 be 7c 40 84 3c
       0.2791057 0.18964987 -0.2240212 0.01614403
000030 7a 95 7f be 50 40 99 3e 8f cc b2 3e 25 2f 5a be
       -0.24959365 0.2993188 0.3492169 -0.21307047
000040 ca c7 db be 37 0c 01 bf 76 91 48 3e 24 05 c3 3d
       -0.42925864 -0.50409263 0.19586739 0.09522465
000050 fb 6d be bd b1 07 ca be e0 3d 02 bf 6a 20 78 3e
       -0.09298321 -0.39458993 -0.50875664 0.24231115
000060 40 5b ba bd 96 bd 08 3e b0 3d 8d 3e 96 d9 7b 3e
       -0.09099436 0.13353571 0.27586126 0.24594721
000070 12 96 10 bf af 33 b1 be 4b dc 46 be bb f2 94 3e
       -0.5647899 -0.34609744 -0.19419973 0.2909144
000080 4e 23 1a 3f e2 d3 ae be 27 33 08 bf 54 72 dc 3c
       0.6021012 -0.3414603 -0.5320305 0.026909985
000090 a6 0f e7 3d 23 72 9a 3e 03 e0 8a be 05 7f 81 be
       0.112822816 0.30165204 -0.27124032 -0.2529222
0000a0 67 0b a5 be 28 91 c3 3e 1f 17 e1 3e d8 7f 7b be
       -0.32235262 0.38196683 0.43962952 -0.24560487
0000b0 f4 4f 31 be 15 b5 00 be 0c e8 2f 3e 75 5f ce 3e
       -0.17315656 -0.12569077 0.17178363 0.40307203
0000c0 23 2a 4b be 00 b7 86 3d 22 31 c9 be 7c cb 7a bd
       -0.19840293 0.06577873 -0.39295298 -0.061229214
0000d0 c6 50 a2 be bf c6 65 be b0 e0 3f be 59 43 96 be
       -0.3170225 -0.22439097 -0.18738055 -0.29348257
0000e0 e4 9d 45 3e 51 b6 5b 3e f5 83 79 3e 5b 11 11 3e
       0.19298512 0.21456267 0.24366744 0.14166777
0000f0 23 47 56 3e 4d 96 bc 3e 83 0b 9c 3e c4 00 ca 3e
       0.20925574 0.3683342 0.30477533 0.3945371
000100 27 ae 25 3d 38 fd a1 3e 91 fb c9 3d 4b cb 6b 3c
       0.040449288 0.31638503 0.098624356 0.014391731
000110 f0 9d ec 3c 2e 3f 8f be 03 9e 6c 3d df 1f 3c be
       0.028883904 -0.2797789 0.05776788 -0.18371533
000120 29 2e 59 be 81 2f eb be f3 5c 30 be f1 91 90 be
       -0.21209015 -0.4593468 -0.17222957 -0.28236344
000130 b6 84 2d 3e 5d 87 31 be d5 0d a5 3d eb b6 80 be
       0.16945156 -0.17336793 0.08059279 -0.25139555
000140 d6 e1 9f bd 11 ce 78 bc 76 5a de 3d e1 d5 f7 3c
       -0.07806747 -0.015185849 0.10857098 0.030253353
000150 99 c6 e6 bd ef 3d ea bb cb 5f 8c 3e 16 f6 61 3d
       -0.11268348 -0.0071484963 0.27416834 0.055166326
000160 07 5f 81 3e 48 ee 0b bd 36 57 10 3e bf c3 c9 3e
       0.25267813 -0.03416279 0.14095768 0.39407155
000170 1a 7d cb bd 59 0f 61 bd c1 1f 56 3d 67 59 92 3e
       -0.099359706 -0.054946277 0.052276377 0.28583834
000180 57 44 9b 3e 95 bb 53 bd 25 d5 36 be 22 20 e7 bd
       0.30325577 -0.051692564 -0.17854746 -0.11285426
000190 0d 42 2d 3d 6c ee 8d bc 27 b7 d0 bd 34 b0 b3 bd
       0.04229932 -0.017325602 -0.101911835 -0.087738425
0001a0 df 8a 05 be 15 de 81 3d 2d 04 5d 3e c4 c5 4e bd
       -0.13041256 0.06341187 0.21583624 -0.050481573
0001b0 35 22 75 bd 26 87 0c be b6 fe 84 3e 02 1d e0 3e
       -0.059847075 -0.1372343 0.2597558 0.4377213
0001c0 70 51 18 3e 9a 25 93 bd bc fb 7a be 61 82 43 3e
       0.14874816 -0.07184906 -0.24510092 0.19092704
0001d0 9c 9e ad 3e 83 c5 02 be b5 65 36 bd 67 d2 e7 be
       0.33910072 -0.12770657 -0.04453059 -0.45277712
0001e0 9f f8 26 3e fa 2a b5 bd c8 9f 0b be e0 e9 97 be
       0.16305779 -0.08846088 -0.1363517 -0.2967062
0001f0 14 1f ee bd f3 8e f8 bd 8c 17 d7 be 29 02 42 3c
       -0.116270214 -0.121366404 -0.42010152 0.011841335
000200 41 f8 29 bf 76 93 fc be 08 69 3f 3e bf be eb be
       -0.6639443 -0.49331254 0.1869241 -0.46043965
000210 53 b7 40 c0 dd b1 56 c0 a2 f2 a6 be 91 21 6c 3e
       -3.0111892 -3.354606 -0.3260699 0.2305968
000220 35 9c 6b be 11 35 01 c0 13 ba b7 bf 06 0b ec 3e
       -0.23008807 -2.018864 -1.435366 0.4610216
000230 fb 60 cb 3e a1 ce b3 3e d4 0f 42 3c 56 28 9d bc
       0.39722428 0.35118583 0.011844594 -0.019184273
000240 ec d8 b9 3e 7b 62 aa 3e 47 8a 70 3e 33 9e 4a 3e
       0.3629831 0.3327826 0.23490249 0.1978691
000250 fa f0 96 bd 98 fb 83 3d
       -0.073701814 0.06444472

conv1.bias f4 [6]
000000 3a 34 65 3d 27 16 47 bd 09 11 c0 bd 89 4b 50 be
       0.05595801 -0.04860511 -0.09378249 -0.20341314
000010 73 51 3b 3e f5 5b d8 3e
       0.18292789 0.42257658

conv2.weight f4 [16, 6, 5, 5]
000000 4f de 14 3e 1b ce 6f bd b3 76 36 bf aa 61 c6 be
       0.14537929 -0.058546167 -0.7127487 -0.38746387
000010 4e e5 13 3e ce 0a 96 bd 81 56 76 be f2 0d 9d be
       0.14442942 -0.073262796 -0.24056436 -0.30674702
000020 b3 94 12 be 18 96 8d 3d a8 67 cf bd 05 cd ad bd
       -0.14314537 0.06913394 -0.10127193 -0.0848637
000030 42 a2 ac bd 1a aa 1e 3e 2d c0 a2 3e b9 1e 30 be
       -0.08429386 0.15494576 0.31787243 -0.1719922
000040 e9 15 32 be 7e d2 6a be 55 4f 3b bb ea b4 46 3e
       -0.1739117 -0.22931859 -0.002858122 0.1940495
000050 1c c7 bd bd cb b0 8d 3d 7f 64 b5 bc 01 bb 0f 3d
       -0.09266493 0.06918486 -0.022142647 0.03509045
000060 48 60 b3 3d ad 6b 03 3f bc 18 86 bf e7 59 35 bf
       0.087585986 0.51336175 -1.0476298 -0.70840305
000070 4e fa 4d be d2 51 6b 3d 74 72 30 be 9a fa 6e bf
       -0.20115015 0.057451077 -0.1723116 -0.9335114
000080 bf 13 6d bf 53 56 87 bc aa 35 75 3e 16 ac 18 bf
       -0.92608255 -0.016520655 0.23946252 -0.5963758
000090 7a 65 6c bf e7 96 8d bf 78 68 c5 3c d7 bd 70 3e
       -0.9234234 -1.1061677 0.024097666 0.23509918
0000a0 dc fc 8b be fd bd 64 bf 5b c9 aa bf 50 69 e3 bd
       -0.27341354 -0.893524 -1.3342699 -0.11104071
0000b0 83 f9 8b 3d 09 47 c6 bd a5 36 fe be ef 5f 5d bf
       0.068347 -0.09681518 -0.49651065 -0.8647451
0000c0 a8 fc 82 be c9 a8 9b bd 11 f0 80 bd 26 d1 49 be
       -0.25583386 -0.076005526 -0.06295789 -0.1970869
0000d0 96 4a e4 bd 52 0f 98 3d 1e 9a d1 3d 8a 2f 0e be
       -0.11147039 0.07424797 0.10234474 -0.13885322
0000e0 6d 56 19 be a6 91 ad 3c 3a e1 0a 3e 81 44 61 3d
       -0.14974375 0.021187615 0.1356248 0.05499697
0000f0 11 03 4b be 11 8a 7c 3e bb 99 c8 3d ba da 03 3e
       -0.19825388 0.24662043 0.09794947 0.12876406
000100 7f f1 14 3e 21 07 d1 bd 6e 4f 80 bc 32 22 e8 3d
       0.14545248 -0.10206438 -0.015662875 0.11334647
000110 83 9e 1f 3e 84 db 71 3c 89 2d f2 3d f5 44 e0 3d
       0.15587811 0.014761809 0.118250914 0.109506525
000120 8a 88 6d 3e 85 fb 3c 3e 40 54 ba be 21 74 a9 be
       0.23196617 0.18455322 -0.36392403 -0.33096412
000130 50 a1 77 be 1b 53 74 3d 96 f7 b5 3d f9 8b 09 3e
       -0.2418263 0.059649568 0.08885114 0.13432302
000140 0d 69 86 be 05 d1 f2 bd ca fe ed 3d 53 97 16 3e
       -0.26252022 -0.118562736 0.11620863 0.14706163
000150 7b 2f 18 3e 29 68 a8 bd e1 99 0f bd d5 d8 87 3d
       0.14861862 -0.08222992 -0.03505886 0.06633154
000160 33 e2 bb 3d d4 ef 32 3e a7 88 09 3d cd 39 6b 3d
       0.091740035 0.174743 0.033577587 0.05742817
000170 48 70 d6 3d 67 a0 85 3d 76 ab 27 3d 88 1b 43 3d
       0.10470635 0.06524735 0.040935002 0.047633678
000180 69 25 06 3e a2 29 07 3e e4 70 61 3d f3 f6 2b be
       0.13100208 0.13199475 0.0550393 -0.16793422
000190 5d 98 45 3e bf 1e b6 bd 94 f6 43 bd 53 a3 a6 3d
       0.19296403 -0.08892583 -0.047842577 0.081366204
0001a0 94 4c 82 bd c0 d1 b9 3d 99 80 fc 3c 6c b8 2e 3c
       -0.06362262 0.0907321 0.030823039 0.010664087
0001b0 de 09 63 3e 08 3f 81 3c 29 01 12 be 6f 99 80 bd
       0.22171733 0.015777126 -0.14258255 -0.06279265
0001c0 2d 26 d5 be 9d 7f dc 3d 33 05 2e 3e 28 f4 e1 bb
       -0.41630688 0.10766528 0.16994171 -0.006895561
0001d0 2f 2f c6 be b4 51 c1 be 0f 9e 15 3e 3e 8f 0e 3e
       -0.38707873 -0.37757647 0.14611076 0.1392183
0001e0 d4 d6 07 3e 79 8b e2 ba 2d 6c 0f 3d f4 31 86 3e
       0.13265544 -0.0017283998 0.035015274 0.26209986
0001f0 b5 81 2a 3e ca e1 72 3f e8 b4 b0 3e 5d 0b 0e bf
       0.16651042 0.94875777 0.3451302 -0.5548609
000200 87 70 1a bf d1 15 bf bd ba 61 e7 3e 17 90 03 3e
       -0.60327953 -0.09330333 0.45191747 0.12847935
000210 bf db 9d be 5d fc 9f be a7 37 96 3c 65 b8 00 3f
       -0.30831715 -0.31247225 0.018337084 0.50281364
000220 dd b7 9d 3d 0a ba a6 bd c2 ed 86 be f9 28 c5 3d
       0.07701085 -0.08140953 -0.2635327 0.096269555
000230 30 1d 8c 3e a2 53 9f 3d 09 9f 89 bc 51 9d de be
       0.27366018 0.077796236 -0.016799467 -0.43479398
000240 66 f1 06 be 76 c5 f9 bd 14 9d 48 bf f7 bb 09 bf
       -0.13178024 -0.12195866 -0.7836468 -0.53802437
000250 ee a2 b9 3e 7a 3e 32 3e 4b f5 39 3d ba 4a 12 3d
       0.36257118 0.17406645 0.045399945 0.035715796
000260 fd bd da 3d 48 e9 cd 3d 45 64 6f be d4 ee 45 be
       0.10680769 0.100542605 -0.23378094 -0.19329387
000270 21 98 a6 3d b8 de 93 3e 17 f7 04 3f 69 a6 2d be
       0.08134485 0.28880858 0.5193953 -0.16958012
000280 05 85 96 be fd e2 0e bf 4d a3 af bd 6f 74 07 3f
       -0.2939836 -0.55815107 -0.08576069 0.5291204
000290 3f 49 d8 3e 68 5b 9d bd 5f c8 a4 be 63 97 d2 bd
       0.42243382 -0.0768345 -0.3218412 -0.10282781
0002a0 dd ce 09 3e 9b e2 93 bc 8a 00 50 3e 42 b8 17 3d
       0.13457818 -0.01805239 0.20312706 0.037040956
0002b0 78 de 25 3c 0c de 84 3d cf 6e 63 be f4 98 fa bd
       0.010123841 0.064876646 -0.22210239 -0.12236205
0002c0 45 62 50 bf 9b 0e 70 bd 63 7f 94 bd 69 6d 59 3d
       -0.8139995 -0.05860768 -0.072508596 0.053082857
0002d0 5d e6 64 be 9a ee 9b be ac 4a 2b bc 58 2a 01 3d
       -0.22353502 -0.30455476 -0.010454815 0.031534523
0002e0 e2 a2 06 3e 91 87 0b bd f0 8e 9a 3e 97 af 9c 3e
       0.13148072 -0.034064833 0.30187178 0.30602714
0002f0 15 df 22 3d f3 3d 29 3e 35 0c dd 3d 4c 21 f5 3e
       0.03976353 0.16527538 0.10793344 0.47876966
000300 a6 44 f4 3e f5 a3 3f 3e e0 33 3e 3e c3 86 97 bd
       0.47708625 0.18714888 0.18574476 -0.07398751
000310 07 1e bf 3e 00 46 21 3f 1d df 0a be 5f 79 a0 3a
       0.37327597 0.62997437 -0.13561673 0.0012243203
000320 3f e2 28 bc 18 a7 9e 3b d3 3b 4c 3d 30 45 97 be
       -0.0103078475 0.0048416965 0.04986174 -0.29544973
000330 16 70 15 be 08 de fc 3e 04 d2 7a bc 47 3a 07 be
       -0.14593539 0.49388146 -0.015308861 -0.13205825
000340 13 47 38 be db bd bd 3d 1a 35 9e 3d b8 3c 3c bd
       -0.17995863 0.09264728 0.07724972 -0.045956343
000350 89 da 1c be 16 94 9c bd b4 07 6f 3d b8 4a 1f 3e
       -0.1531774 -0.07645433 0.058356956 0.15555847
000360 47 01 03 3e 5e 2e 7f bd bd e2 38 bd c6 19 c8 bd
       0.12793456 -0.06230008 -0.04513811 -0.09770541
000370 f9 ae e9 3e 36 d0 75 3e 8a d5 88 bd 2e c5 d4 3c
       0.45641306 0.24005207 -0.06681354 0.025972929
000380 34 67 a9 3d 9a 2b 0a be 8f 85 80 be 5c 50 ba bd
       0.082716376 -0.13493195 -0.25101897 -0.090973586
000390 56 17 8f bd db aa a2 3c a0 c6 ce bd 9a 38 34 be
       -0.06986873 0.01985686 -0.100964785 -0.17599717
0003a0 10 75 6f be 85 55 f4 bc 42 22 0d 3e 84 c8 f9 bd
       -0.233845 -0.029825935 0.137826 -0.121964484
0003b0 47 ce 93 bc de 6a 84 be 99 26 75 bd d7 00 a7 3c
       -0.018042697 -0.25862783 -0.059851263 0.020386143
0003c0 a3 5c fe 3c f6 90 2e 3e fe b8 60 bc 44 3f 58 bc
       0.031050032 0.17047486 -0.013715981 -0.013198677
0003d0 ae 8e 02 3c b3 18 f9 3d ee 9b c6 3d f3 bf 3a bc
       0.007968588 0.12162914 0.0969771 -0.011398303
0003e0 33 dd 10 bd 47 21 bd bd 80 79 cb 3c 62 bf 66 be
       -0.035367202 -0.09234863 0.02483821 -0.22533944
0003f0 04 e7 8f bc 92 bd 33 3d 33 ac 9c bd 44 f5 c6 3c
       -0.017566212 0.04388196 -0.07650032 0.024286874

conv2.bias f4 [16]
000000 f9 27 93 3e 35 da d0 bd 49 7f 6a bd 68 96 ea 3d
       0.28741434 -0.1019787 -0.057250295 0.11454469
000010 a2 af 2e 3e e6 aa 06 3e 44 11 7e 3e 5e b2 f7 3d
       0.17059186 0.1315113 0.24811274 0.12094568
000020 fe 61 dd bd 1b 3b cf bb ab a2 18 be 3c 25 d7 3e
       -0.10809706 -0.0063241846 -0.14905803 0.42020595
000030 bf 98 4f bd 1e 9d bf bd 04 e5 63 3e 44 b1 cd 3e
       -0.05068278 -0.093561396 0.22255331 0.40174305

fc1.weight f4 [120, 400]
000000 84 40 ad bd dd b9 7b bd b1 6a 42 be 11 1b 88 bc
       -0.08459571 -0.06145655 -0.18986012 -0.016614469
000010 62 bc 58 3e 54 81 2e be 23 2c d5 3d a3 31 96 be
       0.21165612 -0.17041522 0.10408809 -0.29334745
000020 57 d3 23 3d 09 b9 fc bd 57 43 d0 3c 38 6a e6 bb
       0.03999647 -0.1233998 0.025422735 -0.007031705
000030 6e 70 5f be 52 b0 f4 3d 96 66 ad be fa d7 90 3d
       -0.21820232 0.11947693 -0.3386733 0.07072444
000040 ca 6c 14 be 6a 83 89 bd 2b 7c b3 3d 37 d4 2e be
       -0.14494625 -0.06714518 0.087639175 -0.17073141
000050 fc 9a 19 3e 17 48 56 be d1 40 ff bd 01 3e 52 be
       0.15000528 -0.20925938 -0.124635346 -0.20531465
000060 f3 75 eb be f6 87 d1 3d cd a8 de bd 6a 49 a3 3e
       -0.45988426 0.102310106 -0.1087204 0.31891948
000070 42 2a 61 3d 50 bc f0 be c4 bf 18 be 84 6a 1e 3d
       0.05497194 -0.4701867 -0.14916903 0.0386758
000080 18 56 a5 3e f0 b3 77 3d 2c d1 3f bb 59 75 f0 bd
       0.32292247 0.060474336 -0.0029268963 -0.11741132
000090 7d c8 51 be eb a6 e7 3e e8 97 3a 3d 8a 12 62 3e
       -0.20486636 0.45244536 0.045555025 0.22077385
0000a0 83 58 46 3e 66 bb 1d be bc dd 04 3e 2c 17 76 bb
       0.19369702 -0.15403518 0.1297521 -0.0037550433
0000b0 91 76 1d be e4 0f 61 3e 7a d6 71 bd f5 81 9b 3e
       -0.1537726 0.21978718 -0.05904243 0.30372587
0000c0 2c a8 28 bd ec 0a 04 be d1 c2 f2 bc 7a ae bc 3b
       -0.041176006 -0.12894791 -0.029633911 0.005758104
0000d0 15 05 5b 3d 98 16 24 3d f7 6d 67 bd 48 9f ef bb
       0.053471643 0.04006061 -0.056501355 -0.007312689
0000e0 8c b1 6f 3c b7 4b 63 3b d8 51 80 bd 32 55 68 bd
       0.014629733 0.003468258 -0.062656105 -0.056721874
0000f0 b9 7c ed ba a4 4a 47 3d a8 8f 33 bd c0 55 35 bd
       -0.0018118835 0.048655167 -0.043838173 -0.04427123
000100 08 ce c2 bc b3 57 95 3d 34 b8 95 3d c0 2e 88 3d
       -0.023779884 0.07292118 0.073105246 0.06649542
000110 29 2f 77 bd 0e 7a 2c bd f6 64 5a 3c a7 bc 5e 3c
       -0.06034771 -0.042108588 0.013329735 0.013594783
000120 ed be 51 3c 40 31 86 bc e2 e1 01 bd d2 23 53 3e
       0.012801868 -0.016380906 -0.03170956 0.20619133
000130 72 d9 44 3e 13 a0 25 3d 47 dc 4a 3d c6 f6 86 3e
       0.19223574 0.04043586 0.04952648 0.26360148
000140 fb 9c 47 3c 1c b3 c4 3d 34 9c b9 3d ec 73 1c be
       0.012183423 0.09604475 0.090629965 -0.15278596
000150 30 9c e2 3d 29 b3 21 bd 65 69 be 3d 63 49 63 bc
       0.11064947 -0.0394775 0.09297446 -0.013872477
000160 cb bd b8 bd 15 5e be 3d 99 37 27 3d c6 97 c7 3d
       -0.09020575 0.092952885 0.040824506 0.09745745
000170 b8 9f fa 3d ab ea 9f 3d 6c 39 43 3e 67 4b 6b bd
       0.12237495 0.07808431 0.19064873 -0.057444956
000180 ee f6 ce 3d 2a 95 3b bd 03 2e 9d 3a b5 ff 8a bc
       0.10105692 -0.04579655 0.0011991862 -0.016967634
000190 01 87 03 be 0d 52 05 bc 60 ad 6a 3c d1 00 f3 bd
       -0.12844469 -0.008137238 0.014323562 -0.1186539
0001a0 b3 e2 31 be ef ae 8c be 28 3c d0 3d bb c5 11 3d
       -0.17371635 -0.27477214 0.10167724 0.03558896
0001b0 2e 06 51 bd 9f c2 be be 2a ba fd be ab a7 8f 3d
       -0.051031284 -0.3725786 -0.49556094 0.07014402
0001c0 1f ed af 3e 14 31 e5 3e 2b 9a 3e be 37 79 af be
       0.34360597 0.44764006 -0.18613498 -0.34272167
0001d0 e9 da 9e bc e7 b2 e0 3d ab b0 81 3e 0c 31 c3 be
       -0.019391494 0.10971623 0.253301 -0.38123357
0001e0 55 80 1c bf 16 e3 ba 3c a2 1d cd be cc 2f 8f be
       -0.6113332 0.022813361 -0.4006167 -0.27966154
0001f0 63 72 77 bd 9c ec 17 3e 84 c8 bb be 86 51 26 3d
       -0.060411822 0.14836353 -0.3667642 0.04060509
000200 04 eb 6f be ca 12 68 be bf 37 f2 3d e9 ac 60 bd
       -0.23429495 -0.22663417 0.11827039 -0.0548524
000210 ed 3e 23 3e ba 97 f1 3c f5 a1 9f bd 5c e7 9c bd
       0.15941973 0.029491294 -0.07794563 -0.07661316
000220 07 1b eb 3d fd 12 75 3e 76 68 35 3e 7f 03 84 be
       0.114797644 0.23933025 0.1771563 -0.25783917
000230 95 1d e1 be ac a8 54 be 66 9e 83 3e fa a2 a0 3e
       -0.43967882 -0.20767468 0.25706786 0.3137434
000240 c5 9b 1a be a7 2d 13 be 38 c8 c9 be 70 e3 64 be
       -0.15098484 -0.14372884 -0.39410567 -0.22352386
000250 98 25 c2 3e d5 06 0c bf 9b 9b 39 3e b8 9d bf 3d
       0.37919307 -0.54697925 0.18125765 0.09356254
000260 40 f8 a7 bd ae ce 06 3e 98 06 07 be a0 1d 3c 3c
       -0.08201647 0.1316478 -0.13186109 0.0114816725
000270 4a 05 ad bd 1e ce bc be 3b b8 e1 bd d6 3f 8f be
       -0.084482744 -0.36876005 -0.11021467 -0.2797839
000280 47 64 56 be bf 51 3c 3b dd 9a 82 be 0c 77 66 3d
       -0.2093669 0.0028735248 -0.25508776 0.056265876
000290 12 de 03 bf 58 aa 20 be e2 52 c1 bd 73 67 de 3c
       -0.5151073 -0.15689981 -0.09439637 0.027148938
0002a0 cf 6f 48 3e 0a 9d 16 bf e2 6f 83 bd 1b c6 2a be
       0.19573902 -0.5883337 -0.06417824 -0.16677134
0002b0 c8 72 54 3d 82 ca b7 3e 6e d3 e1 be 7f 87 f9 3d
       0.051867276 0.3589669 -0.4410662 0.12184047
0002c0 80 32 ec 3d 0f a4 53 bd 8f dc e8 bd b5 39 22 be
       0.115330696 -0.05167013 -0.11370193 -0.15842326
0002d0 72 ce c2 be 90 0f 24 3e 02 68 28 be 8d 65 37 bd
       -0.3804813 0.16021562 -0.16445926 -0.04477458
0002e0 6f f3 67 3d 92 67 d0 bc 5a f6 8c 3e 3a 5f 40 bd
       0.05662864 -0.025440011 0.275317 -0.046965815
0002f0 60 de 14 be 13 a9 df 3d 59 e3 d2 bb f3 58 f0 bd
       -0.14537954 0.1092092 -0.0064357934 -0.11735716
000300 26 f7 e5 bd 28 72 81 be 71 44 5c 3d be e4 06 bf
       -0.112287804 -0.25282407 0.05377621 -0.5269278
000310 d6 bd d0 be eb 51 97 3d a5 57 93 be 32 a5 79 be
       -0.40769833 0.073886715 -0.28777805 -0.24379423
000320 f3 c5 ee 3c 60 98 c0 bc 40 9e 92 3b 6d 04 1f bc
       0.029147124 -0.023510158 0.0044744313 -0.009705645
000330 83 27 4f bd 67 d8 7c bc c2 64 3f bd bd 2b cb 3c
       -0.05057479 -0.015432454 -0.04672695 0.02480113
000340 03 a6 e2 3c 0f d7 3d bd 0d 8b e4 3b 5a 34 5c 3c
       0.027667051 -0.046347674 0.006974584 0.013440216
000350 c7 36 11 3d e5 02 74 bc 3d 61 dd bc 0a 58 1e bd
       0.03545263 -0.014893268 -0.027023906 -0.03865818
000360 fa 7e 2a 3d cf 88 09 bd c0 4d f1 bb d0 70 19 3d
       0.041625 -0.033577736 -0.007364005 0.037461102
000370 1d 1d fc bc 13 18 6d 3c 0a 4b 84 bc c5 2b 42 bd
       -0.030775601 0.014471072 -0.016149063 -0.047405023
000380 f3 df 94 bc fc 27 99 bd 96 55 8f 3d 64 fe 6d bc
       -0.018173194 -0.074783295 0.06998746 -0.0145259835
000390 43 1e 1a 3e 22 df 8f bc bc 2c 92 3d 7d d9 08 3e
       0.15050606 -0.017562453 0.07137439 0.13364215
0003a0 bc 7e 6a be 78 93 ef 3d 02 51 58 be c2 76 3f 3e
       -0.22899908 0.11698049 -0.21124652 0.18697646
0003b0 20 d9 4c be 2a af c8 3c 79 35 22 be a3 ff 82 be
       -0.20004702 0.024497587 -0.1584071 -0.2558566
0003c0 99 45 4e 3e 92 62 85 be 13 15 ab bd 2b 4f f8 bd
       0.20143737 -0.26051766 -0.08353629 -0.12124475
0003d0 fc 7d 82 be 68 fd 92 3e 7a 25 86 be 72 7f ba be
       -0.25486743 0.2870896 -0.26200467 -0.36425358
0003e0 60 18 65 3d 44 8b 95 be aa 92 8b 3d 47 11 e8 3e
       0.05593145 -0.29207814 0.06815083 0.45325682
0003f0 11 0f d6 bd d1 f2 22 be 8f b7 5f be ca 6f 12 3e
       -0.104520924 -0.1591294 -0.21847366 0.14300457

fc1.bias f4 [120]
000000 4e 05 28 3d 0a ec 2c 3e 94 5e 05 3e 9b 03 be 3d
       0.041020684 0.16886917 0.1302436 0.092780314
000010 4b bf 73 bd ae aa 4c bd 0b 75 fd bc 05 b2 c8 bc
       -0.059508603 -0.04996746 -0.0309396 -0.024498949
000020 ff d2 8a bd 6c b2 9a bc dd 9c d2 bc 63 cd 44 bd
       -0.067785256 -0.018883906 -0.025709564 -0.048047435
000030 99 b7 31 3e 97 d3 76 3e 76 a7 c4 bc bf 1d 95 bc
       0.17355193 0.24104153 -0.024005633 -0.01820266
000040 2d 2a dc 3b a0 7d cd 3d c5 88 29 3e a7 1d 06 3e
       0.006718895 0.10033727 0.1655608 0.13097249
000050 01 e1 5f bd 9c a0 30 bd 16 fc ab bd 8e b9 86 3d
       -0.05465794 -0.04312192 -0.08397691 0.065783605
000060 ec c8 8a bd 6b e1 d7 39 a6 1a 79 3d 7f bb bc 3d
       -0.06776604 0.00041175945 0.06081643 0.092154495
000070 ea 90 45 bb bf 14 4b 3e 34 3d b7 bd a5 ba 3b bd
       -0.003014619 0.19832133 -0.089472204 -0.045832295
000080 a4 9a 6f 3e b7 37 79 bd 92 71 7f bd 98 72 64 bd
       0.23398834 -0.06084415 -0.06236417 -0.055773348
000090 c9 85 46 bb ec 16 b5 bb 91 25 bc 3d 63 63 00 3e
       -0.0030292145 -0.005526414 0.09186853 0.12537913
0000a0 2c 2a f1 bc df 58 ed 3d 15 e0 08 3e 55 07 cc 3d
       -0.029439054 0.115892164 0.1336673 0.09962336
0000b0 ea 7f d9 bc 40 14 4b be fe af 60 bd f0 8b 90 bd
       -0.026550252 -0.19831944 -0.05485534 -0.07057941
0000c0 15 ab 84 3d 28 3c 25 bb aa b6 ee 3d 7c 47 9b bd
       0.06477944 -0.0025212858 0.11655934 -0.07581994
0000d0 a3 e3 50 3e e0 56 e6 3d 72 c7 26 3c ad f7 02 3d
       0.20399337 0.11247039 0.010179387 0.031974483
0000e0 a0 1f fe 3b 95 f4 f6 bc b8 38 65 3d d9 fb 05 bd
       0.007755235 -0.030145923 0.055962294 -0.032710884
0000f0 e9 df 80 3d b8 3b 79 bc 51 6e 11 3e d0 7e bb bd
       0.062927075 -0.015211992 0.14202239 -0.09155047
000100 c0 17 35 bd bd b2 97 bd 66 cc 97 bd b5 86 72 3e
       -0.044212103 -0.074071385 -0.07412033 0.23684199
000110 a9 be 6e 3d fe 80 00 3e 5c 70 cc bd a5 4e bd 3d
       0.058287296 0.12549207 -0.09982368 0.09243516
000120 54 9d 2d 3e 4d 50 a9 3d 49 4e c6 3c 7d 11 17 3e
       0.16954547 0.08267269 0.024207251 0.14752765
000130 9a 1a 4e 3e df 1b 27 3c 70 fa b3 bd 1d 72 20 3d
       0.20127335 0.010199516 -0.087880015 0.039171327
000140 59 8f 45 bc a4 26 01 bd 8b 57 43 bd c0 ee 47 3e
       -0.0120581025 -0.03153099 -0.04769091 0.1952467
000150 a1 74 87 3e 3b c1 a9 bd ec ca a0 bd b0 c1 04 bd
       0.26456168 -0.08288809 -0.07851204 -0.032411277
000160 1c 61 9f 3d e4 b7 06 be 6b 30 4e 3e 6b 7a fb bd
       0.07782194 -0.13156086 0.20135657 -0.12279209
000170 0b 78 21 3e 0a 81 24 3e 42 d5 15 bd cf ee 7f 3e
       0.15768449 0.1606485 -0.03658033 0.24993442
000180 93 3c 5d bd 87 cb c4 3d c1 96 27 bc 27 5c a1 bc
       -0.054012846 0.09609132 -0.010228814 -0.019697262
000190 76 e6 a2 bc b3 c1 15 3e d3 da 4f bc b8 57 de bc
       -0.019885283 0.14624672 -0.012686449 -0.027141437
0001a0 49 84 87 bd 0b 7d fe 3d 7b c1 95 3d 66 f1 b1 3d
       -0.06617028 0.12426194 0.07312294 0.08688621
0001b0 ce ee 6e 3e c4 9d 17 be 7b 9d 16 3e 0d 6f 15 3d
       0.23333284 -0.14806277 0.14708512 0.03648286
0001c0 8a 7b 48 3e f7 3b 74 3e 7c 23 46 3e 8f 56 30 3e
       0.19578376 0.23851 0.19349474 0.1722052
0001d0 ef a7 7a bd cc bc 53 bd 3f c4 bd 3d e5 96 89 3e
       -0.06119531 -0.051693723 0.092659466 0.26872936

fc2.weight f4 [84, 120]
000000 95 2b be bd 69 79 61 3e 43 64 5a 3d 64 e0 a0 3e
       -0.09285656 0.2201897 0.053318273 0.31421196
000010 55 8d 56 bd 45 d5 14 bd bc 33 cf bc 40 b0 0a 3c
       -0.05238088 -0.036336202 -0.025293224 0.008464873
000020 a3 4c 03 ba 21 40 94 bc ed 58 ab bd 5c 0c 51 bd
       -0.0005008673 -0.018096985 -0.083665706 -0.051037177
000030 e2 8e 1c 3e 5b a2 70 3e 17 e8 0d bf 6a 20 93 bc
       0.1528888 0.23499434 -0.55432266 -0.017959792
000040 70 91 95 be 0a ff 4c bf 77 f3 db 3d c8 58 02 3f
       -0.29212523 -0.8007666 0.107397966 0.5091672
000050 ca 03 73 3b f7 5b 6e bd 27 6a 9f bd d7 81 d3 be
       0.0037081116 -0.058193173 -0.07783919 -0.41309997
000060 0c 5d d7 bd 8c e8 74 3d 57 91 72 bd 64 fd 18 3e
       -0.10515794 0.059792086 -0.059220638 0.14940411
000070 ef 35 08 3e 5f 25 a4 3e 0f d1 2a 3e 11 59 fc 3c
       0.13301824 0.32059762 0.16681312 0.030804189
000080 ba 47 ee bd 12 89 19 3c a0 ae f1 3d 3b a9 a8 bd
       -0.116347745 0.009371059 0.11800885 -0.08235403
000090 17 ce 1a bd b7 2c 87 be 09 a1 f3 3e 9e 25 14 3e
       -0.0377942 -0.26401302 0.47583798 0.14467475
0000a0 68 15 87 bd 2c 9f 75 3e 13 97 c7 be 1b 48 15 be
       -0.0659588 0.239865 -0.38982448 -0.14578287
0000b0 39 4a b8 bd 4e 90 00 bf 36 e7 39 3d fb b5 65 3d
       -0.08998532 -0.5022019 0.045386516 0.056081753
0000c0 6b d8 9d be 67 f1 45 be 7e 36 12 be fa 33 da 3d
       -0.30829176 -0.19330369 -0.142786 0.10654445
0000d0 96 0f 74 3e fa 02 7c 3d f1 90 fd be ea 34 6a 3e
       0.2383407 0.061526276 -0.49524644 0.22871748
0000e0 97 d9 e4 3e 80 39 1c 3e 69 75 94 3d 58 88 12 3d
       0.44697258 0.1525631 0.07248957 0.03577456
0000f0 f6 4c a5 be 3b 72 8b 3c 96 77 31 3e d3 8a 10 3d
       -0.3228528 0.017022243 0.17330775 0.035288643
000100 53 7b 18 3d 87 19 08 3e 2e 62 ca bd de 6a 61 3e
       0.037226986 0.13290988 -0.098820075 0.22013423
000110 d7 43 ad bd e2 4b 06 be 19 22 dd be 09 1d 21 3d
       -0.08460205 -0.13114884 -0.43190077 0.03933433
000120 c6 18 17 bf a3 c3 fd 3d 64 b0 a3 3d 1d f8 00 be
       -0.59022176 0.1239083 0.07992628 -0.12594648
000130 de aa 86 be 5a 78 42 bd 21 f2 a8 3c 85 79 d5 3e
       -0.26302236 -0.047478057 0.020623269 0.41694275
000140 50 03 9a bd 4a 15 98 bd be ed 53 3e ef 52 82 bd
       -0.07520163 -0.074259356 0.2069616 -0.063634746
000150 6c ba c1 3c 74 75 f0 3d 85 46 8d be e4 2a 29 bf
       0.023648463 0.117411524 -0.27592865 -0.6608107
000160 87 33 3b 3e ef fc 5e 3d 0a f5 85 be 1b 92 f0 bb
       0.18281375 0.054440435 -0.26163512 -0.007341636
000170 d8 60 9a 3d 93 87 b9 3e 53 a9 cb bd 2f df d1 bd
       0.07538003 0.36236247 -0.099444054 -0.10247647
000180 e8 5c b7 3d 08 7e 1c 3d c3 a2 b3 bc df ea 1c bd
       0.08953267 0.03820613 -0.021928197 -0.038309928
000190 b2 01 a3 bd 07 35 93 be 4d 08 ab 3d 45 03 32 be
       -0.07959308 -0.28751394 0.083511926 -0.1738406
0001a0 e9 24 64 bd 1b 07 80 3e 5f 9b 74 3e 10 e2 39 be
       -0.055699263 0.2500542 0.23887394 -0.18152642
0001b0 18 dc 1e bf 2a 36 68 bd 57 c1 c2 be a3 cb 04 3e
       -0.62054586 -0.05669228 -0.38038132 0.12968306
0001c0 9e 56 e1 3e 1a 3a d4 3e 87 e0 9d 3e 49 00 57 3e
       0.44011396 0.41450578 0.30835363 0.20996203
0001d0 85 c2 c3 3a 24 87 d0 3d 62 b4 6f 3e 23 14 46 bf
       0.0014935291 0.10182026 0.23408654 -0.77374476
0001e0 22 09 2a 3e 33 39 db 3b c8 be e0 bd d1 b8 80 be
       0.16605046 0.0066901683 -0.10973889 -0.25141004
0001f0 30 5a 2b bb 77 ee a0 3c 89 d6 d8 3c ad 6c 4e 3d
       -0.0026146285 0.019644959 0.026469486 0.05039661
000200 e8 74 0f bd df c1 8e 3d c4 d1 a1 bd 9e 3e 17 3d
       -0.0350236 0.06970572 -0.07901338 0.03692495
000210 5d ca 1f 3c f0 88 20 3d bd fc ff 3d ca 3b 3f bd
       0.009752837 0.039193094 0.12499378 -0.04668788
000220 b1 85 59 3d 81 87 dc 3e ac 23 8b 3e 2e 5a e3 be
       0.053106014 0.4307213 0.27175653 -0.4440474
000230 76 e1 a7 bd 00 18 63 3d 7b 9f 2e bd 60 15 d4 3e
       -0.081973 0.05544281 -0.04263256 0.41422558
000240 9b 09 a3 bd 9b 91 98 bd 95 ae 8c 3e fb c3 e9 3e
       -0.079608165 -0.07449647 0.27476946 0.45657334
000250 03 1f d2 be b7 5e 7d 3e 7d 56 35 bd 40 b1 24 3d
       -0.41039285 0.24743162 -0.044271935 0.0402081
000260 e7 0b 5e 3e a3 12 e4 3b 27 fd be 3d a1 9c bd 3d
       0.21684228 0.0069602295 0.09325629 0.0925839
000270 e0 06 30 bd 8a 1f 56 bd 93 46 4e be 15 20 8e be
       -0.042975307 -0.05227617 -0.2014411 -0.27758852
000280 f1 3d b5 3d 89 c3 7e 3d e3 b2 45 3e 88 54 9d 3e
       0.08849705 0.062198196 0.19306521 0.30728555
000290 4f 6d 8a bd fb 69 1c 3e 96 69 09 bd 82 8d 51 3d
       -0.0675913 0.15274803 -0.03354796 0.051160343
0002a0 94 9e e6 3d 12 da a4 3e 2d 40 f1 bd 8b 72 d3 3b
       0.11260715 0.32197624 -0.11779819 0.0064528636
0002b0 e3 a5 e3 bd b8 3f 88 be 22 72 62 be 6e ca d1 bc
       -0.11115625 -0.26611114 -0.2211385 -0.025609221
0002c0 b4 ca 51 be 11 f3 57 be 9f bd 5f 3e 15 84 7d 3d
       -0.20487481 -0.21088816 0.21849678 0.06189354
0002d0 3f 23 1f be aa f1 1c bc 89 51 90 bd a4 9a af 3c
       -0.15540789 -0.009579102 -0.070468016 0.021436043
0002e0 a1 c4 c1 be 59 e1 5e 3d cc 80 bc bd bf 5c c6 3d
       -0.37845328 0.054414127 -0.092042536 0.09685659
0002f0 b8 6e d1 be 79 7f 16 ba 18 92 b4 3d 09 01 60 3e
       -0.40904784 -0.0005741041 0.08816928 0.21875395
000300 f8 c9 cf 3e a3 a1 21 3e c2 21 05 bf 7c a6 c6 3d
       0.40583777 0.15784316 -0.52004635 0.09699723
000310 b5 09 34 3c 6b 72 06 be af f6 b7 3d b1 fe 20 3d
       0.010988642 -0.13129584 0.08982598 0.039305393
000320 3f 81 65 bc b6 79 b3 3d 33 9c 4b 3e 0c a1 ad be
       -0.014007865 0.08763449 0.19883804 -0.33911932
000330 9b 61 03 be 13 47 c7 be b4 4c 5e 3e 2f a1 11 3e
       -0.12830202 -0.38921413 0.21708947 0.14221643
000340 e2 89 a9 bd 5f d1 f1 bb 0a e7 5c be 28 8d 4c be
       -0.08278252 -0.0073796953 -0.2157251 -0.19975722
000350 e7 eb b7 3e df ab 90 3d 80 7d 86 bc 06 00 5c bd
       0.35922167 0.07064032 -0.016417265 -0.05371096
000360 fe 62 a1 3d 49 d0 62 be d8 6e 8b bd 36 ee 1d bd
       0.078802094 -0.22149767 -0.06808251 -0.038557254
000370 9c 0a 63 bf 5a 6d 86 3e b6 4a 23 3d 52 05 64 be
       -0.88688064 0.26255304 0.03986617 -0.22267655
000380 e7 6a a1 3d c9 69 3e 3e a9 b0 ba 3d dc 75 11 3e
       0.07881718 0.18595041 0.091157265 0.14205116
000390 65 b2 17 3e d6 c6 92 be 98 da af bc ff 1e f5 bd
       0.14814146 -0.28667325 -0.021466538 -0.11968803
0003a0 5e 1a a0 3d e1 58 76 b8 e8 17 44 be 76 3c b8 bd
       0.07817529 -5.8733745e-05 -0.19149745 -0.08995907
0003b0 4e ef 08 be 17 29 6f bc a2 9c 78 3e 96 ed 42 be
       -0.13372537 -0.014597199 0.242785 -0.19035944
0003c0 1e 49 8f be 7f e0 04 3d 18 27 12 be dd 8f fc bd
       -0.2798547 0.03244066 -0.14272726 -0.12332127
0003d0 8e e0 13 3d db ed c6 3c f1 33 b6 bc 5d 28 3e 3a
       0.036102824 0.02428334 -0.022241564 0.00072539394
0003e0 09 9e 1e 3c 0a fb 89 3d 01 6a 66 bd 56 9f e7 3c
       0.009681233 0.06737335 -0.056253437 0.02827422
0003f0 f3 e0 3b 3c 3c 98 9c be db 2c 3a be bc 41 75 bd
       0.011467206 -0.30584896 -0.18181174 -0.059877142

fc2.bias f4 [84]
000000 03 62 a3 3e 2e 60 f8 3d d6 41 61 3e bd fd 16 bc
       0.31910715 0.1212772 0.2199777 -0.009215769
000010 bc 1f d2 3e 3d 2f 4f 3e 71 f2 a6 be 0c 0a 20 be
       0.41039836 0.20232864 -0.32606843 -0.15628833
000020 40 ff 1b 3e e1 c5 a1 3c 46 8d 72 3e 9d b0 b0 3e
       0.15234089 0.019747676 0.23686704 0.34509745
000030 30 45 12 be 34 f5 13 be 99 d0 49 be ed ae 10 3a
       -0.14284205 -0.14449006 -0.1970848 0.000551923
000040 10 5c c5 3d 3d 9b 40 3e 4f 31 bf bd eb 16 09 be
       0.096367 0.18809219 -0.09335577 -0.13387649
000050 fa d3 3c be 69 ce 24 be 02 d4 4b bc 72 d5 cc 3e
       -0.18440238 -0.16094364 -0.012440683 0.40006596
000060 96 08 ae 3e a2 b3 58 3e c1 4b c9 3e 13 8d 8a be
       0.33990926 0.21162274 0.39315608 -0.27060756
000070 77 fb e3 3c 29 d6 9e be 19 7c 17 be 86 ad 26 3d
       0.027829869 -0.31022766 -0.14793433 0.04069283
000080 19 68 1a 3e 84 d3 be 3d a0 05 a4 3e 2f d1 af 3e
       0.15078773 0.09317687 0.32035542 0.34339282
000090 3c c8 68 be 7c 4d 46 be f0 9f 69 3d 54 d2 89 3e
       -0.22732633 -0.19365495 0.057037294 0.2691828
0000a0 70 5c f2 bd cc 46 2f 3d 6b 06 77 3e a2 41 16 3e
       -0.11834037 0.042792127 0.24123542 0.14673474
0000b0 b1 8a d5 3e 2c 42 00 be 52 7e b5 3d 90 86 b6 3e
       0.41707376 -0.12525243 0.08861984 0.35649538
0000c0 39 60 e1 bd be 36 1f 3c 65 52 14 be c4 d1 0c be
       -0.11004681 0.009717641 -0.14484556 -0.13751894
0000d0 31 e4 92 bd 7f 79 59 be 75 97 e6 3e 96 bd 54 be
       -0.0717243 -0.21237753 0.45037428 -0.20775446
0000e0 20 ee 4d 3e 11 b4 6a 3e fd e7 07 be d3 a8 c0 3d
       0.20110369 0.22920252 -0.1327209 0.09407201
0000f0 9b 65 4d be fb f6 92 3e 2d e2 a5 3e 3e a1 5e be
       -0.2005829 0.28704056 0.3239912 -0.21741197
000100 bb ea 14 3e d9 37 b3 3d 40 fa b5 3c b9 37 d1 bd
       0.14542668 0.087508865 0.022214055 -0.102157064
000110 39 8a 30 3d 78 b3 38 3e dd 73 58 3e e0 e7 46 be
       0.04310057 0.18037212 0.21137948 -0.19424391
000120 64 3c 1b be 03 34 35 bd 61 c3 69 3e 3c f9 4f 3d
       -0.15159756 -0.044239055 0.22828437 0.050774798
000130 d5 1e 59 3d 3e 64 ea bd 19 ea 62 3e 80 bc 39 3e
       0.05300792 -0.11444901 0.22159614 0.18138313
000140 9d 16 19 be c1 24 b1 3d 48 09 2e be 76 d9 55 3e
       -0.14950033 0.086495884 -0.16995728 0.20883736

fc3.weight f4 [10, 84]
000000 c4 07 c4 bd e9 2f 58 3e 62 57 33 bc 34 b1 d8 3d
       -0.09571794 0.21112026 -0.010946127 0.10580674
000010 53 b4 e3 bd e1 fc 42 3e 34 67 b4 3c 1f 29 9e be
       -0.111183785 0.19041778 0.022021867 -0.30890748
000020 07 3e 01 be 63 a3 96 bc f2 66 3c 3e 51 b7 f1 3d
       -0.12621318 -0.018388456 0.18398646 0.11802543
000030 e7 98 8e bc 16 47 54 bd 42 d8 70 3e c0 a8 30 3d
       -0.017406894 -0.051825605 0.23519996 0.043129683
000040 aa f8 81 3d 8d 1e b8 be 3f 89 a6 bc ee 94 b0 bc
       0.06346257 -0.35960808 -0.020329116 -0.02155539
000050 b0 c8 0f bc 6c 3a 4e 3c 00 a6 c0 bd 38 f6 05 be
       -0.008775875 0.012587171 -0.09406662 -0.13082206
000060 9b 48 1b be a4 87 88 be ee 75 37 3e d5 6e 54 3d
       -0.15164416 -0.26665986 0.1791608 0.05186351
000070 94 60 80 bf df a1 78 3b ad 7d b2 bd 16 61 7a 3d
       -1.0029473 0.003793828 -0.08715377 0.061127745
000080 fa 9f e5 be 4b 8e be be a5 ce f0 3d 30 c7 43 be
       -0.44848615 -0.37217936 0.11758164 -0.19118953
000090 4f c8 3b 3d c1 26 22 be 22 68 0a 3e 58 3e ac 3d
       0.045845326 -0.15835096 0.13516286 0.084103286
0000a0 90 65 b5 3d 98 e4 0c 3e db 19 f6 3d e8 43 63 bf
       0.08857262 0.13759077 0.1201665 -0.8877549
0000b0 f1 2e 9b bd b6 e0 36 bd e9 c5 c2 3d 97 d8 4c be
       -0.07577313 -0.044647895 0.095104046 -0.20004497
0000c0 75 ee 81 be 85 2a 0d 3e 71 bb e9 bd 5e 68 70 bd
       -0.2537724 0.13785751 -0.11412705 -0.058693282
0000d0 14 ee b3 be 73 6b 24 bf ba e4 36 be 53 15 74 3d
       -0.35142577 -0.64226454 -0.1786069 0.05959065
0000e0 f8 b6 b7 3d db 56 3e 3e 65 40 db 3a c8 7b 4b be
       0.089704454 0.1858782 0.0016727565 -0.19871438
0000f0 6a 6b f5 3d ec f9 4d bd 53 e8 ba 3d 71 b0 c7 3c
       0.11983378 -0.050287172 0.091263436 0.024376126
000100 f5 d5 8c 3e 75 63 2e 3e 7b 8c 36 bd a7 5e 5d 3d
       0.27506986 0.17030127 -0.044567566 0.054045346
000110 1d e4 d7 be c6 6f ae be ff ad 97 be f6 2e cc bd
       -0.42166224 -0.3406965 -0.29624936 -0.099698946
000120 a6 0a 2a bd 7b 62 47 bd 2a c9 b8 be f4 fb be bd
       -0.04151406 -0.048677903 -0.36090976 -0.093254
000130 d7 e4 05 bf 7e 12 10 bf 28 0e c5 be 5e 91 01 bf
       -0.52302307 -0.56278217 -0.38487363 -0.5061244
000140 84 2e 29 be a4 dd 46 3e 53 7c cb bb 58 a2 34 3d
       -0.1652165 0.19420487 -0.006209889 0.044100136
000150 42 06 04 3f a4 9c 95 be 6f 76 a4 be b6 9e ae 3e
       0.5157205 -0.2922107 -0.32121608 0.34105462
000160 8c 74 50 be 85 40 06 bf 05 07 16 bf c3 0b a6 be
       -0.20356959 -0.524422 -0.5860446 -0.32430848
000170 7b ed b6 bd 15 8f 68 3d f7 6e 4b bd f3 34 4d 3e
       -0.089320146 0.05677708 -0.04966637 0.2003973
000180 87 a9 e5 bd 7d c8 37 bd 35 43 81 be c5 bd 19 3d
       -0.112139754 -0.044868935 -0.25246587 0.037534494
000190 bb bb a1 3c bb 31 78 3d 01 bc e5 bd 7b c2 04 bf
       0.019742837 0.0605943 -0.112174995 -0.51859254
0001a0 d1 4f 17 bb 1a 8b 9d 3e 7b db f1 3e 7d 1a 2d bf
       -0.0023088346 0.3077019 0.47237763 -0.6761854
0001b0 17 63 12 bf cc 18 2d be 55 6d 3d bf 18 dc c9 3d
       -0.5718245 -0.1690399 -0.7399495 0.09856433
0001c0 7a 28 26 bf 40 53 43 be db af 77 bc a1 f0 87 3c
       -0.6490551 -0.19074726 -0.015117611 0.016594233
0001d0 50 f7 05 bf 78 87 ed be 27 00 cf be b3 cf 6c 3d
       -0.52330494 -0.46392417 -0.40429804 0.057815265
0001e0 ee e7 79 be e4 a8 02 be 49 57 34 3e bf 28 ad be
       -0.2440488 -0.12759739 0.17611422 -0.3382015
0001f0 88 68 10 3e ba a7 4b 3e d0 0b 94 be 36 9a ab bd
       0.14102376 0.19888201 -0.28915262 -0.08379023
000200 40 ec 03 bf af 9b 69 be 9e f2 02 bf 3c 86 4c bf
       -0.51532364 -0.22813295 -0.51151454 -0.79892325
000210 1e 8c be 3e 93 ae 1f 3e 50 99 12 39 a2 09 22 bd
       0.37216276 0.15593939 0.00013980758 -0.039559968
000220 2e 0c c6 3d b0 e9 81 3d e0 72 8c bd b5 a5 0d 3e
       0.09670292 0.063434005 -0.06857848 0.13832743
000230 ac 6b 6d 3d 88 3a 3b bf 11 5b 19 be a3 fb d7 be
       0.057964012 -0.73136187 -0.14976145 -0.4218417
000240 42 0a 09 bf fa f1 da be b6 b4 e7 be 36 27 c2 be
       -0.5353128 -0.42762738 -0.4525506 -0.3792054
000250 56 64 37 bf 64 12 26 bf fe 20 73 3e 65 84 ba bd
       -0.71637475 -0.6487181 0.23743054 -0.091072835
000260 24 4f 81 bf 2d 17 8c be ee d4 7b bd 99 40 58 be
       -1.0102277 -0.27361432 -0.061482362 -0.21118392
000270 6a 65 b2 bd c0 5b 9a 3e 2c 94 6d 3e 1f f5 c6 3e
       -0.087107494 0.30148125 0.23201054 0.38858888
000280 7c 42 6b 3d ad d9 40 be 0e 5e 60 be 14 59 88 3b
       0.05743645 -0.18833037 -0.21910879 0.0041610096
000290 b3 f1 d8 bd ba aa 90 be a4 a9 77 b9 15 c5 28 be
       -0.105929755 -0.28255254 -0.00023618952 -0.16481431
0002a0 99 d6 ea bc ad 69 04 bf bf 8b 7d bd 35 dc 92 be
       -0.028666781 -0.5172375 -0.06190085 -0.2868363
0002b0 11 8d cc 3d 12 e4 12 3e 24 59 79 be af f7 76 3e
       0.09987844 0.14344814 -0.2435041 0.24117921
0002c0 8a 1e 66 be 45 5e da be 24 03 46 3e 9f 06 52 bf
       -0.22472587 -0.42650047 0.19337136 -0.82041353
0002d0 0a 33 4c be 7d 95 22 be 30 38 7d be 86 a6 28 3e
       -0.19941345 -0.15877338 -0.24728465 0.16469774
0002e0 35 c0 c8 be 8f e9 f3 3d 08 45 9c ba 4b a8 b3 3d
       -0.39209142 0.11909782 -0.0011922428 0.08772334
0002f0 a4 32 de bc 5f 55 5c bf 2b 68 d4 bc 1b e0 3c bd
       -0.027123757 -0.86067766 -0.025928577 -0.04611216
000300 7c 8f 1f 3e d0 70 af bd 71 f1 15 bc 52 2a 01 bc
       0.15582079 -0.08566439 -0.009151802 -0.007883625
000310 05 37 1d be bb 1c 0c 3f 99 df 8b 3d a9 23 21 3d
       -0.1535302 0.5473134 0.06829757 0.03934065
000320 8a 18 8c be 76 1c 4a 3e 18 89 b4 3d 20 2c 06 3d
       -0.27362472 0.1973742 0.08815211 0.032756925
000330 f6 93 f4 bd e6 23 8a 3c f7 29 62 be f3 5d 54 be
       -0.11942284 0.01686282 -0.22086321 -0.20738964
000340 50 d5 fc 3d d7 69 42 be 53 43 86 be 96 71 9c 3d
       0.12345374 -0.18985687 -0.2622324 0.07638852
000350 cd e8 9e 3c e1 2c e8 bd 22 a0 2d 3e 18 62 97 bd
       0.019398117 -0.11336685 0.16955617 -0.07391757
000360 ed b9 a2 be 4f ce e5 be 4a c6 75 bd 36 53 d0 bc
       -0.31782475 -0.44883963 -0.060003556 -0.025430303
000370 4d f0 7b be ab 30 b9 be fa e1 e6 3c 0e d1 19 3e
       -0.24603386 -0.36169943 0.028183926 0.15021154
000380 ec 76 05 3e ca 5e 03 3e 42 66 5c bc e0 72 38 bd
       0.13033646 0.12829128 -0.013452115 -0.04503143
000390 e3 f6 f4 be 0a 8e cf 3d f6 21 e6 be 35 c1 f8 bd
       -0.4784461 0.10134514 -0.44947785 -0.12146226
0003a0 9f 1e f8 bb 3e 24 51 3e fa f0 2b be 45 e8 f6 bd
       -0.0075720097 0.20423982 -0.16791144 -0.12056021
0003b0 80 7a d7 bd a3 3b 09 be 55 fb 0f be 9a af 41 3c
       -0.10521412 -0.13401656 -0.1406072 0.011821652
0003c0 41 0c b2 bd 6b 02 00 bf 71 1f b6 3d 2c b5 c5 be
       -0.086937435 -0.5000369 0.08892716 -0.38614786
0003d0 ca 5b b9 3d 69 fe 85 be 01 eb 2d bd fc 0f 80 be
       0.090507105 -0.26170662 -0.042460445 -0.25012195
0003e0 dd fd c4 bd 4b 65 56 3d 9e 2f 0e be d2 8e 92 bc
       -0.09618733 0.052342694 -0.13885352 -0.017890368
0003f0 57 37 32 be a3 e0 1a 3d 55 16 5f bf 91 d1 02 be
       -0.17403923 0.037811887 -0.8714345 -0.12775256

fc3.bias f4 [10]
000000 6e af 3e be d7 63 f9 be 5e 2f 83 bd f1 00 3a 3e
       -0.18621609 -0.48708984 -0.06405519 0.18164422
000010 d5 42 49 be 59 cc 98 ba 56 7b 3a 3e 88 9d 78 3d
       -0.196544 -0.001165758 0.18211111 0.06069711
000020 bf 88 87 3e d0 7b 1e be
       0.26471516 -0.15476918
