HW1_Split_nb/checkpoints/model_weightdecay_12.pt (torch, 250670 bytes, 10 tensors)

conv1.weight f4 [6, 1, 5, 5]
00000000: 4b05 e13e 4924 cc3d 33f8 bebe 8f62 133d
00000010: 5eb9 03be ca1b c63e 5d0b cc3d 8138 fdbe
00000020: d00f a83e 351e 2f3d ad89 353e d53d 96bd
00000030: 7468 15bf 7d3f eb3e 8c67 963e 5a8c adbd
00000040: b58d e4be 6216 46bf aab1 1d3f aa77 dc3e
00000050: d912 b43d 4b0d bebe 6b03 70bf c343 4d3e
00000060: c2d0 153f 1db6 dd3d 3fa0 bb3b 249d 06be
00000070: 9329 5ebc e3ea a9be 915c c13d a763 813e
00000080: 1c4c 4bbe 3743 433e c931 2fbe ccca d0bd
00000090: 81f1 6e3e a8b4 bf3d 9a9a 933e d3ae 82bd
000000a0: d951 73be c015 563d 1c55 0c3d 7d02 ad3e
000000b0: 1da5 343e d676 1dbe 6205 113e 53e7 5abd
000000c0: 3ab4 ea3d a2e9 193e d3f0 1b3d a960 233e
000000d0: c6c6 4cbe d4f0 64be b7da 92be a470 77be
000000e0: 7012 ac3e 0382 903e 60d2 70be a549 b2be
000000f0: c606 adbc fc87 013f bd79 b63e 5140 86bd
00000100: 2404 6f3d 5192 593e 1648 1b3f 6b28 b03e
00000110: d0d8 e5bd e7e7 d4be b690 ab3c cf83 d33d
00000120: fe8c 81bd d729 43be a187 dcbe b37a 4abf
00000130: c354 b5bf c8e6 a7bf 2b5e 89bf 51ef d2bd
00000140: 79e1 7ebe a4be bbbf 1ded afbf 6ffc 8f3d
00000150: 2862 293f 0378 823e 7bf4 4dbd 7a19 2abe
00000160: 1838 7c3e 1063 643e 70b7 b83e 6eeb 133e
00000170: 91f5 adbd eb55 243e fa5a be3c d5a7 ba3e
00000180: 7da9 843e b366 933d 6cc2 9fbd 8cfe 51bd
00000190: e2a9 75be bb38 bbbd cd4c 5abe c9f0 a6be
000001a0: 07a5 26be 8148 f23c 0bce af3c 9c7e 96bd
000001b0: ae4c 27be bd9a 89be 817e 833e 5659 bb3e
000001c0: 269e 74bd 31cf 2bbe c75e 3dbe fe59 703e
000001d0: bd4b ea3d 22c6 2d3e 2a25 453e a0da 2d3e
000001e0: f8de 22bc 0788 673e ad50 973d 4edd 83bc
000001f0: 7a86 0d3e d5b3 be3e c336 fc3e 9562 183a
00000200: 7f74 1fbd b5b2 13bc f2a1 ee3c e348 92be
00000210: eb52 23bf 0ade 52be d776 1d3e 7519 38bf
00000220: f253 9dbf 3272 65bf 9f82 19bf 370d 463d
00000230: 10ea aabe 6bcd 81bf 5e6f 5ebf 7561 f9be
00000240: adc9 863d 200e a03e 89c2 833d c0da aebe
00000250: d606 86be b8b0 4e3d
0.4394935 0.09967858 -0.37298736 0.035982665 -0.1286368 0.38693076 0.09963105 -0.49457172
0.32824564 0.042753417 0.177283 -0.07336012 -0.5836251 0.45946875 0.29375875 -0.084740356
-0.44639364 -0.77377903 0.6159922 0.43060046 0.087926574 -0.37119517 -0.93755215 0.2004538
0.58521664 0.10825751 0.00572589 -0.13145882 -0.013559717 -0.33187017 0.09441484 0.2527134
-0.19853252 0.19068609 -0.17108835 -0.101949304 0.23334314 0.09360629 0.2882889 -0.06381001
-0.23761691 0.052266836 0.034260854 0.3379096 0.1764111 -0.15377364 0.1416221 -0.053443264
0.11460157 0.1503053 0.038071465 0.15954842 -0.19997701 -0.22357494 -0.2868249 -0.24164063
0.33607817 0.2822419 -0.23517752 -0.3482181 -0.021121394 0.5059812 0.35639754 -0.06555236
0.05835356 0.21247222 0.6065687 0.34405836 -0.11222994 -0.41583177 0.020943027 0.10327875
-0.0632572 -0.1905893 -0.43072227 -0.79093474 -1.4166492 -1.3117304 -1.0731863 -0.10299552
-0.24890698 -1.4667554 -1.3744236 0.0703057 0.661654 0.25482187 -0.050281983 -0.16611281
0.24630773 0.22303414 0.36077452 0.14445278 -0.08494104 0.160484 0.02323674 0.3645617
0.2591056 0.07197323 -0.07800755 -0.051268145 -0.23990586 -0.0914168 -0.2131836 -0.3260558
-0.1627389 0.029575588 0.021460554 -0.073483676 -0.16337845 -0.26875868 0.25682452 0.36591595
-0.059721135 -0.16778256 -0.18493186 0.2347183 0.11440227 0.16970113 0.19252458 0.1697793
-0.009940855 0.22610484 0.073884346 -0.016096737 0.1382083 0.37246576 0.4926053 0.000581303
-0.03892946 -0.009014775 0.029129956 -0.28571233 -0.637984 -0.20592514 0.15377365 -0.71913844
-1.2291243 -0.89627373 -0.59964937 0.048352446 -0.333817 -1.0140814 -0.8688868 -0.48707166
0.06581435 0.31260777 0.06433589 -0.34151268 -0.2617709 0.0504615

conv1.bias f4 [6]
00000000: 1c4e 38bc 318a 89be 5c41 bb3c c03b 873e
00000010: 3220 053e d014 f53e
-0.0112490915 -0.26863244 0.022858314 0.26412773 0.13000563 0.4786744

conv2.weight f4 [16, 6, 5, 5]
00000000: c808 9c3d 9ad2 7d3d 54b3 15be 19de 283d
00000010: 2bb6 423f a9fb db3d 3601 be3e 2343 633d
00000020: 45fa 71be 37c1 6f3e 8af8 c03d 41e3 183e
00000030: a5a5 d03d dae0 70be a5bb febe a4aa 823e
00000040: 6ba0 513e 8b68 e33d 9854 4a3e 50c9 dabe
00000050: fb5e 903d e75b 293e 3e98 983d 7c4f aa3e
00000060: 521b 94be 57e5 a53b c539 e73d 6ade ccbd
00000070: 11ab 12be 8abd cbbd ee88 fbbd 97e0 2abd
00000080: fc9e c73d 5b6f a1be 1111 babe 7628 d93c
00000090: 8cf9 d2bd c7ad 39bd 6ceb 0cbe 0edc 2ebe
000000a0: ce18 3a3d 9957 9d3c e841 09be ccc2 9bbc
000000b0: 5d0a ae3c ca10 9fbd 9e8d 88bd acbd 17be
000000c0: 0048 333d 292a da3d f7a4 e1bd 097b a9bd
000000d0: ecb7 e9bc 6fd4 e1bd 52a8 963e 841c 923b
000000e0: 9ff3 1fbe 3d02 1d3c bfee 91bb 574e 8bbe
000000f0: 2582 c3bd 8b09 21be a010 82bb 5d57 c13d
00000100: eb0e a1be 5b06 83bd f251 523d e761 aa3d
00000110: 1d85 56bd e6eb 03be cd19 53be eccc b7bc
00000120: 599e 78bc 14bd 92be 4469 ca3d 478e 64be
00000130: e4d6 a93d 28ad 423e 064c 3b3e 81a3 f1bd
00000140: 0feb 393e 17d0 423e 6861 b43e fba6 a73e
00000150: 0631 e93e 8520 e4bd 7f8c dbbd 1134 24be
00000160: 5a1f 903e 5976 113f 019c fabb 44f6 da3d
00000170: 728e 3c3d c51b bfbc fe01 843e 0af0 43bd
00000180: 4d5d 02bd 89d0 24be bc0b 70be 4f9e 633d
00000190: 9982 67be 7372 5dbe 0f27 91be 4167 c8be
000001a0: 1cd4 a4be c667 383c 78ce f1bd 0171 a5bc
000001b0: 361c a33d d0f7 2abe f98b aabd 1e3f 5abe
000001c0: 4bcf 92bd 18f8 613e f6ed f43c 6659 0cbc
000001d0: 6a95 cd3a 293a 09bc 4df2 f43d e80e ef3d
000001e0: fdd1 1dbe a17d f5bd 62cf cebd e232 1fbe
000001f0: c1c6 f73d 5546 f4bc a3df b73d 5a43 433e
00000200: a577 a73e fb67 9a3e a6b9 fd3b 8d4d 07bd
00000210: ca1b f73d 084b f73e 2f97 e23e 471d 76bd
00000220: 2295 e83b c2e8 b03c 15f8 543e d683 f93d
00000230: 3412 2fbe 664b f4bd 9d87 36be 94a8 2ebd
00000240: 1f7f 98bd ffd5 7ebe c57d 89bd 76c5 233c
00000250: 4580 d73d 5212 29be c952 a6be f577 7b3e
00000260: c324 b8bc 35cd 0d3e 0f42 abbc 945e 69be
00000270: 46a0 abbd 4f85 d3bb b380 f2bc 5b87 40be
00000280: 5c16 9b3d 4ae4 12bc 98d8 1f3d fa96 babe
00000290: 594a 92be 0ea5 533e 2b1e 35be 5c7a dcbe
000002a0: 9c35 82be 378e c53e 268a 803e 729e 7fbe
000002b0: e643 1cbf 48d1 2dbd a2ae 063f e74e 5dbd
000002c0: 52cf b7bd 4a0a d3bc 36ed 1c3e 69bb 423e
000002d0: 53e3 46be ea84 99be 68f2 89be fc6a e1bd
000002e0: aa9b d13c ac6d 45be 618e 12be f67b 173d
000002f0: aeeb d93d 2904 9dbc a89c 303d a3ad 113e
00000300: 2745 fc3d 387e 5cbd ea63 10be 6f0d 003d
00000310: 03fc 6f3d 452f 80bd fd48 a2be e70f 8dbe
00000320: d130 783e d36b 2c3d 5f91 b53e 26ee 9f3c
00000330: d973 fe3c 9f86 51be 0991 25be 7558 aabd
00000340: b307 88be 3913 96be 3d74 3ebe 5855 d0bd
00000350: e645 81be 9ff9 6e3c 369d 873d 5f59 373e
00000360: 85ae e63c bf3a 053e 75ac dc3e fd34 953e
00000370: 0344 753e 0b7c efbd 9c1a dc3d 45de 123e
00000380: da2f b7be 5685 b03e e419 8e3e b95b 4fbe
00000390: 808e 553b 1c6c 9fbd b35d 473e aef6 383d
000003a0: d238 00bf 8c9b 6bbd 5ac4 d23e 7241 a63d
000003b0: 7078 3abe dd65 febd 88f0 6c3e 6803 f63e
000003c0: c715 4b3d 6930 5cbe b510 1abe d7cd 38bc
000003d0: 918a 88be cda4 a53d 2ed7 a5bd 2b41 143d
000003e0: 2b42 5bbe 8c72 0ebf 00b0 3b3e e4ac fcbb
000003f0: a8bc fc3c 5c3d b53d b8af 15bd 03cb 4cbe
0.076188624 0.061968423 -0.1461919 0.041227434 0.76059216 0.1074136 0.371103 0.05548395
-0.23630626 0.2341355 0.09422405 0.1493044 0.10187844 -0.23523274 -0.49752536 0.25520813
0.20471351 0.11103924 0.19758832 -0.42731714 0.07049366 0.16538964 0.07450913 0.33263767
-0.28927094 0.00506274 0.112903155 -0.100033596 -0.14323069 -0.09948261 -0.12281977 -0.04171809
0.09747121 -0.3153027 -0.36341146 0.026508551 -0.103015035 -0.045331743 -0.13761681 -0.17076132
0.04543381 0.019206809 -0.13404047 -0.019013785 0.021245176 -0.07766874 -0.06667636 -0.14818448
0.043769836 0.10652573 -0.11017793 -0.0827542 -0.028530084 -0.110268466 0.29425293 0.0044589657
-0.15620278 0.009583053 -0.0044535096 -0.27208206 -0.095463075 -0.15726297 -0.003969267 0.09440491
-0.31456694 -0.063976966 0.05134768 0.08319455 -0.05237304 -0.12882957 -0.20615311 -0.022436582
-0.015174472 -0.2865988 0.09883359 -0.223199 0.0829294 0.19011366 0.1829072 -0.11798764
0.18156074 0.19024692 0.35230565 0.32744583 0.45545214 -0.11139015 -0.10720157 -0.16035487
0.2814892 0.5682121 -0.0076479916 0.10691503 0.046034284 -0.023328671 0.2578277 -0.04783634
-0.03182726 -0.16095175 -0.23441976 0.055570897 -0.22608413 -0.2162569 -0.28350112 -0.39141276
-0.32193077 0.01125521 -0.11806959 -0.020195486 0.07964365 -0.16696095 -0.08327479 -0.2131314
-0.07168444 0.22067297 0.029898625 -0.008566236 0.0015684788 -0.008375683 0.11960278 0.11672765
-0.15412135 -0.119868524 -0.10098149 -0.15546754 0.12098456 -0.029818693 0.08978202 0.19068661
0.3270847 0.30157456 0.0077430783 -0.033032943 0.12065847 0.48299432 0.4425597 -0.060086515
0.007097856 0.021595363 0.20797761 0.12183349 -0.17096788 -0.119284436 -0.1782517 -0.042641237
-0.074461214 -0.2488632 -0.06713442 0.009995809 0.10522512 -0.16510895 -0.32485035 0.24557479
-0.022478467 0.13847812 -0.020905523 -0.22789985 -0.08380179 -0.0064551006 -0.029602384 -0.18801634
0.07572624 -0.008965561 0.03902492 -0.3644331 -0.28572348 0.20668432 -0.1768729 -0.43062103
-0.25431526 0.38585064 0.251054 -0.24962786 -0.61041105 -0.042435914 0.5261022 -0.054030325
-0.0897509 -0.025761742 0.15324864 0.19016804 -0.19422655 -0.29984218 -0.26942754 -0.11006734
0.025586922 -0.19280118 -0.14312126 0.036983453 0.106406555 -0.019167023 0.04311815 0.14226393
0.12317877 -0.05383131 -0.14100614 0.03126281 0.058589946 -0.06259016 -0.3169631 -0.27551195
0.24237372 0.042095017 0.35462472 0.019522738 0.0310611 -0.2046151 -0.16168608 -0.08317653
-0.26568374 -0.2931154 -0.18599029 -0.10172528 -0.2524864 0.0145858815 0.066217825 0.17905186
0.02815939 0.13010691 0.43100324 0.2914199 0.23951726 -0.11693581 0.10747263 0.14342602
-0.35778695 0.34476727 0.27754128 -0.20249833 0.0032586157 -0.07784292 0.19469337 0.045157127
-0.500867 -0.057521388 0.4116543 0.081179515 -0.18210006 -0.12421773 0.2313863 0.48049474
0.049581315 -0.21502842 -0.15045436 -0.011279545 -0.26668218 0.08088074 -0.08097683 0.03619496
-0.2141196 -0.55643535 0.18328857 -0.00771104 0.030851677 0.08849594 -0.03654453 -0.19999318

conv2.bias f4 [16]
00000000: b509 66be a31e 1f3e 7479 1d3e 4b60 0c3e
00000010: f363 243e 9946 d63e a823 9299 da4d bb3e
00000020: ffcf 233e c750 b53e 1b42 15bd b383 3a3e
00000030: 38ab bb3e 16c6 1ebc 92fa 47bd ab64 31be
-0.2246464 0.1553903 0.15378362 0.13708608 0.16053753 0.41850737 -1.5110448e-23 0.36582834
0.15997313 0.3541319 -0.036439996 0.18214302 0.36654067 -0.009690782 -0.048822947 -0.17323558

fc1.weight f4 [120, 400]
00000000: a644 0000 d644 0000 c554 b592 129d 8e96
00000010: 7244 0080 b344 0080 f644 0080 7748 0000
00000020: 6244 0080 6544 0080 b6a1 0480 c244 0000
00000030: 9744 0080 b544 0080 5f45 0000 8d44 0080
00000040: 0e49 0000 7247 0080 a844 0080 3b47 0000
00000050: 4954 0080 5b56 0080 0646 0080 5745 0000
00000060: 1d45 0080 8b45 0000 cc44 0080 a444 0080
00000070: 2d45 0080 fe44 0000 d344 0000 fd44 0080
00000080: 5d45 0080 aa44 0080 7d44 0000 6244 0000
00000090: c344 0000 2e45 0080 6144 0000 7045 0000
000000a0: b344 0080 6a45 0000 7d44 0000 df45 0000
000000b0: 0545 0000 8944 0080 b247 0080 f044 0080
000000c0: eb45 0000 3b46 0000 b945 0000 c344 0080
000000d0: 3045 0080 2445 0000 ad44 0080 9d44 0000
000000e0: 7f45 0080 6c57 0080 0d45 0080 2045 0000
000000f0: 3145 0080 9644 0000 0146 0000 7f44 0080
00000100: d444 0000 9044 0000 d644 0080 0846 0000
00000110: 6e44 0000 fe44 0080 4645 0000 cc45 0080
00000120: b145 0080 3545 0080 6d44 0080 9244 0080
00000130: 9d44 0080 1045 0000 3d9b af90 66f0 5b96
00000140: 8145 0000 db44 0080 4146 0080 4137 2f8c
00000150: c3ac c799 8a44 0000 1d45 0000 ad45 0080
00000160: 7845 0080 e144 0080 e744 0080 6a44 0000
00000170: 8844 0000 b345 0080 a344 0080 bb44 0000
00000180: 3345 0080 be54 0000 ea44 0000 b644 0000
00000190: c344 0000 6c44 0000 a544 0080 6944 0000
000001a0: d34f 0080 c48c 298f ee44 0080 8244 0000
000001b0: a644 0000 4153 0000 dd3b 0000 a444 0080
000001c0: 2641 0080 9544 0080 cc44 0080 f644 0000
000001d0: 2e92 0280 8e44 0000 6946 0080 4045 0000
000001e0: a644 0000 b944 0000 f244 0000 8944 0080
000001f0: 8244 0080 9c46 0000 1b45 0080 7944 0080
00000200: 7d44 0000 0145 0000 eb45 0080 6845 0080
00000210: 5945 0080 e544 0080 9244 0000 6944 0080
00000220: ee44 0080 e344 0000 7c47 0000 ac44 0080
00000230: 3f46 0080 2145 0080 bf44 0080 e944 0080
00000240: b944 0080 0845 0000 6945 0000 7145 0000
00000250: ac44 0080 c547 0080 6844 0000 28e7 0280
00000260: 6745 0080 e252 0080 6647 0000 9857 0000
00000270: e950 0080 10bc 961c 9f44 0000 c353 0000
00000280: e349 0000 71b6 0180 d54d 0000 2656 0000
00000290: d957 0080 f54c 0080 d350 0080 564a 0080
000002a0: 4d46 0080 5a46 0080 d255 0080 6c44 0000
000002b0: b548 0000 4249 0000 182c a3a9 3f45 0000
000002c0: d945 0000 a344 0000 e354 0000 6d44 0080
000002d0: 5745 0080 8745 0000 5c45 0000 7744 0000
000002e0: a144 0000 2745 0080 aa47 0000 ea45 0000
000002f0: a844 0080 f044 0080 8e44 0000 0945 0000
00000300: 6f45 0080 2b46 0080 9444 0000 9946 0000
00000310: 4045 0080 6c44 0000 2846 0080 1e45 0080
00000320: 6044 0000 0245 0000 fc44 0080 c344 0000
00000330: ae45 0080 2145 0000 0c45 0000 c046 0080
00000340: 6244 0000 9244 0000 ee46 0000 9f44 0080
00000350: ca46 0080 b256 0000 7c44 0080 d345 0000
00000360: eb44 0000 d545 0000 5e44 0000 f844 0000
00000370: 4747 0000 a346 0000 6044 0080 3747 0080
00000380: 4945 0000 a944 0080 2845 0080 e944 0080
00000390: 9b44 0000 2f45 0000 d444 0000 1345 0000
000003a0: fd44 0000 f244 0080 d944 0080 4956 0000
000003b0: ee44 0080 7145 0000 1f4c 0080 0249 0080
000003c0: 9844 0080 4b45 0080 1c50 0080 0e53 0080
000003d0: 224f 0000 fc44 0080 9444 0000 1e49 0080
000003e0: 464f 0000 0945 0080 bfae 9901 e444 0080
000003f0: 1545 0080 7644 0080 d244 0000 df44 0080
2.4626e-41 2.4694e-41 -1.1443603e-27 -2.3040463e-25 -2.4554e-41 -2.4645e-41 -2.4739e-41 2.5995e-41
-2.4531e-41 -2.4535e-41 -4.25353e-40 2.4666e-41 -2.4605e-41 -2.4647e-41 2.4886e-41 -2.4591e-41
2.6207e-41 -2.563e-41 -2.4629e-41 2.5553e-41 -3.0236e-41 -3.0979e-41 -2.512e-41 2.4874e-41
-2.4793e-41 2.4947e-41 -2.468e-41 -2.4624e-41 -2.4816e-41 2.475e-41 2.469e-41 -2.4748e-41
-2.4883e-41 -2.4632e-41 2.4569e-41 2.4531e-41 2.4667e-41 -2.4817e-41 2.453e-41 2.491e-41
-2.4645e-41 2.4901e-41 2.4569e-41 2.5065e-41 2.476e-41 -2.4586e-41 -2.572e-41 -2.473e-41
2.5082e-41 2.5194e-41 2.5012e-41 -2.4667e-41 -2.482e-41 2.4803e-41 -2.4636e-41 2.4614e-41
-2.493e-41 -3.1361e-41 -2.4771e-41 2.4797e-41 -2.4821e-41 2.4604e-41 2.5113e-41 -2.4572e-41
2.4691e-41 2.4596e-41 -2.4694e-41 2.5122e-41 2.4548e-41 -2.475e-41 2.485e-41 -2.5038e-41
-2.5e-41 -2.4827e-41 -2.4547e-41 -2.4598e-41 -2.4614e-41 2.4775e-41 -6.926451e-29 -1.7766535e-25
2.4933e-41 -2.47e-41 -2.5202e-41 -1.3498137e-31 -2.0645896e-23 2.4587e-41 2.4793e-41 -2.4995e-41
-2.492e-41 -2.4709e-41 -2.4718e-41 2.4542e-41 2.4584e-41 -2.5003e-41 -2.4622e-41 2.4656e-41
-2.4824e-41 3.04e-41 2.4722e-41 2.4649e-41 2.4667e-41 2.4545e-41 -2.4625e-41 2.4541e-41
-2.8636e-41 -8.359454e-30 -2.4727e-41 2.4576e-41 2.4626e-41 2.9866e-41 2.1475e-41 -2.4624e-41
-2.3371e-41 -2.4603e-41 -2.468e-41 2.4739e-41 -2.3611e-40 2.4593e-41 -2.5258e-41 2.4842e-41
2.4626e-41 2.4653e-41 2.4733e-41 -2.4586e-41 -2.4576e-41 2.533e-41 -2.479e-41 -2.4563e-41
2.4569e-41 2.4754e-41 -2.5082e-41 -2.4898e-41 -2.4877e-41 -2.4715e-41 2.4598e-41 -2.4541e-41
-2.4727e-41 2.4712e-41 2.5644e-41 -2.4635e-41 -2.52e-41 -2.4799e-41 -2.4661e-41 -2.472e-41
-2.4653e-41 2.4764e-41 2.49e-41 2.4911e-41 -2.4635e-41 -2.5746e-41 2.454e-41 -2.66594e-40
-2.4897e-41 -2.9733e-41 2.5613e-41 3.1423e-41 -2.9025e-41 9.97478e-22 2.4617e-41 3.0048e-41
2.6506e-41 -1.57283e-40 2.7921e-41 3.0904e-41 -3.1514e-41 -2.7607e-41 -2.8994e-41 -2.6667e-41
-2.5219e-41 -2.5237e-41 -3.0787e-41 2.4545e-41 2.6082e-41 2.628e-41 -7.246303e-14 2.4841e-41
2.5057e-41 2.4622e-41 3.0452e-41 -2.4547e-41 -2.4874e-41 2.4942e-41 2.4881e-41 2.456e-41
2.462e-41 -2.4807e-41 2.5708e-41 2.508e-41 -2.4629e-41 -2.473e-41 2.4593e-41 2.4765e-41
-2.4908e-41 -2.5172e-41 2.4601e-41 2.5326e-41 -2.4842e-41 2.4545e-41 -2.5167e-41 -2.4795e-41
2.4528e-41 2.4755e-41 -2.4747e-41 2.4667e-41 -2.4996e-41 2.4799e-41 2.477e-41 -2.538e-41
2.4531e-41 2.4598e-41 2.5445e-41 -2.4617e-41 -2.5394e-41 3.11e-41 -2.4568e-41 2.5048e-41
2.4723e-41 2.5051e-41 2.4526e-41 2.4741e-41 2.557e-41 2.534e-41 -2.4528e-41 -2.5547e-41
2.4855e-41 -2.463e-41 -2.4809e-41 -2.472e-41 2.4611e-41 2.4818e-41 2.4691e-41 2.4779e-41
2.4748e-41 -2.4733e-41 -2.4698e-41 3.0953e-41 -2.4727e-41 2.4911e-41 -2.7307e-41 -2.619e-41
-2.4607e-41 -2.4858e-41 -2.8738e-41 -2.9794e-41 2.8388e-41 -2.4747e-41 2.4601e-41 -2.623e-41
2.8438e-41 -2.4765e-41 5.645407e-38 -2.4713e-41 -2.4782e-41 -2.4559e-41 2.4688e-41 -2.4706e-41

fc1.bias f4 [120]
00000000: 2717 5e09 b4d9 ed3d 478e 3db3 da53 7c3d
00000010: af83 a8bd 4d6b c63d 694d 45bd 5052 b7af
00000020: 5151 baaf 56fe abbd c0b8 733e fd27 3fbc
00000030: 92d7 bb9d 4736 ecb4 2e3e d7b8 e328 6ebc
00000040: e3c5 87b3 794d 3e3e 8768 033e e286 3db8
00000050: 729a debd c5a6 0bbb fe3a 1c3e 5f27 07bc
00000060: 3c1d af3d b896 c83d c29b 9bbd a5a5 7bbd
00000070: d574 8a3c 5186 c7b8 4caa f4bb d876 7abc
00000080: 0482 e8ba 33a8 e8bc 5c24 3db6 6fa4 35b9
00000090: d26b 093e d6e8 e4bc 6ab2 32bd f48d 503d
000000a0: b315 ef3c 0407 0bbd 60be 9eb4 5a99 0080
000000b0: c017 303e 5d3f c33b fee9 483e e39a 853c
000000c0: e1fd 093e 9be4 89bc fafd d3ac 3e77 86bd
000000d0: 826c 723d ef90 5abd 37e7 0abd 8e4b 343c
000000e0: 0968 cfba 32b0 56ba 887f a0a6 fba8 bbb2
000000f0: 465f 238d b3f0 173e 7f2c 96af 03b5 b23d
00000100: 44a1 2ab5 ae4c e93c 5b52 323e 0a52 89bb
00000110: 5826 00b7 32c3 923d 5037 32bb c96b 84b1
00000120: e67b 95bc 7255 843d 8295 14bd aa21 b9b8
00000130: 5414 a8b0 7f3a 2e3c a48f 499c dcc0 86b4
00000140: f934 0cbd 0ddd 1ebc 0269 3abd ee1e 043d
00000150: 5cb6 d63d 1c9c 743d 2f41 c53c f13a e5bd
00000160: 5be1 4c3e 686a 1ebb 34f0 77bc 8be8 45bd
00000170: 702e 979c 8674 bdb0 ff6f 53bc 54df 5db0
00000180: f35d 453b a946 8dbd 37ae 1e3e 79fb 453e
00000190: 66d4 0409 78ca fbb6 0a63 1b3e c0f5 79bd
000001a0: b9f0 90bd 8895 97bc cfae e2b5 455e d5bc
000001b0: 27ba 9eb9 a6d8 1f3e 5d27 54bd 9a11 11bb
000001c0: 730f d3bb 4a9e 4e3e f9e1 933d 0859 b9bc
000001d0: 3b49 79a5 75c3 573d fc41 1dbd f839 a499
2.6733164e-33 0.11613789 -4.4134392e-08 0.061603405 -0.08228242 0.09688435 -0.048169527 -3.3345993e-10
-3.3890982e-10 -0.0839812 0.23800945 -0.011667249 -4.9721382e-21 -4.3997917e-07 -0.00010263581 -0.014536115
-6.322423e-08 0.18584241 0.12832843 -4.518673e-05 -0.10869302 -0.002130912 0.15256879 -0.008249133
0.08550498 0.09794372 -0.07598068 -0.061437268 0.016901413 -9.514078e-05 -0.00746659 -0.015287124
-0.0017738943 -0.028400516 -2.8184359e-06 -0.00017322761 0.13420036 -0.027943056 -0.04362718 0.050916627
0.029185152 -0.033942237 -2.956831e-07 -5.5012e-41 0.1719656 0.005958481 0.19620511 0.016309207
0.13475753 -0.01683264 -6.0251778e-12 -0.065657124 0.059185512 -0.053360876 -0.03391191 0.011004342
-0.0015823852 -0.00081897073 -1.1136798e-15 -2.1846509e-08 -5.0342934e-31 0.14837913 -2.7316457e-10 0.087259315
-6.356461e-07 0.028478947 0.17414229 -0.004190688 -7.638322e-06 0.07166137 -0.0027193613 -3.8539594e-09
-0.018247556 0.0646161 -0.036275394 -8.827758e-05 -1.2229386e-09 0.010634064 -6.669097e-22 -2.509977e-07
-0.034230206 -0.009696257 -0.0455103 0.03225606 0.10484001 0.05971919 0.024078934 -0.11192883
0.20007841 -0.002417231 -0.0151329525 -0.048317473 -1.0004346e-21 -1.3784678e-09 -0.01290512 -8.07167e-10
0.0030115813 -0.06898243 0.15496145 0.1933421 1.5988791e-33 -7.5039534e-06 0.15174499 -0.06102538
-0.07077164 -0.01850392 -1.6889188e-06 -0.026045928 -0.00030274803 0.15609989 -0.051795352 -0.0022135735
-0.0064410507 0.2017757 0.07220835 -0.022625461 -2.1622119e-16 0.052676637 -0.038393006 -1.6980616e-23

fc2.weight f4 [84, 120]
00000000: 5cb7 aba2 7b94 513e 749f 0cb4 77c4 843d
00000010: ecf4 23bd 1e19 58be 053f 8a3e dd06 30b8
00000020: 5eb2 b7b3 9ed3 283e cd1f 36bc 3127 f43c
00000030: 6f86 95b0 c276 5437 d876 8d39 c5b8 9b3d
00000040: 8f53 df38 0208 43be eaa7 2a3e 89ea 28ba
00000050: 6ffb 923d cf92 eb3b d249 8bbd 44ce 7f3b
00000060: 9c1c 9fbd 9b01 0bbe 646e c6bc 49e1 ee3c
00000070: 8456 a93d 91a2 96bb b7ee 0e3e bd44 6f3b
00000080: 5677 6c3b e1e3 c03d 67d5 7d3b 1201 1fbb
00000090: 3849 343e 9f73 ebbc 8685 8f3d 1f04 303d
000000a0: 4919 403c 9ad2 c73e 456b 0ab8 fa66 a2ab
000000b0: 9eac e7bb e067 073e 2b79 0e3e 0089 b13c
000000c0: 1783 4d3d d49e 4cbe 99ef 9a1c 30bd 6ab9
000000d0: 6201 a8be 199c 243e 0809 823e 48d9 9ebd
000000e0: 786b 5339 b7e9 0b3b a7a5 d335 422b 531c
000000f0: 7fa8 111f c98d 223e 66d5 ff2b 4c8d 41bd
00000100: bc70 0632 0363 c13e 9234 a4bd bca6 9d3c
00000110: 54c3 9137 8986 f63a 3eb8 a0ba f9d3 ce2a
00000120: e334 39ba 8ad7 803d 53af 3e3d 4fff a438
00000130: 3d89 de35 93cc 96be 9f44 0000 83f6 56bc
00000140: ba68 203c f17c c93b 708a a7bc 3377 0b3e
00000150: 9fe2 b0bd 5eed b53e 8ce4 043d 6a67 ae3d
00000160: b542 10be 31d2 4cbc be49 c23b df9a 8dbc
00000170: 8fe0 c1b8 98fd 88ae 16ad 333e 7180 9a37
00000180: 2e4e a03e 05e6 46bd 7e03 d43d 9598 943d
00000190: 3391 ec25 ee3f 16ba 991c e1bd 7e1b 663d
000001a0: 7c9c 98be 6b1c f73c d797 6eb8 fe72 0ebd
000001b0: c112 30bb 0b30 4f3d 78d4 4e3e a274 16b9
000001c0: c121 84bc 4aa3 98bc 2f4a 363e 9038 6cbd
000001d0: dac1 3a30 1651 18be 68a0 48bd 6347 99b1
000001e0: 5957 0000 63aa eab7 ff47 0000 fcd8 20b4
000001f0: a055 0000 36fc 3e2f 7acd ec31 a449 0080
00000200: 004d 0080 4903 d92c cda5 4130 07b7 1138
00000210: 7744 0000 4e07 0200 2d48 0000 0b51 14a5
00000220: bb44 0080 a6d8 09b8 f736 d2b5 4f55 0080
00000230: 7a15 0cb7 ab12 0100 d120 19b8 3151 0000
00000240: a499 d434 f7b9 822f 4c5e 7b30 f851 0080
00000250: 9db1 3326 4f4e 55a7 a33a 6031 c555 0080
00000260: fb49 0000 882c 20a2 fb4c 0080 184c 0000
00000270: 7c60 0131 ff98 b736 0cbb 65b2 e593 43b7
00000280: 4c2f 58a1 2c46 29b7 9244 0000 aa45 0000
00000290: 0202 a22e f34e 0da6 98a1 3d35 3769 0fb8
000002a0: cd05 9031 07c8 9f37 5c48 0080 5927 0f80
000002b0: 46dd b3b6 2e12 a0b7 1db4 122c 2063 a1b9
000002c0: 1047 0000 463f 0100 8144 0000 9c29 0280
000002d0: 004e 0080 296f 88b3 b645 0000 ae11 06b9
000002e0: 7b00 d436 0d7a 2928 a149 08b4 c450 0080
000002f0: 7aa7 0080 b940 30a4 00c0 0300 104a 0080
00000300: 8646 0000 c9d1 65b7 873e 9ab3 6109 0180
00000310: 8f02 0080 f889 94b9 a844 0080 1856 0000
00000320: 2545 0000 3454 0080 8d1f 70b7 5ef6 16b4
00000330: 4156 4b2f f019 04b7 efe9 b728 42fe f432
00000340: 533f d427 6f44 0080 f744 0000 1c47 0000
00000350: f491 0580 6744 0000 4e51 9ab6 4b4e 0000
00000360: 9f2d 11b9 b276 f830 7c10 58b6 2576 b5b2
00000370: a744 0080 0158 9424 931a 93b7 6b44 0080
00000380: 0a43 5db8 7a44 0000 724c 0000 f6bc 15a0
00000390: 7444 0080 01f1 a9b7 7c27 2997 6556 0080
000003a0: e847 0000 f391 3030 23bb e2b9 1107 23a6
000003b0: 6c44 0000 4be2 ec29 324c 0080 7d4f 0000
000003c0: 064b 0000 2b5a eabb 5149 0000 c03d 8abc
000003d0: 0a16 feb6 7cc8 00bc 5789 6bbc 80ed 7806
000003e0: 1346 0080 ef43 1937 4034 9fbc f46d f2bb
000003f0: 4f46 0080 c244 0080 5c4b 0000 0b8f 832c
-4.6543782e-18 0.20466797 -1.3096525e-07 0.06482785 -0.040028498 -0.21103331 0.27001205 -4.1968062e-05
-8.5540464e-08 0.16486976 -0.01111598 0.029803844 -1.0879385e-09 1.2663835e-05 0.0002698216 0.07603601
0.000106490326 -0.19046023 0.16665617 -0.000644364 0.071768634 0.007189132 -0.068011895 0.0039032856
-0.07769129 -0.13574831 -0.02422256 0.029160159 0.08268455 -0.004597016 0.1395825 0.0036509477
0.0036081872 0.094184645 0.0038731934 -0.0024262113 0.17606056 -0.028741656 0.070078894 0.04297268
0.011724778 0.39027864 -3.3001666e-05 -1.1539374e-12 -0.007070138 0.13223219 0.1391341 0.021671772
0.050173845 -0.19982463 1.02528e-21 -0.00022386457 -0.32813555 0.16075172 0.25397515 -0.07756287
0.00020162563 0.0021349022 1.5768936e-06 6.9869953e-22 3.084432e-20 0.15874399 1.817807e-12 -0.04725389
7.825459e-09 0.37770852 -0.080178395 0.019244544 1.7376304e-05 0.0018808405 -0.001226194 3.6740036e-13
-0.00070650707 0.06291111 0.04655392 7.867684e-05 1.658023e-06 -0.29452953 2.4617e-41 -0.013120296
0.009790594 0.0061489274 -0.020451754 0.1361969 -0.086369745 0.3553266 0.03244452 0.085158184
-0.14087947 -0.012501285 0.005929201 -0.017285762 -9.2447845e-05 -6.229611e-11 0.17546496 1.841804e-05
0.31309646 -0.048559207 0.103522286 0.07255665 4.1037865e-16 -0.0005731572 -0.10991783 0.056178562
-0.29806888 0.030164918 -5.6885034e-05 -0.034777634 -0.0026866647 0.050582927 0.20198238 -0.00014348564
-0.016129376 -0.01863255 0.17801736 -0.05767113 6.7941885e-10 -0.14874682 -0.0489811 -4.461002e-09
3.1334e-41 -2.7974316e-05 2.5827e-41 -1.49801e-07 3.0716e-41 1.7370003e-10 6.891864e-09 -2.6417e-41
-2.7622e-41 6.1678757e-12 7.044861e-10 3.474115e-05 2.456e-41 1.86291e-40 2.5892e-41 -1.2864412e-16
-2.4656e-41 -3.2865115e-05 -1.5662216e-06 -3.0603e-41 -8.349651e-06 9.8532e-41 -3.6508605e-05 2.9126e-41
3.9599865e-07 2.3778998e-10 9.144727e-10 -2.9405e-41 6.234381e-16 -2.960214e-15 3.2629621e-09 -3.0768e-41
2.6539e-41 -2.1707618e-18 -2.7615e-41 2.7297e-41 1.8826816e-09 5.471636e-06 -1.3372084e-08 -1.165734e-05
-7.3246244e-19 -1.0089523e-05 2.4598e-41 2.4991e-41 7.367264e-11 -4.90262e-16 7.0643136e-07 -3.4191846e-05
4.191611e-09 1.9047422e-05 -2.5958e-41 -1.391648e-39 -5.3603753e-06 -1.9081952e-05 2.084783e-12 -0.00030782167
2.5492e-41 1.14534e-40 2.4575e-41 -1.98598e-40 -2.7981e-41 -6.3532134e-08 2.5008e-41 -0.00012785822
6.3181483e-06 9.40785e-15 -1.2692773e-07 -2.8973e-41 -6.0079e-41 -3.821874e-17 3.44383e-40 -2.6569e-41
2.5299e-41 -1.3698308e-05 -7.1825575e-08 -9.52e-41 -9.18e-43 -0.00028331554 -2.4629e-41 3.0885e-41
2.4804e-41 -3.0206e-41 -1.4312461e-05 -1.4059466e-07 1.8493386e-10 -7.873852e-06 2.0418534e-14 2.8520962e-08
5.8910477e-15 -2.455e-41 2.474e-41 2.5509e-41 -5.11536e-40 2.4538e-41 -4.5990228e-06 2.8086e-41
-0.00013845273 1.807811e-09 -3.2196103e-06 -2.11249e-08 -2.4628e-41 6.433385e-17 -1.753614e-05 -2.4544e-41
-5.275294e-05 2.4565e-41 2.7423e-41 -1.2683313e-19 -2.4556e-41 -2.0258596e-05 -5.465668e-25 -3.0993e-41
2.5795e-41 6.4235833e-10 -0.00043245507 -5.656156e-16 2.4545e-41 1.0519761e-13 -2.7334e-41 2.8515e-41
2.6913e-41 -0.007151862 2.6301e-41 -0.016875148 -7.5723556e-06 -0.007860299 -0.014376006 4.6818103e-35
-2.5138e-41 9.135328e-06 -0.019434094 -0.0073983613 -2.5222e-41 -2.4666e-41 2.7034e-41 3.739125e-12

fc2.bias f4 [84]
00000000: 3b75 4fbd 3984 22b9 a561 11bd 7df2 adbd
00000010: 6e5b a83e 2f8e 78b5 8082 9c3d 1280 5a3e
00000020: 9587 00bd ab72 98b8 100b 2fb7 b097 2b3e
00000030: 86bf 80ae a9bd 95bc 6711 69ae 1ad6 253e
00000040: ef67 1cbd c702 003e 6276 2cb7 b79c 113e
00000050: 7aa2 973e b720 8d3e 0084 033e e520 dc3c
00000060: fb59 ebb9 8f4d 02bd 04ce 843e 2500 223e
00000070: b2dc beb7 f6c3 24ba a377 b2a4 c4aa 743d
00000080: 458a 0e3d 2851 f63d 4cb7 903d ceb3 813e
00000090: 358f 723e 0fcd 2b3e cbc0 11be 68ea 803b
000000a0: 91a4 f33c 4857 57b7 6b08 8d94 f6d9 0e3e
000000b0: a422 02bb 446c 17bd 3362 993d e5db cc3d
000000c0: 064a 183e d4a4 84bc 1517 f23d 4ed4 09bd
000000d0: d213 553e 0cae dd3d 7210 2c3e 2b58 ed3d
000000e0: ce18 93ad 99ad 63bc d2da fd3d 623e 613b
000000f0: fa55 97bd fa35 793e 0b6b 80bc 809c 1a3e
00000100: 8d88 0d3d ab9f dabc f619 07b6 33f4 123c
00000110: 5c6e 233e 2453 d3bd 4b21 b2af 4387 afad
00000120: f0b1 223e 8449 513e 4500 393e 3621 9b9f
00000130: ab38 b33d 349e 6b3d 2442 ff3d 1502 90bc
00000140: da8e 9abc 8812 4b3c e886 603e c656 033d
-0.05064891 -0.0001549878 -0.03549351 -0.084935166 0.32882255 -9.2594104e-07 0.076420784 0.21337917
-0.0313793 -7.2692834e-05 -1.04333885e-05 0.16757083 -5.8547875e-11 -0.018278914 -5.2993523e-11 0.16194955
-0.038185056 0.1250106 -1.0279562e-05 0.14219938 0.29616147 0.27564022 0.12843323 0.026871154
-0.00044889734 -0.031812247 0.25938427 0.15820368 -2.2752534e-05 -0.0006285304 -7.739787e-17 0.059733167
0.034799833 0.12027198 0.07066211 0.25332493 0.23687442 0.16777442 -0.14233701 0.0039341934
0.029741557 -1.283532e-05 -1.4240682e-26 0.13950333 -0.0019857073 -0.036968485 0.07489433 0.10002879
0.14871988 -0.016191877 0.11820809 -0.033649735 0.20808342 0.108242124 0.16803148 0.11589082
-1.672298e-11 -0.013896369 0.12395252 0.0034369458 -0.073894456 0.24336997 -0.015676042 0.15098763
0.034554053 -0.026687464 -2.013168e-06 0.008969354 0.15960068 -0.10318592 -3.2401667e-10 -1.9955265e-11
0.1588819 0.204382 0.18066509 -6.5699996e-20 0.08751043 0.05752392 0.12463787 -0.017579118
-0.018866945 0.012394555 0.21926463 0.032065175

fc3.weight f4 [10, 84]
00000000: 5942 523e 9834 13b8 88e4 74bc dd71 663e
00000010: c136 40be 435b 51b8 30d3 8bbe ae7d 92be
00000020: bd0c cd3d 9528 b03b fda9 6bb7 6536 173d
00000030: cab8 3b2c 1f80 36bd bdad 44b4 9851 e8be
00000040: fcc3 babe 7d4c 9fbe ade6 9b3a 844b 3fbd
00000050: a617 8cbe d3e8 0a3d b233 673c 29b7 a33e
00000060: 1017 09bb 3727 b8bd 5313 e3bd df52 223e
00000070: da6b 3a39 397a dc3c 626b e7a5 7452 10be
00000080: 1a3d b33d 0481 03be fbee c83d a20f 8bbe
00000090: 0794 11be 41cb 083e 5d41 033e e1f7 013a
000000a0: 0529 a73d 307f 8f38 7ff4 7da5 655d 283e
000000b0: a77a 2f3a eafa c2be 453b 743e 7464 87be
000000c0: c3ad 17be 6f70 abbe a5f8 d4bd fedb ae3c
000000d0: ad32 e8bd 5315 85be 08da 6f3d c06e a0be
000000e0: 06fd 3db4 c01b deba 0359 0e3e f0b6 313e
000000f0: f469 90bc 52c5 3ebf 3ba5 e9bc fba0 a93d
00000100: 8af7 3e3e a049 83bd 8117 113c 755f e23d
00000110: 8b53 943e 45e9 4abd ced6 9733 e2bb edb2
00000120: c508 403d 95ea a5be e8fa a9bd 24e4 d832
00000130: ebef 023e 4599 8b3d 585a b7bd 2c58 8fbd
00000140: f632 293e c3e8 b3be b20b 63be 9284 c9be
00000150: a327 9b3d d3e0 1138 2f50 dfbb 8688 9bbe
00000160: 859c 1abe 945f c027 f46f dd3c f5a4 7cbe
00000170: 2748 1d3e d837 0235 6520 09b6 5722 9dbe
00000180: a4ad 0694 7712 0538 dd8f 39a4 c101 8abe
00000190: 72e5 53be 9c55 0ebe b147 06b2 6006 1fbf
000001a0: d67f b73b 77f4 01bd 03b5 79be 56e9 83bd
000001b0: 7d04 b338 f1a4 3fbe 4a0b 743e c91f 1bbf
000001c0: c0a2 c7b4 8f59 d0b9 350a 0000 60c4 88bd
000001d0: 29fc d93d de9c eb3d 9728 ebbd 68a4 713d
000001e0: 99e7 c1be 2ed4 c2be 13f7 1bbe 5876 94ba
000001f0: 9a8f 32be faeb dab5 0745 0000 86a0 cf3d
00000200: 0b8f 21b5 b2e5 cf3e ac7a 67be c192 603e
00000210: 4b9a d3bd af06 87be 287c 85bd 1639 bd3b
00000220: 2ee1 adbe 6f76 8bbe fea7 bc3d 99c4 16bf
00000230: c122 81a0 f165 6f39 8e37 7ebe cbcf c13e
00000240: 277f cd3c 616b 2dbf 8ff0 a33e 3b7d afbe
00000250: 769b a6be 7d5c fbbc 0ac2 6db3 692b 8ebe
00000260: fc83 1fbf 7a26 b73d 7fce 0292 165b 98a8
00000270: eca0 003d 8f39 a03e 81f1 cdbd 7845 4c23
00000280: 1f7a eebe 0e4f db3e 1218 f83e d33d c3bd
00000290: 55f4 9dbe 87f1 c6bc 5818 dc3d d90c 8d3e
000002a0: a24b 04be cd33 663a 4172 0bba 31d0 b43d
000002b0: dc9b 39ba ac13 0038 1a14 9abe 87c5 e13d
000002c0: f631 a73d 7bcf 433c 964b 0bbb 1d7f a7be
000002d0: 35f2 4e29 c7ef aebc c7e3 3a3a 031a 00be
000002e0: 52c7 62be bec5 233c aba9 19b8 bb9d 08be
000002f0: 593e bcbe 9215 0dbf 2de7 2bbd 1c65 0f3e
00000300: 4bb1 06b9 2558 41be 833c cbbb 19d0 0a3e
00000310: f4a1 e0b5 58f2 99b9 14d6 ea98 94d2 35be
00000320: b6b9 173f 8d03 96be 7894 de3d f15e 45be
00000330: 772f dc3d a719 51be 262e 5dbe 7a35 903b
00000340: 4d54 1e3d 5840 a5ba 54c1 4433 62ce 0e3d
00000350: 6824 3c3a 58d7 083e 7e11 c9bd d09f a6be
00000360: 9bca 0bbe 7471 163e e8cc 26be c951 b03b
00000370: e584 73bd 1c7f 8cbe 2be2 413d 7866 253e
00000380: 9fc5 12b9 b87c cb3c 67d5 5dbe 0a49 2bbf
00000390: 3d86 3bbd cb1f 223e 33a2 123e 1545 d03d
000003a0: 1e72 2fbe d9f9 21be 8a81 1a3b 6126 053e
000003b0: 2a06 e23c fea6 103d 65bd 5d32 e2f0 91a9
000003c0: f5ac 0ebe 0b62 013d 1c25 d3be 9942 b02e
000003d0: 5142 803e ec3b c73d 4164 09bf 0856 f8bd
000003e0: 0910 b13d 4de5 9bb9 5d6b 343d 575d 223e
000003f0: 0ea0 953b c922 df3b a38f 793c 7a8f 19be
0.20533122 -3.5096513e-05 -0.014947064 0.22504373 -0.18770887 -4.9914477e-05 -0.2730956 -0.2861151
0.10012195 0.0053759315 -1.404667e-05 0.03691711 2.6676877e-12 -0.04455578 -1.8317128e-07 -0.4537475
-0.3647765 -0.31113043 0.0011894308 -0.046702877 -0.27361792 0.033913445 0.014111446 0.31975678
-0.0020918287 -0.08991855 -0.1108767 0.15851925 0.0001777852 0.026913749 -4.0144878e-16 -0.14093953
0.087518886 -0.12842184 0.09811207 -0.27160364 -0.14216624 0.13358785 0.12817903 0.00049578963
0.08162121 6.842462e-05 -2.202709e-16 0.16441877 0.0006693997 -0.38082057 0.23850735 -0.26443827
-0.14812379 -0.33484218 -0.10398988 0.021345135 -0.11337791 -0.25992832 0.05855754 -0.31334496
-1.7694046e-07 -0.0016945526 0.13901143 0.17354941 -0.017628647 -0.74519837 -0.02852117 0.08282658
0.18649116 -0.06410527 0.008855701 0.11053363 0.28969988 -0.04953887 7.070558e-08 -2.767587e-08
0.046883363 -0.32405534 -0.0829981 2.5249456e-08 0.12786834 0.06816343 -0.089527786 -0.06999239
0.16523346 -0.3513852 -0.2217243 -0.39358956 0.075759195 3.4780078e-05 -0.0068149786 -0.30377597
-0.1509877 5.339433e-15 0.027030922 -0.24672301 0.15359555 4.851004e-07 -2.0433447e-06 -0.30690262
-6.799516e-27 3.1726868e-05 -4.0237337e-17 -0.26954463 -0.20692995 -0.13899845 -7.816127e-09 -0.621191
0.005599956 -0.03172728 -0.24385457 -0.0644099 8.536221e-05 -0.18715264 0.23832431 -0.60595375
-3.7185055e-07 -0.00039739578 3.662e-42 -0.066780806 0.10643799 0.115045294 -0.11482351 0.05899468
-0.37872007 -0.38052505 -0.1523097 -0.0011326773 -0.17437592 -1.6310944e-06 2.4762e-41 0.10138039
-6.018533e-07 0.4060493 -0.2260539 0.21930982 -0.103321634 -0.26372287 -0.065178216 0.0057746274
-0.3396086 -0.27238795 0.092117295 -0.58893734 -2.1876448e-19 0.00022830792 -0.2482588 0.37853846
0.025085045 -0.6774197 0.3201947 -0.3427523 -0.32540482 -0.03068375 -5.535734e-08 -0.27767494
-0.6231077 0.08942886 -4.1275293e-28 -1.6914892e-14 0.031403467 0.31293914 -0.10055829 1.1073573e-17
-0.46577546 0.4283375 0.48455864 -0.095332764 -0.30850473 -0.024285091 0.10746831 0.27548864
-0.12919477 0.00087815226 -0.00053194544 0.08828772 -0.0007080415 3.05359e-05 -0.3009346 0.110240035
0.08163826 0.011951323 -0.002125477 -0.32714167 4.595127e-14 -0.02135457 0.00071292784 -0.12509923
-0.22146347 0.009995876 -3.663606e-05 -0.1334142 -0.36766317 -0.5511104 -0.041968513 0.14003414
-0.00012845283 -0.1888128 -0.006202282 0.13555945 -1.6736435e-06 -0.00029362994 -6.0703746e-24 -0.1775611
0.5926775 -0.29299584 0.10868162 -0.19274499 0.10751241 -0.20419942 -0.21599635 0.004400906
0.038654614 -0.0012607677 4.5810637e-08 0.03486479 0.0007177056 0.13363397 -0.098177895 -0.32543802
-0.13651507 0.14691716 -0.16289103 0.0053808433 -0.05945291 -0.27440727 0.04733483 0.1615237
-0.00013997265 0.024839744 -0.21663438 -0.66908324 -0.045782316 0.1583244 0.14319687 0.10169426
-0.17133376 -0.15817966 0.0023575746 0.13002922 0.02759083 0.035315506 1.2906956e-08 -6.48108e-14
-0.13933165 0.03158764 -0.4123925 8.0153835e-11 0.25050595 0.09728226 -0.536686 -0.12125784
0.086456366 -0.00029734746 0.044047702 0.15855919 0.004566199 0.0068095666 0.015232 -0.14996138

fc3.bias f4 [10]
00000000: dec7 4dbe dcda 4fbe c2ed d83c b6b8 3b3e
00000010: 2011 2dbe f5e9 43bd a511 473e 8456 013d
00000020: 5365 663e 40ca 6dbe
-0.20095775 -0.20298332 0.02648056 0.1833218 -0.16901064 -0.04783054 0.19440325 0.03157665
0.2249959 -0.23221684
