HW1_Split_nb/checkpoints/model_weightdecay_8.pt (torch, 250656 bytes, 10 tensors)

conv1.weight f4 [6, 1, 5, 5]
000000 54 cf d5 3e 6a d8 90 3d 78 16 a0 be fd bb a6 3c
       0.4175974 0.07072528 -0.31267142 0.020353312
000010 64 a9 a7 bd 84 22 bf 3e c2 ba a3 3d fd 62 d1 be
       -0.081866056 0.3733102 0.079946056 -0.40895835
000020 0f 1b 9c 3e 3d bf 80 3d 14 c9 34 3e 80 b9 9c bd
       0.30489394 0.06286476 0.1765483 -0.07652569
000030 7e 7f 05 bf 07 69 bc 3e 50 0f 86 3e 1f 6c ab bd
       -0.5214766 0.3679888 0.26183558 -0.08370232
000040 3c 61 da be 0d d2 30 bf 1e e4 0a 3f c6 ce d2 3e
       -0.4265231 -0.6907051 0.5425433 0.4117338
000050 a4 db 27 3d da a7 c2 be 0e b8 5d bf bc 80 18 3e
       0.04098095 -0.38018686 -0.8660897 0.14892858
000060 0c 52 10 3f cf cc 95 3d b3 85 0e bc b1 9a 03 be
       0.56375194 0.07314455 -0.008698869 -0.12851979
000070 8a 97 01 bd 61 fd 9e be a1 12 a1 3d 95 5a 6c 3e
       -0.03163866 -0.31052688 0.07864881 0.2308143
000080 4c 8d 3e be d4 70 43 3e 71 5a e9 bd 00 e8 d4 bd
       -0.18608588 0.1908601 -0.113942035 -0.10395813
000090 c1 0c 65 3e 4d 29 12 3e bc 83 98 3e 61 66 94 bc
       0.22368146 0.14273567 0.29788005 -0.018115224
0000a0 ba 74 63 be a9 71 37 3d 4a ce 9d 3d 9e 17 aa 3e
       -0.22212496 0.04478613 0.07705362 0.33221143
0000b0 7b 62 30 3e 17 54 fb bd 5d 27 29 3e 1e 3d e4 bb
       0.17225067 -0.12271898 0.16518922 -0.0069652935
0000c0 94 02 d7 3d 2d 53 fa 3d 85 dd 54 3d 1c de 32 3e
       0.104985386 0.12222896 0.05196907 0.1746754
0000d0 37 ca 56 be a1 9c 69 be 40 f0 94 be f6 bd 50 be
       -0.20975576 -0.22813655 -0.29089546 -0.20384964
0000e0 8c 28 9f 3e fa fc 7a 3e 81 7b 4e be 76 b5 9f be
       0.31085622 0.24510565 -0.201643 -0.3119313
0000f0 6e ec 0c 3c 2e 65 ec 3e 96 ee 9f 3e c0 9e 3f bd
       0.008601291 0.46170944 0.31236714 -0.046782255
000100 31 bf cc 3d 1d ca 2c 3e 1a 31 0b 3f f5 f4 90 3e
       0.09997404 0.16873975 0.543718 0.28311887
000110 ee f3 bc bd 48 cb bd be be 51 93 3c 12 3d 0f 3e
       -0.092262134 -0.37069154 0.017983314 0.1398814
000120 43 52 67 bd de 1f 23 be 96 ff d0 be ac 65 30 bf
       -0.056474935 -0.15930125 -0.40819997 -0.6890514
000130 3b 69 a1 bf 74 88 a4 bf 26 2a 74 bf f0 62 08 be
       -1.2610239 -1.2854142 -0.95376813 -0.13318992
000140 26 05 85 be 40 a8 a8 bf 95 b3 9e bf cd 99 94 3c
       -0.2598049 -1.3176346 -1.2398554 0.018139744
000150 7c 00 0c 3f e6 f9 61 3e 4e 4d b0 bd 85 9b 0e be
       0.5468824 0.22067985 -0.08608495 -0.13926513
000160 f5 2e 71 3e ca 99 38 3e aa 62 ba 3e a0 3f 23 3e
       0.23553069 0.18027416 0.364034 0.1594224
000170 7e 6d 39 bd be da 29 3e d0 d3 84 3c 46 44 c0 3e
       -0.045270436 0.1658735 0.016214281 0.37552088
000180 09 3f 8f 3e 63 7c f1 3d e8 8a 96 bd c8 5f 08 bd
       0.2797778 0.11791303 -0.07350713 -0.03329447
000190 30 3a 77 be b5 4e 60 bd af 97 38 be d7 f7 a9 be
       -0.2414329 -0.05476256 -0.18026613 -0.331969
0001a0 8c 89 37 be 5d 5c a4 bc 97 24 f2 3b 3a 45 10 bd
       -0.17923564 -0.020063573 0.0073896158 -0.03522227
0001b0 4b af 00 be d7 f6 80 be 9d e5 51 3e e7 f3 ab 3e
       -0.12566869 -0.25188324 0.20497747 0.3358452
0001c0 53 08 52 bd b4 50 2e be 55 7e 28 be 9a 76 61 3e
       -0.05127747 -0.17022973 -0.16454442 0.22017899
0001d0 aa b3 b9 3d 5c 5a 20 3e 10 d6 13 3e 3c 4c 01 3e
       0.09067471 0.1565947 0.14437127 0.12626737
0001e0 a0 15 0e 3c ac d1 6a 3e bd 6a 82 3d f6 1f cc bd
       0.008672148 0.22931546 0.06368015 -0.099670336
0001f0 9e 56 1b 3d 35 d4 a4 3e 67 a0 d5 3e bd b0 ff bc
       0.0379244 0.3219315 0.4172394 -0.031212205
000200 03 60 4a bd e8 87 59 bc 9c 7d 0d bd 68 0a 8e be
       -0.04940797 -0.0132770315 -0.03454362 -0.27742314
000210 04 27 01 bf f2 8d 24 be 13 7b fd 3d 12 84 2e bf
       -0.5045016 -0.16069773 0.1237699 -0.68170273
000220 45 79 97 bf 64 d6 73 bf 28 1a 41 bf 5e 0c b0 3b
       -1.1833884 -0.9524901 -0.75430536 0.005372568
000230 19 e3 6f be 6f f2 60 bf fa 34 4a bf 9c 48 ce be
       -0.23426475 -0.87869924 -0.78987086 -0.40289772
000240 87 f3 4a 3d 33 34 a6 3e a8 60 bb 3d cb e2 96 be
       0.049548652 0.324617 0.09149295 -0.29469904
000250 af 34 75 be f8 24 e0 3d
       -0.23945878 0.10944551

conv1.bias f4 [6]
000000 53 69 8e bb dd a7 39 be 1b 86 10 3c 8f 72 7d 3e
       -0.0043460517 -0.18130441 0.008821036 0.24750732
000010 87 8e 40 3e bf a6 e2 3e
       0.1880437 0.44267842

conv2.weight f4 [16, 6, 5, 5]
000000 66 e3 29 3d 69 71 e7 3c 7f db be bd 48 7e ac 3d
       0.04147663 0.02825232 -0.09319209 0.08422524
000010 fd 02 37 3f 81 0e 43 3e 5e 5f 99 3e e1 eb 88 3d
       0.71488935 0.19048502 0.29955572 0.06685615
000020 5d e7 33 be b1 24 6e 3e e9 e3 21 3e d5 b7 06 3e
       -0.17568727 0.23256184 0.15809597 0.13156064
000030 c1 5b 4e 3d 77 2d 70 be 77 01 fa be 2b a6 4e 3e
       0.050380472 -0.23454843 -0.48829243 0.20180576
000040 af e8 5c 3e f8 80 1a 3e ed 09 49 3e 82 20 d7 be
       0.21573137 0.1508826 0.19632693 -0.4201699
000050 02 43 1b 3d 5f 6e 53 3e 53 e3 f5 3d 1e 30 97 3e
       0.0379057 0.20647572 0.12006249 0.29528898
000060 8d c5 94 be f0 2f a1 3d 34 b4 cb 3d 92 2c ae bd
       -0.2905697 0.078704715 0.099464804 -0.08504595
000070 1e 2e aa bd 6d 24 20 be 50 0c a3 bd b6 23 49 bc
       -0.083095774 -0.15638895 -0.07961333 -0.012276581
000080 29 83 f9 3c fa 2e 99 be 45 8d c4 be 9b 28 5e 3c
       0.03045805 -0.29918653 -0.3838903 0.013559486
000090 d0 59 a8 bd 06 8f b9 bd 98 da 3e be ea b7 51 be
       -0.082202554 -0.09060483 -0.18638074 -0.20480314
0000a0 3a 5d ef bc 62 91 cb 3c 5b a4 e1 bd 0e 06 3d bc
       -0.029219259 0.024849597 -0.110176764 -0.011537088
0000b0 9d 1e 39 3d 07 52 f5 bd 58 62 88 bd f1 96 f2 bd
       0.04519521 -0.11978536 -0.066593826 -0.11845196
0000c0 ef 12 cb 3c 63 88 e1 3d e2 58 0e be 4a 92 a0 bd
       0.024789302 0.11012342 -0.13901094 -0.078404024
0000d0 40 4e 4f bd 2b 7e 68 bd 34 c8 89 3e 40 0c 8d bd
       -0.050611734 -0.05676095 0.26910555 -0.06887102
0000e0 3c 84 0c be 82 6d d5 3b 6f 68 aa 3b 59 ba 2e be
       -0.13722318 0.0065132985 0.0052004377 -0.17063273
0000f0 20 54 d9 bd d2 ba d8 bd 03 d3 a7 3b 89 cd 86 3d
       -0.10611749 -0.10582508 0.00512159 0.065821715
000100 9e 53 67 be d7 d1 f6 bc 54 52 56 3d a1 42 fd 3d
       -0.22590491 -0.030129356 0.052324608 0.12366224
000110 37 7a ff bc f9 25 66 bd b7 cc ba bd 30 65 66 bd
       -0.031186206 -0.056188557 -0.091210775 -0.056248844
000120 63 f5 2e bd e1 d3 81 be de 83 6e 3d a5 30 16 be
       -0.042714488 -0.25356963 0.058231227 -0.14666994
000130 ee f4 ec 3d 85 1c 75 3e 94 93 89 3e 75 01 c7 3b
       0.11570154 0.2393666 0.26870406 0.0060731717
000140 aa 68 12 3e 4e 02 08 3e f6 ea a5 3e 4a 4c b6 3e
       0.14297739 0.13282129 0.32405823 0.3560508
000150 82 15 dc 3e 1d 75 b6 bd bc 70 d4 bd 36 e0 c1 bd
       0.4298516 -0.08909056 -0.10373065 -0.09466593
000160 77 c5 76 3e 07 b4 07 3f b1 a4 1f 3a 2d 9f b1 3d
       0.24098764 0.53009075 0.00060899096 0.086729385
000170 f2 dc 67 3d 16 2f 31 bb 8b c0 7a 3e 8a 6e a6 bd
       0.056607194 -0.0027036122 0.24487512 -0.081265524
000180 fa d6 5e bd 54 e0 29 be 2c 49 66 be 2b 20 f5 3c
       -0.054404236 -0.1658948 -0.2248885 0.029922565
000190 08 89 2f be 2b f3 0b be 46 bd 72 be 7e d3 99 be
       -0.17142117 -0.1366698 -0.23705015 -0.30044168
0001a0 55 a5 7b be e7 3b df bc 85 5e f2 bd 4f 86 dd bc
       -0.24574788 -0.027250243 -0.118344344 -0.027041582
0001b0 95 ae 13 3d 1e f3 e0 bd eb 74 ca bd 8a c8 2c be
       0.036055166 -0.10983871 -0.098855816 -0.16873375
0001c0 37 82 87 bc 6e b1 3c 3e d7 30 3a 3d a6 ca cb b8
       -0.016541583 0.18427059 0.045456734 -9.7175405e-05
0001d0 4d 84 27 bc 1f ec 0d 3d fd cf eb 3d 7c 2d 0d 3e
       -0.010224414 0.03464901 0.1151428 0.13786882
0001e0 04 d4 d4 bd 8c b0 b0 bd 2f 38 44 bd c1 17 13 be
       -0.10392001 -0.08627424 -0.047905143 -0.1436453
0001f0 4a 17 12 3e 6a 9d e9 3c 35 e9 c1 3d af 7c 40 3e
       0.14266697 0.028517444 0.09468309 0.18797563
000200 e6 0e 9c 3e 81 d6 97 3e 7d 6c e8 3c 55 59 46 bc
       0.30480117 0.2965584 0.028372044 -0.012106259
000210 d2 b1 0f 3e aa fa df 3e 33 ca d1 3e 8d ce 47 bd
       0.14032677 0.4374593 0.40974578 -0.048780967
000220 bf 51 5f bc f7 a3 c0 3c 97 2c 92 3e 40 3d 38 3e
       -0.01363033 0.023515685 0.28549644 0.17992115
000230 bf ee 2f be bd d0 00 be c5 fa 35 be ad 58 e5 3a
       -0.17180918 -0.12579627 -0.17771442 0.0017497741
000240 88 d8 3e bd 69 23 66 be 71 7c 03 be a0 40 d8 bc
       -0.04659322 -0.22474445 -0.1284044 -0.026398003
000250 a5 5c c2 3d a6 e2 db bd 74 54 67 be 0c 5f 84 3e
       0.09490327 -0.10736589 -0.2259081 0.25853765
000260 f2 19 81 bd cf 11 34 3e 0e 31 48 3c 1d 43 56 be
       -0.06303777 0.17584918 0.012218727 -0.20924039
000270 53 dc 81 bd fa 7c e3 bc b8 61 41 3d 37 c1 38 be
       -0.06340852 -0.027769554 0.047212332 -0.18042456
000280 f7 9c 7f bc df 5d d6 bd 19 29 cd bd c1 17 99 be
       -0.015601388 -0.10467123 -0.100176044 -0.29900935
000290 14 4f 57 be a9 80 14 3e 6a 69 5d be 86 60 ec be
       -0.2102626 0.14502205 -0.21622244 -0.46167392
0002a0 4a 88 66 be 96 cb b0 3e f1 0f a2 3e 19 4f 14 be
       -0.22512928 0.34530324 0.31652787 -0.14483298
0002b0 61 78 de be 3d b2 96 bd c4 d0 d6 3e 0c 97 ec bd
       -0.43451217 -0.07358215 0.4195615 -0.115522474
0002c0 53 53 88 bd 91 3a 72 ba d6 9b 69 3d e6 fe 23 3d
       -0.06656518 -0.00092402945 0.057033382 0.040038012
0002d0 a8 a9 32 be 5d c1 46 be 0b a0 4f be ec b4 e8 bd
       -0.17447531 -0.194097 -0.20275895 -0.11362633
0002e0 ae 30 e5 bc 65 01 37 be 98 fc e6 bd c5 b6 7c 3d
       -0.027977314 -0.17871626 -0.11278647 0.06169774
0002f0 a8 1c 9d 3d 10 35 38 bb 50 2e 8f 3d 0b f8 0e 3e
       0.07671481 -0.00281078 0.06991255 0.13961808
000300 8a 85 11 3e 97 5a 19 bd 53 d7 1e be 4a 92 60 bc
       0.14211097 -0.03743991 -0.15511827 -0.013706753
000310 40 de 94 3d 19 42 b4 bc ec ef 8a be 47 a9 73 be
       0.07268953 -0.022004174 -0.2713617 -0.23795043
000320 9a 96 0f 3e 64 69 6f 3c c8 4e 7b 3e 9d 4f e1 3b
       0.14022294 0.014612529 0.24541771 0.0068759457
000330 6d e5 d9 3c 51 e3 50 be 28 21 57 be 92 4f 26 bd
       0.026598657 -0.20399214 -0.21008742 -0.040603228
000340 3f 8e 6b be cc 39 49 be 9f d5 4c be 70 59 ca bd
       -0.23003481 -0.19650954 -0.20003365 -0.0988034
000350 eb 87 25 be 13 79 e0 3c ba 0e 25 3d d4 cb 09 3e
       -0.1616513 0.027401483 0.040297247 0.1345666
000360 41 8d bb 3d 79 1c ee 3d a3 ea a2 3e cf 40 54 3e
       0.091578014 0.116265245 0.3181964 0.20727848
000370 40 16 9b 3d 00 5d 23 bc 26 60 17 3d 89 50 e3 3d
       0.07572603 -0.009970903 0.03695693 0.11099345
000380 9a d2 8e be 93 88 a7 3e 4c 97 7b 3e 68 84 4d be
       -0.2789505 0.32721385 0.24569434 -0.2007004
000390 04 1e c4 bc be f4 3a bd 83 99 39 3e 4b d3 8a 3d
       -0.023940094 -0.04564356 0.18124966 0.06778582
0003a0 a3 ad a8 be ca b1 a1 bd 7a 49 b0 3e 4f 97 83 3d
       -0.32944974 -0.07895239 0.34431058 0.06425344
0003b0 84 27 22 be b0 6a 05 be 1a 71 0f 3e d4 1a df 3e
       -0.15835387 -0.1302898 0.14007989 0.43575156
0003c0 9b b9 4c 3c 44 0d 62 be bb 3e 85 bd e4 cc cc 3c
       0.012495424 -0.22075373 -0.065061055 0.025000043
0003d0 cd b2 02 be 18 02 2e bc 92 38 12 be 72 f4 6d 3d
       -0.1276352 -0.010620616 -0.14279392 0.05809445
0003e0 b3 3b 34 be f6 61 e1 be 4f d3 32 3e 09 08 e5 bc
       -0.17600898 -0.4402005 0.1746342 -0.027957933
0003f0 2a 43 0d 3d 6e 6e 8a 3d 17 dc 89 bd b6 41 a2 bd
       0.03448788 0.06759344 -0.06731432 -0.079226896

conv2.bias f4 [16]
000000 82 06 db bd a8 e7 31 3e cc c3 18 3e af c9 3a 3e
       -0.10694601 0.17373526 0.1491844 0.18240999
000010 2c e6 1e 3e 67 0d 9e 3e c4 cf 25 ba 4c 74 ad 3e
       0.15517491 0.308696 -0.000632521 0.3387779
000020 31 b9 1c 3e 6c 76 74 3e 66 2f 5b 3c 31 73 40 3e
       0.1530502 0.238733 0.013378 0.18793942
000030 84 37 ae 3e fa e7 fb bc a9 49 d6 3b ba 89 07 be
       0.3402673 -0.030750263 0.0065395427 -0.13236132

fc1.weight f4 [120, 400]
000000 c2 52 f9 b6 7b 09 82 37 57 19 66 3a d9 6d 34 3b
       -7.4304126e-06 1.5501622e-05 0.00087775796 0.0027531295
000010 b1 37 0a 39 4b a7 51 38 c5 15 d9 37 60 37 2b 2f
       0.00013181452 4.9985287e-05 2.5878553e-05 1.5572033e-10
000020 e6 99 a6 b8 2f a4 73 b3 1f 05 28 39 c1 fb d4 b4
       -7.944163e-05 -5.672717e-08 0.00016023636 -3.9671252e-07
000030 c5 c5 59 80 62 cc 4b 82 74 ad e2 a9 01 8a f7 32
       -8.244305e-39 -1.497274e-37 -1.00665055e-13 2.8817341e-08
000040 7c dc 36 81 d6 a3 3b 01 0d 7d 9a 00 cc 82 7c 03
       -3.358631e-38 3.4464022e-38 1.4187526e-38 7.420629e-37
000050 12 62 c2 02 bf fd 07 80 96 30 88 8c e4 8a ae aa
       2.8562028e-37 -7.33875e-40 -2.098336e-31 -3.1004984e-13
000060 6b 6c 6b b1 99 59 cc 8a 39 e9 1d a0 5e 95 30 a6
       -3.425863e-09 -1.9678188e-32 -1.3375584e-19 -6.1264697e-16
000070 d0 c0 d4 b2 0d ff 9e b4 63 c2 3d a8 89 71 70 84
       -2.476773e-08 -2.9615367e-07 -1.05337585e-14 -2.8263997e-36
000080 f6 85 0d a9 ec 18 be b3 d9 74 cd b5 4a 5f 92 b0
       -3.1424482e-14 -8.852098e-08 -1.5307697e-06 -1.0649981e-09
000090 ff 23 34 0f 25 09 5a a6 17 18 b0 a4 d8 80 c2 a4
       8.881618e-30 -7.5646337e-16 -7.636864e-17 -8.435236e-17
0000a0 cd 95 b1 21 9f f1 92 ac 3a 35 ae ac 68 ed 25 13
       1.2033638e-18 -4.176395e-12 -4.9512868e-12 2.0942978e-27
0000b0 17 bf 31 1b 2e 3d 27 85 1e e7 23 00 c1 66 88 01
       1.4702841e-22 -7.863539e-36 3.297152e-39 5.0105955e-38
0000c0 06 11 10 1b 58 26 b0 18 df b6 07 b7 7a d0 d0 ae
       1.1916901e-22 4.553365e-24 -8.089205e-06 -9.495778e-11
0000d0 35 4b d7 b3 11 16 f3 b4 d0 b2 46 b3 6a 23 05 ac
       -1.0025398e-07 -4.5278333e-07 -4.6263096e-08 -1.8920096e-12
0000e0 00 38 4a aa 90 88 c1 b5 3b 09 9f b1 4c bc b3 36
       -1.7960633e-13 -1.4419365e-06 -4.6285584e-09 5.3565363e-06
0000f0 91 0d df b4 cb 54 ff b1 df 31 bb 8d 66 b4 58 a8
       -4.1546858e-07 -7.4311166e-09 -1.1536771e-30 -1.2029526e-14
000100 5a 31 65 b3 6e df 69 b7 e0 e4 ce 25 86 da e9 86
       -5.3363102e-08 -1.39399035e-05 3.5890395e-16 -8.796595e-35
000110 54 bb c8 ac 3f 32 0b b3 dd 43 01 b2 cb db 45 8f
       -5.7051395e-12 -3.2409158e-08 -7.524219e-09 -9.7551805e-30
000120 1e 77 14 a8 2d a4 18 24 8a 10 0d b5 f3 85 08 a8
       -8.24148e-15 3.3098808e-17 -5.255066e-07 -7.578562e-15
000130 b2 7f 19 b6 8d 1e bc b2 6c 26 9f ba 13 75 e0 ba
       -2.2873105e-06 -2.1899973e-08 -0.0012142188 -0.0017124735
000140 0d 50 55 9d 83 bc 86 ab 99 b9 dd 83 13 b8 45 ba
       -2.82317e-21 -9.573595e-13 -1.3031824e-36 -0.0007542383
000150 21 5b 91 bb 8c 78 14 ad 11 f1 93 b0 9e 52 dc 1a
       -0.0044359122 -8.439593e-12 -1.0764173e-09 9.112334e-23
000160 65 06 4f ac ee 56 7d b9 01 0b a3 34 4d 2d 3a b2
       -2.942002e-12 -0.00024160344 3.0369122e-07 -1.0836925e-08
000170 00 4b 05 a5 d9 3e fb a9 ee e9 94 b0 a6 13 bf 30
       -1.1561322e-16 -1.11575415e-13 -1.0834904e-09 1.3902663e-09
000180 4b 49 a7 b1 cd 05 71 b5 e6 19 98 b5 51 ae 2d b2
       -4.868672e-09 -8.978794e-07 -1.133242e-06 -1.010956e-08
000190 f0 47 a6 b8 d9 ae 0e b2 d2 16 01 b8 d5 4f fa b7
       -7.928896e-05 -8.305244e-09 -3.077725e-05 -2.9839497e-05
0001a0 78 c1 0d 2f 52 13 39 ba ec fb bb b4 ab 0b fb 38
       1.2892609e-10 -0.0007060069 -3.5014762e-07 0.00011970786
0001b0 09 3f cb b5 cb df 99 36 9a 47 99 b9 8b 0a 03 b9
       -1.5143024e-06 4.5858083e-06 -0.0002923578 -0.00012497061
0001c0 5c 52 97 b8 78 c1 73 a8 76 28 38 b4 65 2f 96 b9
       -7.215582e-05 -1.3531162e-14 -1.7151055e-07 -0.0002864554
0001d0 97 08 7a b9 b6 4a 63 b3 5f dc a4 0b b0 f2 21 b0
       -0.00023845058 -5.2920505e-08 6.350208e-32 -5.891634e-10
0001e0 85 3d 1c b5 cf 0f 1e b0 ff 7d 17 13 0c 5b 6e 0b
       -5.820405e-07 -5.750253e-10 1.9121e-27 4.590563e-32
0001f0 b9 d2 eb ad 43 a3 f0 04 a6 08 59 b4 7d c1 a3 b6
       -2.6809987e-11 5.657366e-36 -2.0212846e-07 -4.8803035e-06
000200 38 f6 d3 b4 f5 c9 fa 36 50 74 08 01 f9 77 56 ab
       -3.948096e-07 7.4740915e-06 2.5062705e-38 -7.619457e-13
000210 5f fe 6a a8 4b 1b 33 b1 1d 72 63 25 ca 4f 09 ab
       -1.3044767e-14 -2.6063443e-09 1.9727775e-16 -4.8782907e-13
000220 36 32 f2 35 3f 16 c9 b5 52 bc 84 b6 f5 cb 55 36
       1.8045018e-06 -1.4982141e-06 -3.95583e-06 3.1858192e-06
000230 df 6b 8b 11 17 64 22 33 96 c4 d0 b5 85 8c da b4
       2.1996814e-28 3.7809595e-08 -1.5554422e-06 -4.0707906e-07
000240 f9 17 01 93 5d da db aa 62 0b 65 1a c6 6b 73 9e
       -1.6293909e-27 -3.9053735e-13 4.7365285e-23 -1.28866e-20
000250 2b 1f 97 a3 55 3e 1f 02 68 44 00 00 3d b6 02 80
       -1.6384653e-17 1.1699364e-37 2.454e-41 -2.49046e-40
000260 67 45 00 80 e2 52 00 80 66 47 00 00 98 57 00 00
       -2.4897e-41 -2.9733e-41 2.5613e-41 3.1423e-41
000270 e9 50 00 80 e1 e3 72 88 9f 44 00 00 c3 53 00 00
       -2.9025e-41 -7.3092096e-34 2.4617e-41 3.0048e-41
000280 e3 49 00 00 c9 9d 01 80 d5 4d 00 00 26 56 00 00
       2.6506e-41 -1.48438e-40 2.7921e-41 3.0904e-41
000290 d9 57 00 80 f5 4c 00 80 d3 50 00 80 56 4a 00 80
       -3.1514e-41 -2.7607e-41 -2.8994e-41 -2.6667e-41
0002a0 4d 46 00 80 5a 46 00 80 d2 55 00 80 6c 44 00 00
       -2.5219e-41 -2.5237e-41 -3.0787e-41 2.4545e-41
0002b0 b5 48 00 00 42 49 00 00 a6 78 45 ab 49 04 2c 80
       2.6082e-41 2.628e-41 -7.0155893e-13 -4.042299e-39
0002c0 87 5a 0d 09 c2 30 de ad d2 82 9a b3 85 ae 6d 08
       1.7014823e-33 -2.526013e-11 -7.19498e-08 7.152474e-34
0002d0 fa 79 df 13 03 26 80 84 a5 dd 33 80 d6 a1 cd a4
       5.6413392e-27 -3.0127564e-36 -4.763121e-39 -8.917874e-17
0002e0 2d a8 1a 2c 79 99 89 96 c2 c4 19 80 3d 63 a6 87
       2.1978073e-12 -2.2230399e-25 -2.366471e-39 -2.503523e-34
0002f0 55 04 9d a8 19 34 f8 b0 c9 ff 9a a3 03 30 d0 a8
       -1.743238e-14 -1.8059182e-09 -1.6805043e-17 -2.311346e-14
000300 6d e6 8e 90 0b b2 dc 82 fd 9d 6e ac de e9 a7 86
       -5.636415e-29 -3.2428286e-37 -3.3909535e-12 -6.3162055e-35
000310 74 70 ab a7 07 79 cc 81 85 1d 83 00 50 36 78 b0
       -4.7583956e-15 -7.511143e-38 1.204104e-38 -9.0299057e-10
000320 e6 99 84 80 34 bf 84 ab cc 69 0e 9a cf 5f 96 a4
       -1.2177494e-38 -9.432234e-13 -2.9450374e-23 -6.5214436e-17
000330 a3 e4 2f 80 01 8a 05 0b 0d 9a 04 9e 21 58 ab 01
       -4.398288e-39 2.571869e-32 -7.019879e-21 6.294194e-38
000340 11 75 97 9f 68 af a5 25 fc 7e 26 80 4f 19 c1 a8
       -6.414466e-20 2.8741797e-16 -3.535302e-39 -2.143828e-14
000350 ed a2 5b 8a 96 33 9d b0 40 d5 ad 37 53 cd 45 00
       -1.05751094e-32 -1.1437915e-09 2.072251e-05 6.410306e-39
000360 9e 16 06 ae 12 65 c2 9d 7f 85 15 a6 bd b0 3a 2e
       -3.048816e-11 -5.1455877e-21 -5.187568e-16 4.244848e-11
000370 4c 9a 4e 00 69 8c e7 ae 69 d2 5c aa 13 86 26 80
       7.21852e-39 -1.0529606e-10 -1.9612926e-13 -3.537846e-39
000380 46 96 25 04 d2 25 9c b7 c6 cf 3e b1 d9 e6 3c b6
       1.9464659e-36 -1.861426e-05 -2.7766744e-09 -2.8148554e-06
000390 dc e2 b9 b3 2b 11 97 b2 d4 1f 18 b4 d3 e3 df 34
       -8.655999e-08 -1.758652e-08 -1.4167682e-07 4.170275e-07
0003a0 2f 3f d5 38 be 34 e7 2b bb ac 12 2b 93 c5 16 36
       0.000101684 1.6428176e-12 5.210933e-13 2.2466745e-06
0003b0 66 0f 98 37 1f 45 96 2d 6c fd 1e 82 22 83 34 02
       1.8126982e-05 1.7083722e-11 -1.1680735e-37 1.3261945e-37
0003c0 29 03 56 aa 42 ed c4 06 11 0e 3b 80 9f 10 09 00
       -1.9008115e-13 7.4075625e-35 -5.42334e-39 8.32482e-40
0003d0 4e 18 21 00 a6 37 9e 87 46 66 2b 81 07 60 cf 81
       3.03929e-39 -2.3805905e-34 -3.1481117e-38 -7.6177583e-38
0003e0 e2 e0 8d 01 f0 9c 6e 03 2f e1 52 b9 f1 7b 23 b7
       5.211791e-38 7.012207e-37 -0.00020111048 -9.7444145e-06
0003f0 f3 b9 3b b4 36 eb 78 b6 7e 1a 57 b7 8c 55 43 36
       -1.748338e-07 -3.709179e-06 -1.2821167e-05 2.910706e-06

fc1.bias f4 [120]
000000 d2 fa 64 ba 45 7a e3 3d 34 1d c1 bc 00 e0 27 3d
       -0.0008734885 0.111073054 -0.023573495 0.040985107
000010 82 d8 02 95 ee 90 4f 3d 09 6e cc bc a7 46 49 bd
       -2.6424085e-26 0.050675325 -0.024954813 -0.049139645
000020 ff 5b 8d bc da 00 43 bd 05 9d 62 3e d1 00 ea bb
       -0.017255781 -0.047608234 0.2213021 -0.0071412106
000030 4c b6 0e bb ff a4 af b9 97 6b ac bd 55 5e db 3a
       -0.0021776138 -0.00033501533 -0.08418959 0.0016736487
000040 0d 79 bd bc e8 ed 2e 3e ce d3 ea 3d 21 7e 01 00
       -0.02312901 0.17082942 0.1146618 1.37082e-40
000050 ef 4e df bd ae eb 9b b6 47 2b 38 3e b5 62 c3 ab
       -0.10903727 -4.6467967e-06 0.17985259 -1.388298e-12
000060 c6 b0 4e 3d 4a d2 cf 3d b0 57 c8 bc ae 24 9b b5
       0.050461553 0.10147531 -0.024455875 -1.1559075e-06
000070 1d d1 3d 3d e0 00 d5 b5 5b 02 52 bd 87 dc 1a b7
       0.046342004 -1.5869991e-06 -0.051271778 -9.230461e-06
000080 21 af 96 bd ec a9 88 3c 03 45 00 80 9e 6d 21 bc
       -0.07357622 0.016682588 -2.4757e-41 -0.009852795
000090 38 89 00 3e 28 b5 b4 bb 6a ed 6f bd 2e c8 b5 3c
       0.12552345 -0.0055147596 -0.058576025 0.02219018
0000a0 04 a2 5f 3d 3d 5d 19 bd a3 49 9f 9c d4 b0 b8 b8
       0.05459787 -0.037442435 -1.0540772e-21 -8.8067405e-05
0000b0 8c dd 2c 3e 57 33 22 3c 51 26 47 3e d2 d6 39 3d
       0.16881388 0.009899936 0.1944821 0.045370884
0000c0 57 ef e3 3d be ec b2 bc cd c3 6e 96 a7 44 00 80
       0.11129635 -0.021841403 -1.9287271e-25 -2.4628e-41
0000d0 52 56 01 bc 4e 09 cd bc f2 64 ca bc 24 65 01 3d
       -0.0078941155 -0.02502885 -0.024706338 0.031590596
0000e0 72 24 9d bc af ee 3e 2e 62 9b d2 bb ff 31 e7 99
       -0.019182418 4.3412992e-11 -0.0064272145 -2.3905033e-23
0000f0 d2 4e d2 b8 d8 51 12 3e 3d 8c 7d bb 83 ea b8 3d
       -0.00010028262 0.14289033 -0.0038688325 0.090291046
000100 4e a4 94 bd 9d 26 8f 3d b8 62 0a 3e 89 61 0a af
       -0.07257901 0.06989787 0.1351422 -1.2585678e-10
000110 b2 c5 dc bc 76 3e ad 3d 8e 32 37 3d be 28 4d bd
       -0.026949737 0.08459179 0.044725947 -0.050087683
000120 5e 31 a6 ae 37 c3 c8 3d c9 f7 8d bd eb 9e 85 ac
       -7.5575754e-11 0.09802859 -0.06932027 -3.797731e-12
000130 b7 b2 84 b8 f8 e2 0f 3d c7 c7 f0 bb 9c 0a 0b b5
       -6.327539e-05 0.035128564 -0.007348034 -5.1796974e-07
000140 75 e3 2f b9 fc d6 4b a4 48 9c e4 bc 49 45 1c 3d
       -0.00016774035 -4.4200707e-17 -0.027906552 0.038152013
000150 33 8f ca 3d b7 40 99 3d d2 d1 a3 3d c4 e4 d2 bd
       0.09890594 0.074830465 0.079990044 -0.1029754
000160 bf ee 4a 3e eb 4d 2e a9 91 26 0f bd a5 98 5b bc
       0.19817637 -3.8703344e-14 -0.03494889 -0.0134030925
000170 31 cd e9 b2 52 9f 71 ab 34 23 ab bc 63 28 dc bc
       -2.721808e-08 -8.58415e-13 -0.02089081 -0.026874727
000180 50 73 bb bc 8c a3 c1 bd 9e 5c ed 3d 64 32 44 3e
       -0.022882134 -0.09455022 0.11589931 0.19159847
000190 27 b7 32 ba 49 2b a7 bd 55 77 d6 3d f0 44 00 80
       -0.0006817453 -0.08162553 0.104719795 -2.473e-41
0001a0 58 29 64 bd bd 31 2f a3 58 e6 94 bd a2 91 27 3d
       -0.05570349 -9.4973015e-18 -0.07270497 0.04091037
0001b0 0f b1 bf b6 74 2a e9 3d 8d 96 18 bd 32 a8 f9 ac
       -5.712856e-06 0.113850504 -0.03725295 -7.095679e-12
0001c0 68 6e 0f a8 18 0b 56 3e fd 1f 40 3d 53 9e ef bb
       -7.962035e-15 0.2090267 0.046905506 -0.007312575
0001d0 d5 4a 56 bb 37 d8 ee 3d 48 e6 7e b8 4c 64 17 ba
       -0.0032698412 0.116623335 -6.0772785e-05 -0.0005775138

fc2.weight f4 [84, 120]
000000 8a a8 34 bb 38 4f e1 3d b7 f3 c3 bc 50 96 82 3c
       -0.0027566277 0.11001438 -0.023919923 0.015940815
000010 a4 21 d2 b5 a1 93 37 be 4e 55 7f 3e ec d7 21 bd
       -1.565601e-06 -0.1792741 0.24934885 -0.03951256
000020 95 e6 c4 bc 03 96 3c 3e a7 e6 8e bc 23 c6 31 3d
       -0.024035731 0.184166 -0.017443968 0.04340185
000030 1c 00 66 bc 72 3c d6 ba 45 28 37 3d ad f3 82 3d
       -0.014038112 -0.0016344918 0.04471614 0.06394134
000040 1e b1 46 3d 13 4b 55 be fe 6b 07 3d 6e 34 7c 36
       0.048508756 -0.2082942 0.033061974 3.7581444e-06
000050 c2 33 b7 3d c0 38 a0 b1 20 df 2f bc 68 f5 04 30
       0.08945419 -4.6630646e-09 -0.0107343495 4.8370064e-10
000060 10 d6 ce bd 34 7a 07 bd d1 a6 a9 bd aa 5a 8e bb
       -0.10099423 -0.033075526 -0.08283771 -0.004344304
000070 c1 78 c8 3c 09 94 32 b7 b8 ad 4c 3e c2 02 fc b9
       0.024471642 -1.0644094e-05 0.19988143 -0.0004806724
000080 89 3e d8 3b ea f0 1d 3e 79 24 31 2e 2c 4f bf 39
       0.0065992516 0.15423933 4.0277535e-11 0.00036489347
000090 8b 6c 30 3e 0b 07 3a 3c 2c 28 a8 3c 38 4b 7c 3c
       0.17228906 0.011354218 0.020526968 0.015398793
0000a0 98 f5 bd ba b2 62 a9 3e e7 9e 75 1c a7 1b 9e bb
       -0.0014492748 0.3308311 8.1269076e-22 -0.0048250738
0000b0 06 4b 0c bd 94 a1 1c 3e 45 89 aa 3d 59 7b 8d 3d
       -0.034251235 0.15296012 0.08326963 0.06908292
0000c0 91 e7 e9 3c ed 99 f0 bd d5 49 00 80 dd c2 b5 ae
       0.028552802 -0.11748109 -2.6486e-41 -8.265542e-11
0000d0 80 1e 7d be b8 23 36 3e ed 1d 86 3e 62 a1 12 be
       -0.24718666 0.17787063 0.26194707 -0.14319375
0000e0 69 1b 6c 3d 23 ee 03 39 13 c9 bb 3c 73 44 00 00
       0.057643328 0.00012581846 0.022923028 2.4555e-41
0000f0 70 18 10 39 e4 cd 24 3e 2e 96 28 ba 19 a7 8c bd
       0.00013742014 0.16094166 -0.000643107 -0.06867809
000100 19 be 0e 3d 87 2d 8a 3e c4 8a 02 bd b5 6b 71 b7
       0.03484926 0.2698786 -0.03187062 -1.4389797e-05
000110 5c d5 19 bd ec 37 36 3d 8a dc 8e 3c 45 03 ae 3c
       -0.03755699 0.044486925 0.017439146 0.021241793
000120 cf df 4f b7 16 3c 8b 3d d1 83 6e 3c f0 f5 29 39
       -1.2390271e-05 0.0679857 0.014557795 0.00016208715
000130 c1 bc bc 38 10 e3 93 be fb c6 86 ba 59 c0 11 b3
       8.999697e-05 -0.28884172 -0.001028269 -3.3935383e-08
000140 32 82 b3 ba 18 da 54 b7 42 92 8b bd 3c ed 3d 3e
       -0.0013695417 -1.2686964e-05 -0.06815006 0.18547529
000150 12 46 8e bd b7 35 ab 3e 84 91 3c 3c 3c bd 7d 3d
       -0.069469586 0.3343942 0.011509303 0.061948046
000160 9a c7 1b bd 61 9c b0 b5 96 e6 91 3d 3b 87 44 3d
       -0.03803215 -1.3158534e-06 0.07124059 0.04798053
000170 37 8d 53 37 d9 f4 3e 37 a2 80 07 3e 89 2b 4f 3b
       1.2609459e-05 1.13818905e-05 0.13232663 0.0031611642
000180 da 42 94 3e 10 39 5b 3c c5 42 09 3e 96 9e f4 3c
       0.28957254 0.013380304 0.13404377 0.029860776
000190 20 e7 fe 39 0c f5 4f bd 67 2a 3a be 29 06 cd 81
       0.00048618857 -0.050770804 -0.18180238 -7.5313946e-38
0001a0 49 62 8a be 63 42 9a 30 ea de a1 bd ac 9c ef 3b
       -0.2702811 1.1223843e-09 -0.079038456 0.007312378
0001b0 ec e0 19 3a 8a 5c 06 3d 32 59 3d 3e 0b fd 06 36
       0.0005870003 0.032803096 0.18491057 2.0114846e-06
0001c0 72 98 2e 35 6d a6 3b 3c 50 eb 52 3e 5e 0d 1f be
       6.504189e-07 0.011453253 0.20597577 -0.15532443
0001d0 4e 98 17 3c 23 d8 dc bd 94 82 ff b8 36 37 3f bc
       0.009252621 -0.10783412 -0.000121836696 -0.011670878
0001e0 59 57 00 00 b6 42 83 ab ff 47 00 00 14 5b 2e b1
       3.1334e-41 -9.326626e-13 2.5827e-41 -2.5372104e-09
0001f0 a0 55 00 00 f4 ef ac b5 dc d7 4b ab a4 49 00 80
       3.0716e-41 -1.2884834e-06 -7.2419653e-13 -2.6417e-41
000200 00 4d 00 80 df 1b 9d a5 05 3b 98 b1 16 7f 16 2e
       -2.7622e-41 -2.7254045e-16 -4.430492e-09 3.4218926e-11
000210 77 44 00 00 19 56 00 00 44 1d ce 16 87 15 ac a5
       2.456e-41 3.0886e-41 3.3299564e-25 -2.985183e-16
000220 bb 44 00 80 0e 2b ab b1 e6 f2 56 b2 9a 44 00 00
       -2.4656e-41 -4.9816498e-09 -1.2511668e-08 2.461e-41
000230 59 17 5f ae 9d e1 00 00 40 57 79 ae c2 56 00 80
       -5.0725067e-11 8.0935e-41 -5.669354e-11 -3.1123e-41
000240 e7 95 83 b4 fd b0 e7 ae 03 5b 77 ac f8 51 00 80
       -2.450972e-07 -1.0536103e-10 -3.5151333e-12 -2.9405e-41
000250 18 a1 86 34 cb 4d 00 80 bb 30 d8 b0 c5 55 00 80
       2.5076656e-07 -2.7907e-41 -1.5729918e-09 -3.0768e-41
000260 da 10 9b 8c 7e b8 e1 ab fb 4c 00 80 18 4c 00 00
       -2.3891673e-31 -1.6038418e-12 -2.7615e-41 2.7297e-41
000270 b7 13 ae b3 b5 c5 56 2a a4 24 c2 b3 bc e7 90 b0
       -8.1060925e-08 1.9075612e-13 -9.040494e-08 -1.0543242e-09
000280 25 10 92 a8 a0 db 66 ae 92 44 00 00 aa 45 00 00
       -1.6216258e-14 -5.249101e-11 2.4598e-41 2.4991e-41
000290 36 17 c2 b1 ad 2b 04 ae 4a 08 a4 2e 6c 45 59 b1
       -5.648782e-09 -3.0052117e-11 7.459329e-11 -3.1617118e-09
0002a0 9b ee 04 b3 a2 85 13 ad 5c 48 00 80 79 44 00 00
       -3.0950655e-08 -8.385655e-12 -2.5958e-41 2.4563e-41
0002b0 40 d6 25 ab 47 04 43 b3 04 ca a3 96 08 17 c5 a8
       -5.891711e-13 -4.5405866e-08 -2.646156e-25 -2.1881382e-14
0002c0 40 57 00 80 a2 50 00 00 81 44 00 00 50 45 00 00
       -3.13e-41 2.8926e-41 2.4575e-41 2.4865e-41
0002d0 00 4e 00 80 c9 a8 90 b1 10 f9 f7 99 77 87 11 2f
       -2.7981e-41 -4.2101402e-09 -2.5639797e-23 1.32358e-10
0002e0 f0 71 6c 96 f0 f7 07 b0 e7 0e f9 a7 c4 50 00 80
       -1.909988e-25 -4.9465054e-10 -6.912754e-15 -2.8973e-41
0002f0 46 4d 00 80 de 87 0f b2 40 fa a2 2b 10 4a 00 80
       -2.772e-41 -8.354588e-09 1.1580251e-12 -2.6569e-41
000300 86 46 00 00 5e 20 82 b0 f5 f8 e2 ae 8c 86 a1 1a
       2.5299e-41 -9.467944e-10 -1.0321514e-10 6.680541e-23
000310 b2 4e 00 80 3a a9 f6 2e a8 44 00 80 78 46 00 00
       -2.823e-41 1.12168455e-10 -2.4629e-41 2.528e-41
000320 25 45 00 00 34 54 00 80 f2 03 64 af eb 43 14 ad
       2.4804e-41 -3.0206e-41 -2.0737881e-10 -8.427907e-12
000330 7b 89 76 33 f3 90 3c b2 a9 c0 e0 b1 2d 27 42 b2
       5.7401376e-08 -1.0975998e-08 -6.541161e-09 -1.1301194e-08
000340 72 a5 85 ad 2b 36 00 80 99 34 37 9f 1c 47 00 00
       -1.5193822e-11 -1.9432e-41 -3.8795265e-20 2.5509e-41
000350 0c 16 00 00 67 44 00 00 5f 16 98 ac 4b 4e 00 00
       7.909e-42 2.4538e-41 -4.3225835e-12 2.8086e-41
000360 0e b1 9c ae d4 77 c1 1c 25 48 24 aa f1 b0 27 b0
       -7.12551e-11 1.2802644e-21 -1.4591156e-13 -6.1005695e-10
000370 3e 6b 88 85 30 07 01 80 12 02 cc b4 69 4b 00 80
       -1.2828773e-35 -9.4414e-41 -3.7999467e-07 -2.7052e-41
000380 c4 17 11 b0 7a 44 00 00 72 4c 00 00 52 77 d9 b6
       -5.2784466e-10 2.4565e-41 2.7423e-41 -6.4809947e-06
000390 db 03 01 00 75 0f 45 b2 25 4b 8f ae 65 56 00 80
       9.3219e-41 -1.1470424e-08 -6.5162355e-11 -3.0993e-41
0003a0 e8 47 00 00 fc b7 b6 b1 b9 3d 0f b1 bc 3d 3b b1
       2.5795e-41 -5.3178137e-09 -2.0844324e-09 -2.7247173e-09
0003b0 6c 44 00 00 23 3e 8e b2 32 4c 00 80 7d 4f 00 00
       2.4545e-41 -1.6559232e-08 -2.7334e-41 2.8515e-41
0003c0 c4 44 00 00 06 8b 54 94 ff 4c 00 80 82 03 82 9f
       2.4668e-41 -1.0730682e-26 -2.7621e-41 -5.5062945e-20
0003d0 91 4c 00 00 49 99 5c ab a3 92 80 0d 2e 96 02 80
       2.7467e-41 -7.8372427e-13 7.923911e-31 -2.37545e-40
0003e0 13 46 00 80 a8 44 00 80 ae a0 65 a1 c5 44 00 80
       -2.5138e-41 -2.4629e-41 -7.7800876e-19 -2.467e-41
0003f0 4f 46 00 80 c2 44 00 80 5c 4b 00 00 04 45 00 80
       -2.5222e-41 -2.4666e-41 2.7034e-41 -2.4758e-41

fc2.bias f4 [84]
000000 f3 5b 21 bd 36 d9 3b 2e ac 45 2a 99 58 50 60 bd
       -0.03939433 4.27118e-11 -8.802864e-24 -0.05476412
000010 e1 36 76 3e 23 26 8e bd c6 e2 c2 3b e3 dd 20 3e
       0.24044372 -0.06940868 0.0059474437 0.15709643
000020 ca d5 1e 3d 81 03 eb b2 5b 5f b2 a3 3f de bd 3d
       0.038778104 -2.7359194e-08 -1.9339183e-17 0.09270906
000030 59 7a 0a bb d8 a2 1a bb f6 1d 7c bc 74 bb 50 3d
       -0.0021130054 -0.0023595598 -0.015388003 0.05096002
000040 d5 20 10 bd 99 6f cc 3d a1 44 00 00 fd 63 e3 3d
       -0.03518756 0.09982223 2.462e-41 0.111030556
000050 e8 eb 80 3e 76 66 7f 3e 88 2a 10 3e 99 f7 a5 bc
       0.25179982 0.2494143 0.14078724 -0.020259665
000060 9a 34 2f 8b b7 6c a3 bc 2a 2a 43 3e 16 26 12 3e
       -3.3743347e-32 -0.0199493 0.19059053 0.14272341
000070 48 43 38 b7 84 67 5f b7 88 a9 20 bc b0 14 93 3d
       -1.098292e-05 -1.3315937e-05 -0.009806044 0.0718168
000080 db 5a 7c 3d cd 08 a4 3d 8d e9 b8 3d ee 5b 6c 3e
       0.061610084 0.08009491 0.09028921 0.23081943
000090 13 f6 6d 3e 4a cd 1c 3e f7 4f 24 be 5c 57 52 b5
       0.23238401 0.15312687 -0.16046129 -7.835822e-07
0000a0 19 e0 18 3d d2 12 8e a4 c7 9c 03 ac 97 18 2e 3e
       0.03732309 -6.1614566e-17 -1.8703249e-12 0.17001568
0000b0 2f 14 07 90 a7 71 d6 bc a5 35 4f 3d 7c 4e e0 3d
       -2.6639604e-29 -0.02617724 0.05058827 0.1095247
0000c0 7e b4 f5 3d 24 d4 8c 3c 38 1b 8a 3d e5 44 00 80
       0.11997317 0.017191 0.06743473 -2.4715e-41
0000d0 a3 7a 67 3e 6e 5c 9a 3d 75 56 1e 3e 8d 94 a0 3d
       0.22605376 0.07537161 0.15462668 0.07840834
0000e0 92 76 b3 bc 3f 3b b1 b5 0a fa a1 3d 6c 46 a8 39
       -0.021907125 -1.320477e-06 0.07909019 0.00032095925
0000f0 3f bc 7b b8 76 7d 13 3e 57 62 69 3c 00 65 fe 3d
       -6.001838e-05 0.14403328 0.014244637 0.12421608
000100 95 b7 aa 3c 7d 3e 7e bd 5a a1 2b 98 5c 7a f4 3c
       0.020839492 -0.062071312 -2.2182694e-24 0.029843502
000110 5a 83 1b 3e 3b f7 a1 bd 62 6a 52 89 33 f5 34 bd
       0.15186825 -0.079084836 -2.5327851e-33 -0.044179153
000120 49 5e b3 3d e6 e3 79 3e cb f6 1e 3e 83 4d 00 80
       0.08758218 0.24403343 0.15523832 -2.7806e-41
000130 95 84 df 3d fa e4 73 3d b5 a3 a1 3d a0 47 fc b9
       0.1091396 0.05954454 0.07892553 -0.0004811855
000140 8b 61 c7 3a 7c fa 01 bd 89 54 6f 3e d7 bc ef 3c
       0.0015211565 -0.03173302 0.23372091 0.02926485

fc3.weight f4 [10, 84]
000000 1f 72 22 3e 1f 9e b8 30 0b 10 23 38 f9 89 45 3e
       0.15863846 1.3432703e-09 3.887717e-05 0.19290914
000010 cb e1 1a be f5 79 52 3b ab 15 81 be 5b 7c 78 be
       -0.15125196 0.003211615 -0.25211844 -0.24266188
000020 b7 4e 8d 3d 9b 09 b8 bb b0 b6 2b b7 b0 54 6c bb
       0.06899779 -0.0056163794 -1.02349295e-05 -0.003606122
000030 d4 3e a0 3b 8d dd 9e bb 21 c2 3c bc af f6 bb be
       0.004890302 -0.0048481883 -0.011520893 -0.36711642
000040 df be 8b be 4b 65 7a be 4e 8c 10 b3 e3 01 22 bd
       -0.2729406 -0.24452703 -3.365522e-08 -0.03955258
000050 2f 13 89 be e7 9d bd 3b 9c dd b8 bb ba b6 88 3e
       -0.26772448 0.0057866457 -0.0056416523 0.2670191
000060 fa 0b 66 9e a0 5a 02 be e6 d6 a7 bd a2 4f 04 3e
       -1.2178575e-20 -0.12729883 -0.081952855 0.12921003
000070 a2 aa 35 b5 66 4a 4e ba 4b 5f cb 3b ad 45 ca bd
       -6.767606e-07 -0.00078693626 0.006206428 -0.09876571
000080 3c c9 40 3c cb 20 23 be 62 3a 93 3d 55 4d 87 be
       0.011766728 -0.15930478 0.0718887 -0.26426187
000090 bd 54 04 be 7e a1 03 3e 9c 03 7e 3d 3f 55 85 38
       -0.1292295 0.12854573 0.06201516 6.3578125e-05
0000a0 4c be a1 3d 3a 45 cb a9 cc 3a df 38 db 11 f2 3d
       0.078976244 -9.02702e-14 0.000106444204 0.11819812
0000b0 c3 da 19 32 56 10 95 be f1 7f 62 3e 37 a3 4a be
       8.955513e-09 -0.29114026 0.22119118 -0.19788824
0000c0 6f 08 ae bd 4f 36 8b be 85 45 d1 bd 53 a3 6c 36
       -0.08497702 -0.27189872 -0.10218338 3.5261808e-06
0000d0 85 2a fb bd 6d d6 5d be 49 31 25 3d 59 fc 91 be
       -0.12263969 -0.21663828 0.040330205 -0.28512838
0000e0 96 9d 38 bc e6 e3 26 3b a8 f4 07 3e 1a 7f 10 3e
       -0.01126804 0.0025465428 0.13276923 0.14110985
0000f0 73 eb 80 3a 89 be 26 bf 4c bf 24 bc e3 a9 9b 3d
       0.0009835794 -0.65134484 -0.010055374 0.07600763
000100 bc 5d 23 3e 2e 6c e5 bc c5 57 26 a6 0f b2 c4 3d
       0.15953726 -0.028005686 -5.771177e-16 0.096042745
000110 37 b8 81 3e 77 54 01 be 3f 97 50 b9 55 e8 0c bc
       0.25335857 -0.12629877 -0.0001989277 -0.008600314
000120 58 bf 42 3d 0d 7b a6 be 68 d7 a9 bd e8 08 d1 b9
       0.04754576 -0.32515755 -0.082930386 -0.00039870222
000130 f6 b4 c5 3d a0 83 04 3d 56 e6 c5 bd 5c ea bf bc
       0.09653656 0.03235209 -0.09663074 -0.023427181
000140 28 45 14 3e 0d cf b9 be 66 e5 3e be 4b c6 c4 be
       0.14479506 -0.3629078 -0.18642196 -0.38432536
000150 a7 3c a0 3d f5 f0 85 30 f8 3b bb b0 b2 66 a1 be
       0.078240685 9.745508e-10 -1.3623085e-09 -0.31523663
000160 06 a2 fb bd 59 ce 0f 3d 4b c6 0e 3e 02 96 5d be
       -0.12286763 0.035108898 0.1394283 -0.21639255
000170 99 02 1b 3e c5 00 60 35 47 45 00 80 7c 00 86 be
       0.1513771 8.344762e-07 -2.4852e-41 -0.26172245
000180 f6 3d b7 39 69 50 23 bb bc 2b 03 bc 9b 6e 84 be
       0.00034950644 -0.0024919754 -0.008006033 -0.25865635
000190 9d c2 6c be b6 7b 02 be 32 3c 07 2a f4 4c 0d bf
       -0.23121114 -0.12742504 1.2011293e-13 -0.55195546
0001a0 5f 02 62 3d 7a 9f 94 bd e0 7e 80 be 66 a4 ef bc
       0.055178043 -0.0725698 -0.25096798 -0.029253196
0001b0 c3 44 00 80 a1 4b 43 be 57 e7 38 3e 99 84 00 bf
       -2.4667e-41 -0.19071819 0.18056999 -0.5020233
0001c0 66 6d 15 b5 13 9f 3d b1 02 b1 eb b6 94 9b 47 bc
       -5.566602e-07 -2.7593543e-09 -7.024152e-06 -0.012183089
0001d0 95 94 b7 3d 85 3d ea 3d 84 69 d8 bd 41 2f 15 3d
       0.08963887 0.11437515 -0.105670005 0.036422018
0001e0 da fa 87 be 7f 62 c2 be 11 7c 24 be 01 c0 a2 28
       -0.26558572 -0.37965772 -0.16062953 1.8068881e-14
0001f0 26 a6 73 be 64 44 00 00 d4 5e 75 a6 ec d4 c3 3d
       -0.2379385 2.4534e-41 -8.5129966e-16 0.09562096
000200 e2 26 25 a5 7a f2 90 3e 2b 02 76 be 26 7b 87 3e
       -1.4324643e-16 0.28309995 -0.24024265 0.26461142
000210 5c d3 40 be 4e c8 a5 be 2f 41 8a bc 0d 38 84 35
       -0.18830627 -0.32379383 -0.016876785 9.851079e-07
000220 44 d4 d9 be 24 b7 96 be 31 09 8d 3d 7d 43 12 bf
       -0.42544758 -0.294366 0.06886519 -0.5713423
000230 a9 df 1a bb b7 02 18 ba d3 9a 53 be 4f 95 9a 3e
       -0.0023631847 -0.00057987444 -0.2066453 0.30192038
000240 ba c1 a4 b2 af 68 16 bf 17 ef 59 3e a8 83 ad be
       -1.918021e-08 -0.58753484 0.21282612 -0.33889508
000250 d8 6e 93 be 8d 11 69 bd 16 45 00 80 66 cb 76 be
       -0.28795505 -0.056901503 -2.4783e-41 -0.24101028
000260 1c 7a 00 bf 95 f4 14 3e dd 14 98 34 5d 7d ec bc
       -0.50186324 0.14546426 2.8327386e-07 -0.028868372
000270 e9 32 fc 3c 1d ff 8b 3e 54 f7 ad bd 55 33 58 37
       0.030785995 0.27343073 -0.0849444 1.2886555e-05
000280 b4 4a bd be ad 18 a7 3e 0b 47 c5 3e 6d 34 ed bd
       -0.36971056 0.32636014 0.38530764 -0.11582265
000290 28 6f 80 be 01 04 72 3b d4 30 e8 3c c6 09 6f 3e
       -0.25084805 0.0036928656 0.028343596 0.23343572
0002a0 da 3b 19 be ac 22 47 30 58 30 d2 3a e6 21 8f 3d
       -0.14964238 7.244505e-10 0.0016036136 0.069888875
0002b0 90 c1 1e 3d 2a 30 20 bc 25 3f 8a be a4 aa b9 3d
       0.038758814 -0.009777108 -0.270013 0.0906575
0002c0 72 8e d7 3d f3 a2 cd bb 2f 42 bb a2 d0 91 63 be
       0.10525216 -0.0062755286 -5.0756526e-18 -0.22223592
0002d0 75 0d c3 bb a9 33 ca 3b 51 a6 0b 3d 9c 52 68 bd
       -0.005952532 0.006170709 0.03409416 -0.056719407
0002e0 c0 0b 8a be da b2 eb 3c 23 c4 99 37 e0 a5 bf bd
       -0.2696209 0.028771807 1.8330355e-05 -0.0935781
0002f0 89 cc 5c be ac 0b db be df 18 67 bc c8 9c fd 3d
       -0.21562399 -0.42782342 -0.014105051 0.12383419
000300 3d 3f 0e ba e9 fe 45 be 8a 0e 29 bc 34 90 ff 3d
       -0.00054262934 -0.19335522 -0.010318408 0.124786764
000310 ca ee 25 37 24 0c 75 b3 62 a6 1a bb 7f b6 19 be
       9.890364e-06 -5.705455e-08 -0.0023597707 -0.15011023
000320 bb cc 00 3f 03 de 7b be d3 7a dd 3d 00 a1 02 be
       0.50312394 -0.2459641 0.108144425 -0.12756729
000330 22 38 c6 3d 61 fb 6d be 85 31 77 be 06 73 a6 ba
       0.09678675 -0.23240425 -0.24139984 -0.0012699075
000340 ad f0 f6 bb 92 79 dd b7 4d b9 61 3b ca a1 2b 3d
       -0.007536015 -2.6401864e-05 0.0034442723 0.04190234
000350 a3 95 34 95 7d 49 bf 3d 45 e2 a0 bd 90 53 a9 be
       -3.6468753e-26 0.09340189 -0.078556575 -0.33071566
000360 65 82 e5 bd 1d 65 f1 3d 49 87 04 be 7e ed 41 37
       -0.112065114 0.11786864 -0.12942232 1.1558992e-05
000370 3b c3 39 bd db 15 73 be dc 8f 3d 3d 76 ee 12 3e
       -0.045352202 -0.23738806 0.046279773 0.14348778
000380 e4 b1 b2 bc 5b fe 64 b8 ac 9a 38 be ef b9 13 bf
       -0.02181334 -5.4596323e-05 -0.18027753 -0.5770559
000390 35 98 31 bc da 50 ed 3d 4f c3 06 3e 37 48 b6 3d
       -0.010839512 0.11587687 0.13160442 0.08900493
0003a0 c9 4d ed bd db 01 78 be b2 44 00 80 04 a7 0b 3e
       -0.11587102 -0.24219458 -2.4643e-41 0.1363793
0003b0 47 e9 59 bc 10 21 61 3d e5 e1 b1 ba f8 8f 54 bc
       -0.013300247 0.05496317 -0.001357135 -0.012973778
0003c0 0a 77 ff bd 41 b3 27 3c e6 b5 af be d6 a6 d6 b9
       -0.12473877 0.010235609 -0.34318465 -0.00040941563
0003d0 52 1c 5d 3e 9d 7f bc 3d a1 a7 04 bf fa 66 f0 bd
       0.21592835 0.09204028 -0.5181828 -0.11738391
0003e0 33 71 92 3d 21 c7 36 bd 69 97 c5 3c e5 3b 12 3e
       0.07150497 -0.044623498 0.02412005 0.1428066
0003f0 b5 9d a9 bc b0 96 27 b0 dc 90 0b b9 b5 cd c9 bd
       -0.020705083 -6.0968386e-10 -0.00013310037 -0.09853689

fc3.bias f4 [10]
000000 a7 d5 2b be ca a4 45 be 30 97 87 3d 3c ef cf 3d
       -0.1678072 -0.19301143 0.066206336 0.10153052
000010 07 76 4f be c9 f8 11 bb ea 16 3f 3e 37 b3 0c 3d
       -0.20259868 -0.0022273532 0.18661085 0.0343506
000020 86 31 48 3e 11 ab 59 be
       0.19550142 -0.21256663
