HW1_Split_nb/checkpoints/model_dropout_1.pt (torch, 250600 bytes, 10 tensors)

conv1.weight f4 [6, 1, 5, 5]
000000 12 8e 63 3e 19 31 46 3e 3b ef 91 3e 60 d1 92 bb
       0.22222164 0.19354667 0.2850283 -0.004480526
000010 8f bd 40 bd fd eb cc bd 63 96 c6 bd 2a 8d 20 3e
       -0.047055777 -0.10005949 -0.09696653 0.1567885
000020 22 65 73 3d 11 41 61 bd 40 6d e0 bd 86 32 3b be
       0.05942262 -0.054993693 -0.10958338 -0.18280992
000030 e8 d1 50 3e 63 ba 27 bd 75 cb 69 3e 5f b7 aa be
       0.20392573 -0.040949237 0.22831519 -0.33343026
000040 ef e7 85 be 80 0a 58 ba 7a 31 10 bd 35 cd 86 3d
       -0.26153514 -0.0008241311 -0.035203435 0.06582109
000050 12 9f 85 be ac 8e d2 bd 7c 1b 8d 3e 2b 40 9f bd
       -0.26097924 -0.10281119 0.2756003 -0.07775911
000060 3d c1 32 bd 1b b0 f8 3d bd 2e 5e bd a4 85 1f be
       -0.043641318 0.121429645 -0.05424379 -0.15578324
000070 7f 75 d2 bd cb 29 92 bd 33 55 ca 3d 96 41 08 bd
       -0.10276317 -0.071368776 0.09879532 -0.033265673
000080 4a e5 24 be 0c 68 c7 3d 74 a7 46 3e a5 39 83 be
       -0.16103092 0.09736642 0.19399816 -0.25629917
000090 e3 b5 4b be 29 46 16 bd 35 61 a5 3d 11 9c 50 3e
       -0.19893603 -0.036688004 0.080751814 0.20372035
0000a0 eb 4e 3f be 16 d3 8e be 72 a4 e2 bd 54 8b 9a 3e
       -0.18682449 -0.2789542 -0.11066522 0.30184424
0000b0 a5 8b 99 3e 6f 6e 08 be df c4 01 be c1 8e 04 3e
       0.29989353 -0.13323377 -0.12672757 0.12945081
0000c0 a7 63 85 3d 93 87 36 3e 7d b1 75 bc b2 ee 02 be
       0.06513148 0.17825155 -0.01499593 -0.12786368
0000d0 c3 00 e5 be 46 ce ba be 69 4c 4d be 8b c6 0b bf
       -0.44727144 -0.364855 -0.2004868 -0.5459983
0000e0 dc 36 c3 be 20 19 07 bf ee 29 5b be 82 65 ad 3d
       -0.38127792 -0.5277271 -0.21402714 0.08466627
0000f0 a1 47 13 be ea 38 19 bf 23 97 07 bf 2a d8 29 bc
       -0.14382793 -0.5985247 -0.5296499 -0.010366479
000100 63 c1 89 bd 4a 2b e4 bb f3 f9 5d be 90 65 c0 bd
       -0.06726339 -0.0069631683 -0.2167738 -0.093943715
000110 80 1c 91 bd 84 5b ca 3d 21 2f 8d 3e 5c 32 11 3e
       -0.07085514 0.098807365 0.2757502 0.14179367
000120 a6 c5 33 3e 05 d9 62 bd c2 4e 96 3e d0 30 82 be
       0.17555866 -0.055382747 0.29356962 -0.25427866
000130 95 df e4 3d 93 ab 09 be 5b 9f 0d 3e 4f 49 24 3e
       0.111754574 -0.13444357 0.1383032 0.1604359
000140 f2 10 aa bd 8c 3e 17 be 56 b3 73 bd c1 11 71 3e
       -0.08304013 -0.14769953 -0.0594972 0.23541929
000150 6c 52 c0 3c 6b 63 ea bd dd 6b 4d be 09 4c 3f 3b
       0.023476802 -0.11444744 -0.20060678 0.0029189608
000160 8c 8a 29 3d 1c ef 45 3e 09 af 13 be f5 7d 2a 3e
       0.041391894 0.19329494 -0.1442224 0.16649611
000170 26 5f 90 3d 94 09 95 3e f0 4a 0d 3e c3 21 48 3d
       0.07049398 0.2910887 0.13798118 0.048860323
000180 28 8a b6 bd b4 ad 1e 3d 18 4a 26 bd a8 1f 47 3e
       -0.0891307 0.038739875 -0.040598005 0.1944567
000190 7b ae 12 3e a1 05 24 3e 9e 7f 15 be 29 08 b9 3d
       0.14324372 0.16017772 -0.14599463 0.090347596
0001a0 3d b2 f1 3d 16 3f 84 3d 2c 75 af bd 43 2c 0a 3e
       0.118015744 0.06457345 -0.08567271 0.13493447
0001b0 21 21 96 3d 86 d7 4b 3e 98 65 39 3e 0b 50 66 3e
       0.073305376 0.19906434 0.18105161 0.22491471
0001c0 c8 4e b4 bd fe da 01 3e f6 4b 04 be cb ed 3f 3d
       -0.08804089 0.12681195 -0.12919602 0.046857636
0001d0 83 1b b6 bc 3c e3 c3 bd 4c 82 15 be d5 bc 0b 3d
       -0.022229915 -0.09564826 -0.14600486 0.03411563
0001e0 c0 60 33 be 3e f7 c2 3d 1d c7 47 be 21 c4 89 3d
       -0.17517376 0.09519814 -0.1950955 0.06726862
0001f0 60 cf aa 3d 80 d0 2a be bb 7b 8f 3d cc 3e 0c be
       0.08340335 -0.16681099 0.070060216 -0.1369583
000200 8b 17 6c 3e 35 36 12 3e 43 77 a0 3c 11 33 53 bd
       0.23055856 0.14278491 0.019588118 -0.051562373
000210 99 9b 00 3e 1e d5 55 3e 75 2e 98 3c 7c 3c a8 bc
       0.12559356 0.20882079 0.01857684 -0.020536654
000220 32 43 0f be 47 67 93 bc 65 c7 2e 3e 21 7e 69 bd
       -0.13990477 -0.017993582 0.1706825 -0.05700505
000230 cb f4 72 be 8e 2c e9 bd 2d 4f 06 3e 89 86 88 3e
       -0.23726194 -0.11385451 0.1311614 0.26665142
000240 3f 4b df 3d 39 13 1b be 49 6c 1f 3e e5 51 66 3e
       0.10903024 -0.15144052 0.15568651 0.22492178
000250 0c 10 00 3d c6 4d 69 3e
       0.031265303 0.22783574

conv1.bias f4 [6]
000000 fc 35 63 bd e3 ed 11 3e 0b 0c 82 3e 64 7f c3 bd
       -0.055471405 0.14250903 0.25399813 -0.09545782
000010 9c d6 e2 bd 3f bf 2f 3e
       -0.1107609 0.17162798

conv2.weight f4 [16, 6, 5, 5]
000000 b6 41 3f be ec 29 73 be 6d d0 ce be 90 5d e7 be
       -0.1867741 -0.2374646 -0.4039339 -0.4518857
000010 ae d9 62 be c2 7d 10 be 77 30 09 bd 8f 2b ad be
       -0.2215335 -0.14110473 -0.033493485 -0.33822295
000020 c9 ce d5 be e5 3e 8b be 10 64 0f be 5c b8 78 bb
       -0.41759327 -0.27196422 -0.14003015 -0.0037951684
000030 b4 fe d7 bd fd 2f a5 be ae 8d 36 be bf 6b c4 bd
       -0.10546628 -0.32263175 -0.17827484 -0.095908634
000040 d1 ba 31 bd ce 5f 23 be 77 64 d3 be 3e 2b 8b be
       -0.043391053 -0.15954515 -0.41287586 -0.2718143
000050 90 34 c4 bd da 42 33 3e 4f 83 f2 3d 5f 35 0b bd
       -0.09580338 0.1750597 0.118414514 -0.033986446
000060 5e 7b 39 bd 6d 0e 02 3d 7b 3a ce bb a4 bc 2f 3b
       -0.045283668 0.03175204 -0.0062935925 0.002681532
000070 e6 fd a7 bd 56 f7 27 bd 54 f7 49 bd df 68 22 3d
       -0.08202724 -0.041007362 -0.049308136 0.039650794
000080 76 1f d9 bd bb b4 b5 bd d0 01 4c be df de a0 3d
       -0.10601704 -0.08872362 -0.19922566 0.07855009
000090 0d 4d 91 bc 23 f6 8f bd ef 3d db bd c1 77 07 be
       -0.017736936 -0.07029369 -0.10705172 -0.13229276
0000a0 db 14 0e 3c aa dc c7 bc e4 74 c7 3d c0 87 63 be
       0.0086719645 -0.024397213 0.09739092 -0.22219753
0000b0 11 d7 81 be f5 1e a6 bd dd 0c a7 3d 63 c2 fe 3d
       -0.25359395 -0.08111373 0.0815675 0.1243942
0000c0 b1 b6 48 be 0f b6 b8 be c8 52 f4 bc f9 75 75 3d
       -0.19600941 -0.360764 -0.02982463 0.05992696
0000d0 ee c4 df bd b9 f6 73 be 63 f6 27 be 2c 8e 81 3c
       -0.10926233 -0.23824586 -0.16402583 0.015814863
0000e0 bf 9e e2 ba 14 cf 43 be 0a 2d c8 be 51 23 bf be
       -0.0017289742 -0.19121963 -0.39096862 -0.37331632
0000f0 91 66 bc bd 55 35 6e be 1e 44 9a bd 1a 98 00 be
       -0.091992505 -0.23262532 -0.075325236 -0.12558022
000100 4f 34 da be 4c f7 11 be 87 5c 66 be cc 9a 07 bd
       -0.42618033 -0.14254493 -0.22496234 -0.03310661
000110 ca af 34 bd 8a a6 ac be e2 43 30 be e7 a2 2a be
       -0.044112958 -0.3372081 -0.17213395 -0.16663705
000120 f0 0e 1d be 8d e4 49 be e1 07 9c be 07 b8 c6 3d
       -0.1533773 -0.19716091 -0.3047476 0.09703069
000130 ff ab 98 bd c0 cd 0d be 26 35 99 bd e0 9b 03 be
       -0.07454681 -0.13848019 -0.074808404 -0.1285243
000140 26 bf e6 3d fe 10 97 38 c0 d2 ac 3c 23 ce 48 be
       0.112669274 7.203406e-05 0.021096587 -0.19609885
000150 75 5b e4 bc a1 35 66 bc 2e 7d 07 3e e4 07 1e 3d
       -0.027875641 -0.014050872 0.13231346 0.038581744
000160 79 39 01 be a0 9e 11 be d2 ec 2e 3d 82 f8 5e 3c
       -0.1261958 -0.14220667 0.04270632 0.013609054
000170 30 ad 03 3e 62 02 d7 bd 06 80 41 be 0d 89 f6 bd
       0.12859035 -0.10498501 -0.18896493 -0.12037859
000180 91 5e 35 3d e6 69 06 3e 17 9f 17 be 0c 66 72 be
       0.04427964 0.13126335 -0.14806782 -0.2367174
000190 3d aa 4f bd 1a c6 80 3d ef 02 e2 3c 59 19 47 bd
       -0.05069946 0.06287785 0.02758929 -0.048608158
0001a0 f6 b2 ea bd 67 f3 12 3d 67 bf 99 bc ca 65 93 3d
       -0.11459915 0.035876658 -0.018768026 0.07197149
0001b0 dc 82 05 3c a3 b6 3c bc 25 38 2a bd 37 9c b0 3d
       0.008148875 -0.011518153 -0.04155745 0.086235456
0001c0 da 90 c7 3d 6b bf f9 bc 38 84 59 3c 86 a1 04 be
       0.09744425 -0.030486783 0.013276152 -0.12952241
0001d0 25 42 8a 3d 0d 10 34 3b 33 c2 d0 bb 19 0d ae 3d
       0.06750897 0.0027475387 -0.0063708066 0.08498592
0001e0 ec 79 f6 bd 4b e6 8d bd 3c b5 dd bc a1 cb 1e 3e
       -0.120349735 -0.069286905 -0.027063958 0.15507366
0001f0 8a f9 e9 3d 6d ed b4 3c 09 8f 07 3d b3 ff 0f 3c
       0.11424549 0.02208587 0.033095393 0.008788991
000200 38 1a 6c 3d b7 58 7f bd 65 b9 20 3d df b2 b2 3d
       0.05764219 -0.062340464 0.039239306 0.08725523
000210 31 19 00 3e 1e e2 c3 3d 4b 42 3f 3c 03 a8 eb 3c
       0.1250961 0.09564613 0.01167352 0.028766638
000220 4b 18 c8 3d 5d 88 e6 3d 07 5a 41 3c d0 f0 20 3d
       0.097702585 0.11256478 0.011801249 0.039292157
000230 63 6f b0 bb 35 f7 3c bb e5 13 02 3e 11 2b 0d 3c
       -0.005384372 -0.002883387 0.12702902 0.008616225
000240 fb 19 73 3d 55 aa 05 be 36 ed ab 3d 7d b8 cf 3d
       0.05935095 -0.13053258 0.08394854 0.1014261
000250 49 fb 85 3d 64 7f 76 bc 42 e6 92 be e5 a6 7b be
       0.065420695 -0.015045021 -0.28691298 -0.24575384
000260 52 95 7d be 77 ca 49 be 88 1c a5 bd e0 30 3b be
       -0.24763992 -0.1970614 -0.080620825 -0.18280363
000270 97 b9 40 be ae 5c 78 bd ef 88 94 be 5c 67 52 be
       -0.18820797 -0.06063526 -0.29010722 -0.20547241
000280 82 2c 37 3d a1 3e a8 bb b3 19 2a 3e 37 4f 71 3d
       0.04472018 -0.005134419 0.16611366 0.058913436
000290 eb 43 d8 3d 57 cb 2f 3d c4 75 b1 3d d5 30 4b 3e
       0.10559829 0.04291853 0.0866504 0.19842847
0002a0 8e 57 55 3e 4b 62 6e 3e 41 f9 3e 3c 52 fd 07 3e
       0.2083418 0.23279683 0.011656106 0.13280228
0002b0 e8 75 b1 3d 4e 8f 30 3e b3 ae 66 3d 73 e6 a9 3d
       0.08665067 0.17242166 0.05631895 0.08295908
0002c0 15 8b b6 bd 41 5d f6 bd 77 85 9c 3d e4 30 00 bd
       -0.089132465 -0.120295055 0.07642644 -0.031296626
0002d0 7a 0e 2e bd 68 73 d7 bd 83 59 91 bd f5 82 b8 bd
       -0.042494275 -0.10520059 -0.07097151 -0.09009353
0002e0 79 2d 17 bb 66 34 e6 bd cd 2f a9 bd 98 d5 76 bd
       -0.0023067875 -0.11240463 -0.082610704 -0.060262293
0002f0 40 29 0e bd 07 3a ca 3d 58 f9 e7 bd eb e2 f6 3c
       -0.034707308 0.09874349 -0.113268554 0.0301375
000300 bf e9 bb bc a2 de 6d 3d 3b b1 9d 3c 32 28 bf bd
       -0.022938607 0.058073647 0.01924955 -0.093338385
000310 11 9a 85 3d 33 e0 18 bd d3 d7 b6 3d 05 9b 60 ba
       0.065235265 -0.037323188 0.08927884 -0.00085680216
000320 3a fb dc bd 71 ce 5d be 22 a9 b8 bd 14 b0 c0 bd
       -0.10790105 -0.21660782 -0.090166345 -0.09408584
000330 21 85 22 be 5d 16 83 be b4 e6 68 be ff 23 d0 bd
       -0.15871097 -0.25603 -0.22744256 -0.10163116
000340 cd ca 16 be 85 fb b6 be 9d e5 b1 be f8 7c 6c be
       -0.147258 -0.3573877 -0.34745494 -0.23094547
000350 01 a7 9f be da 0f 80 be 48 e6 72 be a2 fb 6a be
       -0.311821 -0.25012094 -0.23720658 -0.22947553
000360 ab 00 bb bd f5 ad 9b bd 9f 90 a8 bd 08 67 81 be
       -0.09130987 -0.07601539 -0.08230709 -0.2527392
000370 f2 45 98 bd 27 c1 4b bd 29 73 41 bd 07 52 0d be
       -0.07435216 -0.04974475 -0.047228966 -0.13800822
000380 ed a1 41 be 2f cc 36 bd fe db fa bd b2 32 15 be
       -0.18909426 -0.04462832 -0.122489914 -0.1457012
000390 8a 68 b9 bd 2f bb a4 bd f3 2c 26 3c e6 8a 18 be
       -0.09053142 -0.08043515 0.010142553 -0.14896736
0003a0 d5 4a 7c bd de 08 95 3c 71 33 98 bd c4 65 98 3b
       -0.061594803 0.018192705 -0.07431687 0.0046508033
0003b0 da 71 be bc 75 97 f9 bd a3 0c 9c bd 9f 08 67 3c
       -0.023247648 -0.12187091 -0.07619598 0.0141011765
0003c0 90 61 ff bd a2 c1 f6 bd 26 ef 80 3c 17 ef 76 bd
       -0.124697804 -0.12048651 0.015739035 -0.060286608
0003d0 2c 70 4d bd 31 be 84 bd 55 91 b5 bd 20 2b 30 bb
       -0.050155804 -0.06481589 -0.088656105 -0.0026881173
0003e0 5f 43 62 bd 10 d6 9a 3d ea ab e1 bb fa ec 2e 3c
       -0.05524003 0.075603604 -0.006886949 0.010676617
0003f0 35 0a 89 3c 37 f0 c8 bd 8f cb 63 bd 58 91 97 3d
       0.0167285 -0.09811442 -0.05561405 0.07400769

conv2.bias f4 [16]
000000 c0 6e 36 bd 7f 0a 5e 3d da 5b 3d 3d 01 c0 47 bc
       -0.044539213 0.05420923 0.046230175 -0.012191773
000010 d5 f6 d7 3d 96 18 ba 3d 91 98 67 3c f3 fa 16 bc
       0.10545126 0.09086721 0.014135496 -0.009215104
000020 64 79 8d 3d f3 4c a0 3c f1 ac 3c bc 2a 7c a3 3d
       0.06907919 0.019567942 -0.011515842 0.07982667
000030 aa 09 c8 3d 9c 91 32 3c 96 c3 bd 3c 09 7d 80 3c
       0.09767468 0.010898974 0.023164552 0.015684621

fc1.weight f4 [120, 400]
000000 44 b8 bd bd cb 28 83 3c 38 cf a3 bd e2 57 1a be
       -0.092636615 0.016010663 -0.07998508 -0.15072587
000010 4c b9 10 3e 5a 5c f1 bd 89 13 30 be c6 28 3d bd
       0.14133185 -0.11785193 -0.17194952 -0.046181463
000020 da 56 c6 bd 5e 8f 36 3c ef 10 35 bd c1 95 54 3d
       -0.09684534 0.01114258 -0.044205602 0.05190063
000030 1a e8 f6 bb e7 21 6e 3c 2d 90 2c bd fa 87 df 3d
       -0.007534993 0.01453445 -0.042129684 0.10914607
000040 ed 56 27 3d 41 a0 7f 3d e3 22 4e bc 3c 89 04 3d
       0.040854383 0.06240869 -0.01258156 0.03235744
000050 6a df a3 3d 6a 72 08 3e 97 61 95 3d 1d 58 d6 3d
       0.08001597 0.13324896 0.072940044 0.10466025
000060 82 37 cf 3d b1 a9 3a 3d 3d ad df 3b bc 59 9e bd
       0.10118009 0.045571987 0.0068260715 -0.07731959
000070 b7 25 dc bc b9 83 81 3d 69 98 9f 3d a8 ae 89 bd
       -0.026873453 0.06323952 0.07792742 -0.06722766
000080 77 17 04 be b7 ff ad bc 7b 9a 21 3d 2b a2 af bc
       -0.12899576 -0.021240098 0.039453965 -0.021439632
000090 40 22 4f bd 6a ea 3d 3d 8a 76 05 3d e4 43 36 3d
       -0.050569773 0.046366133 0.03258375 0.04449834
0000a0 11 78 af 3d f0 8d 35 3d 68 23 48 3d d9 b2 2d 3d
       0.08567823 0.044324815 0.04886189 0.04240689
0000b0 58 8a 68 bc 22 72 32 3d b3 67 92 3d 12 9d ef 3d
       -0.01419314 0.043565877 0.07148685 0.11699881
0000c0 31 34 09 3d 30 58 5c 3d e7 62 82 bd 19 bc b2 3c
       0.03349704 0.05379504 -0.063665204 0.021818208
0000d0 df e9 db bc 9d 1d c8 3d 5d 25 b7 3d 16 41 85 bd
       -0.026844917 0.09771273 0.08942673 -0.06506555
0000e0 65 1d a3 bd 1f bb 13 3d b8 7d 11 bd 57 f3 d1 bc
       -0.07964591 0.036067124 -0.035520285 -0.025628729
0000f0 c4 8d 03 be f9 71 30 be 5f ce 59 bd d4 b2 ea bd
       -0.12847048 -0.17230977 -0.053175326 -0.1145989
000100 bc ff 42 3c fc 0e a3 3b 55 a5 76 bd 02 40 18 bd
       0.011901792 0.0049761515 -0.060216267 -0.037170418
000110 80 45 86 bc f2 96 ba bc f5 7c 0d bc 9d 36 20 3d
       -0.016390562 -0.022777054 -0.008635749 0.039114583
000120 a6 25 a7 bd c8 ee 3d bd 14 b4 19 3d 40 26 ad 3c
       -0.08161478 -0.046370298 0.03752525 0.021136403
000130 7c 02 32 3e 5a 39 20 3e b5 98 1a 3e 3a 72 15 3d
       0.1738376 0.15646878 0.15097316 0.036485888
000140 ee 23 0d 3e a4 96 15 3e 13 91 78 3d 07 ba 38 3e
       0.13783237 0.14608246 0.06068523 0.18039714
000150 a3 86 dd 3d 60 4b 8b 3d 18 95 23 3e e6 7b eb 3c
       0.108166955 0.06801486 0.15974844 0.028745603
000160 ac b8 82 bc fa 59 f1 3c dd d9 c2 3c 53 44 1b bc
       -0.015957199 0.02946185 0.023785526 -0.009476739
000170 a3 73 3a bd 3b ae ea bd 1e 9f 06 be c6 e3 e4 bc
       -0.045520436 -0.11459013 -0.13146636 -0.027940642
000180 6f 6a 88 bc 1a 2e 1e be 5d fc 3b bd e8 c0 7d 3d
       -0.016652314 -0.15447274 -0.04589497 0.061951548
000190 0f 6e e6 bd 3f 2a c4 bd 91 0b 9e 3d f7 0f 03 be
       -0.11251461 -0.0957837 0.0771705 -0.12799059
0001a0 c8 a7 93 bc 9d 97 ca bc 93 a8 57 3d 38 27 8f 3d
       -0.01802434 -0.024730498 0.052651 0.06989902
0001b0 3d 03 ba bc 6a 69 a8 3d d2 0f 93 bc 04 a4 18 3e
       -0.022706622 0.08223231 -0.01795188 0.14906317
0001c0 00 a4 88 3d 5d 82 07 3d 92 0f 73 3d e4 cb 8c 3d
       0.066719055 0.03308331 0.05934102 0.068748266
0001d0 9e 2e b9 3d 54 46 1d 3e b7 71 b4 3d 99 bd 39 3d
       0.09042095 0.1535886 0.08810752 0.04534683
0001e0 9c 9f 4d 3d 6c d6 5b 3d f8 a4 a2 bc 84 22 47 bd
       0.050201043 0.053671286 -0.019854054 -0.0486169
0001f0 0e f4 e3 3a 16 4f e9 bc f5 8c d0 bd ab fa 0b bd
       0.001739146 -0.028480094 -0.101831354 -0.034174602
000200 2e 27 19 be 04 2b 2b 3c 44 ea 17 be 86 81 09 be
       -0.14956352 0.010447267 -0.14835459 -0.13428316
000210 5c da 25 bd fe 19 58 bc ae c2 87 bc d8 c9 01 be
       -0.040491447 -0.013189791 -0.016572323 -0.12674654
000220 97 91 84 bc 53 9f 8d 3d 1e bb cf 3b e8 dd 3b 3c
       -0.016182704 0.06915154 0.006339445 0.011466481
000230 03 24 c0 3c 80 d6 d3 3d 5e ed b1 3b 90 d5 1b 3c
       0.023454672 0.10343647 0.0054299077 0.0095113665
000240 7b 7f 34 3b f7 44 27 bd c4 3a 34 3d fa 41 84 3d
       0.0027541805 -0.040837254 0.044001356 0.064578965
000250 f2 ba bc 3d a3 0c 4f bc 63 43 39 bc 6d 29 c9 bd
       0.092153445 -0.01263729 -0.01130757 -0.098223545
000260 95 6b ef 3b 5d 2c 85 bd d4 60 5b 3d 0e 5c 9d bd
       0.007306526 -0.06502602 0.05355914 -0.07683574
000270 c9 15 53 bd 6f 91 c8 3d fb b3 7b bd c8 94 2a 3d
       -0.051534448 0.09793364 -0.06145094 0.041645795
000280 f4 8c 54 bd ea 05 bc 3c 4a ab 70 bd 14 81 e4 3c
       -0.051892236 0.022952039 -0.058757104 0.02789358
000290 bb a8 9a bc ce ce 6e 3d a2 48 28 3c 71 58 0a 3c
       -0.018879285 0.058302693 0.010271223 0.008443938
0002a0 88 67 86 3c 58 4d 7f 3d b4 d0 0e bd e5 d2 2b 3d
       0.01640679 0.06232962 -0.034867004 0.04194917
0002b0 cd 34 a3 3c 3a 18 71 3d ff c7 c5 3c d3 65 09 be
       0.019922638 0.058860995 0.024143217 -0.13417749
0002c0 72 38 0b be 19 2f 0b 3d f2 63 a4 3c e7 a8 6b 3c
       -0.13595751 0.033980463 0.020067189 0.014383531
0002d0 a8 51 2f be 82 b0 c4 bd c2 29 06 3e 41 d3 1e bd
       -0.17120993 -0.09603979 0.13101867 -0.038775686
0002e0 d3 82 cb bc 01 ad 42 bd ea e2 93 3c 86 36 c1 3c
       -0.024842655 -0.04752827 0.018052537 0.02358557
0002f0 29 bd 6c bd 19 a5 a3 bc 41 30 ce 3a 51 24 c9 3b
       -0.057797585 -0.019976186 0.0015730934 0.0061383625
000300 34 ab 6f bd e9 b0 1f 3b 13 a0 27 be 59 d8 e9 3b
       -0.05851288 0.0024366921 -0.16369657 0.0071363864
000310 45 f9 84 3c 87 8f e6 bc d4 83 84 3a 18 32 f4 3c
       0.016232142 -0.028144611 0.0010110089 0.029809043
000320 fe a5 49 bb 3c b3 03 3e 65 a6 d6 3c 6b 81 37 bc
       -0.0030769105 0.12861341 0.02620239 -0.011200289
000330 d4 ea c1 bc 4d b7 dc 3d 28 3a f0 3d 18 cf 2f 3e
       -0.023671545 0.10777149 0.117298424 0.17168844
000340 5e 06 64 3d fc e1 0c 3d 95 77 fe 3d 91 06 c3 3d
       0.055670135 0.034395203 0.12425152 0.09522737
000350 c8 ec 00 3e de 11 d0 bc 59 fa 89 3b 4c 09 9c bd
       0.12590325 -0.025399145 0.004210752 -0.07618961
000360 18 75 1d 3c 4c f2 50 be f0 5d 0b 3d da a9 83 bd
       0.009610437 -0.20404929 0.034025133 -0.06428881
000370 38 06 8f bc 2a be c2 bd 0c 63 10 be 6e 2d 4b 3c
       -0.01745902 -0.09508927 -0.14100283 0.012400968
000380 9e 68 c4 3c d0 bd d3 bd c3 62 50 bc df 7d e2 bc
       0.023975667 -0.10338938 -0.012718859 -0.02764791
000390 69 aa ea bb e5 88 72 3d 95 c0 db bd 5b d9 ba bd
       -0.0071614278 0.059212584 -0.107300915 -0.091234885
0003a0 82 ce be 3d b1 a4 16 be 92 0a 4f bd 58 38 d8 bd
       0.09316732 -0.14711262 -0.05054719 -0.10557622
0003b0 e3 47 9f bd 90 0e 38 3d 20 b5 94 bd e0 3e 9d bc
       -0.07777383 0.044935763 -0.07261109 -0.01919502
0003c0 c7 ff 58 3c 55 a4 d1 3c e0 eb f7 bc 24 7e 3d bc
       0.013244576 0.025591055 -0.030263841 -0.011565719
0003d0 8e b4 a3 bd 0c 40 87 3d 71 f1 04 3d ca d3 af bc
       -0.079934224 0.06604013 0.03245682 -0.021463294
0003e0 1b f7 36 3c f7 32 cc bb 36 e5 a0 bd 57 58 9c bd
       0.011167313 -0.0062316614 -0.078562185 -0.07634037
0003f0 34 fb a8 3d 7f d7 8f 3d b7 d9 99 3c ce c5 e4 bd
       0.08251038 0.070235245 0.018780572 -0.11170541

fc1.bias f4 [120]
000000 c6 7f df 3c 27 e4 49 3d 0b 68 eb 3c 1a 31 12 bd
       0.027282607 0.04928985 0.028736135 -0.03569136
000010 d4 ad 70 bd 71 ec 65 3d 56 f5 05 bc c2 f7 18 bd
       -0.058759525 0.05613369 -0.008176168 -0.037345655
000020 a8 9a ba ba 53 bf fc 3d 9a d7 09 3d 87 af 5b 3d
       -0.0014236765 0.1234118 0.03365288 0.053634193
000030 8e 9b 0b 3e 30 51 d5 3d 72 bc 99 3d fd 23 d4 3d
       0.13633558 0.10415876 0.07506646 0.10358427
000040 f2 bf 91 3c ec f6 db bc ad a0 d2 3d bd c8 29 3d
       0.017791722 -0.02685114 0.10284553 0.041451205
000050 f5 4f e9 3d 8e e5 15 3e 95 90 2c bc fc a8 01 3d
       0.11392204 0.1463835 -0.010532518 0.031655297
000060 f3 04 68 3d cd 98 a2 bd dd c5 2c bd d9 20 35 3c
       0.056645345 -0.07939301 -0.042180885 0.011055195
000070 e3 fe 31 bd 72 13 1c 3d 72 0a 74 3b 6f a6 df 3d
       -0.04345597 0.038104482 0.0037237671 0.109204166
000080 1d 78 b5 3d 5b 11 f4 3c 2d b8 12 3e c1 e4 84 3d
       0.088608004 0.029793432 0.1432807 0.06488944
000090 d3 81 f9 3d 26 50 f6 3c ca c8 4d b9 e7 0d d0 bc
       0.12182965 0.030067515 -0.00019625123 -0.025397254
0000a0 60 e5 9f 3d ba ba 72 3d 40 b8 af 3d 10 17 b3 3d
       0.07807422 0.059260108 0.08580065 0.08744633
0000b0 72 c8 99 3d dc 32 04 3c 14 1b 21 3d c8 d4 91 3c
       0.07508935 0.008068766 0.039332464 0.017801657
0000c0 de bb 62 bd 62 c1 d5 3b 66 56 52 3d e8 c8 ea bd
       -0.055354945 0.006523297 0.051351927 -0.11464101
0000d0 97 fa c7 bd 73 a8 70 3d da f7 05 bd 94 c9 a0 3b
       -0.09764593 0.058754396 -0.032707073 0.0049068425
0000e0 f6 b6 66 3d 7a 69 89 3d 31 ec 49 bd a2 bf 7b 3b
       0.05632683 0.06709571 -0.049297515 0.0038413783
0000f0 a7 78 99 3b 99 91 2e 3e a0 27 53 bd ee 9d 01 3e
       0.0046835723 0.17047729 -0.05155146 0.12657902
000100 f8 62 41 bd 48 84 78 3c 73 a2 80 3d 41 a1 d1 bc
       -0.047213525 0.015168257 0.06280985 -0.025589587
000110 a0 62 a6 3d 1b 8e 0f 3d c7 4c a0 bc ef 24 58 3d
       0.0812428 0.03504763 -0.01956786 0.052769598
000120 6d 71 35 bd 53 c2 b3 ba 22 db 0b 3d d4 b4 ab 3c
       -0.044297624 -0.0013714529 0.03414453 0.020960249
000130 d5 08 38 3d 16 ed d6 3d bb 77 8c bd 85 be 88 bc
       0.044930298 0.10494439 -0.06858774 -0.01669241
000140 b3 16 4f 3c cf 36 d9 3d 81 9a 56 bc 14 a7 87 3b
       0.012639689 0.10606157 -0.01309836 0.0041397903
000150 cb 4a 39 3d b4 68 d6 3c 47 ff b0 3d a8 ee 30 3d
       0.045237344 0.026172973 0.0864244 0.04319635
000160 9d e0 0f 3d 39 01 63 3d cb 91 9d 3d e2 bb 89 3c
       0.035126317 0.055421088 0.076938234 0.016813222
000170 c2 f6 3c bd e6 68 b5 bb ac aa c6 3d 03 71 1c 3d
       -0.046133764 -0.0055361865 0.09700522 0.038193714
000180 49 45 9b 3c 6a a7 b7 3d 10 16 34 3c 95 b1 8c 3d
       0.018953936 0.089674786 0.010991588 0.068698086
000190 a9 9b 93 3d 23 a1 a8 3a f1 f8 2a bc bb 2e 0d 3d
       0.07207424 0.0012865405 -0.010435329 0.034468394
0001a0 bb b5 84 3d 03 4e b1 bd 6b a6 03 3d 84 20 d1 bc
       0.06479975 -0.08657458 0.03214113 -0.0255282
0001b0 98 44 4b bd 24 dd 42 3d cd bd 14 b9 16 40 8c 3b
       -0.049625963 0.047574177 -0.00014185086 0.0042801006
0001c0 7e 60 d1 bb 1f 17 3f 3d 7e 02 16 bd d5 3a d6 3d
       -0.0063896766 0.04665291 -0.03662347 0.1046044
0001d0 a5 fd 7a 3c 15 55 dd 3a 5f 94 1d bd 6b d9 47 3d
       0.015319263 0.0016886318 -0.038471576 0.04879133

fc2.weight f4 [84, 120]
000000 1f 0a 31 be 72 d0 0e be ce 34 44 bc 40 4a 36 3e
       -0.17289017 -0.13946703 -0.01197548 0.17801762
000010 67 eb c7 bd cb e6 60 3d 70 ca ff 3d 28 cc 11 be
       -0.09761696 0.0549076 0.12489784 -0.14238036
000020 85 48 0f 3e 0f f0 69 3d 01 76 4a 3e d7 ec 78 bd
       0.13992508 0.057113703 0.19771577 -0.060772743
000030 df 67 08 be fd 04 69 bd 3f e0 00 be 08 8f 0b be
       -0.13320874 -0.056889523 -0.12585543 -0.13628781
000040 63 ce 22 3e 19 87 f6 3d 6c 73 15 be 37 61 03 bc
       0.15899043 0.120374866 -0.14594811 -0.008018783
000050 9f 6e b4 3c 33 11 01 be 1d 56 32 bc 2b 4b 0d be
       0.022025404 -0.12604217 -0.010884789 -0.13798206
000060 76 1b 82 3d 64 f2 d8 bd f7 c6 a3 bd 38 71 fc 3c
       0.06352894 -0.10593107 -0.07996934 0.030815706
000070 5d e6 06 bc 37 70 e5 bc 88 13 5c 3d b1 2f 7d bd
       -0.008233634 -0.02800761 0.053729564 -0.06181306
000080 c6 8e fd 3d aa 14 33 3d ff 0b 33 3c a5 64 02 3d
       0.123807475 0.04372088 0.010928153 0.031834263
000090 31 62 b9 3d 81 86 d6 bd b1 ea a2 bd bf cb 2e bd
       0.09051932 -0.10474873 -0.0795492 -0.042674776
0000a0 43 db 43 bd 86 eb 6a bc 79 23 d2 bd 70 2d f0 3c
       -0.047816526 -0.01433838 -0.10260672 0.029318541
0000b0 60 0c 04 3c 9c 29 a2 3c c7 ba 46 3c 5e c8 78 3d
       0.008059591 0.019795232 0.012129492 0.06073796
0000c0 94 4c 37 be a4 81 a1 bd a5 83 8b bd 14 bf 68 3e
       -0.17900306 -0.07886055 -0.068122186 0.2272914
0000d0 af 1f 02 be 9b c4 92 3c 0e 61 f7 3d 8f 9c 66 3c
       -0.12707399 0.017916014 0.120790586 0.014075412
0000e0 02 f4 ab 3d 08 e2 ba 3a 8d 46 8f 3d 46 e0 38 3d
       0.0839615 0.0014258036 0.06995878 0.04513576
0000f0 ed 82 0c be c1 82 47 be 5d e8 1c 3d 88 4d 2f bd
       -0.13721819 -0.19483472 0.038307536 -0.04279855
000100 c2 b7 18 3d f6 5b 82 bd 65 bf c9 3c 26 5d ef 3d
       0.03728462 -0.063651964 0.024627397 0.116876885
000110 b3 1e b2 bc 3f 15 3b be 21 58 4e 3d 2b be 23 3d
       -0.021743154 -0.18269823 0.050377015 0.03997628
000120 60 52 85 3c 07 6a 01 3e a1 a8 47 3d fe fc b2 3c
       0.016274631 0.12638102 0.0487448 0.021849152
000130 68 96 42 be 18 be 19 be 20 e3 48 3e 52 69 5a bd
       -0.19002688 -0.15013921 0.19617891 -0.053323098
000140 78 6e ef bb a2 0b 2c bc f5 06 9a 3d bb ba 10 3d
       -0.00730687 -0.01050082 0.07520858 0.03533433
000150 04 37 25 be da 83 16 3e 0d 74 df 3d 57 ec 2f bd
       -0.16134268 0.14698735 0.10910807 -0.04295
000160 c0 62 15 3e 39 ea 8d bd 3e c0 b1 3d d9 e5 c0 3d
       0.14588451 -0.0692944 0.086792454 0.0941884
000170 5e a3 e3 bc 76 b4 5f bd ce 98 01 be da c4 4b bd
       -0.02778786 -0.05461546 -0.12655947 -0.04974828
000180 77 cc 46 be b1 93 b4 bd 32 12 98 bd df 2e 3e be
       -0.19413935 -0.088172324 -0.074253455 -0.18572567
000190 00 53 26 bc e0 7a fe bd de bf 77 bd c3 92 2b bd
       -0.010151625 -0.1242578 -0.060485713 -0.04188801
0001a0 d5 db d7 bd 5a 1f 1a bd c9 be 93 bc fe 42 86 bd
       -0.105399765 -0.037627555 -0.01803531 -0.065557465
0001b0 43 af 0e bc 79 ba 4e bc 37 3c 1a be 20 70 94 3d
       -0.008708778 -0.012617701 -0.15062033 0.07247949
0001c0 09 3d 1e 3c eb c8 49 3d da ba ef 3b f5 0e 80 3d
       0.009658107 0.049263876 0.0073159756 0.06252853
0001d0 f6 ad 38 bd 53 e5 bc 3c b1 a3 34 bd 1a 2c 98 3c
       -0.045087777 0.023058569 -0.04410142 0.018575717
0001e0 90 47 11 3d ac 04 fb bb 4d a6 09 be 8a 35 98 3c
       0.035468638 -0.007660469 -0.13442345 0.018580217
0001f0 66 df 5f bc e4 35 48 bd 68 cf 01 bd 4e 07 72 bd
       -0.013664102 -0.04887952 -0.03169194 -0.059088998
000200 60 5f 50 bd cb a3 60 bd 71 77 db bd fc ff 27 3d
       -0.050872207 -0.054843705 -0.10716141 0.04101561
000210 a6 f3 e9 3a 9f ff 50 3d 22 28 46 3d b2 fc 4b bd
       0.0017849102 0.05102503 0.048378117 -0.049801536
000220 54 65 75 3d a3 26 37 be 28 d8 ae 3d 8d 9b 8d bd
       0.059911087 -0.17885832 0.08537322 -0.069144346
000230 94 db 87 3d d2 84 1a 3b 0b b2 d6 bc 7a e1 e7 3c
       0.06633678 0.0023577702 -0.026207944 0.028305758
000240 ba 8c 55 bd 4c 99 20 be 31 b1 08 bc 5f c4 06 bd
       -0.05213616 -0.15683478 -0.008343027 -0.032902118
000250 6c 27 9c bd a7 22 89 3d a3 2b 05 bc cf 48 45 3d
       -0.076247066 0.066960625 -0.00812808 0.04816514
000260 d7 47 ce bd 4a 7a 7d 3c 43 e3 a1 3d 17 c8 26 3c
       -0.10072296 0.0154710505 0.07904675 0.010179541
000270 f0 23 dd 3c 83 de ed 3c dd d2 fe bd 19 88 3d bd
       0.026994675 0.029036766 -0.12442563 -0.04627237
000280 65 d6 09 3e cf fc c0 3d ca 3c 10 bd e3 4e b1 bc
       0.13460691 0.094232194 -0.035214223 -0.021644061
000290 a6 50 41 3c 39 52 98 bd 2f b9 b6 3d 5f 43 90 3d
       0.011799013 -0.07437558 0.0892204 0.070441
0002a0 92 5e 1a bd 00 f4 5a 3d 99 5e 97 bd f0 e4 05 be
       -0.037687846 0.053455353 -0.0739109 -0.13075614
0002b0 48 ce 00 bc ed ac 18 bd b1 c6 2b be ff cf 3f bd
       -0.007861681 -0.03727429 -0.16775014 -0.04682922
0002c0 42 74 00 bc f9 5d e8 bd 40 d3 39 3d 02 a9 d3 bd
       -0.007840218 -0.11346049 0.04536748 -0.1033497
0002d0 06 06 f4 3b 62 72 0e 3d 2f a6 0e bc 02 6d c2 3b
       0.007447007 0.034777053 -0.008706613 0.005933405
0002e0 72 3d 98 bc 0e 92 47 bc 7a 54 0c 3d 60 7f 8e 3c
       -0.018583987 -0.012180818 0.03426025 0.017394722
0002f0 8b 69 56 3b 72 af dd bc 2b f7 b5 bd 43 64 74 3b
       0.0032716717 -0.027061198 -0.08885034 0.0037291206
000300 91 64 81 bd 13 68 93 bd 66 b8 b1 3d 12 43 01 bd
       -0.0631801 -0.07197585 0.08677749 -0.031558104
000310 ca 46 5e bd 5d 5f 7f bd 40 b0 0d be e2 51 21 bd
       -0.05426673 -0.062346805 -0.13836765 -0.03938473
000320 76 20 57 bd 39 37 eb 3c 19 f8 42 3d 85 89 53 bc
       -0.05252119 0.028712856 0.047599886 -0.012911205
000330 52 d7 1a 3d 0d 12 10 3d 10 ad 0e 3c 6a a4 59 3d
       0.037803 0.035173465 0.0087082535 0.053135313
000340 2a cc 84 bc 50 11 32 bc e3 86 1e 3e 48 b6 32 3d
       -0.016210634 -0.010868385 0.15481143 0.04363087
000350 bb 56 4a bc f1 55 5c bc 03 5b 0d 3e cf 6c 69 3d
       -0.01234978 -0.013448224 0.1380425 0.056988534
000360 36 d7 fb 3d e2 11 f2 3c 8a d4 b0 bd 33 7d c4 3c
       0.122969076 0.029549543 -0.086342886 0.02398548
000370 f9 84 fe bc f1 71 e0 bd 2e f9 2d 3d 84 53 4c 3d
       -0.031069266 -0.109592326 0.042473964 0.049884334
000380 1c 9e 96 bd 84 c1 9f 3c e7 7b 08 bd f6 f0 19 3d
       -0.07354376 0.019501455 -0.033321287 0.037583314
000390 7e bc 9f 3c 08 b4 7f 3d a9 f2 11 3d 26 6e 3f bd
       0.01949906 0.06242755 0.03563181 -0.046735905
0003a0 99 59 ab 3d e4 b6 97 3d 92 40 bd bb b1 07 da 3d
       0.08366699 0.074079305 -0.0057755196 0.10645998
0003b0 be 40 2d bc a7 60 2e be d6 af 0d 3d b1 50 ac bd
       -0.010574518 -0.17029057 0.03459152 -0.08413828
0003c0 ac ae 87 3d e0 f3 f4 3c ae 7f fc bd 60 26 52 be
       0.06625113 0.029901445 -0.123290405 -0.20522451
0003d0 06 f3 f5 bd aa 31 49 bc fa c8 04 be a0 db 1e 3d
       -0.12009244 -0.012279907 -0.12967291 0.03878367
0003e0 aa c9 ae 3d 71 e0 3f 3c 59 98 0c bd fb 21 75 3b
       0.08534558 0.011711226 -0.034324978 0.0037404287
0003f0 b2 6c 81 3d 74 d9 11 3e e5 c4 04 3e 00 6d 83 3d
       0.0631956 0.14243108 0.12965734 0.064172745

fc2.bias f4 [84]
000000 59 22 8c bd 3e a2 63 3e 8e cc 21 3e 7d e2 3a 3d
       -0.06842489 0.22229859 0.15800688 0.045626152
000010 2b a8 32 3e 1c d0 c0 bc cb 96 a5 3e e2 4e e2 3d
       0.17446963 -0.023536734 0.32341608 0.11050202
000020 43 a4 1d 3e 98 c9 81 3d d7 74 0c 3c 8f 49 99 3d
       0.15394692 0.06337279 0.008572779 0.07484733
000030 00 f6 6d bc 4a ac 08 3e a0 43 c8 bc 0e 16 26 3e
       -0.014523983 0.13346973 -0.024446309 0.1621935
000040 44 34 34 3e 91 cc 2d 3d 42 af a9 3d c9 cc 5f 3a
       0.17598063 0.042431418 0.08285381 0.000853729
000050 3b ab 7d bb c5 10 26 3e aa 74 78 3d c9 0c bc 3d
       -0.0038706798 0.16217335 0.060658135 0.09182126
000060 15 91 b6 bd 83 91 2e 3d 82 2d cd bd 65 69 88 3d
       -0.08914391 0.04261924 -0.100184456 0.066607274
000070 16 6d 0d bd 74 3c 11 3d 1c a9 20 3e 8a 12 21 3e
       -0.03452786 0.035458043 0.1568951 0.15729728
000080 ac 6f 06 3e 3c 67 eb 3d a1 58 7b bb ce 0f e4 3b
       0.13128537 0.114943 -0.0038352387 0.006959892
000090 30 8f 81 3d 29 7e 82 3d d1 55 13 3e 6b 5e 57 bc
       0.06326139 0.063717194 0.14388205 -0.01314507
0000a0 77 3b 2f 3d 4e 05 43 3e 80 6d 81 3e cc 72 d9 bd
       0.04278132 0.19044992 0.25278854 -0.10617599
0000b0 b0 19 1a bd 1f 80 ae 3d 33 d7 bf 3d bf 72 66 3d
       -0.037622154 0.08520531 0.09367218 0.056261774
0000c0 ff c3 85 3d 51 a9 36 3e 73 c5 ca 3c 9b 7d c5 3d
       0.06531524 0.17838027 0.024752354 0.09643098
0000d0 3e 90 74 3d db 06 17 bd 60 c4 6b bd b3 be 4f 3e
       0.059707873 -0.036871772 -0.057560325 0.2028759
0000e0 62 f0 36 3e 12 ef aa bd 6a 97 ea bc 84 f7 2d 3b
       0.17865136 -0.0834638 -0.028636653 0.0026545236
0000f0 7a 0c e4 3d fb ce d9 3d a0 d1 dd bd 3b 30 ff bd
       0.11135192 0.106351815 -0.108309984 -0.12460371
000100 0d d6 62 3d 41 b0 95 3c 79 55 f1 bc 62 ef ba bd
       0.055379916 0.018272521 -0.029459702 -0.0912769
000110 48 90 2d bd 9d e9 d9 3d 92 57 89 bc 5d 65 80 3d
       -0.042373925 0.10640261 -0.01676539 0.062693335
000120 f5 7e 63 3e 84 4c 19 3e b2 bb 70 3d 8d d5 1b 3e
       0.22216399 0.14970595 0.05877275 0.15218182
000130 15 83 d0 3b da 30 c9 3d f1 4a 46 3d 14 8b 31 3e
       0.0063632824 0.09823771 0.048411313 0.1733821
000140 0e 89 ed 3d 9a 3b cb 3d c8 4b 99 3d 6c b6 a9 3d
       0.11598407 0.099234775 0.07485157 0.08286747

fc3.weight f4 [10, 84]
000000 0e 89 00 bd f0 10 8a 3d 6e f2 f0 3d 16 be 8d 3c
       -0.031380706 0.06741512 0.1176499 0.017302554
000010 9c 83 0d be b1 23 10 be ca 9d 85 3d f0 19 93 3c
       -0.13819736 -0.14076115 0.065242365 0.017956704
000020 e1 da 41 be 59 4d d0 3d 5a 5c 8f bd 4f 46 10 be
       -0.18931152 0.10171003 -0.070000365 -0.1408932
000030 0d a9 05 be 7a 78 2b 3c 22 3f 80 3c 78 12 bb 3d
       -0.13052769 0.010465736 0.015655104 0.09134382
000040 13 2b af 3d 57 28 6a bc 27 82 c7 3d 89 75 0c be
       0.08553138 -0.014291844 0.097416215 -0.13716711
000050 4b 6b ba bc 5f bd aa 3c 45 3b 0a bd 85 ca c8 3d
       -0.02275624 0.020842252 -0.03374793 0.098042525
000060 2c 48 32 bd 29 2c 14 3e a3 57 b1 bd c4 2e 9f bd
       -0.04352586 0.14469971 -0.086592935 -0.07772592
000070 32 54 ad 3d 00 a0 b8 bd 28 f5 7a 3c 2d e5 30 bd
       0.084633246 -0.090148926 0.015317239 -0.04318731
000080 d8 63 ea 3b 5d 64 e5 bd f9 4d df 3d 6f 58 59 3c
       0.0071530156 -0.112007834 0.10903544 0.013265713
000090 8e c8 a7 bd bb 92 69 3d b8 fa 1a be 65 c6 0e 3e
       -0.0819255 0.0570247 -0.15134704 0.13942869
0000a0 c1 43 76 3d 39 c4 b1 3d d0 0c d4 bd e2 a9 08 3d
       0.06012321 0.086800046 -0.10354006 0.033365138
0000b0 7f 4a 6e bc 9b 68 a4 bc de a3 b4 bd e0 3e 96 3c
       -0.014544128 -0.020069411 -0.08820318 0.018340528
0000c0 b9 cc 5c be 75 e3 10 be 66 b9 93 3c 58 a2 a2 bb
       -0.2156247 -0.14149268 0.01803274 -0.0049632005
0000d0 c5 59 79 3c 4c 92 15 be 22 66 02 bd 5b d7 10 3e
       0.015219157 -0.14606589 -0.031835683 0.14144652
0000e0 bd 00 a9 3d 3f 19 56 bd 93 a4 d9 3c 8a d3 26 be
       0.08252094 -0.05227017 0.026567733 -0.16291633
0000f0 a1 ea f8 3b a0 ba 47 3d 7b e8 a1 bd 04 26 68 bd
       0.0075963293 0.048761964 -0.0790567 -0.05667688
000100 85 2f 59 3d 12 64 a0 be ff bb 8f bd 88 9d 5f bd
       0.053023834 -0.31326348 -0.07018279 -0.054593593
000110 e9 d3 e6 3d 39 b0 33 3c 7c 82 e8 bd a6 e1 72 3d
       0.112708874 0.010967308 -0.11353013 0.059297226
000120 9a e4 cd 3d c5 cf 63 3d 2f 28 12 be 49 f6 61 bc
       0.10053368 0.055618066 -0.14273141 -0.013791629
000130 3d 6d 56 bd f3 97 e8 3d c7 76 26 be 49 03 44 bd
       -0.05235027 0.11357107 -0.16256247 -0.047854695
000140 b3 69 18 be 67 f6 74 3d c5 6d b1 3c 96 8a 92 bc
       -0.14884071 0.0598053 0.021658788 -0.017888349
000150 70 d2 6c 3e c4 d4 31 be 01 15 36 be b3 f4 b6 3d
       0.2312715 -0.1736632 -0.1778145 0.089333914
000160 72 6a f4 bd e8 cd 53 3d 50 f2 54 be b2 a9 49 be
       -0.11934365 0.05171004 -0.2079556 -0.1969364
000170 7b 96 c9 bd c3 23 a5 3d e5 70 97 bd c8 31 c7 bd
       -0.09843155 0.08063462 -0.0739458 -0.09726292
000180 2f bf 99 bd fe f9 b7 3d 8d af 6b be 56 e7 79 be
       -0.075071685 0.08983229 -0.23016186 -0.24404654
000190 09 0e 01 3d 58 ad cf bd f2 05 3b be ae 46 46 3e
       0.031507526 -0.101404846 -0.18263987 0.193629
0001a0 aa 63 9e 3d a9 72 01 be a9 49 2b 3e ae 4b 62 3b
       0.07733853 -0.12641396 0.16727318 0.0034529972
0001b0 69 3b 6d 3e 6c 5d 97 3c 68 e7 03 3e e3 20 af bd
       0.23167194 0.018477164 0.12881243 -0.085511945
0001c0 91 68 bf 3d 8f e2 0c be cb ba 1b 3e 9d 45 a3 bd
       0.09346116 -0.137583 0.15207975 -0.07972262
0001d0 c6 a8 ae bd ab 80 88 bd 12 9f 99 3d 23 4c 09 bd
       -0.08528285 -0.066651665 0.075010434 -0.033519875
0001e0 20 94 5e 3d 8c 1b 0e be af 06 ac 3d 27 f0 c3 bd
       0.05434048 -0.13877696 0.08399712 -0.0956729
0001f0 b9 3c b9 bd 52 2b 03 3e b9 ce e5 bd 1c e0 af bd
       -0.09044785 0.12809494 -0.1122107 -0.08587667
000200 30 6e e2 bd 35 a1 c1 3c 95 35 6a bd f7 f6 10 bd
       -0.11056173 0.02363644 -0.057180006 -0.035391774
000210 dd 9e 25 3e 56 43 84 be 81 b9 1c 3e 27 42 a3 bd
       0.16173883 -0.25832623 0.15305139 -0.07971602
000220 52 a0 b7 3c 4d 9d 5f bd a3 f8 0d be af be 60 bb
       0.022415314 -0.054593373 -0.13864379 -0.0034293344
000230 91 30 8e bd c9 25 99 bd 0a 83 93 bc 33 71 ba bd
       -0.06942857 -0.0747791 -0.01800682 -0.09103622
000240 07 c5 3e bd a6 3c 4e 3d 19 65 30 3c 8a c4 d3 bd
       -0.04657462 0.050350808 0.010766291 -0.10340221
000250 29 1e 19 be d1 db 72 be 5f ed 49 bd 5f a3 37 3d
       -0.14952911 -0.23716666 -0.04929864 0.044833537
000260 88 81 42 bd b1 33 4d 3c 65 08 1a be 4d 3d 8e 3d
       -0.047486812 0.012524531 -0.15042265 0.06945286
000270 6b c8 e2 bc 47 2c fe bd a9 35 dd bd 7b 54 10 3d
       -0.027683457 -0.12410789 -0.108012505 0.035236817
000280 5a 8e f8 3d 70 32 82 bc 7f 05 42 be 93 95 cc bd
       0.121365264 -0.015893191 -0.18947409 -0.099894665
000290 5b cf b8 bd e5 36 e3 bd e1 20 22 be ec 9c ad 3d
       -0.09023925 -0.11094455 -0.15832855 0.08477196
0002a0 9f a8 91 3d 4c 2f e9 3c 1d 0a 02 bd 96 7f 49 be
       0.0711224 0.028464936 -0.031747926 -0.19677576
0002b0 46 d0 e9 bd d0 c0 2f 3c c7 b3 c7 3c b1 d6 ed 3c
       -0.11416678 0.010727122 0.024377717 0.029033037
0002c0 f0 ac b4 3d ce ee b3 3d f2 fd f4 bc 16 cc 23 bd
       0.08822048 0.08785783 -0.029906247 -0.039989553
0002d0 cf 22 29 bd 1c ba dd bd 27 e5 d0 bd 3d 3c 5a 3b
       -0.04129296 -0.10826513 -0.10199957 0.0033300065
0002e0 b9 91 68 be 43 30 3f 3c ea a0 0a be 52 29 d1 3c
       -0.22711839 0.011669221 -0.13537946 0.025532398
0002f0 7e 78 ad bc 08 8a 9d 3c 07 21 67 bc 8a 0f fa 3d
       -0.02117562 0.019230857 -0.014106995 0.12209995
000300 84 d9 81 bd 1e 1c ea bd 50 5e 98 3d 8d 5d 7e bd
       -0.06340316 -0.11431144 0.07439864 -0.062100936
000310 4c 70 b8 bc dd ae 22 be 80 af e2 3d f7 80 84 bd
       -0.022514485 -0.15887018 0.1106863 -0.064699106
000320 40 5b 44 be 00 0d 02 3e 06 fa 5a 3d f4 36 57 bd
       -0.19175434 0.12700272 0.053461097 -0.05254264
000330 da 78 08 3d 4c 3c 48 be ac 99 c0 bd d3 e6 cb 3b
       0.033318378 -0.19554251 -0.094043106 0.0062225848
000340 fc 15 72 3c 17 09 94 3d 0e 9e 0a 3e 47 ab 02 bd
       0.014775749 0.07228296 0.13536856 -0.031901624
000350 3b 48 d1 bd 45 c0 02 3e 56 f4 2b be 8d d7 05 bd
       -0.10218855 0.12768658 -0.16792426 -0.03267627
000360 12 0b 59 be 29 71 8b bc 9d f2 87 be b9 4d 09 3e
       -0.21195629 -0.017021732 -0.26552287 0.13408555
000370 a7 f8 9e 3d dc 0f 0f 3e da 6d 57 3d f9 8d f9 3d
       0.077622704 0.13970894 0.052594997 0.12185282
000380 ce 57 9c 3d 13 5c 69 bd 0b f8 fa bd 4f 4a 58 3d
       0.07633935 -0.056972574 -0.12254342 0.05280524
000390 d0 f7 2b be 00 34 7c bd 92 05 8b 3d 3a 5b 43 be
       -0.16793752 -0.06157303 0.06788172 -0.19077769
0003a0 7c c9 cf bd 40 59 00 be 48 85 06 be 28 0e 92 bd
       -0.10145852 -0.12534046 -0.1313678 -0.07131606
0003b0 05 5d cf bb 8f d9 13 3d a3 60 13 3d 4e 24 a4 3b
       -0.0063282275 0.036096152 0.03598083 0.0050092107
0003c0 5a 7f 19 bc a8 64 9c bd 97 91 60 be 8c 0e 9c bd
       -0.009368742 -0.07636386 -0.21930538 -0.07619962
0003d0 d6 6d 75 3c 43 17 f1 bc 45 15 8f 3d be 1c 84 3c
       0.0149798 -0.029430037 0.06986479 0.016126987
0003e0 24 5d 70 be 50 ce f8 3d 9a 96 bb bd 43 d6 85 bd
       -0.2347303 0.12148726 -0.09159584 -0.06535008
0003f0 f8 27 1d be c7 ff a9 bd 04 b6 bd bd 15 b6 af 3c
       -0.15347278 -0.08300739 -0.09263232 0.021449128

fc3.bias f4 [10]
000000 b0 a6 e6 bd e5 44 1e be 4d ff 11 bc 6e 6d 7a 3c
       -0.11262262 -0.15455969 -0.008910966 0.015284879
000010 e1 ad 3d be 1f dd 21 bc af 8c 65 3c 88 eb 7c 3d
       -0.18523361 -0.0098793795 0.014010592 0.061748058
000020 eb 92 c4 3d 01 a0 a6 bc
       0.09598335 -0.020339968
