HW1_Split_nb/checkpoints/model_weightdecay_9.pt (torch, 250656 bytes, 10 tensors)

conv1.weight f4 [6, 1, 5, 5]
0	0x3edad8ff	0.4274368
1	0x3da224ae	0.07917152
2	0xbea92e4b	-0.3304313
3	0x3cafbfb0	0.021453708
4	0xbdc97dc6	-0.098384425
5	0x3ec147f2	0.37750202
6	0x3da9d23a	0.08292051
7	0xbede38f4	-0.43402827
8	0x3e9e3f0f	0.30907485
9	0x3d5d3977	0.05400988
10	0x3e32b9f1	0.17453744
11	0xbda4a506	-0.08039288
12	0xbf0a7912	-0.5409099
13	0x3ec83890	0.39105654
14	0x3e899e02	0.26878363
15	0xbdaa7294	-0.08322635
16	0xbedeb0f6	-0.43494385
17	0xbf36f3b5	-0.7146562
18	0x3f0f2b77	0.559257
19	0x3ed4a261	0.41530135
20	0x3d630bac	0.055431053
21	0xbec2e0f8	-0.38062263
22	0xbf636e8a	-0.88840544
23	0x3e204865	0.15652616
24	0x3f10873f	0.5645637
25	0x3da9cf35	0.08291475
26	0xbbe2087c	-0.006897984
27	0xbe06bfa6	-0.13159046
28	0xbcf9ecc9	-0.030508416
29	0xbea42bdf	-0.3206472
30	0x3db36829	0.08760101
31	0x3e73740c	0.23774737
32	0xbe41265d	-0.1886229
33	0x3e422602	0.18959811
34	0xbe0550ca	-0.130191
35	0xbdccba5f	-0.09996485
36	0x3e65e8d0	0.22452092
37	0x3e05dad5	0.13071759
38	0x3e95622a	0.29176456
39	0xbd07fd36	-0.033200465
40	0xbe64abd3	-0.2233117
41	0x3d39adda	0.045331813
42	0x3d8e1a80	0.06938648
43	0x3eaa311b	0.3324059
44	0x3e310adc	0.17289299
45	0xbe041fe6	-0.12902793
46	0x3e22978a	0.1587812
47	0xbc89ab49	-0.016805308
48	0x3dd36f67	0.10323983
49	0x3e011716	0.12606463
50	0x3d0fe49c	0.03513013
51	0x3e24f5ba	0.16109362
52	0xbe5c5e31	-0.21520306
53	0xbe6db05a	-0.23211804
54	0xbe97a573	-0.29618415
55	0xbe64a8d4	-0.22330028
56	0x3e9ffab9	0.31245974
57	0x3e8049b8	0.25056243
58	0xbe6222ce	-0.2208359
59	0xbea9008b	-0.33008227
60	0xbb70a76d	-0.0036720887
61	0x3ef05b0c	0.46944463
62	0x3ea4d8c8	0.3219664
63	0xbd555055	-0.052078564
64	0x3dbc373a	0.09190221
65	0x3e356e9a	0.17717972
66	0x3f0f9488	0.56086016
67	0x3e9cb27b	0.3060492
68	0xbdb792fe	-0.089635834
69	0xbec19217	-0.3780677
70	0x3bb4695a	0.005505723
71	0x3df86c7f	0.12130069
72	0xbd714b98	-0.058909982
73	0xbe24d62d	-0.16097327
74	0xbed1d9bf	-0.4098644
75	0xbf368486	-0.71295965
76	0xbfa75033	-1.307135
77	0xbfa81d86	-1.313401
78	0xbf7c97fa	-0.986694
79	0xbdf3c8ae	-0.11903511
80	0xbe85fe8a	-0.2617076
81	0xbfafbeea	-1.3730137
82	0xbfa5318a	-1.2905743
83	0x3d023209	0.031786
84	0x3f14333f	0.57890695
85	0x3e69257a	0.22768202
86	0xbd8f4952	-0.069964066
87	0xbe0e7569	-0.13911976
88	0x3e7790d8	0.24176347
89	0x3e4133c0	0.18867397
90	0x3eb807c9	0.3594344
91	0x3e1e0a02	0.15433505
92	0xbd7d72bb	-0.061876994
93	0x3e23ba89	0.15989126
94	0x3c011f85	0.00788105
95	0x3ebeeaa5	0.37288395
96	0x3e8cb2cb	0.27480158
97	0x3dd1ea5e	0.1024978
98	0xbd9368f3	-0.07197752
99	0xbd1a5d4b	-0.037686627
100	0xbe800fe8	-0.25012136
101	0xbd8a40f1	-0.06750668
102	0xbe48084f	-0.1953442
103	0xbeae8154	-0.34083045
104	0xbe39634b	-0.18104284
105	0xbc9b0040	-0.018921018
106	0x3b918f4d	0.0044421316
107	0xbd4f95f1	-0.050680105
108	0xbe136f06	-0.14397821
109	0xbe86d77a	-0.2633627
110	0x3e592fa8	0.21209586
111	0x3eaefb6e	0.341762
112	0xbd58c004	-0.052917495
113	0xbe33b17b	-0.17548172
114	0xbe34d72e	-0.1766021
115	0x3e6829f0	0.22672248
116	0x3dd228f8	0.102617204
117	0x3e265206	0.16242227
118	0x3e184059	0.14868297
119	0x3e009965	0.12558515
120	0x3b8557f3	0.0040693223
121	0x3e6ecc5d	0.23320146
122	0x3d964f5c	0.07339355
123	0xbda46d1d	-0.08028624
124	0x3d672063	0.05642737
125	0x3eaad79e	0.33367628
126	0x3ee016f0	0.437675
127	0xbc8555ed	-0.016276324
128	0xbd04d2bb	-0.03242753
129	0xbaa00e87	-0.0012211361
130	0xbcc52d1f	-0.024069367
131	0xbe8c5b08	-0.274132
132	0xbf07b991	-0.53017527
133	0xbe180108	-0.14844143
134	0x3e134d71	0.1438501
135	0xbf34fe73	-0.7070076
136	0xbf9b325c	-1.2124743
137	0xbf796018	-0.9741225
138	0xbf3691de	-0.71316326
139	0x3c1b25b0	0.009469435
140	0xbe83fb5c	-0.2577771
141	0xbf7222f6	-0.94584596
142	0xbf5d43a4	-0.86431336
143	0xbed8025c	-0.421893
144	0x3d69a65b	0.057043415
145	0x3ea99778	0.33123374
146	0x3dbf572b	0.09342798
147	0xbea5aaa2	-0.32356745
148	0xbe7daf8c	-0.24773997
149	0x3dbff3cb	0.09372672

conv1.bias f4 [6]
0	0xbc938c0a	-0.018011112
1	0xbe5aa900	-0.21353531
2	0x3ca9d6f0	0.020732373
3	0x3e80f122	0.2518397
4	0x3e364541	0.17799856
5	0x3ee44031	0.44580224

conv2.weight f4 [16, 6, 5, 5]
0	0x3cecc61f	0.028903065
1	0x3cb75c66	0.022382926
2	0xbdfcf695	-0.12351719
3	0x3d5e2550	0.054234803
4	0x3f412b1f	0.7545642
5	0x3e1b88cc	0.15188903
6	0x3ea35e09	0.3190768
7	0x3d64398f	0.055718955
8	0xbe51159d	-0.20418401
9	0x3e88aeb1	0.2669578
10	0x3df43d31	0.11925734
11	0x3df7a63a	0.12092252
12	0x3d8a0daa	0.067408875
13	0xbe7725ae	-0.24135467
14	0xbef35ec9	-0.47533253
15	0x3e58b8d6	0.2116426
16	0x3e463412	0.19355801
17	0x3e256aa2	0.16153958
18	0x3e487715	0.19576676
19	0xbed04306	-0.40676135
20	0x3d2c91e4	0.04213132
21	0x3e43ef07	0.1913415
22	0x3df4029b	0.119145595
23	0x3e8f9f4a	0.28051215
24	0xbe8df662	-0.27727038
25	0x3d0b80a4	0.034058228
26	0x3da3e824	0.08003262
27	0xbddd7016	-0.10812394
28	0xbde2e45c	-0.11078712
29	0xbe129bbe	-0.14317223
30	0xbe11d709	-0.14242186
31	0xbd5441bd	-0.051820505
32	0x3cdd8a8d	0.027043605
33	0xbea9ee80	-0.33189774
34	0xbec92fb7	-0.39294216
35	0xbc3deca8	-0.011592068
36	0xbde85700	-0.11344719
37	0xbdc792ad	-0.09744773
38	0xbe479e9b	-0.19494097
39	0xbe58752d	-0.21138449
40	0xbcd15708	-0.025554195
41	0x3be32956	0.006932418
42	0xbe02a9df	-0.12760113
43	0xbca707be	-0.020389434
44	0x3cdc74b5	0.026911119
45	0xbdf2a1c1	-0.11847258
46	0xbd918ca7	-0.071069054
47	0xbe06c485	-0.13160904
48	0x3c81eb3b	0.015859237
49	0x3db352b7	0.08756011
50	0xbe02b324	-0.12763649
51	0xbdbe81d1	-0.09302104
52	0xbd831caa	-0.064019516
53	0xbd90960b	-0.070598684
54	0x3e9026a1	0.28154472
55	0xbd8125ce	-0.06306039
56	0xbe39acf4	-0.18132383
57	0xbcb650d4	-0.022255339
58	0xbbc10382	-0.0058903107
59	0xbe754831	-0.2395332
60	0xbdd01c89	-0.10161693
61	0xbe1c4ee8	-0.15264475
62	0xbcb311a8	-0.021859005
63	0x3d81df58	0.063414276
64	0xbe8fb6c0	-0.28069115
65	0xbd0294f6	-0.03188034
66	0x3cd2b9fa	0.025723446
67	0x3db083c2	0.08618881
68	0xbd1c8041	-0.03820825
69	0xbda3eedf	-0.080045454
70	0xbddb159c	-0.10697481
71	0xbd857dfd	-0.06518171
72	0xbd8408b3	-0.06446972
73	0xbe834ddc	-0.2564534
74	0x3d961c6d	0.073296405
75	0xbe2fd10c	-0.17169589
76	0x3db37249	0.087620325
77	0x3e5a9e33	0.2134941
78	0x3e796927	0.24356519
79	0xbc988929	-0.01862009
80	0x3e24a15d	0.1607718
81	0x3e0a6ae4	0.13517338
82	0x3ea7708c	0.32703054
83	0x3eae91d0	0.3409562
84	0x3ed732d8	0.42030978
85	0xbda06229	-0.078312226
86	0xbddd8893	-0.10817065
87	0xbe05d7e7	-0.13070641
88	0x3e7211d0	0.23639607
89	0x3f0b7812	0.5448009
90	0xbc380a3c	-0.011232909
91	0x3d8260b1	0.06366099
92	0x3d47f454	0.048816994
93	0xbc6ee8d9	-0.014581882
94	0x3e846c40	0.25863838
95	0xbd883b0a	-0.06651886
96	0xbd4bbd4f	-0.049741086
97	0xbe161ee4	-0.14660221
98	0xbe6d146f	-0.23152326
99	0x3ce58384	0.028016813
100	0xbe471019	-0.19439735
101	0xbe2612d1	-0.16218115
102	0xbe834912	-0.25641686
103	0xbea44878	-0.3208654
104	0xbe8379b9	-0.25678805
105	0xbcf6d981	-0.03013301
106	0xbe0bd2e1	-0.13654663
107	0xbd2fca74	-0.042917684
108	0x3d11b4db	0.035572868
109	0xbe15ab58	-0.14616144
110	0xbdb57910	-0.088609815
111	0xbe3e14c5	-0.1856261
112	0xbd185f62	-0.03720034
113	0x3e45f11e	0.1933026
114	0x3d09bf1e	0.03362953
115	0xbc2307fd	-0.009950635
116	0xbc419d29	-0.011817255
117	0x3c4749b7	0.012163571
118	0x3def575f	0.116865866
119	0x3e0d3b4c	0.13792151
120	0xbdfe5865	-0.12419204
121	0xbda71a52	-0.08159317
122	0xbd9bea96	-0.07613103
123	0xbe21794c	-0.15768927
124	0x3e0ec5f3	0.13942699
125	0x3c369822	0.01114467
126	0x3daebf24	0.08532551
127	0x3e3c0a14	0.1836322
128	0x3e9e8583	0.30961236
129	0x3e93a267	0.2883484
130	0x3c8c3b78	0.0171182
131	0xbcec8eca	-0.02887668
132	0x3e0a4e57	0.13506447
133	0x3ee598c6	0.4484312
134	0x3ed1b0bf	0.4095516
135	0xbd7a0fdd	-0.061050285
136	0xbca7ea40	-0.020497441
137	0x3ce75ea8	0.028243378
138	0x3e86b4b8	0.26309752
139	0x3e1c377b	0.15255539
140	0xbe3ef7b8	-0.18649185
141	0xbe0be1a2	-0.13660291
142	0xbe33d321	-0.17561008
143	0xbc9647b7	-0.018344743
144	0xbd900828	-0.07032806
145	0xbe82461e	-0.2544412
146	0xbe09387d	-0.13400455
147	0xbcb2be03	-0.02181912
148	0x3daefa5a	0.085438445
149	0xbe0f164f	-0.13973354
150	0xbe80ccaf	-0.2515616
151	0x3e7eaf6f	0.2487161
152	0xbda9a4e3	-0.08283403
153	0x3e32ddb4	0.17467386
154	0xbc84884e	-0.016178276
155	0xbe45d4ec	-0.19319504
156	0xbda02b90	-0.07820809
157	0xbcaff64c	-0.021479748
158	0x3c863702	0.016383652
159	0xbe4ffce7	-0.20311318
160	0x3d69d8c0	0.057091475
161	0xbde4e6d6	-0.11176841
162	0xbd3e59af	-0.046472248
163	0xbeb2ffca	-0.34960777
164	0xbe6df67a	-0.23238555
165	0x3e4a0d77	0.19731699
166	0xbe812c31	-0.25229028
167	0xbee97cef	-0.4560313
168	0xbe8a70b0	-0.270391
169	0x3ebd6232	0.3698898
170	0x3e9da9d3	0.30793628
171	0xbe670335	-0.22559817
172	0xbef76d61	-0.48325637
173	0xbdb06156	-0.08612315
174	0x3ee8befa	0.45458204
175	0xbdb3d777	-0.08781331
176	0xbd975964	-0.07390097
177	0xbc4e428f	-0.012589111
178	0x3da9d228	0.08292037
179	0x3dbb2cf7	0.09139436
180	0xbe3ca758	-0.18423212
181	0xbe5d5007	-0.2161256
182	0xbe5d11bc	-0.21588796
183	0xbdf11b78	-0.117728174
184	0xbc8d37aa	-0.017238457
185	0xbe3f4772	-0.18679598
186	0xbdf434bd	-0.119241215
187	0x3d507f14	0.05090244
188	0x3dba19f0	0.090869784
189	0xbcb9cf37	-0.022681816
190	0x3d632abe	0.055460684
191	0x3e0d380f	0.13790916
192	0x3e046403	0.12928776
193	0xbccd904e	-0.025093224
194	0xbe2906cc	-0.16506499
195	0xbb8a91e1	-0.004228816
196	0x3d8ddbcf	0.06926691
197	0xbd278d9a	-0.040906526
198	0xbe8d7563	-0.2762862
199	0xbe7dd771	-0.24789216
200	0x3e423a40	0.18967533
201	0x3d4c882b	0.049934547
202	0x3e9448d6	0.2896182
203	0x3a5f36cc	0.000851494
204	0x3d069f52	0.032866783
205	0xbe5699ba	-0.2095708
206	0xbe44d6a9	-0.19222511
207	0xbd68ffcf	-0.056884583
208	0xbe780a7d	-0.24222751
209	0xbe65af36	-0.22430119
210	0xbe407764	-0.18795544
211	0xbdaed989	-0.08537585
212	0xbe4febe2	-0.20304826
213	0x3cf7fdde	0.03027242
214	0x3d6d4b30	0.057933033
215	0x3e1e7dcd	0.15477677
216	0x3da5e863	0.08100965
217	0x3dd03b90	0.10167611
218	0x3eb430b7	0.35193416
219	0x3e8070c4	0.25086033
220	0x3e051e1d	0.12999769
221	0xbd340f26	-0.04395976
222	0x3d274d0e	0.04084497
223	0x3de89435	0.11356393
224	0xbe8de66b	-0.27714857
225	0x3eb2ae63	0.34898672
226	0x3e87981e	0.26483244
227	0xbe43dbd6	-0.1912683
228	0xb89c74b2	-7.460396e-05
229	0xbd5977ca	-0.053092755
230	0x3e3d7918	0.18503225
231	0x3d813eee	0.06310831
232	0xbebf57d7	-0.37371704
233	0xbdaa329d	-0.08310435
234	0x3ebc84b2	0.36819988
235	0x3d9fe473	0.07807245
236	0xbe441398	-0.191481
237	0xbe18e1f4	-0.14929944
238	0x3e104d28	0.14091933
239	0x3ee1a4eb	0.44071135
240	0x3d3cb104	0.046067253
241	0xbe7e2364	-0.24818188
242	0xbdc25453	-0.0948874
243	0x3ac90b37	0.0015338425
244	0xbe41f15f	-0.18939732
245	0x3d359b0f	0.04433733
246	0xbdf79bac	-0.12090239
247	0x3ddaf8f5	0.10692016
248	0xbe1fb61b	-0.15596811
249	0xbefa882a	-0.4893201
250	0x3e49a979	0.19693555
251	0xbbdf609b	-0.006816936
252	0x3d4192f9	0.047259305
253	0x3d964bf7	0.07338708
254	0xbd5d5851	-0.054039303
255	0xbdfd9e62	-0.12383725

conv2.bias f4 [16]
0	0xbe1af6e0	-0.15133238
1	0x3e310098	0.17285383
2	0x3e0af286	0.13569078
3	0x3e3070d5	0.17230542
4	0x3e30cce5	0.17265661
5	0x3ead1fb3	0.33813247
6	0xb73976dd	-1.1054534e-05
7	0x3eba194b	0.36347422
8	0x3e1cb6dc	0.1530413
9	0x3e8533d5	0.26016107
10	0xbb16fa07	-0.0023037212
11	0x3e3ccc6b	0.18437354
12	0x3ebeeca5	0.3728992
13	0xbce01dec	-0.027358018
14	0xbc000bcc	-0.007815313
15	0xbe1354c0	-0.14387798

fc1.weight f4 [120, 400]
0	0xb7dec137	-2.6554435e-05
1	0xb7daf3fb	-2.6101237e-05
2	0xb7ed1e88	-2.8266819e-05
3	0xb6a65efb	-4.9582427e-06
4	0xb80fb99c	-3.426672e-05
5	0xb8088068	-3.2544514e-05
6	0xb8077eb5	-3.2304513e-05
7	0xb5f2d8cb	-1.80935e-06
8	0xb80c4481	-3.34424e-05
9	0xb75eff2c	-1.3291643e-05
10	0xb8295ea7	-4.038089e-05
11	0xb7d429f6	-2.5291909e-05
12	0xb440ff4f	-1.7974274e-07
13	0x34017c85	1.2059361e-07
14	0x343a8734	1.7371786e-07
15	0xb622524a	-2.418778e-06
16	0x347700d2	2.3003966e-07
17	0xb4d30bf6	-3.9310515e-07
18	0x346b5b79	2.1919358e-07
19	0xb3ffc2bb	-1.1909784e-07
20	0x323bbff2	1.0928476e-08
21	0x31dc7dd8	6.4171495e-09
22	0x2015abcd	1.2677635e-19
23	0xa408cbb2	-2.9662836e-17
24	0xb5f2863a	-1.806947e-06
25	0xae867928	-6.115136e-11
26	0xa0e4b98b	-3.8747484e-19
27	0x22f0a1a2	6.5223266e-18
28	0xad06d23d	-7.6637e-12
29	0x31b54647	5.275783e-09
30	0xaf477644	-1.8140961e-10
31	0x2ec175b5	8.797533e-11
32	0xaf535dce	-1.9223664e-10
33	0x3267d843	1.3495142e-08
34	0xac1b3b35	-2.2059691e-12
35	0x2f08c5bd	1.2439379e-10
36	0xa30c37d5	-7.601238e-18
37	0xab8d1505	-1.0024487e-12
38	0x2db231ec	2.0258427e-11
39	0x2e042ad4	3.0051364e-11
40	0x2d35273f	1.0297373e-11
41	0xb27f196f	-1.48487365e-08
42	0xb43fe273	-1.7870643e-07
43	0x32f7f638	2.8866552e-08
44	0xb2547829	-1.2367345e-08
45	0xafedd669	-4.3262396e-10
46	0x32d3f7f3	2.4676387e-08
47	0x33b0ad07	8.227112e-08
48	0xb4111094	-1.3510208e-07
49	0xb2c65c4b	-2.3092204e-08
50	0xb69dfc96	-4.7083695e-06
51	0xb38a44f2	-6.438667e-08
52	0xb5ccc925	-1.5257725e-06
53	0xb613a46f	-2.200042e-06
54	0xb5958600	-1.1140364e-06
55	0x3282e789	1.5239282e-08
56	0x2dc0aac7	2.1903713e-11
57	0xb6935dab	-4.391846e-06
58	0xb4fc5756	-4.7002203e-07
59	0xb60390ad	-1.9604734e-06
60	0xb69cc72c	-4.672349e-06
61	0x31f15aba	7.0243376e-09
62	0x3215763b	8.699824e-09
63	0x322b3864	9.966332e-09
64	0xb5b65ec1	-1.3587634e-06
65	0xb7851659	-1.5865242e-05
66	0x821ee075	-1.1672423e-37
67	0xb25e58ac	-1.2942262e-08
68	0x30f7c0ca	1.8026409e-09
69	0xb64b9f8a	-3.0342221e-06
70	0xb606bfa0	-2.0079096e-06
71	0xaccfe2de	-5.908481e-12
72	0x3303d82c	3.069742e-08
73	0x2297b34a	4.111846e-18
74	0xb71e2499	-9.426055e-06
75	0x31516d51	3.0475642e-09
76	0xb5484b51	-7.4615406e-07
77	0xb3afbb9c	-8.1831985e-08
78	0xb78a42b2	-1.648194e-05
79	0xb7bde91a	-2.2639102e-05
80	0xb123ecf9	-2.3854325e-09
81	0x32b99479	2.1604352e-08
82	0x2f999e0e	2.7942842e-10
83	0xb724e58a	-9.8286055e-06
84	0xb8956fbb	-7.125685e-05
85	0xae5d05d3	-5.0254755e-11
86	0xb6192712	-2.2821519e-06
87	0xb19f416d	-4.634947e-09
88	0xaeab0a05	-7.7779595e-11
89	0xb70af1c4	-8.281731e-06
90	0x333e0c22	4.4248857e-08
91	0xb6d4ae18	-6.3383595e-06
92	0xb32aa435	-3.9730555e-08
93	0x324a481e	1.1774345e-08
94	0xb5e90fe5	-1.7364479e-06
95	0x319e85e5	4.6136273e-09
96	0xb653ae9f	-3.1543093e-06
97	0xb776c9f9	-1.4709768e-05
98	0xb6ce2740	-6.1438477e-06
99	0xb707cea4	-8.094739e-06
100	0xb7154bed	-8.89877e-06
101	0xb5c03896	-1.4321583e-06
102	0xb6933b79	-4.387865e-06
103	0xb69eb599	-4.7299077e-06
104	0xb47acbbb	-2.3357181e-07
105	0xb784fc3e	-1.5853086e-05
106	0xb6731d6c	-3.6226947e-06
107	0xb6154ef4	-2.2248687e-06
108	0xb6975a80	-4.5106863e-06
109	0xb7034b0c	-7.825682e-06
110	0xb7a9b866	-2.0232237e-05
111	0xb7753f1e	-1.4617834e-05
112	0xb2adb15b	-2.0220503e-08
113	0x3394bc02	6.9259855e-08
114	0xb4bf22a7	-3.5601735e-07
115	0xb7f1a524	-2.8806338e-05
116	0xb70f5b84	-8.544772e-06
117	0xb5d8bd89	-1.6148416e-06
118	0x33e68dbf	1.0735993e-07
119	0x30e48b1f	1.6628724e-09
120	0xb7613ec3	-1.3425658e-05
121	0xb478e4fd	-2.3180105e-07
122	0x31135bec	2.1443567e-09
123	0x337a8661	5.8329878e-08
124	0x2fdd366f	4.0238343e-10
125	0x2dda90af	2.4847983e-11
126	0x30b837d1	1.3403626e-09
127	0xb29bb99b	-1.8128778e-08
128	0x319a3429	4.48792e-09
129	0x32b09dc5	2.0560842e-08
130	0x21052ded	4.5122935e-19
131	0xa3f2feae	-2.6345554e-17
132	0xae63d0b5	-5.1799193e-11
133	0x31844c14	3.8503547e-09
134	0xaeb060f2	-8.020774e-11
135	0x2e015590	2.94072e-11
136	0xb2643e27	-1.32854785e-08
137	0xb2573d2f	-1.2528559e-08
138	0x33bfd6b6	8.933186e-08
139	0x33847cfd	6.169464e-08
140	0xae6e118b	-5.4130516e-11
141	0xb59695dd	-1.1219487e-06
142	0xb7076d69	-8.072101e-06
143	0xb6c197a0	-5.7694997e-06
144	0x325743cf	1.2530065e-08
145	0xade9f22f	-2.6596584e-11
146	0xb280cc67	-1.4994113e-08
147	0xb41b3d09	-1.4457704e-07
148	0xb3b0f248	-8.2397094e-08
149	0xaf08f769	-1.2457026e-10
150	0x00004468	2.454e-41
151	0x8002cbc3	-2.56767e-40
152	0x80004567	-2.4897e-41
153	0x800052e2	-2.9733e-41
154	0x00004766	2.5613e-41
155	0x00005798	3.1423e-41
156	0x800050e9	-2.9025e-41
157	0xa332ef76	-9.700107e-18
158	0x0000449f	2.4617e-41
159	0x000053c3	3.0048e-41
160	0x000049e3	2.6506e-41
161	0x8001a898	-1.52316e-40
162	0x00004dd5	2.7921e-41
163	0x00005626	3.0904e-41
164	0x800057d9	-3.1514e-41
165	0x80004cf5	-2.7607e-41
166	0x800050d3	-2.8994e-41
167	0x80004a56	-2.6667e-41
168	0x8000464d	-2.5219e-41
169	0x8000465a	-2.5237e-41
170	0x800055d2	-3.0787e-41
171	0x0000446c	2.4545e-41
172	0x000048b5	2.6082e-41
173	0x00004942	2.628e-41
174	0x2565c872	1.9930497e-16
175	0x0000453f	2.4841e-41
176	0x1e202c7f	8.479531e-21
177	0xa910e6cc	-3.2174607e-14
178	0xa6aba5c8	-1.1910444e-15
179	0x8000446d	-2.4547e-41
180	0xae8091c3	-5.8466586e-11
181	0x22716f71	3.2720587e-18
182	0x2214705a	2.0117219e-18
183	0x001c9758	2.625686e-39
184	0x90f5ac9b	-9.69014e-29
185	0xb043cbfe	-7.1230477e-10
186	0xabf5d666	-1.7467805e-12
187	0xa2e6286d	-6.2384427e-18
188	0x86c115a5	-7.2630335e-35
189	0x3195b0e3	4.3565804e-09
190	0xb214b267	-8.655298e-09
191	0x3169cc6b	3.402216e-09
192	0xa23d6b81	-2.5671188e-18
193	0x2215a9dc	2.0283188e-18
194	0x0fec19a1	2.3281269e-29
195	0xb1cf2cab	-6.029571e-09
196	0x328b8977	1.6244242e-08
197	0xad83f808	-1.5003124e-11
198	0x32a7d845	1.9539707e-08
199	0x3088a044	9.940853e-10
200	0x00004460	2.4528e-41
201	0x8e064dc0	-1.655421e-30
202	0x800044fc	-2.4747e-41
203	0x00148836	1.885573e-39
204	0x800045ae	-2.4996e-41
205	0xaea0a2ee	-7.3049e-11
206	0x0000450c	2.477e-41
207	0xa1a9d86a	-1.150917e-18
208	0x00004462	2.4531e-41
209	0x016ec639	4.3855914e-38
210	0xaf8590e8	-2.429552e-10
211	0xaf843ea5	-2.4055172e-10
212	0xad01b270	-7.372422e-12
213	0x3138917d	2.6858225e-09
214	0x32866fbe	1.5650468e-08
215	0x2e84ff61	6.0480294e-11
216	0x2fcefbc9	3.7650086e-10
217	0x2ead4ac7	7.880412e-11
218	0x2e12e25c	3.3397604e-11
219	0x30eb37f3	1.7114402e-09
220	0xaf83339e	-2.3865437e-10
221	0xb50869c9	-5.0817886e-07
222	0x33b1e990	8.2846896e-08
223	0xb12d7513	-2.5241362e-09
224	0x2f679b1e	2.1064436e-10
225	0xb407e0be	-1.2654615e-07
226	0xb4196a9a	-1.4288017e-07
227	0xb2daaaeb	-2.5456265e-08
228	0x30a433e2	1.1947316e-09
229	0x3218c40a	8.892139e-09
230	0xb2d97a68	-2.5317789e-08
231	0xb4a48bc6	-3.064908e-07
232	0xb517a7e4	-5.6496197e-07
233	0x3033e393	6.5443223e-10
234	0xa3e0d1fe	-2.4375064e-17
235	0xb68a454f	-4.120789e-06
236	0xb302168a	-3.0288483e-08
237	0x2f4dedc1	1.8729109e-10
238	0x3309d023	3.2087097e-08
239	0x2d3ca7b8	1.0723804e-11
240	0x336c8862	5.507207e-08
241	0x30bcaa1f	1.3727152e-09
242	0xb28c054c	-1.6300554e-08
243	0xb3c9000a	-9.359799e-08
244	0xa112dca9	-4.9758765e-19
245	0xb0f80ec3	-1.804857e-09
246	0x00004494	2.4601e-41
247	0xb23d0c10	-1.1003991e-08
248	0x31cdbfca	5.988089e-09
249	0xa1157083	-5.063207e-19
250	0xb819c06e	-3.6657257e-05
251	0xb7ad596a	-2.0664844e-05
252	0xb713c9d7	-8.808877e-06
253	0xb7b4701c	-2.1509877e-05
254	0xb7cef38d	-2.4670526e-05
255	0xb78d18b2	-1.682001e-05

fc1.bias f4 [120]
0	0xb8622378	-5.391563e-05
1	0x3dea4bab	0.11440214
2	0xbbb21849	-0.005435024
3	0x3d6926f8	0.05692193
4	0x800044ef	-2.4729e-41
5	0x3d7a78a2	0.0611502
6	0xbcc9b23e	-0.024621125
7	0xbc018e95	-0.007907529
8	0xbb48d857	-0.0030646527
9	0xbd8a57f1	-0.06755055
10	0x3e5f98ce	0.21835634
11	0xbcef9796	-0.029247086
12	0xb8622966	-5.3921154e-05
13	0xbc87c398	-0.016572759
14	0xbd34b744	-0.04412009
15	0x3c6ccf26	0.014453685
16	0xbbd65d77	-0.0065419036
17	0x3e3d7e40	0.18505192
18	0x3dd6d693	0.104901455
19	0xbaeb47a8	-0.0017950432
20	0xbdc75547	-0.09733062
21	0xa4814683	-5.6064284e-17
22	0x3e3fe8a9	0.18741097
23	0xba3e3c44	-0.0007256905
24	0x3d7624bf	0.060093638
25	0x3dc7eb19	0.09761638
26	0xbcae6023	-0.021286076
27	0xaf488610	-1.8237523e-10
28	0x3d6d8fe3	0.05799855
29	0xaf352789	-1.64759e-10
30	0xbd509fd7	-0.050933685
31	0xb2b56c05	-2.1120295e-08
32	0xbc801661	-0.015635671
33	0x3c95795e	0.018246349
34	0xbd366f2f	-0.044539627
35	0xbd2db965	-0.042413134
36	0x3dfeb268	0.12436372
37	0xbb162cef	-0.0022914966
38	0xbd375e5e	-0.04476773
39	0x3cedb0e8	0.02901502
40	0x3d8c0b81	0.06838132
41	0xbd2d4098	-0.04229793
42	0xbd117433	-0.035511207
43	0xb43f315e	-1.7806221e-07
44	0x3e412684	0.18862349
45	0x3c70ed94	0.014705081
46	0x3e4b9685	0.19881637
47	0x3d31f482	0.04344607
48	0x3de4fab9	0.11180634
49	0xbc3e546c	-0.011616807
50	0x800044a9	-2.463e-41
51	0xb63c9e0a	-2.8106174e-06
52	0x3aa4005b	0.0012512313
53	0xbc9d3ef8	-0.019195065
54	0xbce80390	-0.028322011
55	0x3d2631b0	0.04057473
56	0xbce2a4b9	-0.027666437
57	0xbd90bddd	-0.070674635
58	0xb9d2a89b	-0.00040179942
59	0x00004e2d	2.8044e-41
60	0xb52b43ce	-6.3801133e-07
61	0x3e24848b	0.16066186
62	0xb9e059fd	-0.00042791656
63	0x3dc949a2	0.098284975
64	0xbcbbfe24	-0.022948332
65	0x3d7c8fc7	0.061660554
66	0x3e219858	0.15780771
67	0x88c767b6	-1.2001259e-33
68	0xbc12060d	-0.008912575
69	0x3da56340	0.08075571
70	0x3ce0011b	0.027344277
71	0xbc258ba8	-0.010104097
72	0xa23cd9e2	-2.5594097e-18
73	0x3dc8fb64	0.09813574
74	0xbd6b3f75	-0.057433564
75	0xb065f97b	-8.366425e-10
76	0xbc7ed7be	-0.015554367
77	0x3d0a58a0	0.033775926
78	0xb914d834	-0.00014194922
79	0xbd712a9d	-0.05887853
80	0xb463c664	-2.1213197e-07
81	0x8d05bcf4	-4.1211233e-31
82	0xbce59676	-0.028025847
83	0x3d1ed7c6	0.038779996
84	0x3dcbda97	0.09953802
85	0x3d82dfcc	0.06390342
86	0x3d408702	0.047003753
87	0xbdc8a764	-0.09797552
88	0x3e5782dc	0.21046013
89	0xb52c8fa6	-6.428403e-07
90	0xbca71304	-0.02039481
91	0xba80dcd9	-0.0009831443
92	0xaa68184a	-2.0614166e-13
93	0x9c567066	-7.095193e-22
94	0xbd1c967f	-0.03822946
95	0xbba2b539	-0.004965451
96	0xbcc3a40d	-0.023881936
97	0xbdbd135c	-0.09232208
98	0x3deb57e8	0.11491376
99	0x3e591b3e	0.21201798
100	0xb6441245	-2.921691e-06
101	0xbd04b1ef	-0.032396253
102	0x3df08476	0.11744015
103	0xba85c413	-0.0010205529
104	0xbd5ae13c	-0.053437456
105	0x08bc89b1	1.13472095e-33
106	0xbccee1a4	-0.025254078
107	0x3bdfdb7d	0.006831585
108	0xb06b8d8e	-8.5693663e-10
109	0x3e085b73	0.13316135
110	0xbd2462fe	-0.04013347
111	0x9f4ea951	-4.3762252e-20
112	0x94940e3f	-1.49498e-26
113	0x3e5cab4b	0.21549718
114	0x3d58a430	0.052890956
115	0xbc8716f3	-0.016490435
116	0xb94550bb	-0.00018817458
117	0x3dc4154c	0.095743746
118	0xa765fa10	-3.1915693e-15
119	0xb72bf9dd	-1.025057e-05

fc2.weight f4 [84, 120]
0	0xb8f43aa2	-0.00011645748
1	0x3e079744	0.13241297
2	0xbbcca01c	-0.0062446725
3	0x3d51141b	0.051044565
4	0xb02d7d37	-6.3114974e-10
5	0xbe2766e3	-0.16347842
6	0x3e7a94c9	0.2447082
7	0xbca33e1d	-0.019927079
8	0xbbe475b6	-0.00697204
9	0x3e1bd9fa	0.1521987
10	0xbcdd51d2	-0.027016554
11	0x3cfd3724	0.030910082
12	0xbb39bc40	-0.0028340966
13	0x3c17bcf6	0.00926136
14	0x3cd6cb51	0.026219996
15	0x3d691225	0.05690207
16	0x3cd74717	0.026279015
17	0xbe69bd9e	-0.2282624
18	0x3dcb246e	0.09919058
19	0x3b185ceb	0.0023248743
20	0x3d185031	0.03718585
21	0xa41e7f4b	-3.436861e-17
22	0xbd1b3d0a	-0.03790001
23	0x3a231eca	0.00062225445
24	0xbe021a75	-0.12705405
25	0xbd521ac1	-0.051295046
26	0xbd37ba78	-0.044855565
27	0xb9d42605	-0.00040464118
28	0x3d3184ca	0.04333953
29	0xb437aa3c	-1.7105134e-07
30	0x3e156dd6	0.1459268
31	0xb530b285	-6.582489e-07
32	0x3b824b13	0.0039762347
33	0x3e0aca75	0.13553794
34	0x3d2de9fb	0.04245947
35	0xbc78330d	-0.01514889
36	0x3e415fff	0.18884276
37	0xbca5b606	-0.020228397
38	0x3d0ec2e9	0.03485385
39	0x3cfd00b7	0.03088413
40	0x3cf2b6df	0.029628215
41	0x3e9f11eb	0.31068358
42	0xbb891183	-0.0041829958
43	0xba15e209	-0.0005717581
44	0xbd1aedc8	-0.037824422
45	0x3e06b5b7	0.13155256
46	0x3dce1414	0.10062423
47	0x3cb95ee8	0.022628263
48	0x3c84f63b	0.016230693
49	0xbe015b5c	-0.12632507
50	0x800049d5	-2.6486e-41
51	0xbaab057c	-0.0013047899
52	0xbe838e28	-0.25694394
53	0x3e1b4d3a	0.15166178
54	0x3e910c30	0.2832961
55	0xbdf47ac9	-0.11937482
56	0x3cc5de37	0.024153812
57	0x3d253b20	0.04033959
58	0x3c10f0e7	0.008846498
59	0x000019e9	9.295e-42
60	0x36a4da1c	4.912972e-06
61	0x3e28473e	0.16433427
62	0xb83d01fc	-4.506296e-05
63	0xbd9ad718	-0.07560557
64	0x3bfec6bc	0.007775156
65	0x3e9578c0	0.29193687
66	0xbd7322b0	-0.059359252
67	0xae09f176	-3.1364654e-11
68	0xbcb9d131	-0.022682758
69	0x3d0e8417	0.03479394
70	0x3bd8a73d	0.006611733
71	0x3b024a09	0.0019880554
72	0xb30cd6ce	-3.2791654e-08
73	0x3d4a9eb4	0.049467757
74	0x3b440c2d	0.0029914484
75	0x3ab7dd4a	0.0014027741
76	0x3cab40ac	0.020904861
77	0xbea1c5cd	-0.31596223
78	0xb57285fc	-9.0347e-07
79	0xbdcb16d3	-0.09916463
80	0xb7f5e911	-2.9314806e-05
81	0xb2ea925a	-2.7307738e-08
82	0xbd343500	-0.043995857
83	0x3e32575f	0.17416142
84	0xbdf757a2	-0.120772615
85	0x3ebd88bd	0.37018386
86	0x3d36e731	0.044654075
87	0x3d1ddb52	0.03853924
88	0xbd5cf6b8	-0.053946227
89	0x3433e97d	1.6755617e-07
90	0x3db577e6	0.088607594
91	0x3c0c6c5b	0.008570756
92	0x33084e93	3.173643e-08
93	0x3296be92	1.754896e-08
94	0x3e129b4a	0.1431705
95	0x3af73d43	0.0018862862
96	0x3e96a3a1	0.29421714
97	0xbc98504e	-0.01859298
98	0x3e0781c1	0.13233091
99	0x3d72c320	0.059268117
100	0x38124009	3.486875e-05
101	0xbd0483ad	-0.03235214
102	0xbe3f40c9	-0.18677057
103	0x3ba789d9	0.0051128683
104	0xbe8f6dc3	-0.2801343
105	0x271a41f2	2.1407542e-15
106	0xbd1d2035	-0.038360793
107	0xbcb5a206	-0.022171985
108	0x38a20258	7.7251985e-05
109	0x3d45c79f	0.048286077
110	0x3e3891f7	0.18024431
111	0x30cfe766	1.5127e-09
112	0x2f2c4df7	1.5671008e-10
113	0xbbe0bdef	-0.0068585793
114	0x3e3fb619	0.18721808
115	0xbe124de8	-0.14287531
116	0x3af39ad7	0.0018585575
117	0xbdf34de3	-0.1188009
118	0xb446f71a	-1.8530082e-07
119	0xbb33718b	-0.002738091
120	0x00005759	3.1334e-41
121	0x3c42b23a	0.011883313
122	0x000047ff	2.5827e-41
123	0xbcc450b4	-0.023964263
124	0x000055a0	3.0716e-41
125	0x3c8b75f7	0.017024023
126	0xbc083551	-0.008313493
127	0x800049a4	-2.6417e-41
128	0x80004d00	-2.7622e-41
129	0x3cb29da5	0.021803686
130	0xbd489fe8	-0.048980623
131	0x39de3b65	0.00042387392
132	0x00004477	2.456e-41
133	0x8f42a2ef	-9.596318e-30
134	0x0000482d	2.5892e-41
135	0xb8892cba	-6.541e-05
136	0x800044bb	-2.4656e-41
137	0xbd4758b1	-0.048668567
138	0x3cde7ee4	0.027160116
139	0x3385e4a6	6.234886e-08
140	0xbd6bce8f	-0.057570037
141	0xa20a8611	-1.8773462e-18
142	0xba2deed8	-0.0006635017
143	0x3785b7ce	1.5940426e-05
144	0xbda853d1	-0.08219112
145	0x3cb557b4	0.022136547
146	0xbd248f5d	-0.040175784
147	0x800051f8	-2.9405e-41
148	0x3d63871e	0.05554878
149	0x80004dcb	-2.7907e-41
150	0xbce83586	-0.028345834
151	0x800055c5	-3.0768e-41
152	0x00048bd8	4.17508e-40
153	0xbabb124d	-0.0014272422
154	0x80004cfb	-2.7615e-41
155	0x00004c18	2.7297e-41
156	0xbd4fdbfa	-0.050746895
157	0x3c0e57a5	0.008687888
158	0xbde1634c	-0.110052675
159	0xbd212244	-0.03933932
160	0x3cc1e1aa	0.023667175
161	0xbc76cd17	-0.015063546
162	0x00004492	2.4598e-41
163	0x000045aa	2.4991e-41
164	0xbd0dcf2f	-0.034621414
165	0xbab1b454	-0.001355777
166	0x3cbb150d	0.022837186
167	0xbdd6dd11	-0.10491384
168	0xbcdc80ec	-0.026916943
169	0x3d4adb39	0.049525473
170	0x8000485c	-2.5958e-41
171	0xa5a2c95b	-2.8238964e-16
172	0xbd89ebb5	-0.06734411
173	0xbc0adf2d	-0.008476061
174	0x3d4904dd	0.049076904
175	0xbc667b21	-0.014067442
176	0x3856900b	5.1155726e-05
177	0x9cb35c0e	-1.1869022e-21
178	0x00004481	2.4575e-41
179	0x0073564d	1.0592041e-38
180	0x80004e00	-2.7981e-41
181	0xbbacdfc8	-0.0052757002
182	0x2c02ccb1	1.8587738e-12
183	0xbba003b7	-0.0048832553
184	0x21cab62f	1.3736276e-18
185	0xbd6ec68c	-0.058294818
186	0x3d0c5071	0.034256402
187	0x800050c4	-2.8973e-41
188	0x80004d46	-2.772e-41
189	0x3baa988a	0.0052061724
190	0xbc87fb81	-0.016599419
191	0x80004a10	-2.6569e-41
192	0x00004686	2.5299e-41
193	0xbd9d62ce	-0.07684861
194	0xbd2fe40c	-0.04294209
195	0x80017f5c	-1.37523e-40
196	0x8a8d0c9f	-1.3582554e-32
197	0x3cb93ffb	0.022613516
198	0x800044a8	-2.4629e-41
199	0xb3337ff8	-4.1793072e-08
200	0x00004525	2.4804e-41
201	0x80005434	-3.0206e-41
202	0xbdd96c02	-0.10616304
203	0xbd5c2086	-0.053741954
204	0x3c07903f	0.008274137
205	0xbd3f54e1	-0.046711806
206	0x3d4bda7c	0.04976891
207	0xbd42ce52	-0.047560044
208	0xbd138039	-0.036010955
209	0x8000446f	-2.455e-41
210	0xbc307ef3	-0.010772455
211	0x0000471c	2.5509e-41
212	0x00025763	2.1502e-40
213	0x00004467	2.4538e-41
214	0xbd2ab00a	-0.04167179
215	0x00004e4b	2.8086e-41
216	0xbcceac2e	-0.025228586
217	0xbcf0cee4	-0.029395528
218	0x3a39f566	0.0007093757
219	0x3d98bd39	0.07457966
220	0x800044a7	-2.4628e-41
221	0x88ec2d5b	-1.4214396e-33
222	0xbcc46c57	-0.023977442
223	0x13bc5f33	4.7551746e-27
224	0xbd69eb59	-0.05710921
225	0x0000447a	2.4565e-41
226	0x00004c72	2.7423e-41
227	0xbb68e412	-0.003553633
228	0x80004474	-2.4556e-41
229	0xbd3108cc	-0.04322128
230	0xbcd28293	-0.025697028
231	0x80005665	-3.0993e-41
232	0x000047e8	2.5795e-41
233	0xbd340136	-0.043946467
234	0xbade3403	-0.0016952757
235	0xbd079b75	-0.03310724
236	0x0000446c	2.4545e-41
237	0x3d132ad8	0.03592953
238	0x80004c32	-2.7334e-41
239	0x00004f7d	2.8515e-41
240	0xab4df2c0	-7.3167514e-13
241	0xbb97b51a	-0.0046297433
242	0x80004cff	-2.7621e-41
243	0x3c928672	0.017886374
244	0x00004c91	2.7467e-41
245	0xbe3f87d7	-0.18704163
246	0xbdd2b203	-0.10287859
247	0x8002aa5c	-2.44784e-40
248	0x80004613	-2.5138e-41
249	0xbcd2136a	-0.025644023
250	0xbc620ece	-0.013797475
251	0xbd068733	-0.03284378
252	0x8000464f	-2.5222e-41
253	0x800044c2	-2.4666e-41
254	0x00004b5c	2.7034e-41
255	0xbb81e958	-0.0039645843

fc2.bias f4 [84]
0	0xbd8070fe	-0.062715515
1	0xbd1d1e44	-0.03835894
2	0xbd988a91	-0.074483044
3	0xbd8a5b86	-0.06755738
4	0x3e7cd51c	0.2469067
5	0xbc90d0ab	-0.017677626
6	0x3d1441ae	0.03619545
7	0x3e411c59	0.1885847
8	0x3c8ecc5c	0.01743143
9	0xa9054b15	-2.9597056e-14
10	0xbd7f3a30	-0.06231135
11	0x3de797b7	0.11308234
12	0xb9a50b1f	-0.00031479538
13	0xb7008281	-7.65978e-06
14	0xbaa26c88	-0.0012391964
15	0x3dc7b3b7	0.09751075
16	0xbcf398b7	-0.029735906
17	0x3e1b355f	0.15157078
18	0xb1d19b86	-6.1003815e-09
19	0x3de93280	0.11386585
20	0x3e8a828a	0.27052718
21	0x3e87607a	0.26440793
22	0x3e1505af	0.1455295
23	0xbbca4dfa	-0.0061738463
24	0xbd484ea0	-0.048903108
25	0xbcc2bdf8	-0.023772225
26	0x3e51d78b	0.2049238
27	0x3e1bdad6	0.15220198
28	0xab58acd7	-7.697848e-13
29	0xaceb12c9	-6.6811873e-12
30	0xbae13a92	-0.0017183593
31	0x3d8b9ee2	0.06817414
32	0x3d3db5c4	0.046315923
33	0x3db0760d	0.086162664
34	0x3dc950c0	0.09829855
35	0x3e62458d	0.22096844
36	0x3e787e59	0.24266948
37	0x3e1d7320	0.15375948
38	0xbe26aa4e	-0.16275904
39	0xb6875900	-4.0336745e-06
40	0x3d6215ef	0.0551967
41	0xb5c5fb4e	-1.4750783e-06
42	0x9d3914c7	-2.4495288e-21
43	0x3e3066e2	0.17226747
44	0xbd80e846	-0.06294303
45	0xbd45eabf	-0.048319574
46	0x3d906072	0.070496455
47	0x3d9dc686	0.07703881
48	0x3e1f9881	0.1558552
49	0x3c2d60fe	0.010582207
50	0x3da9af02	0.08285333
51	0xbdc9d2a9	-0.09854633
52	0x3e7297ad	0.23690672
53	0x3dbde669	0.09272463
54	0x3e32a081	0.1744404
55	0x3dac9217	0.08426302
56	0xbb3e3691	-0.0029024223
57	0xa1bd5a43	-1.283103e-18
58	0x3dd30e30	0.103054404
59	0x3cc94e89	0.024573581
60	0xad511a8a	-1.1886167e-11
61	0x3e3a17f5	0.18173201
62	0x3c120090	0.008911267
63	0x3df88197	0.12134092
64	0x3cbea04c	0.023269795
65	0xbd963b14	-0.07335487
66	0xbd82b281	-0.06381703
67	0x3c4f330d	0.012646449
68	0x3e1aeac6	0.15128621
69	0xbd8f9e7d	-0.07012651
70	0x8000450b	-2.4768e-41
71	0xbbb5b742	-0.0055455277
72	0x3dbe16aa	0.092816666
73	0x3e69a738	0.22817695
74	0x3e22e815	0.15908845
75	0xbc99b288	-0.018761888
76	0x3de43ef2	0.11144818
77	0x3d3edd9a	0.046598054
78	0x3da7d942	0.081957355
79	0x3bffee52	0.0078103924
80	0xbcc3c5d7	-0.023898048
81	0xbd1d579e	-0.038413636
82	0x3e6a1404	0.22859198
83	0x3d1fb815	0.038993914

fc3.weight f4 [10, 84]
0	0x3e362916	0.1778911
1	0xbc063339	-0.008190923
2	0x3d640305	0.055666942
3	0x3e46819e	0.19385383
4	0xbe25f137	-0.16205297
5	0x3af065b1	0.0018340853
6	0xbe858668	-0.26079106
7	0xbe8ca4c4	-0.27469456
8	0x3d92f87a	0.071762994
9	0xba694634	-0.0008898706
10	0x3d6ff09c	0.058579072
11	0x3bf43457	0.0074525285
12	0x39c0fece	0.00036810938
13	0xbad8ccdc	-0.0016540545
14	0xbb7ce06b	-0.0038585912
15	0xbeca32cf	-0.3949189
16	0xbe9b134c	-0.3028816
17	0xbe93549a	-0.28775483
18	0xbaa00c48	-0.0012210691
19	0xbd25d347	-0.040484693
20	0xbe847934	-0.2587372
21	0x3cf8f2ba	0.030389179
22	0x3c9d1240	0.019173741
23	0x3e934dbf	0.28770253
24	0xbcda9706	-0.026683342
25	0xbdd15d5d	-0.10222886
26	0xbda26c68	-0.07930833
27	0x3e09f123	0.13470893
28	0xa6aa06e3	-1.1797986e-15
29	0xb7073796	-8.059569e-06
30	0xb98e0e4d	-0.00027095005
31	0xbdb477de	-0.08811925
32	0x3d0c434b	0.034243863
33	0xbe12c835	-0.14334185
34	0x3d9c27e9	0.076248
35	0xbe7ecc34	-0.24882585
36	0xbdff43de	-0.124641165
37	0x3e0931c7	0.13397895
38	0x3d823c5c	0.06359169
39	0xb8fd58e5	-0.00012080538
40	0x3d9d7432	0.07688178
41	0xb5ba9188	-1.3900435e-06
42	0x35960ec9	1.1180174e-06
43	0x3e0520fe	0.13000867
44	0xbd33f3b3	-0.04393358
45	0xbe977f7c	-0.2958945
46	0x3e6573df	0.22407483
47	0xbe4880eb	-0.19580428
48	0xbd8e9713	-0.06962409
49	0xbe97f137	-0.2967622
50	0xbdcc207a	-0.09967132
51	0xbafbf578	-0.0019222936
52	0xbdf4b262	-0.11948086
53	0xbe681364	-0.22663647
54	0x3d4f6a24	0.050638333
55	0xbe92cc76	-0.28671616
56	0xbb775c59	-0.0037744252
57	0x3807045f	3.219058e-05
58	0x3e0fc5b7	0.14040266
59	0x3e26ca97	0.1628822
60	0x34f7cea0	4.6157675e-07
61	0xbf36326b	-0.7117068
62	0xbd08c6b6	-0.03339263
63	0x3d90da05	0.07072834
64	0x3e2e63a0	0.17030191
65	0xbd08c7fa	-0.033393838
66	0x3d7ae39f	0.061252233
67	0x3dc5473f	0.0963273
68	0x3e8767bd	0.26446334
69	0xbdd9d2f7	-0.106359415
70	0xb77380af	-1.451389e-05
71	0xbb21ed5f	-0.0024708135
72	0x3d3783cd	0.04480343
73	0xbea8b148	-0.32947755
74	0xbd8f5a37	-0.06999629
75	0x3ca2c34e	0.01986852
76	0x3dd727f3	0.105056666
77	0x3d256b3f	0.04038548
78	0xbd9c9bfd	-0.0764694
79	0xbcba41d2	-0.022736464
80	0x3e0d1c8f	0.13780425
81	0xbeae49fe	-0.34040827
82	0xbe4e4cfd	-0.20146556
83	0xbeba6562	-0.36405474
84	0x3d9ea3c2	0.07746078
85	0x3c8c0cbe	0.01709592
86	0xbdb2bcb2	-0.08727397
87	0xbea341a3	-0.31886014
88	0xbdfc783a	-0.12327619
89	0x3a925fb9	0.0011167444
90	0x3de03a0a	0.1094857
91	0xbe576466	-0.21034393
92	0x3e342255	0.17591222
93	0x2e358210	4.1270154e-11
94	0x3d801f12	0.06255926
95	0xbe7cbebe	-0.24682137
96	0x3429ff7c	1.5832296e-07
97	0xb70537b7	-7.94039e-06
98	0xb9c540a2	-0.00037622923
99	0xbe874c1d	-0.26425257
100	0xbe270531	-0.16310574
101	0xbe130ff9	-0.14361562
102	0xb5a5e7aa	-1.2360881e-06
103	0xbf115045	-0.56763107
104	0x3db2154d	0.08695469
105	0xbcc7ecf8	-0.024404988
106	0xbe6c653c	-0.23085493
107	0xbd3ce350	-0.04611522
108	0x3d119328	0.03554073
109	0xbe3808ff	-0.17972182
110	0x3e4c6d1a	0.19963494
111	0xbf031680	-0.5120621
112	0xa89ee4fd	-1.7640832e-14
113	0x99984e10	-1.5747961e-23
114	0x357b17db	9.35395e-07
115	0xbcefb409	-0.029260652
116	0x3da274fb	0.079324685
117	0x3df3b555	0.11899821
118	0xbdc608c2	-0.09669639
119	0x3d989a75	0.07451335
120	0xbe8cd155	-0.27503458
121	0xbebf3ba9	-0.37350205
122	0xbe22c78e	-0.15896437
123	0xaba355b6	-1.1605636e-12
124	0xbe4cd09c	-0.20001453
125	0xb348c244	-4.6742812e-08
126	0x90b0078c	-6.943139e-29
127	0x3dd663cf	0.10468256
128	0x3b753c88	0.0037420113
129	0x3ea57eb2	0.32323223
130	0xbe67b514	-0.2262767
131	0x3e8f11b9	0.2794321
132	0xbe2c07f3	-0.16799907
133	0xbe99a33c	-0.3000735
134	0xbc91a9b1	-0.01778111
135	0xbde8aef4	-0.11361495
136	0xbeb7b672	-0.35881382
137	0xbe8dab70	-0.2766986
138	0x3dac2b4b	0.08406695
139	0xbf1572fc	-0.5837858
140	0xb8a5dcf6	-7.90897e-05
141	0xb6b4c26e	-5.3870526e-06
142	0xbe637a94	-0.22214729
143	0x3ea5dadb	0.32393536
144	0x182fccc9	2.272161e-24
145	0xbf18d7e3	-0.59704417
146	0x3e86a3d2	0.2629686
147	0xbe9fec82	-0.3123513
148	0xbe9cb73e	-0.30608553
149	0x3b13c558	0.0022548046
150	0xbcbf6d9f	-0.023367701
151	0xbe8526e9	-0.2600625
152	0xbf094ba3	-0.5363104
153	0x3e1ad409	0.15119947
154	0x2f6b68ea	2.1410398e-10
155	0xbb036e77	-0.0020054856
156	0x3d019292	0.03163392
157	0x3e99f27e	0.3006782
158	0xbd9bbb8b	-0.0760413
159	0x3c50996b	0.01273189
160	0xbecbcf68	-0.39806676
161	0x3eb76e0e	0.35826153
162	0x3ed91c2b	0.42404303
163	0xbde5cdcb	-0.112208925
164	0xbe8ba55e	-0.27274603
165	0x398424d9	0.00025204456
166	0x3d94b29e	0.07260631
167	0x3e80e210	0.25172472
168	0xbe22aa97	-0.15885387
169	0x3c95e93f	0.018299697
170	0xbd11e04e	-0.035614304
171	0x3d8c0ce4	0.06838396
172	0x3d059f12	0.032622404
173	0xbbd41c3f	-0.0064730938
174	0xbe90222c	-0.2815107
175	0x3dd2d498	0.10294455
176	0x3dd1d8ca	0.10246427
177	0xba573a70	-0.0008210307
178	0xbc8852c2	-0.016641025
179	0xbe931266	-0.28724974
180	0xb99ecec8	-0.00030290172
181	0x3a1d36cc	0.000599724
182	0x3cbd40c1	0.023102166
183	0xbd7ffa3a	-0.062494494
184	0xbe796cad	-0.24357863
185	0x3d17156f	0.036885675
186	0xb9cc952f	-0.00039021063
187	0xbde8985e	-0.11357187
188	0xbe81a12a	-0.2531827
189	0xbeece809	-0.4627078
190	0xbcc151da	-0.0235986
191	0x3e051f42	0.13000205
192	0xbbdd0afd	-0.0067456947
193	0xbe63d6b0	-0.22249866
194	0xbbfb5e84	-0.0076711792
195	0x3dfa43bb	0.1221995
196	0x2f203b70	1.4573032e-10
197	0xa2776d23	-3.3532519e-18
198	0x37010fb6	7.692657e-06
199	0xbe2e61da	-0.17029515
200	0x3f05bae2	0.52238286
201	0xbe8bde5c	-0.27318084
202	0x3de521a9	0.11188061
203	0xbe177aa6	-0.1479288
204	0x3dcecd84	0.10097793
205	0xbe78f828	-0.24313414
206	0xbe81824f	-0.2529473
207	0x391a34cb	0.00014706251
208	0x3b59288f	0.0033135747
209	0xb3fec8e0	-1.1864336e-07
210	0x39f28946	0.00046260114
211	0x3d18ab45	0.03727271
212	0x3d506329	0.050875816
213	0x3de8c3cf	0.113654725
214	0xbdca2cd9	-0.09871835
215	0xbea6667d	-0.32500067
216	0xbdf47439	-0.1193623
217	0x3e0af894	0.13571388
218	0xbe10a09d	-0.14123769
219	0xbd157136	-0.03648492
220	0xbd2e1c7a	-0.042507626
221	0xbe82c73f	-0.25542638
222	0x3d54787a	0.051872708
223	0x3e1e88fa	0.1548194
224	0xbc573ec6	-0.013137525
225	0xb008f7e3	-4.982878e-10
226	0xbe51b39d	-0.20478673
227	0xbf1bda3c	-0.60879874
228	0xb95dd8a6	-0.0002115691
229	0x3e0adcd8	0.13560808
230	0x3e13d051	0.14434935
231	0x3dc6d2b0	0.09708154
232	0xbe11d120	-0.14239931
233	0xbe560a01	-0.20902254
234	0x3c154e5e	0.0091129225
235	0x3e0f258d	0.13979168
236	0xbc87c440	-0.016573071
237	0x3d4df339	0.050280783
238	0xb9a6da15	-0.0003182447
239	0xba8e8e67	-0.001087618
240	0xbdfe4f5b	-0.124174796
241	0x3c8ac12c	0.016937815
242	0xbebb2e28	-0.36558652
243	0xbb8886c5	-0.0041664564
244	0x3e63e585	0.22255524
245	0x3dd09f43	0.10186627
246	0xbf0adcb6	-0.5424303
247	0xbe0325e8	-0.12807429
248	0x3d9c52ac	0.07632956
249	0xbcd20a30	-0.025639623
250	0x3d06e984	0.03293754
251	0x3e072e78	0.1320132
252	0xbd11a6e7	-0.03555956
253	0x3d808f4a	0.0627733
254	0xbc1b6084	-0.00948346
255	0xbe0138c0	-0.12619305

fc3.bias f4 [10]
0	0xbe331ef0	-0.1749227
1	0xbe44f620	-0.19234514
2	0x3d83eae2	0.06441285
3	0x3df6e65c	0.12055656
4	0xbe53cb64	-0.20683056
5	0xbc97a73d	-0.018512363
6	0x3e443825	0.19162042
7	0x3d3ff12a	0.04686085
8	0x3e53ac26	0.20671138
9	0xbe6ddbb1	-0.23228337
