HW1_Split_nb/checkpoints/model_dropout_14.pt (torch, 250614 bytes, 10 tensors)

conv1.weight f4 [6, 1, 5, 5]
0	0x3e9ed1b7	0.31019375
1	0x3e5d2f35	0.2160004
2	0x3eae3cd5	0.34030786
3	0xbe1c2272	-0.15247515
4	0xbdd9bca4	-0.106316835
5	0x3cf8f725	0.030391285
6	0x3cc1d089	0.023659008
7	0x3eacc29c	0.33742225
8	0x3c88f9ac	0.016720615
9	0xbdbcc7a5	-0.09217767
10	0xbe9258a3	-0.2858325
11	0xbec6cb48	-0.38826966
12	0x3ea7dec7	0.32787153
13	0x3cc3c6e1	0.023898544
14	0x3e6e9ea7	0.23302709
15	0xbee7069f	-0.4512224
16	0xbef4321f	-0.4769449
17	0x3e069e6f	0.13146375
18	0x3dbac649	0.09119851
19	0x3db52dcd	0.088466264
20	0xbe296b87	-0.16544925
21	0xbe93a163	-0.28834066
22	0x3eab2f1c	0.3343438
23	0xbcfcec57	-0.030874414
24	0xbd99cad5	-0.0750939
25	0x3eefc311	0.4682851
26	0xbcb67221	-0.022271218
27	0xbeb830d4	-0.35974753
28	0xbc0c6711	-0.008569495
29	0xbe0f062f	-0.13967203
30	0x3eb1514d	0.3463234
31	0xbca959af	-0.020672647
32	0xbf091816	-0.5355238
33	0x3e0f07a2	0.13967755
34	0x3d6b4937	0.05744287
35	0xbe01b94c	-0.12668341
36	0xbe8a899c	-0.27058113
37	0xbe9133a3	-0.28359708
38	0x3ea956bd	0.3307399
39	0x3ea11539	0.31461504
40	0xbdb35dfa	-0.08758159
41	0xbee86bd4	-0.45394766
42	0xbeae0e03	-0.33995065
43	0x3f13e847	0.577763
44	0x3e934fd3	0.2877184
45	0x3c21182a	0.009832421
46	0xbe7a5cfb	-0.24449532
47	0xbd87adc4	-0.0662494
48	0x3e3e61b4	0.18591958
49	0x3d0211f2	0.031755395
50	0x3e00117d	0.12506671
51	0x3eac4599	0.3364685
52	0xbec0c293	-0.37648448
53	0x3d9b11e3	0.07571771
54	0xbef8382f	-0.48480365
55	0xbf8a088d	-1.078386
56	0xc0549289	-3.3214438
57	0xc0398bea	-2.8991647
58	0xbeeb055a	-0.4590252
59	0x3dfef5a5	0.12449197
60	0xbe212750	-0.15737653
61	0xc021ce67	-2.5282228
62	0xc00209e2	-2.0318532
63	0xbe116cf5	-0.1420172
64	0x3e96d82a	0.29461795
65	0x3e8b939e	0.2726106
66	0xbe7f4683	-0.24929242
67	0x3b190ca0	0.0023353472
68	0xbd90fc82	-0.07079412
69	0x3ea9ca28	0.33162045
70	0x3f07ae70	0.53000546
71	0x3e615396	0.22004542
72	0x3e0bf18f	0.13666366
73	0xbe7fa011	-0.24963404
74	0x3e8b9f5a	0.27270013
75	0xbe9acc83	-0.30234155
76	0x3e22f2bd	0.1591291
77	0xbe294f09	-0.16534056
78	0x3cdfdda8	0.027327374
79	0x3e19c216	0.15015444
80	0xbe3fe65e	-0.18740222
81	0xbe4df6ef	-0.20113729
82	0xbde906c3	-0.11378243
83	0x3e3078e9	0.17233624
84	0x3d5b39c3	0.053521883
85	0xbe16e47b	-0.14735596
86	0xbe5879ba	-0.21140185
87	0x3cd7aeda	0.026328493
88	0x3d91b49b	0.07114526
89	0x3e81f5c2	0.2538281
90	0xbcd4b5d9	-0.025965618
91	0x3e844e38	0.25840926
92	0x3dddb2ed	0.10825143
93	0x3e8a3a96	0.26997823
94	0x3e3b439f	0.18287514
95	0x3dfbaad0	0.12288439
96	0xbd9b51cd	-0.07583962
97	0x3cfbc5d5	0.030733982
98	0xbde55e70	-0.11199653
99	0x3e26acb0	0.16276813
100	0xbdf9ea6f	-0.12202918
101	0xbd599936	-0.05312463
102	0xbe6eec77	-0.23332392
103	0x3dcf0030	0.10107458
104	0xbd07922b	-0.03309838
105	0x3ce174c7	0.027521504
106	0xbcfdafff	-0.03096771
107	0x3e3f0f77	0.18658243
108	0x3e1168de	0.1420016
109	0x3d755c1e	0.059902303
110	0x3edeeafe	0.4353866
111	0x3f051e95	0.5199979
112	0x3e39fb52	0.18162277
113	0x3e84cbf1	0.25936845
114	0xbe92329d	-0.2855424
115	0x3e83e2c7	0.25758955
116	0x3debcb29	0.11513359
117	0xbd0b15ee	-0.03395646
118	0xbee08273	-0.43849525
119	0xbeeba414	-0.4602362
120	0xbee6af8b	-0.45055804
121	0xbeb08907	-0.34479544
122	0xbf69802e	-0.9121121
123	0xbf135151	-0.57545954
124	0xbe3f5013	-0.1868289
125	0xbe17810f	-0.14795326
126	0x3d6365a0	0.05551684
127	0xbda82440	-0.08210039
128	0x3e4cd239	0.20002069
129	0x3d4ee686	0.050512813
130	0x3d4f364d	0.050588895
131	0xbd20654e	-0.03915911
132	0x3e115cb5	0.14195521
133	0x3e44945c	0.1919722
134	0xbd9c2d68	-0.07625848
135	0x3ca3ba88	0.019986406
136	0xbe4078e8	-0.18796122
137	0xbd0f4621	-0.03497899
138	0x3e62d97f	0.2215328
139	0xbe0080cf	-0.12549137
140	0xbe1dfb32	-0.15427855
141	0xbe624587	-0.22096835
142	0x3d37487f	0.044746872
143	0x3e85809e	0.2607469
144	0x3c6fcb86	0.014635926
145	0xbe082232	-0.13294294
146	0xbcf4b829	-0.02987297
147	0x3dd6e979	0.1049375
148	0xbcc7ef34	-0.024406053
149	0x3df3bc51	0.11901153

conv1.bias f4 [6]
0	0xbd2dd871	-0.042442743
1	0x3cb72378	0.02235578
2	0x3ebf8853	0.37408695
3	0xbea61774	-0.32439768
4	0xbd0243ce	-0.031802945
5	0x3d009013	0.0313874

conv2.weight f4 [16, 6, 5, 5]
0	0x3d88a9c1	0.06673003
1	0xbe9e4136	-0.30909127
2	0xbeda193d	-0.4259738
3	0x3dd8adfc	0.1058006
4	0x3f5eea48	0.87076235
5	0xbb542888	-0.0032372791
6	0xbd604b21	-0.05475915
7	0xbe9dacb1	-0.30795816
8	0xbccf24a7	-0.025286032
9	0x3d875dec	0.06609711
10	0xbe8cf70b	-0.2753223
11	0x3db99000	0.09060669
12	0x3c7f6009	0.015586861
13	0xbe87a259	-0.2649105
14	0xbe478842	-0.19485572
15	0xbe1e503a	-0.15460292
16	0x3ea1e15e	0.31617254
17	0x3d2ed599	0.04268417
18	0xbf3b6905	-0.7320712
19	0xbf3a1792	-0.72692215
20	0x3cacafc6	0.021079909
21	0x3ed87ba5	0.42281833
22	0x3eb3ba4a	0.35103065
23	0x3cdc1c3c	0.026868932
24	0xbe982571	-0.29716066
25	0x3e64fa61	0.22361137
26	0x3e67debc	0.2264356
27	0x3efa33a9	0.4886754
28	0xbdda707d	-0.10665987
29	0x3c4c0305	0.012451892
30	0x3d3541d1	0.04425222
31	0x3daa7495	0.083230175
32	0xba975a23	-0.0011547249
33	0x3e351100	0.17682266
34	0xbd6534e9	-0.055958662
35	0xbc3d8e3b	-0.011569555
36	0xbd37d2a9	-0.044878636
37	0xbebddd78	-0.3708303
38	0x3d7f13a0	0.062274575
39	0x3e63ea32	0.22257307
40	0xbcca9cdc	-0.024733
41	0x3e2c5637	0.16829763
42	0xbe3d3fdd	-0.18481393
43	0xbf0e05c1	-0.5547753
44	0xbedfdc5c	-0.43722808
45	0xbca41cc4	-0.020033248
46	0x3e95e385	0.29275146
47	0xbecdfe12	-0.40232903
48	0xbf9e3423	-1.2359661
49	0xbf4de81c	-0.80432296
50	0xbcfa9ece	-0.030593302
51	0x3ea88e42	0.32921034
52	0xbe8412cb	-0.25795588
53	0xbe6e5e91	-0.23278262
54	0x3ef6b5a3	0.48185453
55	0xbe4b5783	-0.19857602
56	0x3c555969	0.013021805
57	0xbf92aa96	-1.1458309
58	0xbfaf37c6	-1.3688896
59	0xbf509c2c	-0.814883
60	0xbe63e771	-0.22256257
61	0xbebcaf0c	-0.368523
62	0xbd84fb52	-0.06493248
63	0xbebe6b42	-0.37191206
64	0xbf115929	-0.5677667
65	0xbe9a9151	-0.30188993
66	0xbe50d365	-0.2039314
67	0x3eb712c8	0.35756516
68	0x3e3e0fbf	0.18560694
69	0xbe9045f2	-0.28178364
70	0xbe871f81	-0.26391223
71	0xbd5f83ef	-0.05456918
72	0xbe109b63	-0.14121775
73	0xbc8e72c2	-0.017388705
74	0xbf0ea4fc	-0.55720496
75	0x3d08dc20	0.033413053
76	0xbea5f66b	-0.32414564
77	0xbe626c21	-0.2211156
78	0xbd621457	-0.05519518
79	0xbd97c7bc	-0.07411143
80	0x3e2389a1	0.1597047
81	0xbd840427	-0.064461045
82	0xbc115b9b	-0.008871938
83	0xbe8b661e	-0.27226347
84	0xbeaf5db5	-0.3425118
85	0x3d14cd1a	0.036328413
86	0x3d92a7dc	0.07160923
87	0xbdd7b372	-0.10532273
88	0xbe8c6fcf	-0.27429053
89	0xbe6e90a9	-0.23297371
90	0x3d6759df	0.056482192
91	0x3c964523	0.018343514
92	0x3e192fcd	0.14959641
93	0xbd45e746	-0.048316263
94	0x3d383c2d	0.044979263
95	0xbe690427	-0.2275549
96	0xbd8ba82c	-0.068191856
97	0x3e532367	0.20618974
98	0xbdc61f45	-0.09673933
99	0x3e02764f	0.12740444
100	0xbcc2c3c2	-0.023774985
101	0x3eb4f207	0.35340902
102	0x3d9b4b9d	0.075827815
103	0xbeec0652	-0.46098572
104	0xbc5b3d09	-0.013381251
105	0x3de07fa6	0.10961847
106	0x3e47e070	0.1951921
107	0x3e649500	0.22322464
108	0xbe80eac9	-0.25179127
109	0x3dfa53a6	0.12222986
110	0x3e2d2c6f	0.16911481
111	0xbda06f0d	-0.07833681
112	0x3e76537a	0.24055281
113	0xbe8259d5	-0.2545916
114	0x3e9a5f8a	0.30151016
115	0xbe7699e6	-0.24082145
116	0xbedca422	-0.43093973
117	0x3d8f2a10	0.06990445
118	0x3cacd759	0.02109878
119	0x3ee02bbf	0.43783376
120	0xbf318213	-0.693391
121	0xbf11ae47	-0.5690655
122	0x3e638df6	0.22222123
123	0x3edd14e2	0.43179995
124	0x3ea714e8	0.32633138
125	0x3d567fcb	0.052367967
126	0xbe4a7e63	-0.19774775
127	0xbe793356	-0.2433599
128	0xbec0e218	-0.37672496
129	0xbea08814	-0.3135382
130	0x3e521b27	0.2051817
131	0x3d8439b1	0.06456316
132	0x3d94e481	0.07270146
133	0xbdb71b43	-0.08940747
134	0xbe1c6d0d	-0.15275975
135	0x3e18a5bc	0.14906973
136	0x3e25720c	0.16156787
137	0x3d9c4826	0.07630949
138	0xbe43348b	-0.19063012
139	0xbdbf3301	-0.093359
140	0x3d23052a	0.039799847
141	0x3e417939	0.18893899
142	0x3e356427	0.17713986
143	0xbe7eed6a	-0.24895254
144	0xbdb378f0	-0.08763301
145	0xbe055239	-0.13019647
146	0x3e4882cb	0.19581144
147	0x3e1195ae	0.14217255
148	0xbe16a261	-0.1471038
149	0xbe175915	-0.14780076
150	0xbe31795b	-0.1733145
151	0x3e2aefa5	0.1669298
152	0xbe759978	-0.23984325
153	0xbe887b75	-0.2665669
154	0xbceb878b	-0.028751155
155	0xbd9dada2	-0.076991335
156	0x3da8056c	0.08204159
157	0xbda36390	-0.079779744
158	0xbdeb9019	-0.11502094
159	0x3dcf3635	0.10117761
160	0x3d8a6004	0.06756595
161	0xbe09254e	-0.13393137
162	0x3e84f69c	0.25969398
163	0x3df5978c	0.11991796
164	0x3e06eada	0.13175526
165	0xbecf1909	-0.40448788
166	0xbe09e879	-0.13467588
167	0x3e8bca2d	0.27302685
168	0x3e199657	0.14998756
169	0x3eef9001	0.46789554
170	0xbea06c2e	-0.31332535
171	0x3e57910f	0.21051429
172	0x3df0ce6c	0.11758122
173	0x3c55bc51	0.013045386
174	0x3e9dc1e2	0.30811983
175	0x3eb28ee0	0.3487463
176	0x3df86f42	0.12130596
177	0x3b857eb4	0.004073942
178	0xbe072228	-0.13196623
179	0xbdb9894b	-0.0905939
180	0x3e28e4e4	0.16493565
181	0xbea647cf	-0.3247666
182	0xbe8f62e8	-0.28005147
183	0xbe2a01c6	-0.16602239
184	0x3e12e8da	0.14346638
185	0x3e03ce30	0.12871623
186	0xbf0440cb	-0.51661366
187	0xbd94342a	-0.07236512
188	0xbc97ca2f	-0.018529026
189	0x3e0a1e2c	0.13488072
190	0xbee8533f	-0.45376012
191	0xbdc0fd50	-0.094233155
192	0xbc975fc5	-0.018478284
193	0xbce18078	-0.027527079
194	0x3df7daaf	0.121022575
195	0xbf9c3fa0	-1.2206917
196	0x3e3110b3	0.17291526
197	0xbd7c31b4	-0.061570838
198	0x3e8229e7	0.25422594
199	0x3e26f286	0.16303453
200	0xbe503286	-0.20331773
201	0xbe8f8da6	-0.28037757
202	0x3e7b885c	0.24563736
203	0x3eb436c0	0.3519802
204	0x3d0b6cbf	0.034039255
205	0xbeb87d9f	-0.3603334
206	0xbf417950	-0.75575733
207	0x3e81c4a9	0.25345352
208	0x3dc5df52	0.096617356
209	0xbf9207ca	-1.1408627
210	0xbee09816	-0.43866032
211	0xbf3a0ed0	-0.7267885
212	0xbf3fa3a6	-0.7485908
213	0xbec0952c	-0.3761381
214	0xbf9cc151	-1.2246495
215	0x3c95a8e2	0.018269006
216	0x3ed986a4	0.42485535
217	0xbe044622	-0.12917379
218	0xbee941a0	-0.4555788
219	0xbf5c1ed1	-0.8598452
220	0x3f05595a	0.52089465
221	0x3ee0aeb1	0.4388328
222	0xbd3aab3c	-0.045573458
223	0xbf0ca5b3	-0.54940337
224	0xbf479580	-0.77962494
225	0x3e568ad6	0.20951399
226	0x3e267a96	0.162577
227	0xbe71653a	-0.23573771
228	0xbd72b853	-0.059257817
229	0xbd24cb38	-0.040232867
230	0x3d0f7056	0.03501924
231	0xbe3599ae	-0.17734405
232	0xbe4bb18a	-0.19891945
233	0x3ba7d724	0.0051220823
234	0xbe23e2c2	-0.1600447
235	0x3e19b1f9	0.15009297
236	0xbd2b21df	-0.04178035
237	0xbe4b6adf	-0.19864987
238	0x3df3f65d	0.119122244
239	0xbde0ac59	-0.10970373
240	0x3e573ddd	0.21019693
241	0x3c8ed4d8	0.017435476
242	0x3cd080fb	0.025452128
243	0x3d00c3af	0.03143662
244	0xbeb5cb53	-0.35506687
245	0x3da4842a	0.08033021
246	0x3ea1189b	0.31464085
247	0x3d33af27	0.04386821
248	0xbdd412cb	-0.10355147
249	0xbe2b5322	-0.16730931
250	0x3ec54b22	0.38533884
251	0x3ebf5106	0.37366503
252	0x3e4d194f	0.20029186
253	0x3d8de80c	0.06929025
254	0xbedd800b	-0.43261752
255	0x3e41d7da	0.18929997

conv2.bias f4 [16]
0	0x3e4fb6c1	0.20284559
1	0x3dd1fdf6	0.10253517
2	0xbdadc6e9	-0.08485205
3	0xbe6006ae	-0.21877548
4	0x3e8f46c7	0.27983686
5	0xbdd5fa61	-0.104481466
6	0x3dea4519	0.114389606
7	0xbdb37ae9	-0.087636776
8	0xbe852b34	-0.26009524
9	0xbe77fb1d	-0.24216886
10	0xbd9d7634	-0.07688561
11	0x3dd4395f	0.10362505
12	0x3e7978c9	0.24362482
13	0xbdf6c55c	-0.12049362
14	0xbd45f155	-0.048325855
15	0x3e19dd81	0.15025903

fc1.weight f4 [120, 400]
0	0xbd9128db	-0.07087871
1	0x3e02740b	0.1273958
2	0x3dc82413	0.097725056
3	0xbec2e0b7	-0.3806207
4	0xbeb671c8	-0.35633683
5	0xbd94a880	-0.07258701
6	0xbeeb3649	-0.45939854
7	0xbc4ea64a	-0.012612889
8	0xbeddfaff	-0.43355557
9	0x3db88bc8	0.09011036
10	0x3bc488f4	0.0059977714
11	0x3c4db96b	0.012556414
12	0x3dcc80b6	0.09985487
13	0xbef66ac1	-0.48128322
14	0xbd3d2153	-0.04617436
15	0x3dc45351	0.09586204
16	0xbd31d96c	-0.04342024
17	0xbda28b00	-0.079366684
18	0xbdf42e91	-0.11922944
19	0x3df0d19d	0.117587306
20	0x3eda6dee	0.42661995
21	0xbe9922c8	-0.29909348
22	0xbd41a752	-0.04727871
23	0xbd2d5814	-0.042320326
24	0x3efcbf0b	0.49364504
25	0x3d75da01	0.060022358
26	0x3de39b33	0.11113586
27	0xbf0aa01f	-0.54150575
28	0xbecf13a9	-0.40444687
29	0xbda098e1	-0.07841659
30	0x3d9f26e8	0.07771093
31	0xbe47025a	-0.19434491
32	0xbe503449	-0.20332445
33	0xbf099f49	-0.53758675
34	0xbd93c2de	-0.07214902
35	0xbe341d61	-0.17589332
36	0xbca0105e	-0.019539054
37	0x3e17a8c7	0.14810477
38	0xbd906b99	-0.070517726
39	0xbcea18d7	-0.028576298
40	0x3e5d7bd4	0.21629268
41	0x3e52f8d6	0.20602736
42	0x3e356803	0.17715459
43	0xbe0f75fd	-0.14009853
44	0xbe3c70ab	-0.18402354
45	0xbc8181e6	-0.01580901
46	0x3d875a5e	0.06609033
47	0xbe838ac7	-0.25691816
48	0x3d0e2e5a	0.034712173
49	0xbd2b83de	-0.041873805
50	0xbe9e8037	-0.30957195
51	0x3d8ea870	0.06965721
52	0x3cb8c069	0.022552686
53	0x3edbb409	0.42910793
54	0xbd03038a	-0.031985797
55	0xbeacccb6	-0.33749932
56	0xbea34197	-0.3188598
57	0x3d1ed797	0.03877982
58	0x3e1d0742	0.153348
59	0x3c07d5bd	0.008290705
60	0xbe6f43b9	-0.23365678
61	0xbccc5b7b	-0.024945965
62	0xbdd9846a	-0.10620959
63	0xbf7e2541	-0.99275595
64	0xbf27fdf6	-0.6562189
65	0xbd3f3fd8	-0.046691746
66	0x3be66856	0.007031481
67	0x3e4053d0	0.18781972
68	0xbefe1e76	-0.49632615
69	0xbe6a23cb	-0.22865216
70	0xbcd0bbe8	-0.025480226
71	0xbd391175	-0.045182664
72	0xbea17a56	-0.31538647
73	0xbe4a1a8b	-0.19736688
74	0xbc42c374	-0.01188742
75	0xbc824655	-0.015902678
76	0x3da375f5	0.07981483
77	0x3e4f5531	0.20247342
78	0xbe5e78eb	-0.21725814
79	0x3d76f43a	0.060291506
80	0x3e7c61e2	0.24646714
81	0x3ec53496	0.38516682
82	0xbd7907fb	-0.060798626
83	0x3e5a9bb6	0.21348462
84	0x3e92eb27	0.28695032
85	0xbb2b6e6d	-0.0026158348
86	0x3f0f98b6	0.56092393
87	0x3ea68b95	0.32528368
88	0x3eabc4b5	0.33548513
89	0x3e15f32d	0.14643545
90	0xbe341cb2	-0.17589071
91	0x3dbe8259	0.093022056
92	0xbe18950e	-0.1490061
93	0xbdbbc176	-0.09167759
94	0x3c3e1fbc	0.011604246
95	0x3bc03af9	0.005866405
96	0xbe0950a9	-0.13409676
97	0xbf03f6e6	-0.5154861
98	0xbe91d591	-0.2848325
99	0xbe52fc61	-0.20604087
100	0xbe825204	-0.25453198
101	0xbd198b8a	-0.03748659
102	0x3dd0d9a8	0.10197765
103	0xbce34f2f	-0.027747719
104	0x3e6fb0aa	0.23407236
105	0xbe796e73	-0.2435854
106	0xbc1e9f53	-0.009681541
107	0xbdb8036a	-0.08985026
108	0xbe6207a3	-0.22073226
109	0xbe5f420e	-0.21802542
110	0xbd8b15fa	-0.06791301
111	0x3e2f990a	0.17148224
112	0xbe5598a0	-0.20859003
113	0xbe22d819	-0.15902747
114	0xbdc68830	-0.096939445
115	0x3e8a0229	0.26954773
116	0x3e24ccca	0.16093746
117	0x3e19738f	0.14985488
118	0x3d7fc6fb	0.062445622
119	0xbd14a48e	-0.036289744
120	0x3e50801e	0.20361373
121	0x3ebae20d	0.36500588
122	0xbd88519a	-0.06656189
123	0xbe1891c0	-0.14899349
124	0x3ec580b4	0.38574755
125	0xbf1c0145	-0.6093944
126	0xbcc9004b	-0.024536273
127	0xbd8f9ef2	-0.07012738
128	0xbd5e2df2	-0.054243036
129	0xbd89e6fd	-0.06733511
130	0xbe94a456	-0.29031628
131	0xbd717e6c	-0.058958456
132	0xbdb58dcb	-0.088649355
133	0xbe28ff23	-0.16503577
134	0xbdde0d07	-0.108423285
135	0xbde45fdb	-0.111510955
136	0x3c7f2e13	0.01557495
137	0x3f08bb2e	0.53410614
138	0x3d0634c2	0.032765158
139	0xbe6fed91	-0.23430468
140	0xbe273b10	-0.16331124
141	0x3e468d16	0.19389758
142	0x3e7261d4	0.23670131
143	0x3e83b04e	0.25720447
144	0xbe6ae99a	-0.22940674
145	0x3deeaeb0	0.11654413
146	0x3e66f5aa	0.22554651
147	0xbcd00db1	-0.025397154
148	0xbe0bd1df	-0.13654278
149	0x3ed4a547	0.41532347
150	0xbf2d6c68	-0.6774354
151	0xbf149941	-0.58046347
152	0xbb7503c0	-0.0037386268
153	0xbccd342c	-0.025049292
154	0xbc908a0b	-0.017643949
155	0xbf153d28	-0.5829644
156	0xbec96635	-0.3933579
157	0xbe05c6fa	-0.13064185
158	0xbdf55aaf	-0.11980187
159	0x3e828057	0.2548854
160	0xbea9dc7d	-0.33176032
161	0x3e7c80c7	0.246585
162	0xbdddd396	-0.108313724
163	0xbe469efb	-0.19396584
164	0x3ddc9c2a	0.107719734
165	0x3ebf5951	0.3737283
166	0x3e89add4	0.26890433
167	0xbd91f857	-0.07127445
168	0xbe40800b	-0.18798845
169	0xbddea737	-0.108717375
170	0x3f028c7e	0.50995624
171	0x3d995c87	0.07488351
172	0x3ea6c974	0.32575572
173	0xbed57ed9	-0.4169834
174	0xbd9a832c	-0.0754455
175	0xbd1d753c	-0.03844188
176	0xbe7f364d	-0.24923058
177	0x3d8461cf	0.06463968
178	0x3e2d6343	0.16932397
179	0xbe904482	-0.28177267
180	0xbe5be307	-0.21473323
181	0xbcc819f4	-0.024426438
182	0xbc9489cf	-0.018132119
183	0x3e70a876	0.23501763
184	0x3c331ef0	0.010932669
185	0xbe82cde7	-0.25547716
186	0x3e905fc5	0.28198066
187	0xbde3570f	-0.111005895
188	0xbf43bf16	-0.7646345
189	0x3d355486	0.04427006
190	0x3bc5a7a5	0.0060319477
191	0x3e40d4d7	0.18831192
192	0x3c200543	0.0097668795
193	0xbe6f5982	-0.23373988
194	0xbe8dc93b	-0.2769259
195	0x3e9e403b	0.3090838
196	0x3e19a353	0.1500371
197	0x3ec3448c	0.38138235
198	0xbee2f9e7	-0.44331285
199	0x3dab3c1f	0.083610766
200	0xbe9411e6	-0.28919905
201	0xbf079b9d	-0.5297182
202	0x3d2732a9	0.040819798
203	0xbdacb92c	-0.08433756
204	0x3caaa142	0.020828847
205	0x3dfa8f98	0.122344196
206	0xbf2eb36b	-0.6824252
207	0x3e300eed	0.17193194
208	0x3e07f899	0.13278426
209	0x3cd2a468	0.02571316
210	0x3f0d4da7	0.55196613
211	0xbe0b8840	-0.13626194
212	0xbdbcb38c	-0.09213933
213	0x3e4456ee	0.19173786
214	0x3cedef28	0.029044703
215	0xbd7ce32e	-0.061740093
216	0x3d8bebdb	0.06832095
217	0x3dc3bd6f	0.09557616
218	0xbde1dfe3	-0.11029031
219	0x3e3a2b08	0.18180478
220	0xbdb72744	-0.08943036
221	0xbea751e1	-0.32679656
222	0xbcf22d37	-0.029562576
223	0xbe24eabe	-0.16105172
224	0x3bb598fc	0.005541919
225	0x3e8a7924	0.27045548
226	0xbd77ca2d	-0.060495544
227	0x3d970c7e	0.073754296
228	0xbd8d4a62	-0.06898953
229	0x3e8292f6	0.25502747
230	0xbe593700	-0.21212387
231	0x3d826997	0.06367796
232	0x3f05d965	0.5228484
233	0x3ca3acb5	0.019979814
234	0x3da429fd	0.08015821
235	0x3db081df	0.08618521
236	0x3f076799	0.5289245
237	0x3e9db0c0	0.30798912
238	0xbf04da2f	-0.5189542
239	0xbebc262d	-0.36747876
240	0x3d192f2a	0.037398495
241	0x3edddb1a	0.43331224
242	0xbe34a7e9	-0.17642178
243	0xbe66094b	-0.22464482
244	0xbe1ec719	-0.15505637
245	0x3e82ea7d	0.25569525
246	0x3cf1c763	0.02951402
247	0x3d737587	0.059438255
248	0xbeac75a1	-0.33683494
249	0x3d13cce8	0.036084086
250	0x3ac4369b	0.0014969887
251	0xbe5ba779	-0.21450604
252	0xbc873858	-0.016506359
253	0x3e3bf0e7	0.18353616
254	0x3e0fdf04	0.14049917
255	0xbd8307e1	-0.06397987

fc1.bias f4 [120]
0	0x3e36e78f	0.1786177
1	0x3e4a14b3	0.19734459
2	0xbcb909c3	-0.022587663
3	0xbd63845f	-0.05554616
4	0xbda23766	-0.07920723
5	0x3e54c96d	0.20779963
6	0x3e8369cb	0.2566665
7	0x3d3e7884	0.04650165
8	0x3da86222	0.08221842
9	0x3d351fe3	0.044219863
10	0x3e4f4e68	0.20244753
11	0x3e3bb162	0.18329385
12	0x3e8a6cd7	0.27036163
13	0x3d9612f6	0.07327835
14	0x3c972164	0.01844854
15	0x3dd36b04	0.10323146
16	0x3dea1f6e	0.11431776
17	0x3d69bb82	0.057063587
18	0x3ef13428	0.47110105
19	0x3e5586a3	0.20852141
20	0x3e30bbe2	0.17259172
21	0x3cfed43b	0.031107059
22	0xbd2078d9	-0.03917775
23	0x3e3e699f	0.18594979
24	0xbc65056e	-0.013978345
25	0xbde8f539	-0.113748975
26	0xbd8d3370	-0.068945765
27	0x3e71d02b	0.23614566
28	0xbe3349b4	-0.17508584
29	0xbdb28a49	-0.08717782
30	0x3e491bc2	0.19639495
31	0x3ee1a1a6	0.4406864
32	0x3cbc20c3	0.02296484
33	0x3e33ecc1	0.17570783
34	0x3dcb1a31	0.09917105
35	0x3e87d2fd	0.2652816
36	0x3e8d60d1	0.27612928
37	0x3dd5d351	0.10440696
38	0x3cd4f8d9	0.025997566
39	0xbe00fa72	-0.12595537
40	0x3e85c618	0.26127696
41	0x3eb27eac	0.34862268
42	0x3ead4b32	0.33846432
43	0x3de9e388	0.11420351
44	0x3e9d1cc5	0.30686012
45	0xbc8589fa	-0.016301144
46	0x3e432397	0.19056545
47	0x3e8fa331	0.28054193
48	0xbdfce9ae	-0.12349258
49	0xbd30f1a2	-0.04319919
50	0x3dee4126	0.1163352
51	0x3cd2d20f	0.02573493
52	0xbdc22cad	-0.094811775
53	0x3e21b9aa	0.15793481
54	0x3db9c1ab	0.09070142
55	0x3e412d6a	0.1886498
56	0x3e18c562	0.14919046
57	0x3e9a81fe	0.301773
58	0xbd49ec31	-0.049297515
59	0x3d0c2cb7	0.03422233
60	0x3e1a31de	0.15058085
61	0x3e02a430	0.12757945
62	0xbdd2cc6f	-0.10292899
63	0x3dbf058b	0.09327229
64	0xbc848006	-0.016174328
65	0x3e65b7d7	0.2243341
66	0x3e3d2275	0.18470176
67	0x3dcd977d	0.1003866
68	0x3d115624	0.03548254
69	0x3e37a2ad	0.1793315
70	0x3d64b5f3	0.055837583
71	0x3e2203e1	0.15821792
72	0xbd35716d	-0.044297624
73	0x3e170389	0.14747442
74	0x3cb72196	0.022354882
75	0x3e33adc9	0.17546763
76	0x3e2c19d2	0.16806725
77	0x3dd282ff	0.10278892
78	0x3db4474a	0.0880266
79	0x3c8faa1f	0.017537175
80	0x3dd29fd0	0.10284388
81	0x3e564e67	0.20928346
82	0xbd1d0d8d	-0.038343
83	0x3e77df8d	0.24206372
84	0x3cf505e3	0.029910034
85	0x3e4db55f	0.20088719
86	0x3eab3e78	0.33446097
87	0x3e5c4cd9	0.2151369
88	0x3d5e0bb4	0.05421038
89	0x3d9a5aa4	0.075368196
90	0x3eb5df6d	0.35522023
91	0x3dffbae9	0.12486822
92	0xbdfa43ae	-0.1221994
93	0xbe17e9af	-0.14835237
94	0x3e808871	0.25104097
95	0x3cfe97f4	0.031078316
96	0xbc6ab735	-0.0143259065
97	0x3e7f7311	0.24946238
98	0xbe089405	-0.13337715
99	0x3d519159	0.051164005
100	0x3e915a61	0.28389266
101	0xbde667d3	-0.11250272
102	0x3de372aa	0.11105855
103	0x3db30e12	0.08742918
104	0x3cc13507	0.023584856
105	0xbc393ecf	-0.011306479
106	0x3e83213e	0.256113
107	0xbd21dbb5	-0.03951617
108	0x3e3860f2	0.18005732
109	0x3e425cda	0.18980733
110	0x3da16460	0.07880473
111	0xbd6d4016	-0.057922445
112	0xbdff5a56	-0.12468402
113	0x3db94900	0.09047127
114	0x3e587d32	0.21141508
115	0x3e8d6f78	0.27624106
116	0x3d43ceba	0.04780457
117	0x3d2cdd34	0.042203143
118	0xbd6c751e	-0.05772888
119	0x3dfdc905	0.12391857

fc2.weight f4 [84, 120]
0	0xbf0ec752	-0.5577289
1	0xbdf23818	-0.11827105
2	0x3e1a1f84	0.15051085
3	0x3eb40095	0.35156694
4	0xbe5d973d	-0.21639724
5	0x3a9360aa	0.0011244018
6	0x3e28698c	0.16446513
7	0xbedcf415	-0.4315497
8	0x3e7a6fef	0.24456762
9	0xbe66bc0b	-0.2253267
10	0x3ec5af14	0.38610137
11	0xbdc46967	-0.095904164
12	0xbe73869a	-0.23781815
13	0xbe54754b	-0.20747869
14	0xbf09d09a	-0.53833926
15	0xbeea601d	-0.45776454
16	0xbe4076b2	-0.18795279
17	0x3e8dc3db	0.27688488
18	0xbe1d20cc	-0.15344542
19	0xbda43465	-0.08017806
20	0x3eb42e73	0.35191688
21	0xbf153b14	-0.5829327
22	0x3d31a69f	0.043371793
23	0xbea29411	-0.3175359
24	0x3e917250	0.28407526
25	0x3ca82910	0.020527393
26	0xbdafc99d	-0.085833766
27	0x3e1ceeed	0.15325518
28	0xbd5c77c4	-0.053825155
29	0x3d650b94	0.055919245
30	0x3e45a413	0.1930087
31	0xbe5aa47c	-0.21351808
32	0x3e99139b	0.2989777
33	0xbe595650	-0.21224332
34	0xbe89ec72	-0.26938206
35	0xbdbd3b1a	-0.09239788
36	0x3e707fb6	0.23486218
37	0xbea2174d	-0.31658402
38	0x3ebf9c45	0.37423912
39	0x3cb4172c	0.021983705
40	0xbe0b638b	-0.13612191
41	0xbe0d2fe0	-0.13787794
42	0xbe6d3123	-0.23163275
43	0x3e15813d	0.14600082
44	0x3d8e6e7b	0.06954666
45	0x3d05cbf5	0.03266521
46	0xbe22c055	-0.15893681
47	0x3cde6cf2	0.027151559
48	0xbeeb5a76	-0.45967454
49	0xbdefaa77	-0.117024355
50	0xbe997657	-0.299731
51	0x3ea2e10c	0.31812322
52	0xbf16a188	-0.5884023
53	0xbccfe06f	-0.025375573
54	0x3e8f2446	0.27957362
55	0xbceab2d5	-0.028649727
56	0x3e3091bd	0.17243095
57	0xbd149a94	-0.03628023
58	0x3d8f468d	0.06995878
59	0x3e4e0f59	0.20123042
60	0xbe8ca651	-0.2747064
61	0xbee375d0	-0.4442582
62	0x3d1ce85d	0.038307536
63	0xbd8d167c	-0.06889054
64	0x3cdbd506	0.026834976
65	0xbf03aa9f	-0.5143222
66	0xbdded23b	-0.10879942
67	0xbd9122c0	-0.07086706
68	0xbe92ec37	-0.28695843
69	0xbee4b05b	-0.446658
70	0xbe574521	-0.21022464
71	0x3def4d71	0.11684693
72	0x3c855260	0.016274631
73	0x3e29222c	0.16516942
74	0x3e12ab51	0.14323165
75	0x3e5c82b6	0.21534237
76	0xbec75ef2	-0.38939625
77	0xbf59b9c6	-0.8504909
78	0x3e7b5ed8	0.24547899
79	0xbdc615a5	-0.09672097
80	0x3d6c7232	0.057726093
81	0xbe317403	-0.17329411
82	0x3d9a06f5	0.07520858
83	0xbe5cb0b8	-0.21551788
84	0xbf0ccd26	-0.5500053
85	0x3eba5f4e	0.36400837
86	0x3d64a7ab	0.055823963
87	0xbeabf00f	-0.33581588
88	0x3e954ed2	0.29161698
89	0xbe76c564	-0.24098736
90	0x3ea7555e	0.32682317
91	0x3e2a4085	0.16626175
92	0xbc3c66da	-0.011499131
93	0xbebcb959	-0.3686016
94	0xbf0e4081	-0.55567175
95	0xbead804e	-0.3388695
96	0xbef00588	-0.4687922
97	0xbe33189b	-0.17489855
98	0xbe27e911	-0.16397502
99	0xbecf1ee4	-0.40453255
100	0xbdc24595	-0.09485928
101	0xbf176cde	-0.59150493
102	0x3c9c0f95	0.019050399
103	0xbcd4d45c	-0.025980167
104	0xbeafece5	-0.34360424
105	0xbdfd48c3	-0.12367394
106	0xbd2e970f	-0.04262453
107	0xbd8642fe	-0.065557465
108	0x3e79ea3c	0.2440576
109	0xbe143b25	-0.14475687
110	0xbf165bf2	-0.5873405
111	0x3c260605	0.010133271
112	0xbdd54527	-0.104135804
113	0xbd765eda	-0.06014905
114	0x3e0b0c7d	0.13578983
115	0x3e2391e3	0.1597362
116	0xbef0710b	-0.46961245
117	0xbc8df379	-0.01732801
118	0x3c8f75f3	0.017512297
119	0x3cc1c666	0.023654174
120	0xbe576987	-0.21036349
121	0xbe136b52	-0.14396408
122	0xbee9a8e8	-0.45636678
123	0x3e5f632b	0.21815173
124	0xbe33bc5b	-0.1755232
125	0x3c7e1d27	0.01550988
126	0xbea3f4d3	-0.32022724
127	0xbedb04c2	-0.42777067
128	0xbe6594b3	-0.22420006
129	0xbe946ead	-0.2899069
130	0xbee80c78	-0.45322013
131	0xbe88dc06	-0.26730365
132	0xbe471a9d	-0.19443746
133	0xbe10b3cd	-0.14131089
134	0xbd6e4de6	-0.05817976
135	0xbe32b2b8	-0.17450988
136	0xbdf1b30d	-0.11801729
137	0xbeb386b7	-0.35063717
138	0x3dda5a21	0.10661722
139	0xbee714f5	-0.45133176
140	0xbdc33261	-0.095310934
141	0xbdbd8713	-0.09254279
142	0xbcd6b20b	-0.026207944
143	0xbdc1ea47	-0.09468513
144	0xbe1b0a31	-0.15140606
145	0xbf1c9723	-0.61168116
146	0x3e10ddb0	0.14147067
147	0x3dc2378a	0.094832495
148	0xbd7882df	-0.060671683
149	0xbd395a2d	-0.045252014
150	0x3dcdda00	0.10051346
151	0x3e26b60a	0.1628038
152	0xbebd4baf	-0.36971804
153	0xbe03b45f	-0.12861775
154	0x3ccaea3a	0.024769891
155	0xbde6ac75	-0.11263362
156	0xbe68fe7c	-0.22753328
157	0xb9a3c172	-0.0003123391
158	0xbefef0c9	-0.4979308
159	0xbe0976cb	-0.13424222
160	0x3e75b01f	0.23992966
161	0xbc199261	-0.009373278
162	0x3da27c34	0.07933846
163	0xbdd30102	-0.103029266
164	0xbd5a4708	-0.053290397
165	0xbd78ae04	-0.06071283
166	0xbe26685f	-0.16250752
167	0x3e1017a5	0.1407152
168	0x3c3731e1	0.011181326
169	0xbe8996b0	-0.26872778
170	0xbdc47cd6	-0.09594123
171	0xbeba2c03	-0.36361703
172	0xbed91472	-0.4239841
173	0x3dbb1cc1	0.09136344
174	0xbe98ebd7	-0.29867432
175	0xbe68f6f6	-0.22750458
176	0xbea90a77	-0.33015797
177	0xbdf8aa50	-0.121418595
178	0x3d39d340	0.04536748
179	0xbee19b36	-0.4406373
180	0xbdea2c07	-0.11434179
181	0x3db2631e	0.08710311
182	0xbc0ea62f	-0.008706613
183	0x3cf0b4d6	0.029383104
184	0x3e2c81dc	0.16846412
185	0xbdc300e3	-0.095216535
186	0xbe79a420	-0.24379015
187	0xbd67cef1	-0.05659384
188	0xbdbce7cd	-0.092239
189	0x3cb9da41	0.02268708
190	0xbe088dd3	-0.13335352
191	0xbe379538	-0.17928016
192	0xbd816491	-0.0631801
193	0xbe6551f8	-0.2239455
194	0x3db70961	0.08937336
195	0xbc9a4e22	-0.018836085
196	0x3d9db204	0.076999694
197	0xbc68a45b	-0.014199342
198	0xbef1b6a2	-0.4720965
199	0xbe57c568	-0.21071398
200	0xbebfd3de	-0.3746633
201	0xbc4f3a3c	-0.0126481615
202	0x3da7347c	0.081643075
203	0xbeaed323	-0.3414546
204	0xbee4cbcf	-0.44686744
205	0xbe8e0b62	-0.2774306
206	0xbdd83179	-0.10556311
207	0x3c2ceaa0	0.010553986
208	0xbdb9ec81	-0.09078313
209	0x3d6dc399	0.058047865
210	0x3e683e83	0.22680096
211	0x3e54c4cf	0.20778202
212	0xbc7b0cfe	-0.015322922
213	0x3daa298d	0.083087064
214	0x3d40c743	0.04706503
215	0x3e4da19d	0.20081182
216	0x3e8b940d	0.2726139
217	0xbdbf67f0	-0.093459964
218	0xbeb17acd	-0.34664002
219	0x3e566556	0.20937094
220	0xbd5a5d56	-0.05331167
221	0xbe9dc58e	-0.30814785
222	0x39db5b34	0.00041838887
223	0x3d7aea4a	0.06125859
224	0xbe69b4af	-0.22822832
225	0x3e1357b2	0.14388922
226	0x3cf0ba8f	0.029385833
227	0x3d76ec91	0.0602842
228	0xbe1df319	-0.15424766
229	0xbda05631	-0.0782894
230	0xbc459674	-0.012059797
231	0xbd3f6e26	-0.046735905
232	0x3c455a6d	0.012045485
233	0x3da609a9	0.08107311
234	0xbe746e9a	-0.23870316
235	0x3d6a48dd	0.057198394
236	0x3d960e98	0.07327002
237	0xbecff339	-0.40615252
238	0x3d0dafd6	0.03459152
239	0xbbb5aaa6	-0.0055440245
240	0xbcca88ec	-0.024723493
241	0x3df0a249	0.117497034
242	0xbebe546d	-0.37173787
243	0xbe599cca	-0.21251217
244	0xbe654b5d	-0.2239203
245	0x3e22a207	0.15882121
246	0xbeefca6f	-0.46834132
247	0x3e73a2f5	0.23792632
248	0x3d6e3cc7	0.05816343
249	0x3eb0ed87	0.3455622
250	0xbd11cd46	-0.035596155
251	0x3e0f5b0b	0.13999574
252	0x3e836789	0.2566493
253	0x3e7b77a6	0.24557361
254	0x3d5c6aba	0.05381272
255	0x3ca03eed	0.019561255

fc2.bias f4 [84]
0	0x3e99f9b4	0.3007332
1	0x3f254484	0.6455767
2	0x3f0796ad	0.5296429
3	0x3e2a9897	0.16659771
4	0x3f0c6ed7	0.5485663
5	0xbd359580	-0.044332027
6	0x3f26277c	0.64904
7	0x3eeb1f5e	0.4592237
8	0x3eee6f37	0.46569225
9	0x3ef2d3e4	0.47427285
10	0x3f398e38	0.72482634
11	0x3ec40903	0.38288125
12	0x3ef47e3b	0.47752556
13	0x3eca6e8f	0.39537475
14	0xbde4fce3	-0.11181047
15	0x3e910b70	0.2832904
16	0x3f257457	0.64630646
17	0x3e6c1898	0.23056257
18	0x3ee9746b	0.45596632
19	0x3ed8b563	0.42325887
20	0x3ea6097f	0.3242912
21	0x3f0359ce	0.51308906
22	0x3f0820c7	0.53175014
23	0x3ed7e601	0.42167667
24	0x3ea5d9fd	0.32392874
25	0x3ea6d3cb	0.3258346
26	0x3b9e18f2	0.004824751
27	0x3e6d40eb	0.23169295
28	0x3e562fc7	0.20916663
29	0x3dd8f433	0.10593452
30	0x3f1de7dc	0.61681914
31	0x3e93b254	0.2884699
32	0x3ead33ce	0.33828586
33	0x3f1998b5	0.5999864
34	0x3edd15ec	0.43180788
35	0x3eed1878	0.4630773
36	0x3ecdb65e	0.40178198
37	0x3f03c538	0.51472807
38	0x3ed751ce	0.420546
39	0x3dff7071	0.12472618
40	0x3e91e0c5	0.28491798
41	0x3f0a0941	0.5392037
42	0x3f21fe90	0.63279057
43	0xbd10789e	-0.03527128
44	0x3e700206	0.23438272
45	0x3ef46fdb	0.4774159
46	0x3e71f4e7	0.23628579
47	0x3ec79932	0.38984066
48	0x3f45f51f	0.7732715
49	0x3f1efdd4	0.6210606
50	0x3e7c2012	0.24621609
51	0x3ee195a1	0.4405947
52	0x3f023ab1	0.50870806
53	0x3eb9d619	0.36296156
54	0x3e9bb504	0.3041154
55	0x3ea14b4a	0.31502753
56	0x3f3da0ab	0.74073285
57	0x3e91353f	0.28360936
58	0x3ec73bae	0.3891272
59	0x3db48843	0.08815052
60	0x3ef56d85	0.4793512
61	0x3ebbd17c	0.3668326
62	0x3e3905fb	0.18068688
63	0x3d779d85	0.060452957
64	0xbd375fb4	-0.044769004
65	0x3eb17cf2	0.34665638
66	0x3e3db4b2	0.18525961
67	0xbebd52e8	-0.36977315
68	0xbd72bfde	-0.05926501
69	0x3f00d5ab	0.5032603
70	0x3e7b3bed	0.24534579
71	0x3e8719d0	0.2638688
72	0x3f1c639e	0.61089504
73	0x3ebc805c	0.3681668
74	0x3ebe949a	0.3722275
75	0x3e87843f	0.26468083
76	0x3ebff250	0.37489557
77	0x3ecc9720	0.3995905
78	0x3f245baa	0.6420237
79	0x3f088978	0.5333476
80	0x3f07432c	0.5283687
81	0x3e3e474e	0.18581888
82	0x3f27c67e	0.6553725
83	0x3f15e478	0.5855174

fc3.weight f4 [10, 84]
0	0xbd6f8b8c	-0.05848269
1	0x3d2d46ed	0.04230397
2	0x3e4dffa9	0.20117058
3	0x3cf0e51e	0.029406127
4	0xbe43b605	-0.19112404
5	0xbdd1a650	-0.102368
6	0x3df54935	0.11976854
7	0x3de94657	0.113903694
8	0xbeaba4e7	-0.33524248
9	0x3e0dec73	0.1385973
10	0xbe3e6cbd	-0.18596168
11	0xbf28a335	-0.65874034
12	0xbe7559e2	-0.23960069
13	0xbd45b9ed	-0.048273016
14	0xbc3b5d47	-0.011435813
15	0xbe62ca96	-0.22147593
16	0x3e06b2fd	0.13154216
17	0x3c8c28d7	0.017109318
18	0x3e37230a	0.1788446
19	0xbe4abb59	-0.1979803
20	0xbd7ae5e6	-0.061254404
21	0x3d1491d0	0.03627187
22	0xbe2e0277	-0.16993128
23	0x3dd23628	0.10264236
24	0x3ca85d63	0.020552343
25	0x3e879cbe	0.26486772
26	0xbe02d133	-0.12775116
27	0x3da01ef2	0.07818402
28	0x3e052808	0.13003552
29	0xbe2240b7	-0.15844999
30	0xbcca517e	-0.024697062
31	0xbddba9f8	-0.10725778
32	0x3ccbe61e	0.024890002
33	0xbe9aebff	-0.30258176
34	0x3e1faa91	0.1559241
35	0xbb85ee67	-0.0040872577
36	0xbe7d28e8	-0.24722636
37	0x3de5b802	0.11216737
38	0xbe84bdbd	-0.2592601
39	0x3e2c4660	0.16823721
40	0x3e2b57d2	0.1673272
41	0x3d6fe859	0.058571193
42	0xbe96de90	-0.29466677
43	0xbddf9cfe	-0.10918616
44	0x3d4f0466	0.050541304
45	0xbda85554	-0.082194
46	0xbe446fa5	-0.19183214
47	0xbd461e6a	-0.04836885
48	0xbeac2606	-0.3362276
49	0xbe7f01c0	-0.24903011
50	0x3ce8b758	0.028407738
51	0x3d4a55fb	0.049398404
52	0xbd99a64c	-0.07502422
53	0xbe3f5684	-0.18685347
54	0xbe6ea639	-0.23305596
55	0x3e363934	0.17795259
56	0x3e2808e5	0.16409643
57	0xbb61573b	-0.0034384269
58	0xbe323079	-0.17401303
59	0xbea6f33c	-0.32607448
60	0xbd4289fe	-0.04749488
61	0x3cd86dcb	0.02641954
62	0xbe07220b	-0.1319658
63	0xbf04862a	-0.5176722
64	0x3e07db4a	0.13267246
65	0xbf811b74	-1.0086503
66	0xbea98ce2	-0.33115298
67	0xbb366809	-0.0027833006
68	0x3e465a15	0.19370301
69	0xbd02f724	-0.031973973
70	0xbf1d2c20	-0.61395454
71	0x3d87cd15	0.06630913
72	0x3df41c7c	0.119194955
73	0x3d6e30b1	0.058151904
74	0xbca90c33	-0.0206357
75	0xbdb27921	-0.0871451
76	0xbe3d583b	-0.18490689
77	0x3e0822b0	0.13294482
78	0xbec76056	-0.38940686
79	0xbe2a8bb5	-0.16654857
80	0xbe9caa81	-0.30598834
81	0x3db48355	0.08814112
82	0x3d4a941d	0.049457658
83	0xbb02c022	-0.0019950946
84	0x3f1163ea	0.5679308
85	0xbf77b010	-0.96753025
86	0xbef338b4	-0.475042
87	0x3e04c0b4	0.12964135
88	0xbda67f13	-0.08129706
89	0x3db0a50e	0.08625232
90	0xbf3e653b	-0.74373215
91	0xbeb9724c	-0.36220014
92	0xbeb437cc	-0.3519882
93	0x3db7fe70	0.08984077
94	0xbe8698b1	-0.2628837
95	0xbee8ed85	-0.45493713
96	0x3e79c991	0.24393298
97	0xbac3f612	-0.0014950654
98	0xbe93c172	-0.28858525
99	0xbef233cc	-0.47305143
100	0x3e0c35e5	0.13692434
101	0xbeb655c8	-0.3561232
102	0xbeb51390	-0.35366488
103	0x3e334ae0	0.17509031
104	0x3e691a99	0.22764052
105	0xbeee0643	-0.46489152
106	0x3eb4b432	0.35293728
107	0xbd007631	-0.031362716
108	0x3ead0f9e	0.33800977
109	0x3cb111b1	0.021614881
110	0x3daf5ba6	0.085624024
111	0xbe8f64ee	-0.2800669
112	0x3d2b8f7a	0.041884877
113	0xbdb13371	-0.0865239
114	0x3e46a0bb	0.19397251
115	0xbe8179a4	-0.25288117
116	0xbda05485	-0.07828621
117	0xbe8fce86	-0.28087252
118	0x3dfacac3	0.12245705
119	0x3da4dcb2	0.08049907
120	0x3d122834	0.035682872
121	0xbe81fe1b	-0.2538918
122	0x3dd9f181	0.10641766
123	0xbeb3fe1c	-0.35154808
124	0xbe487941	-0.19577505
125	0x3e3d4c17	0.18486057
126	0xbe97b549	-0.29630497
127	0xbc929ed8	-0.017898008
128	0xbe82d9d2	-0.2555681
129	0x3c893a2d	0.016751373
130	0xbe5be6a4	-0.21474701
131	0xbdba7a44	-0.091053516
132	0x3e4478d7	0.19186722
133	0xbf41442c	-0.7549465
134	0x3e199f15	0.15002091
135	0xbd54dda5	-0.05196919
136	0x3e121ffd	0.14270015
137	0xbed324e6	-0.4123909
138	0xbe5fc5a9	-0.21852745
139	0xbe67ce06	-0.22637185
140	0xbe9ef9ff	-0.31050107
141	0xbd1b0824	-0.03784956
142	0xbeb1d828	-0.34735227
143	0xbed24010	-0.410645
144	0xbe909a93	-0.2824293
145	0xbcbbfd69	-0.022947984
146	0xbe1a742a	-0.15083376
147	0xbeb6c59e	-0.35697645
148	0xbdbefe62	-0.093258634
149	0xbebab33d	-0.36464873
150	0xbddeae4b	-0.108730875
151	0x3de92fd9	0.11386079
152	0xbe4bdc31	-0.19908215
153	0xbcc76a8d	-0.0243428
154	0xbf45a495	-0.7720426
155	0x3dfcf4d4	0.12351385
156	0xbea8455d	-0.3286542
157	0xbec40517	-0.38285133
158	0xbed1b5be	-0.4095897
159	0xbe3b3194	-0.18280631
160	0x3e05d25b	0.13068525
161	0xbe841edf	-0.25804803
162	0xbf225fc7	-0.63427395
163	0xbed84bf0	-0.42245436
164	0xbf22002d	-0.6328152
165	0xbee075e4	-0.43839943
166	0xbe9eae6d	-0.3099245
167	0x3eaef020	0.34167576
168	0xbe2ca33c	-0.16859144
169	0x3d10f635	0.03539105
170	0xbe0c42ad	-0.1369731
171	0xbdabf24b	-0.08395823
172	0xbeb863f9	-0.36013773
173	0xbd8f2f0c	-0.06991395
174	0x3d8a8637	0.06763881
175	0x3dc5309f	0.09628414
176	0x3df001e3	0.1171911
177	0x3e0fcc19	0.14042701
178	0xbe63547b	-0.22200195
179	0xbeda90bf	-0.42688558
180	0xbe77f871	-0.24215867
181	0xbe81ef6a	-0.2537797
182	0xbe853963	-0.26020345
183	0xbe21fa2f	-0.15818094
184	0xbf073f33	-0.5283081
185	0x3d55b861	0.05217779
186	0xbed7f195	-0.421765
187	0x3be34d1c	0.0069366824
188	0x3ce3c744	0.027804978
189	0x3d93a2c5	0.0720878
190	0xbddf69a0	-0.10908818
191	0x3e27daa5	0.16392
192	0xbde8572d	-0.113447525
193	0xbec28601	-0.37992862
194	0x3e0acb08	0.13554013
195	0xbc26fdb4	-0.0101923235
196	0xbd8c9713	-0.068647526
197	0xbe9c6aa9	-0.30550125
198	0x3e38d044	0.18048197
199	0xbdcef11b	-0.10104581
200	0xbeb06d9e	-0.3445863
201	0x3e53182c	0.2061469
202	0x3e184ea7	0.14873753
203	0xbe1af854	-0.15133792
204	0x3d8e4557	0.06946819
205	0xbe919a1b	-0.28437886
206	0xbe1b9fa3	-0.15197615
207	0xbe06b56f	-0.13155149
208	0x3d73d350	0.059527695
209	0x3ddaec33	0.10689583
210	0x3e100e0e	0.14067861
211	0xbe9314a6	-0.2872669
212	0xbeadbf8f	-0.3393521
213	0x3e1074cf	0.14107059
214	0xbee92783	-0.45537958
215	0xbe1c0468	-0.15236056
216	0xbeed93a2	-0.46401697
217	0xbc8df4ad	-0.017328585
218	0xbe8eb622	-0.2787333
219	0x3e47d992	0.1951659
220	0x3d45b636	0.048269473
221	0x3e9372e6	0.28798598
222	0x3dfc8716	0.12330453
223	0x3e188631	0.1489494
224	0x3db426ff	0.087965004
225	0xbdc3866c	-0.09547123
226	0xbdd3dc3c	-0.10344741
227	0xbe377af2	-0.17917994
228	0xbe4c0062	-0.19922021
229	0xbe8b153f	-0.27164647
230	0x3e00c56a	0.12575307
231	0xbedb3c0f	-0.4281926
232	0xbe57aa88	-0.21061146
233	0xbeaffe33	-0.34373626
234	0xbd77b1f2	-0.060472436
235	0xbd7661dd	-0.060151923
236	0xbe910e1a	-0.2833107
237	0xbc8e78ff	-0.01739168
238	0xbe08f2ac	-0.13373822
239	0x3e0dce9f	0.13848351
240	0x3d5946de	0.0530461
241	0xbecace4c	-0.39610517
242	0xbebffd49	-0.3749793
243	0xbd639c25	-0.055568833
244	0x3db5cef5	0.088773645
245	0x3da8e1b3	0.08246174
246	0x3e07ce45	0.1326228
247	0xbe6943e9	-0.22779812
248	0xbf577533	-0.84163207
249	0x3e490bc1	0.1963339
250	0xbe6fcf76	-0.23418984
251	0xbe4031b6	-0.18768963
252	0xbe424777	-0.18972574
253	0xbcd9bb39	-0.026578533
254	0xbe9a9562	-0.30192095
255	0x3cba7b82	0.022763971

fc3.bias f4 [10]
0	0xbe9a9ee2	-0.30199343
1	0xbecf8190	-0.40528536
2	0xbca86395	-0.020555297
3	0x3e70aa4a	0.2350246
4	0xbdae17c8	-0.0850063
5	0x3d08e810	0.033424437
6	0xbbcc140b	-0.0062279752
7	0x3df9d842	0.12199451
8	0x3e5d5cc9	0.21617426
9	0xbe4834ee	-0.19551441
