HW1_Split_nb/checkpoints/model_batchnorm_1.pt (torch, 253706 bytes, 18 tensors)

conv1.weight f4 [6, 1, 5, 5]
00000000: 1dde 45be ece5 1e3e 916f 123b 1174 173e
00000010: a958 43bd 8b2e 123d aae0 643e 2c5c 3cbd
00000020: ae18 593e 7ecd e8bd c4bc 1bbe c0e0 3e3e
00000030: ca50 adbd 2c0d 4f3d e818 34be 9349 dabd
00000040: 2e98 803d 5d5b 173e af27 883e 6372 b23d
00000050: 3f40 0c3d 7cd7 17be e23f ec3d c664 163e
00000060: 251c 3f3b 65af 643e c0c9 a63d 3e7c 12be
00000070: 883a dbbd 0acd 5bbe 696b b53c cdc6 2f3e
00000080: 35f2 203e e3d6 e8bd cb98 f23d 9663 883d
00000090: 580d 9ebd a9b9 b83d 31a5 fabd 7fa5 693c
000000a0: 16bb 3abe 5a26 8c3d 5141 a63d eef2 e43d
000000b0: b00c c63d c5d5 eebd 69d4 7bbe fb56 12be
000000c0: 4546 f73d 23dc 003d 90b2 f9bc 3cad 1ebe
000000d0: 8b15 81bc 4b74 34bd dfc0 103e 9bd0 023e
000000e0: 4700 79bd 2fa7 c3bd 04b0 aa3d 6d93 683d
000000f0: b633 cf3c 2ce1 88be d870 1e3d e635 473e
00000100: e2fa 873c 7845 4bbe ce7f 9bbe 512b 843d
00000110: b3b4 293d ff6b 4b3e 3704 25bd d797 4dbe
00000120: 04fd 86bc 1f57 96ba cfc5 b5bd f27b bcbd
00000130: 4d0c 20be 3787 533b 1d2e 393e 83cb f63d
00000140: 3b05 3a3d 4c79 05be 1b1d ac3d 89a7 bfbc
00000150: e6d9 04bd a376 903d 8920 80bd e42a 8dbd
00000160: 6e97 4c3c d4fe bebd 6095 fe3d 6f74 23bd
00000170: 86c5 57bd 9b61 45be 44eb 1d3e a68b 303e
00000180: 8106 12be 77b9 f63d 5d46 d9bb 591b 31be
00000190: bb94 b439 a1f9 93bc 1b42 153e 3e57 94bb
000001a0: c220 d53c ae06 17bd 5faa debd 6441 89bd
000001b0: 9467 58bd ccd1 90bd daa2 adbd a56f 91be
000001c0: 3e6d d4be 5003 98bd f09d 94bd aac8 b1bd
000001d0: d7ea 98be 3ff5 4bbe 9dc8 47be bfcb 87bd
000001e0: 2ddf 9a3d d732 473e 3e95 fd3c 2353 b03d
000001f0: 1c3e f83d 78c2 1c3e b066 45bc 67e8 913d
00000200: d6d2 28bd 5d0a 39be 8fc7 263d 88b8 07be
00000210: 209f eb3d ef80 2ebe 28d9 f43d 6799 293e
00000220: 0f1f a039 8a1c 7e3d ae80 a6bd 1ef9 20be
00000230: 516c b63d bc50 1abd 8b83 e73d a23c 37be
00000240: 3000 66bc f0c3 263e 1b6e f23c 9b09 493e
00000250: bd25 2dbe c135 49be
-0.1932301 0.15517396 0.002234433 0.1479037 -0.047691975 0.035688918 0.22351328 -0.04598634
0.21200821 -0.113673195 -0.15208727 0.18640423 -0.08462675 0.05054967 -0.17587626 -0.106585644
0.06279026 0.14780946 0.26592776 0.08713224 0.034240957 -0.14828295 0.11535622 0.1468688
0.0029161063 0.22332533 0.081439495 -0.14305207 -0.10704523 -0.21464935 0.022145944 0.1716568
0.15717395 -0.113691114 0.11845549 0.066596195 -0.07717389 0.09019787 -0.12238539 0.014260649
-0.1823543 0.068432525 0.08117927 0.11179148 0.09670389 -0.11661867 -0.24592747 -0.14290993
0.1207395 0.03145994 -0.030480653 -0.15495771 -0.015757343 -0.044056218 0.14136074 0.12774889
-0.06079128 -0.09553372 0.083343536 0.05678122 0.025293212 -0.26734293 0.038681835 0.19454154
0.016599122 -0.19850719 -0.30370945 0.064535744 0.041432094 0.19865416 -0.040287223 -0.20077454
-0.01647807 -0.0011470056 -0.088756196 -0.09203328 -0.15629692 0.003227664 0.18083997 0.120505355
0.045415144 -0.13034552 0.08403989 -0.023395317 -0.032434367 0.07053878 -0.062562056 -0.06892946
0.0124872755 -0.09325948 0.12430835 -0.03990596 -0.052678607 -0.19275515 0.15421778 0.17240772
-0.14260294 0.12047093 -0.0066307024 -0.17295589 0.00034443088 -0.018063368 0.14575998 -0.0045270016
0.026016597 -0.036871605 -0.108723395 -0.067019254 -0.052833155 -0.070712656 -0.08478327 -0.2840549
-0.41489595 -0.07422507 -0.07256687 -0.08680852 -0.2986667 -0.19917773 -0.19510122 -0.06630658
0.07562099 0.19452988 0.030954953 0.08609607 0.121212214 0.15308559 -0.012048408 0.07124405
-0.041216694 -0.1807036 0.040717658 -0.13253987 0.1150496 -0.17041372 0.11955482 0.16562425
0.0003054072 0.062038936 -0.081300125 -0.1572003 0.089073785 -0.03767465 0.11304387 -0.17894223
-0.014038131 0.16285682 0.029593518 0.1963257 -0.16908927 -0.19649412

conv1.bias f4 [6]
00000000: f3fa 9bbd 1023 a23d 8687 12be c468 d23d
00000010: a16f a63d 925e bfbd
-0.07616224 0.07916844 -0.1430951 0.10273889 0.0812676 -0.0934421

conv2.weight f4 [16, 6, 5, 5]
00000000: 6876 a8bd db37 00bd 21a0 64bd 606d 8dba
00000010: 8c5f a2bc 7eb7 c7bd 144c 21bc 4bf5 843c
00000020: 7840 133d 0fb3 fc3c 91e9 103d 4f6c 71bc
00000030: 2793 263d 5afa 983d 3c00 91bd 2c7f a33c
00000040: 66d2 ed3c 509d 53bd c2b9 0f3c e227 0ebc
00000050: b48f 713d c71a 91bd e130 51bd f9a4 b7bd
00000060: 5072 b5bd 4f31 00be 6a31 58be 1988 dbbd
00000070: 088b 4abb e300 113e 4428 93bb 092f 03be
00000080: 421a fabd afcc 8c3c 8d99 fb3c c65d a8bc
00000090: 69f0 6cbd b1a8 393d 4945 8d3a 290d 263d
000000a0: e204 c03c 8318 24bd 2732 0c3d 8bf8 103e
000000b0: e621 aa3d d0c6 14bd 69e0 8b3d 451d 413c
000000c0: a076 ae3d e311 0abd 71fd f63d 2185 d13d
000000d0: 95b5 e4bc c772 963d 1203 123d 0c59 91bd
000000e0: ecaf 02bd 28df 95bd 0a06 d1bc a3dc 073d
000000f0: ae30 3abc e594 c3bd b33a 00be 9668 eebd
00000100: e1a3 b8bd bfa9 073c 7bbc 30be 251a 453c
00000110: 346d 8b3d 38bf 33bd f716 0c3b ec5b 3fbc
00000120: 40f5 43bd 0822 5a3d 4fb1 c33c 1c70 7d3e
00000130: 1c6e 893d 4b52 e83b c51e 843d 0871 8d3d
00000140: 2da3 ccbd 9752 37bc 5a32 003d 986b 263d
00000150: 3eda 96bd 8a32 ec3c 905c 983c 1ff2 aabd
00000160: aa14 163c bff7 e13c d7f5 9e3d 6cda 0ebd
00000170: 658a 33be 51c2 61bd a89b 92bc c7e6 593d
00000180: 70c4 2f3d a033 cbb8 ff64 c33c dfd1 213d
00000190: c532 743e 1a25 623e 23e8 223e cf38 983d
000001a0: 244a 09be c25f 1d3d 14de 87bd 45a3 bcbd
000001b0: 690c 793b 85f0 86bd f6b4 9f3c b11e a13c
000001c0: 2da2 3cbd bf1a d1bd d5fd c039 78be 28bd
000001d0: 7492 21be 49ec 98bc 69ba 4d3c 1329 0bbd
000001e0: 751f 68bd ec7a 94bd b2b8 96bc eb68 a03d
000001f0: 3420 083e 7fb4 b23d 79ac 1fbd bb31 1dbc
00000200: 4d03 81bd a090 563d dfeb 01be a53f 9ebd
00000210: b847 fabd 3c3b 843d 3415 403c 0bd4 34bd
00000220: a5ee 47bd ba06 bcbd 4ace 46bc ed6c 003d
00000230: 5999 c9bc 1958 ab3d ee37 c73d f305 f23c
00000240: 00d0 52bd be39 7d3d 9509 073e 0ec6 a53d
00000250: 428e bd3d bb7e 67bc af7f 76bd 126b aabd
00000260: 63c4 a13d cf9e ffbc 5de5 903d f463 18be
00000270: 8291 80bd 3b0c a03d d450 9d3d fd3a dabc
00000280: 61b6 c73b 549d 083d ae18 24bc 4db8 7f3d
00000290: a6ed e13a 6bde 7dbd cc8f 6b3d 28b8 8ebb
000002a0: c1e1 0c3b 1a27 afbd c636 74bd 6308 90bd
000002b0: 6156 9e3b f727 86bd 4097 13bd 039c 0fbe
000002c0: 9b26 34bd 1c35 2bbe 2b68 203d 1f2e 5bbd
000002d0: 49de 35bd f230 02bd 6b67 2bbe b341 a63d
000002e0: a03c 27bd e47a d3bd 8460 d9bd 72b6 76bc
000002f0: 65ed 463d 2ec0 913d 8c29 483d 5d5b 65bd
00000300: 8407 0fbd 813d 813d b35b d23d 8ff1 eabb
00000310: 8a30 7dbd df96 b0bd 5768 88bc c8a2 403d
00000320: 94a3 febc 2291 173e 2e50 013d 898b 14be
00000330: c340 403a 7d49 933b ec9a d53d 9453 eb3c
00000340: 2575 09be 31d6 18bc d378 963c e658 9b3d
00000350: 2d1b 0ebb f3b2 14be 2963 853d 8496 763d
00000360: 0db2 d8bc 63e1 e4bd d1ca 98bd 3f74 d8bc
00000370: a587 3c3d 7aa9 02bd 7125 d2bd b4eb a2bd
00000380: 0c08 3e3c 5473 ecbd 928f 84bc 12a6 56ba
00000390: 936b ac3d 4036 513e 82e8 9b3c 3460 ac3d
000003a0: e2ca a93c e410 ddbd dd03 963d bbef 32bb
000003b0: d981 1d3d 9bf1 92bd 2931 3dbe e136 a93d
000003c0: e912 9d3c 3d1e 393d aaa4 36bd c7f7 67bd
000003d0: 95a3 853c 540c 8a3d c909 bcbc 889d 63bc
000003e0: f7f6 2a3d b220 673d ca68 143e efb1 ac3c
000003f0: 8e7a 9ebd c947 c5bd 2e41 183e b0f3 633d
-0.08225709 -0.031303268 -0.055816773 -0.0010790043 -0.01982095 -0.09751795 -0.009844799 0.016230246
0.035950154 0.0308471 0.035378996 -0.014735295 0.04066768 0.07469626 -0.07080123 0.019958101
0.02903099 -0.051663697 0.008772315 -0.008676501 0.058974937 -0.070851855 -0.051072005 -0.08967013
-0.08859694 -0.1251881 -0.211126 -0.10719318 -0.0030905623 0.14160495 -0.004490884 -0.12810911
-0.122120395 0.017187444 0.030712867 -0.020552527 -0.05784646 0.045326892 0.0010778095 0.040539894
0.023439828 -0.04006244 0.034227517 0.14157312 0.08307247 -0.036322415 0.06829912 0.011786764
0.0851872 -0.033708464 0.12060059 0.102304704 -0.027918616 0.07346111 0.03564746 -0.070970625
-0.031906053 -0.07317954 -0.025515575 0.0331694 -0.011364145 -0.09549884 -0.12522392 -0.11641042
-0.090156324 0.008280217 -0.172594 0.012030159 0.06807938 -0.043883532 0.0021375993 -0.011679631
-0.04784131 0.05325511 0.023888258 0.24749798 0.06710455 0.007089888 0.06451181 0.069063246
-0.09992061 -0.011189125 0.03129802 0.040629953 -0.07365845 0.028832693 0.018598825 -0.08346962
0.0091602 0.027583955 0.07761734 -0.034876272 -0.17533262 -0.055116955 -0.017896488 0.053198602
0.042911947 -9.68941e-05 0.02385187 0.03950679 0.23847492 0.22084466 0.15908866 0.074327104
-0.13407189 0.0384214 -0.06634155 -0.09210829 0.0038001782 -0.06588844 0.019495469 0.019667955
-0.0460531 -0.102101795 0.00036810213 -0.04119727 -0.15778524 -0.018667357 0.012556651 -0.03397472
-0.056670625 -0.07250008 -0.018398616 0.078325115 0.13293535 0.08725833 -0.038982842 -0.009594376
-0.06299458 0.05238402 -0.12687634 -0.07726983 -0.122207105 0.064566106 0.011723805 -0.044147532
-0.048811574 -0.091809705 -0.012134144 0.03135388 -0.024609255 0.08366413 0.097274646 0.029543852
-0.051467896 0.061822645 0.13187249 0.080944166 0.09255649 -0.014129336 -0.060180362 -0.08321203
0.07898786 -0.031203656 0.070749976 -0.14881879 -0.062777534 0.07814833 0.07681432 -0.026639456
0.0060947393 0.033353165 -0.01001565 0.062431622 0.0017236962 -0.061979692 0.057510182 -0.004355449
0.0021496865 -0.0855238 -0.05962255 -0.0703285 0.0048320745 -0.065505914 -0.036032915 -0.14024357
-0.04398213 -0.16719478 0.039161842 -0.05351078 -0.04440144 -0.03178496 -0.1673867 0.08118
-0.0408293 -0.10326174 -0.10614112 -0.015058147 0.04856624 0.071167335 0.048867747 -0.055995334
-0.034919277 0.06310559 0.102713965 -0.0071699093 -0.06181387 -0.086225264 -0.016651316 0.04703024
-0.03108386 0.14801458 0.031570606 -0.14506353 0.0007333869 0.0044948445 0.1042994 0.028726377
-0.13423593 -0.009328411 0.01836816 0.075853154 -0.0021683678 -0.14521389 0.06513054 0.060202137
-0.026452089 -0.111758016 -0.07460559 -0.026422618 0.0460278 -0.031899907 -0.10261048 -0.07955113
0.011598598 -0.115454346 -0.01618174 -0.00081881986 0.08418956 0.20430851 0.019031767 0.08416787
0.020726625 -0.10794237 0.073249556 -0.0027303535 0.03845391 -0.07174989 -0.18475784 0.082624204
0.019174056 0.045194853 -0.04459063 -0.056632783 0.016313354 0.06740633 -0.022953885 -0.013892539
0.04173943 0.056427665 0.14493099 0.02108094 -0.07738219 -0.096328326 0.14868614 0.05565232

conv2.bias f4 [16]
00000000: 8829 073e 3af4 21bd d404 7abd b289 a5bb
00000010: 1972 9ebc 184c d4ba a307 a1bc 8442 8cbb
00000020: 3841 d83c 40a9 3d3d 9539 85bd c1ea 19bd
00000030: 334e 87bb 9882 8a3d 42ec f63b 709c 4cbd
0.13199437 -0.039539553 -0.06103976 -0.005051815 -0.019341515 -0.0016196994 -0.019656962 -0.00428039
0.026398286 0.046303988 -0.065051235 -0.037577394 -0.004129195 0.0676319 0.0075354883 -0.049953878

bn1.weight f4 [6]
00000000: 15d7 323f 3dbb 853f 91f8 833f 902c 893f
00000010: 1acf 8c3f ebc7 793f
0.6985944 1.0447766 1.0310231 1.0716724 1.1000702 0.97570676

bn1.bias f4 [6]
00000000: 9409 6abe df1f d8bd b3a0 05be 8543 efbc
00000010: 3717 44be 5b2f 03bd
-0.22855216 -0.10552954 -0.13049583 -0.029207 -0.19149481 -0.032027584

bn1.running_mean f4 [6]
00000000: faf3 203e 4aeb ad3d 1cfa 97be d37e b23d
00000010: 4396 adbe ce7d eabd
0.1571807 0.084921435 -0.29683006 0.08715596 -0.33903703 -0.114497766

bn1.running_var f4 [6]
00000000: 20c0 b33d 3681 3f3c e015 9d3d 0f74 123c
00000010: b46d 723e b66e 3b3d
0.08776879 0.011688521 0.07670188 0.008938803 0.23674661 0.04575988

bn2.weight f4 [16]
00000000: 0cf2 963f aaa7 923f f7c1 9b3f 827a 8a3f
00000010: d3cb 8c3f 7119 823f 5af5 963f fd76 953f
00000020: 923b 903f 84a1 8a3f 76e7 8d3f 267f 8d3f
00000030: 07b2 7f3f e9fa 783f f01c 9b3f 9f78 833f
1.1792617 1.1457417 1.2168568 1.0818636 1.0999702 1.0164014 1.1793625 1.1676937
1.126818 1.0830541 1.1086261 1.1054428 0.99881023 0.9725786 1.2118206 1.0271186

bn2.bias f4 [16]
00000000: 3433 51bd 55dd 123d 7559 233c 4261 69bd
00000010: 13c0 b2bd 537e 97bd 8c74 f0bc 8092 19bd
00000020: 6b0f 64bd 29e9 a8bd af42 c0bd d7fb 42bd
00000030: f97e 05be 2852 ffbd 6dff 9abd 8362 e7bd
-0.05107422 0.03585561 0.009970059 -0.056977518 -0.087280415 -0.07397141 -0.029352449 -0.03749323
-0.055678766 -0.08247597 -0.09387719 -0.047603454 -0.13036717 -0.12466842 -0.0756825 -0.112980865

bn2.running_mean f4 [16]
00000000: ffdd 4b3d 3869 3abe 56ab e03b 1f38 12be
00000010: cadc 953e ad22 aabe d67b 52bd 9dd5 43bf
00000020: 6a91 4e3e 6976 efbe 8da9 8bbf 534b e6be
00000030: f17f bf3e 193d 863f a03c c7be f4e7 de3e
0.04977226 -0.182042 0.0068563623 -0.14279221 0.2927001 -0.3322958 -0.05138763 -0.76497823
0.20172659 -0.46770027 -1.0911118 -0.44979343 0.374023 1.0487396 -0.3891344 0.4353634

bn2.running_var f4 [16]
00000000: 4521 593e 865e d03e a66c 923e e482 713e
00000010: 805a 023f 2476 f13e b0fe af3e 4db1 d73e
00000020: b84a bb3e 444f 043f 4259 363f 4cb3 803e
00000030: cd2f e33e a3ed 0d3f 1671 873e 2563 cf3e
0.21204098 0.40697116 0.28598517 0.23585087 0.5091934 0.47160447 0.34374 0.42127457
0.36580443 0.5168345 0.71229947 0.25136793 0.44372407 0.5544073 0.26453465 0.4050533

fc1.weight f4 [120, 400]
00000000: a1c0 20bc b959 993d 7e7b 003c d83a e8bd
00000010: 7d95 59bd 97d9 773d 677b 953d d914 f53c
00000020: 0646 0ebd 54a3 f9bb 5fee cf3c cb30 a0bd
00000030: a266 79bd 351c 75ba e90f 29bd 5937 12bd
00000040: f0dd 3abc ac15 4b3d 16e7 50bc bdeb d7bc
00000050: 2f91 603c 5f52 7b3d 5b93 843d 8325 1bbd
00000060: 8707 03bd 191c 96bd 224b aabc b05f c63d
00000070: b1a7 52bd ac8f ddbd 7eec 3dbd a007 173d
00000080: 24d8 30bd 68ec 4dbc 01f2 803b b8cf 12bd
00000090: 0cbb 1b3d da2f 82bd df7e 813d 42fe ab3b
000000a0: 0971 503b 50e8 573d 5440 2c3d 0045 7d3b
000000b0: e737 07bd 10d2 9f3c a228 573d 496e d93d
000000c0: 1ff4 febb ef04 21bc 51fa ae3d aaab ac3d
000000d0: 62b8 04bd bb28 3c3d 0f4d e83d f224 e73d
000000e0: ec65 683d ec35 a13d 1579 533d 36aa 9d3d
000000f0: 4ec5 703d 67f8 b43c f295 83bd 22ef d5bd
00000100: bf27 14bd 27f6 e63c dc51 e0bc 2d39 0bbd
00000110: 78c3 d63c 6068 ec3b 5bf7 333d e3e9 863d
00000120: 7eb6 b7bc e3e7 8e3c 4b69 383d 8db7 3abc
00000130: 96d2 1e3e bf9c ae3d c05b ccbd db6e abbc
00000140: f1e2 3fbd 920f 913a f600 2ebd 0690 25be
00000150: ab93 13bc 132d f6bc bf41 2abe b57a 0dbd
00000160: b815 e8bd 942b f73c b046 9ebc 75aa 85bb
00000170: bbc1 a5b8 fb41 a5bd f518 113d ecb5 a53d
00000180: ec6a 8ab8 d31d 623d ab26 d9b9 46df eebb
00000190: 4116 8dbd 6ce3 dc3c 1cbf 8c3c 34e5 67bc
000001a0: 13a3 383d b20d 4b3c e1d8 12bd 61de 9dba
000001b0: 7bb8 eebd a77d 823c 066e 7c3d 4c16 87bd
000001c0: 9137 babd 3e7f 40bd 516e 5c3d d49e 973b
000001d0: 2999 1fbd cb20 e33b c8a6 af3c 76ff 393b
000001e0: 3ca6 26bd 166f 113e c1b0 403c b9b3 d3bb
000001f0: 882d 7dbc 7019 80bc fe5e 25bc 360a 3e3a
00000200: 84c0 f9bc 5e95 81bd aff4 61bd 7c57 a7bd
00000210: 36c7 7fbd 228a d4bd c8c2 acbb 3cc4 d53c
00000220: bb27 28bd 44a6 e1bc e641 61bd 9301 89bd
00000230: 1739 af3b 9f84 e63d 82a5 023e aec2 0a3d
00000240: 8267 5dbd d293 273c b5a3 9d3d 1749 103d
00000250: 387b a63d 8fdc 97bd 6c12 a4bd 95e6 c03d
00000260: 4eed a83c 67b5 23be e529 40bc 6fb3 aabd
00000270: ba41 5cbd 485e 5f3d e223 0abe 0640 7b3d
00000280: 4db6 023d aa19 3fbc d486 04be 7d47 89bd
00000290: 4852 3b3c 72aa 01bc 9888 d8bc 90c2 d6bd
000002a0: 15b7 7dbc e149 e33c 80c8 973d 05d8 713c
000002b0: feb2 263d 8a7a 48bd fd19 dc3b cb6c 8f3d
000002c0: dbb9 d8bd 000e 9cbd 4445 063d e652 35bd
000002d0: 2493 c6bc b28b 2abc 8854 63bd 61ce dd3c
000002e0: 3587 22bd e045 09bd f81b aa3d cf8b 173d
000002f0: b993 bb3c 3b9f 9f3c 2aac bfbc e223 90bc
00000300: b767 46bc 64e7 03bd 937a a4bd 5af1 7f3d
00000310: 0f4f a63d 1c05 b4bc 6196 2cbd 5e07 83bd
00000320: df2e a43b 4f4b 46bd f4f4 cf3c bfee fdbd
00000330: c13b 11be baf7 f73d ff50 83bc b21b 0fbd
00000340: 01eb 12bc f3f8 d7bd 2ed1 3a3d 4025 2fbd
00000350: 48ad 503d 048a 893d 6b7a 2a3b c732 5dbd
00000360: efa8 2c3c 8c03 b93d 2f9e 543d 8c94 323d
00000370: f041 403c 9d42 d83d d219 fe3c eb30 243d
00000380: 9873 023e a311 f2bb 0393 24bd fa08 35bd
00000390: d773 a13d 94d7 a1bd d552 42bc 8112 7f3c
000003a0: b774 8ebd 3d44 ff3c ba44 12be 3719 3cbd
000003b0: 9517 b93c a5a9 223d 0a3c 013d 67bd 73bd
000003c0: 4e66 a4bd b78a 953d 3614 b1bc 7808 9e3d
000003d0: 46b6 99bd d1b0 83bc d8fd 763d f962 4a3d
000003e0: f99e 75bc 2cfd 463c ec7c 97bd 3a8f 21be
000003f0: 96ca 1139 9c3a 08bd 7016 83bc 1b74 fc3c
-0.009811551 0.07487816 0.007841943 -0.113393486 -0.05312108 0.060510244 0.07298928 0.029917167
-0.03473475 -0.007618347 0.025382219 -0.078218065 -0.060888894 -0.00093502115 -0.04127494 -0.035697315
-0.011405453 0.049581215 -0.012750408 -0.026357526 0.0137064895 0.061357852 0.06473418 -0.03787757
-0.0319896 -0.07329578 -0.02078778 0.0968622 -0.051429454 -0.10818419 -0.046368115 0.036872506
-0.043174878 -0.012568571 0.003935099 -0.035842627 0.03802018 -0.06356783 0.06323027 0.0052488158
0.0031805655 0.052711785 0.042053536 0.0038645864 -0.033012297 0.019509345 0.052528985 0.10616738
-0.0077805663 -0.009827836 0.08543838 0.0843118 -0.032402404 0.04593728 0.11342823 0.11286344
0.056737825 0.07871613 0.051629145 0.07698481 0.058781914 0.022091104 -0.06425084 -0.104460016
-0.036170717 0.028193546 -0.027382784 -0.033990074 0.026216254 0.007214591 0.04393707 0.06587579
-0.022425886 0.017444557 0.04502229 -0.011396301 0.1551002 0.08525991 -0.099784374 -0.020926883
-0.046847288 0.0011067262 -0.042481385 -0.16168222 -0.009007375 -0.03005079 -0.16626643 -0.03454085
-0.113322675 0.030172147 -0.019320816 -0.004079158 -7.903898e-05 -0.080692254 0.03542419 0.080913395
-6.6002685e-05 0.055204224 -0.00041418275 -0.0072898 -0.0688901 0.026963912 0.017180972 -0.014153767
0.045077395 0.012393402 -0.035851363 -0.0012044423 -0.116562806 0.015929056 0.061628364 -0.0659605
-0.0909263 -0.046996348 0.053816143 0.004627088 -0.038964424 0.0069313995 0.021441832 0.0028381026
-0.040685877 0.14202532 0.011760891 -0.0064606336 -0.01545275 -0.01563713 -0.010093449 0.00072494464
-0.030487306 -0.06327318 -0.05516499 -0.08170983 -0.06244584 -0.10377909 -0.005272243 0.026094548
-0.041053515 -0.027545102 -0.054994486 -0.066897534 0.005347382 0.11255764 0.12758449 0.033877067
-0.05405379 0.010228114 0.0769724 0.035225954 0.08128971 -0.07415115 -0.08011326 0.0941898
0.020620968 -0.15987168 -0.011728738 -0.083350055 -0.05377362 0.054533273 -0.1349025 0.061340354
0.031912137 -0.011663834 -0.12942058 -0.067030884 0.011433192 -0.0079141725 -0.02643232 -0.104863286
-0.015485545 0.02774519 0.07411289 0.014760976 0.040698044 -0.048944987 0.006716965 0.070031725
-0.10582324 -0.07619858 0.0327809 -0.04426851 -0.024240084 -0.0104092825 -0.055500537 0.027075948
-0.039679725 -0.033513904 0.08306116 0.036998566 0.022897588 0.019485107 -0.023397524 -0.017595235
-0.0121096885 -0.032203093 -0.08031192 0.06248603 0.08120548 -0.021975093 -0.0421356 -0.063978896
0.0050104703 -0.048411664 0.025385357 -0.12399053 -0.1418295 0.12107797 -0.016029833 -0.03493852
-0.008967162 -0.1054553 0.045609646 -0.042760134 0.050946504 0.067157775 0.0026012908 -0.054003503
0.010538324 0.0903388 0.051908668 0.043598697 0.011734471 0.105595805 0.031018171 0.040085714
0.12739408 -0.0073873564 -0.040179264 -0.044198014 0.07883423 -0.079024464 -0.011860569 0.0155683765
-0.06955855 0.031160468 -0.1428403 -0.045922484 0.022594253 0.039712567 0.0315514 -0.0595068
-0.080273256 0.073018484 -0.021616083 0.07716459 -0.07505469 -0.016075524 0.060300678 0.049410794
-0.014991515 0.012145322 -0.07396874 -0.15777293 0.00013903747 -0.03325902 -0.01600191 0.030817082

fc1.bias f4 [120]
00000000: d037 ecbc c0a9 3c3d 37a4 4abc 379b 69bd
00000010: b73a d0bc 2e7f 393d 5aea 4a3c 779e 16bd
00000020: ce1d 3f3d 6b62 bc3c 7dba cf3c 9703 8e3c
00000030: f75b ba3c 406e 603d ea80 5e3c 757b 333d
00000040: 2ab5 cb3c 955e 5abc 480a 1dbd b247 f4bc
00000050: ecbc 81bd 9ebb 75bb 3c5d 15bd cc17 cbbc
00000060: 9509 0dbd 3f40 5a3d c217 9a3d 4d8c d5bc
00000070: 2e8c 5c3a c6c9 8abb c0e0 67bd d0fb 2b3d
00000080: 3715 12bd 21ff 4b3d 0b70 a8bc 5fbe 9d3d
00000090: 19cf f5ba a92f 4c3c b07b 0d3c ed6f 31bd
000000a0: d7a0 b23d 4835 69bb 84ff c339 d6f3 2f3d
000000b0: 5bce 13bd 44bf 6f3c 9513 b4bb 06f8 5dbc
000000c0: 5ec7 073d 0356 963c daaa 6dbd 1aa5 7cbc
000000d0: a8e8 42bc 3f7b 943c 9f9a d33c 5116 aa3c
000000e0: 64dd 67bc 6499 163d 9811 6b3d f191 cc3c
000000f0: 0f6a e63b 5609 463c ab63 a63c d7e4 dd3c
00000100: 9b0c 1abc 0e05 f9bc 3640 4dbd 4fd8 81bc
00000110: eafa c1ba 3776 9dbc 5b3f 5c3c 70ee b33c
00000120: 3490 d9bc 1a86 6bbd 14d1 123d 73c1 67bc
00000130: bad4 97bc 4f82 263d 32c4 493d 05c1 83bc
00000140: f0d8 b83c ecd1 b83c 6324 08bd 694b c3bb
00000150: 23bf 33bd 0f59 e4bc 04c3 0d3d 9539 f1bc
00000160: 81e1 0c3d ccab 2e3d 7363 77bc d988 0c3b
00000170: b430 253b 631e 393c 26c6 a3bd 7a57 18bd
00000180: 32cd f73b f3c4 23bd c222 853c 5f76 fabc
00000190: 1b3a 533d f5e9 f63b 8932 9cbc 12ff e63b
000001a0: 0e0a 4b3d 777e 343d 9686 e23c 9002 903c
000001b0: 4a98 d2bc bbb3 b2bb 11f3 773c b9d9 1dbd
000001c0: b066 0c3d f18f 253d faab 353c 713c 0b3d
000001d0: 61e7 ef3c cb4e 98bc 2c9e e43c 5887 babc
-0.028835207 0.046060324 -0.012368253 -0.05703279 -0.025418622 0.045287304 0.012384975 -0.036772218
0.046659283 0.022996148 0.02535748 0.017335696 0.02274893 0.054792643 0.01358054 0.04381891
0.02486666 -0.013328214 -0.038339883 -0.029819343 -0.06334862 -0.0037495862 -0.03646587 -0.02479162
-0.034432966 0.053283926 0.07524063 -0.026067877 0.00084132224 -0.004235479 -0.056610823 0.041988194
-0.035664763 0.049803857 -0.020561239 0.07702326 -0.0018753737 0.012462535 0.008635446 -0.04331963
0.08722084 -0.0035584737 0.00037383672 0.04295715 -0.036085468 0.014633004 -0.0054954984 -0.013547903
0.033149116 0.01835156 -0.058024265 -0.015420223 -0.01189629 0.018125175 0.025830565 0.020762594
-0.014151905 0.03676738 0.057389826 0.024971934 0.007031686 0.012087187 0.020311197 0.027086658
-0.009402419 -0.030397918 -0.050110064 -0.015850214 -0.001479951 -0.019221408 0.0134428395 0.021964282
-0.02655802 -0.057500936 0.035843924 -0.014145243 -0.018534053 0.040651616 0.049259372 -0.01608325
0.022564381 0.022561036 -0.033237826 -0.0059599173 -0.043883454 -0.027874498 0.03460981 -0.029446403
0.034394745 0.042644307 -0.015099394 0.0021443872 0.0025206031 0.011298749 -0.07996778 -0.0371928
0.007562303 -0.039982747 0.016251925 -0.030574022 0.051569086 0.007535214 -0.019067066 0.0070494497
0.049570136 0.04406592 0.027652066 0.017579347 -0.025707383 -0.0054535544 0.015133635 -0.038537715
0.034277618 0.040420476 0.011088366 0.03399319 0.029285135 -0.018592259 0.027907453 -0.022769615

fc2.weight f4 [84, 120]
00000000: 749b 77bd 9bd0 fdbc 3e14 0bbd c154 94bd
00000010: 28de e6bc a1fc b23c ca16 de3d 0985 8f3c
00000020: 4836 b1bd 04a6 ebbc 2be5 c2bc 6d1b 213d
00000030: 7952 a03d 457b 453b 6527 403d 927b 003e
00000040: cb5b 803d fd79 84bd 7078 7e3a efd0 663d
00000050: 4d4b e03c 746c ff3d b763 57bd 64df 16be
00000060: cd40 1fbd dc06 153e 0cec c73d 21dc 1fbe
00000070: bbe0 a8bc d649 dabd 1326 60bd c94d d33d
00000080: 7c78 a0bd ef87 4a3d dac3 30bb 9ebe 3dbd
00000090: 6292 3b3d a222 443d 63db f23d 34da ff3d
000000a0: 0bc8 0c3c 83fc d93d f063 eebc fa45 113d
000000b0: c8dd 6d3b 72de 353e c7c5 8e3d 5a06 8fbd
000000c0: 8255 aebd 57b7 933d f0fb 813d c5cf ae3d
000000d0: 104d 23bc 16f2 ef3b f0e3 023c 7222 1b3d
000000e0: 03c2 ef3d f039 96bd 26a5 e83d fb2f 7c3b
000000f0: 7a7d cfbd 0015 09bc a911 623b 168e 87bc
00000100: e529 a8bd 018c 3a3c 7be0 b93d 2db8 d23c
00000110: 03c8 d83d 6cfd a1ba ee03 d63c a2ec ba3c
00000120: 1d49 913c feb8 22bd 114b 403c f0b2 ad3c
00000130: a0ed f5bd c605 46ba fee7 093d 0067 933c
00000140: c916 98bd e580 30bd 0f87 91bc 3e18 b13d
00000150: e008 52bd c32d 61bd b00a 8fbd 1706 353d
00000160: 04e7 43bd 329c a33c a2d4 723c f03b 913b
00000170: 8b8a edbc 2300 103d 51dc 9fbd 9e9f b03d
00000180: d5bc 05be b685 4f3d 0e76 ebbc b26c a1bd
00000190: 45aa 643e dfaa e03b 0824 723d e20c 7cbb
000001a0: 4162 b3bd b012 993c 816e bd3d 1385 07bd
000001b0: c5fa 00be eb16 9aba 81f3 96bc 3719 1cba
000001c0: 5e71 3f3d 8f00 d6bd 9b89 95bc ece8 89bd
000001d0: 2b55 f73d 35a0 82bd a53e d63d ce96 d0bc
000001e0: 9328 c6bd 32f2 04be f1e4 2e3d d537 eebb
000001f0: cf1e 97bd d985 613c b3d1 283d cd5c b63d
00000200: b7f0 b03d cb0f b6bc 12be 9dbc 0371 293d
00000210: 5353 93bd 554e 52bc 06df 693c 07ba 35be
00000220: 7ca4 d4bc 3461 1cbd d6ca 803d fdde cb3a
00000230: 27a9 1a3c 1d17 cbbb 13e8 823d b28e fa3d
00000240: 21f6 e23d 40d8 723d 7ecd ebbd ed5a fc3d
00000250: 1670 5abd 230c 843d 194a aa3d 2475 d4bd
00000260: e4a7 c73d edd9 1dbe 3c69 703d 81cb d73d
00000270: ea60 a2bd 787f a63d 1cf0 cabd 0480 d7bb
00000280: dc7c ecbb 99be 0cbd c2fd 593c 8dcf 623c
00000290: 2ce9 a23d fdb3 55be 5fc4 aabd 4e32 95bc
000002a0: af87 77bd 5bec a4bd c9a7 4ebd 6bd6 d2bc
000002b0: 011a 223c d1dd 3b3d df77 0a3e b9b9 abbc
000002c0: 81d9 c93d 7b80 893c 2391 54bc 1b79 c4bd
000002d0: cebc c03d 0d1e 733c 2bf2 8f3c 25a9 813c
000002e0: 4945 773d cf02 833d a80b ba3c e6c0 7d3d
000002f0: 9768 35bd faa5 d13b 6790 d8bb e1eb 3e3e
00000300: 6e13 02be b40e a93d 8517 d03d 4b7a 3c3b
00000310: a7fc cd3d c310 f03d cc55 0f3d 3860 923d
00000320: 5795 a63d 9195 fb3b 466b 6ebc 83bd f1bd
00000330: 6739 303d 0d45 5bbd 4aa2 783d 672a b03d
00000340: a48d 783e 59a9 91bc 805b 363d 5be8 af3c
00000350: 93c9 063e 37cc 863d feb2 e73c f672 f7bd
00000360: 576c e13c 2277 0b3e 35d9 a6bd d1d6 06bc
00000370: cfee 043e d8fe c03d 0775 40bd 614a 82bd
00000380: f9c3 0e3d 708e e43d af62 833d 775b 18bd
00000390: 7034 6e3d 6a1b d73c 7cb3 993c 7221 cf3d
000003a0: ee59 a93d 4f61 96bd f413 28bc 11fd ab3c
000003b0: f18a b6bd 0c1a 613d a476 6dbd 2041 29bd
000003c0: 4139 843d 873c d43a 9bca 6b3d 0622 9abd
000003d0: f2ce 3bbd 1edb ed3b 7f30 7ebc 23e1 6abc
000003e0: c9df 62bd 0d69 83bc 6ea9 bfbd 7616 613d
000003f0: d64b 1dbd 32aa e8bd 5529 a2bd a048 47bd
-0.060450986 -0.03098326 -0.03395485 -0.07242728 -0.028182104 0.021848978 0.108441904 0.01751949
-0.086529315 -0.028765686 -0.023790916 0.039332796 0.078282304 0.0030133289 0.04691257 0.12547138
0.06267508 -0.0646858 0.00097072776 0.0563516 0.027379656 0.12471858 -0.05258533 -0.14733654
-0.03888016 0.14553398 0.09761819 -0.15611316 -0.020614972 -0.10658614 -0.05472381 0.10317571
-0.078354806 0.049446043 -0.0026972205 -0.046324365 0.0457939 0.04788459 0.11858251 0.12492791
0.008592616 0.10643866 -0.029100388 0.035467125 0.0036295522 0.17760637 0.06971317 -0.06983633
-0.08512403 0.07212704 0.063468814 0.08535723 -0.009967104 0.00732256 0.007988915 0.037874646
0.11706927 -0.073352695 0.113596246 0.0038480747 -0.10131355 -0.008366823 0.003449539 -0.016547244
-0.08211116 0.011385919 0.090760194 0.025722587 0.10585024 -0.0012358851 0.02612492 0.022817913
0.017735058 -0.039727204 0.011736647 0.021203488 -0.12008214 -0.0007553961 0.03366851 0.01799345
-0.07426221 -0.043091673 -0.017764596 0.08647202 -0.051277995 -0.054975282 -0.0698446 0.04419526
-0.047827736 0.01997194 0.014821203 0.004432194 -0.028996726 0.03515638 -0.07805694 0.086241946
-0.13060315 0.050664626 -0.028742816 -0.0788206 0.22330578 0.006856307 0.059116393 -0.0038459827
-0.08758975 0.018685669 0.092495926 -0.033085894 -0.12595661 -0.0011756098 -0.018426659 -0.0005954685
0.046738975 -0.10449325 -0.018254092 -0.067338794 0.120767914 -0.06378213 0.10461167 -0.025462534
-0.09675708 -0.12983015 0.042698804 -0.0072698393 -0.07378923 0.013764822 0.04121561 0.08904419
0.08639663 -0.022224328 -0.019255672 0.041367542 -0.07193627 -0.012836059 0.014274364 -0.17746745
-0.025957339 -0.038178638 0.06288688 0.0015554127 0.009439743 -0.0061978237 0.06391921 0.12234248
0.110821016 0.059288263 -0.11513804 0.1232203 -0.05332955 0.064476274 0.08314914 -0.10373905
0.097488195 -0.15415163 0.05869411 0.10536862 -0.07928641 0.081297815 -0.099090785 -0.00657654
-0.007217033 -0.034361456 0.0133051295 0.013843429 0.0795463 -0.20869441 -0.08338236 -0.018212464
-0.060432132 -0.08052894 -0.05045298 -0.025737008 0.009893895 0.045865837 0.1352229 -0.020962583
0.09855939 0.016784897 -0.012974056 -0.095934115 0.09411012 0.014838708 0.01757153 0.015827725
0.06036881 0.0639702 0.022710636 0.06195154 -0.044289198 0.00639796 -0.006609011 0.18644668
-0.12702724 0.082547575 0.10160736 0.0028759416 0.10057955 0.11721947 0.03499393 0.071472585
0.08133953 0.007677742 -0.014551943 -0.118037246 0.043023493 -0.05353265 0.060701646 0.086018376
0.24272782 -0.017780947 0.044520855 0.0214731 0.13162832 0.0658192 0.028283592 -0.12082474
0.02751748 0.13619664 -0.08146898 -0.008229927 0.12981723 0.094236076 -0.046986606 -0.06361843
0.034854863 0.1115998 0.06415307 -0.037196603 0.058155477 0.02625819 0.018762343 0.10113801
0.08269106 -0.07342779 -0.010258663 0.020994695 -0.0891322 0.05495648 -0.057974473 -0.041321874
0.06456233 0.0016192355 0.057566267 -0.07526021 -0.045851655 0.007258787 -0.015514492 -0.014335903
-0.0553892 -0.016041303 -0.09358488 0.05495306 -0.0384024 -0.11360587 -0.0791804 -0.048653245

fc2.bias f4 [84]
00000000: a310 b03d 2ced 6ebd 117a b9bd 17e8 85bc
00000010: 66a7 7bbd e84e ca3d c21a 9b3d e072 aebd
00000020: dc89 ad3d 8149 3abd 12e4 00bd 23ae 063d
00000030: 4836 863d a3e3 643c ac5f 363d a7d7 133d
00000040: d314 bbbc 8360 c73d 9104 39bd 438c 6e3d
00000050: cd35 0abe acef 4e3b 484c a8bc 26a8 5abd
00000060: 7592 a1bc 7ad8 723d 3211 cebc e6f9 283d
00000070: 93fb 51bd d368 373d 3cb1 94bd 73fd e0bd
00000080: e7bf 823d 0952 d2bd a69f 39bd b29b 7ebd
00000090: 5fb9 8dbd 588b a93d 9b50 d73c 9233 c5bd
000000a0: f1e0 d23c 4ef8 3e3d 2ba8 98bd ed85 99bd
000000b0: cd8e 263d 7cc5 57bd 309e 4d3d 201f 49bd
000000c0: 8229 063e b923 42bd 178f 133d 00be 3a3d
000000d0: 1e2b 733d 8ea9 17bd 087e a5bc 036a 013d
000000e0: af25 3d3d c197 09bd bc08 7bbd 44b5 56bd
000000f0: 6425 a43d 4176 b43d 1252 703c 6f80 e2bd
00000100: bd69 2ebc 1aac c3bd 79ad 853d 5f47 863d
00000110: 66ad a4bd 7e0f 3abd e3ad 3bbc a58b ba3c
00000120: d0b6 3cbc 21ea 233d 7478 7ebc 0f23 733d
00000130: c975 1438 3e26 9d3b fcd5 c13c e280 40bd
00000140: ae38 44bd cf2e ca3d 0bd3 523d 2ec6 82bd
0.08596923 -0.058331653 -0.090564854 -0.01634602 -0.06143894 0.098783314 0.07573463 -0.085180044
0.0847356 -0.045480255 -0.031467505 0.032880913 0.06553322 0.013970288 0.044524834 0.036094334
-0.022837078 0.09735205 -0.04517037 0.058239233 -0.13497086 0.003157596 -0.020544186 -0.053383015
-0.019723156 0.05928848 -0.025154684 0.041253947 -0.05126531 0.044777703 -0.07260367 -0.109858416
0.06384259 -0.10269553 -0.04531827 -0.0621602 -0.06920122 0.08278531 0.026283553 -0.09628977
0.025742026 0.04662352 -0.074539505 -0.074962474 0.04066353 -0.05267857 0.050199687 -0.04910195
0.13101771 -0.04739735 0.036025133 0.045591354 0.05936729 -0.037026934 -0.020201698 0.03159524
0.046178516 -0.03359199 -0.061287627 -0.052418962 0.08014944 0.08811618 0.014668005 -0.11059653
-0.010645327 -0.0955431 0.06527228 0.06556582 -0.080408856 -0.04542493 -0.011455032 0.022771666
-0.011518195 0.040018205 -0.015531648 0.059359606 3.5395646e-05 0.0047958186 0.023661606 -0.046997912
-0.047905616 0.09872209 0.051470798 -0.06385456

fc3.weight f4 [10, 84]
00000000: d4cb e23d 5947 053c 69c8 abbd 6262 713d
00000010: 37db a3bd d9cc e1bd c417 1abe 7ea3 01be
00000020: d532 d6bc ff19 3a3d 939a 18bd 281b d13d
00000030: b6be 94bd 743e a3bc ace7 043e 1bfb 51be
00000040: 0da3 edbd 8744 25be 38ef 22be aa84 e1bc
00000050: 73b4 33bd 9a5c ed3d 0e97 e1bc 8ec1 7fbc
00000060: 3af0 71bd bcdf d13d d04d fc3d 1322 973d
00000070: c87b ddbd 6d14 57bd ac80 a1bd 30ff 893b
00000080: bdc3 11be b348 6cbd 8d7f b03c 8c81 c13c
00000090: 906c 3fbb 8771 da3d 3b5e 96bd 2251 7fbb
000000a0: 2f8b 0a3a acf5 08be 69aa 8cbd 930f 91bd
000000b0: 5bd5 50bc bd16 b83c 577e 3ebe 0fd8 a8bc
000000c0: ac97 f9bd e0f5 273d 657d ab3c a036 eabd
000000d0: b055 0f3d d22a 48bd 9ede 4cbe c583 573d
000000e0: cbb9 d93c aea0 dabd de0c bc3d 93ee e03d
000000f0: c524 df3d cc80 a43d 543d 7e3d 5257 0cbe
00000100: 1e74 d0bc 9cf4 c5bb 0f10 e83d 20f6 63bb
00000110: 2f7a 0e3d 2208 ce3c 160b 81bd d345 05be
00000120: 1285 d1bd 07b9 f4bd b6a3 8cbd e05b 9cbb
00000130: a2d5 33bd ca01 07be 2f2d d6bd f780 13be
00000140: c6f5 b93c 07a7 6cbd 704e 5a3c 86f9 12be
00000150: e69d 0dbe 4e8b 223e 5692 c9bd a05e e43d
00000160: 171b 19bd aca5 2c3d e88c 703d 3a2c 243e
00000170: de9c b1bd 13cb 2abe 0bcf 43be c316 20bc
00000180: cecb 39bd d692 16be 4bd3 8cbc ddbf bfbd
00000190: 9562 cbbd 1223 ca3c 580b a7bd cd55 e0bd
000001a0: 6e3f ccbd ae84 9f3b c08d bf3d d7f6 9e3d
000001b0: cbfe cabd 6d41 873d 061d 233e 3608 0a3e
000001c0: 779c 4abd 5c35 cabd 5f89 fa3d 815b 843c
000001d0: 7f5c 9d3d 045a edbd fc1f aabd b947 6dbe
000001e0: 9b33 bf3d 1e46 4ebd 35ee 453c 3a04 bbbd
000001f0: 062f 42be c43a 40be 0f65 cbbd 19f2 2a3d
00000200: 6f86 d0bd 0153 6bbd 5eda 70be a48d d53c
00000210: d8f5 b63a 7e11 f7bd 321e 863d b83d c3bb
00000220: b066 71bd 7c94 d5bc 5a39 ea3a 90b3 993d
00000230: c1a1 58be 3cb4 0b3e 061d cebc 70fb a6bd
00000240: 85e4 72be 153f 043e 4f55 15be 501d 36bd
00000250: c8c7 fa3d c904 a13c a10b a0bd ae31 41be
00000260: 1fdc b83d f0cb 223a c394 a3bd dd8d 743d
00000270: 29b2 0c3d 650f 103d 1d98 91bd ecf8 153d
00000280: 8707 4bbe c233 0abe 2657 fabd 7c8a aa3d
00000290: e9ea 91bd 6c49 11be eb65 93bd 440f 66be
000002a0: c25c 02bd f43f 6ebd 492c b5bd 6593 523d
000002b0: abe7 11bd 288a 073e 0bbb cfbd aae4 82bd
000002c0: 1890 adbd c1fd 3ebe 72dd ce3d 1c8b bbbd
000002d0: 512c 1d3e 1b02 9bbb c51d 5f3c e989 84bd
000002e0: 1762 1eb9 baae 61bd 262b 71bd 4621 cd3d
000002f0: 7e37 eebd 7d59 043e 035d a73c 9c18 b43d
00000300: d2be 75be 5158 babd 3496 1fbe a5db 10be
00000310: 669d 8bbc 0385 813d 9a8f dcbd c8c3 32bd
00000320: 1419 a6bd 8cde 98bd bbdf 893d 1363 7cbd
00000330: 7632 74bd d074 0ebc dc4d 33be cc8f 383e
00000340: 9cc1 e7bd b3ea b4bd e5b3 2abc 807a 18bd
00000350: 38ce 56be b915 d1bc ed26 37be e047 7a3c
00000360: ae72 853d a574 17bd 1c0a 0abe a8b9 0f3c
00000370: 9843 84bd 5f4c 8cbd c348 8abe 3642 8ebd
00000380: 84dd 183d a619 2cbd 54cb bebd 2eb7 ba3d
00000390: d9f5 ee3d 27f6 783d b417 073e 1d35 763c
000003a0: 9442 bb3c eff9 c33d 5b7f 89bd 0eb8 9ebd
000003b0: 9033 e2bd 24bf 743d 099e bebc 2190 a6bd
000003c0: c2c0 80bd efa2 323e da10 debc 130e 31bc
000003d0: 9bc2 28be 4076 f63d eab2 0e3e 7e5c 3abd
000003e0: 7c4c f93d 6ad4 d7bc dc8c 35bd 175c 69be
000003f0: e438 72bd c18f 513d 6160 bf3c 9aec 7c3d
0.110740334 0.008134686 -0.083878346 0.058931716 -0.08000796 -0.110254 -0.15048128 -0.12660024
-0.026147285 0.045434948 -0.03725679 0.10210258 -0.07262938 -0.01992724 0.12979001 -0.20505945
-0.11603365 -0.16139422 -0.15911567 -0.02752908 -0.04387326 0.11589928 -0.027537849 -0.015610112
-0.05906699 0.10247752 0.12319529 0.07379546 -0.10814625 -0.052509714 -0.0788587 0.004211329
-0.14234824 -0.05768652 0.021545196 0.023621343 -0.0029208995 0.10666185 -0.07342192 -0.003895827
0.0005285022 -0.13374966 -0.06868441 -0.07083049 -0.01274618 0.02247178 -0.18602882 -0.020610837
-0.12187132 0.04100597 0.020933816 -0.114362 0.034993827 -0.04886896 -0.20006797 0.0526159
0.02657785 -0.106751785 0.09182142 0.109830044 0.10895685 0.080323786 0.062070206 -0.13705185
-0.025445994 -0.0060411226 0.11331188 -0.0034784153 0.034784492 0.025150362 -0.063009426 -0.13014917
-0.10230459 -0.11949354 -0.06867163 -0.0047716945 -0.043904908 -0.13184276 -0.10457837 -0.14404665
0.022700202 -0.057776477 0.013324365 -0.14352998 -0.13829765 0.15873453 -0.098423645 0.11150861
-0.03737935 0.042150185 0.05872813 0.16032496 -0.08672498 -0.16679029 -0.1912195 -0.009771052
-0.04536038 -0.14704451 -0.017190596 -0.09362767 -0.099309124 0.024674926 -0.081564605 -0.10953865
-0.09973036 0.0048681116 0.093532085 0.07761925 -0.09911879 0.06604276 0.1592904 0.13479695
-0.049465623 -0.09873459 0.12233233 0.016156914 0.07683658 -0.11589435 -0.08306882 -0.23171891
0.09336015 -0.050359838 0.012080719 -0.091316655 -0.1896325 -0.18772417 -0.09931385 0.04173479
-0.10181891 -0.057452206 -0.235208 0.026068516 0.0013958765 -0.12063883 0.06548728 -0.005958285
-0.05893582 -0.02607178 0.0017869875 0.07504952 -0.21155454 0.13642973 -0.025160324 -0.08153427
-0.23719986 0.12914689 -0.14583324 -0.04446155 0.122451365 0.019655602 -0.07814718 -0.18866608
0.0902636 0.00062101986 -0.079873584 0.059705604 0.034349594 0.03517093 -0.071090914 0.036614344
-0.1982709 -0.13496307 -0.122236535 0.08327195 -0.07124884 -0.14188164 -0.07197174 -0.22466761
-0.031826742 -0.05816646 -0.08846337 0.051410098 -0.035621326 0.13236296 -0.101430975 -0.063912705
-0.08474749 -0.18651487 0.10100831 -0.091573924 0.15348937 -0.0047304756 0.013617937 -0.06471617
-0.00015104596 -0.055098273 -0.05887904 0.10016112 -0.11631678 0.12924762 0.020430094 0.08793756
-0.23998573 -0.09098876 -0.15584642 -0.14146288 -0.017042827 0.06324198 -0.10769577 -0.043643743
-0.08110252 -0.074643224 0.06732126 -0.061617922 -0.059618436 -0.008694842 -0.1751017 0.18023604
-0.11316225 -0.08833828 -0.010418867 -0.0372262 -0.20977104 -0.025523053 -0.17885943 0.015275925
0.06516014 -0.036976475 -0.13480419 0.008772291 -0.06458205 -0.06850504 -0.27008638 -0.069462225
0.03732063 -0.042016648 -0.093161255 0.0911697 0.116679855 0.060781624 0.13192636 0.015027312
0.022858895 0.095691554 -0.06713744 -0.077499494 -0.11044991 0.0597526 -0.023268716 -0.08132959
-0.06286766 0.17444967 -0.027107645 -0.010806578 -0.16480486 0.12034273 0.13935438 -0.045498364
0.12172791 -0.026346404 -0.044323787 -0.22789036 -0.059136286 0.051162485 0.023361387 0.06174908

fc3.bias f4 [10]
00000000: 538f 96bd 4233 e6bd 6c43 94bc 68b8 893d
00000010: 72e1 9ebd 78a4 83bd 38fe 8b3d 0f9b 9b3b
00000020: 3f54 83bd 0431 47bc
-0.07351556 -0.112402454 -0.018098556 0.06724626 -0.07757844 -0.06427854 0.06835598 0.004748709
-0.06412553 -0.012157682
