HW1_Split_nb/checkpoints/model_dropout_8.pt (torch, 250600 bytes, 10 tensors)

conv1.weight f4 [6, 1, 5, 5]
0.303462 0.23265882 0.3284348 -0.108704925 -0.10513176 -0.0041402555 0.00040777217 0.28423998
0.032853805 -0.09560871 -0.22312991 -0.29421812 0.28567812 -0.010710668 0.21718034 -0.4563055
-0.40312025 0.10494301 0.055156153 0.07503257 -0.28137925 -0.21500419 0.33053768 -0.038505975
-0.060584996 0.46375972 0.0026715386 -0.2922465 -0.096541844 -0.16229102 0.30080074 -0.070926055
-0.4010349 0.10713003 0.11984986 -0.13146406 -0.3041769 -0.1942224 0.2610557 0.3185003
-0.10312771 -0.45512795 -0.26690274 0.48962072 0.33222803 -0.0285232 -0.30952185 -0.04214189
0.15086707 0.094876915 0.05677481 0.115882605 -0.58385533 -0.10645583 -0.3989004 -1.0669423
-2.5373435 -2.3782167 -0.45674157 0.10714996 -0.18999974 -1.9849406 -1.5743421 -0.045984805
0.18283716 0.21521406 -0.17263857 -0.040487517 -0.048613157 0.23758009 0.5463104 0.27504244
0.1408258 -0.16635601 0.28002825 -0.28310305 0.12240763 -0.15224922 0.076236136 0.14763303
-0.13067408 -0.1819521 -0.081137605 0.21386725 0.024710637 -0.11657859 -0.22724786 0.012743265
0.07032865 0.22389781 -0.056864873 0.18418701 0.056300696 0.26763204 0.14593634 0.115088746
-0.10371101 0.031538077 -0.05277851 0.19031493 3.697721e-05 0.061998144 -0.22309372 0.05614344
-0.0031105694 0.07289151 -0.03205946 0.16979098 0.107656665 0.08950658 0.31983796 0.37460613
0.049152445 0.18746161 -0.24931608 0.11682203 -0.00571532 -0.096461006 -0.30538628 -0.23162986
-0.34910402 -0.19249932 -0.440662 -0.1947304 -0.16395098 -0.16990839 0.065640435 -0.091795735
0.22882901 0.046039376 0.008642445 -0.06157232 0.13985625 0.21541058 -0.08286731 -0.011331896
-0.17292163 -0.008285006 0.21338059 -0.14435382 -0.19280276 -0.1917077 0.08648151 0.26348212
-0.010847283 -0.16240071 0.00020780259 0.13985585 -0.0180836 0.07494697
00000000: 5f5f 9b3e 1d3e 6e3e 9b28 a83e b0a0 debd
00000010: 524f d7bd fbaa 87bb 41ca d539 e787 913e
00000020: b691 063d 80ce c3bd 2b7c 64be c2a3 96be
00000030: 6744 923e cc7b 2fbc 8664 5e3e e0a0 e9be
00000040: c765 cebe 5cec d63d 6beb 613d adaa 993d
00000050: f110 90be 0f2a 5cbe 3c3c a93e 71b8 1dbd
00000060: f927 78bd ea71 ed3e fb14 2f3b 55a1 95be
00000070: bbb7 c5bd 9e2f 26be 8e02 9a3e ae41 91bd
00000080: 7254 cdbe fd66 db3d d873 f53d 849e 06be
00000090: 13bd 9bbe 3de2 46be 18a9 853e 7912 a33e
000000a0: 9f34 d3bd 8806 e9be 7aa7 88be 91af fa3e
000000b0: cb19 aa3e 7ca9 e9bc a679 9ebe f99c 2cbd
000000c0: e67c 1a3e d44e c23d b48c 683d dc53 ed3d
000000d0: 8b77 15bf 8405 dabd ac3c ccbe 9191 88bf
000000e0: d663 22c0 b434 18c0 08da e9be 7071 db3d
000000f0: 4b8f 42be 8912 febf 0b84 c9bf 905a 3cbd
00000100: aa39 3b3e 1361 5c3e 2ac8 30be 3dd6 25bd
00000110: 971e 47bd 3248 733e 00db 0b3f 5dd2 8c3e
00000120: a334 103e 3b59 2abe dd5f 8f3e e2f2 90be
00000130: dab0 fa3d 38e7 1bbe b121 9c3d 1d2d 173e
00000140: 6dcf 05be a751 3abe 792b a6bd 0400 5b3e
00000150: f66d ca3c c1c0 eebd aab3 68be 21c9 503c
00000160: 7808 903d 7845 653e 24eb 68bd 859b 3c3e
00000170: 8f9b 663d 1107 893e 5670 153e a6b3 eb3d
00000180: 7066 d4bd 122e 013d 472e 58bd ebe1 423e
00000190: fa17 1b38 c4f1 7d3d ae72 64be aaf6 653d
000001a0: b2da 4bbb 2548 953d c850 03bd b0dd 2d3e
000001b0: 197b dc3d 3a4f b73d cdc1 a33e 60cc bf3e
000001c0: 1354 493d f0f5 3f3e b74c 7fbe 6340 ef3d
000001d0: 9447 bbbb 598d c5bd 975b 9cbe 6130 6dbe
000001e0: c3bd b2be 8b1e 45be 739e e1be 6867 47be
000001f0: c4e2 27be 77fc 2dbe 7e6e 863d 67ff bbbd
00000200: 2752 6a3e c993 3c3d 0b99 0d3c 4233 7cbd
00000210: 7a36 0f3e 9794 5c3e 56b6 a9bd 6ba9 39bc
00000220: 5e12 31be d5bd 07bc 7180 5a3e 7dd1 13be
00000230: 166e 45be 064f 44be 381d b13d 21e7 863e
00000240: cdb8 31bc 5f4c 26be 95e5 5939 5f36 0f3e
00000250: 0f24 94bc cc7d 993d

conv1.bias f4 [6]
-0.03660226 0.028913533 0.33788618 -0.22791772 -0.09184979 0.05748223
00000000: 40ec 15bd 13dc ec3c 6bff ac3e 4363 69be
00000010: be1b bcbd 7d72 6b3d

conv2.weight f4 [16, 6, 5, 5]
0.009874918 -0.27399328 -0.48419058 -0.15791625 0.80101544 -0.04379476 -0.054289926 -0.33147135
-0.1715144 0.116755076 -0.21440725 0.055190124 -0.0554489 -0.52452105 -0.1485228 -0.07057768
0.24448454 -0.056441896 -0.88140845 -0.72341913 -0.024876045 0.4337453 0.3674504 0.008084912
-0.10677786 0.14823003 0.11752894 0.30748513 -0.106987976 0.02924801 -0.010836802 0.09417068
0.010315728 0.21378101 0.02191666 0.017827503 0.040002406 -0.256365 -0.14167976 0.22224563
0.011783997 0.19889525 -0.14303179 -0.88026667 -0.30657703 -0.02905462 0.29573968 -0.2553634
-1.2361237 -0.7675222 0.022911869 0.33137572 -0.14317735 -0.21921158 0.29884702 -0.18772095
0.084574066 -0.71041465 -1.0879471 -0.72828 -0.29050738 -0.27384472 -0.09999201 -0.19117951
-0.54254067 -0.37783468 -0.2224629 0.3770083 0.08611419 -0.41307518 -0.40043676 -0.17829902
-0.20530091 -0.21217367 -0.61444235 0.027759532 -0.2451472 -0.18190104 -0.06472413 -0.20504689
0.14310871 -0.036437344 0.015427231 -0.22439265 -0.16694434 0.0163405 0.1603257 0.045883205
-0.16022742 -0.14260766 0.020377781 0.13090636 0.22560081 -0.14261103 -0.07396568 -0.24323897
0.106571704 0.26277015 -0.20034957 -0.08026713 -0.09475741 0.08277369 0.012223236 -0.23225312
-0.18110375 -0.032121345 0.030237574 0.17567958 -0.08208721 -0.0064294394 -0.11663507 -0.0074104792
0.094112076 -0.092301495 0.19175877 -0.21869136 -0.13874778 0.013340134 -0.03769634 0.25502273
-0.38725019 -0.2763849 0.13286431 0.37052566 0.329125 0.017335065 -0.11551387 -0.10529737
-0.16301641 -0.23716256 0.108058274 0.058345307 0.08990918 -0.032031775 -0.11246941 0.066751696
0.12390831 0.08547324 -0.13584651 -0.044124886 -0.017129015 0.11431947 0.17722821 -0.16610743
-0.051149555 -0.1648446 0.1612798 0.14608802 -0.120799355 -0.15477452 -0.22213021 0.07772642
-0.3166982 -0.15278682 -0.0038645712 -0.06639247 0.09503633 -0.16016275 -0.19505835 0.046804067
0.0057483497 -0.03468016 0.23548561 0.082109995 0.12419391 -0.34934083 -0.011420053 0.25712106
0.105244964 0.35471794 -0.30745932 0.20573243 0.20477805 0.11069971 0.26569545 0.33065647
-0.05634322 -0.1904017 0.03582559 -0.08747913 0.1491376 -0.21797706 -0.2148802 -0.04322744
0.16173333 0.0070945886 -0.37505913 0.0072535938 0.055545483 0.20151372 -0.4701455 -0.06972691
0.09037241 0.035143655 0.1718858 -0.9075108 0.14676872 -0.005537685 0.23928158 0.22882666
-0.12594028 -0.18438862 0.27690512 0.31607887 0.037308518 -0.4488163 -0.5099509 0.14085257
-0.016939668 -0.97355753 -0.5698217 -0.6250674 -0.60157937 -0.35731262 -0.9122361 -0.16528496
0.24548595 -0.025476206 -0.15863656 -0.7012976 0.30992144 0.4493897 0.0061797625 -0.32365978
-0.723369 0.1926271 0.08254034 -0.2326663 -0.1122479 -0.23731908 0.13489069 -0.09577467
-0.16666175 -0.01193211 -0.27671608 0.16385296 0.002683438 -0.17071174 0.011192378 -0.139999
0.05092089 -0.03376544 0.06900647 0.03960156 -0.22912541 -0.089041635 0.13162883 0.11132319
-0.025621831 -0.078326024 0.11542633 0.1271683 0.10604002 -0.14874054 -0.23327987 0.14678518
00000000: 68ca 213c d948 8cbe d4e7 f7be ccb4 21be
00000010: 590f 4d3f 2262 33bd 1d5f 5ebd 9db6 a9be
00000020: 79a1 2fbe 491d ef3d 938d 5bbe 0a0f 623d
00000030: 631e 63bd 0347 06bf 5c16 18be 088b 90bd
00000040: 285a 7a3e 9e2f 67bd fca3 61bf ff31 39bf
00000050: d9c8 cbbc dd13 de3e 7522 bc3e 9476 043c
00000060: 5aae dabd 9dc9 173e 03b3 f03d b16e 9d3e
00000070: 831c dbbd 8699 ef3c d88c 31bc 8fdc c03d
00000080: 4d03 293c 69e9 5a3e 918a b33c fc0a 923c
00000090: 90d9 233d 4642 83be 8014 11be 5c94 633e
000000a0: aa11 413c 32ab 4b3e ed76 12be 2859 61bf
000000b0: aaf7 9cbe f403 eebc 316b 973e febe 82be
000000c0: 4d39 9ebf 567c 44bf acb1 bb3c 14aa a93e
000000d0: 159d 12be 0079 60be 7a02 993e ec39 40be
000000e0: 2b35 ad3d bcdd 35bf da41 8bbf 8f70 3abf
000000f0: 62bd 94be 6035 8cbe 9cc8 ccbd 90c4 43be
00000100: f2e3 0abf 8c73 c1be 51cd 63be 3b07 c13e
00000110: a35c b03d 977e d3be 0c06 cdbe 0594 36be
00000120: 673a 52be 0e44 59be 184c 1dbf f567 e33c
00000130: de07 7bbe 4444 3abe 168e 84bd d0f7 51be
00000140: 178b 123e 533f 15bd 7fc2 7c3c 30c7 65be
00000150: 75f3 2abe 83dc 853c 6c2c 243e 07f0 3b3d
00000160: a812 24be be07 12be 4eef a63c 510c 063e
00000170: e603 673e a008 12be 527b 97bd a313 79be
00000180: 4442 da3d cf89 863e 7028 4dbe 1863 a4bd
00000190: 2c10 c2bd 4185 a93d f843 483c c3d3 6dbe
000001a0: 4373 39be ac91 03bd cab4 f73c 59e5 333e
000001b0: 571d a8bd 0cae d2bb 5ede eebd 9bd3 f2bb
000001c0: d5bd c03d 9108 bdbd 695c 443e a1f0 5fbe
000001d0: e613 0ebe 9490 5a3c 7a67 1abd 5792 823e
000001e0: a845 c6be 5282 8dbe 950d 083e 8ab5 bd3e
000001f0: 1283 a83e 4402 8e3c 8992 ecbd 26a6 d7bd
00000200: c6ed 26be beda 72be a84d dd3d 7dfb 6e3d
00000210: 4e22 b83d c033 03bd 5d56 e6bd 1db5 883d
00000220: a4c3 fd3d 980c af3d 591b 0bbe 4cbc 34bd
00000230: 2652 8cbc 5420 ea3d 507b 353e 1118 2abe
00000240: 3282 51bd 06cd 28be 8826 253e 1998 153e
00000250: a765 f7bd 367d 1ebe 1a76 63be 072f 9f3d
00000260: 4426 a2be 2674 1cbe bf44 7dbb c6f8 87bd
00000270: 68a2 c23d b401 24be 60bd 47be 9fb5 3f3d
00000280: a75c bc3b c90c 0ebd 2423 713e 4929 a83d
00000290: 6059 fe3d cddc b2be 2d1b 3bbc 5fa5 833e
000002a0: ac8a d73d 979d b53e 4f6b 9dbe 86ab 523e
000002b0: 56b1 513e 88b6 e23d 3c09 883e ce4b a93e
000002c0: 26c8 66bd aaf8 42be dbbd 123d 4228 b3bd
000002d0: 87b7 183e 6135 5fbe 8e09 5cbe 420f 31bd
000002e0: 6c9d 253e b979 e83b c007 c0be 8eaf ed3b
000002f0: a983 633d 9d59 4e3e e9b6 f0be fbcc 8ebd
00000300: 2c15 b93d cbf2 0f3d d502 303e a152 68bf
00000310: 8a4a 163e 7875 b5bb 3b06 753e 8951 6a3e
00000320: 7df6 00be 5fd0 3cbe 82c6 8d3e 17d5 a13e
00000330: d1d0 183d 40cb e5be 248c 02bf a83b 103e
00000340: 0fc5 8abc 113b 79bf d6df 11bf 6b04 20bf
00000350: 1b01 1abf aef1 b6be 4e88 69bf 7640 29be
00000360: ab60 7b3e 7ab3 d0bc 9f71 22be 3d88 33bf
00000370: 06ae 9e3e 6816 e63e 9b7f ca3b bcb6 a5be
00000380: b62e 39bf 0a40 453e e90a a93d 1340 6ebe
00000390: 3ae2 e5bd c603 73be c920 0a3e 8325 c4bd
000003a0: 61a9 2abe e67e 43bc bbad 8dbe 12c9 273e
000003b0: 9edc 2f3b 0fcf 2ebe 3c60 373c e65b 0fbe
000003c0: 6c92 503d a14d 0abd 4453 8d3d 3f35 223d
000003d0: da9f 6abe 765b b6bd b5c9 063e 6afd e33d
000003e0: e0e4 d1bc 6569 a0bd a464 ec3d 6838 023e
000003f0: 832b d93d 714f 18be ebe0 6ebe db4e 163e

conv2.bias f4 [16]
0.23247315 0.12739703 -0.073054805 -0.14780352 0.31461343 -0.047387198 0.121860296 -0.06864727
-0.12006843 -0.09847495 -0.024769632 0.1107657 0.25727686 -0.104772225 0.02555643 0.19291972
00000000: 710d 6e3e 5e74 023e c29d 95bd ce59 17be
00000010: 0315 a13e 1419 42bd e491 f93d f196 8cbd
00000020: 70e6 f5bd 3cad c9bd afe9 cabc 21d9 e23d
00000030: cbb9 833e d292 d6bd b85b d13c bf8c 453e

fc1.weight f4 [120, 400]
-0.14306237 0.10957847 0.16104557 -0.40384412 -0.12736566 -0.049417965 -0.45474845 -0.087531194
-0.39633015 0.02591501 -0.06596073 -0.23725508 0.019493675 -0.26438776 -0.16129813 -0.03579551
-0.1312821 -0.11804297 -0.031661868 0.14899537 0.13571131 -0.16588509 0.027632175 0.14682741
0.16413364 0.1300903 0.12041693 -0.5149215 -0.17494722 0.06504436 -0.0049948986 0.0010377341
-0.041654315 -0.179348 -0.021017434 -0.28255334 -0.11905862 0.24758407 0.07930924 0.090347685
0.08023609 -0.0042871283 0.15867491 0.13925962 -0.18659383 0.009075666 0.1607163 -0.024427032
0.10551646 -0.040210325 -0.22760291 0.00928471 0.008562883 0.36329064 -0.044045687 -0.113724895
-0.31506252 0.038956746 0.12996063 -0.14806221 -0.18441793 -0.09267606 -0.14025666 -0.6958464
-0.27037582 -0.04715974 0.0650121 -0.020967988 -0.11454509 -0.14399071 -0.043994542 -0.09628677
-0.19300687 -0.15377936 -0.14668936 -0.15526557 0.13384195 0.22334056 -0.12966922 0.06433176
0.1626054 0.35194188 0.0891033 0.18252234 0.1230483 -0.04507699 0.5360486 0.20598842
0.16770121 0.10951321 -0.106792495 0.004810257 -0.021582086 -0.004517163 -0.066932246 -0.051184162
-0.073635235 -0.13807802 -0.16335192 0.047051176 -0.20466179 -0.15304554 0.10911204 -0.015070092
0.1329046 -0.14250371 0.061261497 0.07026898 -0.18474738 -0.084059484 -0.039199583 0.2884863
-0.048887886 -0.1857631 -0.045231547 0.23534285 0.19639379 0.050718468 0.013204388 -0.14777847
0.17165032 0.22404793 -0.091039725 -0.015915912 0.048835274 -0.43537715 0.0027371119 0.041898888
-0.19691683 -0.21187651 -0.24566464 -0.06908191 -0.031454764 -0.13009459 -0.01115748 -0.22897385
0.06356963 0.3199206 0.025851568 -0.1578686 0.009551225 0.2279898 0.16593985 0.1506472
-0.20104045 0.036765117 0.046136968 0.16963574 -0.044076163 0.22402234 -0.40747595 -0.4231879
0.054461744 -0.04621487 -0.01970523 -0.31844643 -0.1966152 -0.04826818 0.027875936 0.1303187
-0.17408866 0.061316162 -0.103657745 -0.03669127 -0.017271947 0.2693889 0.112895206 0.04962117
-0.15978816 -0.001486974 0.14106962 0.18103196 0.15662037 -0.23743607 -0.11877287 -0.040324155
-0.16004911 0.014279381 0.009570865 -0.20778136 -0.12559777 0.027522093 0.04638081 0.18806191
-0.115563184 0.030595317 0.095071666 0.07717874 -0.4878142 -0.090206295 0.13364704 0.06780326
0.026321363 -0.17326091 -0.17954303 0.29028898 -0.072422035 0.13195409 -0.14146852 0.20141353
-0.095055595 -0.19965735 0.14344272 -0.03716447 0.09239536 0.064189754 -0.4094042 0.28908655
0.20598099 0.007528638 0.26457724 -0.082916066 0.24457403 0.112720214 0.0012660302 -0.18243778
-0.046456035 0.07665545 0.07896399 0.12124986 -0.09249374 -0.120828606 -0.060293034 -0.04079771
0.11274 0.2087071 -0.121725544 0.00944539 -0.018182686 0.18463123 -0.11703119 -0.0010694397
0.13290046 -0.10899544 -0.07816954 0.02105715 0.52480644 0.22610635 -0.2032564 -0.050852705
0.04172426 0.25722778 -0.09432185 -0.1799486 -0.03405478 0.14954218 0.01626284 -0.06801879
-0.35069105 -0.079553045 0.09369388 -0.25003436 -0.11474518 0.27077273 -0.0704604 -0.048197526
00000000: f17e 12be ad6a e03d 21e9 243e a8c4 cebe
00000010: 256c 02be 7e6a 4abd cad4 e8be 8e43 b3bd
00000020: c9eb cabe b74b d43c 6b16 87bd fff2 72be
00000030: 33b1 9f3c d55d 87be 562b 25be 509e 12bd
00000040: d16e 06be 83c0 f1bd e0af 01bd 3e92 183e
00000050: e8f7 0a3e c8dd 29be df5c e23c ed59 163e
00000060: a612 283e 6436 053e 279d f63d e5d1 03bf
00000070: 5d25 33be fa35 853d 3fac a3bb 9404 883a
00000080: b79d 2abd 01a7 37be c12c acbc d5aa 90be
00000090: 01d5 f3bd ae86 7d3e e26c a23d 3508 b93d
000000a0: d252 a43d 0a7b 8cbb ad7b 223e 139a 0e3e
000000b0: 7412 3fbe 1ab2 143c d092 243e 331b c8bc
000000c0: 0419 d83d 95b3 24bd bd10 69be e51e 183c
000000d0: 564b 0c3c 3b01 ba3e 4069 34bd 99e8 e8bd
000000e0: e04f a1be 1c91 1f3d 6614 053e 9f9d 17be
000000f0: 0ed8 3cbe f2cc bdbd 719f 0fbe fd22 32bf
00000100: b36e 8abe 922a 41bd 1025 853d 0fc5 abbc
00000110: 9e96 eabd 4d72 13be 9f33 34bd 0032 c5bd
00000120: 98a3 45be 5678 1dbe bc35 16be f0fd 1ebe
00000130: dd0d 093e 63b3 643e 02c8 04be 5fc0 833d
00000140: 0882 263e ba31 b43e ca7b b63d 23e7 3a3e
00000150: bf00 fc3d a6a2 38bd 7b3a 093f a1ee 523e
00000160: deb9 2b3e 7648 e03d 06b6 dabd 5c9f 9d3b
00000170: eacc b0bc b604 94bb c613 89bd 7ca6 51bd
00000180: 12ce 96bd 5364 0dbe ba45 27be bcb8 403d
00000190: dc92 51be f8b7 1cbe 2276 df3d 8ce8 76bc
000001a0: 2518 083e 7eec 11be 56ed 7a3d 2fe9 8f3d
000001b0: 6b2e 3dbe 6127 acbd be8f 20bd 7ab4 933e
000001c0: aa3e 48bd af38 3ebe b744 39bd b7fd 703e
000001d0: 741b 493e 2bbe 4f3d 3857 583c 3d53 17be
000001e0: 1ac5 2f3e d26c 653e 0973 babd 1662 82bc
000001f0: 7f07 483d c1e9 debe 1e61 333b 2b9e 2b3d
00000200: 91a4 49be 28f6 58be 838f 7bbe d17a 8dbd
00000210: b6d6 00bd 8437 05be ddcd 36bc 1f78 6abe
00000220: cb30 823d a2cc a33e abc6 d33c 4ea8 21be
00000230: be7c 1c3c 2876 693e 23ec 293e 4243 1a3e
00000240: 8cdd 4dbe 0597 163d 1efa 3c3d feb4 2d3e
00000250: 3589 34bd 1d66 653e b0a0 d0be 16ac d8be
00000260: 4713 5f3d ce4b 3dbd dd6c a1bc 690b a3be
00000270: 7f55 49be dbb4 45bd 135c e43c 4472 053e
00000280: 4c44 32be a826 7b3d 834a d4bd 9649 16bd
00000290: e67d 8dbc 58ed 893e 9a35 e73d 913f 4b3d
000002a0: 829f 23be 91e6 c2ba 8e74 103e 7160 393e
000002b0: 1761 203e 7122 73be 313f f3bd f12a 25bd
000002c0: eae3 23be 11f4 693c 1ecf 1c3c a3c4 54be
000002d0: b49c 00be 0376 e13c cef9 3d3d 4d93 403e
000002e0: 64ac ecbd 08a3 fa3c efb4 c23d e30f 9e3d
000002f0: c8c2 f9be 14be b8bd c5da 083e 70dc 8a3d
00000300: e69f d73c 4f6b 31be 21da 37be c2a0 943e
00000310: 0152 94bd f91e 073e 20dd 10be 593f 4e3e
00000320: 82ac c2bd fa72 4cbe a6e2 123e c539 18bd
00000330: c739 bd3d eb75 833d 6d9d d1be 2703 943e
00000340: aeec 523e cbb2 f63b ab76 873e e6cf a9bd
00000350: 9d71 7a3e dbd9 e63d edf0 a53a f8d0 3abe
00000360: af48 3ebd 88fd 9c3d dfb7 a13d d951 f83d
00000370: 5c6d bdbd fd74 f7bd d4f5 76bd 801b 27bd
00000380: 3be4 e63d 50b7 553e 3e4b f9bd d6c0 1a3c
00000390: dbf3 94bc f80f 3d3e 0cae efbd 712c 8cba
000003a0: 0f17 083e 0039 dfbd 5a17 a0bd 0b80 ac3c
000003b0: b759 063f 6c88 673e 7222 50be ed4a 50bd
000003c0: 0fe7 2a3d 5cb3 833e d02b c1bd 7244 38be
000003d0: 067d 0bbd 9621 193e a639 853c 6f4d 8bbd
000003e0: c78d b3be b5ec a2bd 94e2 bf3d 8104 80be
000003f0: 85ff eabd b9a2 8a3e 8b4d 90bd c56a 45bd

fc1.bias f4 [120]
0.12949578 0.17014992 -0.029217036 -0.05189677 -0.12760137 0.14096835 0.0987391 -0.010512448
0.02092342 0.11679723 0.16231422 0.13895823 0.16304365 0.08702531 0.06609889 0.1374822
0.10229008 0.017806785 0.37061733 0.19782658 0.1867058 0.099227525 -0.03917775 0.13711154
0.027640877 -0.10295862 -0.12491723 0.14996049 -0.10266673 0.0039470685 0.14436884 0.3331524
0.075373754 0.16833003 0.13231555 0.1909532 0.2681049 0.10777576 0.04449779 -0.09939519
0.20267664 0.29956 0.24108061 0.059851225 0.19790676 0.00023179821 0.122170314 0.21431868
-0.111507654 -0.033505596 0.17816639 -0.038873382 -0.06536035 0.13953301 0.0074764453 0.1697037
0.12388415 0.19613808 -0.049297515 0.033037376 0.08887928 0.18199852 -0.10292899 0.17781174
-0.08504376 0.1586588 0.17183822 0.051973656 0.075658984 0.14950553 0.09280572 0.17095567
-0.044297624 0.12216129 0.041972693 0.14127335 0.17800598 0.14294526 -0.032089457 0.06537484
0.07620727 0.21266536 -0.038343 0.15549776 0.051223807 0.11904047 0.18891947 0.13127856
0.05852705 0.094728224 0.2530007 0.11665083 -0.05069384 -0.08536757 0.12693289 0.06448556
0.10927134 0.26828018 -0.060689166 0.07075431 0.1902147 -0.068594165 0.040857337 0.08791106
0.085687995 -0.003078541 0.1819575 -0.03951617 0.10351508 0.18056728 0.07233256 -0.057922445
-0.04830765 0.16271305 0.108336985 0.2205417 0.06319081 0.015025525 -0.05772888 0.13188173
00000000: 8b9a 043e c83b 2e3e 9158 efbc b591 54bd
00000010: efa9 02be 025a 103e ba37 ca3d 673c 2cbc
00000020: 9867 ab3c 6333 ef3d b335 263e 114b 0e3e
00000030: eaf4 263e 533a b23d db5e 873d 22c8 0c3e
00000040: 767d d13d 89df 913c 8ec1 bd3e 0d93 4a3e
00000050: ce2f 3f3e cd37 cb3d d978 20bd f866 0c3e
00000060: 1f6f e23c f8db d2bd 9bd4 ffbd 3e8f 193e
00000070: ef42 d2bd 6956 813b 6dd5 133e f492 aa3e
00000080: 8e5d 9a3d b55e 2c3e ba7d 073e 3c89 433e
00000090: 0c45 893e 8ab9 dc3d 5143 363d b58f cbbd
000000a0: 778a 4f3e ee5f 993e d6dd 763e 8f26 753d
000000b0: 12a8 4a3e dc0e 7339 6e34 fa3d 5b76 5b3e
000000c0: 205e e4bd 2a3d 09bd 4071 363e b239 1fbd
000000d0: a6db 85bd bee1 0e3e f8fc f43b cfc6 2d3e
000000e0: f9b6 fd3d 6cd8 483e 31ec 49bd 3352 073d
000000f0: 5706 b63d d25d 3a3e 6fcc d2bd 4814 363e
00000100: 6c2b aebd 7477 223e 5cf6 2f3e 54e2 543d
00000110: 19f3 9a3d fa17 193e ed10 be3d 010f 2f3e
00000120: 6d71 35bd b32f fa3d 8feb 2b3d f6a9 103e
00000130: 3347 363e 3e60 123e 3c70 03bd 3ee3 853d
00000140: 8f12 9c3d f3c4 593e 8d0d 1dbd ce3a 1f3e
00000150: 0ed0 513d 7dcb f33d 1b74 413e e36d 063e
00000160: 0fba 6f3d df00 c23d 4f89 813e a1e6 ee3d
00000170: 58a4 4fbd 31d5 aebd b2fa 013e 0111 843d
00000180: a7c9 df3d 055c 893e 3495 78bd a3e7 903d
00000190: a4c7 423e 197b 8cbd 065a 273d b70a b43d
000001a0: 307d af3d 59c1 49bb 1153 3a3e b5db 21bd
000001b0: b7ff d33d a1e6 383e 1823 943d 1640 6dbd
000001c0: 3ede 45bd 409e 263e c8df dd3d afd5 613e
000001d0: 2f6a 813d 9f2d 763c 1e75 6cbd 010c 073e

fc2.weight f4 [84, 120]
-0.45401585 -0.08381212 0.048711237 0.2030157 -0.25752267 0.08441821 0.13162504 -0.39013416
0.21803653 -0.06370106 0.29072747 -0.17361158 -0.27715826 -0.2111615 -0.42961553 -0.381133
-0.15240836 0.2471012 -0.1722455 -0.10874176 0.35702437 -0.40206337 0.043371793 -0.3333423
0.24232191 0.0004773034 -0.19587335 0.1275558 -0.042132486 -0.0025238001 0.14597246 -0.054993067
0.17624323 0.0042680884 -0.055086076 -0.03556004 0.23865713 -0.23645933 0.17464332 -0.10919727
-0.10973526 0.017441582 -0.15596488 0.15413265 0.08379255 0.032283235 2.7012373e-05 0.039101485
-0.34966007 -0.11430632 -0.33271956 0.3387827 -0.42333376 0.07408206 0.31019568 0.038149275
0.19831595 0.057782035 0.06995878 0.16651927 -0.25323635 -0.31832817 0.038307536 0.04821961
0.000886572 -0.30653203 -0.17950065 -0.061849214 -0.2759721 -0.26449728 -0.056227572 0.13719228
0.016274631 0.1520321 0.12633331 0.15797937 -0.3099398 -0.5562926 0.24321088 -0.13914505
0.06471377 -0.041325394 0.07520858 -0.1365061 -0.40897295 0.31387055 0.09508297 -0.14275359
0.2893234 -0.29040596 0.18918288 0.080174245 -0.028576681 -0.25261325 -0.2573486 -0.07805926
-0.41727787 -0.12456917 -0.048684802 -0.43711472 -0.000790342 -0.3376679 -0.035633884 0.0038356842
-0.30714864 -0.12379419 0.046468254 -0.065557465 0.14456268 -0.11032801 -0.49153414 0.010133271
-0.10862601 0.09071548 0.005776416 -0.05444736 -0.39419964 -0.019214593 0.017512297 -0.08399728
-0.18394391 -0.08305512 -0.36207327 0.2373362 -0.16488336 -0.075141676 -0.40006262 -0.34875467
-0.13235824 -0.026643662 -0.24708651 -0.15153573 -0.02416813 -0.06079109 0.015939916 -0.21843421
-0.038268063 -0.27316675 0.093920834 -0.26887426 0.0074088373 -0.025073573 -0.026207944 -0.0076209735
-0.15316066 -0.4432899 0.13600077 -0.04462522 -0.1239111 0.063214205 0.12212477 0.11728129
-0.37889013 -0.1592239 0.03423095 -0.050008398 -0.15720639 0.01624331 -0.5158859 -0.013691521
0.17351077 0.16143112 -0.059241235 -0.022012746 -0.1523082 -0.07272852 -0.030306352 -0.04057006
-0.016142206 0.019543892 -0.03215458 -0.24044915 -0.3931388 0.030461665 -0.22000213 -0.11029203
-0.30797067 -0.25105998 0.04536748 -0.22414677 -0.2477435 -0.045997415 -0.008706613 -0.038810406
-0.01856989 -0.11084355 -0.19434954 -0.15362236 -0.048972383 -0.07992956 -0.21092616 -0.09014407
-0.0631801 -0.1686466 0.062731266 -0.062371463 -0.0009800846 -0.05423806 -0.45985216 -0.13614126
-0.3157013 0.14033441 0.081643075 -0.26720485 -0.21767208 -0.12939823 0.024034154 0.043955036
-0.12907812 0.059457432 0.25809687 0.13730207 -0.0123136025 0.05045753 0.10937489 0.11641813
0.13266115 -0.033221565 -0.19917512 0.07621392 -0.040783554 -0.22487015 0.11487178 0.114917256
-0.1349987 0.06349738 -0.057668462 0.0602842 -0.1963882 -0.028915182 0.09836404 -0.046735905
0.061122946 0.20011237 -0.3151157 0.05884788 0.011364828 -0.4965998 0.03459152 -0.039081227
-0.12369695 0.102631964 -0.17037795 -0.2603844 -0.023316124 0.048762687 -0.30838484 0.037918456
0.17721172 0.23824118 -0.018816808 0.09369981 0.16376598 0.25595564 0.12347842 -0.0043309424
00000000: c474 e8be b0a5 abbd 6f85 473d 59e3 4f3e
00000010: 03da 83be 74e3 ac3d b7c8 063e aabf c7be
00000020: f844 5f3e b475 82bd 3bda 943e 3cc7 31be
00000030: b0e7 8dbe b83a 58be 91f6 dbbe dd23 c3be
00000040: f010 1cbe 1908 7d3e 2061 30be 00b4 debd
00000050: e6cb b63e 40db cdbe 9fa6 313d d8ab aabe
00000060: 3c23 783e 943e fa39 0693 48be fd9d 023e
00000070: 1d93 2cbd 5766 25bb ce79 153e 6940 61bd
00000080: 1b79 343e 52db 8b3b f0a1 61bd 68a7 11bd
00000090: 8962 743e 6522 72be b3d5 323e d1a2 dfbd
000000a0: e1bc e0bd a6e1 8e3c 42b5 1fbe f3d4 1d3e
000000b0: 6e9b ab3d 6d3b 043d a198 e237 e128 203d
000000c0: a506 b3be 6f19 eabd 385a aabe ed74 ad3e
000000d0: 34bf d8be 56b8 973d f8d1 9e3e 6a42 1c3d
000000e0: 5613 4b3e dbac 6c3d 8d46 8f3d 0784 2a3e
000000f0: 32a8 81be e9fb a2be 5de8 1c3d ed81 453d
00000100: d768 683a c4f1 9cbe 05cf 37be 9a55 7dbd
00000110: 374c 8dbe 306c 87be e24e 66bd 227c 0c3e
00000120: 6052 853c 4eae 1b3e 855d 013e 58c5 213e
00000130: 6eb0 9ebe 3169 0ebf 460c 793e 0a7c 0ebe
00000140: a788 843d d144 29bd f506 9a3d 41c8 0bbe
00000150: e764 d1be a4b3 a03e dcba c23d ff2d 12be
00000160: 3222 943e 17b0 94be 28b9 413e 6532 a43d
00000170: a519 eabc 8656 81be 32c3 83be 89dd 9fbd
00000180: 72a5 d5be 1f1e ffbd b769 47bd 80cd dfbe
00000190: f42e 4fba cfe2 acbe d6f4 11bd 1a60 7b3b
000001a0: 9642 9dbe cf87 fdbd 7f55 3e3d fe42 86bd
000001b0: 3d08 143e a7f3 e1bd 5daa fbbe 0506 263c
000001c0: 5077 debd 0ac9 b93d 1748 bd3b 3204 5fbd
000001d0: 89d4 c9be ec67 9dbc f375 8f3c c406 acbd
000001e0: cb5b 3cbe ce18 aabd ab61 b9be 4308 733e
000001f0: 2fd7 28be e1e3 99bd 02d5 ccbe f98f b2be
00000200: eb88 07be cf43 dabc 3f04 7dbe 2f2c 1bbe
00000210: 3efc c5bc 1400 79bd 6d94 823c 38ad 5fbe
00000220: f9be 1cbd 83dc 8bbe 9159 c03d e3a9 89be
00000230: d5c5 f23b 1867 cdbc 0bb2 d6bc 5cb9 f9bb
00000240: 26d6 1cbe e5f6 e2be c943 0b3e efc8 36bd
00000250: 1ac5 fdbd 7376 813d 8d1c fa3d 2c31 f03d
00000260: e3fd c1be 970b 23be c135 0c3d 9bd5 4cbd
00000270: b6fa 20be b110 853c 1911 04bf 6752 60bc
00000280: cfac 313e 334e 253e f0a6 72bd 1354 b4bc
00000290: aef6 1bbe b1f2 94bd 0745 f8bc cb2c 26bd
000002a0: a93c 84bc 831a a03c 85b4 03bd 4d38 76be
000002b0: 7d49 c9be be8a f93c 3d48 61be cae0 e1bd
000002c0: 55ae 9dbe ef8a 80be 40d3 393d bb86 65be
000002d0: 79b0 7dbe c967 3cbd 2fa6 0ebc a9f7 1ebd
000002e0: e21f 98bc f101 e3bd 9103 47be 2e4f 1dbe
000002f0: 4497 48bd 1cb2 a3bd 07fd 57be 749d b8bd
00000300: 9164 81bd b2b1 2cbe 4079 803d 3879 7fbd
00000310: 2f76 80ba ba28 5ebd be71 ebbe 9d68 0bbe
00000320: 9aa3 a1be d3b3 0f3e 7c34 a73d 13cf 88be
00000330: 6ee5 5ebe f880 04be 46e3 c43c 320a 343d
00000340: 0e2d 04be a389 733d 4625 843e ea98 0c3e
00000350: febe 49bc 8eac 4e3d f1ff df3d a16c ee3d
00000360: 53d8 073e 5613 08bd 90f4 4bbe 0b16 9c3d
00000370: a80c 27bd 5c44 66be e541 eb3d bd59 eb3d
00000380: 193d 0abe ea0a 823d c435 6cbd 91ec 763d
00000390: fd19 49be 88df ecbc 1673 c93d 266e 3fbd
000003a0: 0e5c 7a3d 42ea 4c3e d856 a1be 7a0a 713d
000003b0: 8b33 3a3c 5442 febe d6af 0d3d a313 20bd
000003c0: d454 fdbd b530 d23d 8f77 2ebe 1b51 85be
000003d0: 7501 bfbc 62bb 473d 9ee4 9dbe 6250 1b3d
000003e0: fd76 353e 7ff5 733e b525 9abc b0e5 bf3d
000003f0: 45b2 273e 9e0c 833e 41e2 fc3d 94ea 8dbb

fc2.bias f4 [84]
0.21733865 0.5530177 0.3783723 0.12369405 0.381071 0.14248312 0.58113235 0.38376102
0.35173687 0.37481922 0.5625314 0.2951879 0.4113748 0.30555198 0.038353715 0.19059147
0.5109688 0.26849934 0.3482745 0.35939512 0.24196962 0.43580973 0.39274892 0.44077727
0.16930692 0.20321491 0.043034866 0.22789706 0.12764636 0.089042075 0.46402302 0.32227287
0.271305 0.54192805 0.31901544 0.3605198 0.27695912 0.44798517 0.3275719 0.022477208
0.22447906 0.3975259 0.52323306 0.0074234004 0.27509353 0.31335846 0.25980252 0.22283822
0.5691769 0.5280464 0.23250753 0.32620692 0.33462226 0.23459795 0.27512538 0.33573318
0.56728536 0.17826216 0.3398378 0.024105912 0.3764551 0.36045456 0.10520017 -0.007109728
-0.0496949 0.3155538 0.18682188 -0.16860099 0.07962714 0.32588437 0.15184154 0.26916337
0.47004488 0.300058 0.2741102 0.24993345 0.24650985 0.33882126 0.5727955 0.50060296
0.36656183 0.2022103 0.4593491 0.46406934
00000000: 068e 5e3e 9192 0d3f 04ba c13e 4e53 fd3d
00000010: bd1b c33e 18e7 113e 17c5 143f 537c c43e
00000020: db16 b43e 4ee8 bf3e 0f02 103f de22 973e
00000030: b89f d23e 4f71 9c3e c918 1d3d 692a 433e
00000040: dace 023f bf78 893e 0951 b23e a302 b83e
00000050: e2c6 773e 7422 df3e 6316 c93e 8fad e13e
00000060: cb5e 2d3e 9217 503e 5445 303d d95d 693e
00000070: bab5 023e b15b b63d 6d94 ed3e f300 a53e
00000080: 7de8 8a3e ccbb 0a3f fe55 a33e 0d96 b83e
00000090: 96cd 8d3e 505e e53e 81b7 a73e 1f22 b83c
000000a0: d7dd 653e 8488 cb3e 9af2 053f ff3f f33b
000000b0: 0fd9 8c3e 8570 a03e d604 853e b42f 643e
000000c0: 94b5 113f 0d2e 073f 7416 6e3e 9804 a73e
000000d0: 9c53 ab3e 723a 703e 3cdd 8c3e 38e5 ab3e
000000e0: 9d39 113f 5b8a 363e 38ff ad3e c379 c53c
000000f0: b9be c03e 808d b83e 3073 d73d b9f8 e8bb
00000100: e18c 4bbd 4590 a13e 3c4e 3f3e bda5 2cbe
00000110: 8e13 a33d 51da a63e 597c 1b3e c8cf 893e
00000120: b9a9 f03e 34a1 993e 2c58 8c3e 8eee 7f3e
00000130: 146d 7c3e fb79 ad3e baa2 123f 8427 003f
00000140: fead bb3e 3810 4f3e ce2f eb3e 7f9a ed3e

fc3.weight f4 [10, 84]
-0.18870269 0.06024012 0.18738602 0.022604452 -0.15568659 -0.19974935 0.08399955 0.10400687
-0.3299692 0.1328448 -0.183547 -0.5208613 -0.31863108 -0.025042443 0.092369 -0.08811542
0.11577349 -8.235175e-05 0.15708613 -0.28390968 -0.036845904 0.03990323 -0.16926715 0.13654615
-0.07689068 0.22318888 -0.11475126 0.012408771 0.1374058 -0.11541944 0.022993833 -0.021879232
0.03009508 -0.21063595 0.13473326 0.02923866 -0.121561885 0.11521277 -0.22168286 0.20782815
0.08316812 0.08206127 -0.34479696 -0.19697113 0.013852563 -0.07464019 -0.13329484 -0.009939649
-0.3435883 -0.20806289 0.044505917 0.017786743 -0.055483352 -0.11494842 -0.2279445 0.16125657
0.1432864 -0.035141017 -0.16787833 -0.47770095 -0.07365626 -0.033690758 -0.08352708 -0.35786963
0.02270776 -0.813691 -0.24695621 -0.016138999 0.09130746 0.008045432 -0.5751898 0.07824824
0.118042886 0.028958455 0.01041746 -0.08094713 -0.028026503 0.14318837 -0.39703318 -0.12142723
-0.33567727 0.1041547 0.076641 -0.04014417 0.511752 -0.712276 -0.3450658 0.07463157
-0.058444913 0.022891667 -0.5112406 -0.29858208 -0.34935057 0.07209082 -0.31864265 -0.39931494
0.21966204 0.104877785 -0.25086242 -0.41710693 0.112092026 -0.24627739 -0.26829466 0.20579113
0.19550185 -0.3649434 0.23363474 0.005701224 0.37631074 0.08382221 0.14828292 -0.21940057
0.10851992 -0.099620104 0.20031852 -0.14481165 -0.011296298 -0.2578211 0.1622355 -0.034832086
0.040462866 -0.16592376 0.08859044 -0.35672754 -0.18688104 0.13340384 -0.32186425 -0.10471836
-0.19239901 -0.051648915 -0.24130498 -0.047053076 0.19321674 -0.53633815 0.17483252 -0.13384913
0.07606935 -0.35040015 -0.38169917 -0.091646 -0.20498767 -0.11090473 -0.095061615 -0.31699458
-0.09882228 0.093310565 -0.08866704 -0.32830852 -0.19732954 -0.52069116 -0.17696677 0.17328525
-0.0655607 -0.012119366 -0.4742018 0.0906078 -0.20543033 -0.3160091 -0.040949732 0.09377976
0.107779816 -0.07905954 -0.53633356 -0.20303854 -0.3433722 -0.36907408 -0.37335268 0.28276107
-0.013030136 0.08066577 -0.10575212 -0.34513953 -0.3379335 0.029689243 0.09776864 0.057027057
0.12656133 0.13491154 -0.30160376 -0.28052905 -0.22433192 -0.21913382 -0.24291132 -0.050704524
-0.4290951 0.026806794 -0.33948842 0.019028893 -0.004355538 0.057826642 -0.083724685 0.17583428
-0.08683632 -0.29999018 0.118693456 -0.022491675 -0.03510228 -0.30499423 0.19686392 -0.17337807
-0.3311095 0.19382924 0.13783333 -0.18559758 0.078719944 -0.2931602 -0.14571051 -0.05001218
-0.0105700055 0.09719051 0.15440339 -0.325978 -0.25403866 0.16956118 -0.3445868 -0.14308591
-0.48394474 -0.021434579 -0.37542328 0.19953775 0.12240533 0.26377192 0.11115731 0.14406933
0.13712718 -0.08938512 -0.089072175 -0.13052428 -0.15585731 -0.25928393 0.13447578 -0.27135313
-0.08681358 -0.4406725 -0.14330769 -0.016034132 -0.18737745 0.038898468 -0.167437 0.026919186
0.008746682 -0.3930469 -0.35512716 -0.092832275 0.15697141 0.00031112682 0.11363623 -0.12902343
-0.65524465 0.1959234 -0.20854276 -0.17454964 -0.21074322 -0.1394082 -0.2721533 0.031522043
00000000: 473b 41be 58be 763d 1fe2 3f3e f92c b93c
00000010: 4e6c 1fbe 188b 4cbe f507 ac3d 8e01 d53d
00000020: b9f1 a8be 7808 083e bff3 3bbe 2b57 05bf
00000030: 9d23 a3be cf25 cdbc f52b bd3d db75 b4bd
00000040: a71a ed3d 42b4 acb8 30db 203e 9c5c 91be
00000050: bbeb 16bd 9271 233d 5e54 2dbe c1d2 0b3e
00000060: dc78 9dbd a08b 643e b502 ebbd 284e 4b3c
00000070: 1bb4 0c3e 0761 ecbd 905d bc3c 133c b3bc
00000080: f589 f63c f3b0 57be 84f7 093e ea85 ef3c
00000090: 70f5 f8bd acf4 eb3d d500 63be e7d0 543e
000000a0: 0c54 aa3d bd0f a83d 3a89 b0be cdb2 49be
000000b0: dcf5 623c f5dc 98bd 717e 08be e9d9 22bc
000000c0: ceea afbe 700e 55be d64b 363d 81b5 913c
000000d0: 8342 63bd 146a ebbd 486a 69be 7120 253e
000000e0: acb9 123e 07f0 0fbd 4ce8 2bbe 3895 f4be
000000f0: 18d9 96bd 52ff 09bd 3f10 abbd b03a b7be
00000100: a005 ba3c 0e4e 50bf 17e2 7cbe ef35 84bc
00000110: 68ff ba3d fdd0 033c a43f 13bf 9d40 a03d
00000120: 78c0 f13d 483a ed3c ffad 2a3c 9cc7 a5bd
00000130: d697 e5bc f99f 123e ef47 cbbe d7ae f8bd
00000140: e4dd abbe 0f4f d53d f5f5 9c3d 376e 24bd
00000150: 2e02 033f b857 36bf 77ac b0be 70d8 983d
00000160: ef63 6fbd 4e87 bb3c aae0 02bf c0df 98be
00000170: 14de b2be 5aa4 933d 2125 a3be 0273 ccbe
00000180: 16ef 603e 2aca d63d 0a71 80be 0a8f d5be
00000190: 8190 e53d 2430 7cbe eb5d 89be e9ba 523e
000001a0: a331 483e dcd9 babe f23d 6f3e 55d1 ba3b
000001b0: cdab c03e fbaa ab3d 7ad7 173e 8baa 60be
000001c0: b13f de3d a005 ccbd 4c20 4d3e 8149 14be
000001d0: 1c14 39bc 2101 84be 1021 263e 17ac 0ebd
000001e0: 64bc 253d ebe7 29be e86e b53d fea4 b6be
000001f0: be5d 3fbe 049b 083e 64cb a4be 9476 d6bd
00000200: 3f04 45be d08d 53bd a718 77be baba 40bd
00000210: 9cda 453e 754d 09bf 4c07 333e bf0f 09be
00000220: 3fca 9b3d a667 b3be 136e c3be e6b0 bbbd
00000230: 4ae8 51be 0522 e3bd aaaf c2bd 1d4d a2be
00000240: 5663 cabd 9c19 bf3d 1197 b5bd 0e18 a8be
00000250: c110 4abe 044c 05bf c736 35be b071 313e
00000260: b044 86bd 4e90 46bc 94ca f2be 9590 b93d
00000270: 545c 52be f2cb a1be e8ba 27bd 9a0f c03d
00000280: aabb dc3d f8e9 a1bd 284d 09bf 56e9 4fbe
00000290: 7bce afbe 47f7 bcbe 1528 bfbe 0fc6 903e
000002a0: 5a7c 55bc 1834 a53d 9194 d8bd 21b6 b0be
000002b0: 9f05 adbe db36 f33c ed3a c83d 3495 693d
000002c0: 4b99 013e 4026 0a3e cf6b 9abe 81a1 8fbe
000002d0: 44b7 65be 9e64 60be bfbd 78be 8caf 4fbd
000002e0: 5ab2 dbbe ec99 db3c 6dd1 adbe 7be2 9b3c
000002f0: e7b8 8ebb a1db 6c3d d977 abbd e70d 343e
00000300: 3ed7 b1bd 5098 99be 8e15 f33d 7640 b8bc
00000310: 69c7 0fbd 3428 9cbe b296 493e 058a 31be
00000320: 2f87 a9be 2c7b 463e 2e24 0d3e 4b0d 3ebe
00000330: ec37 a13d 1819 96be 2335 15be 92d9 4cbd
00000340: d12d 2dbc d10b c73d ec1b 1e3e 97e6 a6be
00000350: 5b11 82be 72a1 2d3e ae6d b0be 1d85 12be
00000360: 9bc7 f7be 9297 afbc 7b37 c0be a053 4c3e
00000370: a5af fa3d 1d0d 873e 72a6 e33d e986 133e
00000380: 116b 0c3e 8c0f b7bd 796b b6bd 28a8 05be
00000390: 0f99 1fbe ddc0 84be 05b4 093e ccee 8abe
000003a0: 51cb b1bd d39f e1be 40bf 12be 035a 83bc
000003b0: e0df 3fbe 0054 1f3d 9b74 2bbe a085 dc3c
000003c0: 3e4e 0f3c 713d c9be 3ad3 b5be d91e bebd
000003d0: 1dbd 203e bc1e a339 1dba e83d b81e 04be
000003e0: 1dbe 27bf 25a0 483e 3c8c 55be 24bd 32be
000003f0: 12cd 57be 06c1 0ebe ad57 8bbe 421d 013d

fc3.bias f4 [10]
-0.24132057 -0.2821148 0.0035266827 0.16828305 -0.10661868 -0.044366553 -0.023329623 0.10736012
0.15781507 -0.11387119
00000000: bd1c 77be 5a71 90be eb1f 673b 6452 2c3e
00000010: e55a dabd b4b9 35bd c41d bfbc 9fdf db3d
00000020: 469a 213e 4c35 e9bd
