HW1_Split_nb/checkpoints/model_batchnorm_5.pt (torch, 253706 bytes, 18 tensors)

conv1.weight f4 [6, 1, 5, 5]
00000000: c7c0 53be bbc5 433e 9c78 1e3d 16c3 5b3e
00000010: 5f6f edbd 5185 2bbd 98a7 4e3e 78d1 90bd
00000020: 54d0 863e 81e6 93be fc48 30be 337c 893e
00000030: 6e43 0d3e 4ef0 b53e a263 37be d15c b4bd
00000040: 3fe7 4a3e 7678 683e 34b0 de3e 0700 ec3d
00000050: 0fad 79bc 1bcd 0ebe ab91 d6bc 86a4 173e
00000060: 42ef 86bd f9ef 8f3e 1ceb 183e fc14 51be
00000070: f787 4cbe 438b 86be 152a 4c3d 7e5c 873e
00000080: 3a69 593e 5c0e 59be ac71 a43d e6a1 f43c
00000090: db80 71bd 44da 4c3e 41a2 44bd 12f5 f53d
000000a0: 44e9 7bbe 0818 d9bc 8204 323d c4f8 4b3e
000000b0: 8dc6 ee3d 57d9 cbbd da0d 99be 6118 43be
000000c0: 4f03 633e 9a45 6fbc 96a2 9b3d bdce 20be
000000d0: 3834 f3bc 8fc9 53bd aff1 0b3e 6227 0e3e
000000e0: 2961 10be 93b8 00be c2b4 003e d726 c23d
000000f0: 931b a1bd 1638 e5be 9658 5c3d 03a8 8d3e
00000100: f217 8c3d e46e 9abe 8f7f e5be 43b8 4b3d
00000110: a41c 9a3d 5f1c 553e 81a8 b03c da0a 56be
00000120: 22a8 f9bd ec76 d7bd 7919 23be 4559 88bd
00000130: d79d 89be fb10 d13d e9b0 3f3e 0793 823d
00000140: 9ffa 903d 8692 7abe 87ce 553e af69 2c3d
00000150: a6f9 93bd e99d 323e 24d0 01be 3872 bdbd
00000160: 099a c03d 4bfe 3cbd 4f43 573e 5fca 43bd
00000170: 1784 e6bd 12ef 83be 053d 5c3e de9b 783e
00000180: c210 32be 5b15 ef3d 1394 25bd 99ca 2bbe
00000190: 714a 893d d475 113e efdc 803e 393a 753d
000001a0: a215 01bd a223 09be 99e1 d4bd f957 58bd
000001b0: 7ce1 97bd 0459 d3bd 0e8a dbbd 6a84 28bf
000001c0: 6b61 65bf 7b45 f0bd 9a0f 4d3d 38be bd3d
000001d0: dd2b d3bd b6f4 90be 6bf4 03be 5bf8 013d
000001e0: 2158 033e 8d7c 993e 3e8e e0bb 32fd 753d
000001f0: f21d d23c 39d8 263e 95ee 853c 9da6 d63d
00000200: 5ff8 18bd e638 41be d267 523d a628 bcbd
00000210: 3aaa 343e c6ca 82be 458e ec3d 06b5 503e
00000220: 2236 943d 9e40 e33d 843c 4abe 6303 32be
00000230: 1a87 e53d 1de1 2d3c 1f72 3c3e b08d 90be
00000240: c001 00bd b20f 1e3e 84a7 b63d fc48 783e
00000250: 695a 7dbe 6d05 5abe
-0.20679007 0.19118397 0.03868924 0.21461138 -0.11593508 -0.041875187 0.2018112 -0.07071203
0.26330817 -0.28886798 -0.17215341 0.2685257 0.13795254 0.355349 -0.179091 -0.08806766
0.19814776 0.22702202 0.43493807 0.11523443 -0.015239014 -0.13945429 -0.026192507 0.14808854
-0.065886036 0.28112772 0.14933437 -0.20418161 -0.19973741 -0.26278123 0.04984482 0.26437753
0.21231547 -0.21196884 0.08029494 0.029862355 -0.058960777 0.20005137 -0.0480063 0.12009634
-0.24600703 -0.026500717 0.04346133 0.19919115 0.11658964 -0.09953564 -0.2989338 -0.19052269
0.22169231 -0.014603997 0.0759937 -0.15703864 -0.029687986 -0.051705893 0.13666414 0.13882211
-0.14099564 -0.1257041 0.12568954 0.09480064 -0.078665875 -0.44769353 0.05379542 0.27667245
0.06840505 -0.30162728 -0.44823882 0.049736273 0.07524994 0.20811604 0.021564724 -0.20902577
-0.12190272 -0.105207294 -0.15927686 -0.06657652 -0.26878235 0.10208317 0.1871983 0.063756995
0.07079052 -0.24469957 0.20879565 0.042092975 -0.07225351 0.1744305 -0.12677056 -0.09250301
0.0940438 -0.04614095 0.2102177 -0.047800418 -0.11255663 -0.25768334 0.21507652 0.24278209
-0.17389205 0.11673995 -0.040424418 -0.16776504 0.06703652 0.14205104 0.2516856 0.05986998
-0.03151477 -0.13392499 -0.10394592 -0.052818272 -0.074160546 -0.10319713 -0.10719691 -0.6582705
-0.89601773 -0.11732002 0.050063707 0.09264797 -0.10311101 -0.283117 -0.12886207 0.03173099
0.12826587 0.29977837 -0.006852894 0.06005592 0.025649045 0.1629342 0.016349116 0.10480998
-0.03734624 -0.18869361 0.051368542 -0.091874406 0.17643061 -0.2554533 0.11550573 0.20381555
0.072368875 0.11096309 -0.19749647 -0.17384104 0.11207409 0.010612753 0.18402909 -0.282331
-0.03125167 0.15435675 0.0891867 0.24246591 -0.2474152 -0.21291132

conv1.bias f4 [6]
00000000: 9aef d1bd a9a9 403d b0e9 bcbd e2c4 adbb
00000010: ff73 043d cb12 a5bd
-0.102507785 0.0470368 -0.0922426 -0.0053030113 0.032337185 -0.08060225

conv2.weight f4 [16, 6, 5, 5]
00000000: 19e5 0dbe ca96 61bd 5bc6 2cbd ee2a 9d3d
00000010: 336e d73d 06dc 3cbe c50e 53bd 6456 543c
00000020: 88f6 aa3d 669f b93d e207 0abd 7d71 e1bd
00000030: 7eb8 56bd 5aec e93d 7811 eabc 0d65 f0ba
00000040: 46d0 9bbc dcde 28be 46cf ff3c e175 3abb
00000050: d7b5 883d 1236 7dbd 753a 32be 6805 7ebd
00000060: 8a31 f5bd f2a5 27be c748 8fbe ea25 53be
00000070: 4109 efbc cfe0 573e 3dec 013e 5cbb b6bd
00000080: 5071 82be 8e65 acbc 720c 81bd a7e4 c7bd
00000090: 7a36 3ebe cad1 b03d 612d 7c3d a571 833d
000000a0: 4a83 123d e06a 9bbd 5792 a73b 04d9 533e
000000b0: 9f4b ed3d eddf 1dbd be42 a93d a8fd eebc
000000c0: f5e2 143e 0827 ed3c 5a18 3b3e 5d19 473e
000000d0: 1b02 723c 5d1b 9c3d 46d3 c5bc 5fad 25bd
000000e0: f305 15bd f462 93be 3f80 1cbe 4e91 a5bd
000000f0: 4ea0 123d e03a 4bbe c5c7 dabe d657 8cbe
00000100: 9df6 9bbe c9ea ff3c 1fb2 94be 7451 87bd
00000110: 47d4 f93d 2d75 dfbd 857a 4dbd 6707 13be
00000120: 78ab e33c 968d 6e3e 8ef9 903d 517a 673e
00000130: b9c0 133e 8f87 0b3d ec84 91bd 981b 963d
00000140: 43bb 24be a7b5 aabd 8311 123d 14ae f3bd
00000150: 7df2 4abd a187 5d3d 3e03 80bd 6dbc 77be
00000160: d2b9 9ebd d2b9 173e a475 9c3d d2e1 ccbc
00000170: 976a 83be 2888 14be c537 193d af2a 8e3d
00000180: 3a22 663d 69e5 93bd 6d6d 3f3d e3e9 81bd
00000190: 57d4 f53e d376 fd3e b5ae 983e a5b7 2d3d
000001a0: 0aa3 8bbe 4766 ff3d 1aed 7ebd d387 b4bb
000001b0: 43df bc3d a744 4cbe f888 083d 3d2f 5d3c
000001c0: 18be 4dbd 7899 e6bd dd80 09bc 6e39 28be
000001d0: 320c 57be cbdb 20bd 8890 89bd d944 81bc
000001e0: 7fa1 06be 0792 03bd e647 603d 7609 213e
000001f0: 9c0f 853e 830e 54bc c04a 7a3c 4b20 d7bc
00000200: 1f45 40be 4c90 e53c 0713 45be 8746 edbd
00000210: 61dd 2fbe 5aa7 2cbc 8c53 fa3c 2bcb 4abd
00000220: fb4c 8ebd 8f20 febd 48b3 d9bc b093 ad3d
00000230: fc58 df3c d1d3 3b3e 4757 143e 17bc 883d
00000240: 9dc3 14bc 40a2 053d b148 893e 4fe2 5a3e
00000250: 1062 0a3e 2954 4abd 386f 6abe 42e4 6ebe
00000260: 5822 723d b8e2 953b 242d 2b3e 8680 b5be
00000270: eded c3bd de79 0f3e d1df c63d 0a47 20bd
00000280: b03f 11be d38e 2cbd a9f1 fc3c 1959 0f3e
00000290: 3156 c2bc 54af dabd 2486 653d c067 213d
000002a0: cd06 d23d b5eb eebd 594f 9ebd 6a41 04be
000002b0: aee3 8e3c b4bd 15bb cd8c 8dbd 0f7e b6be
000002c0: 416e d1bd 9bab 08be 56ac ca3d 9c89 aa3d
000002d0: b1ae 2f3d 6008 a0bd aca7 18be 6738 7a3e
000002e0: 9389 81bc b1e1 49be 5b5a 26be 30e0 e4bd
000002f0: c23d d63d 987d d03d 0805 a23d a28c efbc
00000300: a2f3 32be 423e b53d 4098 bb3d e1ee a23d
00000310: 1073 313d 4864 78be f98d 65bd 98f7 083e
00000320: 6ccf 9ebd 0dfe 803c 571c bdbc 1a66 3fbe
00000330: e7a2 1e3e 9c5a 37ba bc1b 833d 78e2 253c
00000340: 9de0 3ebe 19d5 9d3d 0b72 ca3c e2ff 843d
00000350: 9712 1abd 4361 9ebe 3962 cabc 830a 953d
00000360: 8fe2 57bc 8f66 22be 7b90 4dbe 5349 89bd
00000370: 17bf 4c3d eb68 16bd 425f 71be 09ea 3cbe
00000380: b3d6 e13d b618 b9be 51a4 e9bd cc44 503e
00000390: 071c 673e d804 013e 063e 293e 816f 043e
000003a0: 5de6 49bc 3afd 13be 977d 593d 97f3 1dbb
000003b0: a0da 733d 389e 123e b56c f9bd 9e93 bb3d
000003c0: 091c 193d 571b 7f3e ea20 5d3b 2c70 68be
000003d0: cfd4 92bd c674 de3d 68af fcbb 8c65 16be
000003e0: ad2d 9cbd 6f6a 5cbd 98b3 e13e a0ea 423d
000003f0: 2781 94be cbb3 1abe 6975 d63e 7712 a13d
-0.13856925 -0.055075444 -0.042181354 0.07674204 0.10519066 -0.18443307 -0.051527757 0.01296005
0.08347803 0.09063606 -0.033698924 -0.11007974 -0.05242204 0.114220336 -0.028572783 -0.0018340662
-0.019020211 -0.16491264 0.031226765 -0.002845161 0.06675308 -0.061819144 -0.17405112 -0.062016875
-0.119723395 -0.16371897 -0.27985212 -0.20619932 -0.029179217 0.21081851 0.12687774 -0.08922455
-0.25477076 -0.021044519 -0.06301202 -0.09760409 -0.18575469 0.08633764 0.061566714 0.0641816
0.03576974 -0.07588744 0.0051138806 0.20688254 0.11586689 -0.03854363 0.08264683 -0.029173687
0.14539702 0.028949276 0.18271008 0.19443269 0.01477101 0.07622407 -0.024148595 -0.040448543
-0.036382627 -0.28786433 -0.15283297 -0.08084355 0.03579741 -0.19846678 -0.42730537 -0.27410764
-0.30461589 0.031239884 -0.29042146 -0.06607333 0.12198692 -0.109110214 -0.05016567 -0.14358293
0.027791724 0.23296198 0.07078849 0.22605254 0.14428987 0.034064826 -0.07105431 0.07329482
-0.1608706 -0.08335429 0.03566123 -0.11898437 -0.04954766 0.054084424 -0.062506184 -0.24192972
-0.07750286 0.14816979 0.07639626 -0.025010023 -0.2566726 -0.14505064 0.0374067 0.06941735
0.056184985 -0.07221491 0.046735216 -0.063434385 0.48013565 0.49504718 0.2982079 0.042411465
-0.27272826 0.1247068 -0.062237836 -0.0055093556 0.09222271 -0.19948064 0.03333375 0.013500032
-0.050230116 -0.112597406 -0.00839254 -0.16428158 -0.21000746 -0.03927211 -0.0671702 -0.0157799
-0.13147543 -0.032121684 0.054756068 0.15726265 0.25988472 -0.012942913 0.015276611 -0.026260516
-0.18776368 0.028022908 -0.1924554 -0.11585718 -0.17174293 -0.010537947 0.030557416 -0.049510162
-0.069482766 -0.12408554 -0.026574746 0.08475435 0.02726411 0.1834252 0.14486419 0.066765
-0.009079841 0.032625437 0.26813272 0.21375392 0.1351397 -0.049396668 -0.22893989 -0.23329261
0.059114784 0.004574146 0.16716439 -0.35449618 -0.09566865 0.14011332 0.09710658 -0.039130248
-0.14184451 -0.042128395 0.030876951 0.13998832 -0.02372274 -0.106779724 0.05603613 0.039405584
0.102552034 -0.11666051 -0.07729978 -0.12915578 0.01744255 -0.0022848668 -0.06911621 -0.3564305
-0.102261074 -0.13346712 0.09896152 0.08327028 0.042891208 -0.078140974 -0.14907712 0.24435578
-0.01581267 -0.19715 -0.16245405 -0.11175573 0.10460998 0.10180205 0.07911116 -0.029241864
-0.17475751 0.08849765 0.09159899 0.07955719 0.043322623 -0.24257004 -0.0560436 0.133757
-0.07754406 0.01574614 -0.023084803 -0.18691292 0.1549183 -0.0006994398 0.06401774 0.010124795
-0.1864037 0.07706661 0.024712583 0.06494118 -0.037615385 -0.3093358 -0.02470504 0.072773956
-0.013176574 -0.15859435 -0.20074646 -0.067034386 0.049986925 -0.03672115 -0.23571494 -0.18448652
0.11027279 -0.36151665 -0.11408294 0.20338744 0.22569285 0.12599504 0.16527566 0.1293316
-0.012322989 -0.14452067 0.053098287 -0.002410149 0.05953467 0.14318168 -0.12178937 0.09159015
0.037380252 0.24912773 0.0033741542 -0.2269904 -0.07169496 0.108621165 -0.0077113397 -0.14687175
-0.076258995 -0.05381244 0.44082332 0.047587037 -0.29004785 -0.15107648 0.41886452 0.0786485

conv2.bias f4 [16]
00000000: b744 163e a689 2cbe afd7 13be edf2 ad3d
00000010: 68c7 00bd 1063 973c b511 3b3c 8632 013d
00000020: 6d37 9e3d b8be 773d 23d9 90bd 7426 fcbd
00000030: 46a2 12bd 14e8 3e3d 4adf f93c 8572 26bd
0.1467465 -0.16849384 -0.14437746 0.084936 -0.03144017 0.018479854 0.011417796 0.031542324
0.077254154 0.060484618 -0.070726655 -0.12312022 -0.035799287 0.046608046 0.03050198 -0.040636558

bn1.weight f4 [6]
00000000: e9e1 153f 0689 7c3f 5b7c 8c3f 285e 823f
00000010: 6525 a73f a108 443f
0.58547837 0.9864658 1.097545 1.0184984 1.3058287 0.76575667

bn1.bias f4 [6]
00000000: 8be6 bdbe ee26 d9bd 5f9c 7ebe ef01 ddbd
00000010: ffa1 e5be d036 463c
-0.37089953 -0.106031284 -0.24864338 -0.107913844 -0.44850156 0.012098029

bn1.running_mean f4 [6]
00000000: 0fed 8e3e c141 8d3d ec67 c7be ed45 04bc
00000010: 3d3e debe 5cee 89bd
0.27915236 0.06897307 -0.38946474 -0.008073312 -0.4340686 -0.067349166

bn1.running_var f4 [6]
00000000: a170 723e 6177 c63c e08b 463e 3f02 8a3c
00000010: 4a46 a73e 00ac c03d
0.23675777 0.024226846 0.19389296 0.016846774 0.32670814 0.094078064

bn2.weight f4 [16]
00000000: 898e 973f dcd3 8b3f 5932 973f 9cb5 793f
00000010: d5e8 8f3f 74ed 833f fb5f 873f ee71 863f
00000020: 7c16 843f 5bde 913f 71a8 943f 44fe 8a3f
00000030: a442 743f 2c2d 5e3f 9c40 8f3f 4ffd 833f
1.1840373 1.0924029 1.181224 0.9754274 1.124293 1.030684 1.0576166 1.0503519
1.0319362 1.1395983 1.1613904 1.0858846 0.95414186 0.86787677 1.1191592 1.0311679

bn2.bias f4 [16]
00000000: add7 b2be f973 8fbe 7e10 72be ba66 acbe
00000010: 160c babe 66c2 99be 4315 9ebe b408 78be
00000020: 6e62 9bbe 8570 8cbe 9870 acbe 0967 d6be
00000030: 692d c7be e653 b8be 685d 94be 61b3 c8be
-0.34930173 -0.28018168 -0.23639104 -0.33672124 -0.36337346 -0.30031127 -0.30875596 -0.2422207
-0.30348533 -0.27429596 -0.33679652 -0.41875485 -0.38901833 -0.3600151 -0.28977513 -0.39199355

bn2.running_mean f4 [16]
00000000: 28d2 71be c08b c4be 7e39 e3be 8576 a1be
00000010: 506f f03d f383 5bbf 874f b0be 8d30 65bf
00000020: 57a0 c03e 1a6c 1bbf 4561 85bf edaf 2bbf
00000030: b0e4 0b3f 1be7 5b3f 2983 edbe 4bf9 ad3e
-0.23615324 -0.3838787 -0.443798 -0.31535736 0.11739981 -0.85748214 -0.34435675 -0.8952721
0.3762233 -0.60711825 -1.0420309 -0.67065316 0.54645824 0.85899514 -0.4638913 0.33979258

bn2.running_var f4 [16]
00000000: 478f 193f f372 4f3f cf8c 3d3f 03f4 153f
00000010: aa01 a73f 0063 ac3f 1149 153f dd84 9f3f
00000020: 83ad 2c3f 6014 a63f 0902 b43f da39 303f
00000030: 8a52 9d3f c72f b43f da52 283f 1e9a 4f3f
0.5998425 0.81034774 0.7404298 0.5857546 1.3047383 1.3467712 0.58314615 1.2462422
0.6745226 1.2974968 1.4063121 0.68838274 1.2290814 1.407708 0.6575142 0.8109454

fc1.weight f4 [120, 400]
00000000: ea5c 02bd 681c 1e3d 8c56 77bd 357f d3bd
00000010: 9b25 75bd fd96 6ebd e7e5 4bbd 61e7 7cbd
00000020: 2c35 cb3b 9d28 6abd bae5 72bd 3a99 0cbe
00000030: c654 6ebd 21ef a6ba d452 11be 9ecb 9cbc
00000040: 5bbf dbbb 16e9 9b3d 053c e3bc ea9b 8bbd
00000050: f536 613d 89a5 febd a0ab b43c 9a3d 35be
00000060: 33be 76bd d040 f5bd 4467 04bd 4512 993d
00000070: 4132 92bd 45ec e4bd a006 99bd e1fc 76bb
00000080: 866b 29be 786f 27bd 1a7e 76bd f200 b2bd
00000090: 6acb 33ba bb64 bcbd cbd3 fb3c c277 903c
000000a0: 60e2 713c 57ce 2ebc 3ce4 833d fefc dcbc
000000b0: e28c 9dbd f409 31bc 862c b33b 27c9 8abc
000000c0: ff52 c4bd 921c 7bbd 98c3 d53d 7ba3 1d3e
000000d0: b491 5ebd c661 1e3d 1901 f93d 1a5e b43d
000000e0: 93de 6f3d af68 3d3e 11e8 10bd f2cc 903d
000000f0: d748 eebc 7511 dabc a1d4 4fbc 8320 22be
00000100: 094a 603d 8db8 ffbd d287 d7bd 8518 28bd
00000110: 62a1 31bd 0664 7b3d c6ff 3ebb 1b7b b63c
00000120: ad78 cfbd 8ede e9bc 5c75 0abd 2487 4ebd
00000130: b999 2f3e 8842 a63b da2d b3bd 2454 a7bd
00000140: 330d 97bd 8c3d 8dbd bfcb 2bbe 06df 0ebe
00000150: e9ca a4bd f4b9 9f3d 92ef 5dbe bcf5 06be
00000160: 14fa b1bd 1b54 8d3c 552a e13d dac1 d13d
00000170: 3478 d6bd 4f8e 0ebe 035d 3d3d 285d e63d
00000180: 7fc6 2abc a790 e33d 379d c4bd 4b3d 6dbd
00000190: 0d2d 08be 69c8 583d f6df 013e 2473 8dbd
000001a0: 95a8 0e3d eb60 4e3d e4ab 93bd 4714 d23d
000001b0: 3a80 2fbe ac39 48bd 8da2 e43d 7769 00be
000001c0: 15a7 38be f61e aabd 098a 013d 6104 003d
000001d0: 5027 49bd ad44 963d d43a c33d 3679 a03c
000001e0: 4794 55bc a8c4 263e 0eee 9fbd e75b a3bb
000001f0: c79f 66bd 0364 35bd 6949 03bd 91b8 28bd
00000200: 9b2f 78bd 9bab bfbd df92 aebd 2bc3 0abe
00000210: 2a65 1bbe d0d5 5cbe ab2c 4abd e6b3 d23b
00000220: 2bbf a6bd 2af4 7dbd 2d0f 66bc 8b5c 13be
00000230: 8b34 96bc 3f9a a23c df21 1a3e 75c2 893d
00000240: 44c8 4dbe 78ab 5fbb 8e0d d73d 0049 893c
00000250: b5f8 76bb f9f2 41be 8e4f 24be 5bf2 0ebd
00000260: 4a45 69bd f84a 4dbe b469 ecbc f41d d3bd
00000270: 1946 e1bd 7f1b 62bc b870 f4bd eedf 403d
00000280: 320b 4d3d 99f6 2fbe 96fe 84be a800 0bbe
00000290: 70c4 39bd 99d7 67bd fb8d 70bd cb83 bebd
000002a0: 8f7b 20be dfa1 93bc b38e 003d d69a 663c
000002b0: 70c5 a03d 4bf6 86bd 377a 92bd 2aa7 14bc
000002c0: 79bb 48be 1b35 f7bd 2a1f f5bc f9c3 f7bd
000002d0: a662 19bd da7f 17bd 7882 10be 9c34 1a3d
000002e0: ca21 bfbd 4123 c4bd a17a b63c 46c1 98bb
000002f0: a09b 1fbd 3614 d23c f2f3 c0bd 1dd8 86bc
00000300: 2068 5abc 4b5a e3bd 6116 b7bd 3a04 273d
00000310: 571e 063e 8891 08bd 7db9 2bbe df5f a7bd
00000320: 924c 023d 8ff6 e1bc 7044 96bd eb06 7dbe
00000330: 530a 64be 4d81 1b3e 9819 be3c beff a0bd
00000340: d078 1dbe a6a5 4cbe 5181 7c3d eef8 9cbd
00000350: b92d 603d a354 233d ec83 5dbc 4135 d8bd
00000360: b92e 52bc eb72 383e e4b1 073e 722b c53d
00000370: e059 733d 035f b83c 155e 29be 7901 86bd
00000380: 8bab 8d3d 462a 863c c37d 2bbd fef8 e4bd
00000390: 40c1 bb3d 6ff7 26be 8408 55bd 2fda 90bd
000003a0: 35cd 25be 00f7 02bd e90e 43be b602 cbbd
000003b0: 6893 9abd 29f4 143d cb85 0d3b 7c5f 06be
000003c0: c746 0cbe 7560 793d 8844 dc3c e86c 433e
000003d0: 7c6f acbd 43a3 9abd 6aac cebc b522 b43c
000003e0: 8325 9bbd bb2f dfbd 4494 4ebe 607a 7bbe
000003f0: 142f d4bc 6fc5 29be ef2a 25be 8369 efbb
-0.03182689 0.03860131 -0.060385272 -0.10326997 -0.059850316 -0.058249462 -0.0497798 -0.061744098
0.006201407 -0.057167638 -0.059301116 -0.13730326 -0.058186315 -0.0012736061 -0.14191753 -0.019140061
-0.006706161 0.07612817 -0.02773858 -0.068168476 0.05498405 -0.12433917 0.022054493 -0.1769928
-0.06023998 -0.11975253 -0.032325044 0.07474188 -0.071384914 -0.11177877 -0.07471967 -0.0037687349
-0.16544923 -0.04087779 -0.060178854 -0.086915866 -0.0006858619 -0.091989 0.03074064 0.01763523
0.014763445 -0.010669312 0.064400166 -0.026976105 -0.07692887 -0.010805596 0.005467954 -0.01694162
-0.09586143 -0.061306544 0.10437697 0.15394394 -0.054338172 0.038667463 0.121584125 0.08807011
0.058561873 0.18496965 -0.035377566 0.0707034 -0.029087467 -0.026619652 -0.012684972 -0.15832715
0.054758105 -0.12486372 -0.105239525 -0.04103901 -0.043366797 0.061374687 -0.0029144152 0.022275498
-0.10130439 -0.028548505 -0.03380333 -0.05042185 0.17148484 0.005073849 -0.0874898 -0.081703454
-0.073755644 -0.06896505 -0.16776942 -0.13952264 -0.080465145 0.077991396 -0.2167342 -0.13179678
-0.08690277 0.017252019 0.10994402 0.102420524 -0.10472146 -0.13921474 0.04623128 0.11248237
-0.010423302 0.111115746 -0.09600299 -0.05791978 -0.13298436 0.0529255 0.1268309 -0.06906727
0.03482874 0.050385397 -0.0721052 0.10257774 -0.17138758 -0.048883125 0.111638166 -0.12540232
-0.18032487 -0.083066866 0.03162578 0.031254176 -0.049109757 0.073373176 0.09532705 0.019589048
-0.01303584 0.16285956 -0.07809077 -0.004985321 -0.05630472 -0.04428483 -0.03205243 -0.04119164
-0.060592275 -0.09358903 -0.08524107 -0.13551013 -0.1517531 -0.21565938 -0.049359005 0.006430137
-0.08141931 -0.06200043 -0.014041704 -0.14390771 -0.018335601 0.01984894 0.15051983 0.06726543
-0.20095927 -0.0034129303 0.10500632 0.016758442 -0.0037684862 -0.18940343 -0.16045973 -0.034899097
-0.056950845 -0.2004813 -0.028858997 -0.103084475 -0.10999698 -0.013800501 -0.11935562 0.047088556
0.050059505 -0.17183913 -0.25975484 -0.13574469 -0.045353353 -0.056602094 -0.058729153 -0.09302481
-0.15672134 -0.018021522 0.03138609 0.014075002 0.07850158 -0.065899454 -0.07152217 -0.009073058
-0.19602765 -0.12070676 -0.029922087 -0.12097926 -0.037447594 -0.036987163 -0.1411227 0.03764783
-0.093326166 -0.09577037 0.02227527 -0.004661712 -0.038966775 0.025644403 -0.09421529 -0.016460473
-0.013330489 -0.111012064 -0.08939815 0.040775515 0.13097511 -0.033341914 -0.16769977 -0.08172583
0.031811304 -0.027583389 -0.07337272 -0.2470967 -0.22269563 0.15186043 0.023205563 -0.07861279
-0.15378118 -0.19985065 0.061646763 -0.07664667 0.054731105 0.039875638 -0.013520222 -0.105570324
-0.012828522 0.18012588 0.13251454 0.09627427 0.059411883 0.022506243 -0.16539796 -0.0654325
0.06917485 0.01637758 -0.041867983 -0.11180304 0.09167719 -0.16305326 -0.052010074 -0.07072865
-0.16191562 -0.03197384 -0.19048657 -0.099126264 -0.07547647 0.03636566 0.002159464 -0.13122362
-0.13698874 0.060883004 0.026888147 0.19084513 -0.084197015 -0.07550671 -0.025228698 0.021989206
-0.07575514 -0.10897776 -0.20173746 -0.24558401 -0.025901355 -0.16579221 -0.16129659 -0.007306279

fc1.bias f4 [120]
00000000: 052c b0bd 3c73 f63c 5e58 013d 379b 69bd
00000010: 359d 2fbd 6bde db3c ac25 303d 02ad 78bd
00000020: 7e50 e63d faed 1fbd 7458 983d 9703 8e3c
00000030: 3046 093d 3990 893d d301 503c 4ea0 b23c
00000040: 2ab5 cb3c 96ea 9f3c 4bf9 a8bc b247 f4bc
00000050: ecbc 81bd 5262 18bd 3c5d 15bd 7c1e 2d3c
00000060: a456 90bc 0209 223d 6af5 ec3d 2da3 a4bc
00000070: 2e8c 5c3a 8731 443d c0e0 67bd 3dad 873d
00000080: 3715 12bd fedb 9b3c f1d3 503b 1250 8e3d
00000090: 19cf f5ba a92f 4c3c a46b 723d 095b 22bd
000000a0: 580d d33d 4835 69bb f746 6c3d 95a5 ac3d
000000b0: 5bce 13bd d7e7 aa3c cb2c 083d 3963 a6bc
000000c0: ae70 e23c 05f9 b6bc daaa 6dbd 5fc1 53bd
000000d0: a8e8 42bc 1ba0 bb3d b7f7 6fbd 9709 83bb
000000e0: ceca 13bc 6499 163d 7985 c33d 942c 3a3d
000000f0: cce9 6f3d 3bd8 42bd d0ff 413d c25a 7c3c
00000100: fe46 acbd 0e05 f9bc 3640 4dbd d893 82bb
00000110: ac6f 903d 70fe ce3c 86f0 a63b 7824 ae3d
00000120: 9c35 00bd ae63 d7bd c1dc 843c bb70 5cbd
00000130: fdff 30bd c027 cc3b 9a6c 0c3d 05c1 83bc
00000140: f0d8 b83c dc39 b93d 5d70 6dbd 24f6 263d
00000150: 23bf 33bd 0f59 e4bc 061f 3c3c b7ff aabc
00000160: 0027 b53d 339c 503d c4ff 1ebd 2060 843b
00000170: 3141 3f3c 1140 a8bc 26c6 a3bd 7b94 1bbd
00000180: 2828 993d 715f b6bd 655c 963d ed8b 8dbb
00000190: 5d35 cf3d 66a4 dc3b 8f6d 65bd 2f4b 483d
000001a0: 0dd6 8d3d 48f5 443d c2fc 2e3d 8854 563c
000001b0: 8db1 063c bbb3 b2bb fff4 a53c a2ba 0abd
000001c0: 1633 793d 6ce3 193d 49f7 333b 0f32 c73d
000001d0: bb42 f33c 86dc 6fbd 04a4 663d 9307 95bc
-0.08602146 0.030084245 0.031578414 -0.05703279 -0.042874534 0.026839456 0.043004677 -0.060711868
0.112458214 -0.03904531 0.07438746 0.017335696 0.0335142 0.067169614 0.012695747 0.021804955
0.02486666 0.019521039 -0.020626685 -0.029819343 -0.06334862 -0.03720314 -0.03646587 0.01056635
-0.017619438 0.03955937 0.115702465 -0.02009734 0.00084132224 0.047898795 -0.056610823 0.066248395
-0.035664763 0.019025799 0.0031864608 0.06948866 -0.0018753737 0.012462535 0.059184685 -0.0396376
0.103052795 -0.0035584737 0.057684865 0.0843002 -0.036085468 0.020862503 0.033245843 -0.020310985
0.02764162 -0.022335539 -0.058024265 -0.051698085 -0.01189629 0.09161397 -0.05858585 -0.003998946
-0.00902052 0.03676738 0.09546942 0.04545267 0.058572575 -0.047569495 0.047363102 0.015402498
-0.08411978 -0.030397918 -0.050110064 -0.0039849095 0.0705255 0.02526781 0.0050945906 0.085030496
-0.031301126 -0.10517059 0.016218545 -0.053818446 -0.04321288 0.0062303245 0.034283258 -0.01608325
0.022564381 0.09044239 -0.057968486 0.04076208 -0.043883454 -0.027874498 0.011482006 -0.020873887
0.08845329 0.050930213 -0.038818136 0.0040397793 0.011673258 -0.020538362 -0.07996778 -0.0379834
0.07478362 -0.08904923 0.073418416 -0.004319659 0.101176 0.006733465 -0.056012686 0.048899826
0.069255926 0.04808548 0.042721517 0.013081677 0.008221042 -0.0054535544 0.020258425 -0.033869393
0.060839735 0.037570402 0.0027460626 0.09726345 0.029694906 -0.058559917 0.05630876 -0.018192088

fc2.weight f4 [84, 120]
00000000: a19f 7abd 81a4 a8bc d85f c9bd c154 94bd
00000010: d0ff 53bc 94a8 34bd a77a 193e 49f4 1d3d
00000020: 7646 88be 1812 a33d ca99 a2bd 6d1b 213d
00000030: a9c9 b13c 0a4b 6dbd 7024 403d c93e 443e
00000040: cb5b 803d 4615 0abe a760 803d efd0 663d
00000050: 4d4b e03c db35 433e b763 57bd dccf 66be
00000060: d8c8 0d3d 26f0 373e 03e0 903d 70ac a6be
00000070: bbe0 a8bc 4c2b 23be 1326 60bd be5c 1f3e
00000080: 7c78 a0bd 8e7e 0a3e 4d94 ddbd c6be aebd
00000090: 6292 3b3d a222 443d a426 393d 91e1 0b3e
000000a0: 4cd1 5bbc 83fc d93d 59ef 863c fc83 ef3d
000000b0: c8dd 6d3b a11f 5a3e 1c0a 383d 013a db3c
000000c0: 2d3e 0ebe 553b 643e f0fb 813d b998 d13d
000000d0: 104d 23bc d63d 17bd 7d42 8c3d 9509 13bd
000000e0: 50a6 283e f039 96bd 2be9 043e 988c 4b3d
000000f0: 1353 64be ca9c 4ebd f7aa 4bbd 5ef1 75bd
00000100: c7ce 2ebe 018c 3a3c 7be0 b93d 8bd1 313d
00000110: fe4a f73d 1a3d 2f3d aa77 173d 3a4a 203d
00000120: 39a6 ec3d ee56 85bd dd5e a43d 08b2 73bb
00000130: 2bcf 70be 4bbc 9e3d a3df 293d 0067 933c
00000140: c916 98bd 0e52 94bd 1341 63bd a808 1c3d
00000150: e008 52bd c32d 61bd adae 70bd d9cd 213d
00000160: 6573 e2bd f41e b5bd 21b0 283c c921 7a3d
00000170: 854f bdbd 53e4 92bb 51dc 9fbd 6714 293e
00000180: 0f2d 67be f94d 253e 4465 43bd 74ac a5bd
00000190: ad44 903e 4fc3 b0bd 7d02 3f3d 9141 883b
000001a0: c4f4 dcbd e092 65bd 4225 083e 4032 f1bc
000001b0: aa31 4cbe eb16 9aba 4ee2 e03c 862e 1fbe
000001c0: 272d b43d 7304 f4bd 65af 943c 26bd afbd
000001d0: c184 603e 69db 92bc 1f59 1a3e d9be 0dbb
000001e0: 602a 09be 05a6 89be ecd9 683b d537 eebb
000001f0: 1329 06be 9554 b33c 532a 05bd a73b 913d
00000200: ab99 983d 405a 873b a836 d3bd 0371 293d
00000210: 16fe 77bd a39d babd 7cd6 693c f65b abbe
00000220: 7ca4 d4bc 95ca 9ebd d3a7 b33c fdde cb3a
00000230: 27a9 1a3c 5154 77bd 13e8 823d 334f 103e
00000240: eeb2 403e 9a0c 9a3d 490f 62be 14f6 0f3e
00000250: 1670 5abd fe2e c23d 194a aa3d f029 20be
00000260: e4a7 c73d 65f0 bebe 9275 0f3b ed4d 8d3d
00000270: ea60 a2bd 787f a63d 2cde 25be 715a 52bd
00000280: e1e5 14be 99be 0cbd 2a53 1d3d 8de4 043d
00000290: 2ce9 a23d 575e 95be 1dea 8cbd dc06 91bd
000002a0: 0133 e4bd 147e 3abe c9a7 4ebd 1c7f 14bc
000002b0: 011a 223c bc91 273d e3ce d63d cdd0 dabd
000002c0: f7b9 e33d 7b80 893c 35b0 f6bd 313e a1bd
000002d0: 0075 cf3d 52ca a03c 3dfe 11bd 775e e239
000002e0: 525f e83d cf02 833d a80b ba3c d5b2 0f3e
000002f0: 32f8 0dbe c078 9c3c 6533 143d c0ae 8b3e
00000300: b838 acbe 53b0 113e 5226 b43d 4fc0 b9bb
00000310: a130 f93c ed6f 5d3e b341 aabd 3860 923d
00000320: 5795 a63d 5007 e0bd 32e5 4a3c 7dfd 31be
00000330: 6739 303d 0d45 5bbd 4aa2 783d 3a12 073e
00000340: b00a 893e 838b 0ebd da6b 88bd 29e9 aabd
00000350: 3909 043e 3403 1d3d feb2 e73c 2ba9 45be
00000360: 5f9f a7bd 1158 253e 2ad7 0ebe bc47 3d3c
00000370: cac3 063e ed2c c83d 18ae d1bd d4da ebbd
00000380: a3ed 903d 19c7 373e b96e 0e3d 54d4 69bd
00000390: d9a9 9b3d 6a1b d73c 76f1 90bd 3849 0d3e
000003a0: 4303 de3d dae3 28be 74db 01bd 403c aa3b
000003b0: 95af 55be 25d5 24bd dd0e 46be b141 16bd
000003c0: d733 363c da86 55bd dd08 7a3b 0622 9abd
000003d0: f2ce 3bbd 1edb ed3b 8ee8 8dbd 2412 0cbd
000003e0: c9df 62bd 0d69 83bc 6ea9 bfbd 7616 613d
000003f0: d64b 1dbd 02f9 2abe 5529 a2bd a048 47bd
-0.06118739 -0.020586254 -0.09832734 -0.07242728 -0.012939408 -0.04410608 0.14988194 0.038563047
-0.26616257 0.079624355 -0.07939489 0.039332796 0.021702604 -0.05793289 0.04690975 0.19164576
0.06267508 -0.13484678 0.06268435 0.0563516 0.027379656 0.19063513 -0.05258533 -0.2254023
0.034615368 0.17962703 0.07073977 -0.32553434 -0.020614972 -0.15934485 -0.05472381 0.15562722
-0.078354806 0.1352484 -0.10819302 -0.08532481 0.0457939 0.04788459 0.045202866 0.13660266
-0.0134165995 0.10643866 0.016471552 0.11695096 0.0036295522 0.21301128 0.044931516 0.026761057
-0.13890906 0.22288258 0.063468814 0.10234208 -0.009967104 -0.036924206 0.06848619 -0.03589781
0.16469693 -0.073352695 0.12979572 0.049694628 -0.22297315 -0.050442494 -0.04972359 -0.06004464
-0.17071067 0.011385919 0.090760194 0.043412726 0.120748505 0.04278288 0.036979355 0.039133288
0.11555142 -0.06510721 0.08025906 -0.0037184972 -0.23516528 0.07750758 0.041473042 0.01799345
-0.07426221 -0.07242213 -0.05548198 0.038094193 -0.051277995 -0.054975282 -0.058760334 0.039502952
-0.11057166 -0.088437945 0.010295899 0.061067376 -0.09243683 -0.004482785 -0.07805694 0.16511689
-0.22575782 0.16143025 -0.047703996 -0.080895334 0.28177395 -0.08631002 0.046633232 0.0041582067
-0.10788873 -0.056048274 0.13295463 -0.029442906 -0.1994082 -0.0011756098 0.02745166 -0.15545091
0.087976746 -0.11914911 0.01815004 -0.08580999 0.21925642 -0.017926889 0.1507306 -0.0021628647
-0.13395071 -0.26884475 0.0035530282 -0.0072698393 -0.13101606 0.021890918 -0.032511067 0.07091456
0.07451185 0.0041306317 -0.10313159 0.041367542 -0.06054505 -0.09112098 0.0142723285 -0.33468598
-0.025957339 -0.07753483 0.02193061 0.0015554127 0.009439743 -0.060383145 0.06391921 0.14092712
0.18818256 0.07521935 -0.22076143 0.14058715 -0.05332955 0.09481619 0.08314914 -0.15640998
0.097488195 -0.3729278 0.0021890146 0.06899629 -0.07928641 0.081297815 -0.16198033 -0.051355783
-0.14540817 -0.034361456 0.03840939 0.032444526 0.0795463 -0.29173538 -0.06880591 -0.070813864
-0.11142541 -0.18212157 -0.05045298 -0.009063508 0.009893895 0.040910468 0.10488679 -0.10684357
0.11119454 0.016784897 -0.120453276 -0.0787319 0.10129738 0.019627724 -0.03564285 0.0004317646
0.11346306 0.0639702 0.022710636 0.14033063 -0.1386421 0.019100547 0.036181826 0.2728176
-0.33637023 0.14227419 0.087963715 -0.005668677 0.030418696 0.21624728 -0.083133124 0.071472585
0.08133953 -0.10938895 0.012383746 -0.17381854 0.043023493 -0.05353265 0.060701646 0.13190547
0.26765966 -0.034801017 -0.06661196 -0.08345253 0.12894143 0.038333133 0.028283592 -0.19302814
-0.081846945 0.16146876 -0.13949266 0.011552747 0.13160625 0.09774194 -0.10238284 -0.115163475
0.070765756 0.17947043 0.034773562 -0.057087258 0.07600755 0.02625819 -0.07077305 0.13797462
0.10840466 -0.16493168 -0.031703427 0.0051951706 -0.2086776 -0.040242333 -0.19341607 -0.036683742
0.011120758 -0.052130558 0.0038152256 -0.07526021 -0.045851655 0.007258787 -0.06929122 -0.034196988
-0.0553892 -0.016041303 -0.09358488 0.05495306 -0.0384024 -0.16696551 -0.0791804 -0.048653245

fc2.bias f4 [84]
00000000: b48b 943d 757d 36be 6fb4 05be 6381 54bd
00000010: a4ac 95bc 59f8 233e 8a9d e23d 46f8 f4bd
00000020: f530 753e 2c58 eabc f327 893d cc82 de3c
00000030: 0d41 f53d 5236 b33c 5406 513d de55 a73d
00000040: cfd6 023d fefa a83d c4e2 acbc 52eb 223e
00000050: cd35 0abe 23b5 38bd 7954 40bd 9f6b 43bd
00000060: 0ec4 573d 87a6 ed3c dfd4 c0bb a519 423d
00000070: bd1c 103d fb3a a6bd 767f 2dbd d7d2 15be
00000080: 89b1 e13d 15ba 72be a69f 39bd 0ef6 88bc
00000090: ae3a dfbd dc04 2b3e 2ef6 ea3d 8129 7dbd
000000a0: d234 fb3d 3f52 b73d 32e3 2bbe ed85 99bd
000000b0: 35e3 c73b 441b 56be 319c d83d edb1 b0bd
000000c0: 51c3 793e 9dc2 e0bd b034 ad3d 6157 f0bc
000000d0: 64e8 d03d e357 84bd 63da 1f3e aaf7 c23b
000000e0: 065f 773d 3931 033d 6c4d 92bd e4cb 6ebd
000000f0: 605b 9e3d 575f 8e3d eacd 74bc cc19 00be
00000100: c26d c03d e787 03be c8e9 663d 7d56 113e
00000110: 4e90 09be ea14 1ebe 8aa1 6d3c 3f9a fa3c
00000120: 1706 90bc bd6c bf3d 9c34 cdbc f963 073e
00000130: 3638 25bc 568a 683b ace7 ed39 7749 fd3c
00000140: e538 b4bd 1e8c 263e 42b8 a1bc cdc3 92bd
0.07253209 -0.17821296 -0.13057111 -0.051881205 -0.018270798 0.16012706 0.110652044 -0.11961417
0.23944457 -0.028606497 0.06697073 0.027161978 0.11975298 0.021876488 0.051031426 0.08170675
0.03194314 0.08250998 -0.021104224 0.1591008 -0.13497086 -0.04509462 -0.04695556 -0.047710057
0.052677207 0.02901007 -0.005884751 0.047387738 0.035183657 -0.081167184 -0.042357884 -0.1463121
0.1102019 -0.23703797 -0.04531827 -0.01671889 -0.10899864 0.16701072 0.11472736 -0.06180716
0.12265934 0.08951234 -0.16785887 -0.074962474 0.0061000832 -0.20908839 0.10576666 -0.08627687
0.24390914 -0.109746195 0.08457315 -0.02933854 0.10200575 -0.064620756 0.15610652 0.005949934
0.060393356 0.032029364 -0.07143673 -0.058299914 0.07732272 0.069517784 -0.014941672 -0.1250984
0.09395935 -0.12844811 0.056375295 0.14193149 -0.13433954 -0.15437666 0.014503846 0.030591128
-0.017581029 0.09346912 -0.0250495 0.1322173 -0.0100842025 0.0035482845 0.00045376772 0.03091882
-0.08799914 0.16264388 -0.019741181 -0.07166252

fc3.weight f4 [10, 84]
00000000: 4c68 063e 7ab9 54bd 8a90 0bbe 7a91 ba3d
00000010: 6784 4ebe d6db 93be e316 1cbe 073f 45be
00000020: 4ebf 9cbd db42 9f3d 0e8b b7bd 76fc 013e
00000030: 6b17 80bd 3eee 653b 3364 1c3e b5fd 6bbe
00000040: bda4 30be 6603 67be 3a29 64be e844 7fbd
00000050: 73b4 33bd 4705 5c3e 25de b5bd 71e1 913c
00000060: 387c 6fbd 4a78 163e 7dec 0a3e cff8 9d3d
00000070: 849c 73be ad93 e83c dd88 c0bd 03f4 6bbc
00000080: 7fd2 46be bd00 34bd 8d7f b03c 9ee1 37bc
00000090: cda8 86bd 95e5 023e c62a f2bd 6bed c53d
000000a0: 94ef 78bc ba6f 50be 2764 8abe 930f 91bd
000000b0: 2d1c 16bd a612 103d d8c6 8dbe 0e37 e63d
000000c0: 7446 13be 4ec8 7b3d e4bb 5d3d 385b 2abd
000000d0: 5654 493d d479 06bd f082 52be 4f35 783e
000000e0: f55d 5a3c dd5a 52be 7fa6 363d e09e a83d
000000f0: 9c4b 023e 60da 033e d416 d93d 3486 dcbd
00000100: 15d1 8ebd 72de f53c 92ff f43d 3b86 8d3d
00000110: e481 123b f5e8 56bd 4b2d f2bd e7c0 08be
00000120: bba6 d1bd c835 85be ee92 c6bd 1f5a 223c
00000130: cf3a 44be 39ac 59be 4454 0cbe 6afe 0ebe
00000140: 6834 903d 25cd 48bd d14e 08bd fd58 d2be
00000150: efe6 c4be 716e 623e 5e89 16be e250 173e
00000160: ac28 9bbd 1ea7 8e3d 5410 a03d d1f9 a33e
00000170: 4b89 8ebd f230 94be 05e7 94be da64 38bc
00000180: 0d0b 9bbd 1511 1fbe 5a7c 17bd 36c7 fbbc
00000190: 303c 94be b231 0a3d a160 47be acd5 27be
000001a0: 6e3f ccbd e040 14bd 934d 203e 36c3 c63d
000001b0: b4fc c0bd 7d8a a23d c2f9 1c3e a782 153e
000001c0: 0689 ccbd c79a c8be 9654 8f3e 2528 843c
000001d0: 1ad8 f53d de37 3ebe fc1f aabd 91f4 c2be
000001e0: 38b2 483d 9504 bebd 039e 4e3d 07a9 7abe
000001f0: 7302 9cbe c203 9ebe 3a24 5ebe 19f2 2a3d
00000200: bc9b 3cbe e34c fabd 0647 bcbe e47c 8b3d
00000210: 5dce d4bc e499 92be 2eb1 e33d 6b0e 4ebd
00000220: 65e7 4dbe 0f33 d6bc b676 233d 48ae ba3d
00000230: 6688 86be d87c 6e3e db29 0bbd 5142 a7bd
00000240: 67f0 1abf 4fd0 323e 085a 9bbe 0ad1 37be
00000250: 7e69 013e 39c1 12be 141a 3cbe 7278 a7be
00000260: a3d4 0a3e 34e5 91be 3da6 9bbd 48d4 cb3d
00000270: 40a4 0c3d 8a07 383d d2b5 f8bd c75e 0c3c
00000280: 44f7 f1be 599d 19be 793f 61be 9f2f cf3d
00000290: 999d 21be de52 90be b807 25be ab7d e7be
000002a0: 864a 6bbd da4e d5bd cb10 0ebd d34e 773d
000002b0: 8838 e23b 63e2 143e 1ade e7bd 7bec 1abe
000002c0: 5412 38be ac75 8fbe 1bf1 103e 87a5 debd
000002d0: c912 1f3e da72 43bd 3171 a03c c98a 35be
000002e0: 46c4 abba dcaa 37be ae55 37be 165f da3d
000002f0: 7e37 eebd 9cbf d63d 5ed5 663c ff0d 763d
00000300: d597 bdbe a001 48be f943 5ebe 16f1 51be
00000310: 2921 5cbd a6e0 aabd 6196 82be 0677 40bd
00000320: ec08 04be 1915 9bbe bbdf 893d e9c9 b8bd
00000330: ac9d 13be 87d2 32bc e294 8ebe 2306 783e
00000340: 0009 10be b707 e4bd 0d29 3ebb 807a 18bd
00000350: bb55 c4be 024f b0bb 190f 90be 433d c33c
00000360: abc9 943d d96b a9bd 3ae4 45be 567d 22be
00000370: 9af7 d73c 3dbe 88bc 9960 c2be 7b80 18be
00000380: 8171 473d 27a0 b239 dae1 00be e2aa 563d
00000390: 070c f93d 6611 e13d ac50 103e 243e 493d
000003a0: c743 99bd 7a94 eb3d 746b 85bd f648 aabd
000003b0: 42ca 11be 8a7c b3bc efe6 ffbb e772 52bd
000003c0: a3d0 80bd f3f7 6e3e c8bc fbbc 5d89 acbc
000003d0: 9ce8 9dbe af1c f83d dbf7 1c3e 86ae 98bd
000003e0: 6003 0d3e b2ca 3ebc e359 1d3d b560 b8be
000003f0: 42ed 6cbd ebfb 1c3d 6eb1 aebc 8a69 903d
0.13125724 -0.051934697 -0.13629356 0.09109779 -0.20167695 -0.2887866 -0.15243106 -0.19262324
-0.07653676 0.077764235 -0.089620695 0.12693962 -0.062544666 0.003508463 0.15272598 -0.23046
-0.17250343 -0.2255989 -0.22281352 -0.062321573 -0.04387326 0.21486388 -0.08880261 0.017807694
-0.058468074 0.14694324 0.13566776 0.07713472 -0.23790175 0.02839073 -0.094011046 -0.014401439
-0.19416235 -0.043946017 0.021545196 -0.011223225 -0.06575165 0.12782891 -0.11824565 0.096644245
-0.015193839 -0.2035512 -0.27029535 -0.07083049 -0.036647964 0.035174035 -0.27690768 0.112409696
-0.14382344 0.061470322 0.054134265 -0.0415909 0.049152695 -0.032831028 -0.20557761 0.24239086
0.013328065 -0.20542474 0.044592377 0.08233428 0.12724155 0.12876272 0.10600057 -0.10767785
-0.06973473 0.030013297 0.11962809 0.06910368 0.0022355253 -0.05246826 -0.11825045 -0.13354836
-0.102368794 -0.26017594 -0.09695993 0.009909182 -0.19163059 -0.21257104 -0.1370402 -0.13964239
0.07041246 -0.049023766 -0.03327829 -0.41083518 -0.38457438 0.22112443 -0.14700839 0.14776948
-0.07576117 0.06965469 0.07815614 0.32026532 -0.0695978 -0.28943592 -0.29082504 -0.011254514
-0.07570467 -0.1553386 -0.036983825 -0.03073464 -0.2895217 0.0337388 -0.19470455 -0.16390103
-0.09973036 -0.036194682 0.15654592 0.09705202 -0.09423199 0.07936571 0.1532965 0.14600621
-0.09987073 -0.39180586 0.2799422 0.016132424 0.12004109 -0.18575999 -0.08306882 -0.38077214
0.048998088 -0.09278218 0.05044366 -0.24478541 -0.3047062 -0.30862242 -0.21693507 0.04173479
-0.18418783 -0.12221696 -0.36772937 0.0681093 -0.025977308 -0.28633034 0.11117779 -0.05030672
-0.20107801 -0.026147394 0.039908133 0.09115273 -0.2627594 0.23289812 -0.033975463 -0.08166946
-0.60523075 0.17462276 -0.30342126 -0.17950836 0.12637898 -0.14331521 -0.18369323 -0.3270908
0.13557677 -0.2849518 -0.07600067 0.09952599 0.03433633 0.044929065 -0.121440545 0.008567519
-0.4725896 -0.1500143 -0.21996869 0.10116505 -0.15782775 -0.28188223 -0.16116226 -0.45213065
-0.057444118 -0.1041543 -0.034683984 0.060377907 0.0069037117 0.14539485 -0.113216594 -0.15129273
-0.17975742 -0.28019464 0.14154474 -0.108714156 0.1553451 -0.047716953 0.019585224 -0.17728724
-0.0013104759 -0.17936271 -0.17903778 0.106626675 -0.11631678 0.10485765 0.014088957 0.06007194
-0.370299 -0.1953187 -0.21705617 -0.20502123 -0.05374256 -0.083436295 -0.25505355 -0.04698851
-0.12894028 -0.30289534 0.06732126 -0.09022886 -0.14415616 -0.010914451 -0.27847964 0.24221091
-0.14065933 -0.11134284 -0.0029016167 -0.0372262 -0.38346657 -0.005380512 -0.2813652 0.023832923
0.072650276 -0.082725234 -0.19325343 -0.15868124 0.026363183 -0.016692275 -0.37964323 -0.14892761
0.04869223 0.00034070128 -0.12586156 0.05240906 0.12160497 0.109896466 0.14093274 0.049131528
-0.074836306 0.11502929 -0.06514636 -0.083146974 -0.14237311 -0.02190997 -0.007809512 -0.05137911
-0.06289794 0.23336773 -0.030729666 -0.021061594 -0.3084153 0.12114846 0.15328924 -0.07455163
0.13770819 -0.011645006 0.0384158 -0.36011282 -0.057843454 0.038326185 -0.02132484 0.0705138

fc3.bias f4 [10]
00000000: 38e4 08be 9213 53be 83cc 5ebd 4c99 123e
00000010: 5e58 87bd 1201 06be 565f fe3d cb9b a63d
00000020: 992f 603c 1e05 0ebe
-0.13368309 -0.20612934 -0.054394256 0.1431629 -0.066086516 -0.13086346 0.12420528 0.08135184
0.013683223 -0.1386914
