HW1_Split_nb/checkpoints/model_dropout_6.pt (torch, 250600 bytes, 10 tensors)

conv1.weight f4 [6, 1, 5, 5]
00000000: 178d 913e cc30 6a3e 0d24 a63e c94f a7bd
00000010: 5bd5 e5bd f79e 18bd b3a4 9abc f160 883e
00000020: 277d 403d b45d c8bd 93a2 57be 6408 88be
00000030: 23e7 8c3e e602 81bc e12b 623e bff7 e8be
00000040: 2276 bfbe ad8c b83d 7be4 2b3d e03f a63d
00000050: 1a16 9ebe 22a2 3ebe 29cf aa3e 323a 0ebd
00000060: 0c08 4cbd 3b0e e03e d059 39bb 718d 84be
00000070: ef6d dfbd c218 28be baa8 8c3e 3074 c6bd
00000080: 1d58 afbe 1148 d13d d09b 0b3e dcfe 0bbe
00000090: d0c8 a1be a8c2 1ebe 4196 5e3e 2371 993e
000000a0: 3434 d4bd ae3d ebbe 098c 7fbe 1a89 d93e
000000b0: 7120 a93e 804f 4bbd e656 aebe e522 80bd
000000c0: cc49 cd3d a6e1 dc3d e02e 04ba d1c8 38be
000000d0: a667 56bf 571b 29be 5bd9 a1be 8e4f 77bf
000000e0: c9d7 ffbf 8b03 ffbf 62e9 c8be f39f 1f3e
000000f0: 5193 23be 0271 d7bf 7cde abbf ab2b 9c3b
00000100: 165b 383e 1cba 553e 0f1e 3bbe 3488 90bd
00000110: 2286 13bd da80 5c3e 8c8e 133f a095 8e3e
00000120: 7251 143e 33d4 e7bd c813 993e 5341 8ebe
00000130: e560 dd3d c32c 11be ab95 d63d 30ff 1b3e
00000140: 1796 f3bd 1b2c 3bbe e47c 85bd 5b98 6e3e
00000150: 0aa5 d53c c0ba eabd a79e 6ebe 61b9 253c
00000160: 52c4 923d 049a 593e 7c9e a3bd d571 213e
00000170: 0000 363d bf0c 8d3e 5dbe 083e 0acc d73d
00000180: 99fb e1bd 5e25 003d 5232 febc f426 473e
00000190: febf 6b3d 51c6 e03d 4b19 46be 56a4 4b3d
000001a0: 3dff 223d c296 883d 99e4 30bd 82f1 2a3e
000001b0: 53f3 c23d 2d8a 0b3e 56c1 733e 0ff7 973e
000001c0: 93e1 d0bb 101d 173e f291 59be 166a 8d3d
000001d0: 91be 85bc c6f5 62bd c92c 4abe 37fc adbd
000001e0: 58cc 9ebe ebd1 d1bd ca5d a1be 356d b1bd
000001f0: ac5d c6bd 93dc 4cbe 82d2 7a3d 782e e2bd
00000200: 6d57 6d3e 13d1 633d 8201 4ebc 662b 6bbd
00000210: 65fc 073e da51 5f3e dfe4 80bd ab28 05bd
00000220: 0a78 1cbe 3e0f f9bb a783 503e 2eab 08be
00000230: 125f 5abe 57b4 22be 0b04 cf3d e888 893e
00000240: d5f3 2b3b d9a3 2ebe f2a4 2f3d 3e3d 273e
00000250: ebd1 8b3a f5f4 ac3d
0.28427956 0.22870177 0.3244938 -0.08169515 -0.11222335 -0.037260976 -0.018877363 0.2663646
0.046994355 -0.097834975 -0.21058111 -0.26568902 0.27520093 -0.015748452 0.22087051 -0.45501515
-0.37394816 0.09011207 0.041965943 0.08117652 -0.30876237 -0.18616536 0.33361176 -0.034723468
-0.04981236 0.43760857 -0.0028282292 -0.2588916 -0.1090964 -0.16415694 0.27472478 -0.0969013
-0.34246913 0.10218824 0.13633657 -0.1367144 -0.3159852 -0.15503943 0.21737005 0.2996913
-0.103615195 -0.45945495 -0.24955763 0.42487413 0.33032563 -0.049636364 -0.34050673 -0.062566556
0.10023841 0.107852265 -0.00050423853 -0.18045355 -0.83751905 -0.16514336 -0.31611142 -0.96605766
-1.9987727 -1.9922956 -0.39240557 0.1558836 -0.15974165 -1.6831362 -1.3427272 0.004765948
0.18003497 0.20871776 -0.18273185 -0.07057229 -0.03601659 0.21533528 0.57639384 0.2784853
0.14484194 -0.11319771 0.29897904 -0.27784213 0.10809497 -0.14177231 0.10477766 0.15234065
-0.11893862 -0.18278544 -0.065179616 0.23300306 0.026079673 -0.11461401 -0.23302709 0.010114999
0.071663514 0.21250159 -0.07989213 0.1576608 0.044433594 0.27548787 0.13353868 0.10536964
-0.110343166 0.031285636 -0.031029854 0.19448453 0.057556145 0.10975326 -0.19345586 0.04971727
0.039794195 0.0666938 -0.043186758 0.1669369 0.09519067 0.13626929 0.2380422 0.29680678
-0.006374547 0.1475718 -0.2124708 0.06905 -0.01632622 -0.05541017 -0.19743647 -0.08495372
-0.31015277 -0.10245117 -0.31516868 -0.08663408 -0.09685835 -0.20006017 0.061235912 -0.110440195
0.23177882 0.05561931 -0.012573602 -0.057414435 0.13279875 0.21808568 -0.06293654 -0.032509487
-0.15280166 -0.007600694 0.20362721 -0.1334655 -0.21325329 -0.15889107 0.10108193 0.26862264
0.0026237865 -0.1705469 0.042881913 0.16331956 0.0010667419 0.08445159

conv1.bias f4 [6]
00000000: 9646 00bd 60df 793d 7706 b13e c6f5 33be
00000010: 32be 11be a43e a73d
-0.031317316 0.061004043 0.34575245 -0.17574224 -0.1423271 0.081662446

conv2.weight f4 [16, 6, 5, 5]
00000000: 0317 a93b 6b52 97be af94 10bf 0017 c0be
00000010: 574b 2b3f a0af 61bc ac93 98bc 6b62 c8be
00000020: dbcf c8be f3d6 8b3d d916 26be adb9 e33d
00000030: d0c0 92bd 9cc8 1ebf d572 b0bd 71a3 0bbd
00000040: cee5 553e 659b 02be fbc1 7dbf 329f 38bf
00000050: 5c20 23bc b09f d53e 1bb9 ab3e 0648 6ebd
00000060: daae f7bd 1e68 163e 9c76 943d e05b 4b3e
00000070: 300b 6cbd f218 683d e5cb 9abc 4618 ab3d
00000080: 029d 5abd 0a72 1f3e 73f2 bb3c 7bad 193d
00000090: e238 8a3d 6b2f 31be 47d8 30be 7c59 443e
000000a0: 4e91 7c3d ecee 423e 12a2 d3bd b7af 49bf
000000b0: 4774 a8be b2e9 63bc b812 843e 31b6 2dbe
000000c0: 99c9 85bf 2fc5 47bf b383 d93c 1d9f 8f3e
000000d0: 7442 cdbd cfb2 62be 9e99 4f3e fe00 42be
000000e0: f512 6a3d 36cd e3be e61a 71bf ac45 44bf
000000f0: a763 a9be 0109 a0be 315b 0bbe 6d43 53be
00000100: 120a 24bf 5292 cdbe 0379 7abe 80ce cf3e
00000110: 867b 3e3d c1bb 03bf 5ab7 e1be e5fd 4fbe
00000120: bf80 01be 50a2 10be 3445 27bf 1c0a f33d
00000130: 284b 4dbe cfe8 56be af08 d7bd c92b 69be
00000140: 69ad 3d3e d866 aebc 53f3 e9bc b6fd 84be
00000150: a352 0fbe 80bf 183d b224 2e3e a520 103c
00000160: 87ab 38be cf6a 1abe 11bf 553d f0e1 163e
00000170: 6397 533e 0158 08be 0902 dabd fec3 4dbe
00000180: 6d07 063e 4d40 6a3e 42d8 5abe c498 2dbe
00000190: 1787 cbbd 7573 0d3c 53f6 cabd b6e4 85be
000001a0: 3ceb 80be ee37 073c 94e1 31bc 4585 893d
000001b0: b04f 9ebd f207 94bc 205e f2bd 007a 1a3d
000001c0: a6a5 bd3d dd68 94bd 5dbb 943d 5d0c 37be
000001d0: 36f6 52bd 49b4 32bd c8e9 96bd 81c8 283e
000001e0: bb04 97be f782 3ebe efe9 a53d fc23 9a3e
000001f0: 3ecc 763e 8a40 863d 0008 94bd ae87 b5bd
00000200: d964 cdbd ce69 63be 3de5 e53d dc54 993d
00000210: 6bec 993d 45f4 9fbc f9f6 efbd 6c62 783d
00000220: 0dd4 023e eb1a a73d 3cdf e0bd afcd 17bd
00000230: 6089 d5bb dad5 c43d eac2 203e b5f9 0ebe
00000240: 6780 f8bc 7110 18be 1e52 193e 18f9 093e
00000250: 862c d3bd 2742 11be 1e78 79be 13c2 fc3c
00000260: 583d c2be 8b2a 15be 5195 09bd cfe5 afbd
00000270: 562e 053e 11bb 09be 0252 88be 31d1 52bd
00000280: ce27 5ebc 8a79 0d3d f526 8a3e dd08 7e3d
00000290: a451 193e 55c5 7fbe 10b2 183d 8f85 993e
000002a0: adad 073e 7343 ae3e 9e8c 6cbe 59da 823e
000002b0: 696e 853e ea79 073e fe31 6f3e 7a7d a53e
000002c0: 0e51 97bd 8540 9fbe 2eca 803d 5d1e 3dbd
000002d0: be6c 103e fd58 25be e918 5fbe 90da 60bd
000002e0: 8077 f63d da0f e9bb aa81 a3be 5a31 38bd
000002f0: c5a9 853b c35e 483e a27a b1be 5efa ccbd
00000300: 0be7 543d 87fd 483d 00db 0a3e 49ac 2cbf
00000310: 2547 073e 5173 393c e95f 493e 7dce 263e
00000320: 89d6 f5bd 2de5 40be e41f 743e 4a92 993e
00000330: bc6b 4abc 2583 d6be 5a1e dabe ff6d 1c3e
00000340: ebbb 163d 656f 5ebf fa6b 13bf 1e6e 17bf
00000350: 8189 12bf 8c6b d8be 6818 55bf 85ef 59be
00000360: 843a d03d d011 c5bd f3c4 fabd eb8a 05bf
00000370: 2566 3e3e 300a b93e b216 d33c d5e4 66be
00000380: 16e0 1dbf 9a09 303e 1370 4d3d c342 6cbe
00000390: 37a3 12be a903 6ebe 80e7 193e ccd1 92bd
000003a0: e822 21be 2e49 7b3c fa5a 66be 7cc7 163e
000003b0: 154e e43c 382f 29be 9ed0 63bb 5847 acbd
000003c0: e37b bbbc a236 a0bd d377 713d f8ef 163d
000003d0: 9d94 10be 2c9c 0fbe 76c9 4b3d 682d ef3d
000003e0: 880a 643c 2e6c e6bb 8747 e8bb 891a 01bd
000003f0: de55 65bc c031 34be 92b7 67be 031d aa3d
0.005160214 -0.29555067 -0.56476873 -0.37517548 0.66911834 -0.013774782 -0.018625103 -0.39137587
-0.3922108 0.06828108 -0.16219653 0.11119399 -0.07165682 -0.62024856 -0.086156525 -0.034091417
0.20888445 -0.12754591 -0.99124116 -0.7211791 -0.009956446 0.41723394 0.33539662 -0.058174156
-0.12093897 0.14688155 0.072491854 0.19859266 -0.057627857 0.056664415 -0.018896053 0.08354239
-0.05337239 0.15570846 0.022942757 0.03751896 0.06749131 -0.17303245 -0.17270003 0.1917476
0.06166201 0.19036454 -0.10333647 -0.78783745 -0.32901213 -0.013910698 0.2579553 -0.16964032
-1.0452148 -0.78035253 0.026552057 0.2805108 -0.100224406 -0.22138523 0.20273444 -0.18945691
0.057146985 -0.444925 -0.9418167 -0.7666881 -0.3308384 -0.3125687 -0.13609006 -0.2063119
-0.64077866 -0.40150696 -0.24460225 0.40587234 0.04650452 -0.51458365 -0.440852 -0.20311697
-0.12646769 -0.14124417 -0.6533997 0.118671626 -0.20048201 -0.20987247 -0.10499703 -0.22770609
0.18523182 -0.021289274 -0.028558409 -0.25974816 -0.13996367 0.037292004 0.17006186 0.008796846
-0.18034182 -0.15079807 0.05218417 0.14734626 0.20663218 -0.13314821 -0.106449194 -0.20094296
0.1308877 0.22876091 -0.21371558 -0.16952807 -0.09937876 0.008633484 -0.09910264 -0.26151055
-0.2517947 0.008253081 -0.010857005 0.06714872 -0.07730043 -0.018070195 -0.11834359 0.037714005
0.092601106 -0.072465636 0.07262299 -0.1787581 -0.051504336 -0.043628965 -0.07368809 0.16482736
-0.29495797 -0.18604647 0.0810126 0.3010558 0.2410135 0.065552786 -0.072280884 -0.088637695
-0.10029001 -0.2220833 0.11225364 0.07486889 0.07515796 -0.019525656 -0.11717028 0.060640737
0.12776203 0.08159431 -0.109800786 -0.03706139 -0.0065166205 0.096111014 0.15699354 -0.13962443
-0.030334665 -0.14850022 0.14972731 0.13473928 -0.103112265 -0.14185391 -0.24362227 0.03085426
-0.37937427 -0.1456701 -0.033589665 -0.085887544 0.13005957 -0.13450266 -0.26625067 -0.05146903
-0.013559295 0.034539737 0.26982847 0.06202017 0.1497255 -0.2497762 0.03727919 0.2998471
0.13249846 0.34035835 -0.23100516 0.2555721 0.260608 0.132301 0.23358914 0.32322294
-0.07388507 -0.31103912 0.06288563 -0.046171535 0.14103982 -0.16147228 -0.21786846 -0.054895937
0.120345116 -0.0071124854 -0.31934863 -0.04496894 0.004079076 0.19567399 -0.34663874 -0.10008691
0.051978152 0.049069908 0.13560104 -0.67450386 0.13210733 0.0113189975 0.19665493 0.16289707
-0.1200381 -0.18837424 0.2384029 0.29994422 -0.012354787 -0.4189693 -0.4260128 0.15276335
0.036800306 -0.86888725 -0.57586634 -0.591524 -0.57241064 -0.42269552 -0.83240366 -0.21282776
0.10167411 -0.09622538 -0.12244596 -0.52165097 0.18593653 0.36140585 0.025767658 -0.2254823
-0.61670053 0.17191163 0.05015571 -0.23072343 -0.14320074 -0.23243584 0.15029716 -0.07168922
-0.15735972 0.015337272 -0.22495642 0.14724535 0.027869264 -0.16521919 -0.0034761797 -0.08412045
-0.022886222 -0.078229204 0.058952164 0.036849946 -0.14119191 -0.14024419 0.049752675 0.116785824
0.0139185265 -0.007031939 -0.007088605 -0.031519447 -0.013997523 -0.17597103 -0.2262862 0.08306315

conv2.bias f4 [16]
00000000: 7444 463e a9f8 dd3d dbdd 15bd cc73 dbbd
00000010: 3560 933e 2d67 40bb de02 e93d 4777 ffbc
00000020: d2c5 bdbd d5af 96bd ef2e 1e3c 16d2 f33d
00000030: 69f3 843e 348e b1bd db9b 303d ae31 443e
0.1936205 0.10838444 -0.03658853 -0.10715446 0.28784338 -0.0029358373 0.113775 -0.031184806
-0.09266247 -0.07357756 0.0096547445 0.11905305 0.25966957 -0.08669701 0.043117385 0.19159576

fc1.weight f4 [120, 400]
00000000: 6d09 e1bd 8b3c 373c 33ee ba3d a8a3 b2be
00000010: 3e5e a63d 504f 05be cffa f7be 8730 55bd
00000020: 823c c4be ecea cf3d cfab 34bc a762 a7bd
00000030: a8f0 0cbd 6be6 64be fcfc 0cbe 7ec9 90bd
00000040: 025e 6bbd e693 9dbc afb1 a1bc c24c e83d
00000050: fe79 593e 7382 8ebd 7d2a 30bd 816e 313e
00000060: 476a 443e b01f b63d 1d64 db3d 7b6e f6be
00000070: 3a76 28be a4f8 67bb fce6 26bd 2302 d43a
00000080: 9e1d 03be 6032 e1bd b83d 623d 48dd 55be
00000090: 36ed 11be 0891 ff3d f1bf 283c 41a9 f23d
000000a0: 139b 6d3d d255 57bd 4409 093e a5af 2a3e
000000b0: a05f b6bd 9eb6 903d 59f5 2a3e f920 193b
000000c0: c932 d23d da86 303d f08d 41be 5850 b73d
000000d0: 51ae 2e3d 3c26 833e 8160 1cbd ae37 eabd
000000e0: d851 70be 1c19 9a3c 79a3 ee3d 49df 73bd
000000f0: aa80 41be 35c9 34be ab5f ebbd 9222 15bf
00000100: 6179 cabd 5473 38bd a040 1d3c d944 21bd
00000110: f9f2 4abe 65ae c4bd 7a81 13bd a865 b7bd
00000120: a10a 40be 9a60 04be dc91 00be d3f9 7fbd
00000130: 85b9 2d3e b0d6 f83d df9c 4bbd fa7a b5bb
00000140: 9bc6 f53d 9256 9e3e 4a75 f73d 68b1 643e
00000150: 2084 193e 57c5 54bd b7ea 013f caab c73d
00000160: 5d11 0c3e ebd2 853d 1be2 0ebe 0202 473d
00000170: 7bfa 97bd 7cd4 9bbb d5c5 02be 234b 12bd
00000180: f629 fbbd d369 51be e1ed b3bd 58ab 023d
00000190: 648d a4bd 1022 32bd 5b20 293e 8a41 24be
000001a0: 7bfa b6bd 2563 43be 31d4 213e d586 323d
000001b0: dc5a 67be 8154 c5bd 451a e5bd f135 943e
000001c0: 31a5 91bd 9f58 72be 6d67 77bd 5ebb f73d
000001d0: 8bf0 7b3e 80e4 ae3d 0d08 703d 98e5 82bc
000001e0: 5391 183e 97b4 043e 9f65 a0bd 5ce3 54bd
000001f0: e964 01bd 6626 dabe caa5 e9bd ce61 993d
00000200: c2e1 87be 17f1 03bd 9879 85be e6a8 8fbd
00000210: da13 83bb aee8 06be acbc c43d 8830 abbe
00000220: cc05 0b3d 0f2f 823e 6112 9bbc 46ef 91bd
00000230: a2a6 5fbd 22e6 373e 947e 933d 60d8 953d
00000240: 7fbc 9cbd de38 fdbc 4c33 023e fcfe 243e
00000250: de35 8cbd 115f 443e 701c a1be 3860 81be
00000260: 81dc 8b3d 4078 a6bc 6904 f73d cf2a 80be
00000270: 3f12 35be a89e 913c 6297 cbbd afba 0b3e
00000280: 8b1f bdbd 08b5 273e a4e4 23be 02ec f1bd
00000290: ab2f b8bd 1090 623e d90f 3a3e 532f 7f3c
000002a0: 04bc 44be 498b 983d 2b7d de3d 5b72 f13d
000002b0: c5bc efbc 515c 9dbd 551d a0bd 744b 53bd
000002c0: 7472 67be 6ee3 0f3d 7672 44bd 85b6 09be
000002d0: dd8e 5ebe 58d5 a13d ed61 ec3c a78e ac3d
000002e0: a9f6 8dbd 43b0 ebbc 059b 513e f777 4a3d
000002f0: 2677 d9be 3b62 95bd 6132 e03d 9f32 fa3d
00000300: c128 8abd ae49 c8bd fb72 c5bd 2e38 803e
00000310: 1baf 0a3d 9637 3b3d 0253 31bd 58a6 413e
00000320: 051d 63bd 9f63 c0bd de9d 9a3c 5293 27bc
00000330: fe27 dc3c f350 d73d 718d 8bbe b5b7 663e
00000340: 8309 ea3d 9eeb b03c 4ae7 703e 0fdc a5bd
00000350: 4853 d73d 8683 763d 1650 903c e791 6abe
00000360: 1ab5 fb3c 249f 99bb fee6 803d d0ba ac3d
00000370: ee87 16be 9aa7 ba3b 39d7 cdbd 2d61 34bd
00000380: dbfb b53d 99fb f13d 6c97 48bd 04e6 d13c
00000390: 23b4 bcbd a66f 533e 8400 09be 0583 09bd
000003a0: a455 c33d 75db 84bd a002 183d 7e84 6fbd
000003b0: ff94 bd3e ec01 773e 4b0a 1abe 10d0 4f3b
000003c0: 1ae8 d0bc be12 b13e cd80 0abe 1f2c 88bd
000003d0: 42c7 e2bd de91 093e 168c 173e fdef 17bd
000003e0: 94c1 43be d925 69bc 8999 133d 6cf8 70be
000003f0: 3d0f dabd a8bc 283e 928f 04bd 73d7 a4bd
-0.10988126 0.011183868 0.09127464 -0.34890485 0.08123444 -0.13018537 -0.4843354 -0.052048232
-0.38327414 0.1015223 -0.0110272905 -0.08173113 -0.034409195 -0.22353522 -0.13768381 -0.070696816
-0.0574627 -0.019235563 -0.019738046 0.113427654 0.21237943 -0.06958475 -0.04300927 0.1732731
0.19181167 0.08892763 0.107124545 -0.48131165 -0.1645135 -0.0035396004 -0.040747628 0.0016174953
-0.12804267 -0.109959364 0.05523464 -0.20885193 -0.14250645 0.124788344 0.010299669 0.11848689
0.05800922 -0.05257208 0.13382441 0.16668566 -0.08904958 0.070660815 0.16695155 0.00233656
0.10263593 0.043097354 -0.18901801 0.08950871 0.04264671 0.25615108 -0.03817797 -0.11436401
-0.23468721 0.018810801 0.11652274 -0.059539113 -0.18896738 -0.1765488 -0.114928566 -0.58255875
-0.098864324 -0.04503186 0.009597927 -0.0393723 -0.19819249 -0.096035756 -0.03601215 -0.08954936
-0.18754055 -0.12927476 -0.12555641 -0.06249411 0.16965301 0.121503234 -0.04971015 -0.0055383416
0.120007716 0.30925423 0.12082918 0.223333 0.14991808 -0.05194601 0.5074877 0.09749563
0.13678499 0.0653437 -0.1395344 0.0485859 -0.07420822 -0.0047555547 -0.1277078 -0.035716187
-0.12263863 -0.20450525 -0.08785606 0.031901687 -0.080347806 -0.043489516 0.16516249 -0.16040626
-0.08934494 -0.1908079 0.15803601 0.043585617 -0.22593254 -0.096352585 -0.11186651 0.28947404
-0.07111586 -0.23666619 -0.06040137 0.12096284 0.24603479 0.08539677 0.058601428 -0.01597862
0.14899187 0.12959515 -0.07831883 -0.05197464 -0.031590376 -0.4260742 -0.11408575 0.07489358
-0.26539427 -0.032212343 -0.2606933 -0.07014637 -0.004000169 -0.13174698 0.09606299 -0.33435464
0.033941075 0.25426528 -0.018929662 -0.07125716 -0.054602273 0.17958882 0.07201877 0.07316661
-0.0765314 -0.030910905 0.1271488 0.16112894 -0.06846212 0.1917689 -0.3146701 -0.25268722
0.06829167 -0.020321012 0.12061388 -0.2503266 -0.17682742 0.017775849 -0.09940983 0.13645433
-0.09234532 0.16377652 -0.16005188 -0.11812593 -0.08993467 0.22125268 0.18170108 0.015575248
-0.19212347 0.074484415 0.10863718 0.1178939 -0.029264817 -0.076836236 -0.07818095 -0.05158563
-0.22602254 0.035129003 -0.04796072 -0.13448532 -0.21734186 0.0790202 0.028855288 0.08425646
-0.06931812 -0.028770572 0.20469292 0.049430814 -0.42473716 -0.072941266 0.10947109 0.122166865
-0.067460544 -0.09779678 -0.096410714 0.25042862 0.0338584 0.045707308 -0.043292053 0.18911111
-0.055447597 -0.09394001 0.018874105 -0.010227995 0.026874539 0.10513487 -0.2725635 0.22531016
0.114275955 0.021596726 0.2352573 -0.080986135 0.105139315 0.060184024 0.017616313 -0.2290722
0.030726004 -0.0046881605 0.06294058 0.08434069 -0.1470029 0.005696249 -0.10050816 -0.044037987
0.08885928 0.118155666 -0.048972532 0.025622375 -0.09214046 0.20648059 -0.13379103 -0.033572216
0.09537819 -0.064871706 0.03711188 -0.058475964 0.37027737 0.24121827 -0.15042989 0.0031709708
-0.0255013 0.34584612 -0.13525696 -0.066490404 -0.11073162 0.1343455 0.14799532 -0.037094105
-0.19116813 -0.014230215 0.036035094 -0.23532265 -0.10647438 0.16478217 -0.03236348 -0.08048906

fc1.bias f4 [120]
00000000: c005 9c3d c095 3d3e 19c7 dbbc e277 95bd
00000010: 04ca 56bd cd8a 083e fe3c cb3d daea d9bc
00000020: b8c1 743d 1a20 ff3d 6bc1 b43d 57b1 283e
00000030: 4896 413e 2c50 f63d 1400 743d 522c 043e
00000040: 71d7 c03c adb6 50bc ef03 ad3e c883 163e
00000050: 41c9 083e 5646 1e3e d978 20bd b0cb 083e
00000060: 60ae 203d eafe edbd 4197 4ebd 1b93 e23d
00000070: 3319 9cbd 78a9 4f3d 96e5 db3d 6c57 993e
00000080: 2b1a a83d 2aae ed3d aec9 ff3d 674b 043e
00000090: 5fbf 7d3e f623 df3d 694d 063d 56db cdbd
000000a0: 4703 333e d293 8d3e 0513 583e a591 973d
000000b0: 5ce1 373e 9559 5d39 49e9 ee3d 86a1 0e3e
000000c0: e24b 9fbd 7784 913b c8a2 0f3e 250c bfba
000000d0: eed2 c0bd 70b4 0e3e 002f 9f3c c62c fd3d
000000e0: 8d69 8d3d adb1 443e 31ec 49bd 4dd3 e7bb
000000f0: d038 a63d 9941 363e 6fcc d2bd 6477 433e
00000100: 2dee b1bd f6f4 013e 3238 223e 08c0 1a3d
00000110: 7296 273d f4cd d93d 582e 863d 93a5 363e
00000120: 6d71 35bd 7a76 143e b978 573d c844 d43d
00000130: 28e6 2d3e 26ab 043e b44e 25bd 3bfd 183d
00000140: 9ee8 b03d 7cab 5b3e 8d0d 1dbd 96bd b83d
00000150: 23f8 353d b15b 023e c6a9 4b3e e07c f93d
00000160: a653 673d e0c6 863d b5d0 5e3e 6c70 0b3e
00000170: 58a4 4fbd 5fc9 8cbd 53f4 ef3d 2643 a13d
00000180: 1fcc 033e bc59 763e 937a 00bd 6838 9b3d
00000190: 50a6 2f3e a287 44bd 0eed 8a3c ba1c 7c3d
000001a0: 093a c73d 60de d6bd d29d fe3d b5db 21bd
000001b0: 4d5c 603d eef5 2a3e 9c8e 623d 1640 6dbd
000001c0: 171b ebbc 2efc e43d 7301 af3d ad06 493e
000001d0: 5a31 923d c753 d6bc 1e75 6cbd a2a9 d13d
0.07618284 0.18514156 -0.026828336 -0.072982565 -0.05243875 0.13334198 0.09923743 -0.026601244
0.059755057 0.12457295 0.08825954 0.164739 0.18904984 0.1202701 0.059570387 0.12907532
0.02354023 -0.012738866 0.33792064 0.14698708 0.13358022 0.15456519 -0.03917775 0.1335895
0.039228797 -0.116208866 -0.050437216 0.110632144 -0.07621994 0.050698727 0.107371494 0.2994951
0.08208116 0.11605485 0.12489639 0.12919389 0.24780034 0.10895531 0.032788668 -0.10051601
0.17481719 0.2765184 0.21101005 0.07400826 0.17957062 0.00021109574 0.11665589 0.13928804
-0.077781454 0.00444084 0.1402694 -0.0014575763 -0.09415232 0.13936019 0.019431591 0.123620555
0.06904898 0.19208403 -0.049297515 -0.0070747496 0.08116305 0.17798461 -0.10292899 0.19088513
-0.086880066 0.12691101 0.1584175 0.03778079 0.04091496 0.106349856 0.06551808 0.17836599
-0.044297624 0.1449832 0.052605364 0.103646815 0.16982329 0.12955913 -0.04035826 0.037350874
0.08638118 0.21452135 -0.038343 0.09020536 0.044426095 0.1273029 0.19888982 0.12182021
0.056476258 0.06580901 0.21759303 0.13617104 -0.05069384 -0.06874346 0.11716523 0.07874136
0.12870835 0.24057668 -0.031366896 0.07579118 0.17153287 -0.047980912 0.01695874 0.061550833
0.09727866 -0.104916334 0.124324456 -0.03951617 0.054775525 0.16695377 0.055311784 -0.057922445
-0.02869944 0.11180912 0.08545198 0.19631453 0.07138319 -0.026162995 -0.05772888 0.10237433

fc2.weight f4 [84, 120]
00000000: c5ef cfbe d7b7 c9bd cc13 823d 4839 573e
00000010: 01b7 72be 5945 8f3d 8623 e63d bac2 78be
00000020: 8859 413e 0388 603d 0dab 8d3e a7ac 32be
00000030: 7364 84be 4507 edbd 29ab 95be 649c cbbe
00000040: 9c73 c0bd c5ed 503e 500b 4ebe dabc fbbd
00000050: 8d81 7f3e d041 9abe 9fa6 313d 0927 75be
00000060: 323e 423e 3bf0 efbd 5ba5 41be 2a7d 033e
00000070: 5cb2 c03b 249f 83bd e59f 8b3d a9a4 6d3b
00000080: 2929 3f3e dfb7 bbba 81b9 233d fb94 823d
00000090: 63e5 973e fdf2 9abe 4ea5 e73c 5762 d6ba
000000a0: df7e 2fbe 820c c5bd 58c2 0bbe 08d6 a53d
000000b0: f074 4e3e f436 043d 9499 1d3d 0209 5b3d
000000c0: 7585 b6be 3575 04be 311a 8ebe 4597 9f3e
000000d0: b891 c9be 82e4 133d e15d 9d3e e298 f43c
000000e0: 4633 c23d 594b 5a3d 8d46 8f3d 8765 313e
000000f0: 263c 26be 9aa0 8cbe 5de8 1c3d abf0 abbd
00000100: d768 683a 266c 8cbe e395 1ebe 02d4 0e3d
00000110: a09a 70be 9489 aebe 265c aebd 3216 233e
00000120: 6052 853c 390b 463e a594 de3d a85b 043e
00000130: e444 b9be a807 cfbe 9b05 5d3e 171f 09be
00000140: d9f1 d33d 61fc 2ebc f506 9a3d af9d 49bd
00000150: 0054 88be 0436 813e bda8 d43d 4f02 1dbe
00000160: fe3e 9f3e c933 4bbe e842 0f3e 0a25 de3d
00000170: a519 eabc 6412 6ebe ae05 77be 582b 12be
00000180: 02c9 a8be ae12 6abe e299 09be ad33 c3be
00000190: 8409 6dbc 8dc5 93be aaf4 14be 9d5d 30bd
000001a0: de54 57be 8d3f 22be f44f b13c fe42 86bd
000001b0: 3453 d23d cac0 3abe 1264 e4be 0506 263c
000001c0: 90c3 1bbe 0fbb 6c3d 03c2 843c 5213 bb3c
000001d0: c8a6 ccbe c4ef 213c f375 8f3c 1202 34bd
000001e0: 01a0 18be d2c9 75bd ac6c 91be 2443 193e
000001f0: 3e0f 3bbe d3e6 19bd d1cf 9dbe 8ba3 b2be
00000200: 7254 12be e481 13bc ad3b 3dbe 7534 b6bd
00000210: c317 80bd 17b0 90bc 2a9e 0bbc 3210 27be
00000220: 2584 9ebc cfb4 c6be 0196 503d 5e23 4ebe
00000230: fa03 8d3d 8b19 b1bd 0bb2 d6bc b039 6dbd
00000240: 6b83 15be a03c a3be 98fb 1a3c db50 94bd
00000250: 4b11 cdbd 9969 fc3c 6009 ba3d 3adc e63d
00000260: 5242 8dbe df59 9dbd 0714 9e3d 32a5 b0bd
00000270: bde1 17be 53e6 89bb 7b10 f6be 5157 4a3d
00000280: 551e 363e 8c15 183e 7c61 cabd b03b 4e3d
00000290: 08ec 02be b1f2 94bd cf2e c13b 7a24 503d
000002a0: 71a8 5a3c e5e1 0a3d 40c0 b9bc 28b8 13be
000002b0: a7f7 80be 250c cf3c 99ac 79be ce22 9fbd
000002c0: 39d5 03be 7d0e 2ebe 40d3 393d a1d3 22be
000002d0: f1f3 1abe 4d40 92bc 2fa6 0ebc 5142 15bd
000002e0: e21f 98bc e9e0 d4bd ec14 02be 9179 a1bd
000002f0: f29a 693d 260f 6c3b 4731 d2bd 19bc 8abd
00000300: 9164 81bd f0de 46be 3cad 5c3d 2ac9 ebbc
00000310: e719 32bd a161 8fbd 07f3 9bbe e1bb c6bd
00000320: 3de1 83be 8183 e33b 7c34 a73d 8ac8 18be
00000330: 899b 06be 921e c8bd dae4 32bd de15 a13d
00000340: 8632 d9bd 6a91 583c 9634 5f3e b865 f13d
00000350: febe 49bc 7d3e a63d e6b8 c43d 7528 c83d
00000360: 2b48 c73d 5a7a c5ba e3c6 2fbe 091c 293d
00000370: d03a b4bc db43 3ebe 6642 0f3e cdc6 c23d
00000380: 219f b4bd 665e df3d 96a9 55bd 91ec 763d
00000390: cb7c 15be 5da3 343d 06c0 883d 266e 3fbd
000003a0: 4b0f f33d 9347 ff3d fb0c 24be b90b a83d
000003b0: 1ebc 82bd 125b f7be d6af 0d3d 58c1 e3bc
000003c0: 2218 50bb d2e9 a93d b320 1cbe 3ddc 87be
000003d0: 16d6 e6bd 0053 7d3c d235 46be 4308 4e3d
000003e0: 7d47 c43d acea 153e b3d0 883c a10a 963d
000003f0: 5015 c33d c9c0 563e eb64 e73d c3dc 6f3d
-0.40612617 -0.09849518 0.06351432 0.21017945 -0.23702623 0.06995649 0.11237244 -0.24293032
0.1888181 0.05481721 0.27669564 -0.17448674 -0.25857887 -0.11573652 -0.29232147 -0.39767754
-0.09397051 0.20403202 -0.20121503 -0.1229188 0.24951763 -0.30128336 0.043371793 -0.23940672
0.18969038 -0.11715742 -0.18910734 0.12840715 0.005880637 -0.06426838 0.06817607 0.0036261475
0.18668045 -0.0014321766 0.039971832 0.06376072 0.29667196 -0.3026351 0.028277066 -0.0016356212
-0.17138241 -0.09621526 -0.13648355 0.08097464 0.20161796 0.03227897 0.03847654 0.053475387
-0.35648695 -0.12935336 -0.27754357 0.31170097 -0.39368987 0.036106594 0.30735686 0.029858056
0.09482436 0.053294513 0.06995878 0.17323886 -0.16233882 -0.2746628 0.038307536 -0.08395513
0.000886572 -0.2742626 -0.15486865 0.034870155 -0.23496485 -0.3408934 -0.0851367 0.15926436
0.016274631 0.19340219 0.108681954 0.12925589 -0.36185372 -0.4043553 0.2158417 -0.13390766
0.10348863 -0.010680289 0.07520858 -0.049222644 -0.26626587 0.25236523 0.10383747 -0.15332912
0.31102747 -0.19843973 0.13990366 0.108469084 -0.028576681 -0.23249203 -0.2412326 -0.14274347
-0.32965857 -0.22858688 -0.13437608 -0.38125363 -0.014467601 -0.28861657 -0.14546457 -0.043058027
-0.21028468 -0.15844555 0.02164457 -0.065557465 0.10269776 -0.18237606 -0.44607598 0.010133271
-0.1521132 0.05779558 0.016205793 0.022836361 -0.39970994 0.009883825 0.017512297 -0.043947287
-0.14904787 -0.060006924 -0.28403223 0.14967018 -0.18267533 -0.037573647 -0.30822614 -0.34890398
-0.14290026 -0.009003136 -0.18479796 -0.08896724 -0.06254532 -0.017662091 -0.008521596 -0.16314772
-0.01935012 -0.3880982 0.050924305 -0.20130679 0.06885524 -0.0864745 -0.026207944 -0.057916343
-0.14600913 -0.3188219 0.009459399 -0.072419845 -0.10013064 0.030812072 0.090838194 0.11272474
-0.2758966 -0.07683157 0.07718664 -0.086252585 -0.14832206 -0.004208365 -0.4805945 0.049399678
0.17785008 0.1485197 -0.09881875 0.05034989 -0.12785351 -0.07272852 0.0058954726 0.050816037
0.013345824 0.033906836 -0.02267468 -0.14425719 -0.25188944 0.025274346 -0.24382247 -0.0777031
-0.12874307 -0.16997714 0.04536748 -0.15901043 -0.15132119 -0.017852927 -0.008706613 -0.036440197
-0.01856989 -0.10394461 -0.12703294 -0.07884515 0.057032533 0.0036019771 -0.10263305 -0.06774158
-0.0631801 -0.19420981 0.053876147 -0.028782446 -0.043481734 -0.07001043 -0.30458853 -0.09703804
-0.2575778 0.0069431667 0.081643075 -0.1492025 -0.1314527 -0.09771456 -0.04367528 0.07865499
-0.1060534 0.013218263 0.21797404 0.117869794 -0.0123136025 0.081173874 0.09605579 0.097733416
0.09730562 -0.0015066371 -0.17165713 0.041286502 -0.0220007 -0.18580572 0.13990173 0.095105745
-0.08819414 0.10906677 -0.052163683 0.0602842 -0.14598386 0.044101108 0.066772506 -0.046735905
0.11868151 0.124648236 -0.16020577 0.08205361 -0.06383537 -0.4831167 0.03459152 -0.027802154
-0.0031752666 0.08296551 -0.15246849 -0.26535216 -0.112713024 0.015461683 -0.19356468 0.050300848
0.09583948 0.14640301 0.016701078 0.07326246 0.095255494 0.20971979 0.112985454 0.058560144

fc2.bias f4 [84]
00000000: 667a 2d3e 3938 0b3f 043f b23e 4122 4d3d
00000010: 671e c33e 5a84 253e 49f5 063f ffdf a13e
00000020: c4ab c83e 89c7 863e ad09 023f ed95 8f3e
00000030: 466b c23e 3964 9a3e b0a9 8d3d 3646 403e
00000040: d32a ca3e 3195 933e 3f93 793e ea91 993e
00000050: 1e98 3c3e d225 bb3e f898 bc3e 6dd3 c83e
00000060: 83b8 fa3d a2c0 4b3e b22a 193c 19e2 653e
00000070: d44f a63d 0575 af3d f00a ce3e 4c0c c23e
00000080: a516 8e3e 789a e73e d777 863e 29ed 843e
00000090: 100f 683e ca25 b63e 1d33 8a3e 90dc 31bb
000000a0: 5755 7c3e f584 c33e 8284 f53e 8557 06be
000000b0: 8ca1 6a3e 233f a93e 7efa 5a3e 84a7 463e
000000c0: 2a4b da3e 039c e33e a281 2c3e e6ee 863e
000000d0: 2920 a53e 3382 403e 9429 763e 9ec9 843e
000000e0: e9f6 0c3f 17c2 c13d d04b 9d3e d2cf d43b
000000f0: 40b7 aa3e bb51 a73e 2353 f23d 6163 a4bd
00000100: 49e0 b23b e018 6f3e 89a3 eb3d 3604 0abe
00000110: b47f 743d 08e8 883e f543 ca3d 1187 893e
00000120: 49c2 d73e c658 983e 32fb 773e 6ffd 853e
00000130: 0631 2e3e 2cd8 883e 6bf1 fd3e acdb e93e
00000140: 4376 9f3e f30d 2b3e e1f8 c33e 1941 f53e
0.16941223 0.54382664 0.34813702 0.050081495 0.38109133 0.1616377 0.52718025 0.31616208
0.39193547 0.26324108 0.50796014 0.28044072 0.37972468 0.3015459 0.06917131 0.18776783
0.39485797 0.28824762 0.24372576 0.29994136 0.18417403 0.36552292 0.36835456 0.39223805
0.12242224 0.19897702 0.009348558 0.2244953 0.08120695 0.085672416 0.4024272 0.37900007
0.2775165 0.45235038 0.26263306 0.2596219 0.22661996 0.35575706 0.2699212 -0.0027139522
0.2464193 0.38187376 0.47952658 -0.13119324 0.22913188 0.33055982 0.21384618 0.1939984
0.4263547 0.44454965 0.16846326 0.2635414 0.322511 0.18799667 0.24039298 0.25935072
0.55064255 0.09460848 0.30721903 0.0064945007 0.33342934 0.32679543 0.11832263 -0.080267675
0.005458866 0.23349333 0.11505801 -0.13478169 0.0596921 0.26739526 0.09876243 0.2686086
0.42140415 0.2975523 0.24216917 0.26169917 0.17010888 0.26727426 0.4959825 0.4567541
0.31144914 0.1670454 0.38275817 0.47901228

fc3.weight f4 [10, 84]
00000000: 38b1 4bbe a694 843d c730 2d3e 462b f13a
00000010: b521 18be cf14 36be a599 b03d d210 cc3d
00000020: d34c 8cbe cccd ee3d 0089 2abe 0f5a d5be
00000030: 4b13 82be ce3b 80bd 5a97 6c3d 5e71 39bd
00000040: 2ba5 053e 82a3 9bbb 2214 223e 136c 92be
00000050: 5cd3 61bd 731a 113d 53fa 56be 4d69 113e
00000060: 0dcb 3ebd cc60 653e b03f 08be c571 3abd
00000070: fab2 073e ea87 e0bd 9e23 3d3d 8ea3 31bd
00000080: 7d0c d83c 7d8d 5abe c247 043e 3933 2d3d
00000090: c9a9 ebbd c764 e63d 3cad 52be 0b1b 463e
000000a0: 42e4 3c3d 1ef0 c43d edad 6fbe 0dee 6abc
000000b0: 8c1c 86bc 446d febc 5bb6 cfbd b345 803c
000000c0: bccb a1be 97db 30be 20dc 553d ca92 d23c
000000d0: 654e 8b3c 3b27 2cbe 03a0 6cbe 312b 2a3e
000000e0: e610 043e 63ea 9dbd 1de8 eebd 7aa9 ebbe
000000f0: 5645 a5bd 23b0 c93c 62c0 10be 7d54 5bbe
00000100: 35f5 203d 3b33 2fbf 9e61 25be c418 02bd
00000110: e65f e93c 6650 513c d354 9bbe 7538 793d
00000120: 19c6 f33d 6483 a13a f968 11bd 79df 81bd
00000130: 511a 99bd d136 243e 7409 adbe ec16 59bd
00000140: 4e9f 90be 2a2c ae3d 26de 343d 2d83 6dbc
00000150: 4149 f83e c152 0bbf a00a 9fbe 5203 f33d
00000160: c984 d3bd 6656 a73d 28dc d0be 0d7a 87be
00000170: 53c1 8abe 1422 a23d f040 74be b796 39be
00000180: eda9 fc3d 0a94 d73d 9a9f 49be 7385 b4be
00000190: 5034 aa3d da0e 62be 4b1e 72be c645 6a3e
000001a0: 5058 4a3e 8d9d 9ebe a1d1 5d3e eee8 103d
000001b0: 077e bb3e 26b8 b83d 34de 0d3e 32c0 4dbe
000001c0: e248 f63d 5bce f9bd 6b33 593e c4cf e5bd
000001d0: 7112 21bd 948b 81be 527f 1d3e 7ea4 94bd
000001e0: e3d1 193d b73d 04be 0e32 b63d 68b0 a5be
000001f0: 1191 08be 923e f63d 9981 b1be efcd febd
00000200: dfbd 35be 3893 b5bd 8bd9 1cbe aba3 97bd
00000210: bf9f 2c3e 3603 f5be 5b37 303e 8169 78be
00000220: 6ba3 febc dc52 99be 512e 97be 12c7 81bd
00000230: 5c3d 3bbe f290 e3bd 71c6 0fbe 0e6d 88be
00000240: 99b5 abbd 24e6 8b3d 8394 88bd d6cf 4cbe
00000250: 01b9 37be 2de2 febe 7943 c2bd 08f5 173e
00000260: 932f 2ebd 26e3 87bd 9dc4 e5be c5b7 c43d
00000270: 1d00 2ebe f61f b2be 03ce b6bd 29d4 d33c
00000280: 03e2 213e 2396 25bd 0aa5 10bf c7f4 3bbe
00000290: c322 6fbe 4c29 a6be e89c abbe ae92 453e
000002a0: 9155 983c 5dc1 7e3d d349 dcbd c788 a6be
000002b0: 97f1 8ebe bb0f 453d dcd6 d83d 8b5c 8f3d
000002c0: baee f93d aa22 f63d 112d 83be 64b8 64be
000002d0: c417 31be cce1 6dbe 810f 48be e2da a8bd
000002e0: 503f cebe e2df e33c 7aa1 a6be 4040 993c
000002f0: 40eb a1bb 1848 523d f568 b53b 53f5 2e3e
00000300: fc86 53bd 5191 92be 723b fb3d 7f01 00bd
00000310: 11da a8bd f170 81be 25e3 333e da40 06be
00000320: 915e 8bbe 4218 3d3e 208e e43d 302e fbbd
00000330: b0a0 273d f86c 96be db69 11be 69c2 52bc
00000340: c3f6 a53c 2cf4 b23d 84d5 253e ee13 5ebd
00000350: 0c10 49be a517 2d3e 02a1 e4be ffd6 13be
00000360: 25c0 dfbe ef5c ddb9 db04 bcbe 4f09 363e
00000370: cdd4 d73d d9eb 7b3e 4434 bb3d 0bca 203e
00000380: 2fd9 f83d 034e b3bd 7c22 18be 9353 0cbe
00000390: e8f3 3abe 2994 7cbe 197d e13d 9cf4 7bbe
000003a0: 1ad8 87bd a2c8 f4be ad7d b6bd 023f 03bd
000003b0: 048a e5bd 3205 4a3d 689a 54be a17c e83c
000003c0: 3f07 20bc 0cb5 98be 8b67 93be a6ab b4bd
000003d0: e819 aebc 9454 3bbd a20c e53d b9b3 0ebe
000003e0: 7c2c 11bf 3499 353e f9c5 2ebe 523e f2bd
000003f0: 994e 64be 67de 13be af1c 84be fc2b 14bc
-0.19891822 0.06473665 0.16913138 0.0018399737 -0.14856608 -0.17781375 0.08623055 0.09964146
-0.27402362 0.116603464 -0.16653824 -0.41670272 -0.25405344 -0.06261407 0.057761528 -0.04527413
0.13051288 -0.0047497163 0.15827993 -0.2859808 -0.05513321 0.035425615 -0.20993929 0.14200325
-0.046580363 0.22400206 -0.13305545 -0.045518655 0.13251868 -0.109634236 0.046176545 -0.04336887
0.026373142 -0.21343036 0.12917998 0.042285178 -0.11506993 0.112496905 -0.20573896 0.19346254
0.04611612 0.09616111 -0.23406191 -0.014338982 -0.016371034 -0.031057961 -0.101422034 0.015658235
-0.3160075 -0.17271267 0.05221188 0.02570476 0.017005155 -0.1681184 -0.23107915 0.16618039
0.12897071 -0.07710721 -0.11665366 -0.46027738 -0.080698654 0.024620121 -0.14135888 -0.21418948
0.039296348 -0.68437546 -0.16150519 -0.0317619 0.02848811 0.012775516 -0.30338153 0.060844857
0.119030185 0.0012322483 -0.0355005 -0.06341452 -0.074757226 0.16036536 -0.33796275 -0.053000376
-0.2824654 0.085045174 0.04415717 -0.014496607 0.48493388 -0.5442315 -0.31062794 0.11865868
-0.10328061 0.08170776 -0.40792966 -0.26460305 -0.2710062 0.07916656 -0.23852897 -0.181239
0.12337098 0.10526283 -0.1968979 -0.35258064 0.08310759 -0.22075978 -0.23644368 0.22878179
0.19760251 -0.30979577 0.21661998 0.03537839 0.3661959 0.090194985 0.13854295 -0.20092848
0.1202562 -0.12197562 0.2121102 -0.11221269 -0.039324228 -0.25301802 0.153806 -0.07257937
0.03755368 -0.12914167 0.08896266 -0.3236115 -0.13336588 0.12023653 -0.34669188 -0.124416225
-0.17748211 -0.088659704 -0.15317361 -0.07404264 0.16857813 -0.47854012 0.17208616 -0.24258997
-0.031083783 -0.2994603 -0.29527524 -0.06336798 -0.18285125 -0.111116305 -0.14040543 -0.26645702
-0.083842464 0.06831005 -0.06668951 -0.20001158 -0.17941667 -0.49781933 -0.09485526 0.14839566
-0.04252584 -0.06635122 -0.44876567 0.09605364 -0.1699223 -0.3479001 -0.08926012 0.025858002
0.15808873 -0.040426385 -0.5650183 -0.18355094 -0.23353104 -0.32453382 -0.33518147 0.19294235
0.018595489 0.062196124 -0.10756268 -0.32526228 -0.27918693 0.048110705 0.10587856 0.07000073
0.122037366 0.120183304 -0.2562032 -0.22335964 -0.17294222 -0.23230666 -0.19537164 -0.082448736
-0.4028268 0.027816717 -0.32545072 0.018707395 -0.004941374 0.051338285 0.0055361935 0.17085771
-0.051642403 -0.28626493 0.12267198 -0.031251427 -0.08244718 -0.2528148 0.17567118 -0.13110676
-0.27220586 0.18466285 0.11159921 -0.12264669 0.040924728 -0.29380012 -0.14200537 -0.012863734
0.020259267 0.08737978 0.16194731 -0.054218225 -0.19635028 0.16903551 -0.4465409 -0.14437483
-0.43701282 -0.00042221646 -0.36722454 0.17776988 0.105386354 0.24601687 0.09140828 0.15702073
0.121507995 -0.08755114 -0.14856905 -0.13703756 -0.18257105 -0.24665894 0.110101886 -0.2460503
-0.06633015 -0.4780932 -0.089106895 -0.03204251 -0.11207965 0.04932136 -0.20762026 0.02837974
-0.009767353 -0.29825628 -0.28789935 -0.08821802 -0.021252587 -0.045734957 0.1118405 -0.13935746
-0.567085 0.17734224 -0.17067708 -0.11828293 -0.22295608 -0.14440309 -0.25803134 -0.00904369

fc3.bias f4 [10]
00000000: 9f54 5cbe 5e30 7dbe 0bfe 2b3d 307f e03d
00000010: ae79 16be 24cd 4fbc 49e6 cdbc 66c2 e63d
00000020: 1d15 3f3e af54 16be
-0.21516655 -0.24725482 0.04199032 0.10961759 -0.14694855 -0.012683187 -0.025134223 0.11267547
0.18660398 -0.14680742
