HW1_Split_nb/checkpoints/model_origin_11.pt (torch, 250600 bytes, 10 tensors)

conv1.weight f4 [6, 1, 5, 5]
00000000: db58 9ebc 5f98 9e3e 26a6 6bbe 0ea3 9f3e
00000010: 5a02 8e3d 6ef3 873d ef39 a33e 539a fa3d
00000020: b93c 883e 6a33 493e 1ce5 4fbe ee75 b33c
00000030: ef37 7cbe 3f40 923e 11d5 ab3e 9fd7 42be
00000040: d1b8 cbbe ddee edbe cf9b 473e 4e5f cf3d
00000050: a67e dfbd c21d c8be 5a97 f9be 8ef7 6c3e
00000060: c8c7 9bbd ad54 133e ad1b 883e 2df6 6a3e
00000070: 8902 09bf 5f17 b8be 63ac 3abe 7038 923e
00000080: ab3e 133f 6321 9dbe 824e 04bf 323e 203d
00000090: e0d0 f33d 26a8 8d3e 599f 7ebe 8793 7fbe
000000a0: 9778 9dbe 9915 ca3e eef5 d63e be7a 65be
000000b0: c337 32be 8743 e3bd 6b3a 4c3e 4f0b cd3e
000000c0: baae 31be 9ffd 8e3d 80e8 b5be 5d2c 2cbd
000000d0: 2eb9 9fbe e9bd 77be c57c 40be d4c1 7cbe
000000e0: 18e3 523e 21f4 4c3e ca2c 553e db55 e13d
000000f0: 627c 353e 1c45 b03e 825d 8c3e b1db bb3e
00000100: d77f c03c b115 943e 2d30 b13d 4e44 ab3c
00000110: 44a4 463d 41f0 83be 030d 433d 3cde 2ebe
00000120: eb43 3abe a9bb d8be 4c04 28be c996 84be
00000130: 4aa1 3a3e 114e 2cbe bdd8 af3d 3493 77be
00000140: 5a1e 84bd 03ea 91bc 3af8 d63d 4f5c 1e3d
00000150: be64 ccbd 471b 5ebc 5240 853e 9aa1 3c3d
00000160: 0a32 863e 75c0 bfbc 48c6 fd3d 732f c53e
00000170: 76c0 e4bd 83a5 5ebd b2c5 643d 95f1 7c3e
00000180: 92e1 963e 6110 4bbd 7578 29be 5c32 bebd
00000190: f235 9b3d 8e04 4dbc 1c12 c4bd 167d e1bd
000001a0: 02ad 04be 868f a73d e147 5a3e 22ac 06bd
000001b0: 01b6 4abd acdd ebbd e370 843e 1574 d83e
000001c0: ff7c 2d3e 1a08 1dbd 90c0 5abe aef6 383e
000001d0: be79 a03e d1f5 f6bd fd17 adbc ad71 e0be
000001e0: 5833 423e 8b97 9abd d363 dbbd 0ad0 8cbe
000001f0: f1d1 04be 4c01 d0bd cb3c d5be b8f3 2abd
00000200: 0a5e 32bf 11fe febe 728d 483e 3d5a e1be
00000210: b5da 30c0 b965 45c0 5e0c a4be a9a8 5b3e
00000220: 0a5c 80be 0a7f f4bf 4b78 afbf 844a cf3e
00000230: daa3 c53e 05a5 ac3e 3a61 e53c 7b29 1dbd
00000240: 4c2e a53e c2f6 a73e ba4b 603e 7168 503e
00000250: 39a2 8abd 3d6d 873d
-0.019329479 0.30975625 -0.230126 0.31179088 0.06934042 0.066382274 0.31880137 0.12236466
0.26608828 0.19648519 -0.20302242 0.02190682 -0.24630712 0.2856464 0.33560994 -0.19027565
-0.3978944 -0.464713 0.1949303 0.101256 -0.10912828 -0.39085203 -0.48748285 0.2314131
-0.076064646 0.1438777 0.26583615 0.22945471 -0.53519493 -0.3595533 -0.18229823 0.28558683
0.575175 -0.30689535 -0.51682293 0.039121814 0.11905074 0.2766735 -0.24865474 -0.24958621
-0.30756065 0.39469603 0.41984504 -0.22410104 -0.17404084 -0.11096864 0.1994416 0.4004769
-0.17351809 0.06981968 -0.35528946 -0.042034496 -0.31195968 -0.24193539 -0.18797596 -0.24683315
0.20594442 0.20015003 0.20817867 0.11002704 0.1772323 0.34427726 0.2741509 0.3669105
0.023498459 0.289228 0.08651767 0.020906594 0.0484965 -0.25769237 0.04761983 -0.17076963
-0.18189971 -0.42330673 -0.16407889 -0.2589629 0.1822559 -0.16826655 0.085862614 -0.24177247
-0.064511016 -0.01781178 0.10496564 0.03866225 -0.099801525 -0.013556308 0.26025635 0.046052553
0.26210052 -0.0234072 0.12391335 0.38512763 -0.111695215 -0.054357063 0.0558526 0.24701531
0.29468971 -0.049576167 -0.16549857 -0.09286949 0.075786486 -0.012513293 -0.095737666 -0.110101864
-0.12956622 0.08181672 0.21316482 -0.032879002 -0.04948998 -0.1151689 0.25867376 0.42276064
0.16942213 -0.038337804 -0.2136252 0.18062851 0.31342882 -0.120586045 -0.021129603 -0.43836728
0.18964899 -0.07548436 -0.10712399 -0.2750247 -0.12970711 -0.10156497 -0.41647944 -0.041736335
-0.6967474 -0.49803212 0.19585207 -0.4401416 -2.7633488 -3.0843337 -0.32040685 0.21451057
-0.2507022 -1.9101269 -1.3708586 0.40486538 0.3860157 0.3371965 0.028000463 -0.038369637
0.32261884 0.3280545 0.21903887 0.20352341 -0.06769223 0.066126324

conv1.bias f4 [6]
00000000: 87eb 8a3d 93ab 8bbc 89a5 e6bd 3431 2cbe
00000010: 2b06 453e 575d d03e
0.067832045 -0.017049586 -0.11262042 -0.16815645 0.19240634 0.40696213

conv2.weight f4 [16, 6, 5, 5]
00000000: 479b 8c3d 40d6 12be 956c 33bf d780 bcbe
00000010: 8d49 283e ea4b f6bd 8dfd 8abe e05a a0be
00000020: e241 36be 69d2 893d 1d0a 11be a5e9 edbd
00000030: 9d00 cebd d863 133e 1cc7 a03e 1308 40be
00000040: 4800 5abe 2dd1 83be 8efd 693b fc49 463e
00000050: 745b efbd cd5c 6a3d b42b 32bd cda1 183d
00000060: d270 c23d 7c9b f23e 2e4d 69bf 6255 32bf
00000070: 13e1 f1bd d42f c43d 2712 2bbe e3c7 4fbf
00000080: 155a 53bf e150 85bc eec8 5f3e a930 14bf
00000090: afca 45bf 6416 74bf edb2 153d 2eb4 553e
000000a0: a985 90be f41c 47bf 3256 94bf 4301 9dbd
000000b0: 3c17 a73d 1917 3bbe 98ae 10bf 3dea 4cbf
000000c0: b068 7ebe 23cf 51bd a13c e9bd 4e6e 42be
000000d0: edc5 a6bd 066a 103e bb8e 0d3e 6908 0bbe
000000e0: e006 1dbe 1d8b 9d3b ff56 1e3e a780 983d
000000f0: a5ab 75be a426 1e3e 12ed 033d 6f30 143e
00000100: 16d8 e73d fbd2 febd ce22 49bc 65db a13d
00000110: c3ef 033e e674 62bc 32d4 b43d f5e1 d83d
00000120: 1823 3c3e cb6d 283e 6803 a7be f689 9fbe
00000130: 6ca3 5dbe a13d 9b3d cb9f ff3d 554f f33d
00000140: 9884 73be 211e cbbd 4e89 ee3d fa3d 193e
00000150: c4e9 f93d 8b91 8dbd 2887 17bd 4e5e 993d
00000160: 2afa b23d dacd 093e 9a6b b43c 02a4 753d
00000170: 40e2 ce3d 47ee 703d 01c0 803c a023 5c3d
00000180: 0e9e 0a3e 3aca 063e 9ddb 4e3d 15f7 3abe
00000190: 2acb 103e 28e7 ccbd f29f 85bc 6fff f53d
000001a0: 01a4 b8bc 7947 7e3d fc22 143c ae8e 9a3c
000001b0: 9a7d 763e 8fbc af3c 289b 2dbe 0355 91bd
000001c0: 33e6 b3be ef71 303e 41bb 343e 612b 67bc
000001d0: 597b acbe 2e26 96be becd 393e e801 0f3e
000001e0: 64b5 df3d 4d66 38bb 099c 213d ee4b 893e
000001f0: 5d58 353e 8ff9 673f c2dd ad3e 7179 14bf
00000200: 4996 19bf 0130 f3bd 141f c83e 86c9 b53d
00000210: ecd8 adbe ddbe a4be b2a6 7abc 9a42 e23e
00000220: a73a da3c 240f 06be 6b06 6dbe 6572 f13d
00000230: 6153 5a3e cf3e 733d ae46 d7bc da56 c2be
00000240: 6168 c8bd 048b 1bbe 34f5 3bbf 5fa6 e4be
00000250: 3305 be3e df0a 4d3e bc92 223d 74db b63b
00000260: 06e0 ac3d 18cf a13d 4400 9bbe eb84 0fbe
00000270: 1457 b23d b780 8f3e 31c8 f73e 500b 1ebe
00000280: b58a 6fbe ec67 05bf 359e 5abd 8093 043f
00000290: b033 da3e 1e47 abbd f498 b4be 5fcf aebd
000002a0: 0a8e 0a3e 8562 4abd 51a7 2c3e 480a 94bc
000002b0: 0581 bf3c be1b 663d 1392 76be 5164 3dbe
000002c0: 737f 49bf 9f24 9ebd 123e 6abd 09a3 443d
000002d0: 8690 86be b1d7 a2be 71e0 b33a ed88 033d
000002e0: 9790 bd3d 74b8 49bd 613b 8f3e 205d a33e
000002f0: 9a40 bf3c f8f5 013e e1b6 ad3d 32f8 e93e
00000300: 13d5 033f 6b32 313e b0f5 0f3e 697a 08be
00000310: 6cf5 b63e 5836 263f b754 1cbe dad0 10bd
00000320: 9d95 8abb 05c6 c8bc 2f4b 203d c1f0 5cbe
00000330: 8d46 05be e74a f13e 728b e1bb 3114 e0bd
00000340: e4ac ecbd 2913 b13d b126 493d 0a6c ccbd
00000350: 8b64 1cbe 157d a9bd b6c7 21bd faf8 123e
00000360: 9ee9 d83d 6383 93bd 3c1c f2bd 2d33 0dbe
00000370: daa5 c93e 7f53 573e 227a 8bbd 21e9 5c3b
00000380: 3121 8c3d 5e21 1cbe 8583 6cbe ace9 8ebd
00000390: 9eb8 42bd 673b f53c 0013 0cbe 0fa4 26be
000003a0: 0c52 75be c3bd 11bd ff09 f13d a936 07be
000003b0: ba77 93bc 50a3 7cbe e228 a8bd 4832 a7bc
000003c0: a985 7a3c 4ea9 253e c1ac 43bb ad62 22bd
000003d0: 5462 8ebc 060b de3d b751 d83d 2a6f bfba
000003e0: e51a 3abd 6b45 b6bd 1923 9ebc 2a1e 86be
000003f0: 77f2 47bd ecee 013d d3cd 9fbd ae2b fbbb
0.06865554 -0.14339542 -0.7008756 -0.36817047 0.16434307 -0.12026198 -0.2714657 -0.31319332
-0.1779857 0.06729586 -0.14164014 -0.1161683 -0.10058711 0.14393556 0.31401908 -0.1875308
-0.2128917 -0.25745526 0.003570411 0.1936416 -0.11687365 0.057217408 -0.04349871 0.03726368
0.09494175 0.4738425 -0.9113339 -0.69661534 -0.118105076 0.09579435 -0.16706143 -0.8116438
-0.8255933 -0.016273918 0.21853992 -0.5788675 -0.77262396 -0.95346665 0.03654759 0.20869514
-0.28226975 -0.77778554 -1.1588805 -0.07666256 0.081587285 -0.1827053 -0.5651641 -0.8004492
-0.24844623 -0.05122293 -0.11388517 -0.1898739 -0.0814322 0.14102945 0.13823979 -0.13577427
-0.15334654 0.0048078434 0.15462874 0.074464135 -0.23991258 0.15444428 0.03220851 0.14471601
0.11320512 -0.12442585 -0.0122763645 0.07903174 0.1288443 -0.013821816 0.088295355 0.10589973
0.18372762 0.16448133 -0.32619786 -0.31159943 -0.21644372 0.07580114 0.1248165 0.11880366
-0.23781049 -0.09917856 0.116472825 0.14965048 0.122027904 -0.06912526 -0.03699413 0.0748869
0.08739121 0.13457432 0.022023965 0.059970863 0.101017475 0.05882099 0.015716555 0.053744912
0.13536856 0.13163081 0.05050241 -0.18258317 0.14140001 -0.10005027 -0.01631162 0.12011611
-0.02253914 0.06207988 0.009041544 0.018866863 0.2407135 0.021452216 -0.16953719 -0.07096293
-0.35136566 0.17230962 0.17649557 -0.014109463 -0.33687857 -0.29326004 0.1814489 0.13965571
0.109232694 -0.0028137148 0.039455447 0.26815742 0.17709489 0.9061517 0.3395825 -0.57997805
-0.5999494 -0.118743904 0.3908621 0.08876328 -0.3395456 -0.32176867 -0.015298532 0.44191438
0.026639296 -0.13091713 -0.2314698 0.11789397 0.21320869 0.05938607 -0.02627882 -0.37956887
-0.09785534 -0.15189749 -0.73421025 -0.4465818 0.37113342 0.20023678 0.039690718 0.00558036
0.084411666 0.07900828 -0.3027364 -0.14015548 0.08708015 0.2802789 0.4839492 -0.15434003
-0.23392756 -0.521117 -0.053373534 0.5178757 0.4261756 -0.08363174 -0.35272944 -0.08535647
0.13530746 -0.04941036 0.16860701 -0.018071309 0.023376951 0.0561788 -0.2407916 -0.18495299
-0.787101 -0.07721829 -0.0571881 0.048007045 -0.26282138 -0.31805184 0.0013723505 0.032113004
0.09256094 -0.049248174 0.2797499 0.31906986 0.023346234 0.12691486 0.08482147 0.4569717
0.51497 0.17304389 0.14058566 -0.13327946 0.35734117 0.6492667 -0.15266691 -0.035355426
-0.004229261 -0.024508486 0.0391342 -0.21576215 -0.13015194 0.47127458 -0.0068830783 -0.10941351
-0.11556414 0.08646233 0.049109165 -0.09981544 -0.15272729 -0.08275811 -0.0394971 0.1435279
0.10591434 -0.072027944 -0.118217915 -0.13789053 0.39384347 0.21027945 -0.06810404 0.0033708292
0.06842268 -0.15247104 -0.23097046 -0.06978163 -0.047539346 0.029935552 -0.13679123 -0.16273521
-0.2395708 -0.03558136 0.11769485 -0.13204445 -0.018001426 -0.24671674 -0.08210923 -0.020409718
0.015290656 0.16177866 -0.0029857608 -0.039644886 -0.01738087 0.10841946 0.10562461 -0.0014605273
-0.045435805 -0.08899959 -0.019303845 -0.26194888 -0.048815217 0.031721994 -0.0780293 -0.007665119

conv2.bias f4 [16]
00000000: 7473 7c3e d8ae e1bd 8f7d 6abd 0cfc 093e
00000010: b1b8 373e 1dbf 3a3e cf0a 793e a7ec e03d
00000020: fe61 ddbd b517 af3c 081c 04be a4da b93e
00000030: bf98 4fbd 87e0 bebd 389a 653e fb65 bb3e
0.24653417 -0.11019677 -0.05724865 0.13475055 0.17941548 0.18236966 0.2432053 0.10982638
-0.10809706 0.02137361 -0.12901318 0.36299622 -0.05068278 -0.09320169 0.22422111 0.36601242

fc1.weight f4 [120, 400]
00000000: 6cae 82bd 8fcd 8ebd bcec 06be 9389 07bc
00000010: f87a 2f3e 686a cdbd 93c2 9d3d 8baf 53be
00000020: 1d69 c43c 8df2 ccbd e46a c4bc bb38 ca3b
00000030: 2734 1bbe 5e79 b33d e83b a8be c3ee 163d
00000040: ccfc 05be 7fc1 aebd 8769 8d3d 0294 30be
00000050: 4323 223e 0102 1ebe 7e91 bebd 8140 22be
00000060: 75a6 cebe 4b60 e13d 8d13 543c e050 c13e
00000070: 9064 fe3d f181 c2be 8b7d ddbd 2e82 c23d
00000080: 03b6 a53e f792 893c a173 4bbd c3d3 85bd
00000090: 448d ddbd 8577 c73e d862 4c3d 7c77 3d3e
000000a0: 3663 2b3e 38ce 93bd 66f6 943d 5834 773a
000000b0: 2f0b 44be d685 323e 76b8 13bd 4b64 633e
000000c0: cffe 8c3c 00c8 d2bd d1c2 f2bc 7aae bc3b
000000d0: 1505 5b3d 9816 243d f76d 67bd 489f efbb
000000e0: 8cb1 6f3c b74b 633b d851 80bd 3255 68bd
000000f0: b97c edba a44a 473d a88f 33bd c055 35bd
00000100: 08ce c2bc b357 953d 34b8 953d c02e 883d
00000110: 292f 77bd 0e7a 2cbd f664 5a3c a7bc 5e3c
00000120: edbe 513c 4031 86bc e2e1 01bd 77d4 433e
00000130: 0ff0 5a3e 85fa dd3d 5c67 8c3d c224 813e
00000140: ba9f 85bc fae0 fb3d 47cd 0e3e ae46 f7bd
00000150: a00e a03d f76c 80bd 9886 003e 3ac7 583d
00000160: 80b6 7dbd b270 4a3d 727c 6d3c b939 b93d
00000170: 6101 073e 2ea1 d53d ba44 123e ab95 1dbd
00000180: eaad fb3c 9e49 b93b 55bb 1b3d 2bb0 90bc
00000190: e00b b5bd 71b1 00bd e61f 183a 6c5e 57be
000001a0: d479 28be be6e 96be c09e a1bd 9fe8 41bd
000001b0: f34d b9bd 0c87 c6be 0985 c8be 9f5f 1cbc
000001c0: 0d14 743e 1ec6 bd3e 32e6 4dbe 13c7 9dbe
000001d0: 531b d73b 0004 363d 376a 673e 137c 66be
000001e0: e22d 25bf 0a70 a83d 4792 a1be 854f 3bbe
000001f0: ccc6 c13d 0e95 5e3d d3c6 a0be 21c2 7c3b
00000200: e484 3cbe 1901 3abd a055 69bc 92e1 98bd
00000210: dcab da3d 7329 13bc cc34 fdbc 73fb 30be
00000220: 6f40 83bc 8b53 563e e5a6 c43d d53b 88be
00000230: 1327 d9be 77c3 67be bcb3 363e 5408 1b3e
00000240: eee9 40be 4581 28be ebbe 96be ab33 2dbe
00000250: d173 b03e f48b e5be f560 cb3d 9b03 da3c
00000260: 713a b4bd 3e97 e93d eac7 a1bc c003 cabc
00000270: 6966 cabd 890d 86be 5b62 cfbd 85ad 2dbe
00000280: 9698 76be 3340 e8bb 4b2b 55be 47d0 453b
00000290: a680 cbbe 8a88 6abe 51f4 aabd fc76 ad3d
000002a0: 4b60 2a3e f8be f0be e0da 9ebd f9a7 b8bd
000002b0: baef f63d e5f8 a83e 1ecf b4be 96c9 053e
000002c0: 3bde 523d 8fc6 223d 9b48 30be ce7e 20be
000002d0: dece 96be 3f65 ab3d c996 e8bd fd4e e5bb
000002e0: 22d2 d93c 7d1f 3cb9 b3d7 5a3e 8674 85bd
000002f0: d262 25be c68d ad3d 1132 d9bd 7387 3cbe
00000300: 6932 54be 8958 8abe 4d73 c5bc 7601 fcbe
00000310: 2721 c7be f965 febb 75c1 6abe 577f 77be
00000320: f3c5 ee3c 6098 c0bc 409e 923b 6d04 1fbc
00000330: 8327 4fbd 67d8 7cbc c264 3fbd bd2b cb3c
00000340: 03a6 e23c 0fd7 3dbd 0d8b e43b 5a34 5c3c
00000350: c736 113d e502 74bc 3d61 ddbc 0a58 1ebd
00000360: fa7e 2a3d cf88 09bd c04d f1bb d070 193d
00000370: 1d1d fcbc 1318 6d3c 0a4b 84bc c52b 42bd
00000380: f3df 94bc c355 c0bd 572b fa3d 6909 acbd
00000390: 436e 583e 66d3 823b d022 4b3c 7a8d 313e
000003a0: a033 07be 8317 333e 8bb5 2cbe e872 013e
000003b0: 151b 89bd acc0 71bc eb38 b5bc bdac 2cbe
000003c0: b6a7 393e 9574 4fbe 0fcf 59be 6278 78bd
000003d0: 2d4d 65be 0161 843e e402 85be 0b6e d8be
000003e0: 6001 373d 703d a0be 8fb2 173d 7e4e dc3e
000003f0: 7d41 3cbd 5512 01be 4f7d 7bbe 4975 8e3d
-0.063809246 -0.06972801 -0.13176244 -0.008272546 0.17136753 -0.10030061 0.07703128 -0.20672433
0.023975903 -0.100072004 -0.02397675 0.0061713136 -0.15156613 0.08763383 -0.32858205 0.036848795
-0.13084716 -0.08533 0.06904893 -0.1724396 0.15833764 -0.15430452 -0.09305094 -0.15844919
-0.40361372 0.110046946 0.012944114 0.37757015 0.124215245 -0.37989762 -0.10814961 0.09497486
0.32365426 0.016793711 -0.04967082 -0.06534531 -0.1081796 0.38958374 0.049898952 0.18502611
0.16737065 -0.072170675 0.07273559 0.0009430102 -0.19144891 0.17433867 -0.036064588 0.22206227
0.017211346 -0.10292053 -0.029633911 0.005758104 0.053471643 0.04006061 -0.056501355 -0.007312689
0.014629733 0.003468258 -0.062656105 -0.056721874 -0.0018118835 0.048655167 -0.043838173 -0.04427123
-0.023779884 0.07292118 0.073105246 0.06649542 -0.06034771 -0.042108588 0.013329735 0.013594783
0.012801868 -0.016380906 -0.03170956 0.19124018 0.21380638 0.108387984 0.06855652 0.25223356
-0.016311515 0.1229877 0.13945495 -0.12074028 0.078152895 -0.062707834 0.12551343 0.052924372
-0.061941624 0.04942388 0.014495002 0.09044213 0.1318412 0.10431133 0.1428403 -0.038472813
0.030722577 0.005654528 0.03802045 -0.017662128 -0.088401556 -0.03141922 0.0005803093 -0.21032113
-0.16452724 -0.29381365 -0.07891607 -0.047340985 -0.09048071 -0.38774908 -0.39163998 -0.009544282
0.23835774 0.37065214 -0.20107344 -0.30815944 0.0065645366 0.04443741 0.22599111 -0.22508268
-0.64523137 0.08224495 -0.31556913 -0.18292053 0.094617456 0.05434137 -0.3140169 0.0038567858
-0.18410069 -0.045411203 -0.014241606 -0.07464899 0.10677311 -0.00898205 -0.030908965 -0.1728342
-0.016021935 0.20930307 0.09602145 -0.26608148 -0.42412624 -0.22633158 0.17842 0.15139896
-0.18839237 -0.16455562 -0.29442534 -0.16914241 0.3446336 -0.44833338 0.099306025 0.026613047
-0.08800209 0.114058 -0.019748647 -0.024659991 -0.098828144 -0.26182202 -0.10126182 -0.16960724
-0.24081644 -0.0070877313 -0.20817296 0.0030183957 -0.39746588 -0.22903648 -0.08347381 0.0846996
0.16638295 -0.47020698 -0.07756591 -0.09016413 0.12057443 0.3300239 -0.35314268 0.1306518
0.051481467 0.03974014 -0.17215197 -0.15673372 -0.29454702 0.083689205 -0.11356885 -0.0069979415
0.026589457 -0.00017940807 0.21371345 -0.06516366 -0.16150978 0.08474307 -0.106052525 -0.18411045
-0.20722355 -0.27020672 -0.024102831 -0.49219865 -0.3889248 -0.007763621 -0.2292536 -0.2416967
0.029147124 -0.023510158 0.0044744313 -0.009705645 -0.05057479 -0.015432454 -0.04672695 0.02480113
0.027667051 -0.046347674 0.006974584 0.013440216 0.03545263 -0.014893268 -0.027023906 -0.03865818
0.041625 -0.033577736 -0.007364005 0.037461102 -0.030775601 0.014471072 -0.016149063 -0.047405023
-0.018173194 -0.09391358 0.12215298 -0.08400232 0.21135812 0.003992486 0.012398437 0.17339125
-0.13203287 0.17489438 -0.16866128 0.1264149 -0.066946186 -0.014755409 -0.022121867 -0.1686277
0.18130383 -0.20259316 -0.21270393 -0.06066168 -0.22392721 0.25855258 -0.25978768 -0.42271456
0.044679046 -0.31296873 0.03703552 0.43028635 -0.045960892 -0.1260465 -0.2455952 0.06955964

fc1.bias f4 [120]
00000000: 6d6b 683d 8bf3 073e df54 0f3e 63e4 7d3d
00000010: 4bbf 73bd aeaa 4cbd 0b75 fdbc 05b2 c8bc
00000020: ffd2 8abd 6cb2 9abc dd9c d2bc 63cd 44bd
00000030: b834 2b3e b281 753e 0cb2 a0bc bf1d 95bc
00000040: a1e9 a1bb 977f 013e c7fa 173e 788b ce3d
00000050: 01e1 5fbd 9ca0 30bd c2b0 a6bd 7246 c73d
00000060: ecc8 8abd 6be1 d739 7d36 aa3d cd57 ac3d
00000070: 4692 ea3c 95ea 343e 343d b7bd a5ba 3bbd
00000080: db4f 793e b737 79bd 9271 7fbd 9872 64bd
00000090: c985 46bb 6e4a d4bb 0cbf 953d 44c6 d43d
000000a0: 2c2a f1bc 560a da3d 24a9 023e 34da b53d
000000b0: ea7f d9bc 375e 56be feaf 60bd f08b 90bd
000000c0: a5f2 903d cb36 e6bc 96c2 fd3d 7c47 9bbd
000000d0: 9835 433e bc3e f23d 5aaf 2dbc 21c9 eb3c
000000e0: 2741 ea3b 68aa 8abc 4071 333d d9fb 05bd
000000f0: c13f 8a3d b83b 79bc f281 033e e4cf bcbd
00000100: 9769 1ebd bdb2 97bd 4596 7cbd 4606 6e3e
00000110: a42b 2a3d a45f e23d ea7a 3abd a371 d83d
00000120: 12b2 193e dee7 e63d 58f6 b63c 0145 0f3e
00000130: 9392 323e a43a d53c 6550 cdbd f90e f53c
00000140: 598f 45bc a426 01bd 9cab 2abd 98f4 503e
00000150: d208 8a3e bca9 b0bd 66bc 72bd 5f1e 30bd
00000160: 5f62 583d e4b7 06be 4fcd 613e 1a4e 0bbe
00000170: d492 1f3e 1a99 293e c496 39bd 1257 7a3e
00000180: 933c 5dbd 6bf1 de3d c196 27bc 4083 a1bc
00000190: 0f3a b9bc d28a 0d3e d3da 4fbc f95f 20bc
000001a0: 4984 87bd 0f79 013e d351 ca3d cfc6 a23d
000001b0: 9c5b 5c3e 826c 16be 56e3 1d3e df38 153d
000001c0: 1b66 453e ebc5 673e bd9e 383e c02d 373e
000001d0: efa7 7abd ccbc 53bd 94d6 db3d d4be 7b3e
0.056743074 0.13276498 0.1399722 0.061985385 -0.059508603 -0.04996746 -0.0309396 -0.024498949
-0.067785256 -0.018883906 -0.025709564 -0.048047435 0.1671933 0.23975256 -0.01961615 -0.01820266
-0.004941181 0.12646328 0.14841758 0.10085195 -0.05465794 -0.04312192 -0.081391826 0.09730233
-0.06776604 0.00041175945 0.08311174 0.08415184 0.028634202 0.17667611 -0.089472204 -0.045832295
0.24346869 -0.06084415 -0.06236417 -0.055773348 -0.0030292145 -0.0064785993 0.0731183 0.10389379
-0.029439054 0.10646503 0.12759835 0.088795096 -0.026550252 -0.20934378 -0.05485534 -0.07057941
0.07077531 -0.0281023 0.1239063 -0.07581994 0.19063413 0.11828372 -0.010600889 0.02878243
0.00714888 -0.01692696 0.043809175 -0.032710884 0.06750441 -0.015211992 0.12842539 -0.092193395
-0.038674917 -0.074071385 -0.061666746 0.2324458 0.041545525 0.11053398 -0.045527376 0.105685495
0.15009335 0.11274694 0.022334263 0.13991167 0.17438726 0.026028939 -0.100251 0.029914366
-0.0120581025 -0.03153099 -0.041667566 0.20405805 0.26959854 -0.08626124 -0.059261702 -0.042997714
0.05282819 -0.13156086 0.22050975 -0.13604012 0.15583354 0.1656231 -0.045309797 0.24447277
-0.054012846 0.108858906 -0.010228814 -0.019715905 -0.022610692 0.13822487 -0.012686449 -0.009788507
-0.06617028 0.12643836 0.09878888 0.07948076 0.21519321 -0.1468983 0.15418753 0.03643119
0.19277231 0.22634093 0.18029304 0.17888546 -0.06119531 -0.051693723 0.10734287 0.24584514

fc2.weight f4 [84, 120]
00000000: a638 37bd b0db 983e 8343 fd3c c238 a83e
00000010: 558d 56bd 45d5 14bd bc33 cfbc 40b0 0a3c
00000020: a34c 03ba 2140 94bc ed58 abbd 5c0c 51bd
00000030: 3fd2 1a3e b7e4 883e 3eec 08bf 6a20 93bc
00000040: 7738 a0be 5c59 48bf 8751 d23d b1e4 eb3e
00000050: ca03 733b f75b 6ebd 737c e33b 223f a5be
00000060: 0c5d d7bd 8ce8 743d ea8f 71bd 1ec4 433e
00000070: a5a4 263e 5cf9 9b3e 0fd1 2a3e 1159 fc3c
00000080: 7922 1fbd 1289 193c a0ae f13d 3ba9 a8bd
00000090: 17ce 1abd 0810 8dbe 7016 f33e cbd6 493e
000000a0: 6815 87bd 3b9c 5e3e f198 abbe 2c33 19be
000000b0: 394a b8bd 9fae 04bf 36e7 393d fbb5 653d
000000c0: 4bb6 3fbe 9456 48be dd10 02be fa33 da3d
000000d0: 7acb 803e d72c 87bc c82c ddbe e241 393e
000000e0: 27ef da3e 5fb7 5f3e 978b db3d 5888 123d
000000f0: d8a7 b5be 3b72 8b3c 6199 5a3e 7d42 b7bc
00000100: 4613 1a3d 8719 083e cbe4 acbd e946 823e
00000110: a58a 5dbd 8725 f6bd 97b1 debe a0d8 1b3d
00000120: e76b ffbe bf47 9d3d 075b a83d bcd6 01be
00000130: e08d 3dbe 4382 03bd 7908 513d 5819 d53e
00000140: 5003 9abd 4a15 98bd bf49 523e e425 5ebc
00000150: 7460 db3c 9194 b83d b1d8 80be cd48 17bf
00000160: fac7 563e effc 5e3d 25ce 41be 9d36 6e3c
00000170: ba21 903d fe7e c73e 12b4 cabd bdff 22be
00000180: e85c b73d d80d 9ebb c3a2 b3bc c4c8 1cbd
00000190: 5053 cabd 9460 a9be 4d08 ab3d 4765 68be
000001a0: e924 64bd 5e4e 973e d846 4c3e 6db8 66be
000001b0: 5d3c 10bf 7e48 03bd b4f5 d0be c679 fc3d
000001c0: ed88 d43e 7eba d73e 9b62 ad3e a2ce 403e
000001d0: 85c2 c33a 2487 d03d a2f4 663e 4b21 42bf
000001e0: 735c c33d 8b4d da3c a95e 2dbe 9182 57be
000001f0: 305a 2bbb 77ee a03c 89d6 d83c ad6c 4e3d
00000200: e874 0fbd dfc1 8e3d c4d1 a1bd 9e3e 173d
00000210: 272a c3bc f340 b23d c2ac 183e ca3b 3fbd
00000220: a105 993b 127a ca3e 6d5a 893e 3c1a eebe
00000230: 76e1 a7bd 0018 633d 9345 66bb b6ea af3e
00000240: 9b09 a3bd 9b91 98bd 38e4 833e 1282 bd3e
00000250: 9475 d0be b1fc 753e 7d56 35bd 40b1 243d
00000260: 3bcc 123e a312 e43b 27fd be3d a19c bd3d
00000270: e006 30bd e9fa b43c 29a1 2bbe 078a f1bd
00000280: f13d b53d 89bb 8f3d e4fc 5c3e 6c29 9b3e
00000290: 4f6d 8abd cff1 513e 9669 09bd 828d 513d
000002a0: de45 3a3e c78b 9b3e 728d b1bd 8b72 d33b
000002b0: e7f5 1fbe caff 97be e83e 5ebe 1013 993c
000002c0: d96b febd 9329 67be 8eef 733e 1584 7d3d
000002d0: 333e d4bd aaf1 1cbc 4fc6 d7bc cf55 cc3d
000002e0: 0389 acbe 59e1 5e3d 5104 d7bd 88fa cc3d
000002f0: 630c c9be c0e1 b1bd d8ac 813d 76ed 703e
00000300: 4027 9e3e 8a65 fb3d 5ca2 e5be 2d23 f93d
00000310: cb03 c53c ca24 2dbe 5382 5abd f4dd 993d
00000320: 3f81 65bc b679 b33d 496b 3d3e fdbe 99be
00000330: f39b c7bd 817e 91be cfde 413e 0d00 163e
00000340: a33f 3fbd 5fd1 f1bb d4a6 6bbe 206b 07be
00000350: ee40 bd3e d03b cb3d 5c6b 0e3e 5bfb 09bd
00000360: fe62 a13d 650b 27be d86e 8bbd 36ee 1dbd
00000370: 7e3b 53bf 55b6 6c3e b64a 233d cfa6 4bbe
00000380: e76a a13d 9f64 633e 7774 b83d 1a6b 233e
00000390: 6a29 2e3e aeeb 86be 5912 b3bd 03e6 eabd
000003a0: 8b8b c33d a377 9ebd 010a dcbd b404 e1bc
000003b0: 4eef 08be 1729 6fbc 339a 823e 97cc 20be
000003c0: 04f4 67be f7f3 123d ea0d 35be 3f57 cabd
000003d0: 8ee0 133d dbed c63c f133 b6bc 5d28 3e3a
000003e0: 099e 1e3c 0afb 893d 016a 66bd 569f e73c
000003f0: 0fe8 423a 8548 79be 67e9 6bbe bc41 75bd
-0.04473176 0.29855108 0.030915981 0.32855803 -0.05238088 -0.036336202 -0.025293224 0.008464873
-0.0005008673 -0.018096985 -0.083665706 -0.051037177 0.15119265 0.26736996 -0.53485477 -0.017959792
-0.3129308 -0.7826135 0.10269456 0.46072915 0.0037081116 -0.058193173 0.0069423257 -0.3227473
-0.10515794 0.059792086 -0.058975138 0.19117782 0.16273744 0.30463684 0.16681312 0.030804189
-0.038851235 0.009371059 0.11800885 -0.08235403 -0.0377942 -0.27551293 0.47478056 0.19710843
-0.0659588 0.21739285 -0.33515123 -0.14960927 -0.08998532 -0.5182895 0.045386516 0.056081753
-0.18721883 -0.19564277 -0.12701745 0.10654445 0.2515524 -0.016500873 -0.43198228 0.18091539
0.42760584 0.21847294 0.10719984 0.03577456 -0.35479617 0.017022243 0.21347572 -0.022370571
0.037616037 0.13290988 -0.08442076 0.25444725 -0.0540873 -0.120188765 -0.43494865 0.038048387
-0.4988701 0.076797 0.08220487 -0.12679571 -0.18511152 -0.03210665 0.05103347 0.41620898
-0.07520163 -0.074259356 0.20535944 -0.0135588385 0.02677939 0.09012712 -0.25165322 -0.5909546
0.20974723 0.054440435 -0.18926294 0.014539388 0.07037683 0.38964075 -0.09897627 -0.15917869
0.08953267 -0.0048234276 -0.021928197 -0.038277403 -0.09879172 -0.33081496 0.083511926 -0.22694884
-0.055699263 0.29551977 0.199489 -0.2253129 -0.5634211 -0.032051556 -0.40812457 0.12327914
0.41510716 0.4213447 0.33864293 0.18828824 0.0014935291 0.10182026 0.22554258 -0.7583205
0.09539118 0.026648303 -0.16930641 -0.21045901 -0.0026146285 0.019644959 0.026469486 0.05039661
-0.0350236 0.06970572 -0.07901338 0.03692495 -0.02382381 0.08703794 0.14909652 -0.04668788
0.0046698605 0.39546257 0.26826802 -0.4650439 -0.081973 0.05544281 -0.0035136684 0.34358758
-0.079608165 -0.07449647 0.25760055 0.37013298 -0.40714705 0.24022175 -0.044271935 0.0402081
0.1433572 0.0069602295 0.09325629 0.0925839 -0.042975307 0.0220923 -0.16760696 -0.11793905
0.08849705 0.07018191 0.21580845 0.3030504 -0.0675913 0.20502399 -0.03354796 0.051160343
0.18190715 0.3038008 -0.08669557 0.0064528636 -0.15621148 -0.2968734 -0.21703684 0.018685848
-0.12422914 -0.22574453 0.23821852 0.06189354 -0.10363426 -0.009579102 -0.026339678 0.09977304
-0.33698282 0.054414127 -0.1049887 0.100087225 -0.39267263 -0.086856365 0.063317955 0.23528084
0.3088932 0.122752264 -0.44850433 0.121649124 0.02404966 -0.16908565 -0.053346943 0.07513037
-0.014007865 0.08763449 0.18497957 -0.30028525 -0.09746542 -0.28416827 0.18932651 0.14648457
-0.046691548 -0.0073796953 -0.23012859 -0.13224459 0.369636 0.09923518 0.13908142 -0.033686977
0.078802094 -0.1631294 -0.06808251 -0.038557254 -0.8251265 0.23116429 0.03986617 -0.19887851
0.07881718 0.22206353 0.09006589 0.15958825 0.17007986 -0.26351684 -0.08743734 -0.114696525
0.095481 -0.07737663 -0.107440956 -0.027468063 -0.13372537 -0.014597199 0.2550827 -0.15703045
-0.22651678 0.035877194 -0.17681089 -0.09879922 0.036102824 0.02428334 -0.022241564 0.00072539394
0.009681233 0.06737335 -0.056253437 0.02827422 0.0007435092 -0.2434407 -0.23038255 -0.059877142

fc2.bias f4 [84]
00000000: acef a93e 640e 153e a8e4 503e 9e0e 8e3c
00000010: f234 be3e b2c9 4d3e 3f22 92be 581f a7bd
00000020: d8ab 153e a584 fd3c 48c3 683e bd77 be3e
00000030: 3045 12be 9bc7 13be ebaf 5bbe e937 613c
00000040: 06e0 c13d b3c0 453e 4f31 bfbd 00a4 edbd
00000050: 8fae 3ebe bb14 19be 0800 29bb 1a1a c23e
00000060: 7a42 9c3e 7827 883e ffd9 c03e 0f8f 41be
00000070: 7d73 a43d 6251 a2be 197c 17be 8b73 a63d
00000080: 3591 ef3d 864a 313d 5d39 a03e 9115 8f3e
00000090: 66c0 39be f246 36be 33bf 823d 0c5b 723e
000000a0: 4d1d 9bbd c2f2 813d e587 583e 48cc 073e
000000b0: d4c1 b33e 2c42 00be f8bd e43d 457e b43e
000000c0: f45c 0abe 1f9a 803c 6552 14be c4d1 0cbe
000000d0: 8d46 21bd e24f 72be 435b cd3e d5a7 1cbe
000000e0: 495d 313e 8150 813e 60ff c9bd 0580 843d
000000f0: c0e4 66be 6890 723e 2e07 913e 57d5 7abe
00000100: 147e 163e 2e0c dc3d f4ef e13c 29ca dabd
00000110: 1292 9e3d 3072 2c3e 1285 5a3e e0e7 46be
00000120: 643c 1bbe 6364 17bd 8d7d 813e cd11 bc3d
00000130: 51d0 763d 87bf 8dbd cc79 323e abec 203e
00000140: 9d16 19be 0132 423d 4809 2ebe 750d 523e
0.33190668 0.14556271 0.20399725 0.017340954 0.3714977 0.20096472 -0.28541753 -0.08160275
0.14616334 0.030947039 0.22730744 0.37200728 -0.14284205 -0.14431612 -0.21453826 0.01374624
0.09466557 0.1931179 -0.09335577 -0.11603546 -0.18621276 -0.14949314 -0.0025787372 0.3791054
0.30519468 0.26592612 0.37666318 -0.18902229 0.0802984 -0.31702715 -0.14793433 0.08127507
0.11697618 0.04328396 0.31293765 0.2794614 -0.181398 -0.17800501 0.063841246 0.23667544
-0.07573948 0.063451305 0.2114559 0.13261521 0.35108817 -0.12525243 0.11169046 0.35252586
-0.13512021 0.01569849 -0.14484556 -0.13751894 -0.039373923 -0.23663285 0.4010869 -0.15298398
0.17320742 0.25256732 -0.09863162 0.0646973 -0.22548199 0.23687899 0.2832579 -0.24495445
0.14696532 0.107445106 0.027580239 -0.1068309 0.077427045 0.16840434 0.21339825 -0.19424391
-0.15159756 -0.03696097 0.252911 0.09183083 0.06025726 -0.069212966 0.17429274 0.15715282
-0.14950033 0.04741097 -0.16995728 0.20512946

fc3.weight f4 [10, 84]
00000000: eff4 dabd 6928 543e 6174 5b3d 7108 fc3d
00000010: e1b6 c7bd 664d 443e 5106 963c cf2c c3bd
00000020: 9a93 90bd d7f2 753c 1c2f 313e 6dbc c33d
00000030: e798 8ebc 9de7 35bd 9052 443e 3e83 b83c
00000040: b081 bd3c 93d2 aabe 3f89 a6bc fa6c eebc
00000050: f795 0fbc 91cd b9bc f324 d1bd d4f2 04be
00000060: 85b6 36be 9f3f 95be 47ad 223e 46fa 223d
00000070: 345e 64bf 7393 883b ad7d b2bd fe9f bf3d
00000080: 7330 bdbe d40f b6be 3f9d 033e 2339 43be
00000090: 51a0 453d 7f26 22be 8361 dd3d 483f 673d
000000a0: f29a 8d3d dff0 313e 70f9 013e f146 41bf
000000b0: 0b8e 22bd b6e0 36bd 55e5 ab3d 7d2f 1dbe
000000c0: 24a6 0abe a6af a93d 71bb e9bd 5e68 70bd
000000d0: 2146 afbe f3b4 f2be cbf0 07be a0a4 833d
000000e0: 0008 843d 2561 313e a941 db3a 10b5 ecbd
000000f0: 74b8 2e3e 63d3 73bd 296a ed3d fb2f e3bc
00000100: 4ba1 8d3e 2f00 313e ed5e 53bd 9063 5e3d
00000110: 7d97 b7be 3878 a7be 7b4d 95be f62e ccbd
00000120: a60a 2abd 2b7c e4bd 6f80 87be aee0 15be
00000130: c51a eebe bc28 e8be 851c 9cbe f538 f4be
00000140: 842e 29be 0aab 433e 537c cbbb 8edb 813d
00000150: 0cee 063f 3ec8 92be 542c c9be acc4 953e
00000160: cbd9 34be 7f3c 17bf 880a 27bf c4e6 8abe
00000170: cd6c 50be 9ae0 253d 8b03 38bd bc11 383e
00000180: 87a9 e5bd 5cc8 37bd 3bc0 a5be 82dd 113d
00000190: a5c6 da3a 03d2 053d 01bc e5bd 4dad 08bf
000001a0: ab4f 17bb e366 8d3e 8fc5 f33e bde2 19bf
000001b0: 862a 0abf a941 65be e160 1abf d29e 953d
000001c0: f23c 0cbf 812e 55be dbaf 77bc ad6f cd3b
000001d0: 2513 f0be 5e8f f7be 8b7b b8be 583e 853d
000001e0: 9bd0 79be 7aa1 02be a865 2c3e 764b aebe
000001f0: 2fe5 de3d f984 113e 400c 94be 8228 04be
00000200: 6798 fabe af9b 69be 1401 efbe c002 41bf
00000210: 4989 ad3e 9d48 1f3e 5099 1239 a209 22bd
00000220: 9942 d73c 9bc7 c73d 78f6 3dbd 276a 0b3e
00000230: 4a20 003d f084 27bf ee5a 19be ce74 a1be
00000240: bf05 04bf 7378 a0be 27bb e4be 1776 88be
00000250: 1081 10bf 6a85 12bf 597c 603e 17c2 b8bd
00000260: 16a6 57bf 3ab8 7ebe b1ea 44bd 9940 58be
00000270: 6a65 b2bd 65da 8e3e dcf7 633e 9094 c13e
00000280: c7df 863d 5aea 4abe 1062 54be 2454 d73c
00000290: b3f1 d8bd 9595 91be a4a9 77b9 0187 75be
000002a0: 1a1f b2bc 1983 f2be b67e 75bd 3882 89be
000002b0: d0e7 e63d e891 1e3e 5370 83be 4004 563e
000002c0: 7b0e 75be 150a c8be cfbb 633e 6006 3cbf
000002d0: 0a33 4cbe b155 21be 04b5 7cbe b77e 283e
000002e0: d531 b2be e1e4 f53d 0845 9cba f16e a03d
000002f0: 322b debc 7d75 39bf 5bbf d1bc f23e 3abd
00000300: e902 133e 6d1c 8ebd d854 b33c a734 393d
00000310: 1ea3 1ebe 9e8a 093f 99df 8b3d cf46 8d3d
00000320: c1ac 7ebe 7480 423e 0f90 873d 814c bc3c
00000330: ad9c fabd 655c 8a3c 4a8f 50be b018 51be
00000340: b058 fd3d bdcf 2ebe efc8 81be 36f0 e53d
00000350: 83bf fc3c e12c e8bd 7e2b 243e f53b 50bd
00000360: 539e 4bbe dabe c4be 4ac6 75bd 3653 d0bc
00000370: 4e78 5cbe abe6 8abe fe5c f8ba e9d4 203e
00000380: 1a97 063e e415 023e 8046 5cbc f1ab cabd
00000390: 48a0 c3be 3a7e d83d 9f7a c5be e292 aebd
000003a0: 3690 343b 4859 543e a30b fcbd d814 f5bd
000003b0: 9e01 0dbe 7126 06be 6acd 02be 9aaf 413c
000003c0: 410c b2bd cd63 f2be 33df 873d 8ce5 c3be
000003d0: 5d35 933d 91a1 86be a90a 54bd 5177 31be
000003e0: ddfd c4bd cc93 743d 9e2f 0ebe 90d4 fabc
000003f0: 758c 13be e324 363d af62 47bf 3930 0ebe
-0.106912486 0.2071854 0.053577784 0.123062976 -0.09751678 0.1917015 0.018313559 -0.09530031
-0.07059403 0.015011511 0.17303127 0.09557424 -0.017406894 -0.044410337 0.1917212 0.022523519
0.023133129 -0.3336378 -0.020329116 -0.029104698 -0.008763782 -0.02268103 -0.10212126 -0.12983257
-0.17843063 -0.29150102 0.15886413 0.03978946 -0.8920624 0.004167968 -0.08715377 0.09356688
-0.36951026 -0.3555895 0.12852953 -0.19064765 0.048248593 -0.15834998 0.108096145 0.056456834
0.06914319 0.17377041 0.12692809 -0.75498873 -0.039686244 -0.044647895 0.08393351 -0.15350147
-0.1353994 0.082854554 -0.11412705 -0.058693282 -0.34233192 -0.47403678 -0.13275449 0.06427884
0.064468384 0.17322214 0.0016727942 -0.115579724 0.17062551 -0.059527766 0.11592514 -0.02773284
0.2766212 0.17285226 -0.0516042 0.05429417 -0.35857764 -0.32708907 -0.29160675 -0.099698946
-0.04151406 -0.11156496 -0.26465175 -0.1463649 -0.465048 -0.45343578 -0.3049051 -0.47699705
-0.1652165 0.19108215 -0.006209889 0.06340705 0.5270698 -0.28668398 -0.39291632 0.2925161
-0.17661206 -0.59076685 -0.65250444 -0.27129185 -0.20354004 0.0404974 -0.044925254 0.17975515
-0.112139754 -0.044868812 -0.32373223 0.035611637 0.0016691281 0.032670986 -0.112174995 -0.53389436
-0.0023088257 0.2761756 0.47611663 -0.601116 -0.53971136 -0.22388329 -0.60304075 0.07305683
-0.54780495 -0.20818521 -0.015117611 0.0062694163 -0.46889606 -0.48351568 -0.36031756 0.06506032
-0.24395983 -0.12756911 0.16835654 -0.34041947 0.10883557 0.14210881 -0.28915596 -0.12906078
-0.489444 -0.22813295 -0.4668051 -0.7539482 0.33893803 0.15555044 0.00013980758 -0.039559968
0.026276873 0.097548686 -0.04637763 0.13614713 0.031280793 -0.6543722 -0.14976093 -0.31534427
-0.5157127 -0.31341895 -0.44674036 -0.26652595 -0.56446934 -0.57234824 0.21922435 -0.09021395
-0.842378 -0.24874964 -0.04807538 -0.21118392 -0.087107494 0.27900997 0.2226252 0.37808657
0.06585651 -0.1981596 -0.20740533 0.026285239 -0.105929755 -0.28434435 -0.00023618952 -0.23977281
-0.021743346 -0.47365645 -0.059935294 -0.26857162 0.112746835 0.15485346 -0.25671634 0.20900059
-0.23931305 -0.39070192 0.22239612 -0.7344723 -0.19941345 -0.15755345 -0.24678427 0.16454588
-0.34803644 0.12006546 -0.0011922428 0.078336604 -0.027120207 -0.724449 -0.02560394 -0.045470186
0.14356579 -0.069390155 0.021891043 0.04521623 -0.15491912 0.5372714 0.06829757 0.06898271
-0.24870588 0.18994313 0.06619274 0.022985699 -0.12236915 0.01688976 -0.2036716 -0.20419574
0.123704314 -0.17071433 -0.25348613 0.11227457 0.030853039 -0.11336685 0.16032216 -0.05083843
-0.19884615 -0.38426858 -0.060003556 -0.025430303 -0.21530268 -0.2712911 -0.0018948612 0.15706219
0.13143578 0.12703663 -0.013444543 -0.098960765 -0.38208222 0.10570951 -0.38570115 -0.085241094
0.0027551777 0.20737183 -0.12306907 -0.11966866 -0.13770148 -0.13100602 -0.12773672 0.011821652
-0.086937435 -0.47341767 0.06634369 -0.38261068 0.071879126 -0.2629514 -0.05176798 -0.17330672
-0.09618733 0.059711263 -0.13885352 -0.030618936 -0.14409049 0.04446877 -0.77884954 -0.13885583

fc3.bias f4 [10]
00000000: b20c 39be df47 e6be 1e07 a4bd 7cfa 2d3e
00000010: 77e4 34be 68d2 bf39 f588 3c3e c433 8f3d
00000020: f02d 5e3e 2063 29be
-0.18071249 -0.44976708 -0.0800917 0.16990083 -0.17665277 0.00036587124 0.1841162 0.069922954
0.21697211 -0.1654172
