HW1_Split_nb/checkpoints/model_dropout_11.pt (torch, 250614 bytes, 10 tensors)

conv1.weight f4 [6, 1, 5, 5]
0.3081627 0.22424182 0.3289869 -0.12785682 -0.09685982 0.014281645 0.017751044 0.31637996
0.040699296 -0.08068057 -0.25868917 -0.34462306 0.309867 0.022359231 0.23376572 -0.4550097
-0.44859394 0.11945994 0.08143408 0.08088513 -0.22499652 -0.25655508 0.3379414 -0.029060816
-0.06720296 0.46662584 -0.0019324106 -0.3093516 -0.045751512 -0.17307097 0.3147121 -0.04321975
-0.46204248 0.12172233 0.06837901 -0.1526985 -0.28587472 -0.22884916 0.31254858 0.32354632
-0.114772186 -0.45536292 -0.31127432 0.54318327 0.3114142 0.0022229913 -0.26640803 -0.06338036
0.17025718 0.054441214 0.06686628 0.3191852 -0.38203022 0.050910655 -0.44933268 -1.1042856
-3.0252223 -2.7444313 -0.4256179 0.120012045 -0.17663226 -2.2662783 -1.8020169 -0.06083779
0.27493393 0.25369003 -0.21178104 -0.014668349 -0.05274284 0.3102496 0.5418948 0.24138553
0.123860784 -0.22477363 0.2712437 -0.29895508 0.1411198 -0.16406994 0.03592419 0.14251412
-0.16530992 -0.19106363 -0.095225684 0.18244685 0.038473688 -0.14314978 -0.2247421 0.016700529
0.056293193 0.2326134 -0.040258527 0.22589527 0.08516688 0.25648886 0.16240074 0.12869243
-0.08031839 0.040482756 -0.09127626 0.17160062 -0.08233384 -0.03173827 -0.2490835 0.07947751
-0.01027418 0.045504242 -0.056625202 0.17253691 0.14214574 0.08977435 0.40498364 0.44426078
0.12142683 0.24462123 -0.2544802 0.22526269 0.04550492 -0.072718374 -0.3453902 -0.33421656
-0.39450684 -0.31847927 -0.7318171 -0.39423722 -0.19830011 -0.1584326 0.054815885 -0.097903304
0.21795008 0.054339036 0.02414842 -0.046780337 0.14528804 0.20612298 -0.07076807 0.00092144834
-0.18011777 -0.017092738 0.21549475 -0.12992208 -0.17097999 -0.20732324 0.0770125 0.2658337
0.0104990825 -0.13940011 -0.016255256 0.12795015 -0.024216173 0.09917013
00000000: 80c7 9d3e a69f 653e f970 a83e e6ec 02be
00000010: 715e c6bd 90fd 693c a36a 913c 8efc a13e
00000020: 4eb4 263d db3b a5bd e872 84be 6f72 b0be
00000030: e3a6 9e3e b52a b73c 4860 6f3e 08f7 e8be
00000040: 1bae e5be 6aa7 f43d e9c6 a63d 1aa7 a53d
00000050: 7d65 66be 305b 83be a806 ad3e f310 eebc
00000060: b5a1 89bd 95e9 ee3e f148 fdba 5563 9ebe
00000070: f065 3bbd 8439 31be f221 a13e 3107 31bd
00000080: d590 ecbe 8f49 f93d 4b0a 8c3d ff5c 1cbe
00000090: 2c5e 92be 6f57 6abe 5e06 a03e dda7 a53e
000000a0: ae0d ebbd 5425 e9be 595f 9fbe 0f0e 0b3f
000000b0: af71 9f3e 9baf 113b a266 88be 90cd 81bd
000000c0: e657 2e3e c0fd 5e3d 30f1 883d 3e6c a33e
000000d0: 7799 c3be b187 503d ef0e e6be 3b59 8dbf
000000e0: 3e9d 41c0 c3a4 2fc0 97ea d9be e0c8 f53d
000000f0: 16df 34be b40a 11c0 7da8 e6bf 0c31 79bd
00000100: 24c4 8c3e a9e3 813e 21dd 58be 8453 70bc
00000110: e008 58bd 09d9 9e3e 9eb9 0a3f c52d 773e
00000120: b9aa fd3d 0f2b 66be 74e0 8a3e a410 99be
00000130: b581 103e f301 28be 3e25 133d 39ef 113e
00000140: 0147 29be 2fa6 43be af05 c3bd 59d3 3a3e
00000150: 9696 1d3d db95 12be cb22 66be 8ccf 883c
00000160: b193 663d 3532 6e3e 20e6 24bd 1751 673e
00000170: f96b ae3d 8252 833e 614c 263e f3c7 033e
00000180: f87d a4bd 3fd1 253d 0cef babd 13b8 2f3e
00000190: a59e a8bd fdff 01bd bf0f 7fbe 1bc5 a23d
000001a0: 0955 28bc a862 3a3d d4ef 67bd 84ad 303e
000001b0: a78e 113e 9ddb b73d 045a cf3e 2676 e33e
000001c0: a1ae f83d fd7d 7a3e 3b4b 82be 43ab 663e
000001d0: 5e63 3a3d 5fed 94bd fcd6 b0be 6f1e abbe
000001e0: cdfc c9be b70f a3be 5e58 3bbf 76d9 c9be
000001f0: 2f0f 4bbe 283c 22be 9f86 603d 8781 c8bd
00000200: 4e2e 5f3e 9c92 5e3d e8d2 c53c bd9c 3fbd
00000210: 63c6 143e e711 533e daee 90bd 5a8d 713a
00000220: cb70 38be 1206 8cbc a8aa 5c3e 4b0a 05be
00000230: 6115 2fbe 8b4c 54be bbb8 9d3d 5b1b 883e
00000240: 5804 2c3c e7be 0ebe be29 85bc 5d05 033e
00000250: ff60 c6bc b619 cb3d

conv1.bias f4 [6]
-0.04081435 0.029415034 0.3726097 -0.2853418 -0.06366481 0.023138473
00000000: f32c 27bd ccf7 f03c b3c6 be3e 5218 92be
00000010: b262 82bd e58c bd3c

conv2.weight f4 [16, 6, 5, 5]
0.104074344 -0.30592683 -0.50604665 0.05276369 0.8456766 0.0066910516 -0.05006639 -0.35639316
-0.0812228 -0.00746888 -0.27568966 0.051099215 -0.035291832 -0.40022707 -0.2614466 -0.122491024
0.26587218 0.0058920225 -0.8862772 -0.7564404 0.022395318 0.4294547 0.35899487 -0.007881639
-0.22731549 0.21657117 0.17863666 0.43780023 -0.05606451 0.05933362 0.027757743 0.100658566
0.05128246 0.26383716 0.020013977 -0.021881247 -0.0030516812 -0.31163293 -0.04626249 0.25283295
-0.018995132 0.19862118 -0.19329576 -0.70385665 -0.3239669 -0.016334515 0.31203735 -0.32202208
-1.204692 -0.7381392 -0.006328738 0.33014646 -0.17740016 -0.22309761 0.38299572 -0.18779032
0.080035284 -0.86893314 -1.2500349 -0.8306552 -0.28713402 -0.31296298 -0.056918688 -0.26412305
-0.61096984 -0.3641808 -0.18396027 0.43092895 0.23387998 -0.365169 -0.3577222 -0.09069171
-0.22723627 -0.06938042 -0.6103934 0.055916853 -0.29508492 -0.18739796 -0.009294524 -0.06654358
0.19658843 -0.016414734 0.035944037 -0.23194636 -0.27077904 0.065752275 0.14563563 -0.008163606
-0.23174934 -0.2087308 0.038224228 0.08471403 0.19201541 -0.14587612 -0.016378114 -0.2616299
0.011210157 0.22508448 -0.18811773 0.027793717 0.014498405 0.34215862 0.10635975 -0.30173883
-0.052044038 0.013670598 0.03195172 0.17044601 -0.16743879 0.02949733 -0.016254775 -0.049497582
0.19255653 -0.09078776 0.3340473 -0.22753301 -0.33403236 -0.005533313 0.022388104 0.3429089
-0.57920545 -0.46702826 0.14741571 0.37274852 0.29158962 0.05979369 -0.17397445 -0.20313641
-0.27492428 -0.29749498 0.17139317 0.061501082 0.06308747 -0.04685735 -0.15906645 0.09587837
0.13693671 0.058703516 -0.15750714 -0.08188676 0.0019454611 0.13679852 0.15405229 -0.20604534
-0.06377865 -0.14346346 0.16086708 0.11576718 -0.15561843 -0.14220282 -0.19454572 0.17469025
-0.26920316 -0.27536616 0.015282795 -0.07028242 0.084856845 -0.15546587 -0.18878506 0.046622403
0.05462255 -0.08604583 0.21275137 0.12254514 0.11381634 -0.41058415 -0.07698598 0.22939762
0.12234027 0.37075132 -0.32288224 0.24301228 0.16417694 0.06575014 0.29420078 0.33826935
0.0992607 -0.10058275 -0.056499954 -0.13831827 0.17770751 -0.24711098 -0.2720623 -0.09433794
0.10156226 0.12420736 -0.5000495 -0.062154073 -0.016154166 0.11223695 -0.43660635 -0.11801418
0.009851245 -0.043711327 0.07862531 -1.0597203 0.17517145 -0.051030446 0.22963397 0.17644525
-0.20548715 -0.26418743 0.24728999 0.36930212 0.054325394 -0.4300392 -0.62084675 0.30364576
0.020503903 -1.1042442 -0.48412803 -0.67371434 -0.6149906 -0.3574938 -1.0825537 -0.056185406
0.3557075 -0.067203 -0.35440388 -0.7788251 0.475639 0.5006522 0.02870337 -0.43271187
-0.7494588 0.20695232 0.14573051 -0.25645575 -0.10452997 -0.16680837 0.0888331 -0.09503668
-0.18584447 -0.0012636485 -0.21903232 0.17118084 -0.007922462 -0.19769391 0.051807936 -0.17855202
0.15564105 0.017620917 0.042497754 0.03604205 -0.33873904 -0.010604942 0.23910667 0.10248742
-0.03939845 -0.13944812 0.22688423 0.28241196 0.20837115 -0.0070391693 -0.3887253 0.07315258
00000000: ee24 d53d 71a2 9cbe 468c 01bf bd1e 583d
00000010: 437e 583f 9c40 db3b 6a12 4dbd 2a79 b6be
00000020: 2458 a6bd 82bd f4bb 3227 8dbe 694d 513d
00000030: 2b8e 10bd 90ea ccbe 54dc 85be 93dc fabd
00000040: 6620 883e de11 c13b 10e3 62bf 14a6 41bf
00000050: 6376 b73c 7de1 db3e 2dce b73e fd21 01bc
00000060: 64c5 68be d5c4 5d3e 87ec 363e 5a27 e03e
00000070: e6a3 65bd cf07 733d 3564 e33c 1426 ce3d
00000080: 8f0d 523d aa15 873e 5af4 a33c 4d40 b3bc
00000090: b7fe 47bb 5a8e 9fbe bd7d 3dbd 5273 813e
000000a0: ae9b 9bbc 5a63 4b3e 53ef 45be f32f 34bf
000000b0: fdde a5be f6cf 85bc 5cc3 9f3e 14e0 a4be
000000c0: 5933 9abf b1f6 3cbf 4d61 cfbb f508 a93e
000000d0: 63a8 35be b373 64be 0418 c43e 1b4c 40be
000000e0: 8ae9 a33d 6772 5ebf 2501 a0bf d2a5 54bf
000000f0: 3b03 93be af3c a0be 9223 69bd 233b 87be
00000100: 8568 1cbf e875 babe 1560 3cbe b8a2 dc3e
00000110: 3c7e 6f3e 6ef7 babe 5d27 b7be 93bc b9bd
00000120: a0b0 68be 5217 8ebd be42 1cbf 1209 653d
00000130: 5f15 97be 40e5 3fbe 0f48 18bc 0048 88bd
00000140: 7a4e 493e 3178 86bc 0e3a 133d 5983 6dbe
00000150: 8da3 8abe 21a9 863d 8221 153e a5c0 05bc
00000160: b34f 6dbe 87bd 55be 0291 1c3d 8d7e ad3d
00000170: b09f 443e 8d60 15be 652b 86bc 5bf4 85be
00000180: ceaa 373c 8c7c 663e efa1 40be a6af e33c
00000190: b88a 6d3c 6a2f af3e 24d3 d93d 837d 9abe
000001a0: 212c 55bd a5fa 5f3c cfdf 023d 6689 2e3e
000001b0: 1375 2bbe 62a4 f13c bc28 85bc fabd 4abd
000001c0: 8a2d 453e efee b9bd 3f08 ab3e 6afe 68be
000001d0: 4a06 abbe cb50 b5bb 4267 b73c c191 af3e
000001e0: cf46 14bf 541e efbe 25f4 163e e5d8 be3e
000001f0: 3c4b 953e 3aea 743d 5c26 32be fe02 50be
00000200: e0c2 8cbe 4351 98be b181 2f3e 8fe8 7b3d
00000210: 0134 813d 7eed 3fbd 51e2 22be e15b c43d
00000220: 2339 0c3e 1973 703d 8d49 21be 3fb4 a7bd
00000230: d8fe fe3a e914 0c3e e2bf 1d3e 8dfd 52be
00000240: 619e 82bd 16e8 12be 57ba 243e 5817 ed3d
00000250: 705a 1fbe 9e9d 11be fe36 47be 00e2 323e
00000260: ffd4 89be cbfc 8cbe b064 7a3c 3bf0 8fbd
00000270: 6dc9 ad3d 7232 1fbe df50 41be 22f7 3e3d
00000280: e5bb 5f3d cc38 b0bd 7fdb 593e f2f8 fa3d
00000290: 8b18 e93d 1638 d2be d3aa 9dbd 36e7 6a3e
000002a0: 898d fa3d 1ed3 bd3e d250 a5be 36d8 783e
000002b0: 001e 283e 02a8 863d 7ca1 963e a431 ad3e
000002c0: 3249 cb3d 54fe cdbd 7f6c 67bd 4ea3 0dbe
000002d0: f5f8 353e a90a 7dbe c04b 8bbe 4034 c1bd
000002e0: e0ff cf3d 6e60 fe3d 3e03 00bf 4595 7ebd
000002f0: be55 84bc 7cdc e53d de8a dfbe 6bb1 f1bd
00000300: 1e67 213c a60a 33bd 4e06 a13d eaa4 87bf
00000310: 2560 333e 4d05 51bd 2b25 6b3e 10ae 343e
00000320: 396b 52be 9343 87be 9639 7d3e 2b15 bd3e
00000330: 4e84 5e3d 192e dcbe d0ef 1ebf 7577 9b3e
00000340: cdf7 a73c e057 8dbf a1df f7be 8b78 2cbf
00000350: 0670 1dbf 6d09 b7be 1f91 8abf ab22 66bd
00000360: 4b1f b63e baa1 89bd 6d74 b5be 1561 47bf
00000370: f486 f33e be2a 003f 5423 eb3c 698c ddbe
00000380: 88dc 3fbf 4feb 533e 613a 153e 2b4e 83be
00000390: cf13 d6bd d0cf 2abe 21ee b53d 97a2 c2bd
000003a0: 034e 3ebe 02a1 a5ba 024a 60be 084a 2f3e
000003b0: 37cd 01bc 4670 4abe 8f34 543d 57d6 36be
000003c0: 5e60 1f3e be59 903c 2012 2e3d d4a0 133d
000003d0: 346f adbe 5ac0 2dbc 61d8 743e ede4 d13d
000003e0: 4560 21bd 7dcb 0ebe 5754 683e 4d98 903e
000003f0: 3f5f 553e d5a8 e6bb 0107 c7be 05d1 953d

conv2.bias f4 [16]
0.20317811 0.14528446 -0.10542619 -0.1952868 0.29987404 -0.06315963 0.10952036 -0.11355022
-0.18444908 -0.16534117 -0.016246866 0.097709194 0.2591132 -0.12594995 -0.02484918 0.14856604
00000000: ec0d 503e 73c5 143e b0e9 d7bd 43f9 47be
00000010: 1789 993e d659 81bd 364c e03d 058d e8bd
00000020: 38e0 3cbe 324f 29be 2618 85bc c21b c83d
00000030: 7caa 843e 06f9 00be 8290 cbbc b221 183e

fc1.weight f4 [120, 400]
-0.18524565 0.09031488 0.06999751 -0.32959607 -0.3020466 -1.8515162e-05 -0.43856958 -0.0138573665
-0.4617126 -0.010177362 -0.112982415 -0.25055376 0.008895779 -0.46393096 -0.13825835 -0.036968097
-0.14148189 -0.1577128 -0.14266299 0.12818909 0.21534288 -0.22321986 0.039213754 0.12216082
0.36861664 0.19111075 0.06677902 -0.5412982 -0.32287732 0.03345535 -0.028735036 -0.27287355
-0.027335856 -0.3094305 -0.10502858 -0.29961613 -0.052584853 0.17091855 -0.009845527 -0.012046415
0.17834492 0.15667164 0.18587501 -0.043310795 -0.29039097 -0.013788109 0.1938989 -0.11277286
0.073737964 -0.034352336 -0.20517786 0.079115994 0.022877209 0.4067472 0.00560167 -0.27758217
-0.35328406 -0.00040598356 0.23453045 -0.013145303 -0.37202877 -0.03642572 -0.33155528 -0.81703216
-0.58061904 -0.013865741 0.047227837 -0.009446742 -0.30273134 -0.2023324 0.0415787 -0.13464823
-0.32366848 -0.22525208 -0.08289437 -0.20016687 0.08694183 0.1918885 -0.17756616 0.057436325
0.26460385 0.3354981 -0.106298864 0.23650952 0.31979892 -0.05786255 0.48003933 0.21159635
0.2315546 0.14890964 -0.08001579 0.047996163 -0.13039269 -0.016760519 0.004637148 -0.083936006
-0.15271188 -0.3337468 -0.2948294 -0.1298191 -0.22559142 -0.1837089 0.012092594 -0.06436608
0.113793224 -0.25602934 0.078984395 0.07156588 -0.25003502 -0.22574808 -0.09735375 0.27975824
-0.15565725 -0.18492018 -0.07928153 0.27509385 0.06052669 0.05740826 -0.013292485 -0.10228879
0.20370103 0.26666147 -0.042209517 -0.20178 0.07611022 -0.4412525 0.025988003 -0.10958929
-0.14302683 -0.20580845 -0.18685669 -0.064928085 -0.03436476 -0.26719654 -0.112791836 -0.13350123
0.009536329 0.47036776 0.01645651 -0.17516741 -0.13804427 0.17491342 0.20539574 0.17201705
-0.1278433 0.07993915 0.24211936 0.011152218 -0.057430267 0.4187057 -0.70872635 -0.4876204
0.07507123 0.04406499 -0.029469179 -0.5404557 -0.33024183 0.03465658 -0.056898627 0.05213165
-0.34578827 0.22029522 -0.16837405 -0.12086967 -0.11085644 0.3129415 0.077942826 -0.047946066
-0.15666756 -0.08299291 0.36795664 0.17063476 0.3791589 -0.3047146 -0.1360303 -0.11947229
-0.14034158 0.11568027 0.10770763 -0.25776434 -0.17076334 0.1168354 0.06729664 0.16067913
-0.09381841 -0.0966276 0.15920344 -0.12953345 -0.63924545 -0.011457562 0.11343453 0.024123497
0.07268498 -0.24196213 -0.29601246 0.37172198 0.067685075 0.36991075 -0.30531538 0.14699838
-0.13960248 -0.3161674 0.0015882767 -0.0816104 0.071050055 0.08414129 -0.56130916 0.19825348
0.15191215 0.024720358 0.49753568 -0.18611069 0.006265581 0.078683876 -0.049456507 -0.17557181
0.023598481 0.05443048 -0.011467888 0.1460252 -0.11818991 -0.29559603 -0.10257574 -0.14508224
0.05839914 0.23305406 -0.08156667 -0.07536443 -0.028942075 0.22354595 -0.3253339 0.01249578
0.24078733 -0.15586509 -0.10817164 0.15684879 0.43373498 0.21782383 -0.49143925 -0.2445443
0.029852565 0.31524748 -0.22398849 -0.1905483 -0.15526119 0.24558157 -0.020286625 0.0019648175
-0.32900622 -0.096792124 -0.062322266 -0.23724332 -0.046867568 0.18089558 0.08682546 -0.056822505
00000000: 09b1 3dbe 02f7 b83d db5a 8f3d d1c0 a8be
00000010: daa5 9abe 0251 9bb7 318c e0be 020a 63bc
00000020: 9865 ecbe f3be 26bc 5363 e7bd 9548 80be
00000030: 9abf 113c 5c88 edbe 9993 0dbe dc6b 17bd
00000040: a1e0 10be 777f 21be 3f16 12be 0044 033e
00000050: d882 5c3e bf93 64be 9a9e 203d 742f fa3d
00000060: 52bb bc3e 89b2 433e 70c3 883d 8592 0abf
00000070: 2d50 a5be 7a08 093d bd65 ebbc 15b6 8bbe
00000080: 72ef dfbc ad6d 9ebe 3919 d7bd 4967 99be
00000090: 3763 57bd 4605 2f3e 224f 21bc 545e 45bc
000000a0: 0da0 363e 886e 203e 0556 3e3e a966 31bd
000000b0: 20ae 94be 85e7 61bc 6f8d 463e 75f5 e6bd
000000c0: ee03 973d 09b5 0cbd 251a 52be 9107 a23d
000000d0: fc68 bb3c 2b41 d03e 378e b73b 401f 8ebe
000000e0: a6e1 b4be 31da d4b9 c028 703e 665f 57bc
000000f0: 8e7a bebe 2333 15bd 9dc1 a9be 0529 51bf
00000100: 73a3 14bf 222d 63bc fa71 413d 82c6 1abc
00000110: 9aff 9abe 3a30 4fbe 6d4e 2a3d 3ae1 09be
00000120: e0b7 a5be 7ba8 66be 86c4 a9bd 8bf8 4cbe
00000130: 8f0e b23d 6b7e 443e e7d3 35be 5a42 6b3d
00000140: 287a 873e 68c6 ab3e 38b3 d9bd 8d2f 723e
00000150: afbc a33e 4801 6dbd b7c7 f53e b7ac 583e
00000160: a61c 6d3e c57b 183e 52df a3bd a097 443d
00000170: a985 05be 5b4d 89bc 38f3 973b a4e6 abbd
00000180: 8160 1cbe dce0 aabe e1f3 96be 4cef 04be
00000190: 7001 67be 301e 3cbe 0420 463c 5dd2 83bd
000001a0: 6c0c e93d 4716 83be 92c2 a13d 2291 923d
000001b0: 9704 80be 812a 67be 6761 c7bd 793c 8f3e
000001c0: 9d64 1fbe b75b 3dbe 5b5e a2bd 1ad9 8c3e
000001d0: d6ea 773d ec24 6b3d b9c8 59bc c97c d1bd
000001e0: 0197 503e da87 883e e3e3 2cbd 6b9f 4ebe
000001f0: addf 9b3d d9eb e1be cbe4 d43c 5a70 e0bd
00000200: a075 12be 73bf 52be 5c57 3fbe 04f9 84bd
00000210: 10c2 0cbd fccd 88be 68ff e6bd 8cb4 08be
00000220: 433e 1c3c 0bd4 f03e cecf 863c 165f 33be
00000230: 7a5b 0dbe 811c 333e 4353 523e 3d25 303e
00000240: 5be9 02be 23b7 a33d 23ee 773e cbb7 363c
00000250: 003c 6bbd 9860 d63e 176f 35bf 62a9 f9be
00000260: f2be 993d 7e7d 343d 5969 f1bc 4e5b 0abf
00000270: 7515 a9be 0ff4 0d3d 890e 69bd ff87 553d
00000280: 290b b1be 1295 613e 3f6a 2cbe 848a f7bd
00000290: b408 e3bd de39 a03e 7da0 9f3d 1863 44bd
000002a0: 766d 20be 30f8 a9bd d064 bc3e e1ba 2e3e
000002b0: 1e21 c23e 8d03 9cbe 874b 0bbe e3ad f4bd
000002c0: b4b5 0fbe c7e9 ec3d d195 dc3d b0f9 83be
000002d0: 96dc 2ebe 6647 ef3d d2d2 893d 1289 243e
000002e0: de23 c0bd b1e4 c5bd 3a06 233e 6ba4 04be
000002f0: 97a5 23bf 80b8 3bbc 5d50 e83d a49e c53c
00000300: dddb 943d ecc4 77be f28e 97be 5852 be3e
00000310: 799e 8a3d f164 bd3e 4c52 9cbe be86 163e
00000320: f4f3 0ebe b2e0 a1be b92d d03a 5a23 a7bd
00000330: b182 913d 4552 ac3d f5b1 0fbf f602 4b3e
00000340: dc8e 1b3e 5982 ca3c ffbc fe3e cd93 3ebe
00000350: 814f cd3b 0325 a13d e892 4abd 19c9 33be
00000360: 9a51 c13c 7ff2 5e3d cfe3 3bbc a187 153e
00000370: 8d0d f2bd 5d58 97be 3b13 d2bd 7090 14be
00000380: f033 6f3d b9a5 6e3e 6d0c a7bd ab58 9abd
00000390: ee17 edbc 3be9 643e 2a92 a6be 1abb 4c3c
000003a0: f490 763e 199b 1fbe 1889 ddbd f89c 203e
000003b0: 8312 de3e 360d 5f3e ed9d fbbe d269 7abe
000003c0: 5e8d f43c 1e68 a13e 3d5d 65be 181f 43be
000003d0: cafc 1ebe bc79 7b3e 2330 a6bc 2bc4 003b
000003e0: 8173 a8be f33a c6bd a245 7fbd eaef 72be
000003f0: 35f8 3fbd b13c 393e 8cd1 b13d b7be 68bd

fc1.bias f4 [120]
0.15590982 0.18305488 -0.06776579 -0.011213147 -0.084665924 0.19374712 0.12722771 -0.015765138
0.054320365 0.06537646 0.14305577 0.17856966 0.20083675 0.06851504 0.09498594 0.08197772
0.09468369 0.011510748 0.42743447 0.20850028 0.17215961 0.08293922 -0.03917775 0.13892622
0.02879163 -0.10185501 -0.054988973 0.19327976 -0.13220899 -0.021603482 0.17293948 0.38391176
0.040478576 0.20290388 0.117825 0.24278674 0.3063772 0.12259745 0.032187995 -0.11771622
0.21332987 0.3678743 0.27390817 0.069256425 0.26111966 -0.016301144 0.12879245 0.26089716
-0.09820996 -0.028083993 0.1115881 -0.028100539 -0.062318318 0.14230023 0.016772613 0.142841
0.1498133 0.27381128 -0.049297515 0.017037468 0.09895297 0.1556791 -0.10292899 0.12105518
0.0072001177 0.17281356 0.15608814 0.118480586 0.028555708 0.16289526 0.046855714 0.13473158
-0.044297624 0.12766878 0.059873927 0.15563913 0.16866723 0.095968835 0.053871196 0.006723487
0.096823424 0.2478061 -0.038343 0.20922251 -0.0015492804 0.17223437 0.24883114 0.16652139
0.007552643 0.106245294 0.3696495 0.12400907 -0.05069384 -0.12733075 0.21690844 0.06347907
0.08775207 0.23376222 -0.085699454 0.06139423 0.2357635 -0.09656718 0.07445792 0.094519906
0.06683191 -0.014390291 0.20588897 -0.03951617 0.1517815 0.2154041 0.054491434 -0.057922445
-0.056713134 0.113229506 0.17697488 0.24927926 0.035240192 0.04960975 -0.05772888 0.1530788
00000000: d3a6 1f3e bd72 3b3e cac8 8abd 59b7 37bc
00000010: 5465 adbd a565 463e fb47 023e e425 81bc
00000020: 087f 5e3d 18e4 853d 367d 123e f7da 363e
00000030: 26a8 4d3e 9d51 8c3d fd87 c23d efe3 a73d
00000040: 86e9 c13d 9497 3c3c b1d8 da3e 1981 553e
00000050: 9c4a 303e 0adc a93d d978 20bd ad42 0e3e
00000060: 6ddc eb3c 5c99 d0bd 1e3c 61bd 21eb 453e
00000070: cb61 07be c9f9 b0bc 0c17 313e 1590 c43e
00000080: ddcc 253d 09c6 4f3e 3c4e f13d 169d 783e
00000090: 79dd 9c3e 5f14 fb3d 8fd7 033d 3415 f1bd
000000a0: 2573 5a3e 055a bc3e b13d 8c3e 50d6 8d3d
000000b0: 7ab1 853e fa89 85bc 2be2 033e 5094 853e
000000c0: 4e22 c9bd 6710 e6bc 4d88 e43d 1a33 e6bc
000000d0: 7e41 7fbd 27b7 113e b866 893c e944 123e
000000e0: a868 193e fe30 8c3e 31ec 49bd 2992 8b3c
000000f0: dba7 ca3d 586a 1f3e 6fcc d2bd c7eb f73d
00000100: f7ee eb3b 0af6 303e 92d5 1f3e f3a5 f23d
00000110: a9ed e93c 04ce 263e c7eb 3f3d 13f7 093e
00000120: 6d71 35bd 9bbb 023e 5d3e 753d dd5f 1f3e
00000130: 1ab7 2c3e 4f8b c43d 0ba8 5c3d b250 dc3b
00000140: 5c4b c63d e2c0 7d3e 8d0d 1dbd 6d3e 563e
00000150: 3911 cbba 355e 303e 97cd 7e3e 9584 2a3e
00000160: 297c f73b 2297 d93d b342 bd3e 78f8 fd3d
00000170: 58a4 4fbd fe62 02be 3f1d 5e3e 5101 823d
00000180: 5bb7 b33d 5d5f 6f3e 3283 afbd 8478 7b3d
00000190: fd6b 713e 03c5 c5bd 657d 983d a793 c13d
000001a0: 2bdf 883d 41c5 6bbc 8fd4 523e b5db 21bd
000001b0: 9c6c 1b3e e492 5c3e 6932 5f3d 1640 6dbd
000001c0: 084c 68bd dfe4 e73d e738 353e 1043 7f3e
000001d0: 0558 103d 9833 4b3d 1e75 6cbd b0c0 1c3e

fc2.weight f4 [84, 120]
-0.5258448 -0.0715825 0.048361287 0.2548901 -0.23277451 0.04018072 0.11294098 -0.46871835
0.2332955 -0.17890804 0.26935136 -0.18225531 -0.24106568 -0.1389681 -0.4497929 -0.3738195
-0.29822642 0.25517306 -0.21243933 -0.0982077 0.35613847 -0.46354294 0.043371793 -0.32892218
0.20327328 -0.040554196 -0.16308129 0.085042596 0.01022489 0.09532963 0.1439971 0.004130227
0.2537474 -0.09322976 -0.16228391 -0.11867506 0.22843459 -0.3667769 0.21935286 -0.04759996
-0.121386595 -0.06493367 -0.122085415 0.15374649 0.027435988 0.03266521 -0.08050058 0.020207817
-0.4097558 -0.12704672 -0.26130068 0.38574168 -0.52267915 0.004931363 0.34026226 -0.029433718
0.16828288 0.0085746255 0.06995878 0.1635015 -0.3333357 -0.46407402 0.038307536 -0.03334372
-0.047106527 -0.5299406 -0.045991253 -0.074090265 -0.33429193 -0.37619656 -0.07464115 0.053512327
0.016274631 0.1611774 0.16194321 0.21604371 -0.33716348 -0.6904806 0.21952094 -0.14602955
0.13405903 -0.15404241 0.07520858 -0.17252333 -0.42102557 0.28289703 0.114638075 -0.32039088
0.28575182 -0.25594488 0.20271783 0.12549506 -0.028576681 -0.16989973 -0.3965571 -0.17560174
-0.45871112 -0.14979257 -0.09713001 -0.51269084 0.079229064 -0.3664282 -0.026677249 0.026564594
-0.46361545 -0.097399354 -0.010765241 -0.065557465 0.1651543 -0.14508307 -0.5688297 0.010133271
-0.15068986 0.0031169127 0.07791065 -0.039850514 -0.4436156 -0.027154522 0.017512297 -0.08753452
-0.20243338 -0.09889941 -0.37404647 0.18114288 -0.09472257 0.02241115 -0.4522186 -0.33247724
-0.17517312 -0.23197784 -0.29230306 -0.2617135 -0.07576065 -0.038994897 0.06220038 -0.20322841
-0.029267672 -0.22249365 0.07398932 -0.4012979 -0.027696948 -0.07952103 -0.026207944 -0.13847043
-0.20764463 -0.43417335 0.19113693 0.06099915 -0.0027389359 0.054343663 0.12803017 0.14212155
-0.34247446 -0.11518042 0.04365019 -0.18325788 -0.21931632 -0.014624747 -0.51100767 -0.07948869
0.23849007 0.055411175 -0.026530271 -0.06344553 -0.059128486 -0.06071283 -0.10346636 0.09000432
-0.04580333 -0.07986758 -0.059557796 -0.37942666 -0.3506653 0.09880108 -0.17512265 -0.18384981
-0.3971801 -0.2723223 0.04536748 -0.3469796 -0.23622756 0.06355649 -0.008706613 0.010605144
0.03186657 -0.13538545 -0.28999132 -0.081422664 0.05718695 0.037309837 -0.2012688 -0.104187444
-0.0631801 -0.23401965 0.008851592 -0.0776524 0.10529642 -0.013950634 -0.36576894 -0.16723359
-0.30945766 0.07288237 0.081643075 -0.33496597 -0.34967375 -0.09171531 -0.033277117 -0.0042263367
-0.11281217 0.008902979 0.17087343 0.20659918 -0.0123136025 0.089399956 0.12693164 0.18968382
0.2114747 -0.053593587 -0.21887825 0.08869417 -0.040897336 -0.2560416 0.07356794 0.13875364
-0.14177424 0.092869885 -0.006211171 0.0602842 -0.27340034 -0.10519076 0.025764674 -0.046735905
0.098823555 0.10911514 -0.37973666 0.097620614 0.08506047 -0.51216626 0.03459152 -0.11036616
-0.05213412 0.063102104 -0.3061391 -0.31070277 -0.19062217 0.100096375 -0.41486177 0.1572508
0.107075624 0.2584453 0.010140045 0.10240757 0.2502087 0.2601956 0.059633613 0.086905204
00000000: c49d 06bf d999 92bd 7c16 463d f580 823e
00000010: 715c 6ebe 8a94 243d 9a4d e73d dafb efbe
00000020: 04e5 6e3e ab33 37be 6ce8 893e 23a1 3abe
00000030: ecd9 76be a74d 0ebe 414b e6be 4565 bfbe
00000040: 22b1 98be 0ba6 823e b289 59be 1e21 c9bd
00000050: c857 b63e 8055 edbe 9fa6 313d 7d68 a8be
00000060: df26 503e 281c 26bd c8fe 26be d02a ae3d
00000070: 4c86 273c 2e3c c33d fa73 133e db56 873b
00000080: 2eeb 813e 3fef bebd c12d 26be e90b f3bd
00000090: c2ea 693e 2fca bbbe 099e 603e 2df8 42bd
000000a0: 8999 f8bd f2fb 84bd eb07 fabd b86f 1d3e
000000b0: 70c1 e03c f5cb 053d 7ddd a4bd dd8a a53c
000000c0: 83cb d1be 8918 02be 34c9 85be ef7f c53e
000000d0: 4dce 05bf 4597 a13b db36 ae3e fb1e f1bc
000000e0: 5952 2c3e 967c 0c3c 8d46 8f3d f06c 273e
000000f0: faaa aabe 1c9b edbe 5de8 1c3d 6d93 08bd
00000100: c6f2 40bd 30aa 07bf 5361 3cbd a3bc 97bd
00000110: 5028 abbe d69c c0be 76dd 98bd be2f 5b3d
00000120: 6052 853c b00b 253e 71d4 253e 903a 5d3e
00000130: b1a0 acbe 56c3 30bf 19ca 603e c588 15be
00000140: c546 093e 4bbd 1dbe f506 9a3d f5a9 30be
00000150: aa90 d7be e1d7 903e 5ec7 ea3d 460a a4be
00000160: 104e 923e 350b 83be 4395 4f3e c781 003e
00000170: a519 eabc 32fa 2dbe 8809 cbbe f1d0 33be
00000180: 2fdc eabe 3963 19be 19ec c6bd b53f 03bf
00000190: d942 a23d 7a9c bbbe 3f8a dabc fe9d d93c
000001a0: 015f edbe 5079 c7bd b260 30bc fe42 86bd
000001b0: 351e 293e a890 14be d39e 11bf 0506 263c
000001c0: 714e 1abe 1e45 4c3b 9e8f 9f3d 4b3a 23bd
000001d0: 9521 e3be 2973 debc f375 8f3c 4c45 b3bd
000001e0: b24a 4fbe c68b cabd 0583 bfbe 857d 393e
000001f0: e8fd c1bd 9797 b73c 3289 e7be 753a aabe
00000200: 9560 33be 998b 6dbe bfa8 95be 50ff 85be
00000210: 6628 9bbd 1db9 1fbd d3c5 7e3d 1c1b 50be
00000220: c2c2 efbc 60d5 63be b687 973d eb76 cdbe
00000230: b6e4 e2bc ecdb a2bd 0bb2 d6bc 31cb 0dbe
00000240: cba0 54be f84b debe 66b9 433e 3fda 793d
00000250: b87f 33bb 7697 5e3d 571a 033e 5088 113e
00000260: d058 afbe b6e3 ebbd 8bca 323d f4a7 3bbe
00000270: 7594 60be a39c 6fbc 66d1 02bf f7ca a2bd
00000280: be36 743e d4f6 623d 0356 d9bc bbef 81bd
00000290: b630 72bd 04ae 78bd 2ce6 d3bd 2f54 b83d
000002a0: 469c 3bbd 9d91 a3bd e0f2 73bd 3644 c2be
000002b0: 678a b3be 3858 ca3d 5a53 33be 2043 3cbe
000002c0: 315b cbbe d46d 8bbe 40d3 393d 4fa7 b1be
000002d0: a3e5 71be e829 823d 2fa6 0ebc 33c1 2d3c
000002e0: 8586 023d 7ca2 0abe be79 94be edc0 a6bd
000002f0: dd3c 6a3d 33d2 183d 6919 4ebe 3a60 d5bd
00000300: 9164 81bd d9a2 6fbe 4506 113c 3908 9fbd
00000310: a6a5 d73d 3391 64bc 1146 bbbe 483f 2bbe
00000320: 3c71 9ebe 5a43 953d 7c34 a73d a980 abbe
00000330: 7008 b3be 3dd5 bbbd 964d 08bd 157d 8abb
00000340: 110a e7bd cddd 113c 72f9 2e3e bc8e 533e
00000350: febe 49bc 5317 b73d 5efa 013e 7a3c 423e
00000360: d38c 583e f384 5bbd 9f21 60be 4aa5 b53d
00000370: f783 27bd e217 83be caaa 963d 6f15 0e3e
00000380: 442d 11be 9132 be3d 1487 cbbb 91ec 763d
00000390: 21fb 8bbe 416e d7bd 7010 d33c 266e 3fbd
000003a0: 0164 ca3d c277 df3d d86c c2be 51ed c73d
000003b0: 2f34 ae3d 541d 03bf d6af 0d3d a707 e2bd
000003c0: 968a 55bd ad3b 813d 44be 9cbe 6f14 9fbe
000003d0: 7532 43be 54ff cc3d c368 d4be 5b06 213e
000003e0: 774a db3d f152 843e 6e22 263c 0fbb d13d
000003f0: 5b1b 803e 5c38 853e 6042 743d 5bfb b13d

fc2.bias f4 [84]
0.26561326 0.63289255 0.43023342 0.14326668 0.46308738 0.05885613 0.6355381 0.4365527
0.42713615 0.41469023 0.6227885 0.32500464 0.4182416 0.38835016 -0.08910132 0.2635639
0.62176406 0.29535213 0.41716582 0.41015765 0.3090261 0.42731196 0.48103726 0.48786998
0.2899229 0.29493055 0.021586392 0.25498483 0.22242637 0.110311575 0.49992296 0.28853405
0.36418572 0.5678502 0.3617328 0.4586924 0.2835994 0.50885296 0.38732842 0.069598585
0.3372719 0.4823821 0.61911863 0.019402158 0.22387949 0.37125534 0.24724653 0.31529057
0.71014404 0.5591189 0.25691146 0.3709719 0.47919998 0.26871625 0.33092457 0.35979825
0.6870834 0.21578309 0.3567132 0.081040196 0.42948788 0.36491877 0.13809334 0.034299288
-0.039836954 0.31610832 0.18242206 -0.3514748 -0.027918084 0.38317105 0.31973362 0.27306035
0.57521003 0.34463456 0.33079073 0.23606218 0.29674274 0.3642124 0.5965767 0.51095194
0.4623037 0.26228222 0.522373 0.5694339
00000000: 76fe 873e 3f05 223f 8e47 dc3e 80b4 123e
00000010: ca19 ed3e 2013 713d a0b2 223f d683 df3e
00000020: 97b1 da3e 4752 d43e 116f 1f3f 0267 a63e
00000030: c323 d63e d5d5 c63e c17a b6bd d9f1 863e
00000040: ee2b 1f3f 6538 973e c296 d53e 2f00 d23e
00000050: ab38 9e3e a2c8 da3e 844a f63e 18ca f93e
00000060: c670 943e 2301 973e f2d5 b03c 5f8d 823e
00000070: bdc3 633e 09eb e13d e7f5 ff3e bcba 933e
00000080: 8d76 ba3e a15e 113f 0b35 b93e bbd9 ea3e
00000090: f133 913e 3044 023f e94f c63e b489 8e3d
000000a0: e7ae ac3e c9fa f63e 8f7e 1e3f 46f1 9e3c
000000b0: aa40 653e 2e15 be3e 322e 7d3e c46d a13e
000000c0: 00cc 353f 6b22 0f3f e689 833e 07f0 bd3e
000000d0: b359 f53e 2d95 893e f26e a93e 7a37 b83e
000000e0: b3e4 2f3f 3ef6 5c3e 1da3 b63e 67f8 a53d
000000f0: d6e5 db3e a2d6 ba3e 5768 0d3e 697d 0c3d
00000100: 132c 23bd f3d8 a13e d9cc 3a3e 81f4 b3be
00000110: 77b4 e4bc ff2e c43e 20b4 a33e 91ce 8b3e
00000120: f740 133f f173 b03e 675d a93e 49ba 713e
00000130: aaee 973e 0c7a ba3e 40b9 183f bfcd 023f
00000140: 12b3 ec3e db49 863e 3dba 053f 6cc6 113f

fc3.weight f4 [10, 84]
-0.12985618 0.07546693 0.20287594 0.028320769 -0.18786867 -0.18116282 0.09556914 0.111894965
-0.39268738 0.12577815 -0.18866432 -0.55435747 -0.30137143 -0.12056623 0.04830428 -0.1432766
0.14057909 -0.005203238 0.1830867 -0.24359062 -0.079646215 0.042652845 -0.12080711 0.10689322
-0.0020319773 0.2593365 -0.14255476 0.05764896 0.151786 -0.11505702 -0.033221446 -0.03893447
0.04443252 -0.23750405 0.14426595 -0.06652185 -0.19383113 0.1405737 -0.29306665 0.21047905
0.19289467 0.08667159 -0.33497748 -0.16953024 0.05256097 -0.099971436 -0.31267163 0.010032855
-0.3857586 -0.2536534 0.01999162 0.03077723 -0.05715549 -0.156177 -0.22895657 0.1749084
0.15903613 -0.015471359 -0.13983303 -0.4395769 -0.051560044 -0.012397643 -0.1231112 -0.44899848
0.09754441 -1.0532215 -0.27492738 0.006212892 0.14114387 -0.0044041933 -0.70198506 0.040316228
0.13733298 0.078944996 0.015213894 -0.041990895 -0.13857989 0.1571684 -0.44437596 -0.18225043
-0.3098446 0.08395466 0.04048171 -0.050760698 0.5375559 -0.9372643 -0.40582016 0.15144354
-0.114608884 0.17028631 -0.67019427 -0.34299535 -0.39022705 0.08026792 -0.3089438 -0.4645487
0.31811363 0.07978245 -0.1214692 -0.45408687 0.10887449 -0.3022255 -0.27084076 0.2023543
0.25594825 -0.4346979 0.2787235 -0.012028702 0.36341414 0.083932 0.114751704 -0.1946435
0.055677503 -0.092508584 0.23603967 -0.15999942 -0.03601865 -0.25121552 0.14440325 0.037479524
0.046365988 -0.23140556 0.07174291 -0.39718536 -0.23724034 0.20239434 -0.2966569 -0.021562539
-0.19410299 -0.022164565 -0.19046754 -0.16057307 0.19125564 -0.52684075 0.15843825 -0.06829399
0.121974654 -0.3976676 -0.21651551 -0.15887867 -0.23481706 -0.044734824 -0.15969169 -0.3386795
-0.21101318 -0.011174798 -0.07280365 -0.39394307 -0.17652458 -0.52037543 -0.119372316 0.1334117
-0.08014438 0.02345948 -0.67993677 0.10740631 -0.2920522 -0.37670714 -0.3414046 -0.053723074
0.11030429 -0.09698567 -0.6188529 -0.32210705 -0.45289117 -0.46986923 -0.4164336 0.37445346
-0.099919945 0.004280587 -0.14000165 -0.13967793 -0.3404893 0.008680627 0.087903455 0.07779517
0.13956808 0.14975873 -0.25768313 -0.38062152 -0.20001814 -0.29310283 -0.37121746 -0.20878403
-0.49189502 0.019605774 -0.401978 0.033719998 -0.007957899 0.06915005 -0.11602295 0.1758796
-0.100263156 -0.33240938 0.115781136 -0.024846418 -0.055580016 -0.34941262 0.20131208 -0.10076275
-0.37593263 0.20308541 0.16887662 -0.19027095 0.08871121 -0.29634663 -0.15196031 -0.054179803
-0.00032967317 0.11995677 0.16836572 -0.27752498 -0.30537355 0.16608505 -0.3665431 -0.16739482
-0.5005717 -0.024803756 -0.2898768 0.20287569 0.15229778 0.2808281 0.108814046 0.13344352
0.11640382 -0.08397896 -0.1310328 -0.13648672 -0.20866072 -0.18426988 0.13874762 -0.30223978
-0.14444079 -0.38930935 -0.01948386 -0.052648272 -0.16219287 0.009081424 -0.20455208 0.100846455
0.036442917 -0.36753666 -0.37476146 -0.06638025 0.07739993 -0.0017610254 0.11683899 -0.14737916
-0.78520197 0.18190533 -0.21511732 -0.16406244 -0.19009614 -0.0832619 -0.26460347 0.0052008373
00000000: 05f9 04be 688e 9a3d b6be 4f3e f500 e83c
00000010: a560 40be bf82 39be c1b9 c33d 3029 e53d
00000020: 520e c9be fdcb 003e 3831 41be 5fea 0dbf
00000030: 5b4d 9abe 6deb f6bd b5da 453d 1ab7 12be
00000040: f7f3 0f3e ed7f aabb 147b 3b3e d26f 79be
00000050: 8e1d a3bd c0b4 2e3d b869 f7bd d5ea da3d
00000060: ec2a 05bb c1c7 843e e0f9 11be 5121 6c3d
00000070: ca6d 1b3e 04a3 ebbd 3613 08bd c079 1fbd
00000080: e0fe 353d 4334 73be 74ba 133e 9c3c 88bd
00000090: ab7b 46be 8df2 0f3e d50c 96be d287 573e
000000a0: 2e86 453e e080 b13d 2b82 abbe 5699 2dbe
000000b0: 2c4a 573d d3bd ccbd 7f16 a0be d860 243c
000000c0: 2782 c5be dcde 81be 77c5 a33c 8820 fc3c
000000d0: e01b 6abd ddec 1fbe 9773 6abe 301b 333e
000000e0: 5eda 223e 957b 7dbc 6430 0fbe 3910 e1be
000000f0: a030 53bd 7c1f 4bbc ba21 fcbd 21e3 e5be
00000100: 5dc5 c73d f6cf 86bf 48c3 8cbe 8495 cb3b
00000110: 0588 103e 0d51 90bb 4bb5 33bf a122 253d
00000120: 04a1 0c3e eaad a13d b243 793c a5fe 2bbd
00000130: e3e7 0dbe c1f0 203e 3f85 e3be db9f 3abe
00000140: f4a3 9ebe 6cf0 ab3d 26d0 253d 73ea 4fbd
00000150: 439d 093f 8ef0 6fbf a9c7 cfbe 0414 1b3e
00000160: 10b8 eabd 895f 2e3e da91 2bbf 169d afbe
00000170: d7cb c7be 8263 a43d e22d 9ebe 54d9 edbe
00000180: cadf a23e fb64 a33d d8c4 f8bd 137e e8be
00000190: 97f9 de3d 4dbd 9abe a4ab 8abe f735 4f3e
000001a0: a60b 833e b990 debe d9b4 8e3e 0814 45bc
000001b0: 6b11 ba3e 8ae4 ab3d f102 eb3d a050 47be
000001c0: 180e 643d 2475 bdbd 62b4 713e e3d6 23be
000001d0: 4b88 13bd 529f 80be 72de 133e 2184 193d
000001e0: 43ea 3d3d 94f5 6cbe f2ed 923d e15b cbbe
000001f0: 22ef 72be 7640 4f3e 6ae3 97be eca3 b0bc
00000200: efc2 46be 7692 b5bc ec09 43be 446d 24be
00000210: 85d8 433e 09df 06bf a33d 223e b8dd 8bbd
00000220: d9cd f93d 169b cbbe 3eb6 5dbe 17b1 22be
00000230: e273 70be dd3b 37bd 3886 23be 6667 adbe
00000240: d713 58be 8016 37bc 141a 95bd e8b2 c9be
00000250: dcc2 34be 5337 05bf 7979 f4bd 149d 083e
00000260: bd22 a4bd 182e c03c 5610 2ebf d7f7 db3d
00000270: de87 95be c2df c0be 95cc aebe ba0c 5cbd
00000280: 37e7 e13d 6ca0 c6bd 256d 1ebf 37eb a4be
00000290: 5ae1 e7be b392 f0be c936 d5be 5db8 bf3e
000002a0: d4a2 ccbd 2b44 8c3b 985c 0fbe bb07 0fbe
000002b0: 9d54 aebe 3039 0e3c ba06 b43d 1353 9f3d
000002c0: efea 0e3e 5a5a 193e 0bef 83be d3e0 c2be
000002d0: 8ed1 4cbe 9311 96be 3710 bebe 7bcb 55be
000002e0: aad9 fbbe 4a9c a03c 0fd0 cdbe fb1d 0a3d
000002f0: d961 02bc 8b9e 8d3d 719d edbd c819 343e
00000300: c556 cdbd 9031 aabe a91e ed3d b78a cbbc
00000310: dfa7 63bd 36e6 b2be c124 4e3e b35c cebd
00000320: 3e7a c0be 9ff5 4f3e feed 2c3e 63d6 42be
00000330: 39ae b53d bfba 97be 7c9b 1bbe a4eb 5dbd
00000340: fcd7 acb9 e5ab f53d 1068 2c3e c117 8ebe
00000350: ec59 9cbe 3312 2a3e 8aab bbbe 8c69 2bbe
00000360: 7825 00bf 3f31 cbbc bb6a 94be a5be 4f3e
00000370: f3f3 1b3e b3c8 8f3e e6d9 de3d 6ba5 083e
00000380: 2065 ee3d 29fd abbd 762d 06be 2dc3 0bbe
00000390: 28ab 55be 3eb1 3cbe db13 0e3e 2cbf 9abe
000003a0: 49e8 13be 8e53 c7be 9e9c 9fbc b7a5 57bd
000003b0: e315 26be 41ca 143c 1a76 51be 9688 ce3d
000003c0: 2b45 153d c42d bcbe bce0 bfbe 5ef2 87bd
000003d0: db83 9e3d 35d2 e6ba 4849 ef3d 90ea 16be
000003e0: ff02 49bf 6445 3a3e b747 5cbe fcff 27be
000003f0: 90a8 42be 3785 aabd 1b7a 87be c96b aa3b

fc3.bias f4 [10]
-0.2729526 -0.32327428 -0.0062700855 0.22781554 -0.094384104 0.016185915 -0.036622886 0.11258521
0.16703586 -0.16059746
00000000: 71c0 8bbe 3584 a5be 4a75 cdbb 7a48 693e
00000010: 744c c1bd 5398 843c e101 16bd 1393 e63d
00000020: 730b 2b3e a973 24be
