HW1_Split_nb/checkpoints/model_dropout_12.pt (torch, 250614 bytes, 10 tensors)

conv1.weight f4 [6, 1, 5, 5]
000000 f6 45 9d 3e 06 55 65 3e be 1c a9 3e ae b3 15 be
       0.30717438 0.22395715 0.3302974 -0.14619324
000010 b8 ef e4 bd 1c 1a 8a 3c bd f2 ab 3c fe 97 a5 3e
       -0.11178535 0.016858153 0.02098977 0.32342523
000020 c4 cc bf 3c a2 80 c0 bd 83 20 8b be e6 74 b7 be
       0.02341307 -0.09399535 -0.27173242 -0.35831374
000030 47 71 a2 3e dc d5 69 3c b7 b7 66 3e 11 11 eb be
       0.3172705 0.014272179 0.22531019 -0.45911458
000040 07 c6 ea be 33 e8 f8 3d 1f 2c 90 3d dd 3a 8e 3d
       -0.45854208 0.121536635 0.070396654 0.06944821
000050 5c 43 59 be a7 19 89 be 22 82 aa 3e a3 41 4d bd
       -0.21217102 -0.26777384 0.33302408 -0.050111424
000060 96 17 b9 bd d8 dd f2 3e 7a 84 61 bb ec 75 a6 be
       -0.09037702 0.47434878 -0.0034411238 -0.32511842
000070 7e 62 db bc f5 a9 1c be c8 86 a9 3e 5a b3 e6 bc
       -0.026780363 -0.15299208 0.33110642 -0.028161693
000080 a8 b3 fb be ac bb 07 3e 19 13 93 3d c9 bb 0b be
       -0.49160504 0.13255185 0.07181377 -0.13645853
000090 76 5e 88 be fe 12 7c be 79 98 a2 3e 32 48 a5 3e
       -0.26634568 -0.2461662 0.31756952 0.32281643
0000a0 cc 33 cf bd e7 2d e0 be 05 db 9f be 71 7c 0d 3f
       -0.10117301 -0.4378502 -0.31221786 0.5526801
0000b0 45 c2 9d 3e c0 d8 1f 3c 24 ba 6d be f0 c8 3c bd
       0.30812278 0.009756267 -0.23215538 -0.046090066
0000c0 b0 7a 35 3e 7d b0 59 3d d1 4d a1 3d 76 d2 a6 3e
       0.17722583 0.053146828 0.078761704 0.32582444
0000d0 fc 37 c2 be d9 24 50 3d 3d c8 f4 be 6d 0a 8e bf
       -0.37933338 0.05081639 -0.4780902 -1.1096932
0000e0 de 07 4a c0 36 ea 33 c0 b4 f9 e2 be df 51 f3 3d
       -3.1567302 -2.81117 -0.44331133 0.1188085
0000f0 d8 1e 39 be 02 15 19 c0 91 28 f1 bf 34 71 a3 bd
       -0.18078172 -2.3919072 -1.8840505 -0.07980576
000100 56 49 8e 3e 68 8b 83 3e 62 d8 6a be 6a 08 b4 bb
       0.27790326 0.25692296 -0.22934106 -0.005494167
000110 34 dd 7c bd f3 6c 98 3e b8 8e 05 3f 19 36 6a 3e
       -0.061734393 0.29770622 0.52170897 0.22872199
000120 26 a3 fc 3d 3a 8e 80 be 44 be 7e 3e 65 c8 98 be
       0.123358056 -0.2510851 0.24877268 -0.2984039
000130 fa f0 13 3e 28 55 2c be 5f 91 fd 3c 48 95 15 3e
       0.14447394 -0.1682936 0.030953107 0.14607728
000140 ef 22 2e be 43 ca 47 be f3 f5 d4 bd a3 a5 36 3e
       -0.17005514 -0.1951075 -0.103984736 0.17836623
000150 73 21 49 3d 80 36 12 be 28 79 60 be 6f ea a5 3c
       0.049104165 -0.14278603 -0.21921217 0.020253388
000160 1c 99 80 3d ce 18 79 3e 90 57 1b bd 64 40 71 3e
       0.06279203 0.24325868 -0.037925303 0.2355972
000170 64 b5 b7 3d fc cd 84 3e 72 ef 2f 3e 37 be 01 3e
       0.089701444 0.25938404 0.17181185 0.12670217
000180 bd aa a2 bd 09 43 09 3d 6f a6 c9 bd 36 27 31 3e
       -0.07942722 0.033511195 -0.09846198 0.17300114
000190 e5 23 b7 bd c0 f1 2b bd 9d 8a 80 be fd a7 ca 3d
       -0.08942393 -0.041978598 -0.25105754 0.098953225
0001a0 dd 28 2c 3a 94 b0 3b 3d bf 98 2c bd 32 26 39 3e
       0.00065673684 0.045822695 -0.042137858 0.18080977
0001b0 4a 66 1a 3e c8 34 a3 3d ad f0 dd 3e 56 dd 00 3f
       0.15078083 0.079690516 0.43347684 0.5033773
0001c0 74 c1 24 3e 4f 8a 87 3e c1 ec 82 be 9c c4 82 3e
       0.16089422 0.2647271 -0.25571254 0.25540626
0001d0 73 39 e9 3d 95 07 05 bd c3 1f bc be 97 e8 ba be
       0.11387911 -0.032477934 -0.36742982 -0.36505577
0001e0 71 65 d4 be 54 eb 97 be 24 2d 47 bf d4 fd de be
       -0.41483644 -0.2967173 -0.77803254 -0.4355303
0001f0 58 02 1d be a4 1d 21 be 7b 04 75 3d 61 1e c5 bd
       -0.15332925 -0.15733963 0.059818726 -0.09624935
000200 ee 15 53 3e 84 d3 79 3d 3b 75 d1 3c 3e d0 41 bd
       0.20613834 0.060992733 0.025568595 -0.047317736
000210 48 d3 0d 3e 43 6d 49 3e 0c b7 80 bd 4e be d7 bb
       0.13850129 0.19670586 -0.062849134 -0.0065839654
000220 0e 3c 41 be f1 a5 f1 bc dc f3 59 3e 49 1f f7 bd
       -0.18870565 -0.029498072 0.21284431 -0.12066514
000230 df f7 35 be 67 b2 5d be 71 81 6d 3d 0d 64 83 3e
       -0.17770337 -0.21650086 0.057984773 0.2566227
000240 de 3d 9b 3c 8d 4e 17 be b8 e5 dc bc 29 6f e8 3d
       0.018950399 -0.14776058 -0.026965007 0.11349327
000250 a8 4c c8 bc 59 9e f4 3d
       -0.024450615 0.11944265

conv1.bias f4 [6]
000000 71 5d 3f bd 2d 74 b6 3c fa 29 bb 3e f6 d2 96 be
       -0.046719972 0.022272194 0.36555463 -0.29457825
000010 c7 fb 73 bd 6a c2 d3 3c
       -0.059566285 0.02584954

conv2.weight f4 [16, 6, 5, 5]
000000 e9 c7 cd 3d cf 18 ab be e2 56 e7 be 97 59 2e 3d
       0.100478955 -0.33417365 -0.45183474 0.04256591
000010 6c c7 5b 3f 62 5b 84 bc ef a6 a4 bd 54 6e a0 be
       0.8585117 -0.016156856 -0.080396526 -0.31334174
000020 ae c6 c0 bd 7d 48 ca 3c ff 2f 94 be f0 5c 02 3d
       -0.09412895 0.024692768 -0.28942868 0.031826913
000030 ba 02 05 3c 79 31 a2 be fd 2d 73 be 14 97 0f be
       0.008118326 -0.3167837 -0.23748012 -0.14022475
000040 21 c5 92 3e 15 af 1e 3d b8 2c 53 bf 71 5f 41 bf
       0.28666022 0.03874119 -0.8249011 -0.7553626
000050 32 e5 82 bc 89 77 db 3e ef a8 b6 3e c7 85 0c 3d
       -0.01597843 0.42864636 0.3567576 0.034307268
000060 c9 98 6d be 9f 81 67 3e 81 0d 36 3e 25 ed ef 3e
       -0.23202814 0.2260804 0.17778589 0.46860614
000070 20 78 37 bd 5f 2a 9f 3d ee 96 9c 3c e1 d1 a7 3d
       -0.044792295 0.077717535 0.019114938 0.08194328
000080 30 90 41 3d 7a ef 81 3e 63 d6 8a bb 67 c0 82 bc
       0.04725665 0.2537802 -0.0042369827 -0.015960885
000090 b1 f9 ac bc be 95 ab be a0 d0 6c 3c fc cf 64 3e
       -0.021115156 -0.33512682 0.014454037 0.22344965
0000a0 ac 78 c7 3a 15 67 35 3e 96 2c 2b be c5 75 21 bf
       0.0015218458 0.17715104 -0.16716227 -0.6307033
0000b0 41 55 ca be 9e 72 82 3b 6f ee 92 3e 90 06 bb be
       -0.3951817 0.0039809486 0.28697535 -0.36528444
0000c0 60 cf 9a bf ce 61 47 bf ca db 02 bd 91 a2 a1 3e
       -1.2094536 -0.77883613 -0.03194789 0.3156934
0000d0 13 55 70 be 4e 5a 90 be dc ef bf 3e 36 2b 66 be
       -0.23469953 -0.28193897 0.37487686 -0.22477421
0000e0 2e 50 6e 3d 89 f5 70 bf 9b 38 a2 bf 01 8f 5a bf
       0.058181934 -0.94124657 -1.2673525 -0.85374457
0000f0 1f 83 9e be f8 78 a1 be 6d a7 b7 bc 68 f8 84 be
       -0.30959412 -0.31537604 -0.022418702 -0.2597077
000100 a4 59 1a bf 6e c9 c1 be f3 90 4a be 75 51 c4 3e
       -0.6029303 -0.3784899 -0.19781856 0.38343397
000110 10 65 43 3e 2f e4 b3 be 5a cb b5 be f4 11 a4 bd
       0.19081521 -0.35135028 -0.35506707 -0.08011237
000120 ce ee 56 be 50 8c a2 bd 0f 87 24 bf 16 0e 79 3d
       -0.20989534 -0.07936919 -0.64268583 0.06080445
000130 04 67 91 be e9 20 58 be 08 5f 46 bd f9 d7 85 bd
       -0.28398907 -0.21106304 -0.048430473 -0.06535334
000140 99 7c 40 3e b4 b7 dd bc 73 4e 52 3c 85 be 90 be
       0.1879753 -0.027065136 0.012836087 -0.28270355
000150 d6 57 aa be 9c 74 00 3d 3b 6b fd 3d c2 cb 21 bd
       -0.33270139 0.031361207 0.12373968 -0.03950096
000160 d9 c1 87 be c2 47 6d be c3 3f b1 3c 54 3c 87 3d
       -0.26515082 -0.23171905 0.02163685 0.066033036
000170 e1 56 3a 3e 3c 5d eb bd a0 c1 66 3a 9f d3 91 be
       0.18197204 -0.114923924 0.0008802656 -0.28481767
000180 63 8f d4 3a c7 60 74 3e 3f cc 1a be f4 6f 4e 3d
       0.0016217049 0.23865043 -0.15116976 0.050399736
000190 c6 1f 4f bd 93 62 9b 3e 90 8c 85 3d 6f 9a bf be
       -0.05056741 0.30348644 0.06520951 -0.3742251
0001a0 6d 87 44 3c 48 6f db 3c 98 a0 85 3d e2 6d 61 3e
       0.011995179 0.026786461 0.065247715 0.22014573
0001b0 1b 4f 57 be 44 73 80 3d cf 0a 44 3d 46 61 96 bd
       -0.2102627 0.06271985 0.04786187 -0.07342772
0001c0 37 9b 46 3e 62 00 49 be 08 bb 8d 3e 35 00 66 be
       0.19395147 -0.19629052 0.27681756 -0.22461016
0001d0 38 b0 b3 be 23 69 3e 3d b1 75 82 3d 80 b8 d4 3e
       -0.35095382 0.046486985 0.06370104 0.41547012
0001e0 26 34 23 bf 13 68 01 bf 24 46 36 3e 26 57 c8 3e
       -0.6375145 -0.5054943 0.17800194 0.3912899
0001f0 8b 3d 9e 3e 05 b5 82 3d 29 6d 31 be 68 81 48 be
       0.3090633 0.06382183 -0.17326798 -0.19580615
000200 01 b2 a7 be 09 bb 9d be 08 b4 2e 3e 8e f3 6e 3d
       -0.32752994 -0.3080676 0.17060864 0.05833774
000210 52 29 b4 3d 20 7b 7e bd e0 ef 1d be f1 8d ce 3d
       0.08796944 -0.06212914 -0.15423536 0.10085667
000220 c0 03 0b 3e 8b fa 9b 3d 6e 7b 31 be c1 7c b6 bd
       0.1357565 0.07616147 -0.17332241 -0.08910514
000230 ba 9d 72 ba e8 3e 15 3e 51 4b 36 3e a2 d6 65 be
       -0.00092550705 0.14574778 0.17802168 -0.22445157
000240 12 ce a0 bd bd 69 27 be 0f 20 2e 3e 34 1a 02 3e
       -0.07851805 -0.1634893 0.17004417 0.12705308
000250 32 07 12 be 1c 4e 14 be 7b 9f 48 be c9 7f 3a 3e
       -0.14260557 -0.14482921 -0.19592087 0.18212809
000260 7e f9 71 be 5f 67 74 be 86 ba da 3c 36 c3 8f bd
       -0.2363033 -0.23867558 0.02670027 -0.070196554
000270 c3 9d f9 3d 74 53 3d bd f3 ab c1 bd 78 7d 11 3e
       0.12188294 -0.046222165 -0.09456625 0.14208019
000280 b1 a7 34 3d 4a 1d d2 bd c4 4a 7c 3e 40 4a 28 3e
       0.044105235 -0.10259493 0.24637896 0.16434574
000290 11 a9 01 3e ad d9 d7 be 01 78 a9 bd 35 a4 5f 3e
       0.1266215 -0.4215826 -0.08274842 0.21839984
0002a0 c9 0d 22 3e 49 e0 c9 3e c0 d6 9f be 9d 7a 83 3e
       0.15825571 0.39428928 -0.3121853 0.25679484
0002b0 96 b7 f7 3d 77 ed a4 3d b5 55 96 3e 64 5f b0 3e
       0.12095563 0.08053105 0.29362264 0.34447777
0002c0 e6 6f e5 3d 6c f5 b7 bb 77 6d a5 bd 1b e4 07 be
       0.112029836 -0.0056139734 -0.080775194 -0.13270609
0002d0 01 d8 1c 3e e0 46 94 be d4 01 5f be 4d 9c e0 bd
       0.15316774 -0.28960323 -0.21778041 -0.10967312
0002e0 35 98 0a 3e fa 8c a3 3d 99 8f 00 bf db 8b fe bc
       0.13534625 0.079858735 -0.5021911 -0.031072548
0002f0 59 3c bc bc a3 c9 e9 3d 07 d9 e8 be ec 41 d3 bd
       -0.022977995 0.11415412 -0.4547808 -0.10315308
000300 85 b9 3b 3c b1 3b b4 bd 7f 8c 80 3d 60 01 8f bf
       0.0114578055 -0.08800448 0.062767975 -1.1172295
000310 f2 11 2d 3e 11 23 0f bd 65 e2 30 3e 80 8a ee 3d
       0.16901377 -0.03494555 0.17273863 0.116475105
000320 24 3e 79 be cb c0 b0 be f5 2b 47 3e b1 42 af 3e
       -0.24340111 -0.3452209 0.19450362 0.3423057
000330 43 7f e6 3c 01 09 e1 be fc 9b 38 bf fd 0f 5e 3e
       0.028136855 -0.43952182 -0.72113013 0.21685787
000340 35 f9 2b 3b f2 11 90 bf 8a df fd be ef 23 2d bf
       0.0026241068 -1.1255476 -0.4958461 -0.67632955
000350 80 3a 24 bf f7 80 9d be 00 3e 88 bf ad f6 db bb
       -0.64151764 -0.30762455 -1.0643921 -0.0067127557
000360 7e 5f d7 3e e0 b1 51 bd 89 d2 a7 be 5f c6 49 bf
       0.42065042 -0.051195025 -0.32777813 -0.78818315
000370 bd b9 f9 3e ec ba ee 3e fe f5 30 bc 77 4c f5 be
       0.4877452 0.46626985 -0.010800837 -0.479099
000380 52 14 40 bf ea a2 4f 3e 6e 53 19 3e 91 6d 73 be
       -0.75031006 0.2027699 0.14973232 -0.23772265
000390 13 60 b9 bd 61 05 19 be b0 68 84 3d 80 5b 14 be
       -0.09051528 -0.14943458 0.0646528 -0.1448803
0003a0 7c e0 4d be 04 80 19 bd ec 46 84 be eb 83 13 3e
       -0.20105165 -0.0374756 -0.2583536 0.14405791
0003b0 59 3a 63 bd 42 99 2f be ef 0d b0 3d 32 e6 32 be
       -0.055475567 -0.17148307 0.085964076 -0.17470625
0003c0 38 7e 1c 3e 28 bb 9a bc 75 cd 88 3d 3d 7d 0a 3d
       0.15282524 -0.018888071 0.06679813 0.033810843
0003d0 f5 27 c3 be aa 94 81 bc 01 db 65 3e b7 4e a8 3d
       -0.38116422 -0.015817959 0.22446825 0.08218139
0003e0 2d bc b8 bd 20 9f 3c be b3 a9 9a 3e a3 7a b2 3e
       -0.09020267 -0.18420076 0.30207595 0.3485919
0003f0 81 05 91 3e 3a 3c 7e 3d 7a 3c bc be f2 be 36 3e
       0.28324512 0.062069155 -0.3676489 0.17846277

conv2.bias f4 [16]
000000 7b 5f 4d 3e 84 b3 1c 3e 02 e0 db bd 5b d8 4f be
       0.20055954 0.15302855 -0.107360855 -0.20297377
000010 94 b2 96 3e 45 48 a7 bd b8 86 f6 3d 62 04 da bd
       0.2943312 -0.08168081 0.12037414 -0.10645367
000020 d7 e9 66 be aa b5 55 be 6b 93 2a bd bf dd a8 3d
       -0.2255014 -0.2087008 -0.041644495 0.0824542
000030 a5 12 81 3e 98 1d fc bd ad d0 1b bd 64 ee 19 3e
       0.25209537 -0.12310332 -0.038040806 0.15032345

fc1.weight f4 [120, 400]
000000 cd 2a 48 be ce dd 25 3e 16 62 58 3d c2 40 b8 be
       -0.19547577 0.16197893 0.052827917 -0.35986906
000010 db e2 c4 be 1d 5e 7b bd ad 44 e0 be 63 95 bd 3c
       -0.38454327 -0.06136905 -0.43802395 0.023142522
000020 a3 d9 f3 be c7 3d 18 bd d0 74 f5 bd dc fb 3a be
       -0.4762698 -0.03716829 -0.11985171 -0.18260139
000030 f2 94 cb 3d 19 d0 e3 be ed 9f 27 be 16 9c 27 bb
       0.099405184 -0.44494703 -0.163696 -0.0025575212
000040 5d bc 44 be 3b 8f cc bd 0c 89 01 be e6 86 e4 3d
       -0.1921248 -0.099882565 -0.12649935 0.11158542
000050 c9 6c a7 3e 59 e4 85 be 83 7f b4 bc da 3c a9 3d
       0.32700184 -0.26150778 -0.022033459 0.0826356
000060 72 17 b7 3e df 51 0e 3e 41 f9 36 3d 24 0c 07 bf
       0.35760075 0.13898419 0.0446713 -0.527529
000070 4d 8d b5 be ba 6f 3f 3d 4e 77 bd 3c 98 e6 63 be
       -0.35459366 0.04673741 0.023128178 -0.22255933
000080 26 f2 a3 bd a6 38 b4 be 5e 33 3d be 95 3a 83 be
       -0.080051705 -0.3519947 -0.18476626 -0.25630632
000090 c4 55 87 bc 40 92 28 3e 06 8c 35 bd 4f d2 81 bd
       -0.016520388 0.1646204 -0.04432299 -0.06338941
0000a0 58 55 68 3e c3 52 6d 3e 0c bc 4c 3e 98 a3 dd bd
       0.22688806 0.23176102 0.19993609 -0.10822219
0000b0 4f 92 8e be de 14 03 bd 47 e7 0a 3e c4 6c da bd
       -0.27846 -0.032002322 0.13564788 -0.10665277
0000c0 ed da b6 3d 39 88 0e bd cf 45 6e be 67 0d 39 3d
       0.089284755 -0.03479788 -0.23268817 0.045178797
0000d0 7b 23 2c 3d 10 32 c7 3e 7a a9 ad 3b 2c 57 97 be
       0.042026024 0.38905382 0.005299744 -0.29558694
0000e0 2a 9d a6 be 2f 3e f7 3c 13 6c 5a 3e 75 e7 ff 3c
       -0.32541782 0.030181019 0.2133029 0.031238297
0000f0 63 88 bd be 11 6e 34 bd 81 55 94 be 28 46 68 bf
       -0.37018117 -0.04405028 -0.28971484 -0.9073205
000100 8c 43 17 bf e9 9e ac bd 47 6a 3a bb 92 39 30 3d
       -0.59087443 -0.08428747 -0.0028444694 0.043023653
000110 a8 18 a7 be fc 57 56 be f7 80 4a bb 2c 9d d9 bd
       -0.32636 -0.20932001 -0.0030899623 -0.10625681
000120 64 d7 ac be ea a8 68 be 0d e8 92 bd be 92 40 be
       -0.3375808 -0.22720686 -0.071731664 -0.18805978
000130 c7 c7 c1 3d 7f 20 0c 3e 06 fe 3e be 21 d7 8b 3d
       0.09461933 0.13684271 -0.1865159 0.06828142
000140 3f 03 8a 3e 33 0c 9d 3e ae d5 cd bd 26 90 2e 3e
       0.26955602 0.3067337 -0.10050522 0.17047176
000150 7c 26 89 3e 1a 11 5b ba f9 e2 e9 3e c5 d4 95 3e
       0.26787174 -0.00083567353 0.4568098 0.29263893
000160 da 71 8a 3e ae 4d 37 3e 03 9a d4 bd f3 d4 e4 3c
       0.27039987 0.17900726 -0.10380938 0.027933573
000170 24 06 32 be a9 dc 7b bd 23 60 91 3c bf eb 9c bd
       -0.17385155 -0.061489735 0.017746037 -0.076621525
000180 14 55 20 be 17 7b c5 be 94 92 b5 be 21 18 06 be
       -0.15657455 -0.38570473 -0.35463393 -0.13095142
000190 c4 56 4b be 6b f1 25 be fe 10 33 3d b9 fa 0e bd
       -0.19857317 -0.16205375 0.043717377 -0.034907077
0001a0 6b 1b fc 3d 2b 36 8e be 3f 34 94 3d fd ae 91 3c
       0.12309917 -0.27775702 0.07236528 0.017783636
0001b0 8c de 68 be 45 ba 8c be 77 71 95 bd 41 bb 69 3e
       -0.22741145 -0.27485862 -0.07297032 0.22825338
0001c0 1b 46 3f be d5 cb 0c be 87 77 a5 bd 6d 68 6d 3e
       -0.18679087 -0.13749631 -0.08079439 0.23184367
0001d0 31 f5 f6 3d 25 2a ca 3d 56 0d 52 3d 38 aa e3 bd
       0.12058485 0.0987132 0.05128225 -0.11116451
0001e0 55 3f 5a 3e 63 9e 98 3e 51 e2 32 bd 7e 78 42 be
       0.21313222 0.2980834 -0.043672863 -0.18991277
0001f0 51 82 0c 3e 6b e2 e2 be 5c 81 b7 bc 15 05 00 be
       0.13721587 -0.44313368 -0.02240055 -0.12501939
000200 8c 5f 21 be 3d e4 3e be 14 e1 35 be 1b 61 ed bc
       -0.15759104 -0.18641753 -0.17761642 -0.028976968
000210 5b f0 6a bc ba b1 7c be d2 f7 0a be 36 87 d9 bd
       -0.014339532 -0.24677172 -0.13571098 -0.106214926
000220 2c 9b 5e 3d 44 52 ff 3e b7 d0 20 3d af 73 6c be
       0.054347202 0.4986745 0.039261546 -0.23091005
000230 e5 f4 b7 bd 0b 6f 3b 3e 52 00 3b 3e 2f e4 5f 3e
       -0.08982257 0.18304078 0.18261841 0.21864389
000240 8c be 07 be 66 93 03 3e e3 5a 89 3e 04 42 e0 3c
       -0.13256282 0.12849197 0.26827154 0.027375229
000250 f8 6a 97 bd 30 2a fc 3e 7a 28 33 bf 67 b4 c8 be
       -0.073934495 0.49250937 -0.6998364 -0.39200136
000260 18 af 5d 3d 96 76 72 3d cd 88 d9 3b f6 cc 09 bf
       0.05412206 0.059195124 0.0066386224 -0.5382837
000270 89 b5 c6 be bc 03 7e bd c8 1a 67 bd bd 0b 83 3d
       -0.38810375 -0.06201528 -0.056422025 0.06398723
000280 ae db b3 be 22 74 70 3e d5 b0 0f be b3 2a c8 bd
       -0.3512854 0.23481801 -0.140323 -0.09773769
000290 60 7a b6 bd a5 70 b0 3e e2 7f 20 3e e1 30 89 bd
       -0.0891006 0.3446094 0.15673783 -0.06698776
0002a0 60 a7 4c be 86 62 05 be a3 58 c1 3e 23 de 30 3e
       -0.19985723 -0.13025865 0.37762937 0.17272238
0002b0 d4 d6 a1 3e b1 6e d2 be da ed 8f bd 8c 23 61 bd
       0.31609213 -0.41100076 -0.070277885 -0.05496554
0002c0 a7 70 29 be f3 80 ce 3d d4 e5 fc 3d 3a 92 5f be
       -0.1654688 0.10083189 0.12348524 -0.21833125
0002d0 6c 1f 2c be 38 4c 21 3e e6 7e 81 3d fe ce 38 3e
       -0.16808861 0.15751731 0.06323032 0.18047711
0002e0 55 da 94 3c 0d 5f b7 bd 84 1d 6d 3e ee e3 18 be
       0.018170515 -0.089536764 0.2315579 -0.14930698
0002f0 da 2f 2b bf de b3 93 bd 35 d4 58 3d 44 2d 93 3d
       -0.6686989 -0.07212041 0.05293675 0.07186368
000300 b1 d3 ad 3d 97 70 9b be 60 73 b3 be c8 fe a6 3e
       0.084876426 -0.30359337 -0.35048962 0.32616258
000310 19 29 10 3e b3 00 aa 3e bc 19 c2 be 7c 9f c5 3d
       0.14078178 0.33203658 -0.3791026 0.0964956
000320 9b 50 73 be 9c 7d d4 be 62 05 c1 3b ef 26 e6 bd
       -0.23761217 -0.41502082 0.0058905343 -0.11237895
000330 1b ff eb bc 98 c1 03 3e 56 a0 22 bf 25 5a b4 3d
       -0.028808167 0.12866819 -0.63525903 0.08806256
000340 a4 11 1a 3e cf 44 2b 3d f1 d2 ef 3e 7a 6d 4b be
       0.15045792 0.041813668 0.46840623 -0.1986598
000350 62 a6 9e bc 2e a6 d1 3d 0b e6 05 3c c1 2f 2f be
       -0.019366447 0.102367744 0.008172522 -0.1710806
000360 85 45 ac bb a9 e3 0a 3d 11 5e 56 bd 4e db 23 3e
       -0.005257311 0.03390852 -0.052335802 0.16001627
000370 ba 5e 14 be bb f7 d0 be 55 69 fb bd 35 73 37 be
       -0.1448926 -0.40814003 -0.1227595 -0.17915042
000380 f9 b3 8a 3d e4 c7 82 3e 62 14 eb bd 9b 49 cf bc
       0.06772608 0.2554313 -0.11478497 -0.025303653
000390 e1 b8 9f bd f2 18 6d 3e 6a 89 73 be 85 e4 5b bb
       -0.07798935 0.23154047 -0.23782888 -0.0033552956
0003a0 ee f0 98 3e 32 e1 0b be b8 81 6c bc f0 07 07 3e
       0.29871315 -0.13660124 -0.014435224 0.13186622
0003b0 80 b7 da 3e 21 17 34 3e e6 97 03 bf eb 9a 94 be
       0.42718124 0.17586948 -0.51403654 -0.29024443
0003c0 49 a7 b3 3c 7c 55 9a 3e db cc 72 be 2e ed 89 be
       0.021930354 0.30143344 -0.23710959 -0.26938766
0003d0 c0 85 34 be 15 53 78 3e e1 4f e5 bb 7d c5 c8 3c
       -0.17629147 0.24250443 -0.0069980477 0.024508232
0003e0 60 0a af be be 6a 0a be e1 f9 da bd 9e 48 8c be
       -0.34187603 -0.13517281 -0.10692192 -0.27399153
0003f0 e2 d0 b2 bc 2e 1f 1c 3e 68 6c fa 3d 95 10 6f bd
       -0.021828119 0.15246269 0.12227708 -0.058365423

fc1.bias f4 [120]
000000 47 1b 15 3e 9c fc 25 3e 23 2c a2 bd d7 0a 9c bc
       0.14561187 0.16209644 -0.07918575 -0.019048138
000010 ba bf af bd b2 5a 4a 3e c4 d3 43 3e b2 59 5d 3c
       -0.08581491 0.1976116 0.19123751 0.013510155
000020 2d 49 94 3d a6 e5 68 3d a3 94 3c 3e c8 a1 31 3e
       0.0724052 0.056859635 0.18416075 0.17346871
000030 b3 a2 63 3e 0a 22 b7 3d 72 2e 55 3d d4 17 94 3d
       0.22230034 0.08942039 0.052046247 0.07231107
000040 b7 f9 b0 3d 61 e5 a1 3c 93 f8 cc 3e 69 d4 55 3e
       0.08641379 0.019762697 0.40033397 0.2088181
000050 0c e1 39 3e 52 1a 05 3d d9 78 20 bd 3b 1f 41 3e
       0.18152255 0.032495804 -0.03917775 0.1885957
000060 05 8f 9d 3c d9 0c 0e be 91 ee 1a bd 9a 55 6a 3e
       0.019233236 -0.13872088 -0.03782517 0.22884217
000070 0b 3c f0 bd 0d cf 76 bd ee c1 f8 3d 2c 02 d9 3e
       -0.11730202 -0.060256053 0.12146364 0.4238447
000080 d2 a3 b3 3c 6f f9 3d 3e 38 a2 ae 3d b7 9d 5a 3e
       0.021928702 0.18552183 0.085270345 0.21349226
000090 4a 82 90 3e fe b5 00 3e 82 61 3b 3d f9 94 f8 bd
       0.28224403 0.12569425 0.045747288 -0.12137789
0000a0 6e 0d 60 3e c1 8a b7 3e a7 7e a3 3e a5 6d 99 3d
       0.21880123 0.35848048 0.31932566 0.07491616
0000b0 17 ae a0 3e fa 89 85 bc 0c e0 08 3e 42 83 77 3e
       0.3138282 -0.016301144 0.13366717 0.24171165
0000c0 0c 4d 0f be fa 55 3c bd 8c c8 1b 3e c7 49 95 3c
       -0.13994235 -0.04598043 0.15213221 0.018223656
0000d0 7e 07 81 bd 5c f3 15 3e 28 ab ec 3c d3 73 38 3e
       -0.06300257 0.14643615 0.028890207 0.18012933
0000e0 87 09 13 3e a1 95 8d 3e 31 ec 49 bd 61 65 56 3d
       0.14359103 0.2765322 -0.049297515 0.052342776
0000f0 29 4c 0c 3e 0d ed 0f 3e 6f cc d2 bd ab ba c9 3d
       0.13700928 0.14055271 -0.10292899 0.09850057
000100 d3 91 c0 ba 51 ce 5b 3e 09 38 3f 3e b4 10 b0 3d
       -0.0014691897 0.21465422 0.1867372 0.08596936
000110 97 92 21 3d 2a 90 58 3e 3f ba 8b 3d 22 9b e6 3d
       0.03944644 0.21148744 0.06822633 0.11260058
000120 6d 71 35 bd f8 a9 01 3e c4 b3 a6 3d 63 b8 40 3e
       -0.044297624 0.12662494 0.08139756 0.18820338
000130 a5 99 2b 3e 29 b2 cf 3d b8 8e 82 3d 94 13 ca bb
       0.1675783 0.10141403 0.06374878 -0.0061668847
000140 19 a2 a1 3d ad 84 67 3e 8d 0d 1d bd 98 05 5a 3e
       0.07892246 0.22609206 -0.038343 0.21291196
000150 88 16 23 bc 1a 7f 06 3e b4 7f a3 3e 58 aa 2c 3e
       -0.009954102 0.13134423 0.31933367 0.16861856
000160 94 fd da 3c f9 99 83 3d a4 5e b8 3e 31 c3 0d 3e
       0.026732244 0.06425852 0.36009705 0.13843991
000170 e3 09 05 be 29 63 d1 bd 5c 1c 85 3e c6 79 04 3d
       -0.12992053 -0.102239914 0.259982 0.032342695
000180 3d 29 6b 3d 4a 9b 80 3e 3e ff c9 bd 18 19 b4 3d
       0.057412375 0.25118476 -0.09863137 0.08793849
000190 22 a3 7a 3e 5d fc 7f bd 8c 41 f3 3d 41 7c a9 3d
       0.24476293 -0.06249653 0.118777364 0.08275653
0001a0 ae 28 9b 3d 36 78 cd ba 21 5c 52 3e b5 db 21 bd
       0.075761184 -0.0015676084 0.20542957 -0.03951617
0001b0 84 1b 23 3e 5a ee 4c 3e 9c a8 46 3c 16 40 6d bd
       0.15928465 0.20012799 0.012125161 -0.057922445
0001c0 c6 42 82 bd be b9 dd 3d 75 34 12 3e 9c 60 8d 3e
       -0.06360392 0.10826443 0.14277823 0.2761277
0001d0 2b 42 41 3d 59 a5 f9 3c 1e 75 6c bd ca f3 02 3e
       0.047182243 0.030474352 -0.05772888 0.1278831

fc2.weight f4 [84, 120]
000000 f5 9d 01 bf eb 13 52 be ef a8 c1 3d 03 b2 97 3e
       -0.5063165 -0.2051541 0.0945605 0.29628
000010 6b 49 50 be 40 26 77 3d 37 62 0c 3e cb 7b 06 bf
       -0.20340507 0.060339212 0.13709341 -0.52532643
000020 39 f1 6e 3e cf 59 12 be fc 07 b4 3e 90 9b 32 be
       0.23334207 -0.14292072 0.35162342 -0.17442155
000030 24 c6 13 be ff 44 19 be 49 99 f0 be e5 1d b9 be
       -0.14431053 -0.14967726 -0.46991947 -0.3615562
000040 80 6c 9e be 1c c2 3c 3e 9e 05 5f be f7 93 39 bd
       -0.30942154 0.18433422 -0.21779487 -0.045307126
000050 f8 db b1 3e 7a ae 0f bf 9f a6 31 3d 81 92 9d be
       0.34738135 -0.56125605 0.043371793 -0.30775836
000060 b8 e9 73 3e 0d d1 99 bc 40 25 56 be f7 6f d5 3d
       0.23819625 -0.018776441 -0.20912647 0.10421746
000070 d5 00 17 bd 39 b8 97 3d 99 c3 46 3e 43 b8 6a bd
       -0.036866028 0.074081846 0.19410552 -0.057304632
000080 ff d9 8e 3e 6d 54 06 be a4 49 8a be 03 0f 3a be
       0.27900693 -0.13118143 -0.27009308 -0.18169789
000090 ad 81 6f 3e cc 5e cd be 46 d0 8c 3e ff a0 6f bd
       0.23389311 -0.40111387 0.2750265 -0.058503147
0000a0 69 c1 f8 bd 95 1d 3e be 1d 79 16 be da 81 35 3e
       -0.12146265 -0.18565972 -0.14694639 0.17725316
0000b0 97 ae 4a 3d f5 cb 05 3d 9d 53 dd bd 12 10 15 3c
       0.049482908 0.03266521 -0.108069636 0.00909807
0000c0 15 8b d7 be e8 7e f6 bd 27 7a a8 be e6 94 d1 3e
       -0.420983 -0.12035924 -0.32905695 0.40933913
0000d0 5d 41 0f bf 51 ea 05 3d 7d 85 97 3e 6a 4d 68 bb
       -0.5595911 0.032694165 0.2959403 -0.0035446533
0000e0 09 77 ea 3d 90 a8 b0 3c 8d 46 8f 3d 06 fc 2d 3e
       0.114484854 0.021564752 0.06995878 0.1699067
0000f0 9b cc a3 be ce 49 0b bf 5d e8 1c 3d b9 41 9f bd
       -0.3199204 -0.5440949 0.038307536 -0.077762075
000100 e0 c3 23 3d 4f 37 18 bf 13 30 52 bd 0e 7d ee bd
       0.039981723 -0.59459394 -0.05131538 -0.11644946
000110 e2 99 9c be e5 3d be be d4 28 0a be 3f 0e be 3d
       -0.30586153 -0.37156597 -0.13492137 0.09280061
000120 60 52 85 3c 4a f6 26 3e 2c c2 20 3e 7e a6 4c 3e
       0.016274631 0.1630489 0.1569907 0.19985387
000130 78 df b7 be e3 3b 37 bf f8 2a 78 3e 1f df 3f be
       -0.3591268 -0.71575755 0.24235141 -0.18737458
000140 a6 b3 e0 3d 04 c5 54 be f5 06 9a 3d a2 63 33 be
       0.10971765 -0.2077828 0.07520858 -0.17518476
000150 3d b5 f2 be a4 89 91 3e 00 ee fc 3d 34 da cd be
       -0.474039 0.28425324 0.123500824 -0.40205538
000160 dd f4 8d 3e 7e 95 86 be b4 b7 39 3e 21 ba 23 3e
       0.27725878 -0.26285928 0.18136483 0.15988971
000170 b8 83 82 3c 7b 6e 84 be f5 3a f1 be f5 cb 95 be
       0.015931949 -0.2586554 -0.47115293 -0.2925717
000180 89 1a 09 bf 36 1c 03 bd 1e 7e ec bd 51 3c 0a bf
       -0.53556114 -0.032009326 -0.115474924 -0.53998286
000190 71 88 f8 3c be 89 d9 be f5 91 b2 bb f5 38 7a bc
       0.030338498 -0.424879 -0.0054495283 -0.015272369
0001a0 69 86 dc be 49 79 ad bd 4d 41 13 bc fe 42 86 bd
       -0.43071297 -0.08470399 -0.008987737 -0.065557465
0001b0 55 ae 5d 3e 07 7b 55 be ef 7b 0f bf 05 06 26 3c
       0.21648534 -0.20847712 -0.5604848 0.010133271
0001c0 75 b5 26 be 8a 61 60 bd dc 10 d4 3d b0 fc 78 3d
       -0.16280158 -0.05478052 0.10354778 0.060787857
0001d0 c9 c0 cd be e8 3f 18 bd f3 75 8f 3c 10 37 d3 bd
       -0.40186146 -0.03717032 0.017512297 -0.10313237
0001e0 93 38 6d be f8 49 18 be 6c ab f2 be c2 3a 06 3e
       -0.23166113 -0.14871967 -0.4739641 0.13108352
0001f0 31 ab dc bd 1a 65 a5 3c 0b 82 f4 be 68 0f ca be
       -0.1077484 0.02018981 -0.47755465 -0.3946488
000200 f4 fc 1d be fd 49 fb bd 9f 36 c0 be 94 94 80 be
       -0.15428525 -0.122699715 -0.37541673 -0.25113356
000210 ba fa 86 bd 8d 0e 77 bd 7c d6 04 3d d2 51 42 be
       -0.06590791 -0.06031661 0.03243111 -0.18976524
000220 de 19 6b 3d eb b1 7b be 8d 70 12 3d e3 5f cb be
       0.057397716 -0.24579589 0.035751868 -0.39721593
000230 37 f4 a1 bd f6 1f 7f bd 0b b2 d6 bc e7 10 3e bd
       -0.079079084 -0.06228634 -0.026207944 -0.046402838
000240 f5 c1 2f be a9 0f ee be ce ba fa 3d 14 83 f9 3d
       -0.17163832 -0.46496323 0.122426614 0.12183204
000250 f9 d1 36 bd 64 8f 80 3d 9f bf db 3d 9b b7 34 3e
       -0.04463384 0.062773496 0.10729908 0.17648165
000260 5e 0b b8 be c1 23 13 be 94 d1 97 3d e6 a4 39 be
       -0.35946172 -0.14369108 0.07413021 -0.1812931
000270 b4 b4 66 be f1 da c1 bb b6 2a e5 be c9 d3 b9 bd
       -0.2252987 -0.0059159924 -0.44759148 -0.09073598
000280 de 59 aa 3e f3 b0 1b 3d 61 95 7c 3c 59 68 c6 bd
       0.33271688 0.03801055 0.015416474 -0.096878715
000290 33 67 c9 bd 04 ae 78 bd bc 7b 86 bd a4 7e 90 3d
       -0.09834137 -0.06071283 -0.06566569 0.07055405
0002a0 7c 9e d3 bb 53 bc 50 be 4b 67 88 bd 99 0f c8 be
       -0.006458102 -0.2038434 -0.066603266 -0.390744
0002b0 0d 79 c8 be d0 ac a0 3d 01 76 5c be 89 c8 5a be
       -0.39154854 0.07845461 -0.2152939 -0.2136556
0002c0 8c e5 be be 11 bc 68 be 40 d3 39 3d 5b b4 c9 be
       -0.37284505 -0.22727992 0.04536748 -0.39395413
0002d0 dd 85 d0 bd 0a 30 2b 3d 2f a6 0e bc ef cd ad bb
       -0.101817824 0.04179386 -0.008706613 -0.00530409
0002e0 95 a4 c0 3b 76 57 c9 bd b7 df 80 be b7 b5 30 bd
       0.0058789947 -0.09831135 -0.2517068 -0.043142047
0002f0 e9 42 b5 bb 7c 47 22 3c 39 50 78 be 61 e8 0f be
       -0.005531658 0.0099047385 -0.24249353 -0.1405349
000300 91 64 81 bd da c8 89 be 9c ef 14 bd 25 2f 93 bd
       -0.0631801 -0.2691105 -0.03636132 -0.071867265
000310 10 56 96 3d 62 9b 76 ba fc 3f c3 be 61 4d 4d be
       0.07340634 -0.0009407309 -0.38134754 -0.20049049
000320 0d 89 a1 be ef 9e 48 bb 7c 34 a7 3d af c7 bc be
       -0.31549874 -0.003061231 0.081643075 -0.36871096
000330 49 70 b6 be 55 39 16 be 45 f1 04 bd 4b 55 75 3c
       -0.35632542 -0.14670308 -0.032456655 0.014973949
000340 cd ae e2 bd 92 8b 08 bd 68 80 5b 3e db bc 23 3e
       -0.11068497 -0.03333623 0.21435702 0.15990011
000350 0c 18 53 3c f1 51 08 3e 39 f6 8a 3d 7b 77 88 3e
       0.012884151 0.13312508 0.067852445 0.26653656
000360 40 2e 4a 3e 81 04 bc bd 7f 2c 85 be bf e5 ea 3d
       0.19744205 -0.091805466 -0.2601051 0.11469602
000370 32 7c 99 bc ce 67 9b be 03 aa c5 3d 0f 3f b6 3d
       -0.018735979 -0.30352634 0.09651568 0.08898746
000380 78 36 35 be 92 3e e8 3d aa ff 94 3c 91 ec 76 3d
       -0.1769656 0.11340059 0.018188316 0.0602842
000390 45 e6 0f be 7b 69 c7 bd 25 c2 99 bc 26 6e 3f bd
       -0.14052685 -0.09736916 -0.018769333 -0.046735905
0003a0 4b 54 79 3d 3a ef 81 3d 8b 2b 63 be 09 a5 7f 3d
       0.060871404 0.06344457 -0.22184579 0.06241325
0003b0 ac 1f 55 bc 7c b7 00 bf d6 af 0d 3d 18 3f f6 bd
       -0.013008039 -0.50279975 0.03459152 -0.12023753
0003c0 c0 54 9c bd 82 92 a0 3d a4 23 a2 be e8 7f 62 be
       -0.07633352 0.07840444 -0.31667817 -0.22119105
0003d0 4e a4 2f be d3 7f 13 3e 65 d2 d0 be f2 6d 82 3e
       -0.17152521 0.1440423 -0.40785518 0.25474507
0003e0 b9 28 e5 3d bb 14 ab 3e a7 2f 30 bd 17 27 01 3e
       0.11189408 0.33414254 -0.043014195 0.12612568
0003f0 9f c5 5f 3e 2e 16 70 3e 34 e7 80 3d 7c 77 e8 3b
       0.2185273 0.23445961 0.062940985 0.007094322

fc2.bias f4 [84]
000000 5b b5 83 3e 21 c2 25 3f 9a 71 f0 3e 40 bd 1f 3e
       0.257243 0.6474934 0.4696167 0.15599537
000010 e5 00 01 3f c5 af 0d 3d 3f 67 26 3f 08 6a d8 3e
       0.5039199 0.034591455 0.6500129 0.42268395
000020 2a ed fd 3e 59 e9 e9 3e ac d6 1a 3f 53 1a ac 3e
       0.49595004 0.45685843 0.60483813 0.33613834
000030 4f 20 f4 3e 41 94 b8 3e 92 09 c3 bd fa 28 72 3e
       0.476809 0.3605061 -0.0952331 0.23648444
000040 1f c9 1c 3f ca 7f 8a 3e c0 6f da 3e 0f 86 d4 3e
       0.61244386 0.2705062 0.42663383 0.4150853
000050 78 86 ac 3e 7b 30 ec 3e 8a 5f 01 3f 19 ad ee 3e
       0.33696342 0.46130738 0.50536406 0.46616438
000060 81 24 8e 3e 04 7c a4 3e ac 1b 77 3d 65 44 7a 3e
       0.27762225 0.32125866 0.060329124 0.24440153
000070 de e7 6a 3e d4 07 ce 3d 1e a1 0c 3f 73 d3 a0 3e
       0.22940013 0.10060087 0.54933345 0.31411323
000080 04 7c b5 3e 3c fc 14 3f c7 5f ba 3e 36 88 fc 3e
       0.3544618 0.5819738 0.36401197 0.4932267
000090 84 bd 95 3e 7d d8 07 3f 26 c8 cd 3e 51 c9 8b 3d
       0.2924615 0.5306471 0.40191764 0.068255074
0000a0 8b 81 a2 3e ed 2d 01 3f f6 2e 24 3f be ef b6 bc
       0.31739458 0.504607 0.64134157 -0.022331115
0000b0 64 f1 4d 3e 9f f2 ca 3e 56 37 91 3e 1d 7a b6 3e
       0.20111614 0.3963823 0.2836253 0.3564004
0000c0 04 c8 36 3f 0d c6 19 3f e7 50 87 3e 35 6c b3 3e
       0.7139895 0.60067827 0.2642891 0.35043493
0000d0 6e 94 e7 3e 11 31 92 3e e9 0c ae 3e a2 b8 a2 3e
       0.4523043 0.2855306 0.33994225 0.3178149
0000e0 92 3f 31 3f ea 05 83 3e da fc ba 3e 1d fc ab 3d
       0.69237626 0.2559045 0.36521035 0.08397696
0000f0 d4 48 e3 3e da 19 b3 3e 98 37 2d 3e 82 12 4d 3d
       0.443915 0.3498066 0.16915739 0.05006648
000100 7b 05 73 bd 0d 9e b4 3e 3a 6b 43 3e 3a 2e c4 be
       -0.0593314 0.35276833 0.19083872 -0.38316518
000110 12 c9 24 bd 6d ab ce 3e 77 0e 95 3e e2 f7 80 3e
       -0.040230818 0.40365162 0.29112598 0.2518912
000120 79 e0 16 3f a6 c2 bd 3e e6 63 a0 3e 5b 6e 7d 3e
       0.5893627 0.37062567 0.31326216 0.24749129
000130 87 71 97 3e 4f 7d ba 3e 39 d3 28 3f 9b 3a 0c 3f
       0.29578802 0.36423728 0.659473 0.54776925
000140 ad db fb 3e 3b 42 74 3e 33 45 15 3f e7 cb 0f 3f
       0.49191037 0.2385339 0.58308715 0.56170505

fc3.weight f4 [10, 84]
000000 d0 8e f4 bd af 50 84 3d 14 32 44 3e cf 67 16 3c
       -0.11941302 0.06460702 0.19159728 0.009180023
000010 58 20 61 be 6b 68 4a be ac e8 ee 3d 79 61 db 3d
       -0.21984994 -0.19766395 0.116654724 0.10711951
000020 ee ac c9 be 90 ff f9 3d 6e 89 0d be d1 d4 15 bf
       -0.39389747 0.12206948 -0.13821957 -0.5852786
000030 c6 da 73 be c7 30 c4 bd 93 a0 aa 3c 17 49 11 be
       -0.23813924 -0.09579616 0.02082852 -0.14188038
000040 da 37 fb 3d 55 be a5 3c 19 6c 2d 3e 82 7f 60 be
       0.12266512 0.020232359 0.16935767 -0.2192364
000050 68 db 62 bd e9 c0 37 3d ea 34 59 be c3 8a ec 3d
       -0.055385023 0.044861708 -0.21211591 0.11549904
000060 71 e9 10 3a 29 99 80 3e e4 42 02 be 6c b7 a8 3d
       0.00055279495 0.25116852 -0.12720829 0.0823811
000070 64 e5 03 3e 24 ea 0b be 9c d7 88 bb 8f 97 db bd
       0.12880474 -0.13663536 -0.0041760933 -0.10722267
000080 3e 95 b6 3c 61 8b 8c be 1e 52 0f 3e ab 27 3b bd
       0.022287961 -0.27450088 0.13996169 -0.045692127
000090 9f e6 80 be ba 7a d8 3d 7a 3a 9d be 2b 04 4f 3e
       -0.2517595 0.10570283 -0.30708677 0.20216434
0000a0 b5 a0 37 3e 49 80 9d 3d 5c 23 b2 be 20 9c 35 be
       0.17932399 0.07690484 -0.34792602 -0.17735338
0000b0 bf b0 51 3d e7 f9 84 bd 23 59 8a be 4c d7 af bc
       0.05119395 -0.064929776 -0.2702113 -0.021464966
0000c0 29 2a b6 be 36 7d 84 be 8a 0c 29 3d cd fe 4d 3d
       -0.3557904 -0.25876778 0.041271724 0.050291825
0000d0 42 47 08 bd 22 ca 2a be ea 09 93 be 8d 5a 22 3e
       -0.03327108 -0.1667867 -0.287185 0.15854855
0000e0 94 c3 29 3e 88 be a4 b8 fd d2 37 be e1 41 c3 be
       0.16578513 -7.8556186e-05 -0.1795158 -0.381362
0000f0 41 b5 a8 bc 56 73 4f 3c 85 2a d3 bd 4a 5f ec be
       -0.020594241 0.012661776 -0.10310844 -0.4616645
000100 d8 78 e9 3d 7d af 8d bf 4c 08 b4 be ee 10 d6 3b
       0.11400002 -1.106918 -0.3516258 0.00653278
000110 6f 4d 2c 3e e8 65 16 bc 2f 95 2b bf 2d 7e 1b 3d
       0.16826414 -0.00917957 -0.6702451 0.037962127
000120 37 c0 06 3e c3 a7 b5 3d 39 bd b0 3b d0 a5 ec bd
       0.13159262 0.08869889 0.005393651 -0.11555064
000130 3a c2 b6 bd 22 87 25 3e 8c 34 e7 be b1 b5 55 be
       -0.089237645 0.1616483 -0.45157278 -0.20870091
000140 51 a5 8c be 38 89 f1 3d aa 73 16 3d 7c 0a 70 bc
       -0.27469876 0.117937505 0.0367314 -0.014650937
000150 aa fb 11 3f 0f 1b 72 bf 3e c6 e2 be cc c8 31 3e
       0.57024634 -0.9457254 -0.44291872 0.17361754
000160 a5 87 f2 bd 00 5f 36 3e a5 77 36 bf cc 60 b0 be
       -0.118422784 0.17809677 -0.71276313 -0.3444885
000170 7a 9e bc be a4 5a d3 3d 22 6b ad be 0a c7 da be
       -0.36839658 0.10320023 -0.33870798 -0.4272998
000180 32 73 a0 3e d9 82 df 3c a5 0d 27 be b6 fc ea be
       0.31337887 0.027284073 -0.16313799 -0.45895928
000190 c8 72 05 3e 01 68 b9 be 5a 24 77 be de 5f 53 3e
       0.13032067 -0.3621216 -0.24134961 0.20642039
0001a0 bb ea 8e 3e 6e 77 e3 be ff 27 aa 3e 8e d9 56 bc
       0.2791346 -0.44427055 0.3323364 -0.0131133925
0001b0 54 5d bf 3e 8a 51 99 3d 3a 8f cc 3d 3a e6 98 be
       0.3737589 0.074862555 0.09988256 -0.2986315
0001c0 26 14 9e 3d e4 2f a9 bd b5 cd 6f 3e 7c 8c 49 be
       0.07718687 -0.082610875 0.23418315 -0.19682497
0001d0 44 b4 5b bd 6f c1 8b be 6c 02 df 3d d4 4a 57 3d
       -0.05363871 -0.27296016 0.10889134 0.052561596
0001e0 86 e0 b7 3c 34 0d 6b be 36 f3 8e 3d f0 f3 af be
       0.022445928 -0.22954255 0.069799826 -0.34365797
0001f0 73 e0 94 be dc 1e 39 3e 16 b7 8f be 31 10 f2 bc
       -0.2907749 0.18078178 -0.2806937 -0.029548736
000200 a4 94 74 be 22 31 8c bc 63 2a 46 be 53 ea ee bd
       -0.23884827 -0.017113272 -0.19352107 -0.116657875
000210 75 70 4b 3e 9e 79 26 bf 8d f2 2b 3e 8e ac 7e bd
       0.19867118 -0.65029323 0.16791745 -0.06217628
000220 dd 72 b8 3d 11 06 da be cd 3a 5c be 1b 64 29 be
       0.090062834 -0.42582753 -0.21506806 -0.16542093
000230 83 cb 8e be eb 0a 84 3b f8 95 1d be a3 37 a8 be
       -0.27889642 0.004029622 -0.1538924 -0.32854947
000240 15 0b 94 be fb f7 2f bd 63 50 06 be be 95 a8 be
       -0.28914705 -0.042961102 -0.13116603 -0.32926744
000250 2e 9e f9 bd 28 1c 19 bf f7 69 c5 bd e0 68 04 3e
       -0.121883735 -0.5980859 -0.09639352 0.12930632
000260 78 0d dc bd 73 72 21 3c 83 e0 42 bf 35 2b 18 3e
       -0.107447565 0.009853947 -0.7612383 0.14860232
000270 e0 e6 b6 be 32 67 ab be 25 31 aa be e1 65 da bd
       -0.3572302 -0.3347717 -0.3324062 -0.10663963
000280 8a 26 cd 3d de a6 2d be 42 39 25 bf c4 7d e2 be
       0.10017116 -0.16958186 -0.64540493 -0.44236577
000290 40 a3 07 bf eb 91 e5 be 68 c5 c9 be 83 62 ab 3e
       -0.52983475 -0.4483789 -0.39408422 0.33473596
0002a0 ee 52 90 bd b1 a2 3f 3c f2 ab dd bd fe 4c 0a be
       -0.070470676 0.0116965035 -0.108238116 -0.13505933
0002b0 2b da a2 be dd e0 67 3a c5 fc ac 3d c5 5c ba 3d
       -0.31807074 0.0008845458 0.084466495 0.09099726
0002c0 35 a7 dc 3d a0 54 0e 3e c1 a9 89 be 96 3f d0 be
       0.1077408 0.1389947 -0.26887324 -0.40673512
0002d0 08 4b 4b be d8 eb 43 be 6d b4 cb be 8d f3 54 be
       -0.19852841 -0.19132936 -0.3978609 -0.20796032
0002e0 3b 96 01 bf a8 79 3c 3d 85 91 dd be 90 6a 01 3c
       -0.5061986 0.046014458 -0.43275085 0.007898942
0002f0 26 33 98 3b ac 9a 8c 3d 04 cc 98 bd 69 54 42 3e
       0.0046447692 0.06865439 -0.07460788 0.18977512
000300 f7 09 9f bd ce 65 b7 be 62 5a 09 3e 8d 83 83 bc
       -0.077655725 -0.35819858 0.13413385 -0.01605394
000310 88 75 fb bc 4a e1 b5 be 54 9f 49 3e 71 39 10 bd
       -0.030695692 -0.35523444 0.19689685 -0.03521103
000320 ff f2 c8 be 41 62 46 3e 8e 08 39 3e 7f 41 2f be
       -0.3924789 0.19373418 0.1806967 -0.17114829
000330 85 ad aa 3d 48 6b 85 be 78 d0 04 be 15 1e 4d bd
       0.083338775 -0.26058412 -0.1297015 -0.050077517
000340 7e 49 89 3d de e7 f0 3d 35 dc 16 3e 44 d3 6e be
       0.06703471 0.11762975 0.1473244 -0.23322779
000350 cd fc af be 92 7a 2a 3e 22 a4 d8 be ee b3 10 be
       -0.3437256 0.1664832 -0.42312723 -0.14131138
000360 fc b1 f2 be d3 c1 59 bd b9 df 9d be c6 35 62 3e
       -0.47401416 -0.05316336 -0.3083475 0.22090825
000370 53 f8 c0 3d 85 1b 89 3e 1c 30 02 3e 40 ac 2d 3e
       0.09422364 0.26778808 0.12713665 0.1696024
000380 e7 f5 e7 3d 6c 1f d8 bd 34 a8 cf bd 5b b4 11 be
       0.11326199 -0.10552868 -0.10139504 -0.14228956
000390 f5 2a 51 be c3 d1 4d be 25 c1 ef 3d 51 a4 c9 be
       -0.20426543 -0.20099549 0.11706761 -0.39383176
0003a0 16 a0 09 be b3 bf be be f5 92 6d bd f8 55 61 bd
       -0.13439974 -0.3725563 -0.058001477 -0.055013627
0003b0 2e 91 55 be 61 da 6f 3c 23 be 1a be 2f 23 d7 3d
       -0.20856163 0.014639468 -0.15111594 0.105047576
0003c0 25 09 86 3d a8 b4 be be 88 35 c3 be 00 7b 8f bd
       0.06544713 -0.37247205 -0.3812678 -0.07005882
0003d0 6d a5 9c 3d 4c 0b f9 3c 7b d3 02 3e 81 98 de bd
       0.0764874 0.030400895 0.12775986 -0.108689316
0003e0 f6 37 4d bf 73 59 37 3e 3d db 57 be c4 60 23 be
       -0.80163515 0.17905216 -0.21079727 -0.15954882
0003f0 2f bc 3d be 63 36 03 bd 77 b2 9b be a0 ae d3 3c
       -0.18528818 -0.03203429 -0.30409595 0.025840104

fc3.bias f4 [10]
000000 c0 a5 94 be ab 98 ae be 80 1a c0 bc 7c 5d 7b 3e
       -0.29032707 -0.3410085 -0.023450136 0.2454738
000010 3d 8c 9d bd 43 e4 5a 3c 0e d8 e7 bc e0 14 03 3e
       -0.07692764 0.013360086 -0.028301265 0.12800932
000020 33 80 27 3e 25 e3 37 be
       0.16357498 -0.17957743
