HW1_Split_nb/checkpoints/model_dropout_10.pt (torch, 250614 bytes, 10 tensors)

conv1.weight f4 [6, 1, 5, 5]
000000 bd d7 9a 3e b7 ab 6a 3e f0 00 a5 3e 6e 9d 04 be
       0.3024272 0.22917067 0.32227278 -0.1295068
000010 d5 36 e9 bd f4 41 5b 3c 65 05 56 3c 22 a3 9b 3e
       -0.113874115 0.013382424 0.01306281 0.30397898
000020 53 cb 11 3d 14 b1 c4 bd 8e 72 77 be 84 13 a7 be
       0.035594296 -0.096040875 -0.24164793 -0.32632077
000030 a3 14 9d 3e d0 1e 0e 3c 23 bf 63 3e 3e 36 e6 be
       0.30679807 0.008674338 0.22240882 -0.44963259
000040 5b 5a e0 be d2 87 f1 3d 82 2a 89 3d 4a 48 98 3d
       -0.43818936 0.11793484 0.06697561 0.07435663
000050 82 25 77 be 54 c8 7e be d2 8a af 3e bf bf 12 bd
       -0.24135402 -0.24881107 0.342856 -0.035827395
000060 3e 2c 7f bd c8 16 f8 3e cd fd 2a 3b 8a 59 99 be
       -0.062298052 0.4845488 0.0026091218 -0.29951125
000070 39 6f 73 bd b7 b5 28 be c0 2f a4 3e 35 88 53 bd
       -0.059432242 -0.16475569 0.3206768 -0.05164357
000080 28 09 e6 be 9f e4 e5 3d 4f b5 c0 3d 71 1b 0d be
       -0.4492886 0.11225247 0.09409582 -0.1378
000090 9c 40 97 be b6 27 69 be e5 70 94 3e e0 65 aa 3e
       -0.2954148 -0.22769055 0.28992382 0.3328085
0000a0 26 b9 cc bd 5d a5 e7 be 07 16 9b be 10 e3 05 3f
       -0.09996252 -0.4524335 -0.30290243 0.52299595
0000b0 12 bf a4 3e 58 81 bb 3a 59 ad 91 be a7 c5 98 bd
       0.32177025 0.0014305515 -0.28452566 -0.07459574
0000c0 9a 0d 27 3e 1e a2 92 3d 2b eb df 3d d5 37 9b 3e
       0.16313782 0.07159828 0.109335266 0.30316034
0000d0 ce 47 ca be 5e f1 80 3c 9d 4b d0 be b4 4e 8a bf
       -0.39507908 0.015740093 -0.40682688 -1.0805268
0000e0 37 76 3a c0 a4 b6 29 c0 0c e0 e1 be d2 a7 06 3e
       -2.9134653 -2.6517725 -0.44116247 0.13149956
0000f0 a8 92 21 be d3 c1 0a c0 0a ca de bf fe 2e 86 bd
       -0.15778601 -2.16808 -1.7405407 -0.06551932
000100 24 7c 83 3e d2 bf 82 3e 50 55 4e be d8 c0 79 bc
       0.2568065 0.25536972 -0.20149732 -0.015243731
000110 1e 04 3e bd c4 04 9b 3e 14 3c 0a 3f 87 2e 7f 3e
       -0.046390645 0.30277073 0.5399792 0.24920093
000120 71 a2 02 3e e9 d8 5e be 2b 11 8c 3e f1 ac 9c be
       0.12757279 -0.21762432 0.27356848 -0.30600694
000130 05 47 04 3e 27 a0 2d be 05 18 1f 3d a6 f2 0d 3e
       0.12917717 -0.16955625 0.038841266 0.13862094
000140 a1 60 23 be d4 d9 41 be 56 4f c2 bd 1b ab 40 3e
       -0.1595483 -0.18930751 -0.094877884 0.18815272
000150 29 10 e5 3c ac 5e 08 be 70 11 67 be 71 66 1c 3c
       0.027961807 -0.13317364 -0.22565246 0.009545908
000160 af 32 67 3d bc bf 62 3e 77 8e 2d bd 84 17 5b 3e
       0.05644482 0.22143453 -0.042372193 0.21395689
000170 7f 71 94 3d e8 e0 84 3e 00 29 1a 3e d1 a6 07 3e
       0.0724821 0.2595284 0.15054703 0.13247229
000180 d2 47 9f bd 12 bf 2d 3d 20 6a 95 bd 1d 54 37 3e
       -0.077773705 0.042418547 -0.07295632 0.1790318
000190 d7 16 c6 bd 37 a7 21 bd e2 42 89 be 61 1b 78 3d
       -0.09672325 -0.03946611 -0.2680884 0.060572986
0001a0 c4 b4 b5 bc 49 f9 de 3c 0c 7e 7e bd 3c 2b 30 3e
       -0.022180922 0.027218478 -0.062131926 0.17203993
0001b0 89 d6 11 3e 72 31 c4 3d d8 20 b5 3e 38 59 d0 3e
       0.14241995 0.095797434 0.3537662 0.40693069
0001c0 35 6d b4 3d 3d 38 6a 3e a3 13 80 be 63 7f 1f 3e
       0.08809892 0.22873016 -0.25014982 0.15575938
0001d0 15 7f 43 bb 9a 40 f9 bd 09 ff b3 be 61 91 a2 be
       -0.0029830385 -0.12170525 -0.35155514 -0.3175154
0001e0 6f a2 cd be 89 aa 91 be f2 f6 22 bf cf 4c 9d be
       -0.4016299 -0.2845042 -0.6365806 -0.30722663
0001f0 59 67 3f be ac 49 23 be 9c 42 7e 3d 8f 6a c1 bd
       -0.18691768 -0.15946072 0.062075242 -0.094441526
000200 0c 84 61 3e 21 83 7c 3d cd fc 93 3c db 98 4f bd
       0.22023028 0.06164849 0.01806488 -0.050682884
000210 f8 df 12 3e ae 67 54 3e 83 05 87 bd a3 53 61 bb
       0.1434325 0.20742676 -0.06592848 -0.0034382127
000220 2a 22 33 be d3 83 85 bc b1 43 57 3e a4 6c 00 be
       -0.17493501 -0.01629821 0.21021916 -0.12541443
000230 b9 97 2d be d8 2e 42 be b2 0c ab 3d dc 07 88 3e
       -0.16952409 -0.18963182 0.08352031 0.26568496
000240 72 d1 94 3c 9a 1b 0a be b2 7a dd 3b ed 0a 0e 3e
       0.018166278 -0.13487092 0.006759011 0.13871355
000250 40 47 c1 bc 24 02 d5 3d
       -0.023593545 0.10400799

conv1.bias f4 [6]
000000 3f 41 b8 bc c5 e8 83 3d 7f a8 b6 3e c2 79 8b be
       -0.02249205 0.06440882 0.35675427 -0.2724133
000010 61 f3 c4 bd 0b fc 1e 3d
       -0.09616733 0.038814586

conv2.weight f4 [16, 6, 5, 5]
000000 55 7a e9 3d c3 41 9a be 21 e5 f9 be 24 5c 5b bd
       0.11400286 -0.30128297 -0.48807624 -0.05355467
000010 79 4b 47 3f fa 89 52 3b 52 89 6a bd c8 c1 a7 be
       0.7784954 0.0032125697 -0.057259865 -0.3276503
000020 22 f3 9a bd cc cb 9d 3c 62 98 89 be 3f 02 7f 3d
       -0.07565905 0.019262217 -0.2687407 0.062258
000030 38 f9 0f bd fb db cf be 0b 46 3c be 22 47 04 be
       -0.035149783 -0.4059752 -0.18386094 -0.1291776
000040 c7 ef 88 3e 8b 31 f2 bc 94 66 5f bf 52 de 31 bf
       0.26745436 -0.02956464 -0.87265897 -0.6947986
000050 91 d7 2a bc e8 4e d5 3e 5a b6 a9 3e 22 3f bc bb
       -0.010427372 0.41661763 0.33146936 -0.0057448307
000060 e0 06 42 be 07 66 64 3e 2c b3 0c 3e f6 82 c7 3e
       -0.18947935 0.22304545 0.13740224 0.38967103
000070 03 c8 0e be d9 d8 ee 3c 82 6d 03 3d f6 e0 af 3d
       -0.13943486 0.029156135 0.032086857 0.0858783
000080 73 d1 10 3d 6e df 65 3e c7 65 d3 3b 63 f3 87 bb
       0.035355996 0.22448513 0.006451342 -0.004148887
000090 b2 45 75 3c ea 13 92 be 8b f8 51 bc 1f 84 83 3e
       0.01497023 -0.28530818 -0.012815605 0.25686738
0000a0 ab fc 07 bc f4 33 52 3e d9 3d 1e be c3 d7 28 bf
       -0.008299987 0.20527631 -0.1545328 -0.65954226
0000b0 8e 16 9c be f3 af 45 bc 49 7a 96 3e d1 04 a4 be
       -0.30485958 -0.012065875 0.2939017 -0.32034925
0000c0 11 88 9a bf e7 91 45 bf 05 f7 71 3c a5 c2 ab 3e
       -1.2072774 -0.77175754 0.014768367 0.3354694
0000d0 08 09 1f be 8f 4c 5a be 2d c5 ba 3e ad c7 39 be
       -0.15530789 -0.21318267 0.36478558 -0.18142577
0000e0 bc 9a b5 3d 86 d1 58 bf fa 75 94 bf 55 36 4b bf
       0.08867404 -0.8469471 -1.1598504 -0.7937978
0000f0 2b 89 97 be 64 8d 96 be 9f d8 0d be 8a a6 6b be
       -0.29596838 -0.29404747 -0.13852166 -0.23012748
000100 ff fa 17 bf b3 df c4 be 3c f3 1c be 23 26 fb 3e
       -0.59367365 -0.3845192 -0.15327162 0.49052534
000110 92 ef 8a 3e 84 7d c3 be 87 43 c8 be 30 9f b1 bd
       0.27135903 -0.38181698 -0.3911402 -0.08672941
000120 fb 08 90 be 4c f3 72 bd 5b 3b 1e bf 90 2d 85 3d
       -0.28131852 -0.059314057 -0.6180932 0.06502831
000130 16 7a 92 be 73 68 48 be 9f 7c 93 bd 56 dd 2e be
       -0.2860877 -0.19571094 -0.07201504 -0.1707662
000140 e8 db 48 3e 16 84 24 bd b2 dd c5 3c 31 b4 7a be
       0.19615138 -0.04016503 0.024153564 -0.244828
000150 d7 20 85 be b1 1f 67 3d 13 bb 09 3e c3 dc 9f 3c
       -0.26001617 0.056426708 0.1345027 0.019514447
000160 36 b9 55 be 0e da 56 be 65 c9 02 3d fb 17 b9 3d
       -0.20871434 -0.20981619 0.031930346 0.09037777
000170 f9 9f 64 3e c0 4d 04 be bb 40 59 bd 04 4c 78 be
       0.2232665 -0.12920284 -0.053040247 -0.24247748
000180 37 6a 53 3d c8 4a 86 3e b8 32 1e be 1d 98 a4 bc
       0.051614966 0.2622893 -0.15449035 -0.020092065
000190 a7 7e b4 bc 82 68 88 3e d6 15 3c 3d 13 86 a3 be
       -0.022033049 0.26642233 0.045919262 -0.31938228
0001a0 83 c8 58 bd 48 7e d1 3b a9 01 85 bc 90 d7 06 3e
       -0.052925598 0.0063932277 -0.016236143 0.13168168
0001b0 55 49 21 be 50 83 f5 3c ec 0e cd bd fa 89 ec bd
       -0.1575063 0.029969841 -0.10012612 -0.115497544
0001c0 5b 73 17 3e 00 62 58 bd 3d 2b a1 3e 71 d9 67 be
       0.14790098 -0.052827835 0.314783 -0.22641541
0001d0 40 61 8d be 8e dc 0f 3c 9e 4b b1 bc 29 06 9e 3e
       -0.27613258 0.008780612 -0.021642502 0.30864075
0001e0 5a 4b 07 bf 0f 4b ca be 47 63 23 3e c9 2e c1 3e
       -0.5284935 -0.3951039 0.1595584 0.37731007
0001f0 71 5e a2 3e 82 e3 62 3d 35 01 32 be f7 9c 32 be
       0.31712678 0.05539275 -0.17383273 -0.1744269
000200 5b 5e 81 be b9 fb a4 be b7 c0 1d 3e a2 a7 35 3d
       -0.252673 -0.322233 0.15405546 0.04434932
000210 45 cd 8f 3d 27 10 51 bd 64 23 3d be a5 5a 9d 3d
       0.07021574 -0.051040795 -0.18470532 0.07683305
000220 c8 5b f4 3d 28 3a 79 3d 1b 51 22 be 78 6d c7 bd
       0.119315684 0.060846478 -0.15851252 -0.097376764
000230 e4 20 dc bc 3b a1 fe 3d c5 94 1c 3e e9 d6 51 be
       -0.026871152 0.12433096 0.15291126 -0.20492138
000240 87 4e a7 bd 1d 8a 33 be 49 43 1b 3e 06 b6 d7 3d
       -0.08169275 -0.17533155 0.15162386 0.10532765
000250 0f 32 18 be 1a 43 27 be 16 eb 46 be bb 2d 10 3e
       -0.14862846 -0.16334191 -0.19425616 0.14079945
000260 5c cb 9b be 80 3e 8f be de 30 29 bb 56 81 fd bc
       -0.30428588 -0.2797737 -0.002581648 -0.030945461
000270 e4 2c 98 3d 9d b0 1f be 73 c8 68 be 5a b5 ff 3c
       0.07430437 -0.15594716 -0.22732715 0.031214405
000280 e7 16 93 3d 43 6b 85 bd f8 86 79 3e 1e 02 7e 3d
       0.07182103 -0.06514599 0.24367893 0.062013738
000290 e2 17 05 3e 48 e1 c1 be da 6e 24 bd 5f b8 88 3e
       0.12997392 -0.37867188 -0.04014478 0.26703164
0002a0 b1 7a b5 3d e6 44 c3 3e 07 b4 a4 be 87 d0 6d 3e
       0.08861292 0.38138503 -0.321686 0.23224078
0002b0 db db 36 3e 07 f1 54 3d 85 3c 9b 3e d1 34 a2 3e
       0.17857306 0.051987674 0.3031961 0.3168092
0002c0 4a c2 e9 3c 35 33 09 be 33 f2 3d bd 8b cf 01 be
       0.028535027 -0.1339844 -0.046373557 -0.12676828
0002d0 86 ee 30 3e b6 7e 86 be 07 10 81 be 01 4d 9c bd
       0.1727849 -0.26268548 -0.2520754 -0.07631875
0002e0 a7 45 d8 3d 11 98 bc 3d 7f 17 e9 be 82 98 4f bd
       0.1056016 0.09208692 -0.4552574 -0.050682552
0002f0 96 9e 2a bc ec 65 23 3e bc c1 ed be 28 e3 b3 bd
       -0.010413786 0.15956849 -0.4643687 -0.08783561
000300 1c a2 aa 3b 34 1b 37 bd 9a 0d f1 3d ce dc 85 bf
       0.005207313 -0.044703677 0.117701724 -1.0458009
000310 4e 9d 2e 3e 5e 52 d7 bd 04 cd 45 3e 13 00 3b 3e
       0.17052194 -0.10513757 0.19316489 0.18261747
000320 59 62 41 be 91 a1 89 be f2 d2 6b 3e 68 df be 3e
       -0.18885173 -0.26881078 0.23029688 0.3727982
000330 31 78 8e 3d fa b4 d5 be da 48 0b bf f1 a0 99 3e
       0.069565184 -0.41739637 -0.5440804 0.300056
000340 ed 7a ae 3d 73 85 80 bf d3 55 04 bf f2 58 37 bf
       0.0851954 -1.0040725 -0.5169346 -0.71620095
000350 e1 29 26 bf 8f f4 a3 be 05 4b 80 bf dd 56 02 be
       -0.6490765 -0.3202252 -1.0022894 -0.12728448
000360 d7 c5 87 3e c7 9d e3 bd db 35 9b be 3f 0f 48 bf
       0.26518127 -0.11114078 -0.30314526 -0.78148264
000370 c5 e8 d0 3e 47 16 ef 3e 9f 47 06 bc 38 b6 c1 be
       0.4080259 0.46696684 -0.008195787 -0.37834334
000380 8d ec 38 bf 3c c5 61 3e 84 f9 02 3e 42 96 82 be
       -0.7223595 0.22047895 0.12790495 -0.25505263
000390 ea cd e6 bd 61 3f 0c be c4 29 e9 3d 4f fb aa bd
       -0.11269744 -0.13696052 0.11384919 -0.083487146
0003a0 18 83 26 be 3a 42 62 3b 62 14 48 be ce f0 39 3e
       -0.16260946 0.0034524337 -0.19539025 0.18158266
0003b0 12 43 81 bb 00 89 33 be 6d 2e 73 3d bd af e8 bd
       -0.003944763 -0.1753273 0.059370447 -0.113616444
0003c0 ac d2 fe 3d 37 e1 63 3c 23 57 75 3d 14 8f 0e 3d
       0.12442526 0.013908676 0.059897553 0.03480442
0003d0 cf 36 8f be 98 1c 1b bd 4c 75 57 3e c7 29 c6 3d
       -0.27971503 -0.037869066 0.21040839 0.09675937
0003e0 92 8d 31 bd 94 4f f7 bd f7 52 8b 3e 9f 82 93 3e
       -0.043347903 -0.12075725 0.27211735 0.28810593
0003f0 e1 24 49 3e 26 d9 a6 bd 14 d8 ad be 26 af 83 3d
       0.19642974 -0.081468865 -0.33953917 0.06429891

conv2.bias f4 [16]
000000 25 7d 5f 3e af 6e 0e 3e 1f ca be bd 43 92 3f be
       0.21825083 0.1390941 -0.09315895 -0.18708138
000010 72 b9 97 3e ed 49 86 bd c0 47 b4 3d 8d 2a dc bd
       0.2963367 -0.06557069 0.08802748 -0.107503034
000020 29 7e 24 be 00 79 22 be 7b e8 dd bc da 2d d6 3d
       -0.16063751 -0.1586647 -0.027088394 0.10457964
000030 61 8c 71 3e 2a 49 c7 bd ec 66 c9 bb bd e1 26 3e
       0.23588707 -0.09730752 -0.0061463024 0.1629705

fc1.weight f4 [120, 400]
000000 93 23 3a be b7 ed be 3d ab d4 0a 3d 87 2c af be
       -0.18177633 0.09322684 0.033894222 -0.3421366
000010 b8 0e 8e be a8 fa 13 bd 64 2b f9 be 5c ed 6e bd
       -0.27745605 -0.036127716 -0.48665917 -0.058331832
000020 bc 74 d4 be 49 8c 63 3c 52 a1 59 bd 76 66 ac be
       -0.4149531 0.013888427 -0.053132363 -0.33671921
000030 77 05 91 bd 65 be d5 be 72 84 04 be 09 1d 80 3a
       -0.070811205 -0.41746822 -0.12941149 0.0009774278
000040 d6 21 4e be cc ae d4 bd ee bd e7 bd 33 74 b5 3d
       -0.20130095 -0.10384902 -0.11315523 0.08860054
000050 3d 9d 1a 3e 63 77 40 be d1 7e 98 3d e1 3f 96 3d
       0.15099044 -0.18795542 0.07446063 0.07336403
000060 c2 b8 94 3e 18 b1 75 3d c7 4f fb 3d 95 57 08 bf
       0.2904721 0.059983343 0.12271076 -0.5325864
000070 32 a0 9e be 5b f8 aa 3c 9d cd 39 bd 7b 95 19 be
       -0.30981594 0.020870378 -0.045362104 -0.14998429
000080 53 a3 42 3d fe 3e 6e be 64 75 9b bd b0 40 63 be
       0.04751904 -0.23266217 -0.0759075 -0.22192645
000090 43 80 ac bd f3 d3 2f 3e ab 4e 41 3d 2b 5c 1f bd
       -0.084229015 0.17170696 0.047194164 -0.038906258
0000a0 5f 05 8c 3c 7e 55 26 3e a7 21 49 3e 5d 06 65 3d
       0.017092405 0.1624355 0.19641744 0.05591427
0000b0 e4 ad 9e be 31 8b 18 bd a6 3e 81 3e 04 c8 4d bd
       -0.30992043 -0.03724212 0.2524311 -0.050239578
0000c0 ae c1 e0 3d 82 55 2c 3c ca 92 0b be 10 54 b2 3d
       0.109744415 0.0105184335 -0.13630214 0.0870744
0000d0 29 b2 a5 3d 89 47 d2 3e 33 a5 e8 bc 30 1b 8a be
       0.08090622 0.41070202 -0.028399086 -0.26973867
0000e0 ab 52 be be e7 59 e1 bb 29 d3 1a 3e 59 57 f8 bc
       -0.37172446 -0.0068771723 0.15119614 -0.030315088
0000f0 d9 df ac be d3 66 3f bd 60 8d ab be 3d 8d 4d bf
       -0.33764532 -0.04672892 -0.33506298 -0.8029364
000100 32 88 d0 be b5 7c 9a bc 06 34 f7 bb 06 4e 66 bd
       -0.4072891 -0.018858293 -0.0075440435 -0.056226753
000110 a4 55 31 be 1d f4 e8 bd bf 96 85 bd 8f 4e f7 bd
       -0.17317826 -0.11374686 -0.06522893 -0.12075531
000120 4e 74 91 be d9 20 60 be d5 cd 0b bd 6f 8e 2b be
       -0.28409046 -0.2188753 -0.034131844 -0.16753553
000130 b1 f7 d7 3d 5d 10 35 3e 57 4a 2c be 16 f0 22 3d
       0.1054529 0.17682023 -0.16825233 0.039779745
000140 12 3c 77 3e bd a3 c2 3e 89 5f 1b 3d 37 39 62 3e
       0.24144009 0.38015547 0.037932906 0.22092138
000150 89 05 63 3e 0e f3 94 bc 9f 65 05 3f 9f 8a 0b 3e
       0.2217008 -0.018182304 0.52108186 0.13627099
000160 61 b4 69 3e 11 fd 27 3e 57 96 0c be 8d eb 9f 3d
       0.22822715 0.16405131 -0.13729225 0.078085996
000170 67 cf b7 bd 34 a2 06 3d 8d 4c 44 bd 79 47 1c be
       -0.08975106 0.032869533 -0.047924567 -0.1526164
000180 8b 9d 16 be a1 29 90 be f3 dc 51 be e4 aa d2 3b
       -0.14708535 -0.2815676 -0.20494442 0.006429063
000190 34 fe 3e be 3c f0 49 be 40 4b 37 3d b0 73 18 3d
       -0.18651658 -0.19720548 0.0447495 0.037219703
0001a0 07 ae 94 3d 6b ce 5e be f6 58 ab 3d c2 61 be 3d
       0.072597556 -0.2175843 0.08366577 0.092959896
0001b0 7a c7 81 be 74 ea 42 be 60 25 28 be 83 71 82 3e
       -0.253475 -0.1903475 -0.16420507 0.25477228
0001c0 b9 9c f0 bd d3 8e 47 be 82 70 4d bd cc eb 8a 3e
       -0.117486425 -0.19488077 -0.050156124 0.27133024
0001d0 24 59 07 3e 3c 62 02 3e 67 7f 59 bc 14 3a fd bd
       0.13217598 0.12732786 -0.013275004 -0.12364593
0001e0 f4 2c 12 3e 76 58 62 3e 49 16 8a bd c6 96 1c be
       0.14274961 0.22104058 -0.06742532 -0.1529189
0001f0 99 2c 1e 3e d7 58 f1 be 62 61 b7 3d 81 a3 03 bd
       0.154467 -0.47138092 0.08954121 -0.03213835
000200 87 d7 c3 bd 95 c7 53 be 1b 23 3e be d8 3d 11 bd
       -0.09562593 -0.20681603 -0.18568079 -0.03545937
000210 0f 51 89 bc de 2d 6e be e2 f2 89 bb 86 30 51 be
       -0.016762285 -0.23259684 -0.004209862 -0.20428666
000220 7e 80 e9 3c 3a 66 cb 3e d8 8e 10 bd 81 77 ab bd
       0.028503653 0.3972643 -0.035292476 -0.08372403
000230 09 cd f6 bc b4 6e 5a 3e e9 6f 2c 3e f4 de 03 3e
       -0.030127065 0.21331292 0.16839565 0.12878019
000240 1a 90 e0 bd 97 90 bc 3d 09 71 51 3e 28 88 e4 3d
       -0.10964985 0.09207266 0.20453276 0.11158782
000250 61 e6 46 bd 31 ea d4 3e 68 cc 09 bf f8 c0 ef be
       -0.04855955 0.41584924 -0.53827524 -0.4682691
000260 43 38 80 3d 2f c2 4d 3d 35 ce ce bc d8 3b e0 be
       0.06260731 0.050234016 -0.025244812 -0.43795657
000270 4a af 96 be 41 f2 e1 3b 9f 8a ff ba dd 11 fe 3c
       -0.2943061 0.006895334 -0.0019496268 0.031014377
000280 43 b0 61 be 66 ea 05 3e 2e 89 03 be 4a 53 be bd
       -0.22039895 0.13077697 -0.12845299 -0.0929323
000290 17 b0 bb bd 7d c6 92 3e 42 80 a3 3d 6c 17 af bb
       -0.09164446 0.2866706 0.079834476 -0.0053433683
0002a0 11 bb 09 be b2 5b 10 bd 56 7f 9b 3e f1 92 44 3e
       -0.13450266 -0.035243697 0.30370587 0.19196679
0002b0 71 ef a9 3e ff f5 7a be 27 98 b9 bd fa 34 8d bd
       0.33190492 -0.24507903 -0.09062224 -0.0689487
0002c0 05 96 36 be 63 97 f8 3c 84 92 f0 3d 7f d7 68 be
       -0.17830665 0.030345624 0.11746696 -0.22738455
0002d0 e2 73 4c be 63 38 ff 3d ce e0 99 3d 3d 9a 5a 3e
       -0.19966081 0.12461927 0.07513581 0.213479
0002e0 d0 5d 01 be 67 e3 a0 bd 66 2f 1d 3e c3 37 67 bd
       -0.12633443 -0.078558736 0.15350112 -0.056449663
0002f0 58 c7 19 bf fd 03 8a 3c a5 61 d1 3d ae 19 d4 3d
       -0.600698 0.016847605 0.10223702 0.103564605
000300 3e c9 f0 3c 80 92 72 be 5c c0 69 be f8 9f b7 3e
       0.029392835 -0.23688698 -0.22827286 0.35864234
000310 8e 2b af bb 88 03 93 3e 3d f1 50 be 31 c5 43 3e
       -0.0053457683 0.28713632 -0.20404525 0.19118191
000320 0c 7b a2 bd 39 71 7c be e8 16 f4 3d c0 07 b2 bd
       -0.079336256 -0.24652566 0.119184315 -0.086928844
000330 69 06 ad 3d 45 06 18 3e d6 e6 dc be 1d 52 68 3e
       0.08448488 0.14846142 -0.43144864 0.22687574
000340 7b 32 27 3e f1 7f d1 bc 70 17 e1 3e a0 65 a7 bd
       0.1632785 -0.025573703 0.43963194 -0.0817368
000350 40 c2 b9 3d 7f a5 9b 3d 4c aa 75 bb 88 17 1e be
       0.09070253 0.07599925 -0.0037485538 -0.15438664
000360 7e e4 46 bc 9b 70 a5 3c 9d 97 49 bd 0e a4 ae 3d
       -0.012139438 0.020195296 -0.049216855 0.08527385
000370 f8 83 09 be 77 78 0c be cc 35 ea bd 03 b3 f4 bd
       -0.13429248 -0.13717829 -0.11436042 -0.11948206
000380 ad 4f 9b 3d 42 ce 66 3e c1 a7 8b bd 90 77 3d 3c
       0.07583556 0.22539619 -0.06819106 0.01156415
000390 94 c0 89 bb c9 c2 51 3e 61 35 a1 be c4 d5 e4 3d
       -0.0042038653 0.20484461 -0.31486037 0.11173585
0003a0 3f 78 87 3e 4a 48 14 be b3 fc d6 bd 54 39 c4 3d
       0.26458928 -0.14480701 -0.10497417 0.09581247
0003b0 7c 8f 07 3f c0 97 55 3e ba fc e8 be 91 6e 2e be
       0.52953315 0.2085867 -0.45505315 -0.17034365
0003c0 43 5f e0 bc 96 f1 bd 3e f6 21 01 be 04 3e 3f be
       -0.027389174 0.37098378 -0.12610611 -0.18676001
0003d0 6e b5 c0 bd 82 ad 86 3e 09 ad a6 bc 0a 5f ab bd
       -0.09409605 0.2630425 -0.020346181 -0.08367737
0003e0 e5 f3 99 be 10 cd aa bd 7b 6f f0 3c 83 7c 6b be
       -0.3006889 -0.08339894 0.029350033 -0.22996716
0003f0 26 5a 2d bd ef 83 79 3e 58 69 6c 3d db b2 d0 bd
       -0.0423223 0.24366735 0.05771765 -0.10190364

fc1.bias f4 [120]
000000 73 6b 09 3e ad 99 1f 3e 8f 93 68 bd 13 01 7e bd
       0.13419895 0.15585966 -0.056781348 -0.062012743
000010 ac 91 ca bd 5d 33 22 3e b5 e2 e2 3d c5 1c 29 3b
       -0.09891066 0.15839906 0.11078397 0.0025804501
000020 7c 63 32 3d 66 21 9a 3d 0c 67 34 3e 35 95 2a 3e
       0.043551907 0.075259015 0.17617434 0.1665848
000030 0c c0 62 3e 7c 72 da 3d d0 97 8a 3d 03 19 db 3d
       0.22143573 0.106663674 0.06767237 0.1069813
000040 2c 3f f2 3d 8c 91 af 3c 11 7a cc 3e 6a 0b 16 3e
       0.11828455 0.021431707 0.3993688 0.14652792
000050 d6 f9 29 3e 7e e3 c8 3d d9 78 20 bd 68 61 fa 3d
       0.16599211 0.09809016 -0.03917775 0.1222561
000060 72 3a 6d 3c 48 37 df bd d3 cc 8b bd 87 2f 39 3e
       0.0144792665 -0.10899216 -0.068261765 0.18084536
000070 19 1e bc bd 2e 62 17 bd 74 3b e8 3d f8 f8 cf 3e
       -0.09185428 -0.036958866 0.11339465 0.40619636
000080 93 36 c2 3c f8 81 2d 3e 25 6b d8 3d 13 e7 58 3e
       0.023707664 0.1694411 0.10567311 0.21181898
000090 a4 3f 9f 3e 03 99 0a 3e 80 fc 9c 3c df 34 0a be
       0.3110324 0.13534932 0.01916337 -0.13496731
0000a0 97 bf 4b 3e b4 85 a6 3e 78 57 90 3e bd ca b4 3d
       0.19897304 0.32523882 0.28191733 0.08827732
0000b0 69 34 68 3e 9c b9 42 39 5a b0 f5 3d 97 0e 73 3e
       0.22676243 0.00018570427 0.11996527 0.23736034
0000c0 ff fa f5 bd 63 a0 65 bd 78 f0 22 3e 0b 4e f2 bb
       -0.12010764 -0.05606116 0.15912044 -0.0073945574
0000d0 52 82 8e bd 05 b5 e8 3d 7b 71 93 bb a6 fc fd 3d
       -0.069584504 0.11362652 -0.004499612 0.124017045
0000e0 3f 09 07 3e 02 02 68 3e 31 ec 49 bd a9 18 07 3c
       0.13187121 0.22657016 -0.049297515 0.0082456255
0000f0 04 de dc 3d 07 70 30 3e 6f cc d2 bd 01 c1 0e 3e
       0.107845336 0.17230235 -0.10292899 0.13940813
000100 34 6d 42 bc 1c e2 2a 3e 5e c0 3e 3e 69 22 bc 3d
       -0.011866856 0.16687816 0.1862807 0.09186251
000110 dd 3c bf 3d 8f 33 15 3e 4b 5f 1e 3d 25 dc 00 3e
       0.093377806 0.1457045 0.038665097 0.12583978
000120 6d 71 35 bd dc 66 0f 3e a0 19 46 3d b1 ad 00 3e
       -0.044297624 0.14004081 0.04836428 0.12566258
000130 c7 59 3b 3e d0 6d df 3d 01 ca 09 bb 75 35 8c 3d
       0.18295966 0.10909617 -0.0021024945 0.068461336
000140 71 fc 85 3d c1 4c 7d 3e 8d 0d 1d bd 92 40 42 3e
       0.0654229 0.2473631 -0.038343 0.18969944
000150 8f 75 62 3c 34 55 3b 3e c0 eb 77 3e ef 28 02 3e
       0.013821973 0.18294221 0.24211025 0.12710927
000160 31 f0 bf 3c e8 59 b2 3d 1b c3 96 3e 6c 9f 04 3e
       0.023429962 0.087085545 0.2944573 0.1295144
000170 58 a4 4f bd 79 63 f2 bd 82 41 4c 3e c3 6b 8a 3d
       -0.05069384 -0.11835379 0.19946864 0.06758835
000180 87 ee a5 3d df d2 75 3e 3e 25 b0 bd 69 98 d1 3d
       0.08102136 0.24006222 -0.086008534 0.10234148
000190 8f 89 83 3e 87 e2 34 bd f4 a7 fa 3c 39 b9 8d 3d
       0.25690886 -0.044161346 0.030597664 0.06920094
0001a0 a6 44 87 3d cd 9e 83 b9 31 79 3e 3e b5 db 21 bd
       0.066048905 -0.00025104583 0.18600918 -0.03951617
0001b0 4d 7e 35 3e 45 9d 37 3e 0f 93 60 3d 16 40 6d bd
       0.17723961 0.17931087 0.054827746 -0.057922445
0001c0 cb 7c f8 bc 30 d1 20 3e 8f 3b da 3d 11 73 85 3e
       -0.030332943 0.15704799 0.10655891 0.2606435
0001d0 3e 4e 4a 3d 30 89 1f 3c 1e 75 6c bd 65 93 19 3e
       0.049391024 0.009737298 -0.05772888 0.14997633

fc2.weight f4 [84, 120]
000000 0a 54 ed be fd 38 ce bd 22 f4 d2 3d ac 22 58 3e
       -0.4635318 -0.100694634 0.10300471 0.21106976
000010 30 fd 54 be c0 17 fd 3d 0a 6a dd 3d 7e 70 e1 be
       -0.20799708 0.123580456 0.10811241 -0.44031137
000020 e2 fa 5d 3e 8e fb 06 be b6 4e 93 3e 1e 6c 20 be
       0.21677735 -0.13181898 0.2877099 -0.15666243
000030 f6 52 95 be 9e 20 55 be 84 6c e9 be a7 28 d1 be
       -0.29164857 -0.20813224 -0.45590603 -0.40851328
000040 4a 1a 8a be ac 84 ab 3e 3b f9 5b be 5f 16 9d bd
       -0.26973182 0.33499658 -0.21481793 -0.076702826
000050 e8 88 b5 3e e0 78 f5 be 9f a6 31 3d 37 cc b0 be
       0.35456014 -0.47943783 0.043371793 -0.34530804
000060 93 d6 62 3e 4e ae f4 3c 11 48 41 be 88 93 a0 3d
       0.22152166 0.029868271 -0.18875147 0.07840639
000070 09 d8 1e 3d 15 01 c4 3d 8b 61 3d 3e da 3c bb bc
       0.038780246 0.09570519 0.18494241 -0.022856165
000080 d3 6c 3a 3e 60 ea e1 bc 8d 73 e5 bd fa d7 15 be
       0.18205576 -0.027577579 -0.1120368 -0.1463317
000090 fa c6 3f 3e 29 f0 af be b3 fb 51 3e d3 c0 ac bd
       0.18728247 -0.34362915 0.20506172 -0.08435216
0000a0 36 dc 47 bd ec c6 22 bd 41 87 2a be c7 0f f1 3d
       -0.048793994 -0.039740488 -0.16653158 0.117705874
0000b0 23 7d 7e 3d f5 cb 05 3d 2c 7e e1 bd 7c 88 46 3d
       0.06213106 0.03266521 -0.110103935 0.048470005
0000c0 73 2e c4 be d0 71 fd bd 9a 36 78 be 3a 63 cf 3e
       -0.38316688 -0.12375224 -0.24239579 0.4050539
0000d0 05 ed ef be 33 33 ee 3d 87 4f ac 3e 97 87 1e bc
       -0.4686052 0.11630859 0.33654425 -0.009675882
0000e0 e0 8d 4e 3e 83 f5 05 3b 8d 46 8f 3d 06 03 c6 3d
       0.20171309 0.0020440526 0.06995878 0.096685454
0000f0 6d 69 aa be 2a 92 d6 be 5d e8 1c 3d 54 4c 4b 3c
       -0.33283558 -0.4190839 0.038307536 0.012408335
000100 2b aa 55 bd 55 55 fd be 71 d9 04 be 75 ae 16 3b
       -0.052164238 -0.49479166 -0.12973572 0.0022992168
000110 02 dd b4 be 2d 30 93 be 8d 38 d9 bd a2 4a e2 3d
       -0.35324866 -0.28747693 -0.10606489 0.11049391
000120 60 52 85 3c f8 90 23 3e fa 0b 18 3e 2c ca 63 3e
       0.016274631 0.1597327 0.14848319 0.22245091
000130 b8 37 89 be 7d a8 32 bf 38 06 83 3e cb 99 d9 bd
       -0.26800323 -0.6978834 0.25590682 -0.10625037
000140 ef 32 b3 3d 0b 7c 1d be f5 06 9a 3d a0 06 ff bd
       0.08749949 -0.1537935 0.07520858 -0.124524355
000150 ac 11 b5 be 6b de 83 3e b9 a2 cd 3d 51 6f 89 be
       -0.35365045 0.2575563 0.100408025 -0.2684274
000160 05 79 82 3e 21 be c3 be 60 9f 4a 3e 8e bf aa 3d
       0.25482956 -0.38230994 0.19787359 0.083373174
000170 a5 19 ea bc fc 77 f8 bd be bf b6 be 98 34 3a be
       -0.028576681 -0.1213226 -0.35693163 -0.18184125
000180 9e b1 d0 be 94 66 ce bd 7f de 99 bd d1 3d 08 bf
       -0.4076051 -0.10078159 -0.07513141 -0.53219324
000190 42 3d 31 3d 22 8f be be f0 b4 c3 bc 3e cb 0c 3c
       0.04327131 -0.37218577 -0.023889989 0.008593379
0001a0 9c eb be be 4d 68 90 bd 61 9d 49 bd fe 42 86 bd
       -0.3728913 -0.07051144 -0.049222354 -0.065557465
0001b0 33 51 3f 3e b7 fd 01 be 82 27 18 bf 05 06 26 3c
       0.18683319 -0.12694441 -0.59435284 0.010133271
0001c0 39 8e 47 be 57 b0 65 3d fc 5c 88 3d 56 f5 92 bd
       -0.19487847 0.056076374 0.0665836 -0.071757
0001d0 7b 3a d3 be 56 9f 69 3c f3 75 8f 3c 23 93 69 bd
       -0.41255555 0.01425918 0.017512297 -0.057025086
0001e0 bc 35 2a be d4 72 17 be c4 57 b9 be 9a 4b 5f 3e
       -0.1662206 -0.14789897 -0.36199772 0.21806183
0001f0 ff 7e 29 be a4 a3 20 bc f0 04 de be 8f dc 94 be
       -0.16552351 -0.00980464 -0.43363142 -0.29074523
000200 8f 1e 60 be 13 13 f9 bd 96 1f 91 be a4 0c 7d be
       -0.21886657 -0.12161841 -0.2834441 -0.24711853
000210 8f 86 61 3a c2 e2 f9 bc 62 96 bd 3d 95 66 12 be
       0.00086031196 -0.030503634 0.09257199 -0.14296944
000220 1d bb 89 bc 3c fd 69 be 9f 83 bc 3d a5 67 92 be
       -0.016812855 -0.22850507 0.09204792 -0.285947
000230 75 d2 3d bd e6 d4 14 3d 0b b2 d6 bc d1 fa a2 bd
       -0.046343286 0.03633585 -0.026207944 -0.07957996
000240 fd ea 15 be 14 ec e2 be ae 1a 5d 3e 29 2e 9b 3c
       -0.14640422 -0.44320738 0.21592209 0.01894291
000250 f5 81 74 bd f5 84 02 3d 74 da 08 3e 92 89 cc 3d
       -0.05969425 0.03186508 0.13364583 0.09987177
000260 1e 25 c4 be 86 4c 1d be 99 97 2d 3c 43 50 b0 bd
       -0.38309568 -0.15361223 0.010595226 -0.08609059
000270 98 40 34 be 34 a3 16 3d 2a 35 05 bf f3 73 86 bd
       -0.17602766 0.036776736 -0.52034247 -0.06565084
000280 27 43 60 3e 19 e3 6e 3d 80 c9 65 bd a8 7f b4 bd
       0.21900617 0.058322046 -0.05610037 -0.08813411
000290 7a 22 0c be b1 f2 94 bd 0a 82 a8 bd bc 7d 14 bd
       -0.13685027 -0.07272852 -0.08227928 -0.036252722
0002a0 bf 31 e2 bc 55 96 93 bd b8 75 c7 bd 5c 7c b9 be
       -0.027611611 -0.07206408 -0.0973925 -0.3622769
0002b0 8f 5a 96 be 1c 20 d3 3d 8d 10 8b be 2d b4 10 be
       -0.29365966 0.10308859 -0.27161065 -0.14131232
0002c0 4b 57 a7 be 40 37 93 be 40 d3 39 3d 16 97 a9 be
       -0.32683787 -0.2875309 0.04536748 -0.33123082
0002d0 5f 71 a0 be d7 b3 bf 3d 2f a6 0e bc 7f 35 93 bd
       -0.31336495 0.093604736 -0.008706613 -0.07187938
0002e0 4f 5b e7 bc 4b fb c0 bd 3e d7 a6 be b7 09 30 be
       -0.028241782 -0.0942293 -0.32586092 -0.17191206
0002f0 43 6c b2 bc 03 3b 9e bd d1 47 43 be 4f 70 06 be
       -0.021780139 -0.07726099 -0.19070365 -0.1312878
000300 91 64 81 bd 5e 10 6a be 4d 15 ff bc a8 3e fa bd
       -0.0631801 -0.22857806 -0.031138087 -0.12218982
000310 34 22 6e 3d b6 46 b7 bd 19 82 d8 be a0 c4 39 be
       0.058138087 -0.08949034 -0.42286757 -0.18141413
000320 83 a4 a5 be 2f 5d 8b 3c 7c 34 a7 3d ec 2d 9a be
       -0.32352075 0.017012207 0.081643075 -0.3011316
000330 df 5e a0 be 1c ca 2e be af 6e 53 bc a5 86 c5 3c
       -0.3132238 -0.17069286 -0.012904807 0.024112055
000340 4b 09 40 be a2 50 ba bc 38 a4 2f 3e 7d 2e 45 3e
       -0.18753545 -0.022743527 0.17152488 0.19256015
000350 fe be 49 bc 35 e5 4e 3d ea aa 20 3e b3 ef 56 3e
       -0.0123136025 0.050511558 0.15690199 0.20989875
000360 3b 28 1b 3e d4 42 7a bd 50 eb 2b be e8 da 46 3d
       0.15152065 -0.06109889 -0.16788983 0.04854861
000370 c1 66 3b bc 95 61 75 be 62 c9 8a 3d 64 17 bf 3d
       -0.011438073 -0.23963006 0.06776692 0.09330633
000380 d5 41 7b be de af 4e 3d 03 5e 1a bd 91 ec 76 3d
       -0.24536832 0.05046069 -0.037687313 0.0602842
000390 b0 f7 96 be 5f d0 1a be 2c 23 81 3d 26 6e 3f bd
       -0.29485846 -0.1511855 0.06305537 -0.046735905
0003a0 5a 9f 5c 3d 64 06 d5 3d ee 67 8a be 6d 5d 58 3d
       0.053862907 0.104016095 -0.27032417 0.052823473
0003b0 fa d0 80 3c 14 e6 fe be d6 af 0d 3d ab b6 ed bd
       0.015724648 -0.4978491 0.03459152 -0.11607107
0003c0 38 74 14 be 22 df 94 3d 16 19 8f be 02 2e 8b be
       -0.14497459 0.07269122 -0.27948827 -0.2718354
0003d0 ab b2 35 be 0d 2e ac 3d 2f db a5 be 5b 88 2a 3e
       -0.17743938 0.08407221 -0.32393786 0.16653578
0003e0 fb 5f 34 3e cb dd 81 3e 9e 2a 6d 3d 59 b0 09 3e
       0.17614739 0.25364527 0.05790197 0.13446178
0003f0 e5 f8 4c 3e 79 e9 99 3e 97 a6 9c 3d f4 a0 9c 3d
       0.2001682 0.30060938 0.07648962 0.07647887

fc2.bias f4 [84]
000000 c0 64 74 3e 2d ca 1a 3f bc cd d8 3e ac 21 23 3e
       0.23866558 0.60464746 0.42344463 0.15930814
000010 85 b4 dd 3e 4d b1 da 3d 8d 19 1c 3f 8a 07 df 3e
       0.43301788 0.10678349 0.6097649 0.4356044
000020 41 2a da 3e 26 d4 bd 3e 88 a5 13 3f 14 bb 96 3e
       0.42610362 0.3707592 0.57674456 0.29439604
000030 cf f4 ef 3e 90 e1 b1 3e eb e0 b7 bd b8 14 4c 3e
       0.46866462 0.34742403 -0.089784466 0.19929779
000040 22 c8 16 3f 6a be 8c 3e 1a b6 cd 3e e3 9f cb 3e
       0.5889913 0.27489024 0.40177995 0.3977042
000050 b6 1e 91 3e c0 a2 f9 3e a8 68 e3 3e b2 4f f0 3e
       0.28343743 0.4875698 0.44415784 0.46935803
000060 87 71 6f 3e 1e a2 96 3e 4a c8 6c 3c 76 18 56 3e
       0.23383151 0.2942056 0.0144520495 0.20907769
000070 09 80 4e 3e 94 8b 00 3e 08 9c fd 3e d0 2e 8e 3e
       0.20166029 0.12553245 0.49533105 0.2777009
000080 f1 5f 98 3e 22 00 12 3f a9 e8 ae 3e cc df cc 3e
       0.29760697 0.5703145 0.3416188 0.40014493
000090 74 60 89 3e 54 d8 fd 3e 88 72 c0 3e 02 2d 41 3d
       0.268314 0.49579108 0.3758738 0.047162063
0000a0 91 1a 9e 3e e8 27 ee 3e 94 6b 1a 3f a0 67 b5 bb
       0.30879644 0.4651482 0.603204 -0.0055360347
0000b0 5f be 5d 3e 01 da b9 3e 37 04 8a 3e c6 b4 98 3e
       0.21654652 0.36299136 0.2695634 0.2982542
0000c0 95 d1 27 3f cc 5e 0c 3f 71 3e 55 3e a8 e7 b1 3e
       0.6555417 0.5483215 0.20824601 0.34747052
0000d0 df e7 b9 3e 63 46 85 3e 0c f4 9b 3e ac ea c2 3e
       0.36309716 0.26030263 0.3045963 0.38069665
0000e0 71 8f 2d 3f f5 86 52 3e f7 1e c0 3e e5 ba c6 3d
       0.67797 0.20559295 0.37523624 0.09703616
0000f0 8c 34 db 3e 32 e5 a6 3e 6a fe 1a 3e b5 81 57 bc
       0.42813528 0.32596737 0.15136114 -0.013153483
000100 02 b9 a2 bd 6d 87 78 3e 2d e7 52 3e 0c a0 99 be
       -0.07945444 0.24270411 0.20595999 -0.3000492
000110 d3 5a dc bc f6 ec bc 3e 54 c1 5d 3e 85 db 95 3e
       -0.026898777 0.36899537 0.2165578 0.29269043
000120 5f 53 11 3f 43 9b a2 3e 7b e9 a8 3e 8b 07 84 3e
       0.5676784 0.3175908 0.3299063 0.25787005
000130 86 bf aa 3e 44 c2 be 3e d9 db 1a 3f be 46 01 3f
       0.33349246 0.37257588 0.6049171 0.5049857
000140 f7 87 ea 3e 07 56 39 3e 36 68 09 3f 88 da 03 3f
       0.45806858 0.18099223 0.5367464 0.5150533

fc3.weight f4 [10, 84]
000000 6d 0f 07 be 75 8b f4 3d 18 b3 3c 3e a5 1f fc 3b
       -0.13189478 0.11940662 0.18427694 0.007694202
000010 7b 58 60 be fd 53 f2 bd 67 df 99 3d 1b cd cc 3d
       -0.21908753 -0.11832426 0.07513314 0.10000058
000020 ef 2b c4 be c2 4c 03 3e 0c 58 4d be 9a 02 0c bf
       -0.3831477 0.1282225 -0.20053118 -0.5469147
000030 eb 0a a3 be 2a f5 6e bb a8 ed 9d 3d 12 f5 28 be
       -0.31844267 -0.0036462047 0.07711345 -0.16499737
000040 58 39 05 3e c3 5d 2e bc 31 df 2f 3e a5 9e 8e be
       0.13010156 -0.010642472 0.17174985 -0.2785541
000050 c3 f5 e7 bc 32 f0 0d 3d ca 7f 0d be 8c 90 02 3e
       -0.02831543 0.034652896 -0.13818279 0.12750453
000060 3b 4e 19 bd eb 0d 7d 3e bd 2d 03 be 78 87 3f 3d
       -0.037428122 0.2471234 -0.12810417 0.046760052
000070 97 a4 04 3e 5c f1 17 be d2 7b 98 bc bd 0a 15 bd
       0.12953411 -0.14838165 -0.01861373 -0.036387194
000080 23 45 d1 3c eb 31 5b be 76 15 13 3e 88 7d 45 bb
       0.025545662 -0.21405761 0.14363655 -0.0030134637
000090 9b 23 31 be 23 2e d0 3d e9 86 87 be 78 a5 53 3e
       -0.17298739 0.1016505 -0.26470116 0.2066859
0000a0 28 77 0c 3e 7e 1f b9 3d 77 d2 bb be 55 a7 42 be
       0.1371733 0.0903921 -0.3668401 -0.19009145
0000b0 eb 59 f7 3c fc db 8b bd 50 3b 9c be b5 db 22 bc
       0.030194243 -0.06829068 -0.30514002 -0.009940078
0000c0 ca f0 ae be 3c 4b 8c be 69 12 da 3c 37 76 44 3d
       -0.34168082 -0.2740115 0.026620107 0.0479643
0000d0 4c 19 24 bd 1c 5c de bd ac e9 50 be 73 65 30 3e
       -0.040063187 -0.10857412 -0.20401639 0.172262
0000e0 6a d1 21 3e 17 87 eb bc a6 f6 30 be 94 79 da be
       0.15802541 -0.02875094 -0.17281589 -0.42670882
0000f0 7d 04 d4 bd 21 ac fa bc bd a3 19 be c6 e9 f0 be
       -0.103524186 -0.030599656 -0.15003867 -0.47053355
000100 04 04 c3 3c e8 b9 5b bf 14 2c a3 be bb ac ad 38
       0.023805626 -0.85830545 -0.31869566 8.2814564e-05
000110 b2 6e 02 3e 1d a8 5c bc 00 60 1e bf 3a 48 82 3d
       0.1273754 -0.013467816 -0.61865234 0.063614324
000120 a7 76 00 3e c9 57 21 3d 8d fa f7 3d bb 0b 0d bd
       0.12545262 0.03939036 0.12108336 -0.034435015
000130 af 29 b6 bd 35 54 2f 3e ce c1 e9 be 68 08 22 be
       -0.08894669 0.17121966 -0.45655674 -0.15823519
000140 ca f0 9d be 48 ef b2 3d e7 69 44 3d 66 86 a3 bd
       -0.3084777 0.087370455 0.04795256 -0.07984619
000150 90 7e 05 3f 5f e6 5f bf f4 13 d8 be fe c0 0a 3e
       0.52146244 -0.87460893 -0.42202723 0.13550183
000160 e2 31 b4 bd a9 5c 1e 3e 12 44 20 bf 9a d4 a1 be
       -0.08798577 0.15465035 -0.6260387 -0.31607515
000170 9b 8d b9 be c9 05 cc 3d 4b 41 a2 be 9d f1 ca be
       -0.3624085 0.09962041 -0.3169044 -0.3963746
000180 ff 0e 99 3e 6f c9 73 3d 3c 6d 3b be 00 ff f3 be
       0.29894254 0.059518274 -0.18303388 -0.47655487
000190 26 7e e2 3d 59 1b 88 be c3 32 89 be 2a 01 57 3e
       0.11059217 -0.26583365 -0.2679654 0.20996538
0001a0 89 ad 70 3e 7f 51 db be 98 1a 81 3e d3 db a7 bc
       0.23503698 -0.42835614 0.25215602 -0.020490563
0001b0 70 1f b4 3e de ca 85 3d 3b 43 1e 3e 35 05 34 be
       0.35180235 0.065328345 0.15455334 -0.17580111
0001c0 a9 6e 8a 3d 58 0b 8f bd bb 25 64 3e 9e 99 11 be
       0.06759388 -0.069845855 0.22280018 -0.14218757
0001d0 77 08 50 bd f4 17 3a be 12 30 02 3e cb 81 2f 3d
       -0.050789323 -0.181732 0.1271365 0.04284839
0001e0 ea e3 84 3d a8 33 3a be dc 37 c6 3d c0 4f e7 be
       0.06488784 -0.18183768 0.09678623 -0.45178032
0001f0 93 88 35 be 6d 81 4b 3e 5d e4 89 be eb a3 e7 3b
       -0.1772788 0.19873591 -0.2693204 0.007069101
000200 8d a2 57 be 39 94 47 bc 53 99 56 be ec 1b 43 be
       -0.21058102 -0.012181335 -0.20956926 -0.1905362
000210 94 a4 54 3e b9 6f 01 bf a9 d4 3c 3e b6 04 d2 bd
       0.20765907 -0.505611 0.18440498 -0.10254805
000220 1d 0b da 3d 8d d4 96 be 5d 6a 77 be e0 4b 12 be
       0.10646651 -0.29459038 -0.24161668 -0.14286757
000230 5d d1 8e be 7c 81 87 bd 96 81 d6 bd 6c d0 a6 be
       -0.27894107 -0.06616494 -0.10473935 -0.32580888
000240 b6 5d fa bd 7f df 06 bd b0 3b 6c bc 08 36 ab be
       -0.12224905 -0.032927986 -0.0144185275 -0.3343966
000250 88 ae d3 bd ee 87 0f bf c8 b8 a3 bd 20 cb 0b 3e
       -0.103360236 -0.5606679 -0.079942286 0.13651705
000260 d9 22 a6 bd a4 1f 8e 3c 37 89 0b bf 2c 49 0b 3e
       -0.081121154 0.017349072 -0.5450625 0.13602132
000270 72 d5 87 be a3 b8 b1 be d5 94 56 be 95 98 c3 3c
       -0.26530033 -0.3471118 -0.20955212 0.023876468
000280 03 4f eb 3d 3b c3 c6 bd 61 a8 18 bf e0 d3 86 be
       0.1148968 -0.09705206 -0.59631926 -0.26333523
000290 08 3f ac be 5c ee c1 be 9c 7a ca be e8 54 b5 3e
       -0.3364184 -0.37877166 -0.3954667 0.3541634
0002a0 30 a0 98 bd b7 1a ae 3c fd 1c 1a be 22 20 62 be
       -0.07452428 0.021252973 -0.1505012 -0.2208257
0002b0 7f eb 99 be 61 19 12 3a c7 20 c1 3d b9 44 77 3d
       -0.30062482 0.000557324 0.0943008 0.060368273
0002c0 c6 1e 0d 3e 8f e9 15 3e 01 8c 84 be 59 a9 ab be
       0.1378127 0.14639877 -0.25888065 -0.3352764
0002d0 da 92 5b be 5c e5 78 be fa 3c ae be 3a 69 dc bd
       -0.21442738 -0.24306244 -0.34030896 -0.10762258
0002e0 8e dc e5 be cb ae 04 3d 43 8d bb be 3d 59 02 3d
       -0.44894832 0.032393258 -0.36631212 0.031823386
0002f0 6e 49 6c bc 34 e2 76 3d d3 35 fb bd fb 32 15 3e
       -0.014421804 0.060274318 -0.122661255 0.14570229
000300 63 c0 ae bd 65 04 b4 be a4 10 e1 3d 3e f0 82 bd
       -0.085327886 -0.35159603 0.10989502 -0.06393479
000310 7f 9c 3a bd 80 a7 9f be 3c d9 50 3e 5c 40 25 be
       -0.045559403 -0.3118248 0.20395368 -0.16137832
000320 6b 2b b0 be 7e 2f 4b 3e 7d c2 15 3e d4 90 39 be
       -0.34408125 0.19842336 0.14624973 -0.18121654
000330 a0 d9 a0 3d 5b 4d 92 be 45 a3 cd bd 4a b1 e6 bd
       0.07854009 -0.28574643 -0.10040907 -0.11264284
000340 9f 01 d1 bb 24 35 de 3d 09 f0 28 3e 1b 05 85 be
       -0.006378367 0.108499795 0.16497816 -0.25980458
000350 d3 bf 7e be d0 7c 25 3e d2 85 a6 be 04 43 1d be
       -0.24877863 0.16160893 -0.32523972 -0.15357596
000360 33 19 f6 be 44 0e 1b bd b8 a7 99 be 74 32 3f 3e
       -0.480661 -0.0378554 -0.30010772 0.1867159
000370 ae 93 04 3e 60 c4 87 3e 0e 8f f2 3d 3b 43 e5 3d
       0.1294696 0.2651701 0.11843692 0.11194464
000380 fd 8d f5 3d 25 36 c4 bd 4d 9f d6 bd a7 73 dd bd
       0.11989973 -0.0958064 -0.10479603 -0.108130746
000390 e2 96 61 be c5 7e 48 be e4 c2 e0 3d 1a c0 ba be
       -0.22030213 -0.19579609 0.109746724 -0.36474687
0003a0 78 a4 1e be 17 88 00 bf e4 61 59 bd ed 5b 21 bd
       -0.15492427 -0.50207657 -0.05307187 -0.039394308
0003b0 f9 92 d1 bd 42 d6 10 3d 9a 5b ed bd 80 2a 26 3d
       -0.10233111 0.035360582 -0.11589737 0.040567875
0003c0 4e d5 e1 3c 1c a6 c0 be 13 c0 b2 be a5 e0 9e bd
       0.027567532 -0.3762673 -0.34912166 -0.07757691
0003d0 83 11 17 3e 2d 44 fe bc 43 d4 ef 3d 9e 04 e2 bd
       0.14752774 -0.031038368 0.117104076 -0.11036037
0003e0 ec b4 4e bf eb a8 3c 3e 81 9d 5a be 4d fd f4 bd
       -0.80744815 0.18423812 -0.21349145 -0.11962376
0003f0 a1 e5 64 be 2b aa f4 bd 65 f3 80 be 39 d5 c4 3b
       -0.22353221 -0.119465195 -0.25185695 0.0060068634

fc3.bias f4 [10]
000000 c5 be 8f be 4c 62 9d be 1b 40 15 bc 7e 34 62 3e
       -0.28075233 -0.30739057 -0.009109522 0.22090337
000010 b3 4b c4 bd ad 93 62 bc fd 85 8a bc 69 19 e2 3d
       -0.09584751 -0.013829154 -0.016909594 0.11040003
000020 9c c3 1f 3e 71 34 16 be
       0.15601963 -0.14668442
