HW1_Split_nb/checkpoints/model_origin_12.pt (torch, 250600 bytes, 10 tensors)

conv1.weight f4 [6, 1, 5, 5]
-0.024037672 0.30261928 -0.23089705 0.30995047 0.05583802 0.06606108 0.32630908 0.13443021
0.26999325 0.18822047 -0.2126677 0.014325461 -0.24887744 0.28584382 0.33540463 -0.20634492
-0.42397612 -0.49048212 0.18482457 0.08942595 -0.115473375 -0.40997553 -0.5114145 0.22203518
-0.09400049 0.13156268 0.26723498 0.23934105 -0.5481765 -0.34612653 -0.191775 0.28638577
0.5903424 -0.32354093 -0.5211503 0.030497147 0.117639184 0.29646626 -0.25465065 -0.24416491
-0.3168142 0.38800052 0.43517628 -0.22858174 -0.16526571 -0.12179538 0.18421564 0.40704656
-0.1818981 0.073162615 -0.3608914 -0.04062976 -0.30177823 -0.21584435 -0.17975254 -0.2683754
0.20349829 0.21791469 0.24173325 0.13618381 0.18665908 0.35444844 0.29793888 0.39692694
0.039314035 0.29661587 0.08677283 0.018262643 0.044227958 -0.2765388 0.054786347 -0.17822494
-0.1974588 -0.4406792 -0.17983083 -0.26408744 0.18095702 -0.17236815 0.085493684 -0.24571227
-0.06547138 -0.015126986 0.107407406 0.039443646 -0.101034574 -0.006893368 0.26809627 0.053881455
0.26631463 -0.017656287 0.13543735 0.38828135 -0.10233851 -0.04618303 0.06610389 0.2694166
0.2980603 -0.047642462 -0.16414931 -0.095741175 0.056369573 -0.014490916 -0.10269953 -0.10238915
-0.13200924 0.06893927 0.21135664 -0.04778333 -0.06214518 -0.13388072 0.25289503 0.4244549
0.15210673 -0.06486976 -0.24041516 0.17526694 0.31659195 -0.12717165 -0.04055431 -0.45852184
0.16544831 -0.09067137 -0.12809902 -0.29662812 -0.14054601 -0.107865624 -0.41729417 0.008887871
-0.66055834 -0.5050665 0.18589568 -0.46113145 -2.8630977 -3.2359776 -0.3427043 0.21604979
-0.24593133 -1.947538 -1.3820771 0.42048767 0.38646007 0.34946105 0.032839146 -0.009787309
0.338548 0.33028832 0.22761965 0.19963138 -0.06543188 0.058248654
00000000: a7ea c4bc eaf0 9a3e 4770 6cbe d4b1 9e3e
00000010: 68b6 643d 084b 873d fc11 a73e 13a8 093e
00000020: 8e3c 8a3e debc 403e 90c5 59be 57b5 6a3c
00000030: bad9 7ebe 1f5a 923e 28ba ab3e 154c 53be
00000040: 6613 d9be 7920 fbbe a742 3d3e f424 b73d
00000050: 4e7d ecbd 50e8 d1be 10ec 02bf 315d 633e
00000060: 5483 c0bd 5eb8 063e 06d3 883e d215 753e
00000070: 4c55 0cbf 7f37 b1be aa60 44be 28a1 923e
00000080: ae20 173f 28a7 a5be 1b6a 05bf 27d5 f93c
00000090: d0ec f03d 6dca 973e 9261 82be 5e06 7abe
000000a0: 7935 a2be 01a8 c63e 6dcf de3e 5511 6abe
000000b0: 6a3b 29be db6f f9bd 06a3 3c3e 6868 d03e
000000c0: 7f43 3abe 48d6 953d c2c6 b8be 646b 26bd
000000d0: ad82 9abe 4d06 5dbe 0d11 38be 8068 89be
000000e0: db61 503e 0725 5f3e ec88 773e c573 0b3e
000000f0: 8f23 3f3e 447a b53e 728b 983e 023a cb3e
00000100: c107 213d 09de 973e f4b5 b13d 8a9b 953c
00000110: 6028 353d 7e96 8dbe a667 603d 9980 36be
00000120: a432 4abe b4a0 e1be 9325 38be 7836 87be
00000130: cc4c 393e 4781 30be 5017 af3d ff9b 7bbe
00000140: dc15 86bd 2ed7 77bc 6af8 db3d a98f 213d
00000150: 37eb cebd c3e1 e1bb ea43 893e cdb2 5c3d
00000160: 645a 883e eba3 90bc 17b0 0a3e d0cc c63e
00000170: da96 d1bd 6b2a 3dbd 7a61 873d f9f0 893e
00000180: 5c9b 983e be24 43bd c216 28be f313 c4bd
00000190: c8e3 663d 4f6b 6dbc 2254 d2bd 67b1 d1bd
000001a0: 6e2d 07be 0830 8d3d e06d 583e 74b8 43bd
000001b0: f28b 7ebd 0718 09be 757b 813e 2752 d93e
000001c0: dec1 1b3e 70da 84bd 642f 76be 2d79 333e
000001d0: 5718 a23e 4939 02be 471c 26bd 60c3 eabe
000001e0: 486b 293e e9b1 b9bd 642c 03be a4df 97be
000001f0: 4beb 0fbe a7e8 dcbd 95a7 d5be 6f9e 113c
00000200: 5a1a 29bf 0a4c 01bf 705b 3e3e 6c19 ecbe
00000210: fe3c 37c0 421a 4fc0 f076 afbe 283c 5d3e
00000220: 6cd5 7bbe ed48 f9bf e7e7 b0bf 294a d73e
00000230: 18de c53e 8fec b23e 5782 063d f35a 20bc
00000240: 2a56 ad3e 8d1b a93e 2015 693e 2b6c 4c3e
00000250: 2601 86bd 2496 6e3d

conv1.bias f4 [6]
0.055207834 -0.035842367 -0.09620377 -0.1759233 0.18467885 0.42194685
00000000: 9c21 623d 72cf 12bd 7b06 c5bd 3d25 34be
00000010: 741c 3d3e 6b09 d83e

conv2.weight f4 [16, 6, 5, 5]
0.124229744 -0.092796415 -0.68857557 -0.36447102 0.17384128 -0.062310237 -0.24823512 -0.2933036
-0.14102231 0.07979334 -0.09267674 -0.09328 -0.08796266 0.16125385 0.32671148 -0.16979736
-0.19046518 -0.24516557 0.002737331 0.19944692 -0.11445585 0.0545244 -0.03584748 0.03163672
0.10084453 0.5189052 -0.97689897 -0.6978516 -0.17085224 0.08227098 -0.13402969 -0.8402402
-0.85841846 -0.031072961 0.2357601 -0.54157656 -0.8113492 -1.0147938 0.016930027 0.22494847
-0.25075674 -0.8346992 -1.2302868 -0.09495531 0.077688396 -0.12235421 -0.5588118 -0.8184801
-0.23980145 -0.060088333 -0.09235812 -0.20537055 -0.12163773 0.06669749 0.08066135 -0.15014182
-0.17853543 -0.02184978 0.102518804 0.044388566 -0.24970135 0.17862485 0.037478093 0.11364797
0.12535165 -0.13809247 -0.030904897 0.087958254 0.13482812 0.0034780104 0.103117466 0.10779373
0.2059431 0.16654915 -0.3398619 -0.3248812 -0.23584871 0.055864543 0.08523142 0.10635646
-0.2597935 -0.11934572 0.10461409 0.13454513 0.1239433 -0.08477221 -0.042809647 0.06773449
0.083108686 0.14698471 0.025376482 0.059463166 0.10585825 0.058885783 0.022305666 0.061941955
0.14278498 0.1374105 0.048806764 -0.1756309 0.18015757 -0.08269696 -0.01769068 0.0807229
-0.055616226 0.08455302 0.023125019 0.027023863 0.20690729 0.0069950195 -0.15705025 -0.067825705
-0.39333072 0.1240171 0.16907364 -0.018438725 -0.3757895 -0.33732855 0.17354843 0.1448897
0.1278456 -0.004870629 0.051805086 0.2770324 0.17775273 0.9271476 0.3303499 -0.58803034
-0.6113178 -0.118347585 0.42925024 0.11812092 -0.31100243 -0.29757002 -0.014382549 0.48687127
0.060131732 -0.08635452 -0.23362081 0.08019312 0.24414423 0.08001476 0.004069823 -0.42260867
-0.13510711 -0.14391644 -0.77110803 -0.49415898 0.35514462 0.1779786 0.027047051 -0.0084931245
0.076162644 0.033549733 -0.32437629 -0.17496368 0.07751686 0.279844 0.4744599 -0.19163823
-0.27913705 -0.54155725 -0.07074485 0.51784235 0.4010529 -0.09521071 -0.32695255 -0.101562746
0.12597318 -0.06701092 0.17314176 0.019615155 0.014514557 0.053620204 -0.25282502 -0.16773999
-0.793018 -0.08871601 -0.10014988 0.040246807 -0.2548063 -0.32149687 -0.02864643 0.0070259473
0.101313315 -0.04531329 0.27127495 0.30291876 0.023541136 0.14511138 0.10032604 0.45464042
0.50326604 0.16963196 0.16681398 -0.09299692 0.34966913 0.6485187 -0.15164347 -0.012773922
-0.026425565 0.00813768 0.04319189 -0.25434512 -0.12392619 0.5020502 0.0135322595 -0.101520695
-0.11156479 0.13111845 0.06916889 -0.041456893 -0.12701043 -0.055422086 0.03804457 0.15772466
0.13964128 -0.03717423 -0.06519316 -0.11306271 0.42514607 0.22240016 -0.060167994 0.0061650844
0.08023341 -0.14820218 -0.22714183 -0.08603686 -0.06592602 0.007856255 -0.11209554 -0.15823567
-0.23805544 -0.038970146 0.11152442 -0.12832518 -0.017696487 -0.25624898 -0.08422881 -0.025272418
0.01294245 0.15724307 -0.018453674 -0.05152104 -0.037723057 0.09835676 0.07894898 -0.02627423
-0.07000968 -0.12139433 -0.022888087 -0.25474727 -0.048038743 0.003118044 -0.09136917 -0.0035770524
00000000: 2a6c fe3d 0c0c bebd 7d46 30bf f29b babe
00000010: 7303 323e 0539 7fbd 5931 7ebe e42b 96be
00000020: 2768 10be b16a a33d 4dcd bdbd 9609 bfbd
00000030: c425 b4bd bb1f 253e ba46 a73e 5cdf 2dbe
00000040: 4e09 43be af0c 7bbe cb64 333b d03b 4c3e
00000050: d467 eabd fa54 5f3d cfd4 12bd 8195 013d
00000060: 9487 ce3d f9d6 043f 0d16 7abf 67a6 32bf
00000070: e4f3 2ebe b07d a83d 143f 09be fb19 57bf
00000080: 50c1 5bbf b98c febc 186b 713e c3a4 0abf
00000090: 95b4 4fbf c3e4 81bf d7b0 8a3c e458 663e
000000a0: 3063 80be d9ae 55bf 0a7a 9dbf ee77 c2bd
000000b0: 181b 9f3d d894 fabd 4a0e 0fbf e987 51bf
000000c0: 838e 75be 2f1f 76bd 4126 bdbd a84c 52be
000000d0: 341d f9bd b298 883d c731 a53d c7be 19be
000000e0: fed1 36be 4ffe b2bc 61f5 d13d c9d0 353d
000000f0: b6b1 7fbe 6fe9 363e a182 193d 44c0 e83d
00000100: 2f5c 003e 1d68 0dbe 442c fdbc 7523 b43d
00000110: 6210 0a3e 55ef 633b 402f d33d f6c2 dc3d
00000120: bfe2 523e dc8b 2a3e 6102 aebe d456 a6be
00000130: 5382 71be 38d2 643d d08d ae3d 6ad1 d93d
00000140: a703 85be 876b f4bd e93f d63d 33c6 093e
00000150: fcd5 fd3d 0d9d adbd 2b59 2fbd 61b8 8a3d
00000160: e334 aa3d 2983 163e 57e2 cf3c a68f 733d
00000170: 36cc d83d 3832 713d 5fba b63c d9b6 7d3d
00000180: 3a36 123e 57b5 0c3e 9ae9 473d 96d8 33be
00000190: 3a7b 383e 065d a9bd 0cec 90bc 0c52 a53d
000001a0: d7cd 63bd 222a ad3d ae70 bd3c 2661 dd3c
000001b0: 81df 533e 7a36 e53b c8d1 20be 34e8 8abd
000001c0: a562 c9be adfc fd3d a421 2d3e cf0c 97bc
000001d0: 7b67 c0be 54b6 acbe aeb6 313e f75d 143e
000001e0: f5e9 023e cc99 9fbb 9231 543d 31d7 8d3e
000001f0: d004 363e 8c59 6d3f 9f23 a93e 2889 16bf
00000200: 537f 1cbf 3860 f2bd b0c6 db3e 62e9 f13d
00000210: b63b 9fbe 195b 98be c8a4 6bbc 3147 f93e
00000220: b14c 763d a3da b0bd 4b3a 6fbe 4a3c a43d
00000230: f200 7a3e c7de a33d 265c 853b 2a60 d8be
00000240: 8559 0abe d55e 13be 5667 45bf 6802 fdbe
00000250: 84d5 b53e 0640 363e c791 dd3c bf26 0bbc
00000260: 29fb 9b3d 726b 093d a614 a6be ae29 33be
00000270: 29c1 9e3d b647 8f3e 68ec f23e d03c 44be
00000280: 0deb 8ebe 7fa3 0abf ade2 90bd 5191 043f
00000290: ce56 cd3e d5fd c2bd 5366 a7be 2100 d0bd
000002a0: 1dff 003e 053d 89bd 134c 313e f6af a03c
000002b0: 77ce 6d3c dca0 5b3d 4872 81be 08c4 2bbe
000002c0: 3a03 4bbf bdb0 b5bd 611b cdbd d6d9 243d
000002d0: f975 82be 3d9b a4be ebab eabc eb39 e63b
000002e0: 5b7d cf3d 6e9a 39bd 8de4 8a3e 2b18 9b3e
000002f0: 57d9 c03c 1498 143e bd77 cd3d a1c6 e83e
00000300: 0bd6 003f 00b4 2d3e 49d1 2a3e 2b75 bebd
00000310: d507 b33e 5205 263f 6d48 1bbe b649 51bc
00000320: 6d7a d8bc e753 053c fbe9 303d 8639 82be
00000330: 04cd fdbd 5d86 003f 69b6 5d3c 15ea cfbd
00000340: 157c e4bd ea43 063e 6ba8 8d3d b4ce 29bd
00000350: 060f 02be 4502 63bd 9fd4 1b3d 9382 213e
00000360: 20fe 0e3e 0144 18bd fe83 85bd 6c8d e7bd
00000370: bfac d93e debc 633e b772 76bd 7a04 ca3b
00000380: 6a51 a43d 50c2 17be de97 68be 1834 b0bd
00000390: 3904 87bd 86b7 003c 5992 e5bd 8808 22be
000003a0: cec4 73be 299f 1fbd ea66 e43d ad67 03be
000003b0: 39f8 90bc 1133 83be 2880 acbd 1a08 cfbc
000003c0: 920c 543c 5404 213e 292c 97bc ba07 53bd
000003d0: 7e83 1abd 456f c93d 01b0 a13d 0e3d d7bc
000003e0: 3c61 8fbd 979d f8bd cc7f bbbc 3c6e 82be
000003f0: 46c4 44bd 1958 4c3b c21f bbbd fb6c 6abb

conv2.bias f4 [16]
0.28197148 -0.12252377 -0.05724865 0.13883382 0.1823924 0.15434037 0.241691 0.117254764
-0.10809706 -0.00041996368 -0.13802208 0.38201684 -0.05068278 -0.09356137 0.20909573 0.39721486
00000000: 915e 903e beed fabd 8f7d 6abd 742a 0e3e
00000010: 13c5 3a3e 670b 1e3e d87d 773e 4423 f03d
00000020: fe61 ddbd 922e dcb9 a955 0dbe b697 c33e
00000030: bf98 4fbd 1b9d bfbd 311d 563e bf5f cb3e

fc1.weight f4 [120, 400]
-0.07834388 -0.08633621 -0.14503203 -0.008409794 0.1954644 -0.13894828 0.06459464 -0.24036396
0.007038596 -0.15734953 0.017137693 0.017520629 -0.16320586 0.113559015 -0.37521985 0.10230849
-0.13941696 -0.07658614 0.1120322 -0.17676069 0.17898603 -0.17838806 -0.09988705 -0.16584753
-0.41389087 0.10736336 -0.05420144 0.36334372 0.09360946 -0.40937427 -0.13570915 0.07870056
0.31320456 0.043229606 0.011927354 -0.107983686 -0.1325851 0.4399692 0.07368036 0.22036155
0.15746656 -0.1443592 0.10879425 -0.011381757 -0.17023532 0.18460102 -0.08497864 0.26066756
-0.022194097 -0.074920245 -0.029633911 0.005758104 0.053471643 0.04006061 -0.056501355 -0.007312689
0.014629733 0.003468258 -0.062656105 -0.056721874 -0.0018118835 0.048655167 -0.043838173 -0.04427123
-0.023779884 0.07292118 0.073105246 0.06649542 -0.06034771 -0.042108588 0.013329735 0.013594783
0.012801868 -0.016380906 -0.03170956 0.24416465 0.20634142 0.1371842 0.05602047 0.28677005
0.011759588 0.11129036 0.14316279 -0.13867618 0.09299121 -0.055735055 0.11775757 0.01496787
-0.06528446 0.0676696 0.024678199 0.12968007 0.088603124 0.09710966 0.17693438 -0.058076028
0.06594135 -0.03952053 0.028225625 -0.017533632 -0.049249556 0.018877394 0.022182932 -0.1371339
-0.18317439 -0.23147894 0.0885752 0.04230682 -0.0032544937 -0.3932412 -0.39726436 0.1193521
0.33150196 0.48461008 -0.111025676 -0.30303517 0.02371088 0.08900696 0.26260942 -0.2522268
-0.6103038 0.09226894 -0.3314291 -0.21738887 0.041153513 0.09861713 -0.35582396 0.032324355
-0.19766851 -0.16114956 0.05923759 -0.074872546 0.15171108 0.055896066 -0.058097553 -0.08420858
0.07593145 0.21467742 0.22365421 -0.21581842 -0.35752493 -0.20085971 0.18868083 0.28109467
-0.20404068 -0.12991932 -0.30582845 -0.1774997 0.3479063 -0.4885113 0.1462585 0.07626441
-0.09443759 0.10779778 -0.10455714 0.0011751263 -0.088451475 -0.36480564 -0.11068963 -0.19094159
-0.19577822 -0.029700223 -0.26621825 0.027123818 -0.43324685 -0.16307186 -0.111361876 0.013474701
0.13665703 -0.5370784 -0.04602238 -0.14306873 0.05113805 0.30207518 -0.35958228 0.13783702
0.0625873 -0.0073200124 -0.14952269 -0.1471936 -0.33582947 0.15211582 -0.07711717 -0.006397749
0.044650253 -0.06163712 0.24713308 -0.010158336 -0.15909861 0.101635404 -0.024703957 -0.09799026
-0.10683685 -0.2134753 0.030004382 -0.48192856 -0.37072948 0.05048162 -0.22737302 -0.20773469
0.029147124 -0.023510158 0.0044744313 -0.009705645 -0.05057479 -0.015432454 -0.04672695 0.02480113
0.027667051 -0.046347674 0.006974584 0.013440216 0.03545263 -0.014893268 -0.027023906 -0.03865818
0.041625 -0.033577736 -0.007364005 0.037461102 -0.030775601 0.014471072 -0.016149063 -0.047405023
-0.018173194 -0.09710521 0.107242614 -0.019826885 0.2316963 -0.013046081 0.055112727 0.1448583
-0.17632928 0.15537056 -0.21021947 0.17446926 -0.14417191 0.013093923 -0.08540167 -0.24964759
0.1959794 -0.2571572 -0.1304152 -0.049660023 -0.25435293 0.27114356 -0.28885153 -0.347424
0.057368953 -0.31821525 0.071710646 0.46743023 -0.069340475 -0.14896432 -0.2614837 0.15319867
00000000: c272 a0bd 0ad1 b0bd 4783 14be 3cc9 09bc
00000010: d227 483e 7548 0ebe 324a 843d f821 76be
00000020: 06a4 e63b 3c20 21be 5964 8c3c 6c87 8f3c
00000030: 701f 27be a191 e83d d11c c0be 1d87 d13d
00000040: 52c3 0ebe 32d9 9cbd 2371 e53d c100 35be
00000050: 1d48 373e 5cab 36be 9591 ccbd efd3 29be
00000060: 81e9 d3be 52e1 db3d 5402 5ebd 3008 ba3e
00000070: 51b6 bf3d 8199 d1be 57f7 0abe c22d a13d
00000080: 595c a03e 8711 313d f36a 433c 8d26 ddbd
00000090: 63c4 07be a543 e13e bbe5 963d 75a6 613e
000000a0: ea3e 213e e6d2 13be 85cf de3d 8d7a 3abc
000000b0: 2b52 2ebe 0d08 3d3e 4809 aebd 3876 853e
000000c0: 65d0 b5bc c96f 99bd d1c2 f2bc 7aae bc3b
000000d0: 1505 5b3d 9816 243d f76d 67bd 489f efbb
000000e0: 8cb1 6f3c b74b 633b d851 80bd 3255 68bd
000000f0: b97c edba a44a 473d a88f 33bd c055 35bd
00000100: 08ce c2bc b357 953d 34b8 953d c02e 883d
00000110: 292f 77bd 0e7a 2cbd f664 5a3c a7bc 5e3c
00000120: edbe 513c 4031 86bc e2e1 01bd 4c06 7a3e
00000130: 2a4b 533e 047a 0c3e b875 653d 86d3 923e
00000140: 49ab 403c 33ec e33d 4499 123e 2101 0ebe
00000150: 2d72 be3d 714a 64bd e22a f13d cc3b 753c
00000160: dcb3 85bd 5c96 8a3d ef29 ca3c daca 043e
00000170: 8e75 b53d 6ee1 c63d 492e 353e 21e1 6dbd
00000180: 420c 873d 47e0 21bd 6d39 e73c b1a2 8fbc
00000190: e7b9 49bd c4a4 9a3c fbb8 b53c d46c 0cbe
000001a0: 1192 3bbe d108 6dbe ea66 b53d eb49 2d3d
000001b0: 5849 55bb e956 c9be 3c66 cbbe e06e f43d
000001c0: a0ba a93e d01e f83e 6e61 e3bd 6d27 9bbe
000001d0: 523d c23c 4849 b63d be74 863e df23 81be
000001e0: df3c 1cbf 7ff7 bc3d 13b1 a9be 309b 5ebe
000001f0: 9690 283d c7f7 c93d 8f2e b6be 8b66 043d
00000200: 9d69 4abe 6404 25be 1da3 723d c756 99bd
00000210: 265a 1b3e 46f3 643d b3f7 6dbd 8c75 acbd
00000220: f381 9b3d 66d4 5b3e 9c05 653e 81ff 5cbe
00000230: 820d b7be 2bae 4dbe 8c35 413e a4eb 8f3e
00000240: 0af0 50be 9209 05be 8c95 9cbe 7bc2 35be
00000250: c620 b23e 271e fabe cac4 153e 8430 9c3d
00000260: 7f68 c1bd 15c5 dc3d 0e22 d6bd b206 9a3a
00000270: 0c26 b5bd cec7 babe 3fb1 e2bd 3186 43be
00000280: 167a 48be e24d f3bc c24d 88be c532 de3c
00000290: 88d2 ddbe 4ffc 26be b211 e4bd fec4 5c3c
000002a0: d2ef 0b3e f87d 09bf f781 3cbd 9c80 12be
000002b0: 2276 513d 99a9 9a3e 2b1b b8be 2625 0d3e
000002c0: c52d 803d b7dc efbb 7a1c 19be ebb9 16be
000002d0: d7f1 abbe 40c4 1b3e 9bef 9dbd 35a4 d1bb
000002e0: 2fe3 363d 3477 7cbd 7410 7d3e 266f 26bc
000002f0: bfea 22be 3926 d03d f45f cabc 1eaf c8bd
00000300: 47cd dabd 4599 5abe c0cb f53c 57bf f6be
00000310: 41d0 bdbe d1c5 4e3d 79d4 68be 67b8 54be
00000320: f3c5 ee3c 6098 c0bc 409e 923b 6d04 1fbc
00000330: 8327 4fbd 67d8 7cbc c264 3fbd bd2b cb3c
00000340: 03a6 e23c 0fd7 3dbd 0d8b e43b 5a34 5c3c
00000350: c736 113d e502 74bc 3d61 ddbc 0a58 1ebd
00000360: fa7e 2a3d cf88 09bd c04d f1bb d070 193d
00000370: 1d1d fcbc 1318 6d3c 0a4b 84bc c52b 42bd
00000380: f3df 94bc 19df c6bd 04a2 db3d fe6b a2bc
00000390: cb41 6d3e 3bbf 55bc e2bd 613d bc55 143e
000003a0: aa8f 34be 7619 1f3e c643 57be 12a8 323e
000003b0: cda1 13be e587 563c 12e7 aebd 9ea3 7fbe
000003c0: d3ae 483e 1caa 83be 908b 05be 4f68 4bbd
000003d0: 8c3a 82be 54d3 8a3e 59e4 93be 8fe1 b1be
000003e0: b5fb 6a3d 1ced a2be 08dd 923d 0453 ef3e
000003f0: 6102 8ebd 1a8a 18be 31e1 85be 1de0 1c3e

fc1.bias f4 [120]
0.05369877 0.1728839 0.119889 0.08424563 -0.059508603 -0.04996746 -0.0309396 -0.024498949
-0.067785256 -0.018883906 -0.025709564 -0.048047435 0.1708182 0.22520788 -0.026859578 -0.01820266
-0.007173473 0.117730014 0.15478322 0.102556735 -0.05465794 -0.04312192 -0.081391826 0.09183692
-0.06776604 0.00041175945 0.05164579 0.08607032 0.0327814 0.16787355 -0.089472204 -0.045832295
0.24365999 -0.06084415 -0.06236417 -0.055773348 -0.0030292145 -0.018300043 0.08974072 0.11313192
-0.029439054 0.09079962 0.1238012 0.10878626 -0.026550252 -0.20086108 -0.05485534 -0.07057941
0.06260987 -0.0104547 0.1349841 -0.07581994 0.1972147 0.10346945 -0.008551011 0.04191221
-0.011849625 -0.015474054 0.05830608 -0.032710884 0.07327939 -0.015211992 0.15095332 -0.09787763
-0.047903795 -0.074071385 -0.07095036 0.2272213 0.06429541 0.1344715 -0.083164155 0.0772019
0.14021987 0.08948669 0.014215707 0.1596091 0.18114156 0.044105183 -0.04978654 0.039739046
-0.0120581025 -0.03153099 -0.030414527 0.19137235 0.28245375 -0.09097768 -0.061161354 -0.040890586
0.059138887 -0.13156086 0.21045916 -0.14066269 0.15423465 0.17416136 -0.047917068 0.23213205
-0.054012846 0.11269399 -0.010228814 -0.019715905 -0.00819998 0.14071049 -0.012686449 -0.035122294
-0.06617028 0.10326753 0.09445941 0.0796911 0.2393916 -0.12530516 0.13843414 0.038247827
0.19680627 0.22227143 0.17543529 0.17984745 -0.06119531 -0.051693723 0.08753469 0.2576882
00000000: 3ef3 5b3d 7a08 313e 5d88 f53d f988 ac3d
00000010: 4bbf 73bd aeaa 4cbd 0b75 fdbc 05b2 c8bc
00000020: ffd2 8abd 6cb2 9abc dd9c d2bc 63cd 44bd
00000030: f7ea 2e3e e59c 663e 9e08 dcbc bf1d 95bc
00000040: 740f ebbb 6f1c f13d 7e7f 1e3e 4409 d23d
00000050: 01e1 5fbd 9ca0 30bd c2b0 a6bd ff14 bc3d
00000060: ecc8 8abd 6be1 d739 898a 533d a345 b03d
00000070: ca45 063d 0be7 2b3e 343d b7bd a5ba 3bbd
00000080: 0182 793e b737 79bd 9271 7fbd 9872 64bd
00000090: c985 46bb f9e9 95bc fcc9 b73d b5b1 e73d
000000a0: 2c2a f1bc 27f5 b93d 7c8b fd3d 55cb de3d
000000b0: ea7f d9bc 87ae 4dbe feaf 60bd f08b 90bd
000000c0: 9b39 803d 314a 2bbc 4639 0a3e 7c47 9bbd
000000d0: a6f2 493e cae7 d33d 8a19 0cbc 23ac 2b3d
000000e0: ee24 42bc e386 7dbc 5bd2 6e3d d9fb 05bd
000000f0: 8113 963d b83b 79bc 8293 1a3e 1174 c8bd
00000100: c536 44bd bdb2 97bd 6c4e 91bd b3ac 683e
00000110: 50ad 833d e6b2 093e f851 aabd 081c 9e3d
00000120: cc95 0f3e cc44 b73d ffe8 683c 9170 233e
00000130: 2c7d 393e a3a7 343d f9ec 4bbd 69c5 223d
00000140: 598f 45bc a426 01bd e327 f9bc 1df7 433e
00000150: c79d 903e 8252 babd 5484 7abd e37c 27bd
00000160: 9e3b 723d e4b7 06be 9b82 573e e109 10be
00000170: b0ef 1d3e 5b57 323e b044 44bd 06b4 6d3e
00000180: 933c 5dbd 1bcc e63d c196 27bc 4083 a1bc
00000190: 3559 06bc 6916 103e d3da 4fbc 65dc 0fbd
000001a0: 4984 87bd ed7d d33d ef73 c13d 1635 a33d
000001b0: 1223 753e ff4f 00be aec1 0d3e c1a9 1c3d
000001c0: 9587 493e 1f9b 633e 4fa5 333e ee29 383e
000001d0: efa7 7abd ccbc 53bd 6345 b33d b5ef 833e

fc2.weight f4 [84, 120]
-0.037714396 0.28513792 0.040600352 0.33524254 -0.05238088 -0.036336202 -0.025293224 0.008464873
-0.0005008673 -0.018096985 -0.083665706 -0.051037177 0.15635748 0.2286979 -0.53176963 -0.017959792
-0.30905944 -0.78109086 0.11793933 0.46870184 0.0037081116 -0.058193173 0.0069423257 -0.36391953
-0.10515794 0.059792086 -0.06264689 0.17847952 0.17018344 0.33507985 0.16681312 0.030804189
-0.103655554 0.009371059 0.11800885 -0.08235403 -0.0377942 -0.24659434 0.46395928 0.18283878
-0.0659588 0.23268564 -0.35497755 -0.14372249 -0.08998532 -0.48593226 0.045386516 0.056081753
-0.27108318 -0.21754675 -0.12817915 0.10654445 0.24214323 0.023207162 -0.47442943 0.21532649
0.41672558 0.1772984 0.07241581 0.03577456 -0.33358288 0.017022243 0.21687375 0.017798405
0.061758067 0.13290988 -0.120242976 0.24038024 -0.017887829 -0.11345825 -0.46199426 0.03453337
-0.5567977 0.06242452 0.05471647 -0.0898862 -0.22899956 -0.00074502255 -0.008383548 0.41623947
-0.07520163 -0.074259356 0.2006913 -0.060340457 0.07298223 0.11255522 -0.25064427 -0.60231936
0.20072286 0.054440435 -0.22278139 -0.00844989 0.053378277 0.36742237 -0.08421752 -0.11291697
0.08953267 0.0009573744 -0.021928197 -0.038277403 -0.0883503 -0.3250184 0.083511926 -0.2171997
-0.055699263 0.27667132 0.23598921 -0.21782051 -0.5449324 -0.057209227 -0.4554832 0.10804318
0.42693764 0.4410589 0.36253837 0.20870987 0.0014935291 0.10182026 0.22952557 -0.8238642
0.11465306 0.021650651 -0.1300584 -0.23393175 -0.0026146285 0.019644959 0.026469486 0.05039661
-0.0350236 0.06970572 -0.07901338 0.03692495 -0.03651652 0.11208113 0.13161153 -0.04668788
0.0020395578 0.41276637 0.25901023 -0.43809134 -0.081973 0.05544281 -0.0035136684 0.35171193
-0.079608165 -0.07449647 0.25276333 0.4383137 -0.43231967 0.23237123 -0.044271935 0.0402081
0.22009307 0.0069602295 0.09325629 0.0925839 -0.042975307 -0.022908725 -0.15628669 -0.1742727
0.08849705 0.052399434 0.20326154 0.30926684 -0.0675913 0.1829499 -0.03354796 0.051160343
0.105323866 0.28484654 -0.13781519 0.0064528636 -0.10269368 -0.29184115 -0.21871409 -0.044583652
-0.18284793 -0.19841418 0.23387495 0.06189354 -0.11118135 -0.009579102 -0.033984743 0.048773393
-0.38361645 0.054414127 -0.10521032 0.11415536 -0.4373652 -0.08175897 0.089513294 0.22617158
0.34779963 0.14546248 -0.47882828 0.109995954 -0.0074692583 -0.11120988 -0.016600039 0.050424393
-0.014007865 0.08763449 0.2053338 -0.33006728 -0.13658853 -0.332682 0.20344073 0.16480531
-0.06497216 -0.0073796953 -0.19871964 -0.19426177 0.38472986 0.10991256 0.04224416 -0.07235504
0.078802094 -0.20947924 -0.06808251 -0.038557254 -0.8431185 0.24735437 0.03986617 -0.18819769
0.07881718 0.18177187 0.121281534 0.16697751 0.18166615 -0.2709572 -0.04304611 -0.123164974
0.07791905 -0.0234488 -0.14063096 0.0141643975 -0.13372537 -0.014597199 0.23043501 -0.18950102
-0.2793752 0.0576896 -0.13270399 -0.08850348 0.036102824 0.02428334 -0.022241564 0.00072539394
0.009681233 0.06737335 -0.056253437 0.02827422 -0.028833454 -0.2628355 -0.22105768 -0.059877142
00000000: 697a 1abd 99fd 913e 8e4c 263d e9a4 ab3e
00000010: 558d 56bd 45d5 14bd bc33 cfbc 40b0 0a3c
00000020: a34c 03ba 2140 94bc ed58 abbd 5c0c 51bd
00000030: 2d1c 203e c82f 6a3e 0e22 08bf 6a20 93bc
00000040: 0a3d 9ebe 92f5 47bf 2d8a f13d b0f9 ef3e
00000050: ca03 733b f75b 6ebd 737c e33b a953 babe
00000060: 0c5d d7bd 8ce8 743d 034d 80bd 56c3 363e
00000070: 9144 2e3e 968f ab3e 0fd1 2a3e 1159 fc3c
00000080: 5d49 d4bd 1289 193c a0ae f13d 3ba9 a8bd
00000090: 17ce 1abd 3a83 7cbe 128c ed3e 173a 3b3e
000000a0: 6815 87bd 2545 6e3e 9ebf b5be fd2b 13be
000000b0: 394a b8bd 1dcc f8be 36e7 393d fbb5 653d
000000c0: 6acb 8abe 93c4 5ebe 6541 03be fa33 da3d
000000d0: 65f4 773e f21c be3c 6ae8 f2be 8c7e 5c3e
000000e0: 0e5d d53e b68d 353e bd4e 943d 5888 123d
000000f0: 60cb aabe 3b72 8b3c 2714 5e3e f6cd 913c
00000100: 07f6 7c3d 8719 083e f341 f6bd 3d26 763e
00000110: 7f89 92bc cd5c e8bd 838a ecbe dd72 0d3d
00000120: 4b8a 0ebf dab0 7f3d 611e 603d 4216 b8bd
00000130: dc7e 6abe 9e4d 43ba 265b 09bc 571d d53e
00000140: 5003 9abd 4a15 98bd 0582 4d3e 8e27 77bd
00000150: b577 953d 5a83 e63d 7254 80be 9a31 1abf
00000160: 4b8a 4d3e effc 5e3d ce20 64be 6871 0abc
00000170: 2ea3 5a3d c91e bc3e 3c7a acbd 0341 e7bd
00000180: e85c b73d 4ff8 7a3a c3a2 b3bc c4c8 1cbd
00000190: 01f1 b4bd d068 a6be 4d08 ab3d 9969 5ebe
000001a0: e924 64bd dda7 8d3e 28a7 713e 570c 5fbe
000001b0: b180 0bbf 3954 6abd 1835 e9be be45 dd3d
000001c0: 9297 da3e 79d2 e13e a19e b93e 0ab8 553e
000001d0: 85c2 c33a 2487 d03d c008 6b3e c4e8 52bf
000001e0: 39cf ea3d b55c b13c 072e 05be ce8b 6fbe
000001f0: 305a 2bbb 77ee a03c 89d6 d83c ad6c 4e3d
00000200: e874 0fbd dfc1 8e3d c4d1 a1bd 9e3e 173d
00000210: 5992 15bd cb8a e53d 2cc5 063e ca3b 3fbd
00000220: 1aaa 053b 1d56 d33e fd9c 843e 824d e0be
00000230: 76e1 a7bd 0018 633d 9345 66bb 9613 b43e
00000240: 9b09 a3bd 9b91 98bd 326a 813e a76a e03e
00000250: 0159 ddbe b9f2 6d3e 7d56 35bd 40b1 243d
00000260: 1460 613e a312 e43b 27fd be3d a19c bd3d
00000270: e006 30bd 14ab bbbc 9e09 20be 8b74 32be
00000280: f13d b53d caa0 563d cb23 503e 3958 9e3e
00000290: 4f6d 8abd 3857 3b3e 9669 09bd 828d 513d
000002a0: 0ab4 d73d 68d7 913e 6d1f 0dbe 8b72 d33b
000002b0: 1051 d2bd 346c 95be 96f6 5fbe 599d 36bd
000002c0: 7d3c 3bbe 162d 4bbe ea7c 6f3e 1584 7d3d
000002d0: 0cb3 e3bd aaf1 1cbc 9633 0bbd 9cc6 473d
000002e0: 6069 c4be 59e1 5e3d 8278 d7bd 49ca e93d
000002f0: 55ee dfbe 3f71 a7bd bf52 b73d 8699 673e
00000300: cb12 b23e 1ef4 143e fb28 f5be 8f45 e13d
00000310: aec0 f4bb 01c2 e3bd cefc 87bc cf89 4e3d
00000320: 3f81 65bc b679 b33d 0643 523e 94fe a8be
00000330: dddd 0bbe 4c55 aabe c452 503e b9c2 283e
00000340: 2010 85bd 5fd1 f1bb 297d 4bbe 8fec 46be
00000350: 50fb c43e d619 e13d 3608 2d3d e12e 94bd
00000360: fe62 a13d ba81 56be d86e 8bbd 36ee 1dbd
00000370: 9dd6 57bf 774a 7d3e b64a 233d e5b6 40be
00000380: e76a a13d 6822 3a3e 7462 f83d 27fc 2a3e
00000390: b106 3a3e e7ba 8abe 1e51 30bd eb3d fcbd
000003a0: 0694 9f3d b317 c0bc 9001 10be ca11 683c
000003b0: 4eef 08be 1729 6fbc 28f7 6b3e 8e0c 42be
000003c0: 440a 8fbe ee4b 6c3d 8ee3 07be 5041 b5bd
000003d0: 8ee0 133d dbed c63c f133 b6bc 5d28 3e3a
000003e0: 099e 1e3c 0afb 893d 016a 66bd 569f e73c
000003f0: 2334 ecbc 6092 86be f25c 62be bc41 75bd

fc2.bias f4 [84]
0.32909697 0.1296231 0.20807305 -0.0013634032 0.3828055 0.18588544 -0.29975843 -0.11417237
0.13459323 0.04077116 0.23210762 0.3480217 -0.14284205 -0.14431612 -0.20315863 0.008572378
0.097268224 0.18814474 -0.09335577 -0.10875508 -0.18442449 -0.1887523 -0.005733191 0.3683282
0.32765096 0.22921926 0.35161033 -0.24054368 0.065955125 -0.32366982 -0.14793433 0.041151106
0.117939726 0.053033326 0.3294053 0.3135232 -0.18657386 -0.17796019 0.018229343 0.2714671
-0.08286395 0.03642707 0.20831835 0.1345485 0.36809415 -0.12525243 0.108469374 0.35484415
-0.12401882 -0.018185332 -0.14484556 -0.13751894 -0.05404381 -0.22752559 0.4090937 -0.1735952
0.16362779 0.22220571 -0.09863162 0.089591734 -0.22976281 0.27144337 0.29913053 -0.20360884
0.1463235 0.09626825 0.015111391 -0.08447808 0.077559985 0.15018325 0.2478769 -0.19424391
-0.15159756 -0.042661943 0.22148053 0.034430686 0.0542973 -0.09781819 0.19542372 0.17876956
-0.14950033 0.06861757 -0.16995728 0.20744307
00000000: 667f a83e ebbb 043e 1a11 553e 38b4 b2ba
00000010: 15ff c33e c158 3e3e f079 99be 34d3 e9bd
00000020: cfd2 093e a9ff 263d 9fad 6d3e e62f b23e
00000030: 3045 12be 9bc7 13be d108 50be 2973 0c3c
00000040: 9034 c73d 04a9 403e 4f31 bfbd fcba debd
00000050: c6d9 3cbe 4848 41be 7edd bbbb 8495 bc3e
00000060: dec1 a73e 74b8 6a3e 4506 b43e 1551 76be
00000070: 7b13 873d 0db8 a5be 197c 17be 108e 283d
00000080: 628a f13d 7939 593d d0a7 a83e 1d86 a03e
00000090: 380d 3fbe 323b 36be b455 953c bcfd 8a3e
000000a0: 93b4 a9bd 8d34 153d 6851 553e 15c7 093e
000000b0: d676 bc3e 2c42 00be 3125 de3d 22ae b53e
000000c0: 94fd fdbd 68f9 94bc 6552 14be c4d1 0cbe
000000d0: 0b5d 5dbd 78fc 68be bb74 d13e f1c2 31be
000000e0: 0b8e 273e e589 633e 60ff c9bd df7b b73d
000000f0: f146 6bbe a0fa 8a3e a327 993e d67e 50be
00000100: d4d5 153e 4a28 c53d c595 773c d802 adbd
00000110: c5d7 9e3d a3c9 193e 71d3 7d3e e0e7 46be
00000120: 643c 1bbe 4abe 2ebd cbcb 623e 3107 0d3d
00000130: d866 5e3d e754 c8bd 281d 483e 5e0f 373e
00000140: 9d16 19be 5e87 8c3d 4809 2ebe f56b 543e

fc3.weight f4 [10, 84]
-0.10912418 0.2015299 0.024309563 0.10991046 -0.10014373 0.16881813 0.03182333 -0.19451821
-0.10854429 0.012770355 0.18962015 0.11241019 -0.017406894 -0.044410337 0.22244027 0.030639412
0.04833493 -0.35389614 -0.020329116 -0.042013735 -0.008775731 0.038572446 -0.07280834 -0.11202412
-0.17521429 -0.24392788 0.16945535 0.06486895 -0.9138865 -0.015405487 -0.08715377 0.060852833
-0.39385802 -0.3771915 0.11926579 -0.19799677 0.048016153 -0.15834998 0.12638132 0.05697572
0.05753102 0.16321114 0.13973211 -0.8626885 -0.057588108 -0.044647895 0.07780492 -0.17220028
-0.16750517 0.12999032 -0.11412705 -0.058693282 -0.32967713 -0.6111631 -0.16002645 0.049515706
0.06627403 0.16893846 0.001672792 -0.18244542 0.19578595 -0.06004166 0.12697357 -0.01769155
0.25239167 0.16421434 -0.054632515 0.054130133 -0.4057554 -0.35564533 -0.3087456 -0.099698946
-0.04151406 -0.07161051 -0.2832133 -0.10749068 -0.48510975 -0.53432065 -0.3395393 -0.499368
-0.1652165 0.18010691 -0.006209889 0.06096354 0.50765836 -0.2949327 -0.35881737 0.3377823
-0.19365303 -0.5891127 -0.6195978 -0.2936048 -0.106527686 0.037128735 -0.08295236 0.19159655
-0.112139754 -0.044868812 -0.30617473 0.031895723 0.009936842 0.025344362 -0.112174995 -0.5112746
-0.0023088346 0.27365175 0.46770296 -0.59792554 -0.55541074 -0.17213327 -0.6570315 0.10099823
-0.610512 -0.2065872 -0.015117611 -0.009580587 -0.50320035 -0.51420194 -0.40931025 0.05127021
-0.24400407 -0.12756911 0.1699779 -0.3528732 0.12239667 0.1495486 -0.2779748 -0.15880325
-0.52000684 -0.22813295 -0.51386416 -0.7586782 0.35066915 0.14434384 0.00013980758 -0.039559968
0.04704612 0.057636768 -0.06719281 0.12601283 0.056202292 -0.6667907 -0.14976093 -0.36239558
-0.4847672 -0.3742997 -0.45570907 -0.276463 -0.68331313 -0.5918717 0.22534426 -0.09092067
-0.99676454 -0.25724837 -0.0585504 -0.21118392 -0.087107494 0.2808775 0.20067468 0.38165802
0.066723295 -0.21146256 -0.27087787 0.0016436613 -0.105929755 -0.30803913 -0.00023618952 -0.25407228
-0.010689497 -0.5016884 -0.055710208 -0.28672275 0.0914305 0.15327068 -0.23309483 0.22683568
-0.22452618 -0.44553396 0.2082881 -0.78481746 -0.19941345 -0.15755345 -0.30319202 0.15867037
-0.34510627 0.10826976 -0.0011922428 0.07482409 -0.02712372 -0.79675907 -0.014278153 -0.045446
0.14500809 -0.08832563 0.024992628 0.05434662 -0.14944525 0.55386055 0.06829757 0.061364762
-0.27699956 0.18738264 0.079986006 0.045870896 -0.12199495 0.01688976 -0.21330248 -0.18626037
0.10975975 -0.17193864 -0.24299327 0.09402052 0.02499075 -0.11336685 0.17030662 -0.05280247
-0.2805567 -0.39840162 -0.060003556 -0.025430303 -0.2298076 -0.29228076 0.0044421316 0.15045708
0.13335447 0.1222406 -0.013444543 -0.07602428 -0.40337753 0.11173529 -0.4332647 -0.12248527
0.0034046746 0.20423944 -0.15722333 -0.120450564 -0.08988323 -0.1352218 -0.1303973 0.011821652
-0.086937435 -0.513153 0.05708398 -0.39740127 0.07761183 -0.2113594 -0.057937417 -0.22001894
-0.09618733 0.057800297 -0.13885352 -0.024447322 -0.1828589 0.0532518 -0.81491137 -0.15099314
00000000: 807c dfbd db5d 4e3e d924 c73c bc18 e13d
00000010: 2818 cdbd a9de 2c3e 2e59 023d c82f 47be
00000020: 784c debd c03a 513c c92b 423e 5037 e63d
00000030: e798 8ebc 9de7 35bd 62c7 633e 81ff fa3c
00000040: d9fa 453d e031 b5be 3f89 a6bc 9816 2cbd
00000050: 15c8 0fbc 24fe 1d3d 8a1c 95bd e76c e5bd
00000060: 606b 33be 3bc8 79be b485 2d3e 03da 843d
00000070: 77f4 69bf 4c67 7cbc ad7d b2bd d240 793d
00000080: c2a7 c9be 3f1f c1be 9f41 f43d aabf 4abe
00000090: 96ac 443d 7f26 22be 1b6a 013e 5f5f 693d
000000a0: a6a5 6b3d d220 273e ef15 0f3e 27d9 5cbf
000000b0: 82e1 6bbd b6e0 36bd 3058 9f3d 4555 30be
000000c0: 7a86 2bbe 2f1c 053e 71bb e9bd 5e68 70bd
000000d0: 71cb a8be 2f75 1cbf f9dd 23be fbd0 4a3d
000000e0: aeba 873d 34fe 2c3e 9641 db3a f9d2 3abe
000000f0: 1d7c 483e 3eee 75bd 5c05 023e dfed 90bc
00000100: 7b39 813e ce27 283e 58c6 5fbd 8fb7 5d3d
00000110: 2cbf cfbe 2517 b6be e713 9ebe f62e ccbd
00000120: a60a 2abd 88a8 92bd 5501 91be 1324 dcbd
00000130: 4e60 f8be 3dc9 08bf 18d8 adbe 2aad ffbe
00000140: 842e 29be f26d 383e 537c cbbb e8b4 793d
00000150: e6f5 013f 6b01 97be e9b6 b7be cdf1 ac3e
00000160: fb4c 46be 17d0 16bf f69d 1ebf 5e53 96be
00000170: 302b dabd 4d14 183d ede2 a9bd e331 443e
00000180: 87a9 e5bd 5cc8 37bd efc2 9cbe 17a5 023d
00000190: 23ce 223c fb9e cf3c 01bc e5bd e4e2 02bf
000001a0: d14f 17bb 151c 8c3e c376 ef3e a611 19bf
000001b0: 662f 0ebf b443 30be 3733 28bf 29d8 ce3d
000001c0: 844a 1cbf 988b 53be dbaf 77bc e5f7 1cbc
000001d0: bdd1 00bf bda2 03bf 1d91 d1be b600 523d
000001e0: 34dc 79be 7aa1 02be b00e 2e3e ccab b4be
000001f0: 1bab fa3d 4523 193e b752 8ebe 529d 22be
00000200: 2b1f 05bf af9b 69be 9a8c 03bf bc38 42bf
00000210: e88a b33e dfce 133e 5099 1239 a209 22bd
00000220: 6fb3 403d 8814 6c3d 629c 89bd 8209 013e
00000230: 6034 663d ccb2 2abf ee5a 19be ea8b b9be
00000240: 6833 f8be 36a4 bfbe b352 e9be 8f8c 8dbe
00000250: 9ced 2ebf e784 17bf a5c0 663e 9e34 babd
00000260: f62b 7fbf 0fb6 83be 8bd2 6fbd 9940 58be
00000270: 6a65 b2bd 2dcf 8f3e aa7d 4d3e ae68 c33e
00000280: 39a6 883d a489 58be 81b0 8abe 1f70 d73a
00000290: b3f1 d8bd 4eb7 9dbe a4a9 77b9 c315 82be
000002a0: 0023 2fbc a76e 00bf 6330 64bd 53cd 92be
000002b0: ea3f bb3d fdf2 1c3e 69b0 6ebe 9d47 683e
000002c0: 31ea 65be 071d e4be 7a49 553e cce9 48bf
000002d0: 0a33 4cbe b155 21be fc3b 9bbe 7c7a 223e
000002e0: c5b1 b0be 89bc dd3d 0845 9cba 5f3d 993d
000002f0: 9032 debc 67f8 4bbf eaee 69bc 9625 3abd
00000300: 007d 143e 11e4 b4bd 57bd cc3c 909a 5e3d
00000310: 2d08 19be cec9 0d3f 99df 8b3d 9e59 7b3d
00000320: e3d2 8dbe 3ce1 3f3e b4cf a33d 1fe3 3b3d
00000330: 7dd8 f9bd 655c 8a3c f76b 5abe 0abb 3ebe
00000340: b8c9 e03d af10 30be 3ad3 78be d58d c03d
00000350: 67b9 cc3c e12c e8bd dc64 2e3e 6747 58bd
00000360: 21a5 8fbe 4cfb cbbe 4ac6 75bd 3653 d0bc
00000370: af52 6bbe d3a5 95be 4d8f 913b 6c11 1a3e
00000380: 138e 083e 4859 fa3d 8046 5cbc 9eb2 9bbd
00000390: 8087 cebe 79d5 e43d dfd4 ddbe 8fd9 fabd
000003a0: f620 5f3b 2524 513e 27ff 20be c9ae f6bd
000003b0: b314 b8bd 9577 0abe df86 05be 9aaf 413c
000003c0: 410c b2bd ff5d 03bf e4d0 693d 2e78 cbbe
000003d0: f3f2 9e3d 996e 58be c94f 6dbd a54c 61be
000003e0: ddfd c4bd 01c0 6c3d 9e2f 0ebe c045 c8bc
000003f0: 5d3f 3bbe 8f1e 5a3d 089e 50bf f29d 1abe

fc3.bias f4 [10]
-0.1966697 -0.47672594 -0.0668797 0.18549472 -0.18253662 -0.003010503 0.17993468 0.07374642
0.24657635 -0.16741142
00000000: c863 49be 6c15 f4be 39f8 88bd 54f2 3d3e
00000010: e1ea 3abe dc4b 45bb cc40 383e 5d08 973d
00000020: 837e 7c3e e66d 2bbe
