HW1_Split_nb/checkpoints/model_origin_5.pt (torch, 250586 bytes, 10 tensors)

conv1.weight f4 [6, 1, 5, 5]
0	0xbd899082	-0.06717016
1	0x3e95e4af	0.29276034
2	0xbe1c6c09	-0.15275587
3	0x3e9d7e39	0.30760363
4	0x3dba47d0	0.090957284
5	0x3ca93ab8	0.020657882
6	0x3e7965a2	0.24355176
7	0x3dbbdb18	0.09172648
8	0x3e568c43	0.20951943
9	0x3e402a34	0.18766099
10	0xbe2e6fdc	-0.17034858
11	0x3d92761e	0.07151435
12	0xbe557eff	-0.20849226
13	0x3e57ffc0	0.21093655
14	0x3e81ad85	0.25327697
15	0xbe0d1b1f	-0.13779877
16	0xbe8423e7	-0.2580864
17	0xbeaae380	-0.33376694
18	0x3e235576	0.1595057
19	0x3d4dc012	0.050232
20	0xbe2973b7	-0.16548048
21	0xbea23450	-0.31680536
22	0xbede8c3c	-0.43466365
23	0x3e07ec82	0.13273814
24	0xbe0d8ed9	-0.13824023
25	0x3e3a1184	0.18170744
26	0x3e55f7a0	0.20895243
27	0x3dcb9ff2	0.099426165
28	0xbee088e5	-0.43854442
29	0xbedea026	-0.4348156
30	0xbdeba2dd	-0.11505673
31	0x3e6e5c5c	0.2327742
32	0x3ed2b212	0.41151482
33	0xbe4251cc	-0.18976516
34	0xbefd4990	-0.49470186
35	0x3dc191c7	0.09451633
36	0x3dc3cac5	0.095601596
37	0x3e1da9e3	0.15396838
38	0xbe1a2b78	-0.15055645
39	0xbe7fc33b	-0.24976818
40	0xbe846ba1	-0.25863364
41	0x3ecd0a42	0.4004689
42	0x3ea3d16b	0.3199571
43	0xbe21a0ce	-0.15783998
44	0xbe5fe04f	-0.2186291
45	0xbd6d9644	-0.058004633
46	0x3e795d6f	0.24352048
47	0x3eb92519	0.36161116
48	0xbdbb753e	-0.091532215
49	0x3d158ca9	0.036511097
50	0xbe1ed5bf	-0.15511225
51	0x3d47895c	0.04871498
52	0xbe4c343e	-0.19941804
53	0xbe4d10b7	-0.20025907
54	0xbde8503e	-0.1134343
55	0xbd80925f	-0.06277918
56	0x3e82213a	0.25415975
57	0x3e4ce9cb	0.2001106
58	0x3d6469e2	0.05576504
59	0xbd65653b	-0.056004744
60	0x3e00b05a	0.12567273
61	0x3e996d4b	0.29966196
62	0x3e503378	0.20332134
63	0x3e533666	0.2062622
64	0xbda7d063	-0.081940435
65	0x3e46a606	0.1939927
66	0x3dc9211a	0.09820767
67	0x3df4beaa	0.11950429
68	0x3dd5c2f6	0.104375765
69	0xbe445b6d	-0.19175501
70	0x3d097242	0.03355623
71	0xbd818703	-0.063245796
72	0xbbdc6a6d	-0.006726554
73	0xbe939149	-0.2882178
74	0xbe13cabd	-0.14432807
75	0xbe55c475	-0.20875724
76	0x3e504223	0.20337729
77	0xbe17380c	-0.14767474
78	0x3da3c782	0.079970375
79	0xbe43b0c9	-0.19110407
80	0xbcdc3381	-0.026880028
81	0xbd72a16c	-0.059235975
82	0x3d9595dd	0.07303975
83	0x3c1a73fa	0.009427065
84	0xbd96bf5b	-0.07360717
85	0x3bb2b67b	0.0054538823
86	0x3e6dda1f	0.23227738
87	0x3d581933	0.052758407
88	0x3e6d4019	0.23168983
89	0xbccb0d8c	-0.024786733
90	0x3de75131	0.11294783
91	0x3ebd4596	0.36967152
92	0xbdac911d	-0.08426116
93	0xbd982443	-0.074287914
94	0x3db6a05a	0.089173034
95	0x3e218eb3	0.15777092
96	0x3e906e71	0.2820926
97	0x3d244275	0.04010244
98	0xbe029019	-0.12750281
99	0xbcb42673	-0.02199099
100	0x3e2d7a0e	0.16941091
101	0xbcdce900	-0.026966572
102	0xbdcb0924	-0.09913853
103	0xbe4fff19	-0.20312156
104	0xbe3a6c3c	-0.1820535
105	0x3e07aa4d	0.13248558
106	0x3e37f289	0.17963614
107	0xbc4e0e1d	-0.012576607
108	0xbdd18952	-0.1023127
109	0xbe2cfd6d	-0.1689355
110	0x3e6678af	0.22506975
111	0x3eb3a318	0.35085368
112	0x3e6615bb	0.22469227
113	0x3c21e12b	0.009880344
114	0xbe4fe3e2	-0.20301774
115	0x3dc79ab5	0.09746305
116	0x3e6c01df	0.23047589
117	0xbd8839a4	-0.06651619
118	0x3d1cd875	0.038292367
119	0xbed4ff51	-0.4160104
120	0x3e2cdd33	0.16881256
121	0xbda0f2e1	-0.078588255
122	0x3b986d50	0.004651703
123	0xbe7d3586	-0.24727449
124	0xbe323122	-0.17401555
125	0xbe0b3eaa	-0.13598123
126	0xbecc6df5	-0.3992764
127	0xbea5ce13	-0.32383785
128	0xbf438ae5	-0.7638381
129	0xbec3e371	-0.38259462
130	0x3e58a0dc	0.21155113
131	0xbe806a88	-0.25081277
132	0xbfcd2b05	-1.6028754
133	0xbfe047ca	-1.7521908
134	0xbe7144fe	-0.23561475
135	0x3e4a4945	0.19754513
136	0xbe8aca54	-0.2710749
137	0xbfb4567c	-1.4088893
138	0xbf952f65	-1.1655089
139	0x3e6c87f5	0.23098738
140	0x3eb846b1	0.35991433
141	0x3e56abc5	0.20963962
142	0xbd19eba9	-0.03757826
143	0xbdc0e382	-0.09418394
144	0x3e72751c	0.23677486
145	0x3e9db09d	0.30798808
146	0x3e14ce23	0.1453176
147	0x3e5f985d	0.21835466
148	0xbc362f2d	-0.011119646
149	0x3de9b112	0.114107266

conv1.bias f4 [6]
0	0x3d83fec9	0.06445081
1	0x3c56b94f	0.013105704
2	0xbbcf7c9d	-0.0063319937
3	0xbd4efc64	-0.050533667
4	0x3e93551b	0.28775868
5	0x3eb00133	0.34375915

conv2.weight f4 [16, 6, 5, 5]
0	0xbe19d5a6	-0.15022907
1	0xbe6f47f4	-0.23367292
2	0xbeba10f7	-0.36341068
3	0xbe60ac2e	-0.21940681
4	0x3e7f2146	0.24915037
5	0xbe1930fa	-0.1496009
6	0xbe563234	-0.20917588
7	0xbe0f7894	-0.1401084
8	0xbe7e0207	-0.24805461
9	0x3cae88f7	0.021305544
10	0xbe10e64b	-0.1415035
11	0xbd833220	-0.06406045
12	0xbd524471	-0.051334802
13	0x3de8f8e2	0.11375596
14	0x3e6bac08	0.23014843
15	0xbe0169bc	-0.1263799
16	0xbe251c4d	-0.16124077
17	0xbe3ca17c	-0.18420976
18	0x3c0a434d	0.008438897
19	0x3e2746f2	0.16335657
20	0xbd5d4fec	-0.054031298
21	0x3da6bd10	0.081415296
22	0xbd19a37e	-0.037509434
23	0xbd19fb6a	-0.037593283
24	0xbcff90ed	-0.031197036
25	0x3eab792b	0.3349088
26	0xbf2287b2	-0.63488305
27	0xbf46d945	-0.77675277
28	0x3d763b2e	0.060115032
29	0x3e5a34d0	0.21309209
30	0xbd883d15	-0.066522755
31	0xbeef782d	-0.46771374
32	0xbf0b5e48	-0.54440737
33	0xbccbc38e	-0.024873521
34	0x3e3dda7b	0.18540375
35	0xbe9ccb21	-0.30623725
36	0xbedf1a95	-0.43574968
37	0xbf0c3afb	-0.547775
38	0x3cd3bf46	0.025848042
39	0x3e034374	0.128187
40	0xbe0a5a79	-0.13511075
41	0xbedcf877	-0.43158314
42	0xbf182bed	-0.59442025
43	0x3c748376	0.014923921
44	0x3dc64f92	0.096831456
45	0xbe946fa1	-0.28991416
46	0xbf2a6781	-0.66564184
47	0xbf1d789a	-0.6151215
48	0xbe482ede	-0.19549128
49	0x3ca4fc1d	0.020139748
50	0xbe719b0a	-0.23594299
51	0xbe740883	-0.23831372
52	0xbe43a22d	-0.19104834
53	0x3d2b70d4	0.04185565
54	0x3cd6b26e	0.026208129
55	0xbd20c002	-0.039245613
56	0xbe02b138	-0.12762916
57	0xbc9db73f	-0.019252418
58	0x3e2a089f	0.16604851
59	0x3d8f54da	0.06998606
60	0xbe2ec248	-0.170663
61	0x3cb3c941	0.021946551
62	0xbc9f602f	-0.019455044
63	0x3e1d49c7	0.15360175
64	0x3dcea75a	0.100905135
65	0xbcdd725e	-0.027032074
66	0x3cad30e6	0.02114148
67	0xbcdb367e	-0.026759382
68	0x3db68861	0.08912731
69	0x3cf3324c	0.02968707
70	0x3d642953	0.055703472
71	0x3d7a2598	0.06107101
72	0x3dc58215	0.09643952
73	0x3e297b0b	0.16550843
74	0xbe1d5258	-0.15363443
75	0xbe8a2fd0	-0.26989603
76	0xbe3e8c78	-0.18608272
77	0x3a79a0b0	0.00095225405
78	0x3d806a9c	0.06270334
79	0x3ce3b45b	0.027795961
80	0xbe3b862f	-0.18312906
81	0xbd37122a	-0.044695057
82	0x3d8c28ee	0.06843744
83	0x3df97c8a	0.12181957
84	0x3d839aa1	0.064259775
85	0xbd5e6a65	-0.054300684
86	0xbcaa88f1	-0.020817252
87	0x3dda2c18	0.106529415
88	0x3d8fcb05	0.07021145
89	0x3dba12bb	0.09085604
90	0xbc697bba	-0.01425069
91	0x3d98286b	0.07429584
92	0x3de19eee	0.110166416
93	0x3d481f31	0.04885787
94	0x3cfee0c8	0.031113043
95	0xbc133a98	-0.008986138
96	0x3d948e42	0.07253696
97	0x3e0df2f8	0.13862216
98	0x3db94919	0.090471454
99	0xbdc3ec31	-0.09566534
100	0x3d0fc211	0.035097186
101	0xbe1446f0	-0.14480186
102	0xbdabc793	-0.08387675
103	0x3d739df8	0.059476823
104	0x3d99412f	0.07483136
105	0x3d54fb5b	0.051997524
106	0xbd1047f7	-0.03522488
107	0x3cdaff06	0.026732933
108	0x3e078d02	0.13237384
109	0x3b02a00e	0.0019931826
110	0xbe0f3ab5	-0.13987239
111	0xbd6b705b	-0.057480197
112	0xbe1bf6d5	-0.15230878
113	0x3e299964	0.1656242
114	0x3e0281db	0.12744848
115	0xbc596202	-0.013267996
116	0xbe5c9557	-0.21541344
117	0xbdcb4c49	-0.099266596
118	0x3e186970	0.14883971
119	0x3dd4a35c	0.10382721
120	0xbcb4a830	-0.022052854
121	0xbdf205c9	-0.1181751
122	0x3c39ff7e	0.011352418
123	0x3e2a511b	0.16632502
124	0x3e441aa6	0.1915079
125	0x3f677e34	0.90426946
126	0x3eda2674	0.42607462
127	0xbefa711c	-0.4891442
128	0xbf094cd3	-0.5363285
129	0xbe20f7a0	-0.15719461
130	0x3ed5f6d6	0.41789883
131	0x3e1ed078	0.15509212
132	0xbe953c0c	-0.29147375
133	0xbe5bfaa0	-0.21482325
134	0xbe1b9439	-0.15193261
135	0x3eda08dd	0.42584887
136	0x3b69a84c	0.0035653291
137	0xbe60713c	-0.21918195
138	0xbe476d61	-0.19475318
139	0xbd3350a8	-0.04377809
140	0x3e51602e	0.20446846
141	0x3dd35335	0.10318605
142	0x3d418239	0.04724333
143	0xbdc35971	-0.09538544
144	0xbdd9601c	-0.106140345
145	0xbda0cc54	-0.078514725
146	0xbed38ce6	-0.41318434
147	0xbd6e24e0	-0.058140635
148	0x3e9e318e	0.30897182
149	0x3d97f3d4	0.074195534
150	0xbdb69adb	-0.08916255
151	0x3d19362a	0.03740517
152	0x3e101bb1	0.14073063
153	0x3d80d28c	0.06290159
154	0xbe9b5489	-0.30337933
155	0xbe075d51	-0.13219191
156	0x3da1cfd9	0.07900972
157	0x3e64ada3	0.22331862
158	0x3ec3d4c5	0.38248268
159	0xbd897c82	-0.06713201
160	0xbe2d1074	-0.16900808
161	0xbea7b8a2	-0.3275805
162	0x3cb3a094	0.021927156
163	0x3efe65d8	0.49687076
164	0x3eab64d1	0.33475354
165	0xbe3c8821	-0.18411304
166	0xbe9516aa	-0.29118854
167	0xbc370f6a	-0.011173109
168	0x3e8268a9	0.25470474
169	0xbcfa04fd	-0.030519957
170	0x3dff77dd	0.12474034
171	0xbc6d66a0	-0.0144898
172	0x3dbb3fcd	0.091430284
173	0x3e64de66	0.22350463
174	0xbd3ed5dd	-0.046590675
175	0xbe156505	-0.14589317
176	0xbefb8bd2	-0.49130112
177	0xbdd5b1e8	-0.104343235
178	0x3c2c127c	0.010502454
179	0x3e536b45	0.20646389
180	0xbe5b5da8	-0.21422446
181	0xbdd19d81	-0.102351196
182	0x3c2708f4	0.010195006
183	0x3cf5d42b	0.030008396
184	0x3df18746	0.117933795
185	0xbca0e3ee	-0.019639935
186	0x3eb441e1	0.35206512
187	0x3e94c03f	0.29052922
188	0x3cf3427c	0.029694788
189	0x3e010825	0.12600763
190	0x3ded6b37	0.11592715
191	0x3eecc8ce	0.46246952
192	0x3eec4e5b	0.4615353
193	0x3e640c6c	0.22270364
194	0x3e19fd2b	0.15037982
195	0xbde999a1	-0.114062555
196	0x3ed5e7af	0.41778323
197	0x3f0bd169	0.5461641
198	0xbc484db1	-0.012225554
199	0xbd010a2e	-0.03150385
200	0xbd4936c0	-0.04912448
201	0xbe0299b5	-0.12753947
202	0xbc9f50ec	-0.019447766
203	0x3bcd0aa9	0.0062573743
204	0x3b88efbb	0.0041789687
205	0x3db45b0a	0.08806427
206	0xbe03e93d	-0.12881942
207	0xbd6462b3	-0.05575819
208	0xbd2ff752	-0.042960472
209	0x3d8c3525	0.06846074
210	0xbc9f0d45	-0.019415507
211	0xbd905da8	-0.070491135
212	0xbc4ba89d	-0.012430337
213	0x3d4cce16	0.050001226
214	0xbd03f7ca	-0.032218732
215	0x3cfa6fcf	0.030570893
216	0x3d68a601	0.05679894
217	0xbd68e7cf	-0.056861695
218	0xbdf76132	-0.120790854
219	0xbdd99057	-0.10623234
220	0x3e56df76	0.20983681
221	0x3e1b60ce	0.15173647
222	0x3c88ed38	0.016714677
223	0x3bb40093	0.0054932325
224	0x3d7f3447	0.062305715
225	0xbdd11288	-0.10208613
226	0xbe68f43f	-0.22749422
227	0xbd6dead0	-0.058085263
228	0x3cccd23c	0.025002591
229	0x3d7f510e	0.06233316
230	0xbe16ad14	-0.14714462
231	0xbdeea0a3	-0.11651733
232	0xbe2edb32	-0.17075804
233	0x3b0b3061	0.0021238553
234	0x3e006b49	0.12540926
235	0xbdbbae52	-0.09164108
236	0x3c0f1ff2	0.008735644
237	0xbe1c9b34	-0.1529358
238	0xbd81bbfa	-0.06334682
239	0xbb990856	-0.004670183
240	0x3d3c5e2a	0.04598824
241	0x3dfa50d2	0.122224465
242	0x3bc7ed64	0.006101297
243	0xbdc6a831	-0.09700049
244	0xbafc5018	-0.0019249944
245	0x3dcc3cd0	0.099725366
246	0x3d3e16f6	0.046408616
247	0xbce90bb4	-0.028447963
248	0xbdf24810	-0.11830151
249	0xbd69a1f9	-0.057039235
250	0xbd240653	-0.040045094
251	0xbe740f4c	-0.2383396
252	0xbdb4a11a	-0.0881979
253	0x3d2bb50e	0.041920714
254	0x3c481b24	0.012213502
255	0xbda8da4e	-0.08244763

conv2.bias f4 [16]
0	0x3e3d5bbe	0.18492028
1	0xbd2b029f	-0.041750547
2	0xbd6a7d8f	-0.05724865
3	0x3e591803	0.21200566
4	0x3e33b8c9	0.17550959
5	0x3e0a5789	0.13509955
6	0x3e6c33e7	0.23066674
7	0x3def43b5	0.11682836
8	0xbddd61fe	-0.10809706
9	0x3dbb5a9a	0.0914814
10	0xbbf90562	-0.0075995186
11	0x3e8ed85a	0.27899438
12	0xbd4f98bf	-0.05068278
13	0xbdbee087	-0.09320169
14	0x3e131963	0.14365153
15	0x3e72e52b	0.23720233

fc1.weight f4 [120, 400]
0	0x3d9d21ef	0.07672488
1	0xbde3e0ec	-0.11126885
2	0xbd5aff34	-0.053466037
3	0x3e1c1f37	0.15246283
4	0x3e53869f	0.20656823
5	0xbc058e1a	-0.008151555
6	0xbcdae1c6	-0.026718985
7	0xbc3929ee	-0.011301501
8	0x3db2a4f7	0.08722871
9	0x3d3a0b74	0.04542108
10	0xbc9ced47	-0.019156111
11	0x3d1ebb5d	0.038752902
12	0xbca246e0	-0.019809186
13	0x3c21ea48	0.009882517
14	0xbe499f67	-0.19689713
15	0x3d3c35cd	0.045949746
16	0xbb08abf1	-0.0020854438
17	0xbc093625	-0.0083747255
18	0x3d59b65f	0.05315244
19	0xbe08d08e	-0.13360807
20	0x3e4e05e4	0.20119435
21	0x3cda7350	0.026666313
22	0x3d91d991	0.071215756
23	0x3d61d012	0.055130072
24	0xbe4c32d8	-0.1994127
25	0x3dc36e3f	0.09542512
26	0x3dbcbb80	0.0921545
27	0x3e2c0154	0.16797382
28	0x3d39b808	0.04534152
29	0xbd7bd437	-0.06148168
30	0xbc837b7f	-0.016050098
31	0x3ce1a116	0.027542632
32	0x3e2c6b94	0.16837913
33	0x3ddf2fb9	0.10897774
34	0xbd3ed493	-0.046589445
35	0xbc3f9796	-0.011693856
36	0x3d1828f5	0.037148435
37	0x3dc750e7	0.09732228
38	0x3d7d1f3e	0.061797373
39	0x3c1417b8	0.009038858
40	0x3dc1db26	0.09465627
41	0xbb6a570f	-0.0035757457
42	0xbd8daabe	-0.06917332
43	0x3d5f5f4b	0.054534238
44	0xbde2158c	-0.11039266
45	0x3d6c7fe6	0.05773916
46	0xbcd0384d	-0.025417471
47	0xbe12b723	-0.14327674
48	0x3e516f90	0.20452714
49	0xbd1b687c	-0.03794144
50	0xbcf2c2d1	-0.029633911
51	0x3bbcae7a	0.005758104
52	0x3d5b0515	0.053471643
53	0x3d241698	0.04006061
54	0xbd676df7	-0.056501355
55	0xbbef9f48	-0.007312689
56	0x3c6fb18c	0.014629733
57	0x3b634bb7	0.003468258
58	0xbd8051d8	-0.062656105
59	0xbd685532	-0.056721874
60	0xbaed7cb9	-0.0018118835
61	0x3d474aa4	0.048655167
62	0xbd338fa8	-0.043838173
63	0xbd3555c0	-0.04427123
64	0xbcc2ce08	-0.023779884
65	0x3d9557b3	0.07292118
66	0x3d95b834	0.073105246
67	0x3d882ec0	0.06649542
68	0xbd772f29	-0.06034771
69	0xbd2c7a0e	-0.042108588
70	0x3c5a64f6	0.013329735
71	0x3c5ebca7	0.013594783
72	0x3c51beed	0.012801868
73	0xbc863140	-0.016380906
74	0xbd01e1e2	-0.03170956
75	0x3e44511f	0.1917157
76	0x3dec59d6	0.11540572
77	0x3be2aa1c	0.0069172513
78	0x3e0d436c	0.1379525
79	0x3e43f72b	0.19137256
80	0x3d4cd0ac	0.050003693
81	0x3af24e1c	0.0018486413
82	0x3d5e120c	0.05421643
83	0xbd6132fc	-0.054980263
84	0x3d14405a	0.036194183
85	0xbc9f15b7	-0.019419534
86	0x3cdd3a63	0.02700538
87	0x3df998f5	0.12187377
88	0xbd66b6ca	-0.056326665
89	0x3d707d5f	0.058713313
90	0x3cee0bdd	0.029058391
91	0x3d272ff4	0.040817216
92	0x3e071dd4	0.13194972
93	0x3c4ff2c5	0.012692158
94	0x3dab2c02	0.08358003
95	0x3d4c0330	0.049807727
96	0x3cf29e36	0.029616456
97	0x3dac2410	0.08405316
98	0xbca72485	-0.020403156
99	0x3d1d81be	0.03845381
100	0x3d8b9fff	0.06817626
101	0x3cb60e99	0.022223758
102	0x3d4fb398	0.050708383
103	0xbe0e1619	-0.13875617
104	0xbd62b3cd	-0.055347253
105	0x3c29cc0a	0.010363588
106	0xbdd1480a	-0.102188185
107	0xbd4d0068	-0.050049216
108	0xbd547b23	-0.051875245
109	0xbe09a2f5	-0.1344107
110	0xbd89ff1f	-0.067381136
111	0x3bc26436	0.005932356
112	0x3deda2e0	0.116033316
113	0x3e0a37e4	0.13497883
114	0xbd24ee92	-0.04026658
115	0xbe176bd1	-0.14787222
116	0xbd012753	-0.031531643
117	0xbbb9722f	-0.0056593637
118	0x3db0bf66	0.08630256
119	0xbd42db67	-0.04757252
120	0xbf009b01	-0.5023652
121	0x3d639847	0.055565145
122	0xbddee6c7	-0.10883861
123	0x3c18a775	0.009317269
124	0x3e399f50	0.18127179
125	0x3e291581	0.1651211
126	0xbc60dc59	-0.01372441
127	0xbd3d9856	-0.046287857
128	0xbc224d08	-0.009906061
129	0x3cd5a4af	0.026079504
130	0x3d8a1b9b	0.067435466
131	0xbad74c42	-0.0016425925
132	0x3d168c67	0.03675499
133	0x3c2ce515	0.010552664
134	0xbd8b5604	-0.068035156
135	0x3c94bd0b	0.018156549
136	0xbc8db321	-0.01729733
137	0x3d41dc7f	0.047329422
138	0x3ce0ed09	0.027456777
139	0xbdfcf79b	-0.123519145
140	0xbdf34c55	-0.118797936
141	0x3b6c9ef7	0.0036105493
142	0x3c048676	0.008088699
143	0x3daa85f1	0.083263285
144	0xbdcb9271	-0.09940041
145	0x3c1ab448	0.009442396
146	0x3d4f551b	0.050618272
147	0x3d871446	0.06595664
148	0x3e57bfac	0.21069211
149	0xbe57916d	-0.2105157
150	0x3e243d13	0.16038923
151	0x3e0a31a9	0.13495506
152	0x3d7e1d91	0.062039915
153	0xbd7ee76b	-0.062232416
154	0xb95a6d42	-0.00020830802
155	0x3c21241c	0.009835269
156	0xbcf636ff	-0.030055521
157	0xbac28025	-0.0014839215
158	0xbddc1808	-0.10746771
159	0xbe24004b	-0.16015737
160	0xbd4e890f	-0.050423678
161	0x3cb332ab	0.021874746
162	0xbd271da1	-0.04079974
163	0xbd8cf576	-0.068827555
164	0xbe5fa4f8	-0.21840274
165	0xbd9f421e	-0.07776283
166	0x3c0ea116	0.008705398
167	0x3d910b0a	0.07082184
168	0x3d563344	0.052294984
169	0xbe56c712	-0.20974377
170	0xbd9bf635	-0.0761532
171	0x3d52826c	0.05139391
172	0x3d26d402	0.04072953
173	0x3e200229	0.15625824
174	0xbe70a17d	-0.23499103
175	0x3deacb45	0.11464552
176	0xbc8f2811	-0.01747516
177	0x3e014d3b	0.12627117
178	0xbdd68471	-0.1047448
179	0x3ca951c2	0.020668868
180	0xbdbae656	-0.09125964
181	0x3d0078aa	0.031365074
182	0xbcdf2808	-0.027240768
183	0x3d325fab	0.043548267
184	0x3acb6bb9	0.0015519775
185	0xb79260e2	-1.744967e-05
186	0x3da5e76d	0.081007816
187	0xbd870697	-0.06593054
188	0xbc07c8ca	-0.008287618
189	0x3c4f11ac	0.012638491
190	0xbdda94a7	-0.106728844
191	0xbd9faf70	-0.07797134
192	0xbe12f808	-0.14352429
193	0xbc7350fb	-0.01485085
194	0xbc564236	-0.013077309
195	0xbec6701f	-0.38757417
196	0xbe4b8c75	-0.19877799
197	0x3c26fbbd	0.010191855
198	0xbe16ba38	-0.14719474
199	0xbe6f4270	-0.23365188
200	0x3ceec5f3	0.029147124
201	0xbcc09860	-0.023510158
202	0x3b929e40	0.0044744313
203	0xbc1f046d	-0.009705645
204	0xbd4f2783	-0.05057479
205	0xbc7cd867	-0.015432454
206	0xbd3f64c2	-0.04672695
207	0x3ccb2bbd	0.02480113
208	0x3ce2a603	0.027667051
209	0xbd3dd70f	-0.046347674
210	0x3be48b0d	0.006974584
211	0x3c5c345a	0.013440216
212	0x3d1136c7	0.03545263
213	0xbc7402e5	-0.014893268
214	0xbcdd613d	-0.027023906
215	0xbd1e580a	-0.03865818
216	0x3d2a7efa	0.041625
217	0xbd0988cf	-0.033577736
218	0xbbf14dc0	-0.007364005
219	0x3d1970d0	0.037461102
220	0xbcfc1d1d	-0.030775601
221	0x3c6d1813	0.014471072
222	0xbc844b0a	-0.016149063
223	0xbd422bc5	-0.047405023
224	0xbc94dff3	-0.018173194
225	0xbca53b82	-0.020169977
226	0x3dc85b8c	0.09783086
227	0xbdbf64a3	-0.09345367
228	0x3d78ba3a	0.060724474
229	0x3d3b9e77	0.04580542
230	0x3cd2d90b	0.02573826
231	0x3e35c817	0.1775211
232	0xbd5cc938	-0.053902835
233	0x3dc73d9c	0.09728548
234	0xbdb78e6d	-0.089627124
235	0x3dcfd143	0.101473354
236	0x3dc62a41	0.09676028
237	0xbbd66d29	-0.0065437746
238	0x3d5a5867	0.053306963
239	0x3d0f5060	0.03498876
240	0x3e2b5618	0.16732061
241	0xbd968fe5	-0.073516645
242	0xbe30ca80	-0.17264748
243	0xbbb70bab	-0.0055861077
244	0xbd8b41a3	-0.067996286
245	0x3e803c23	0.2504588
246	0xbe357c04	-0.1772309
247	0xbe8613e6	-0.26187056
248	0xbd29523f	-0.0413382
249	0xbe3b90bf	-0.18316935
250	0x3d360377	0.044436898
251	0x3e6bb784	0.23019224
252	0xbcc0cfd5	-0.023536602
253	0xbe1407ab	-0.1445605
254	0xbdcd8460	-0.10035014
255	0x3df2e46b	0.118599735

fc1.bias f4 [120]
0	0x3df7c943	0.120989345
1	0x3d8ff91d	0.070299365
2	0x3e0bc6bd	0.13650031
3	0x3c5a1b8c	0.013312232
4	0xbd73bf4b	-0.059508603
5	0xbd4caaae	-0.04996746
6	0xbcfd750b	-0.0309396
7	0xbcaa33c1	-0.020776631
8	0xbd8ad2ff	-0.067785256
9	0xbc8efc8e	-0.017454412
10	0xbcd0db23	-0.025495118
11	0xbd44cd63	-0.048047435
12	0x3de13e33	0.10998192
13	0x3e3ff3c1	0.18745328
14	0x3d89d162	0.0672939
15	0xbc951dbf	-0.01820266
16	0xbc361984	-0.011114482
17	0x3e2ae45f	0.16688679
18	0x3d98ab84	0.07454589
19	0x3ccd349d	0.025049502
20	0xbd5fe101	-0.05465794
21	0xbd2fd6ec	-0.042929575
22	0xbd03e7b2	-0.032203384
23	0x3daf3cf9	0.085565515
24	0xbd8ac8ec	-0.06776604
25	0x3afafcff	0.0019148885
26	0x3c530d51	0.012881593
27	0x3dd9da0f	0.106372945
28	0x3c4ababd	0.012373623
29	0x3e151bc0	0.14561367
30	0xbdb73d34	-0.089472204
31	0xbd3bbaa5	-0.045832295
32	0x3e5fadb6	0.21843609
33	0xbd7937b7	-0.06084415
34	0xbd7f7192	-0.06236417
35	0xbd647298	-0.055773348
36	0xbb4685c9	-0.0030292145
37	0x3d6c1673	0.057638597
38	0x3d0d0509	0.03442863
39	0x3da922be	0.0825858
40	0xbcf12a2c	-0.029439054
41	0x3ddd6e4c	0.10812053
42	0x3e0a3555	0.13496907
43	0x3db10eae	0.08645378
44	0xbcd97fea	-0.026550252
45	0xbe05ca8c	-0.13065547
46	0xbd60affe	-0.05485534
47	0xbd908bf0	-0.07057941
48	0x3dd68dbd	0.10476253
49	0x3c2d9b5a	0.010596121
50	0x3e0b3b42	0.13596824
51	0xbd9b477c	-0.07581994
52	0x3da55938	0.08073658
53	0x3dd72f36	0.10507052
54	0xbc583126	-0.013195312
55	0x3d249680	0.04018259
56	0xbcd3afaa	-0.0258406
57	0x3d3ba76f	0.045813974
58	0x3d73f55c	0.059560165
59	0xbd05fbd9	-0.032710884
60	0x3d2f095b	0.04273353
61	0xbc79396a	-0.0152114425
62	0x3db49ff1	0.08819569
63	0xbd904f91	-0.07046426
64	0xbd0be16c	-0.034150526
65	0xbd6591aa	-0.05604712
66	0xbcb52520	-0.02211243
67	0x3e4f5fb4	0.20251352
68	0x3dccde83	0.10003378
69	0x3dac95c4	0.08427003
70	0x3c8dd416	0.017313045
71	0x3df59490	0.11991227
72	0x3de11a6c	0.10991368
73	0x3d9d1196	0.0766937
74	0x3c01e2af	0.007927581
75	0x3db6766b	0.08909305
76	0x3d93f579	0.072245546
77	0x3d6423af	0.055698093
78	0xbd93390c	-0.07188615
79	0x3bf0011f	0.0073243524
80	0xbc458f59	-0.0120581025
81	0xbd0126a4	-0.03153099
82	0x3c3861f8	0.011253826
83	0x3e377f30	0.17919612
84	0x3e7e3615	0.24825318
85	0xbd00aa8f	-0.031412657
86	0x3c081324	0.008305345
87	0xbd67f3d8	-0.056629032
88	0x3d88c036	0.06677286
89	0xbd8b64db	-0.06806346
90	0x3e5bc229	0.21460785
91	0xbdbf750e	-0.09348498
92	0x3d8842f1	0.06653393
93	0x3e53e47c	0.20692629
94	0xbc9bf826	-0.019039225
95	0x3e536f24	0.20647866
96	0xbd5d3c93	-0.054012846
97	0x3ded8822	0.11598231
98	0xbc2796c1	-0.010228814
99	0xbca18340	-0.019715905
100	0x3c11e1e4	0.008903954
101	0x3d9b803d	0.07592819
102	0xbc4fdad3	-0.012686449
103	0x3c6c9bf2	0.014441477
104	0xbd878449	-0.06617028
105	0x3d74a7ca	0.05973033
106	0x3ddfc1f3	0.10925665
107	0x3dd67647	0.10471778
108	0x3e2c50af	0.16827653
109	0xbd80f9aa	-0.0629762
110	0x3e0dca11	0.13846613
111	0x3cdcc2ff	0.02694845
112	0x3e206c7f	0.15666388
113	0x3e14446b	0.14479224
114	0x3de3fcaa	0.11132176
115	0x3e006f52	0.12542465
116	0xbc9be5eb	-0.019030532
117	0xbd53bccc	-0.051693723
118	0x3db363e6	0.087592885
119	0x3df60636	0.120129034

fc2.weight f4 [84, 120]
0	0xbce80d07	-0.028326524
1	0x3e88ac81	0.2669411
2	0xbd7aa432	-0.061191745
3	0x3e804d72	0.25059086
4	0xbd568d55	-0.05238088
5	0xbd14d545	-0.036336202
6	0xbccf33bc	-0.025293224
7	0x3c123af7	0.008925191
8	0xba034ca3	-0.0005008673
9	0xbc944021	-0.018096985
10	0xbdacb9b0	-0.084338546
11	0xbd510c5c	-0.051037177
12	0x3d64f628	0.055898815
13	0x3d90fc63	0.07079389
14	0xbe881d7d	-0.26584998
15	0xbc93206a	-0.017959792
16	0xbe3db8f8	-0.18527591
17	0xbef22394	-0.4729277
18	0x3e7cac93	0.24675207
19	0x3ee91ab0	0.45528173
20	0x3b7303ca	0.0037081116
21	0xbd6e5bf7	-0.058193173
22	0x3d8f14b2	0.06986369
23	0xbe8cc10b	-0.2749103
24	0xbdd75d0c	-0.10515794
25	0x3c7a2c0e	0.0152692925
26	0xbe539b9f	-0.20664833
27	0x3dcf2ab7	0.10115569
28	0x3e6199d0	0.22031331
29	0x3e743265	0.23847349
30	0x3e2ad10f	0.16681312
31	0x3cfc5911	0.030804189
32	0x3defe97b	0.11714455
33	0x3c198912	0.009371059
34	0x3df1aea0	0.11800885
35	0xbda8a93b	-0.08235403
36	0xbd1ace17	-0.0377942
37	0xbe54314d	-0.20721932
38	0x3ea59cb2	0.32346112
39	0x3e3577b4	0.17721444
40	0xbd871568	-0.0659588
41	0x3e081d5d	0.13292451
42	0xbcaf0a70	-0.021367282
43	0xbccd53c6	-0.02506436
44	0xbdb84a39	-0.08998532
45	0xbed77b44	-0.42086232
46	0x3d39e736	0.045386516
47	0x3d65b5fb	0.056081753
48	0xbd2219c9	-0.039575372
49	0xbe933398	-0.287503
50	0xbcb52a2b	-0.022114834
51	0x3dda33fa	0.10654445
52	0x3e50a3d1	0.20374991
53	0xbd8cecf3	-0.06881132
54	0xbec598c7	-0.38593122
55	0xbc863db4	-0.016386844
56	0x3eaafff2	0.33398396
57	0x3e4dec9f	0.20109795
58	0x3d4b27ca	0.049598493
59	0x3d128858	0.03577456
60	0xbe3db832	-0.18527296
61	0x3c8b7bb8	0.017026767
62	0x3d9c99b9	0.07646508
63	0xbccbda03	-0.02488423
64	0x3dc9095e	0.0981624
65	0x3d928a62	0.07155301
66	0x3dbea4bc	0.09308764
67	0x3eb42c5b	0.3519009
68	0xbdae81f3	-0.085208796
69	0xbe0921c5	-0.13391788
70	0xbe3afc9d	-0.18260427
71	0x3d97bf58	0.07409543
72	0xbe8faa04	-0.280594
73	0xbdabcfb9	-0.08389229
74	0xbd0d6fa0	-0.034530282
75	0xbcd933c0	-0.026513934
76	0xbca1e04b	-0.019760272
77	0xbd67858e	-0.056523852
78	0xbd856bdd	-0.06514714
79	0x3ed5affb	0.41735825
80	0xbd9a0350	-0.07520163
81	0xbd98154a	-0.074259356
82	0x3de4625c	0.11151573
83	0xbdcbba73	-0.09947672
84	0x3cbbc12c	0.02291926
85	0x3d7a641c	0.061130628
86	0xbe7c259f	-0.24623726
87	0xbf03b077	-0.5144114
88	0x3e08d733	0.13363342
89	0x3d5efcef	0.054440435
90	0xbc0d569d	-0.008626607
91	0x3d9898f5	0.07451049
92	0x3dea1182	0.114291206
93	0x3e9b0b3e	0.30282015
94	0xbe457831	-0.1928413
95	0xbe2e0a04	-0.16996008
96	0x3db75ce8	0.08953267
97	0xbd125b1b	-0.035731416
98	0xbcb3a2c3	-0.021928197
99	0xbd1cc8c4	-0.038277403
100	0xbe00ed64	-0.12590557
101	0xbeadcfbe	-0.33947557
102	0x3dab084d	0.083511926
103	0xbe7ea932	-0.2486923
104	0xbd6424e9	-0.055699263
105	0x3d6167f3	0.055030774
106	0x3e0f1df9	0.13976277
107	0xbe39dbde	-0.18150279
108	0xbe9c414f	-0.30518577
109	0xbbc56bbb	-0.0060248054
110	0xbea4593b	-0.32099327
111	0x3dec6a39	0.11543698
112	0x3e971b9f	0.2951326
113	0x3e86a2e4	0.2629615
114	0x3e315ba9	0.17320122
115	0x3d49b402	0.049243934
116	0xbd70cb0f	-0.0587874
117	0x3dd08724	0.10182026
118	0x3e562c74	0.20915395
119	0xbe91257b	-0.28348908
120	0x3e0cde23	0.13756613
121	0x3dbbc252	0.09167923
122	0xbd942067	-0.07232743
123	0xbdc17c6d	-0.094475605
124	0xbb2b5a30	-0.0026146285
125	0x3ca0ee77	0.019644959
126	0x3cd8d689	0.026469486
127	0x3d2f3121	0.042771462
128	0xbd0f74e8	-0.0350236
129	0x3d974f35	0.073881544
130	0xbda1d1c4	-0.07901338
131	0x3d173e9e	0.03692495
132	0x3da03b3f	0.078238
133	0xbd86871b	-0.06568738
134	0x3e2e553e	0.17024705
135	0xbd3f3bca	-0.04668788
136	0xbd70e7d9	-0.058814857
137	0x3ea47aa8	0.3212483
138	0x3dd14417	0.10218065
139	0xbed78cec	-0.42099702
140	0xbda7e176	-0.081973
141	0x3d631800	0.05544281
142	0x3d5a8948	0.053353578
143	0x3e127b4c	0.14304847
144	0xbda3099b	-0.079608165
145	0xbd98919b	-0.07449647
146	0x3e1e9998	0.15488279
147	0x3eb160de	0.34644216
148	0xbe83ce88	-0.25743508
149	0x3e347e39	0.17626275
150	0xbd35567d	-0.044271935
151	0x3d24b140	0.0402081
152	0x3d027ca0	0.031857133
153	0x3be412a3	0.0069602295
154	0x3dbefd27	0.09325629
155	0x3dbd9ca1	0.0925839
156	0xbd3006e0	-0.042975307
157	0x3d63d675	0.055624444
158	0xbceb85f5	-0.0287504
159	0xbe02a879	-0.1275958
160	0x3db53df1	0.08849705
161	0x3dcb3c97	0.09923666
162	0x3e4bcdf0	0.19902778
163	0x3e3fedcc	0.18743056
164	0xbd8a6d4f	-0.0675913
165	0x3e4815ae	0.1953952
166	0xbd096996	-0.03354796
167	0x3d518d82	0.051160343
168	0x3de0e8d9	0.10981912
169	0x3df514ac	0.119668335
170	0xbe47e331	-0.1952026
171	0x3bd3728b	0.0064528636
172	0xbe1ad668	-0.15120852
173	0xbe84987a	-0.2589758
174	0xbe40108a	-0.18756309
175	0x3e054dd2	0.13017967
176	0xbdfa0835	-0.122085966
177	0xbe4e98eb	-0.20175521
178	0x3e81d8b8	0.25360656
179	0x3d7d8415	0.06189354
180	0x3c069c86	0.008216029
181	0xbc1cf1aa	-0.009579102
182	0xbdfc9f9a	-0.12335129
183	0x3d4b9d0f	0.04971033
184	0xbdb4aca6	-0.088219926
185	0x3d1bf3cf	0.03807431
186	0xbdb3ce0b	-0.08779534
187	0x3e554de0	0.20830488
188	0xbde473a9	-0.11154873
189	0xbdb5e342	-0.088812366
190	0xbd016a3a	-0.031595446
191	0x3e0ba213	0.13636045
192	0x3ddfd3c5	0.10929064
193	0x3e41ff18	0.18944967
194	0xbe96253f	-0.29325292
195	0x3dd12220	0.10211587
196	0x3e1cf247	0.15326796
197	0xbdf36428	-0.11884338
198	0x3c16a1ab	0.009193818
199	0xbd166696	-0.036718927
200	0xbc65813f	-0.014007865
201	0x3db379b6	0.08763449
202	0x3e609c66	0.21934661
203	0xbe3b41de	-0.18286845
204	0xbcee6563	-0.02910108
205	0xbd628e56	-0.055311523
206	0x3cc3f612	0.023921046
207	0x3df529fe	0.119709
208	0xbcd6e6e4	-0.026233144
209	0xbd90a070	-0.07061851
210	0xbd5eb6d8	-0.054373592
211	0xbd9577a3	-0.072982095
212	0x3e513e4f	0.20433925
213	0x3c2c688b	0.010522972
214	0x3da43ad4	0.08019033
215	0xbdb028c7	-0.08601528
216	0x3da162fe	0.078802094
217	0x3cbcc788	0.023044363
218	0xbd8b6ed8	-0.06808251
219	0xbd1dee36	-0.038557254
220	0xbee220d9	-0.44165686
221	0x3e00ffd6	0.12597594
222	0x3d234ab6	0.03986617
223	0xbd5858ce	-0.052819066
224	0x3da16ae7	0.07881718
225	0x3e01c485	0.12672623
226	0x3db6ab41	0.08919383
227	0x3e399625	0.18123682
228	0x3e36b509	0.17842497
229	0xbe164b8b	-0.14677255
230	0x3b4b2d4f	0.0031002348
231	0xbd1c0bfd	-0.03809737
232	0x3b4ff2ec	0.0031730486
233	0xbd7d977a	-0.061912037
234	0xbdb8260b	-0.08991631
235	0xbd84bc92	-0.064812794
236	0xbd9b6893	-0.07588305
237	0xbc6f2917	-0.014597199
238	0xbc371655	-0.011174758
239	0xbdd2def9	-0.10296435
240	0xbddd95f6	-0.108196184
241	0x3c3482a2	0.011017473
242	0xbe5f5901	-0.21811296
243	0xbdbcaefa	-0.09213062
244	0x3d13e08e	0.036102824
245	0x3cc6eddb	0.02428334
246	0xbcb633f1	-0.022241564
247	0x3a3cb169	0.0007198067
248	0x3c1e9e09	0.009681233
249	0x3d89fb0a	0.06737335
250	0xbd666a01	-0.056253437
251	0x3ce79f56	0.02827422
252	0xbcb074dc	-0.021540098
253	0xbe8846e7	-0.26616594
254	0xbe06e7c3	-0.13174348
255	0xbd7541bc	-0.059877142

fc2.bias f4 [84]
0	0x3e831bab	0.25607046
1	0x3da495fa	0.08036418
2	0x3dda8f8c	0.10671911
3	0x3c2508dc	0.010072913
4	0x3e869f97	0.26293632
5	0x3e512527	0.20424329
6	0xbe264f2c	-0.16241139
7	0xbd756c89	-0.05991796
8	0x3de9fcb5	0.11425153
9	0xbc65ad51	-0.014018373
10	0x3e6a8b01	0.22904588
11	0x3ea39ec3	0.31957063
12	0xbdfbb680	-0.122906685
13	0xbe13c79b	-0.14431612
14	0xbe1048dd	-0.14090295
15	0x3d1357af	0.035972293
16	0xbc659629	-0.014012852
17	0x3e03061f	0.12795304
18	0xbdbf314f	-0.09335577
19	0xbda333c0	-0.07968855
20	0xbe112356	-0.14173636
21	0xbcf81a64	-0.030286022
22	0x3d6f73d6	0.05846008
23	0x3e86d331	0.26333
24	0x3e6566da	0.22402516
25	0x3e7853ac	0.24250668
26	0x3e844687	0.25835058
27	0xbe002e7a	-0.1251773
28	0x3c490fc2	0.012271823
29	0xbe554705	-0.20827873
30	0xbdd7675a	-0.105177596
31	0x3db709d9	0.08937425
32	0x3d31245d	0.04324757
33	0x3ce9469d	0.028476054
34	0x3e7f71b4	0.24945718
35	0x3e29552c	0.16536397
36	0xbddd1d53	-0.10796609
37	0xbe345c0d	-0.1761324
38	0x3d32e5c7	0.043676164
39	0x3e1bd18e	0.15216658
40	0xbc18dc41	-0.009329856
41	0x3dab96cc	0.083783716
42	0x3e0c31cc	0.13690871
43	0x3e1fe661	0.15615226
44	0x3e517172	0.20453432
45	0xbe00422c	-0.12525243
46	0x3d7d35ea	0.061818995
47	0x3e4befc0	0.19915676
48	0xbd113d51	-0.035458867
49	0x3d263fcb	0.04058818
50	0xbe145265	-0.14484556
51	0xbd9bd13f	-0.0760827
52	0x3d086a32	0.0333044
53	0xbe070f77	-0.13189493
54	0x3e569f4b	0.20959203
55	0x3c63ad44	0.01389629
56	0x3e4d2226	0.20032558
57	0x3e6a9ebf	0.2291212
58	0xbdb26ca9	-0.087121315
59	0x3d2a8047	0.04162624
60	0xbd5af1e1	-0.05345333
61	0x3e27d9a2	0.16391614
62	0x3e4072bc	0.18793768
63	0xbde2152a	-0.11039193
64	0x3df83cc1	0.12120963
65	0x3db8922c	0.09012255
66	0x3cfd3ec0	0.03091371
67	0xbd027e27	-0.03185859
68	0x3dc6baf3	0.097036265
69	0x3dcc15ef	0.09965121
70	0x3e37ee9f	0.1796212
71	0xbe3a210f	-0.18176673
72	0xbdd67a67	-0.10472565
73	0x3d173e7a	0.036924817
74	0x3e724614	0.23659545
75	0x3dceedd0	0.10103953
76	0x3de75494	0.11295429
77	0xbd1e6e11	-0.038679186
78	0x3e299464	0.16560513
79	0x3d71a32a	0.058993496
80	0xbdb161e3	-0.086612485
81	0x3d45ba65	0.048273463
82	0xbe2e0948	-0.16995728
83	0x3e152493	0.14564733

fc3.weight f4 [10, 84]
0	0xbda0f3fa	-0.07859035
1	0x3e43979f	0.19100808
2	0xbbc6ae25	-0.00606324
3	0x3dfd2fb7	0.123626165
4	0xbda728cb	-0.081620775
5	0x3e374642	0.17897895
6	0x3d5ef7db	0.054435592
7	0xbcbb7d34	-0.02288685
8	0xbc52efb0	-0.012874529
9	0xbd915e40	-0.07098055
10	0x3e3e20b7	0.18567167
11	0x3dc95d16	0.09832208
12	0xbc8e9816	-0.017406505
13	0xbd35e79d	-0.044410337
14	0x3e31046a	0.1728684
15	0x3cd71abf	0.02625787
16	0xbc1f8fa2	-0.009738835
17	0xbe605e28	-0.21910918
18	0xbca6893f	-0.020329116
19	0xbcb70d7e	-0.0223453
20	0xbba1228d	-0.004917449
21	0xbc3f3245	-0.0116697
22	0xbbf6e4f3	-0.007534617
23	0xbdd3c190	-0.103396535
24	0xbe0e336c	-0.13886803
25	0xbe1c8b80	-0.1528759
26	0x3df2fdc7	0.118648104
27	0x3cef6240	0.029221654
28	0xbf053004	-0.5202639
29	0x3c323657	0.010877213
30	0xbdb24c4b	-0.08705958
31	0x3df02eca	0.11727674
32	0xbe5a41b1	-0.21314122
33	0xbe368bf8	-0.17826831
34	0x3dff6d23	0.12471988
35	0xbe21d5f6	-0.15804276
36	0x3d8d6a72	0.069050685
37	0xbe222654	-0.15834934
38	0x3d81ab40	0.063314915
39	0x3d9c1568	0.076212704
40	0x3d4bbc26	0.04973998
41	0x3e29a34d	0.165662
42	0x3e043a1f	0.12912796
43	0xbeb16c85	-0.34653106
44	0xbb7ef8c8	-0.003890561
45	0xbd36e0b6	-0.044647895
46	0x3d9bc70e	0.07606326
47	0xbdc05998	-0.09392089
48	0xbdda340c	-0.106544584
49	0x3d5a42b9	0.053286288
50	0xbde9bb71	-0.11412705
51	0x3b57497e	0.0032850201
52	0xbeb95892	-0.36200386
53	0xbb5e5686	-0.0033926084
54	0xbdffffa6	-0.12499933
55	0x3d74c3ae	0.059756927
56	0x3d732332	0.059359737
57	0x3e1834e3	0.14863925
58	0xbd79c656	-0.060980164
59	0x3ba3a216	0.0049936874
60	0x3ce8b700	0.028407574
61	0xbdbebca9	-0.09313328
62	0x3de4da3d	0.11174438
63	0xbd51e94b	-0.051247876
64	0x3e777532	0.241658
65	0x3e14081b	0.14456217
66	0xbd3cc175	-0.046082933
67	0xbb00f118	-0.0019674953
68	0xbe617af8	-0.22019565
69	0xbe29c1d6	-0.16577849
70	0xbe46bd84	-0.19408232
71	0xbdc7ee68	-0.09762269
72	0xbd29fc4c	-0.041500375
73	0xbd8e78c8	-0.06956631
74	0xbe3301b3	-0.17481117
75	0xbdc57383	-0.09641173
76	0xbea8a5c1	-0.3293896
77	0xbdc63fed	-0.096801616
78	0xbe45b2ef	-0.19306539
79	0xbeb5a905	-0.35480514
80	0xbdddadc9	-0.108241625
81	0x3e2fb34e	0.17158243
82	0xbbcb7c53	-0.006209889
83	0x3dacdaea	0.08440192
84	0x3eeee303	0.4665757
85	0xbe357ab8	-0.17722595
86	0xbe7c52db	-0.24640982
87	0x3e1bd993	0.15219717
88	0xbd60d8d6	-0.05489429
89	0xbef44568	-0.47709203
90	0xbc703044	-0.014659945
91	0xbe1a4566	-0.15065536
92	0xbe15ab02	-0.14616016
93	0x3d4befbf	0.049789187
94	0xbe6142bf	-0.21998118
95	0x3df5108e	0.11966048
96	0xbde5a933	-0.11213913
97	0xbd37c85c	-0.044868812
98	0xbdcb9deb	-0.0994223
99	0x3d5c3d5c	0.053769454
100	0xbbe0e661	-0.006863401
101	0x3c8650bf	0.016395925
102	0xbde5bc01	-0.112174995
103	0xbe8499e9	-0.25898674
104	0xbb0a0551	-0.0021060298
105	0x3e3b3514	0.18281966
106	0x3ea3d547	0.31998655
107	0xbe9e0144	-0.3086034
108	0xbe9172f8	-0.28408027
109	0xbe127f09	-0.14306273
110	0xbe854208	-0.2602694
111	0xbd67f7f0	-0.056632936
112	0xbec0123c	-0.37513912
113	0xbe1f6ef0	-0.15569663
114	0xbc77953e	-0.015111266
115	0x3cbd6a66	0.023122024
116	0xbe8cd73d	-0.27507964
117	0xbea09656	-0.31364697
118	0xbe79e6e8	-0.2440449
119	0x3da9df41	0.082945354
120	0xbdc2e430	-0.095161796
121	0xbe02a0d7	-0.12756668
122	0x3e1559d6	0.14585051
123	0xbdafc15f	-0.085818045
124	0x3dcbd0fe	0.099519715
125	0x3da6f3e1	0.08151985
126	0xbe0dd5b1	-0.13851048
127	0xbd536060	-0.051605582
128	0xbe9cef4a	-0.30651313
129	0xbe699baf	-0.22813295
130	0xbe4e78bf	-0.20163248
131	0xbf0f1f36	-0.55907
132	0x3e29fdbb	0.16600697
133	0x3de345af	0.110972755
134	0x39129950	0.00013980758
135	0x3c9099eb	0.017651519
136	0x3d4af6f0	0.049551904
137	0x3d0f504e	0.034988694
138	0xbd319732	-0.04335708
139	0x3d9bc8b6	0.07606642
140	0x3d17637e	0.036960118
141	0xbe937f7d	-0.28808203
142	0xbdf40b45	-0.11916212
143	0xbe1eb4cc	-0.15498656
144	0xbe8dcff5	-0.2769772
145	0xbe03c48b	-0.12867944
146	0xbe69cbff	-0.22831725
147	0xbe36aaa1	-0.17838527
148	0xbeac7c7e	-0.3368873
149	0xbe95c1ef	-0.29249522
150	0x3e23db2a	0.16001573
151	0xbd27a1d4	-0.040925816
152	0xbedbd02c	-0.4293226
153	0xbd7a90bb	-0.061173182
154	0xbc41c9b2	-0.011827873
155	0xbe53c8c0	-0.20682049
156	0xbdb26558	-0.08710736
157	0x3e35e799	0.17764129
158	0x3dc81e8d	0.09771452
159	0x3e5d2d36	0.21599278
160	0x3dcf0396	0.10108106
161	0xbcea6772	-0.02861378
162	0xbdd96b99	-0.10616226
163	0xbc9d3a9c	-0.019192986
164	0xbd31c9ba	-0.043405272
165	0xbe4bb87d	-0.19894595
166	0xb977a9a4	-0.00023618952
167	0xbe188daf	-0.14897798
168	0xbd710510	-0.05884272
169	0xbead7018	-0.33874583
170	0xbd8ca56c	-0.06867489
171	0xbe37c424	-0.17945915
172	0x3de51a7a	0.11186691
173	0x3e02c482	0.12770274
174	0xbbda3720	-0.0066594034
175	0x3da211b3	0.07913532
176	0xbe8ff51a	-0.28116685
177	0xbeb303a9	-0.3496373
178	0x3e61cea8	0.2205149
179	0xbf0e1339	-0.5549808
180	0xbe4c310e	-0.19940588
181	0xbe2155b1	-0.15755345
182	0x3d327159	0.043565128
183	0x3e21a96f	0.1578729
184	0xbe58a55d	-0.21156831
185	0x3daf5e23	0.08562877
186	0xba9c4508	-0.0011922428
187	0x3d84971b	0.064741336
188	0xbce6df5a	-0.028182674
189	0xbe8f306d	-0.27966633
190	0xbc3b7698	-0.011441849
191	0xbcb35e83	-0.021895653
192	0x3dfd420f	0.12366115
193	0xbd38f9d0	-0.045160115
194	0x3d1102a3	0.035402905
195	0x3d776eaf	0.06040829
196	0xbb0e5c1d	-0.0021722384
197	0x3ef4107b	0.47668824
198	0x3d8c079d	0.068373896
199	0x3c574275	0.013138403
200	0xbdc57416	-0.09641282
201	0x3e1dedbb	0.15422718
202	0x3d4f96b0	0.050680816
203	0x3d3eec4c	0.04661207
204	0xbd600b2f	-0.054698166
205	0x3c8a64c0	0.016893744
206	0xbe0f377d	-0.13986011
207	0xbe31f76c	-0.1737954
208	0x3dd31607	0.10306936
209	0xbe080541	-0.13283254
210	0xbe2450e8	-0.16046488
211	0x3d3373fe	0.04381179
212	0x3d5a7b1d	0.053340066
213	0xbde82ce1	-0.11336685
214	0x3e23cba6	0.15995654
215	0xbd9e87aa	-0.077407196
216	0xbdbbe413	-0.09174361
217	0xbea72cdb	-0.3265141
218	0xbd75c64a	-0.060003556
219	0x3b871b9f	0.0041231657
220	0xbe13bc58	-0.14427316
221	0xbe0abb11	-0.13547923
222	0xbd90cafc	-0.07069966
223	0x3e140db9	0.1445836
224	0x3db7eea3	0.08981063
225	0x3def17ef	0.11674487
226	0x3d456a38	0.048197
227	0xbd97d175	-0.07412998
228	0xbe155247	-0.14582168
229	0x3de0d9a4	0.10979012
230	0xbe75c146	-0.23999509
231	0xbddb1074	-0.106964976
232	0xbc362156	-0.011116346
233	0x3e4dacfa	0.20085517
234	0xbd8882d0	-0.066655755
235	0xbd25cf7c	-0.040481076
236	0xbd8ea9cd	-0.06965981
237	0xbd8f0952	-0.069841996
238	0xbde4ce81	-0.111722
239	0x3c43cce2	0.011950703
240	0xbdb1e55f	-0.08686327
241	0xbe92372f	-0.28557727
242	0xbcfffaa0	-0.031247437
243	0xbe5c06c6	-0.21486959
244	0x3d104feb	0.035232466
245	0x3ca6e44f	0.020372538
246	0xbe06f5f6	-0.13179764
247	0xbdff6909	-0.12471206
248	0xbda4f941	-0.08055354
249	0x3d4bb266	0.04973068
250	0xbe0e2f9e	-0.13885352
251	0xbdac3507	-0.08408552
252	0xbde81eb0	-0.11333978
253	0x3c964c2e	0.018346872
254	0xbeb63cb7	-0.35593197
255	0xbe1a9a40	-0.15097904

fc3.bias f4 [10]
0	0xbdd6f8ac	-0.10496649
1	0xbe80daf9	-0.25167063
2	0xbd02d279	-0.031939004
3	0x3d80f960	0.062975645
4	0xbe3bfae2	-0.18357423
5	0xbbdcfa99	-0.0067437408
6	0x3e122045	0.14270122
7	0x3ce747c9	0.028232472
8	0x3db1d740	0.08683634
9	0xbdcf92c9	-0.10135419
