HW1_Split_nb/checkpoints/model_dropout_2.pt (torch, 250600 bytes, 10 tensors)

conv1.weight f4 [6, 1, 5, 5]
0.23094602 0.21647975 0.31572926 -0.0072390796 -0.06820767 -0.09319023 -0.06518308 0.20630032
0.07207764 -0.0696259 -0.14644188 -0.19380382 0.24170557 -0.027522484 0.21656251 -0.38862044
-0.2965874 0.040386193 -0.008822139 0.058689255 -0.30328378 -0.14048654 0.30883372 -0.05750354
-0.060033035 0.23890725 -0.040893745 -0.17185144 -0.114434086 -0.08025295 0.15817575 -0.07613769
-0.20325665 0.08767724 0.19289887 -0.22942214 -0.25740826 -0.067460395 0.10019857 0.22921818
-0.1804028 -0.34768668 -0.1553885 0.30633873 0.3000948 -0.1411067 -0.21776727 0.06303042
0.051760014 0.15487446 -0.061958857 -0.28092796 -0.6616948 -0.40925723 -0.20835395 -0.7136904
-0.80094147 -0.9040675 -0.3046469 0.13198222 -0.13896719 -0.9460251 -0.7755082 -0.0042648693
0.010807028 0.12259737 -0.18616632 -0.051474404 -0.031678174 0.124308065 0.42615232 0.21607848
0.20622668 -0.024160821 0.31669647 -0.2615891 0.101861924 -0.1314872 0.15095204 0.18364741
-0.08770635 -0.16486728 -0.06333599 0.24557985 0.037426855 -0.10644726 -0.21076295 0.0040927846
0.060748503 0.20302026 -0.13067235 0.15275523 0.0519111 0.29111114 0.13106652 0.06722284
-0.09951932 0.025618281 -0.032458115 0.19421129 0.1256921 0.15374924 -0.15546115 0.0795824
0.09690231 0.062026184 -0.070229515 0.13851906 0.08053453 0.19105399 0.18072687 0.23811068
-0.07629548 0.13792072 -0.14108612 0.042228963 -0.017706012 -0.0945855 -0.14276123 0.0078102727
-0.20181568 0.063961744 -0.23044609 0.04143634 0.03166443 -0.20232576 0.047897473 -0.15199797
0.22116013 0.11575449 -0.0049837492 -0.06393795 0.11275851 0.2056732 -0.0030803538 -0.032984912
-0.14481698 -0.02436565 0.17543915 -0.076846376 -0.24100162 -0.12124776 0.124053694 0.27061397
0.08437487 -0.16095419 0.13907355 0.21340296 0.0274324 0.1904811
00000000: 1d7d 6c3e deac 5d3e 44a7 a13e cd35 edbb
00000010: 76b0 8bbd 85da bebd b57e 85bd 6440 533e
00000020: 719d 933d 0698 8ebd dcf4 15be 8274 46be
00000030: aa81 773e d576 e1bc 90c2 5d3e 42f9 c6be
00000040: 4eda 97be fe6b 253d bc8a 10bc 2564 703d
00000050: 0348 9bbe b4db 0fbe 741f 9e3e d588 6bbd
00000060: 33e5 75bd 1aa4 743e 3380 27bd d3f9 2fbe
00000070: 6b5c eabd a95b a4bd d3f8 213e 14ee 9bbd
00000080: 8322 50be 2090 b33d 4887 453e a3ed 6abe
00000090: 04cb 83be ad28 8abd e834 cd3d 2cb8 6a3e
000000a0: 83bb 38be fd03 b2be 2a1e 1fbe 6ed8 9c3e
000000b0: 07a6 993e 467e 10be 62fe 5ebe 1816 813d
000000c0: 4f02 543d 6997 1e3e 92c8 7dbd cad5 8fbe
000000d0: d564 29bf 2a8a d1be bd5a 55be 6ab4 36bf
000000e0: 800a 4dbf f870 67bf aefa 9bbe 5926 073e
000000f0: 6a4d 0ebe b32e 72bf b587 46bf 51c0 8bbb
00000100: f60f 313c 5414 fb3d 62a2 3ebe d3d6 52bd
00000110: f9c0 01bd 3a95 fe3d a330 da3e ad43 5d3e
00000120: 162d 533e eaec c5bc 0a26 a23e 02ef 85be
00000130: fc9c d03d 95a4 06be 2c93 1a3e 110e 3c3e
00000140: 639f b3bd f8d2 28be 4db6 81bd 4979 7b3e
00000150: e74c 193d 0501 dabd 3ed2 57be c41c 863b
00000160: 6cd3 783d 8be4 4f3e f9ce 05be de6b 1c3e
00000170: bca0 543d 850c 953e 4d36 063e 21ac 893d
00000180: c9d0 cbbd 6edd d13c cdf2 04bd 53df 463e
00000190: 6eb5 003e 7170 1d3e 3531 1fbe 19fc a23d
000001a0: b874 c63d 2b0f 7e3d 7ed4 8fbd f1d7 0d3e
000001b0: 4aef a43d a8a3 433e 7710 393e 49d3 733e
000001c0: ce40 9cbd 173b 0d3e e178 10be 47f8 2c3d
000001d0: 330c 91bc 0bb6 c1bd 0030 12be 51ed ff3b
000001e0: c5a8 4ebe 60fe 823d 0ffa 6bbe 27b9 293d
000001f0: 90b2 013d 7c2e 4fbe 2430 443d 5ba5 1bbe
00000200: cd77 623e b110 ed3d b84e a3bb e6f1 82bd
00000210: efed e63d ff9b 523e c3df 49bb 301b 07bd
00000220: e74a 14be 799a c7bc 52a6 333e a261 9dbd
00000230: 21c9 76be bf50 f8bd dd0f fe3d ea8d 8a3e
00000240: bbcc ac3d 2dd1 24be 4c69 0e3e 4e86 5a3e
00000250: eab9 e03c 7a0d 433e

conv1.bias f4 [6]
-0.05209902 0.113299966 0.2884101 -0.09974151 -0.13179114 0.15252969
00000000: c865 55bd d009 e83d 7daa 933e 4745 ccbd
00000010: 42f4 06be be30 1c3e

conv2.weight f4 [16, 6, 5, 5]
-0.10990264 -0.17914297 -0.4705209 -0.46205276 0.13510332 -0.07364821 0.030368118 -0.4209286
-0.53049237 -0.12785569 -0.073792 0.07567756 -0.17179249 -0.50458425 -0.20141438 0.0064152004
0.087583296 -0.1692006 -0.6240562 -0.42198336 -0.01606882 0.32750726 0.24990876 -0.0021463851
-0.05394352 0.07962324 0.012763196 0.00328585 -0.02622442 -0.005734424 -0.030921333 0.060619548
-0.15070698 -0.016267696 -0.13613269 0.10828945 0.028166965 -0.122624874 -0.11486663 -0.12121989
0.045961678 0.05333683 0.06508778 -0.3790837 -0.37469912 -0.08697132 0.14515115 0.13844559
-0.329396 -0.5418762 -0.04139794 0.061422057 -0.1909056 -0.37030137 -0.15713815 -0.07044875
0.017136557 -0.1832953 -0.4783102 -0.50338185 -0.17052808 -0.27874118 -0.09656055 -0.108470075
-0.47662732 -0.2512963 -0.32065567 -0.038625807 -0.056214694 -0.4331811 -0.28392857 -0.26573285
-0.17958833 -0.21822843 -0.4278788 0.14085865 -0.068264544 -0.17179969 -0.078380495 -0.17772686
0.1511205 0.025625376 0.0064931083 -0.18476471 -0.06739375 0.020597573 0.18319577 0.037304416
-0.10772635 -0.17752598 0.059911896 0.089476675 0.1641634 -0.09077157 -0.23221576 -0.17196481
0.07843324 0.15329294 -0.17729846 -0.3149983 -0.05556856 0.044018764 -0.0031539858 -0.0967176
-0.15609033 0.04595862 -0.01805185 0.06445055 -0.018337399 -0.046001438 -0.03617227 0.0898667
0.092059486 -0.05466863 -0.024395807 -0.12017459 0.07684669 0.0025146566 -0.014249574 0.057183534
-0.13419463 -0.05128789 -0.0010213075 0.18574245 0.10767067 0.043201078 0.03607938 -0.012112851
0.04156403 -0.11270669 0.059727345 0.10806843 0.110391796 0.078805044 -0.026462257 0.038961392
0.12630768 0.109940104 0.001484087 0.0109556485 -0.008701942 0.03640346 0.14317906 -0.002392427
0.031422433 -0.165367 0.0998609 0.116896965 0.04598268 -0.058069464 -0.28699222 -0.12626632
-0.28683347 -0.24048291 -0.071120545 -0.1587044 -0.0687293 -0.10549795 -0.34683964 -0.22007062
0.024330508 0.063164316 0.16879132 0.04161861 0.07399703 0.0011321825 0.17302091 0.28401524
0.25359452 0.2608219 -0.013592051 0.20986672 0.18189618 0.20330466 0.09458516 0.17905524
-0.030294048 -0.16758256 0.08558998 0.0007065554 0.04475767 -0.02090153 -0.08331673 -0.05206052
0.061655145 -0.043174278 -0.016924651 -0.05225497 0.0071915956 0.17844425 -0.15292564 0.048552815
-0.0033592584 0.119510524 0.116243735 -0.19020721 0.10183166 -0.019607272 0.13883202 0.056209255
-0.14676882 -0.25062498 -0.020960933 -0.0051692505 -0.12639652 -0.32046622 -0.31838295 -0.044500854
-0.07285976 -0.46967417 -0.44026682 -0.37894347 -0.40071774 -0.33522862 -0.39354837 -0.29889223
-0.17717819 -0.12298001 -0.12800659 -0.29581246 -0.09626904 -0.031175176 -0.044814818 -0.19666237
-0.29567713 -0.012667572 -0.07652551 -0.17533861 -0.13411804 -0.1457372 0.051156 -0.094589405
-0.07004046 0.015822265 -0.09978079 0.05398356 0.0468712 -0.11198481 -0.04655901 0.03727548
-0.1207997 -0.08008849 0.023937551 -0.025625667 -0.00057723944 -0.119969755 -0.055245496 0.014793876
-0.027325267 0.11489344 -0.03577918 -0.02255343 -0.006274204 -0.12673333 -0.11342286 0.0477331
00000000: a314 e1bd 4171 37be 1ee8 f0be 2e92 ecbe
00000010: 8658 0a3e dfd4 96bd 8fc6 f83c f483 d7be
00000020: 59ce 07bf 9aec 02be 4320 97bd d6fc 9a3d
00000030: 5fea 2fbe 6f2c 01bf 923f 4ebe 9a36 d23b
00000040: df5e b33d ec42 2dbe 26c2 1fbf 340e d8be
00000050: c2a2 83bc 08af a73e 15e8 7f3e 5eaa 0cbb
00000060: e1f3 5cbd 8211 a33d b91c 513c 6a57 573b
00000070: 98d4 d6bc d6e7 bbbb bc4e fdbc 344c 783d
00000080: ee52 1abe d543 85bc 5e66 0bbe dcc6 dd3d
00000090: 68be e63c c022 fbbd 323f ebbd 2242 f8bd
000000a0: 5042 3c3d b877 5a3d be4c 853d 4217 c2be
000000b0: 90d8 bfbe 051e b2bd 81a2 143e aec4 0d3e
000000c0: 98a6 a8be 66b8 0abf e390 29bd b295 7b3d
000000d0: c27c 43be 2498 bdbe d3e8 20be 6f47 90bd
000000e0: f761 8c3c c3b1 3bbe 13e5 f4be a2dd 00bf
000000f0: ea9e 2ebe 2ab7 8ebe 8ac1 c5bd 8f25 debd
00000100: 7f08 f4be e9a9 80be fb2c a4be 1836 1ebd
00000110: 6141 66bd eac9 ddbe 165f 91be 230e 88be
00000120: 01e6 37be 4677 5fbe ee12 dbbe 403d 103e
00000130: 48ce 8bbd 42ec 2fbe f485 a0bd 08fe 35be
00000140: 55bf 1a3e 4fec d13c 24c4 d43b f632 3dbe
00000150: bc05 8abd 3ebc a83c ac97 3b3e 84cc 183d
00000160: a29f dcbd 5fc9 35be 2d66 753d 8c3f b73d
00000170: 731a 283e 72e6 b9bd f8c9 6dbe 8b17 30be
00000180: 9ba1 a03d d3f8 1c3e ba8d 35be 7547 a1be
00000190: dc9b 63bd 054d 343d 1ab3 4ebb e113 c6bd
000001a0: 25d6 1fbe 1b3f 3c3d 79e1 93bc a6fe 833d
000001b0: 5038 96bc 016c 3cbd 6029 14bd 080c b83d
000001c0: af89 bc3d 37ec 5fbd b7d9 c7bc 181e f6bd
000001d0: cc61 9d3d f0cc 243b 0c77 69bc 4839 6a3d
000001e0: 516a 09be 4013 52bd 65dd 85ba 4533 3e3e
000001f0: 7182 dc3d 9df3 303d f9c7 133d fb74 46bc
00000200: 0b3f 2a3d c4d2 e6bd a9a4 743d fb52 dd3d
00000210: 1815 e23d 8a64 a13d 60c7 d8bc fb95 1f3d
00000220: cd56 013e 4728 e13d b285 c23a 527f 333c
00000230: 9792 0ebc cb1b 153d 889d 123e 44ca 1cbb
00000240: cfb4 003d f855 29be df83 cc3d ad67 ef3d
00000250: 5658 3c3d 3fda 6dbd a5f0 92be f54b 01be
00000260: d6db 92be 2741 76be a6a7 91bd 6883 22be
00000270: f2c1 8cbd 4f0f d8bd f794 b1be 315a 61be
00000280: c650 c73c 4b5c 813d a2d7 2c3e 4778 2a3d
00000290: c18b 973d be65 943a 652c 313e 726a 913e
000002a0: 24d7 813e 738a 853e 32b1 5ebc 4de7 563e
000002b0: fe42 3a3e 192f 503e ddb5 c13d 425a 373e
000002c0: 392b f8bc c39a 2bbe cd49 af3d 2138 393a
000002d0: d253 373d af39 abbc f6a1 aabd 693d 55bd
000002e0: 1b8a 7c3d 83d7 30bd 91a5 8abc 4f09 56bd
000002f0: 7aa7 eb3b 17ba 363e 8a98 1cbe 51df 463d
00000300: 0127 5cbb efc1 f43d 3211 ee3d aec5 42be
00000310: 1e8d d03d 6e9f a0bc fb29 0e3e ad3b 663d
00000320: 914a 16be eb51 80be 43b6 abbc d162 a9bb
00000330: 176e 01be 2614 a4be 1703 a3be 8746 36bd
00000340: 7f37 95bd 2279 f0be a76a e1be e104 c2be
00000350: e02a cdbe 16a3 abbe 2c7f c9be 6708 99be
00000360: 336e 35be f2dc fbbd 2914 03be bb74 97be
00000370: b428 c5bd 1563 ffbc be8f 37bd dc61 49be
00000380: fe62 97be a68b 4fbc 68b9 9cbd f78b 33be
00000390: 3d56 09be 223c 15be f488 513d 17b8 c1bd
000003a0: 5f71 8fbd b29d 813c df59 ccbd de1d 5d3d
000003b0: 04fc 3f3d 4b58 e5bd a9b4 3ebd 2cae 183d
000003c0: d565 f7bd 6f05 a4bd af18 c43c ebec d1bc
000003d0: e251 17ba b4b2 f5bd 1a49 62bd 0362 723c
000003e0: 3dd9 dfbc 404d eb3d 308d 12bd f9c1 b8bc
000003f0: d697 cdbb 62c6 01be 3f4a e8bd c883 433d

conv2.bias f4 [16]
-0.0019184776 0.092173435 0.0407576 -0.027872572 0.17068876 0.06959991 0.08781104 -0.006726496
0.041839693 0.010044596 0.0073474897 0.10170116 0.1526833 -0.028527023 0.06649153 0.094313785
00000000: 6d75 fbba 6dc5 bc3d 71f1 263d 0555 e4bc
00000010: 09c9 2e3e 668a 8e3d 46d6 b33d f069 dcbb
00000020: 1960 2b3d 1792 243c 36c3 f03b b348 d03d
00000030: 0359 1c3e 81b1 e9bc b62c 883d 9627 c13d

fc1.weight f4 [120, 400]
-0.060898498 0.068255775 -0.083765835 -0.16312785 0.17273195 -0.10276159 -0.24972719 0.017633466
-0.12899554 0.045162085 0.01553901 -0.008050756 -0.021401064 -0.09562338 -0.05411493 0.036273394
0.04893235 0.08095352 -0.020580523 0.12637956 0.12199144 0.14332826 -0.0025795014 0.0647517
0.18708506 0.13692456 0.08392836 -0.13241674 -0.027950417 0.084172145 -0.0345866 -0.059262317
-0.12633751 -0.000829225 0.07275801 -0.13846675 -0.08507005 0.014250184 0.03357568 0.0771546
0.028821597 0.058607154 0.058200654 -5.562393e-06 -0.02396642 0.05308228 0.10983369 0.06762264
0.024399457 0.09050136 -0.18164873 0.022823995 -0.038489003 0.20583482 0.060912494 -0.12158656
-0.13064002 0.029637786 0.027554588 0.08117016 -0.19655979 -0.17647012 -0.012820756 -0.13821459
0.017050784 -0.03148826 -0.020036338 -0.08711026 -0.018900111 0.008204422 0.0038545672 -0.04477173
-0.15831693 -0.1567728 -0.023680987 -0.024025664 0.17465211 0.17663161 0.1418397 0.022262935
0.17298196 0.18644615 0.0869731 0.2172837 0.1880818 0.10419596 0.20103581 0.07131753
-0.0017174608 0.07370267 0.0064356616 0.03006492 0.05327429 -0.1187467 -0.070685945 -0.021493124
-0.013593136 -0.16671275 -0.01231219 0.1363053 -0.15851343 -0.04847172 0.08962086 -0.06897091
-0.058255214 -0.028400354 0.08890016 0.060115177 -0.09998721 0.00046480328 -0.0921676 0.23347779
0.022792822 -0.07375554 0.11730059 0.09409711 0.123557754 0.15395893 0.06265568 0.064072356
0.13163012 0.046380457 0.053737536 -0.105582595 0.023010407 -0.078450814 -0.09424381 -0.0042349882
-0.15017208 -0.042256624 -0.1941954 -0.04477676 -0.03191112 -0.012637056 -0.0053955046 -0.19565213
0.07650218 0.05032954 -0.041566126 -0.02562398 -0.01715551 0.14948848 -0.024967458 -0.04971221
-0.034139223 -0.052329622 0.07180017 0.07338884 0.033169553 -0.011170201 -0.08273912 -0.15726252
0.019987099 0.023714693 0.10698794 -0.10191973 -0.020712717 0.044621997 -0.12046038 0.07591897
-0.04441387 0.09100234 -0.05532517 -0.088241085 -0.049339693 0.05359367 0.06725243 0.0112463925
-0.10230136 0.069386005 0.024897994 0.0562656 0.025927624 0.058028016 0.062001005 -0.12648655
-0.17207056 0.040966198 -0.03647227 -0.07916111 -0.20163816 -0.023246631 0.1338433 -0.08110804
0.007082956 -0.06635143 0.09235295 0.009057872 -0.140695 -0.062246624 0.008851743 0.10158957
-0.06836279 -0.072009176 -0.13667983 0.10114183 0.025775598 0.058968153 -0.011783981 0.09359631
0.031259295 0.11933484 0.09300979 -0.012254415 -0.06358012 0.16372265 0.03449479 0.18269284
0.074538894 0.028640136 0.17701496 0.1252909 0.12757243 0.011954215 0.050006103 -0.029789
0.06899702 -0.14759722 0.03429354 -0.013811025 0.00078357 0.049410213 -0.23366114 0.0077341516
0.061671842 -0.011809833 -0.029994018 -0.02540311 0.07373869 0.11298479 -0.1104441 -0.0736553
0.11867665 -0.159055 -0.066907994 -0.15433799 0.023217035 0.031862944 -0.06491913 0.028834855
-0.056441806 0.061021715 -0.073914826 0.052893877 -0.081066094 0.07490618 0.015028981 -0.11539156
-0.048015144 -0.0015030976 -0.00937022 -0.123568445 0.05883183 0.112439714 -0.041406386 -0.10726692
00000000: b470 79bd afc9 8b3d 6c8d abbd fd0a 27be
00000010: a5e0 303e ab74 d2bd 7cb8 7fbe 0f74 903c
00000020: 6817 04be e1fb 383d 5597 7e3c 51e7 03bc
00000030: 4951 afbc 31d6 c3bd 9ea7 5dbd 6993 143d
00000040: 4a6d 483d f6ca a53d 7c98 a8bc a569 013e
00000050: a6d6 f93d a5c4 123e da0c 29bb 8a9c 843d
00000060: 3a93 3f3e f435 0c3e a2e2 ab3d 4198 07be
00000070: 46f8 e4bc 7262 ac3d aeaa 0dbd 0bbd 72bd
00000080: 9f5e 01be 5960 59ba 2702 953d 3aca 0dbe
00000090: 3539 aebd 9b79 693c a786 093d 3b03 9e3d
000000a0: 451b ec3c 0e0e 703d cf63 6e3d 98a4 bab6
000000b0: 3a55 c4bc ce6c 593d 7cf0 e03d bd7d 8a3d
000000c0: 5fe1 c73c c758 b93d 2002 3abe 63f9 ba3c
000000d0: a5a6 1dbd 5dc6 523e 617f 793d 6002 f9bd
000000e0: 7fc6 05be f1ca f23c 29ba e13c 8a3c a63d
000000f0: f846 49be 95b4 34be 260e 52bc 2088 0dbe
00000100: 16ae 8b3c d5f9 00bd 3f23 a4bc dd66 b2bd
00000110: 68d4 9abc d76b 063c e89c 7c3b 9062 37bd
00000120: d51d 22be 0d89 20be a1fe c1bc 78d1 c4bc
00000130: 01d8 323e ebde 343e 6d3e 113e c260 b63c
00000140: 2f22 313e bdeb 3e3e f41e b23d 9e7f 5e3e
00000150: 8498 403e b164 d53d 55dc 4d3e ed0e 923d
00000160: 6c1c e1ba 6df1 963d 3ee2 d23b b54a f63c
00000170: 2436 5a3d 7831 f3bd cbc3 90bd 5912 b0bc
00000180: bfb5 5ebc bfb6 2abe 11b9 49bc 9e93 0b3e
00000190: 5851 22be 488a 46bd 248b b73d 9f40 8dbd
000001a0: 059d 6ebd dca7 e8bc 4911 b63d 553b 763d
000001b0: 18c6 ccbd d7b0 f339 5ec2 bcbd cd14 6f3e
000001c0: 03b8 ba3c 250d 97bd 4b3b f03d fcb5 c03d
000001d0: d90b fd3d 69a7 1d3e 9f51 803d 5e38 833d
000001e0: 0cca 063e 6ff9 3d3d e41b 5c3d b03b d8bd
000001f0: 5280 bc3c d2aa a0bd e602 c1bd a8c5 8abb
00000200: b6c6 19be 4815 2dbd 29db 46be d667 37bd
00000210: 3cb5 02bd a80b 4fbc c6cc b0bb 0859 48be
00000220: 2dad 9c3d 5926 4e3d 3e41 2abd 62e9 d1bc
00000230: b689 8cbc 8213 193e 8e88 ccbc 089f 4bbd
00000240: 92d5 0bbd 9657 56bd f80b 933d e34c 963d
00000250: ccdc 073d 3803 37bc 2173 a9bd 6d09 21be
00000260: fcbb a33c 5145 c23c 7e1c db3d 4bbb d0bd
00000270: b7ad a9bc 8ec5 363d efb3 f6bd 687b 9b3d
00000280: 51eb 35bd 6f5f ba3d a59c 62bd beb7 b4bd
00000290: 6b18 4abd 0985 5b3d a4bb 893d ca42 383c
000002a0: 6083 d1bd 401a 8e3d e1f6 cb3c c276 663d
000002b0: 2b66 d43c c9ae 6d3d c4f4 7d3d b185 01be
000002c0: 4433 30be 2ccc 273d f263 15bd 381f a2bd
000002d0: 3c7a 4ebe b86f bebc 380e 093e f91b a6bd
000002e0: 2418 e83b 42e3 87bd 8b23 bd3d 7867 143c
000002f0: 5a12 10be 51f6 7ebd e706 113c 310e d03d
00000300: ca01 8cbd 8c79 93bd ccf5 0bbe 7323 cf3d
00000310: 5927 d33c 9788 713d 9911 41bc 6caf bf3d
00000320: bf09 003d d365 f43d eb7b be3d bec6 48bc
00000330: 4b36 82bd e9a6 273e 694a 0d3d d513 3b3e
00000340: d9a7 983d b89e ea3c 6943 353e 424c 003e
00000350: 59a2 023e 9ddb 433c 33d3 4c3d 1008 f4bc
00000360: 4f4e 8d3d ba23 17be 6277 0c3d a347 62bc
00000370: 7e68 4d3a 5d62 4a3d de44 6fbe c46e fd3b
00000380: 9d9b 7c3d 087e 41bc 04b6 f5bc 2f1a d0bc
00000390: 4f04 973d 9264 e73d 8430 e2bd 97d8 96bd
000003a0: be0c f33d 50df 22be 0f07 89bd c70a 1ebe
000003b0: a731 be3c b882 023d 52f4 84bd 1337 ec3c
000003c0: 862f 67bd e8f1 793d a860 97bd 40a7 583d
000003d0: fb05 a6bd 6968 993d 1d3c 763c 6952 ecbd
000003e0: 87ab 44bd 9603 c5ba 8d85 19bc 7411 fdbd
000003f0: a5f9 703d cb46 e63d be99 29bd c2ae dbbd

fc1.bias f4 [120]
0.06456759 0.09361067 0.01343975 -0.012685682 -0.04906914 0.08653313 0.014245482 -0.04116909
0.010131785 0.1058713 0.043995928 0.081144884 0.15902537 0.119824365 0.08731545 0.14850663
0.0204709 -0.019440124 0.16639522 0.043957774 0.1353812 0.17320143 -0.013382154 0.023297127
0.046082873 -0.0732373 -0.048958093 0.012467369 -0.06059011 0.0691829 -0.064464085 0.2064552
0.09586421 0.039085712 0.1646227 0.08667676 0.1368736 0.047789756 0.023138527 -0.025397254
0.09545184 0.117868766 0.1343847 0.09271189 0.09189548 0.0072373757 0.03915801 0.03938602
-0.0714406 -0.0003181953 0.10892832 -0.11402624 -0.072272696 0.049278576 -0.05624726 0.0057328716
0.062845856 0.06386316 -0.049297515 -0.060680646 0.030170348 0.1903224 -0.05155146 0.13909899
-0.049566723 0.0428058 0.09285085 -0.010788333 0.106662676 0.06866356 0.0022537138 0.07978111
-0.044297624 0.033051256 0.036803942 0.057916496 0.08246882 0.111649945 -0.0868168 0.0060879844
0.01588547 0.15120636 -0.038343 0.0042303633 0.030883787 -0.009308035 0.10303402 0.05161588
0.048117306 0.073235944 0.10824097 0.08129354 -0.05069384 -0.033356264 0.122386016 0.057774078
0.052331798 0.14352779 0.04172982 0.10375931 0.077734 -0.039756343 -0.07225445 0.057376236
0.08993782 -0.08674275 0.07192103 -0.0255282 -0.06703408 0.10427851 0.033197913 0.004158803
-0.03868816 0.09947809 -0.026417477 0.12858507 0.03127732 0.009057696 -0.038471576 0.05389073
00000000: 033c 843d f3b6 bf3d 6632 5c3c 9bd7 4fbc
00000010: b9fc 48bd 4838 b13d e265 693c eba0 28bd
00000020: c9ff 253c 0dd3 d83d 1335 343d 4a2f a63d
00000030: 8cd7 223e 7a66 f53d 71d2 b23d 1f12 183e
00000040: 97b2 a73c e540 9fbc 8263 2a3e 110d 343d
00000050: 5fa1 0a3e b75b 313e d240 5bbc 9ed9 be3c
00000060: 65c1 3c3d 70fd 95bd 4888 48bd f043 4c3c
00000070: 562d 78bd c4af 8d3d bf05 84bd fe68 533e
00000080: 7454 c43d 5718 203d da92 283e 9683 b13d
00000090: 9828 0c3e 31bf 433d 028d bd3c e70d d0bc
000000a0: 417c c33d 2e65 f13d 259c 093e bbdf bd3d
000000b0: b333 bc3d 8227 ed3b 2664 203d 3c53 213d
000000c0: 734f 92bd 73d3 a6b9 d015 df3d 9786 e9bd
000000d0: b503 94bd 55d8 493d 8763 66bd d0da bb3b
000000e0: 54b5 803d b0ca 823d 31ec 49bd 458c 78bd
000000f0: ce27 f73c e0e3 423e a027 53bd f76f 0e3e
00000100: 7a06 4bbd 2255 2f3d 9628 be3d 8cc1 30bc
00000110: f671 da3d 7b9f 8c3d 0bb3 133b 4764 a33d
00000120: 6d71 35bd c160 073d bbbf 163d d939 6d3d
00000130: 6ae5 a83d baa8 e43d 02cd b1bd b77d c73b
00000140: 3f22 823c d7d5 1a3e 8d0d 1dbd dc9e 8a3b
00000150: ffff fc3c ba80 18bc 8003 d33d 2c6b 533d
00000160: a716 453d bafc 953d 71ad dd3d 3a7d a63d
00000170: 58a4 4fbd 94a0 08bd 85a5 fa3d 83a4 6c3d
00000180: de59 563d f3f8 123e e3ec 2a3d c37f d43d
00000190: 0133 9f3d 8cd7 22bd 24fa 93bd 5803 6b3d
000001a0: 5231 b83d 2fa6 b1bd 554b 933d 8420 d1bc
000001b0: 2a49 89bd f98f d53d 89fa 073d 9146 883b
000001c0: 7a77 1ebd 2bbb cb3d 7769 d8bc ceab 033e
000001d0: a61c 003d bb66 143c 5f94 1dbd 87bc 5c3d

fc2.weight f4 [84, 120]
-0.21946073 -0.21168245 0.028451147 0.14901261 -0.11575387 0.0490245 0.09766252 -0.1984524
0.20790343 0.029251926 0.2721309 -0.09847242 -0.16444157 -0.033136755 -0.21741807 -0.2285112
0.16178545 0.062404435 -0.11298257 -0.028455973 0.11713263 -0.15413055 -0.005487019 -0.13612983
0.07648049 -0.1286691 -0.08009301 0.016681708 0.054541234 -0.001657683 -0.08525124 -0.05072087
0.110922046 0.076618075 0.0773331 0.046656907 0.19622663 -0.20836945 -0.01647723 -0.042674776
-0.117517084 -0.027622111 -0.071129 0.06600225 0.047566377 0.016475525 -0.0142440265 0.032907646
-0.24338213 -0.02945849 -0.10495343 0.26343483 -0.16018385 0.01066 0.17103922 0.04876653
0.10461013 -0.018394152 0.06995878 0.08351743 -0.07796589 -0.2598381 0.038307536 0.0022108976
0.037391886 -0.11718634 -0.013380692 0.09699233 -0.055563066 -0.22008729 0.018475054 0.065778114
0.016274631 0.15701726 0.072869115 0.053411324 -0.26634175 -0.20422211 0.2787858 -0.16477372
0.041645408 0.035257857 0.07520858 0.035798464 -0.1642069 0.2057299 0.07211084 -0.1132649
0.22252119 -0.07866764 0.102963574 0.075304374 -0.028576681 -0.062819734 -0.1338298 -0.091342814
-0.21420322 -0.14685412 -0.06338472 -0.30784717 0.032425568 -0.12041324 -0.032640535 -0.074335575
-0.10828867 -0.037627555 0.01974386 -0.065557465 0.024112947 -0.072704576 -0.22508942 0.07247949
-0.00011788738 0.11377487 0.035240185 0.014737864 -0.105849914 -0.015197545 -0.04410142 -0.00870953
0.03802752 -0.035483163 -0.1210433 0.028014082 -0.08050227 -0.01859236 -0.09342168 -0.10731636
-0.027048508 -0.019035105 -0.101480104 0.015645986 0.011142441 0.069046244 0.026138922 -0.13203853
0.092767134 -0.23378651 0.07688738 -0.11240042 0.03074849 0.012189935 -0.026207944 0.05430964
-0.0272348 -0.21401335 -0.00902361 -0.04515336 -0.14072834 0.034082685 0.042723622 0.09428857
-0.14026977 0.010379 0.09901842 0.04089073 0.0093783215 0.009472986 -0.18071854 -0.04627237
0.14716227 0.114992 -0.03296032 -0.048499625 -0.0057506296 -0.074392535 0.09282368 0.064023115
-0.020868793 0.066398874 -0.032799494 -0.14431207 -0.06322671 -0.017403156 -0.15787493 -0.07804411
-0.019495655 -0.116279095 0.04536748 -0.1066304 0.0011379697 0.01070065 -0.008706613 -0.02179678
-0.018583987 -0.023087151 0.03350837 0.029151158 0.011995344 -0.03759747 -0.060667474 -0.050323818
-0.0631801 -0.10219087 0.105079554 -0.013080755 0.031774443 -0.035420757 -0.12383148 0.0012550734
-0.0681704 0.042459197 0.081643075 -0.02356016 -0.037030928 0.01184156 -0.005115484 0.07589065
-0.053767335 -0.01329361 0.15975246 0.06713267 -0.0123136025 0.030430498 0.16342476 0.09418714
0.15499462 -0.0007965451 -0.092277445 0.010705071 -0.016235573 -0.11518193 0.10668196 0.035234418
-0.06965159 0.019501455 -0.03604651 0.037583314 -0.012405094 0.0949989 0.063716024 -0.046735905
0.076389134 0.11952245 -0.05667139 0.12745501 -0.037770875 -0.24198012 0.03459152 -0.070669144
0.031741466 0.09165577 -0.12144872 -0.27757087 -0.12740907 -0.0010223722 -0.17070375 0.010975099
0.07308868 0.063067414 -0.054137517 0.010912581 0.07905495 0.21330243 0.09341967 0.03608856
00000000: 50ba 60be 49c3 58be 6112 e93c c396 183e
00000010: 5d10 edbd eacd 483d 4a03 c83d 1b37 4bbe
00000020: a3e4 543e bca1 ef3c be54 8b3e e8ab c9bd
00000030: 5f63 28be 68ba 07bd d8a2 5ebe d7fe 69be
00000040: 16ab 253e cb9b 7f3d 6863 e7bd 801c e9bc
00000050: 3be3 ef3d 66d4 1dbe 74cc b3bb 9e65 0bbe
00000060: cea1 9c3d d5c1 03be ce07 a4bd 14a8 883c
00000070: a166 5f3d 9d46 d9ba 3498 aebd b0c0 4fbd
00000080: 192b e33d f0e9 9c3d d160 9e3d 501b 3f3d
00000090: a2ef 483e cd5e 55be 41fb 86bc bfcb 2ebd
000000a0: ccac f0bd c447 e2bc 15ac 91bd 302c 873d
000000b0: f6d4 423d aef7 863c c75f 69bc 2bca 063d
000000c0: 2a39 79be ee52 f1bc d3f1 d6bd eee0 863e
000000d0: 3c07 24be 48a7 2e3c e824 2f3e 6abf 473d
000000e0: d63d d63d 55af 96bc 8d46 8f3d 300b ab3d
000000f0: 95ac 9fbd 8009 85be 5de8 1c3d b5e4 103b
00000100: 3c28 193d 64ff efbd b13a 5bbc eaa3 c63d
00000110: 1996 63bd 905e 61be ff58 973c adb6 863d
00000120: 6052 853c 22c9 203e 673c 953d d5c5 5a3d
00000130: f25d 88be 9a1f 51be 03bd 8e3e 71ba 28be
00000140: 6094 2a3d 8b6a 103d f506 9a3d 69a1 123d
00000150: db25 28be dcaa 523e d9ae 933d 6ef7 e7bd
00000160: 98dc 633e 801c a1bd 91de d23d 2e39 9a3d
00000170: a519 eabc a2a7 80bd ae0a 09be f111 bbbd
00000180: 1758 5bbe ed60 16be d9cf 81bd 259e 9dbe
00000190: acd0 043d 379b f6bd 15b2 05bd 403d 98bd
000001a0: 73c6 ddbd 5a1f 1abd e0bd a13c fe42 86bd
000001b0: 8488 c53c 23e6 94bd d77d 66be 2070 943d
000001c0: 4e3a f7b8 cd02 e93d 0358 103d 1577 713c
000001d0: d7c7 d8bd 20ff 78bc b1a3 34bd 6bb2 0ebc
000001e0: bfc2 1b3d cb56 11bd 8de5 f7bd ca7d e53c
000001f0: 60de a4bd 014f 98bc de53 bfbd aec8 dbbd
00000200: d594 ddbc 82ef 9bbc cdd4 cfbd 032c 803c
00000210: c98e 363c 1e68 8d3d 4b21 d63c 1c35 07be
00000220: b2fc bd3d bb65 6fbe 2177 9d3d 3132 e6bd
00000230: 42e4 fb3c 4bb8 473c 0bb2 d6bc c973 5e3d
00000240: 841b dfbc 5126 5bbe c3d7 13bc bbf2 38bd
00000250: 171b 10be 499a 0b3d f7fe 2e3d 5e1a c13d
00000260: e1a2 0fbe ae0c 2a3c 2bca ca3d 0a7d 273d
00000270: 88a7 193c 9534 1b3c 480e 39be 1988 3dbd
00000280: b5b1 163e ed80 eb3d 6701 07bd 8ba7 46bd
00000290: c76f bcbb 1d5b 98bd 571a be3d 8d1e 833d
000002a0: 08f5 aabc 22fc 873d c358 06bd 8bc6 13be
000002b0: 017d 81bd 1091 8ebc f7a9 21be 97d5 9fbd
000002c0: 5ab5 9fbc bc23 eebd 40d3 393d 0a61 dabd
000002d0: ed27 953a c751 2f3c 2fa6 0ebc 298f b2bc
000002e0: 723d 98bc 4421 bdbc 1340 093d 69ce ee3c
000002f0: 1f88 443c ceff 19bd 757e 78bd 5920 4ebd
00000300: 9164 81bd 7249 d1bd f333 d73d aa50 56bc
00000310: eb25 023d 5b15 11bd 5c9b fdbd 4681 a43a
00000320: ec9c 8bbd b2e9 2d3d 7c34 a73d 3d01 c1bc
00000330: bead 17bd 1a03 423c ca9f a7bb 8f6c 9b3d
00000340: 233b 5cbd 71cd 59bc 2696 233e da7c 893d
00000350: febe 49bc 6149 f93c d258 273e 30e5 c03d
00000360: e9b6 1e3e 3dcf 50ba f5fb bcbd 5264 2f3c
00000370: 7700 85bc 81e4 ebbd 127c da3d f751 103d
00000380: 7ea5 8ebd 84c1 9f3c 81a5 13bd f6f0 193d
00000390: bc3e 4bbc c98e c23d 8c7d 823d 266e 3fbd
000003a0: e871 9c3d 30c8 f43d 4220 68bd 9183 023e
000003b0: a2b5 1abd a3c9 77be d6af 0d3d fcba 90bd
000003c0: 5703 023d 05b6 bb3d 1bba f8bd c51d 8ebe
000003d0: 8677 02be 1e01 86ba f7cc 2ebe e7d0 333c
000003e0: 85af 953d 7d29 813d 4dbf 5dbd afca 323c
000003f0: 90e7 a13d f46b 5a3e d052 bf3d 99d1 133d

fc2.bias f4 [84]
0.016095921 0.33606955 0.17121322 0.0389236 0.22507477 0.00580619 0.37346852 0.16688204
0.2159474 0.08396365 0.15075533 0.1519364 0.165855 0.20756416 0.00906119 0.19309653
0.22343142 0.10973734 0.14379151 0.04270069 -0.0037273655 0.21630383 0.103304505 0.14770478
-0.05004619 0.08955034 -0.06617058 0.06729944 0.00045869997 0.02966005 0.22390169 0.20560412
0.15290757 0.18178008 0.05533943 0.020282887 0.079118095 0.12865749 0.15270758 -0.05589869
0.0178072 0.2559929 0.32708588 -0.10586446 0.053924393 0.15579335 0.12573439 0.06290911
0.13428728 0.23174648 0.059486844 0.13202815 0.12838414 0.020178353 -0.016631322 0.23671567
0.29404554 -0.06937805 0.038753193 0.047545336 0.13480367 0.15555206 -0.10253758 -0.12345863
0.04376666 0.112830885 -0.0054142186 -0.06916911 -0.003162781 0.14180577 0.04100075 0.1042232
0.25658658 0.2180112 0.16305597 0.1841841 0.057116594 0.13756084 0.118836015 0.21998405
0.1763032 0.11073262 0.10085236 0.19762932
00000000: 98db 833c 4f11 ac3e 8552 2f3e 5a6e 1f3d
00000010: 007a 663e da41 be3b 4437 bf3e 20e3 2a3e
00000020: 5121 5d3e 22f5 ab3d 9b5f 1a3e 3795 1b3e
00000030: e5d5 293e b38b 543e 6375 143c 19bb 453e
00000040: 35cb 643e f8bd e03d 153e 133e ebe6 2e3d
00000050: d146 74bb c07e 5d3e 5091 d33d ec3f 173e
00000060: 3cfd 4cbd 2b66 b73d 7184 87bd 4ad4 893d
00000070: ab7d f039 a2f9 f23c 7c46 653e e389 523e
00000080: cd93 1c3e 8f24 3a3e 99ab 623d 4c28 a63c
00000090: ab08 a23d cabe 033e 605f 1c3e 06f6 64bd
000000a0: 68e0 913c 8011 833e cd77 a73e 77cf d8bd
000000b0: d3df 5c3d 4b88 1f3e 84c0 003e 7ed6 803d
000000c0: 9b82 093e f34e 6d3e 7aa8 733d 6332 073e
000000d0: 2277 033e 134d a53c 693e 88bc 9865 723e
000000e0: 238d 963e 1416 8ebd abbb 1e3d e6be 423d
000000f0: f909 0a3e 0a49 1f3e 39ff d1bd e1d7 fcbd
00000100: ab44 333d e113 e73d c269 b1bb 89a8 8dbd
00000110: a946 4fbb 8835 113e 67f0 273d f972 d53d
00000120: 515f 833e 543e 5f3e 25f8 263e c29a 3c3e
00000130: 17f3 693d c0dc 0c3e 4c60 f33d 8043 613e
00000140: d388 343e c9c7 e23d af8b ce3d 575f 4a3e

fc3.weight f4 [10, 84]
-0.061612856 0.062171057 0.14249128 -0.0058363825 -0.12345112 -0.19232094 0.080705106 0.048366077
-0.23857008 0.105173215 -0.028574796 -0.19087803 -0.22667643 -0.009978673 0.03046788 0.054757524
0.08702144 -0.015030952 0.11354297 -0.17540158 -0.044068735 0.029255481 -0.048723463 0.10314769
-0.05553367 0.15853189 -0.09566554 -0.08462344 0.09814854 -0.08971414 0.021519944 -0.032759435
0.017917804 -0.16078568 0.10391235 0.019779665 -0.07523147 0.087139115 -0.16186205 0.17291552
0.048451725 0.0787179 -0.14290217 0.03386221 0.015952276 -0.03861062 -0.1528236 -0.039381593
-0.23198418 -0.11196382 0.030426612 0.021179447 0.028311135 -0.166361 -0.18210593 0.14936475
0.10745512 -0.102843 -0.007905721 -0.29903054 0.013363756 0.070170864 -0.07703212 -0.087653674
0.045433898 -0.5322456 -0.07932971 -0.05135385 0.12523519 0.015014804 -0.21000059 0.049168672
0.10603272 0.03599727 -0.09461746 -0.02966892 -0.040219273 0.11927187 -0.21779874 0.00052106637
-0.14327398 0.07204607 0.040117405 -0.0044414685 0.33020362 -0.2190836 -0.2088798 0.0835219
-0.10469526 0.07177526 -0.2538221 -0.21885756 -0.15175788 0.08656217 -0.09842674 -0.11930404
-0.054298192 0.07159555 -0.24742422 -0.33623156 0.048286766 -0.10606767 -0.18255244 0.21186672
0.11290595 -0.17748202 0.19002154 0.020074736 0.29382974 0.079561986 0.13045833 -0.14398901
0.103267625 -0.12828779 0.16208993 -0.114631966 -0.072371356 -0.12539914 0.13862751 -0.063904904
0.052005716 -0.1477617 0.06955839 -0.19528124 -0.093180686 0.13201696 -0.20300108 -0.08713749
-0.13744198 0.0090698805 -0.051129825 -0.051859587 0.16333625 -0.33192107 0.16152172 -0.15073141
-0.00019898503 -0.11730798 -0.100506544 -0.021619024 -0.13810807 -0.089714505 -0.06561153 -0.15904999
-0.08174293 0.02464721 -0.0074550183 -0.1205506 -0.1781384 -0.5618823 -0.09136061 0.07826754
-0.066841066 -0.009200995 -0.19852556 0.07880623 -0.049603615 -0.23373854 -0.13668124 0.006437494
0.1337643 0.007262913 -0.34403947 -0.13275422 -0.117800504 -0.16903499 -0.19851957 0.096109785
0.10743619 0.037440445 -0.07185948 -0.21017267 -0.15777984 0.01579381 0.052661233 0.04366159
0.09753652 0.10627992 -0.15187547 -0.085352294 -0.11485043 -0.15628454 -0.12671863 -0.049771495
-0.27648336 0.018237153 -0.22007146 0.028748449 0.0047922973 0.030401573 -0.0043622325 0.15410864
-0.07302382 -0.19006142 0.12501097 -0.0752198 -0.024453102 -0.2002536 0.13715403 -0.07893177
-0.21482198 0.15203589 0.06358899 -0.04213661 0.040004227 -0.22585523 -0.084491625 -0.0117620835
0.02925273 0.06634238 0.14906341 -0.03551577 -0.122600034 0.13954045 -0.21565653 -0.07571954
-0.28600788 0.004191548 -0.32790527 0.14848897 0.05791591 0.17269145 0.0263727 0.13323924
0.0981457 -0.05202405 -0.11129289 -0.046246987 -0.1782533 -0.09599547 0.09063609 -0.21047628
-0.111570284 -0.45021024 -0.11930391 -0.08356422 -0.06300258 0.04623375 0.02300444 0.018717283
-0.013243643 -0.1676533 -0.21347238 -0.11992825 0.019950222 -0.06840538 0.0860916 -0.008103879
-0.27906525 0.140022 -0.114444084 -0.05603944 -0.23992221 -0.07190086 -0.14986102 0.014538214
00000000: c35d 7cbd 14a7 7e3d 3ce9 113e 203f bfbb
00000010: f1d3 fcbd c8ef 44be b848 a53d 821b 463d
00000020: b74b 74be 0e65 d73d b115 eabc 8875 43be
00000030: de1d 68be 977d 23bc c797 f93c 6d49 603d
00000040: 4c38 b23d 6244 76bc 3789 e83d 799c 33be
00000050: 6b81 34bd 31a9 ef3c 4192 47bd 193f d33d
00000060: 4677 63bd 2f56 223e 4bec c3bd 0e4f adbd
00000070: 1a02 c93d 0cbc b7bd 984a b03c c22e 06bd
00000080: 5cc8 923c 00a5 24be 00d0 d43d f708 a23c
00000090: f512 9abd fe75 b23d 2abf 25be c410 313e
000000a0: 5175 463d da36 a13d f254 12be 1ab3 0a3d
000000b0: 59ae 823c 2b26 1ebd ca7d 1cbe 984e 21bd
000000c0: 438d 6dbe 4a4d e5bd 3b41 f93c 8580 ad3c
000000d0: c1ec e73c 8a5a 2abe fa79 3abe 13f3 183e
000000e0: 6e11 dc3d 5a9f d2bd ff86 01bc 881a 99be
000000f0: a8f3 5a3c beb5 8f3d 04c3 9dbd c583 b3bd
00000100: e518 3a3d 3f41 08bf 9d77 a2bd 6a58 52bd
00000110: a73d 003e a700 763c 650a 57be 1765 493d
00000120: af27 d93d e071 133d cdc6 c1bd 3c0c f3bc
00000130: f7bc 24bd cf44 f43d a206 5fbe 2c98 083a
00000140: 6ab6 12be e48c 933d 2652 243d bd89 91bb
00000150: 7310 a93e 7457 60be 96e4 55be 880d ab3d
00000160: 786a d6bd e8fe 923d f8f4 81be 321c 60be
00000170: 6b66 1bbe 8247 b13d f593 c9bd ad55 f4bd
00000180: c867 5ebd b0a0 923d c65c 7dbe 8b26 acbe
00000190: 58c8 453d 023a d9bd 07ef 3abe 97f3 583e
000001a0: 3c3b e73d d9bd 35be 0295 423e c673 a43c
000001b0: da70 963e 65f1 a23d de96 053e db71 13be
000001c0: fa7d d33d e05d 03be e7fa 253e 2ac4 eabd
000001d0: 6f37 94bd a268 00be 5ff4 0d3e 93e0 82bd
000001e0: f203 553d d84e 17be a174 8e3d cef7 47be
000001f0: 84d5 bebd 742f 073e 84df 4fbe 2475 b2bd
00000200: 97bd 0cbe d699 143c 826d 51bd b86a 54bd
00000210: 9e41 273e 8ff1 a9be f365 253e 5659 1abe
00000220: a3a6 50b9 2b3f f0bd 60d6 cdbd 611a b1bc
00000230: 346c 0dbe 3dbc b7bd 565f 86bd 00de 22be
00000240: d668 a7bd f2e8 c93c 3a49 f4bb 3ce3 f6bd
00000250: ea69 36be 85d7 0fbf 461b bbbd bb4a a03d
00000260: f8e3 88bd c5bf 16bc 494a 4bbe 2965 a13d
00000270: 292d 4bbd 2859 6fbe 2bf6 0bbe 9df1 d23b
00000280: 82f9 083e bbfd ed3b f125 b0be b9f0 07be
00000290: 6441 f1bd 8217 2dbe b748 4bbe 35d5 c43d
000002a0: 8107 dc3d 275b 193d 102b 93bd 8137 57be
000002b0: 0a91 21be 0562 813c 4eb3 573d 7fd6 323d
000002c0: 3ac1 c73d 49a9 d93d 3e85 1bbe 2fcd aebd
000002d0: b436 ebbd 0e09 20be 87c2 01be 32dd 4bbd
000002e0: 3a8f 8dbe 1566 953c 6a5a 61be de81 eb3c
000002f0: b408 9d3b b80c f93c 0ff1 8ebb a8ce 1d3e
00000300: 838d 95bd 769f 42be e002 003e d70c 9abd
00000310: df51 c8bc 480f 4dbe 1b72 0c3e fba6 a1bd
00000320: 4bfa 5bbe 4caf 1b3e f23a 823d 7097 2cbd
00000330: 79db 233d 9846 67be f209 adbd c1b5 40bc
00000340: 6ca3 ef3c 84de 873d 14a4 183e fc78 11bd
00000350: ba15 fbbd b1e3 0e3e 11d5 5cbe d912 9bbd
00000360: a06f 92be 4159 893b 33e3 a7be 7e0d 183e
00000370: 3c39 6d3d 07d6 303e 900b d83c de6f 083e
00000380: 9d00 c93d 2c17 55bd 87ed e3bd 7b6d 3dbd
00000390: 0888 36be 4699 c4bd 6a9f b93d 1887 57be
000003a0: f67e e4bd f581 e6be 9c55 f4bd b823 abbd
000003b0: 7f07 81bd 9a5f 3d3d cf73 bc3c fd54 993c
000003c0: ddfb 58bc 4fad 2bbe 8198 5abe f19c f5bd
000003d0: a66e a33c 1f18 8cbd cb50 b03d 22c6 04bc
000003e0: a4e1 8ebe ed61 0f3e a961 eabd 9d89 65bd
000003f0: 2bae 75be c240 93bd 2b75 19be b031 6e3c

fc3.bias f4 [10]
-0.13751522 -0.16231647 0.018436657 0.020953882 -0.20840745 -0.018442437 0.02273624 0.082765415
0.12308443 -0.0532608
00000000: cad0 0cbe 4a36 26be 7908 973c 7aa7 ab3c
00000010: c368 55be 9814 97bc 5a41 ba3c ea80 a93d
00000020: b113 fc3d ff27 5abd
