HW1_Split_nb/checkpoints/model_batchnorm_11.pt (torch, 253730 bytes, 18 tensors)

conv1.weight f4 [6, 1, 5, 5]
0	0xbe502229	-0.20325531
1	0x3e4abd45	0.19798763
2	0x3d165486	0.0367017
3	0x3e73a5a7	0.2379366
4	0xbe32ab6e	-0.17448208
5	0xbdde7782	-0.10862638
6	0x3e34a513	0.17641096
7	0xbc84a330	-0.016191095
8	0x3eadeb70	0.33968687
9	0xbecd297e	-0.4007072
10	0xbe65a9e5	-0.22428091
11	0x3e760200	0.240242
12	0x3e8a0487	0.2695658
13	0x3f2f8b89	0.6857229
14	0xbe5b2ad4	-0.21403056
15	0xbdb4f940	-0.08836603
16	0x3e5df97b	0.216772
17	0x3e878dc3	0.26475343
18	0x3f3acb15	0.7296613
19	0x3ddae7ad	0.1068872
20	0xbd04a792	-0.03238637
21	0xbe3bef73	-0.18353061
22	0xbe45121d	-0.19245191
23	0x3e226003	0.15856938
24	0xbe0bbcc9	-0.13646235
25	0x3e985605	0.29753128
26	0x3e428a65	0.18998106
27	0xbe90ac8f	-0.28256652
28	0xbe9200b0	-0.2851615
29	0xbe86c88d	-0.26324883
30	0x3d8c5bee	0.06853472
31	0x3ec191fe	0.37806696
32	0x3e9bfe2e	0.3046736
33	0xbe950226	-0.29103202
34	0x3da914e4	0.08255938
35	0xbc32e3f5	-0.010918607
36	0xbdd3cf79	-0.10342307
37	0x3e8ebbdd	0.27877703
38	0xbd3b134b	-0.045672696
39	0x3e03d4c8	0.12874138
40	0xbe8dd0de	-0.27698416
41	0xbddff8af	-0.109361045
42	0x3d1e207c	0.0386052
43	0x3e92c55d	0.286662
44	0x3deabe7b	0.114621125
45	0xbdb8a789	-0.0901633
46	0xbecfcfa2	-0.405881
47	0xbe8016fa	-0.2501753
48	0x3e9ee930	0.31037283
49	0xbd5755e9	-0.052572165
50	0x3e0bfea4	0.13671356
51	0xbe38e02b	-0.18054263
52	0xbdd8182a	-0.10551484
53	0xbd84bd30	-0.06481397
54	0x3de2ac84	0.11068061
55	0x3e7011e2	0.23444322
56	0xbdd11293	-0.10208621
57	0xbe278d9f	-0.16362618
58	0x3e3b776c	0.18307275
59	0x3df77d4c	0.12084445
60	0xbe3b121f	-0.18268631
61	0xbf1810ea	-0.5940081
62	0x3ccd5990	0.02506712
63	0x3eccf4b4	0.40030444
64	0x3e0b649f	0.13612603
65	0xbed1e395	-0.40993944
66	0xbf229272	-0.6350471
67	0x3c72c55e	0.014817564
68	0x3e0f887b	0.14016907
69	0x3e8d0c26	0.2754833
70	0xbba64832	-0.0050745243
71	0xbe732385	-0.23744018
72	0xbe22664f	-0.1585934
73	0xbe238ba1	-0.15971233
74	0xbe30040f	-0.17189048
75	0xbd10c37c	-0.03534268
76	0xbeaf1f42	-0.34203535
77	0x3e3b798c	0.18308085
78	0x3e3590ca	0.17731014
79	0x3d427e27	0.04748359
80	0x3dbb85e2	0.091563955
81	0xbebcbc35	-0.3686234
82	0x3e958f5e	0.29210943
83	0x3d937bb6	0.0720133
84	0xbdb53b57	-0.08849209
85	0x3e822fe1	0.25427154
86	0xbe5a77b9	-0.21334733
87	0xbe14bf13	-0.14526014
88	0x3e0d258a	0.13783851
89	0xbd1a6520	-0.037694097
90	0x3e97725c	0.29579437
91	0xbd2fa73d	-0.0428841
92	0xbe33e0fb	-0.17566292
93	0xbe9f98ae	-0.31171173
94	0x3e75b431	0.23994519
95	0x3ea46fde	0.32116598
96	0xbe4ebe5c	-0.20189804
97	0x3de6d071	0.11270226
98	0xbd272d46	-0.04081466
99	0xbe36c062	-0.17846826
100	0x3d87e9a8	0.06636363
101	0x3e6b8983	0.23001675
102	0x3ea5ab8a	0.32357436
103	0x3d61ea1c	0.055154905
104	0xbdb2dda9	-0.087336846
105	0xbe1064d7	-0.14100967
106	0xbd70705f	-0.058700915
107	0xbb3dab4e	-0.0028941217
108	0xbdf6db72	-0.120535746
109	0xbdf1cf0e	-0.11807071
110	0xbe03542d	-0.1282508
111	0xbf6fe4df	-0.93708605
112	0xbf8facb6	-1.1224582
113	0xbe42f848	-0.19040024
114	0x3e09684c	0.13418692
115	0x3e068882	0.13138011
116	0xbc63ab89	-0.013895878
117	0xbea240cd	-0.31690064
118	0xbdf08766	-0.11744575
119	0x3d76bfa2	0.06024135
120	0x3dbec11f	0.09314179
121	0x3ebbca04	0.36677563
122	0x3b93ac60	0.0045066327
123	0x3d812917	0.063066654
124	0xbb8ce179	-0.0042993394
125	0x3e4500b6	0.19238552
126	0x3d67b4c1	0.056568865
127	0x3dfcee00	0.123500824
128	0xbcec811b	-0.028870156
129	0xbe6e2a14	-0.23258239
130	0x3d9e6716	0.07734506
131	0xbd262af6	-0.040568314
132	0x3e5828d8	0.2110933
133	0xbeb3cbfe	-0.3511657
134	0x3d2a6824	0.041603222
135	0x3e8863cf	0.26638648
136	0x3e24dcf0	0.16099906
137	0x3e26ba93	0.1628211
138	0xbea5fdaa	-0.32420093
139	0xbe833d88	-0.25632882
140	0x3e2cc030	0.16870189
141	0x3d765db9	0.060147975
142	0x3e7f2adf	0.24918698
143	0xbed60d68	-0.41807103
144	0xbdd597e2	-0.1042936
145	0x3e50c91e	0.2038922
146	0x3e185c7f	0.14879034
147	0x3e8ea5e3	0.27860937
148	0xbea971f7	-0.3309476
149	0xbe74d7ed	-0.23910494

conv1.bias f4 [6]
0	0xbe029398	-0.12751615
1	0xbd94ff01	-0.07275201
2	0x3ca6420b	0.020295164
3	0xbdb30ac4	-0.08742288
4	0x3df853fa	0.12125392
5	0x3e020168	0.12695849

conv2.weight f4 [16, 6, 5, 5]
0	0xbe25115d	-0.16119905
1	0x3d084493	0.033268522
2	0x3cdd4085	0.027008304
3	0x3e17b845	0.14816387
4	0x3e37a188	0.17932713
5	0xbe6effb8	-0.23339736
6	0xbd6d6bc9	-0.05796412
7	0xbd311b46	-0.0432389
8	0x3dc81fb2	0.097716704
9	0x3de30fb7	0.11086982
10	0xbe11552c	-0.14192647
11	0xbe6238cd	-0.2209198
12	0xbe3ac2a3	-0.1823831
13	0x3e3f3b1c	0.18674892
14	0xbcf9ced4	-0.030494131
15	0xbdace09a	-0.08441277
16	0xbe03a64e	-0.12856409
17	0xbeaca83c	-0.33722103
18	0x3d0c9d2d	0.034329582
19	0xbb9c395c	-0.00476758
20	0x3d05d16c	0.032670423
21	0xbe31bdff	-0.17357634
22	0xbed8aa1d	-0.42317286
23	0xbe1edbb1	-0.15513493
24	0xbe5175df	-0.2045512
25	0xbec19f3a	-0.37816793
26	0xbe9871dc	-0.29774368
27	0xbe9ce277	-0.3064153
28	0xbd5e152a	-0.054219402
29	0x3e8fed97	0.28110954
30	0x3e07ef52	0.13274887
31	0xbdd2a691	-0.10285676
32	0xbedc50de	-0.43030447
33	0xbc2b7905	-0.010465865
34	0xbd91a3a8	-0.07111293
35	0xbc0fa3fc	-0.008767124
36	0xbe8cfc7f	-0.2753639
37	0x3e5c6ea3	0.2152658
38	0x3de225d6	0.11042373
39	0xbc948940	-0.018131852
40	0x3d8e72c0	0.069554806
41	0xbdccada4	-0.09994057
42	0xbdfb1513	-0.12259879
43	0x3e5627df	0.20913647
44	0x3e2a9b89	0.16660894
45	0xbd1728b3	-0.03690405
46	0x3dc4edfa	0.09615703
47	0xbcc5bd03	-0.02413798
48	0x3e2737d0	0.16329885
49	0x3d4da0f6	0.050202332
50	0x3e8048ba	0.25055486
51	0x3e8a9883	0.27069482
52	0x3da849f5	0.08217231
53	0x3dbe98dd	0.093065
54	0x3c2b76e7	0.01046536
55	0x3c0985f4	0.008393753
56	0x3ccce133	0.025009727
57	0xbf067894	-0.5252774
58	0xbe1ff935	-0.15622409
59	0x3c27359d	0.0102056535
60	0x3d6e5bf9	0.05819318
61	0xbe8e64fa	-0.27811414
62	0xbf38d2b3	-0.721965
63	0xbeaa3d47	-0.33249876
64	0xbebb0a51	-0.36531308
65	0x3cfd1e73	0.030898308
66	0xbeca3fef	-0.39501902
67	0xbe17e31a	-0.14832726
68	0x3e3d542b	0.18489139
69	0xbda608f6	-0.08107178
70	0xbe089c92	-0.13340977
71	0xbe4c40cc	-0.19946593
72	0x3e01da05	0.12680824
73	0x3eb321ac	0.34986627
74	0x3e100715	0.14065202
75	0x3e9d0067	0.3066437
76	0x3e161f37	0.14660345
77	0x3e028417	0.12745701
78	0xbe8ad18c	-0.27112997
79	0x3daaaec8	0.08334118
80	0xbe0b0af9	-0.13578404
81	0xbde62cc8	-0.1123901
82	0x3dd3dd6a	0.10344966
83	0xbe7e3334	-0.2482422
84	0xbda148c1	-0.07875205
85	0x3d6bccdb	0.057568412
86	0xbe1c77e3	-0.15280108
87	0xbec88157	-0.39161178
88	0xbd6cf3da	-0.057849742
89	0x3e65d49b	0.22444384
90	0x3cf1515f	0.029457746
91	0xbd6008f8	-0.054696053
92	0xbe7178df	-0.23581265
93	0xbdf78175	-0.12085239
94	0x3d9e4ee9	0.07729895
95	0x3c854d55	0.016272226
96	0x3e2e5c1c	0.17027324
97	0xbdb36b25	-0.087606706
98	0x3db03ee6	0.08605747
99	0xbdcab163	-0.09897115
100	0x3f1c5e09	0.61080986
101	0x3f35e841	0.71057516
102	0x3ec4a9e9	0.3841088
103	0x3d42a3bb	0.047519427
104	0xbeb86c8e	-0.3602032
105	0x3e8d6f07	0.2762377
106	0xbbe80e92	-0.007081815
107	0x3da6845a	0.08130713
108	0x3e4ff6f2	0.20309046
109	0xbe9c352b	-0.30509314
110	0x3ca15cac	0.01969751
111	0xbcc266ad	-0.0237306
112	0xbd8025fc	-0.06257245
113	0xbdc00569	-0.09376032
114	0x3cc6d945	0.024273524
115	0xbe94db46	-0.29073542
116	0xbec63943	-0.38715562
117	0xbe51bee5	-0.20482977
118	0xbe499d3a	-0.19688883
119	0x3d6ebf65	0.058287997
120	0xbe3c7360	-0.18403387
121	0xbd8539f5	-0.06505195
122	0x3c6f0fd9	0.014591181
123	0x3e130e3e	0.14360902
124	0x3ec23f2a	0.37938815
125	0xbe01c035	-0.12670977
126	0x3d9ee74d	0.07758961
127	0x3d95eea3	0.07320907
128	0xbe9c856a	-0.30570537
129	0xbd185ab6	-0.037195884
130	0xbe82bcd9	-0.25534704
131	0xbda5094f	-0.08058416
132	0xbe20910d	-0.15680332
133	0xbdd12039	-0.10211224
134	0x3c6d923f	0.0145002
135	0xbe1ac4f5	-0.15114196
136	0xbd4d978a	-0.050193347
137	0xbdd82e64	-0.10555723
138	0xbd1d3778	-0.038382977
139	0x3e08800f	0.133301
140	0xbd6f1b01	-0.058375362
141	0x3e86bf6d	0.2631792
142	0x3e5bdeec	0.21471757
143	0x3ddfa838	0.10920757
144	0x3d4499d7	0.047998276
145	0xbda854c7	-0.08219295
146	0x3ec49051	0.38391355
147	0x3eaa04c4	0.3320676
148	0x3e37be2c	0.17943639
149	0xbda626b3	-0.0811285
150	0xbed74ef5	-0.42052427
151	0xbea1c72d	-0.31597272
152	0x3da25769	0.079268284
153	0xbdd3e832	-0.10347022
154	0x3e6e65d4	0.23281032
155	0xbf073f35	-0.5283082
156	0xbd859c9f	-0.06524014
157	0x3e54f645	0.2079707
158	0xbb0b2e88	-0.0021237452
159	0xbdc2069f	-0.09473919
160	0xbe8eb4f6	-0.27872437
161	0xbde5d3c2	-0.1122203
162	0xbc195ce6	-0.009360528
163	0x3d4aee24	0.049543515
164	0xbda46dac	-0.08028731
165	0xbe26f0ae	-0.1630275
166	0x3d5c545c	0.05379139
167	0x3ce9d27f	0.028542755
168	0x3e26d540	0.16292286
169	0xbe0bfc27	-0.13670407
170	0xbdfc5538	-0.12320942
171	0xbe5d1726	-0.21590862
172	0xbd911a5c	-0.07085106
173	0x3b1a98d3	0.0023589625
174	0xbc9bef37	-0.019034965
175	0xbf013a36	-0.5047945
176	0xbe1dc0d9	-0.15405597
177	0xbe278ea8	-0.16363013
178	0x3dc3cdc3	0.0956073
179	0x3dbee858	0.0932166
180	0x3dbd8c00	0.092552185
181	0xbdccda9e	-0.100026354
182	0xbe39fb84	-0.18162352
183	0x3e9bc1d8	0.3042133
184	0xbc90a967	-0.017658902
185	0xbe882de3	-0.2659751
186	0xbee033eb	-0.4378961
187	0xbe7857dc	-0.24252266
188	0x3e35a6f6	0.17739472
189	0x3e38d626	0.18050441
190	0x3e3413ea	0.17585722
191	0x3dbb0e0d	0.09133539
192	0xbe88601a	-0.2663582
193	0x3dde51c9	0.10855443
194	0x3d3218e0	0.043480754
195	0x3e3c5d40	0.18394947
196	0x3d7c9a18	0.061670393
197	0xbe9a4a5f	-0.30134866
198	0xbd9affb8	-0.07568306
199	0x3e329c39	0.17442407
200	0xbd9b166a	-0.075726345
201	0x3c10efdd	0.00884625
202	0xbe13841f	-0.14405869
203	0xbe8a40b1	-0.2700248
204	0x3e9a8165	0.30176845
205	0xbc59e4db	-0.013299192
206	0x3d3f8c19	0.046764467
207	0xbd5016a4	-0.05080284
208	0xbe95e82f	-0.29278705
209	0x3de7ccd3	0.11318364
210	0xb8e307c3	-0.00010825649
211	0x3d91c175	0.07116977
212	0xbd43d82d	-0.047813583
213	0xbefd4cb8	-0.49472594
214	0xbe075cdf	-0.13219021
215	0x3dc7f6f3	0.09763899
216	0xbab93b08	-0.0014131973
217	0xbe3ae4de	-0.18251368
218	0xbe887af9	-0.2665632
219	0xbe07ed3a	-0.13274089
220	0x3db66997	0.089068584
221	0xbd6b4a13	-0.05744369
222	0xbeadbb84	-0.33932126
223	0xbe952495	-0.29129472
224	0x3d97a30d	0.07404146
225	0xbf0e3951	-0.5555621
226	0xbeb4fcbf	-0.3534908
227	0x3e90437e	0.28176492
228	0x3eb2ab33	0.3489624
229	0x3d8289db	0.0637395
230	0x3e72fd8a	0.2372953
231	0x3e005afd	0.1253471
232	0xbdc8f0f1	-0.09811581
233	0xbe0f0e03	-0.13970189
234	0x3d62b877	0.0553517
235	0xbd9b85e4	-0.07593897
236	0x3dc6bf8b	0.09704503
237	0x3da8aafd	0.082357384
238	0xbdd7bac1	-0.10533667
239	0x3d1a83c3	0.037723314
240	0x3dda455f	0.10657763
241	0x3ec29567	0.3800461
242	0x3c008484	0.007844094
243	0xbedbcf0a	-0.42931396
244	0xbe1847b4	-0.14871103
245	0x3e122668	0.14272463
246	0x3dbd4cd4	0.092431694
247	0xbe422199	-0.18958129
248	0xbe02fd95	-0.12792046
249	0xbe16b55f	-0.14717625
250	0x3f27e970	0.6559057
251	0x3e233877	0.15939508
252	0xbec27d75	-0.3798634
253	0xbe78510b	-0.24249665
254	0x3f0e5510	0.55598545
255	0xbba7675f	-0.0051087583

conv2.bias f4 [16]
0	0x3e41e7b1	0.1893604
1	0xbe510cee	-0.20415089
2	0xbe59bada	-0.21262684
3	0x3d5d3600	0.054006577
4	0xbb1062d6	-0.0022031567
5	0xbd24e47f	-0.040256973
6	0xbc58c356	-0.0132301655
7	0x3c274409	0.010209092
8	0x3dce7455	0.10080782
9	0xbc81a1fa	-0.015824307
10	0x3c1b1783	0.009466055
11	0xbdf8dd0e	-0.12151538
12	0xbc51fb17	-0.012816212
13	0x3cdbebb5	0.026845792
14	0xbd96f4e5	-0.07370929
15	0x3d1e0197	0.038575735

bn1.weight f4 [6]
0	0x3f0f0957	0.55873626
1	0x3f72732d	0.94706994
2	0x3f8d5d92	1.104418
3	0x3f8b893c	1.0901256
4	0x3fb48f40	1.4106216
5	0x3f148a75	0.5802377

bn1.bias f4 [6]
0	0xbeda4897	-0.42633507
1	0xbdd65753	-0.104658745
2	0xbe9a40b7	-0.30127499
3	0xbe040794	-0.12893516
4	0xbf14daa5	-0.58146125
5	0x3dc32c61	0.09529949

bn1.running_mean f4 [6]
0	0x3ea5a45f	0.32351968
1	0xbd444395	-0.047916014
2	0xbec60600	-0.38676453
3	0xbddb54af	-0.107095115
4	0xbedac95a	-0.42731744
5	0x3e044e9b	0.1292061

bn1.running_var f4 [6]
0	0x3ec5d0fe	0.3863601
1	0x3d20b679	0.03923652
2	0x3eb8efe9	0.36120537
3	0x3d05eadb	0.03269468
4	0x3ef2f331	0.47451165
5	0x3e574b73	0.21024875

bn2.weight f4 [16]
0	0x3f91028e	1.1328905
1	0x3f89e0df	1.077175
2	0x3f828f13	1.0199913
3	0x3f715378	0.9426799
4	0x3f8c3000	1.0952148
5	0x3f7ce04e	0.9877976
6	0x3f7336fe	0.95005786
7	0x3f6badac	0.9206188
8	0x3f7629ce	0.9615754
9	0x3f8d65f2	1.1046736
10	0x3f976e49	1.1830531
11	0x3f8b5dab	1.088796
12	0x3f7c5155	0.985616
13	0x3f56b640	0.8387184
14	0x3f79d591	0.975915
15	0x3f83ef50	1.0307407

bn2.bias f4 [16]
0	0xbf03084d	-0.5118454
1	0xbeea1e40	-0.45726204
2	0xbecdeddd	-0.40220538
3	0xbefeb384	-0.49746335
4	0xbf05e627	-0.5230431
5	0xbed7765d	-0.42082492
6	0xbedb4427	-0.42825434
7	0xbeb7c26a	-0.35890514
8	0xbef6aee7	-0.48180315
9	0xbee2346f	-0.4418063
10	0xbf05f3aa	-0.52324927
11	0xbf2fe4fa	-0.68708766
12	0xbf0bf2b3	-0.54667205
13	0xbf09ce2b	-0.5383021
14	0xbec73682	-0.38908774
15	0xbf105ee1	-0.56394774

bn2.running_mean f4 [16]
0	0xbf032f5d	-0.51244146
1	0xbf84025c	-1.031322
2	0xbf53a170	-0.8266821
3	0xbf1c62a1	-0.61087996
4	0xbe9e8d6a	-0.30967265
5	0xbfc0d30d	-1.5064408
6	0xbf55c9ec	-0.83511233
7	0xbfbe0786	-1.4846046
8	0x3ed0cb5f	0.4078016
9	0xbf7d211f	-0.98878664
10	0xbfa37956	-1.2771404
11	0xbfc705bd	-1.5548626
12	0x3e0fcd2b	0.14043109
13	0x3f5a42f0	0.8525839
14	0xbf9a0fcb	-1.203607
15	0x3e3add29	0.18248428

bn2.running_var f4 [16]
0	0x3f9d8bac	1.230825
1	0x3fbd54d4	1.4791512
2	0x3fb01c0f	1.3758563
3	0x3f68e96d	0.9098118
4	0x40228aa3	2.5397117
5	0x4000a1b3	2.0098693
6	0x3f8661c7	1.0498589
7	0x401041db	2.2540195
8	0x3f9671ed	1.1753517
9	0x40252a32	2.5807004
10	0x403e6813	2.9751022
11	0x3fafbdff	1.3729857
12	0x4002c841	2.0434725
13	0x3ff7e282	1.9366
14	0x3fa7969e	1.309284
15	0x3fa50a8a	1.2893841

fc1.weight f4 [120, 400]
0	0x3e745cc4	0.23863512
1	0x3e092cf1	0.1339605
2	0xbdf7eef0	-0.121061206
3	0xbec2fad5	-0.38081995
4	0xbda07899	-0.07835502
5	0x3be886c5	0.007096144
6	0xbcba7539	-0.022760974
7	0xbcd9de03	-0.026595121
8	0xbd684ded	-0.05671494
9	0xbe3d9d2c	-0.18516988
10	0xbe4f74fb	-0.20259468
11	0xbd86c915	-0.06581322
12	0xbe5b1896	-0.21396098
13	0x3dd0b37c	0.10190484
14	0xbeab70ad	-0.33484402
15	0x3d9329d7	0.07185715
16	0xbc1086c6	-0.008821195
17	0x3d4b408a	0.049622096
18	0x3e123259	0.14277019
19	0xbe3f3643	-0.18673043
20	0x3e69a513	0.22816877
21	0xbe4e46b8	-0.20144165
22	0xbdcf85b4	-0.10132924
23	0xbe7a7fb8	-0.24462783
24	0xbe1f7658	-0.15572488
25	0xbe45bd8b	-0.19310586
26	0xbdd93b94	-0.10607067
27	0x3e576abe	0.21036813
28	0xbe549227	-0.20758878
29	0xbeb45468	-0.35220647
30	0xbc939a1a	-0.018017817
31	0x3e22f6e4	0.15914494
32	0xbe929aec	-0.2863382
33	0x3e31dcfd	0.17369457
34	0xbe463f0f	-0.19359992
35	0xbda4f5f5	-0.08054725
36	0xbe3887c4	-0.1802054
37	0xbd842329	-0.06452019
38	0x3cc0cd3a	0.02353536
39	0xbc4e72fe	-0.012600658
40	0x3b600345	0.0034181636
41	0x3c00bee7	0.007858015
42	0x3e80ec75	0.25180402
43	0xbd8d0c61	-0.06887127
44	0xbe00fc93	-0.1259635
45	0xbd05839d	-0.03259622
46	0xbe802a8b	-0.25032458
47	0xbd60b362	-0.054858573
48	0xbe87e55b	-0.26542172
49	0x3cbd4b4d	0.023107195
50	0x3e66fe5c	0.22557968
51	0x3e50bdd2	0.2038491
52	0xbd49a6e0	-0.04923141
53	0x3e0bc2cc	0.13648528
54	0xbd7117d2	-0.058860607
55	0x3e8004e7	0.2500374
56	0x3e5b1cef	0.21397756
57	0x3e8727c8	0.26397538
58	0x3d0dea88	0.034647495
59	0x3dd85c73	0.10564508
60	0x3cba39fb	0.022732725
61	0x3db338b3	0.08751049
62	0x3db02a9c	0.08601877
63	0xbe066a58	-0.13126504
64	0x3e7e7cc0	0.24852276
65	0xbea64ecf	-0.32482
66	0xbdf354f6	-0.118814394
67	0xbdceaa85	-0.10091118
68	0xbe0f4d5d	-0.13994355
69	0x3e9c5fa3	0.30541715
70	0x3d2e1225	0.042497773
71	0xbd1226ad	-0.035681415
72	0xbd8e7b39	-0.069570966
73	0xbe502dc3	-0.20329957
74	0xbcf65c2c	-0.030073248
75	0xbe5b4479	-0.21412839
76	0x3e955136	0.29163522
77	0xbe28fddd	-0.16503091
78	0xbe3b0e40	-0.18267155
79	0xbe3f0d0f	-0.18657325
80	0xbe2414e3	-0.16023593
81	0xbdd82265	-0.10553435
82	0xbdee0c0c	-0.116233915
83	0xbe85beda	-0.2612217
84	0xbe265ef3	-0.16247158
85	0xbc503297	-0.012707374
86	0xbe8ae36b	-0.2712663
87	0xbe8c0352	-0.27346283
88	0xbe2e362e	-0.17012855
89	0xbe024d08	-0.12724698
90	0x3e560c5c	0.20903152
91	0x3d053bb6	0.032527648
92	0xbe7391c8	-0.2378608
93	0xbe65f181	-0.22455408
94	0x3d9478ab	0.07249578
95	0x3dd24bfb	0.102683984
96	0xbda33cb7	-0.07970565
97	0x3e85b9f1	0.26118425
98	0xbde777e8	-0.11302167
99	0xbd5abf9d	-0.053405393
100	0xbe2b3330	-0.16718745
101	0x3eb405a3	0.3516055
102	0x3df070e2	0.11740281
103	0xbe37cc4d	-0.17949028
104	0x3e389b51	0.18027999
105	0x3d5758c1	0.052574877
106	0xbe1f1fc6	-0.15539464
107	0x3e372206	0.17884073
108	0xbdc72327	-0.09723502
109	0xbb06d6bc	-0.002057477
110	0x3e111ed6	0.14171919
111	0xbeac592e	-0.3366179
112	0xbebd69e3	-0.36994848
113	0x3d0975b1	0.033559505
114	0xbd4a2c53	-0.049358677
115	0x3e7dd3c8	0.2478782
116	0xbdfd6956	-0.12373607
117	0x3cd1c795	0.025607863
118	0x3eea9452	0.45816284
119	0xbe67a8ca	-0.22622982
120	0x3c267d5e	0.010161726
121	0x3e25a11a	0.16174737
122	0xbe8d0627	-0.27543756
123	0x3e13b085	0.14422806
124	0xbe8fd23d	-0.28090087
125	0xbd8f154d	-0.06986485
126	0xbe377180	-0.1791439
127	0xbe2ccb2d	-0.1687438
128	0xbdc826a9	-0.09772999
129	0xbcb6de67	-0.022322847
130	0xbd230512	-0.039799757
131	0xbdf56daf	-0.11983811
132	0xbe24efc4	-0.16107088
133	0xbeaf5f55	-0.3425242
134	0x3d22a90d	0.039712
135	0xbdfea8b8	-0.12434524
136	0x3d87ecc5	0.06636957
137	0x3d9a0805	0.07521061
138	0x3da03003	0.078216575
139	0xbcf2e295	-0.029649058
140	0xbe5c6a38	-0.21524894
141	0xbd9555d2	-0.072917596
142	0x3e6bc0f0	0.23022819
143	0xbc493068	-0.012279607
144	0xbec140eb	-0.3774484
145	0xbd08a02e	-0.033355884
146	0x3deca8fb	0.11555668
147	0x3dc7184e	0.097214326
148	0xbe531395	-0.20612939
149	0xbf013da8	-0.50484705
150	0x3dfc9bd9	0.12334413
151	0x3dab30aa	0.08358891
152	0x3e22eb2c	0.15910023
153	0xbea52488	-0.32254434
154	0x3bd661fc	0.0065424424
155	0xbeac8615	-0.33696046
156	0xbe2cd60c	-0.16878527
157	0x3e86eae4	0.26351082
158	0xbddb1ce6	-0.10698871
159	0xbd2f7fdb	-0.04284654
160	0x3de7e491	0.113228925
161	0xbe2aecf2	-0.1669195
162	0xbeb784ae	-0.35843414
163	0xbe01f7b1	-0.12692143
164	0xbe04853e	-0.12941453
165	0xbd0ab502	-0.03386403
166	0xbc8c1402	-0.017099384
167	0x3d25593f	0.040368315
168	0xbd68ccdb	-0.05683599
169	0x3d96814d	0.07348881
170	0xbc0de0d7	-0.008659563
171	0xbd29442f	-0.04132479
172	0x3e3a678d	0.18203564
173	0x3dc4fea3	0.096188806
174	0xbdc860ac	-0.09784064
175	0x3ba3fb48	0.0050043203
176	0xbe50254f	-0.20326732
177	0xbe191d07	-0.1495248
178	0x3ac27841	0.0014836864
179	0xbe5e6137	-0.21716772
180	0xbe7a9f94	-0.24474937
181	0xbe68a1f7	-0.22718035
182	0xbe65ac00	-0.22428894
183	0x3d1be5e8	0.038061053
184	0xbdfc56ee	-0.12321268
185	0xbd8f09f9	-0.06984324
186	0xbd092bdb	-0.03348909
187	0xbdb965d3	-0.090526246
188	0x3cba48f1	0.02273986
189	0xbd2590ac	-0.040421173
190	0xbba308ec	-0.004975429
191	0xbd53d235	-0.05171414
192	0xbe313d97	-0.17308651
193	0xbdce0932	-0.100603476
194	0xbe2beb6e	-0.16789028
195	0x3e122add	0.14274164
196	0x3e1bb77b	0.15206711
197	0xbd9d39cd	-0.0767704
198	0xbe413e95	-0.1887153
199	0x3db16a07	0.08662801
200	0x3c1948b4	0.009355713
201	0x3cff3e79	0.031157719
202	0xbcd81291	-0.02637604
203	0x3c371818	0.011175178
204	0xbe3b130e	-0.18268988
205	0x3e00b970	0.12570739
206	0x3dac7228	0.08420211
207	0x3d7f0e9d	0.062269796
208	0xbe8a4dea	-0.2701257
209	0xbea47133	-0.32117614
210	0xbd0b4995	-0.03400572
211	0xbd6d7f9d	-0.05798303
212	0x3d5c96c6	0.053854726
213	0x3e01fa4f	0.12693141
214	0xbd911895	-0.07084767
215	0xbdb94b77	-0.09047597
216	0xbd8246a0	-0.06361127
217	0x3dfc97ac	0.123336166
218	0x3e6ff7f4	0.2343443
219	0x3df1377d	0.11778162
220	0x3e4dd837	0.2010201
221	0xbdd07b70	-0.10179794
222	0xbe55045c	-0.20802444
223	0xbda1bd68	-0.078974545
224	0xbd32753a	-0.043568827
225	0x3eb8eabf	0.36116597
226	0x3d8f8bad	0.07009063
227	0x3cb9b2c0	0.022668242
228	0x3e6f31de	0.23358867
229	0xbd6b7637	-0.057485785
230	0xbde7941e	-0.11307548
231	0x3e2bf14b	0.16791265
232	0xbe751fee	-0.23937961
233	0xbe9f06da	-0.31059915
234	0xbec02e8c	-0.37535512
235	0xbea057e7	-0.31317064
236	0x3dadca68	0.084858716
237	0x3de8f6a2	0.113751665
238	0xbda3ddfe	-0.08001326
239	0xbe96e7ae	-0.29473633
240	0xbede28d5	-0.43390527
241	0x3e410b1f	0.18851899
242	0x3cc250d8	0.02372019
243	0x3e97fda7	0.2968571
244	0xbdc21e2b	-0.0947841
245	0xbe5fa4cb	-0.21840207
246	0xbe03d2b3	-0.12873344
247	0xbd971c14	-0.07378402
248	0xbe3f07f4	-0.18655378
249	0xbe745843	-0.23861794
250	0xbf12f4ee	-0.57404983
251	0xbe91707e	-0.28406137
252	0x3ce90212	0.02844337
253	0xbef9bbe7	-0.4877617
254	0xbea144d8	-0.31497836
255	0x3d5fa4b6	0.05460044

fc1.bias f4 [120]
0	0xbe024772	-0.12722567
1	0xbc17d4de	-0.00926706
2	0x3d10129e	0.035174005
3	0xbd699b37	-0.05703279
4	0xbd12bfe3	-0.03582753
5	0xbcd187e1	-0.025577487
6	0x3d613436	0.054981433
7	0xbd4f349b	-0.050587278
8	0x3e171317	0.14753376
9	0xbdb5d329	-0.08878166
10	0x3e2b4872	0.16726854
11	0x3c8e0397	0.017335696
12	0x3d5c91c1	0.05384994
13	0x3e462e0b	0.19353501
14	0xbc801808	-0.015636459
15	0x3a73c7c1	0.000929948
16	0x3ccbb52a	0.02486666
17	0x3c1b5b63	0.0094822375
18	0x3cf513a5	0.029916594
19	0xbcf38fd2	-0.029731665
20	0xbd81bcec	-0.06334862
21	0xbd055707	-0.0325537
22	0xbd155d3c	-0.03646587
23	0x3cd34ad4	0.025792517
24	0xbd0ed121	-0.03486741
25	0xbaab3f05	-0.0013065046
26	0x3e3a97ac	0.1822192
27	0x3ce6080c	0.028080009
28	0x3a5c8c2e	0.00084132224
29	0x3da1e139	0.07904286
30	0xbd67e0c0	-0.056610823
31	0x3d33805d	0.04382359
32	0xbd121537	-0.035664763
33	0xbc7a2549	-0.015267679
34	0x3bb50287	0.005523983
35	0x3bc5afed	0.006032935
36	0xbaf5cf19	-0.0018753737
37	0x3c4c2fa9	0.012462535
38	0x3df8e812	0.12153639
39	0xbd93c0f1	-0.07214535
40	0x3e15cf4f	0.14629863
41	0xbd88f0d5	-0.0668656
42	0x3de063e0	0.1095655
43	0x3da2b289	0.07944209
44	0xbd13ce5b	-0.036085468
45	0x3d733130	0.05937308
46	0x3dc46de1	0.0959127
47	0x3d01acb9	0.03165886
48	0xbb1995f3	-0.0023435324
49	0xbd274273	-0.040834855
50	0xbd6daada	-0.058024265
51	0xbd921024	-0.07131985
52	0xbc42e8a8	-0.01189629
53	0x3e5192c7	0.20466147
54	0xbe2cff4e	-0.16894266
55	0xbd0453ab	-0.032306354
56	0xbd374f04	-0.04475309
57	0x3d169964	0.03676738
58	0x3e2e8b6e	0.17045376
59	0x3d630363	0.05542315
60	0x3dc194f6	0.0945224
61	0xbdf02350	-0.11725485
62	0x3daf477f	0.08558559
63	0x3d20fb58	0.0393022
64	0xbd813636	-0.06309168
65	0xbcf9050e	-0.030397918
66	0xbd4d4036	-0.050110064
67	0x3d98c31b	0.074590884
68	0x3de2a893	0.11067309
69	0x3d621b6c	0.055201933
70	0xbd6a1a4b	-0.05715398
71	0x3e2a3712	0.1662257
72	0xbc708ede	-0.0146825
73	0xbe29bfbd	-0.16577049
74	0x3a1275c2	0.0005587005
75	0xbdd0bf67	-0.10192757
76	0xbe1c981f	-0.15292405
77	0x3b56d856	0.0032782755
78	0x3d4d37f8	0.050102204
79	0xbc83c105	-0.01608325
80	0x3cb8d8f0	0.022564381
81	0x3e12c79a	0.14333954
82	0xbd44a3c0	-0.048007727
83	0x3da88a31	0.08229483
84	0xbd33bf23	-0.043883454
85	0xbce4590f	-0.027874498
86	0x3c3c1f06	0.011482006
87	0x3d1c6b2d	0.03818815
88	0x3e0ae170	0.1356256
89	0x3cbd2f1f	0.023093758
90	0xbd9e2755	-0.07722346
91	0x3addc4f7	0.0016919662
92	0x3d2683bc	0.040652975
93	0xbcad72a0	-0.021172822
94	0xbda3c626	-0.07996778
95	0xbc8be1a1	-0.017075362
96	0x3dee27c0	0.116286755
97	0xbe241d79	-0.16026868
98	0x3e0568c0	0.1302824
99	0xbc58d3a4	-0.013234053
100	0x3e08320d	0.13300343
101	0x3cc9bfd4	0.024627604
102	0xbd41b3c8	-0.047290593
103	0x3d8b0ea1	0.067898996
104	0x3dd52390	0.10407174
105	0xbc54ef2c	-0.012996476
106	0x3d62c95a	0.055367805
107	0x3c565488	0.013081677
108	0x3d631461	0.055439357
109	0xbbb2b3bb	-0.0054535544
110	0x3b5a8876	0.0033345497
111	0xbd13e1d7	-0.03610405
112	0x3da074c2	0.0783477
113	0x3da00b7d	0.07814691
114	0x3e03f97b	0.12888138
115	0x3e3bb975	0.18332465
116	0x3cbe4024	0.023223944
117	0xbd947474	-0.07248774
118	0x3ce8cc97	0.028417869
119	0x3bc475bb	0.00599548

fc2.weight f4 [84, 120]
0	0xbe4e27ab	-0.2013232
1	0x3b1f7835	0.0024333124
2	0xbe198852	-0.14993408
3	0xbd9454c1	-0.07242728
4	0xbd7f85f4	-0.062383607
5	0xbdb77c17	-0.08959215
6	0x3e0ccd97	0.13750301
7	0x3d9cc74f	0.076552026
8	0xbecc0b0d	-0.3985218
9	0x3e35136d	0.17683192
10	0xbe21d9c3	-0.15805726
11	0x3d211b6d	0.039332796
12	0x3d6af836	0.05736562
13	0xbe026cdd	-0.1273684
14	0x3de955c9	0.11393315
15	0x3e73fb2a	0.2382628
16	0x3d805bcb	0.06267508
17	0x3c5e803f	0.013580381
18	0x3d0499bf	0.032373186
19	0x3d66d0ef	0.0563516
20	0x3ce04b4d	0.027379656
21	0x3e681d5b	0.22667448
22	0xbd5763b7	-0.05258533
23	0xbea9b067	-0.33142397
24	0x3ea08b49	0.31356266
25	0x3d5c2a57	0.053751316
26	0x3d10cdaa	0.035352387
27	0xbf0293ec	-0.5100696
28	0xbca8e0bb	-0.020614972
29	0xbe082bfd	-0.1329803
30	0xbd602613	-0.05472381
31	0x3e357dab	0.1772372
32	0xbda0787c	-0.078354806
33	0x3dcfadd2	0.101405755
34	0xbce22f97	-0.027610583
35	0xbdfc522d	-0.12320361
36	0x3d3b9262	0.0457939
37	0x3d4422a2	0.04788459
38	0xbdc92575	-0.098215975
39	0x3e66f495	0.22554238
40	0xbe1ac27b	-0.15113251
41	0x3dd9fc83	0.10643866
42	0xbd0a1cf6	-0.033719026
43	0x3e5d1503	0.21590047
44	0x3b6dddc8	0.0036295522
45	0x3eab4acc	0.33455503
46	0xbc983818	-0.018581435
47	0x3db0ccd8	0.08632821
48	0xbed2fcff	-0.41208646
49	0x3e82b626	0.25529593
50	0x3d81fbf0	0.063468814
51	0x3e835edc	0.2565831
52	0xbc234d10	-0.009967104
53	0x3d913f74	0.07092181
54	0x3df34388	0.11878115
55	0xbcc58766	-0.024112415
56	0x3dc034fd	0.09385107
57	0xbd9639f0	-0.073352695
58	0x3e6da408	0.23207104
59	0x3e0dfb80	0.13865471
60	0xbecf7a52	-0.4052301
61	0xbd051546	-0.03249099
62	0x3c0076b9	0.007840806
63	0xbd7a043e	-0.061039202
64	0xbe529e35	-0.20568164
65	0x3c3a8c01	0.011385919
66	0x3db9e07b	0.090760194
67	0xba4a943d	-0.00077277777
68	0x3e23b13f	0.15985583
69	0xbcc0fe37	-0.02355872
70	0x3d3ea20a	0.04654125
71	0xbd6817aa	-0.056663193
72	0x3e3d8e86	0.185114
73	0xbe121182	-0.14264491
74	0x3e1ad57c	0.151205
75	0xbc80055a	-0.015627552
76	0xbe571312	-0.21003368
77	0xbd3850d0	-0.044998944
78	0x3b63ce0e	0.003476027
79	0x3c936700	0.01799345
80	0xbd9816c9	-0.07426221
81	0xbddd9201	-0.10818864
82	0xbd97090b	-0.07374772
83	0x3df466d5	0.11933676
84	0xbd5208e0	-0.051277995
85	0xbd612dc3	-0.054975282
86	0xbd70aead	-0.058760334
87	0xbc90c725	-0.017673085
88	0xbdeb3a07	-0.11485677
89	0xbe975645	-0.29558006
90	0xbd9296cb	-0.07157668
91	0x3cbc5269	0.022988515
92	0xbe00c61c	-0.12575573
93	0xbd6f91ac	-0.058488533
94	0xbd9fdc51	-0.07805694
95	0x3ea111f8	0.31459022
96	0xbeb825b8	-0.35966277
97	0x3ee3b142	0.44471174
98	0xbd47a072	-0.048736997
99	0x3d456893	0.048195433
100	0x3dde9774	0.10868731
101	0xbd108539	-0.0352833
102	0xbd310365	-0.043216128
103	0xbe3312c5	-0.17487629
104	0xbde3c8d2	-0.11122288
105	0xbdc072d9	-0.093969055
106	0x3e889adc	0.26680648
107	0xbcf13240	-0.029442906
108	0xbea44503	-0.32083902
109	0xba9a16eb	-0.0011756098
110	0xbceae709	-0.02867462
111	0xbe3fa4a5	-0.1871515
112	0x3d80a192	0.06280817
113	0xbe32012e	-0.17383263
114	0x3d74f553	0.059804272
115	0xbe1ca137	-0.15295874
116	0x3ea6cabb	0.32576546
117	0xbdc10578	-0.09424871
118	0x3e22a92e	0.1588485
119	0x3e23ca34	0.15995103
120	0xbd63e598	-0.05563888
121	0xbef7d86d	-0.48407307
122	0xbe13beef	-0.14428304
123	0xbbee37d5	-0.0072698393
124	0xbe3ee15f	-0.1864066
125	0x3e46d417	0.19416843
126	0xbb237ced	-0.0024946288
127	0x3eaa520e	0.33265728
128	0x3e8a99f9	0.27070597
129	0x3e273d93	0.16332082
130	0xbe51ae6c	-0.20476693
131	0x3d297103	0.041367542
132	0x3d2e0cec	0.042492792
133	0xbe094d5d	-0.13408418
134	0xbd6b2012	-0.05740363
135	0xbedf80a6	-0.43652838
136	0xbcd4a47c	-0.025957339
137	0x3de3c58e	0.11121665
138	0x3e32316a	0.17401662
139	0x3acbdefd	0.0015554127
140	0x3c1aa927	0.009439743
141	0xbe0965c4	-0.13417727
142	0x3d82e813	0.06391921
143	0x3e00ac71	0.12565781
144	0x3e6a5168	0.22882617
145	0xbd977b61	-0.073965795
146	0xbe8765a5	-0.26444736
147	0x3e6f1d70	0.23351073
148	0xbd5a7016	-0.05332955
149	0x3e44f3a0	0.1923356
150	0x3daa4a19	0.08314914
151	0xbe97095d	-0.2949933
152	0x3dc7a7e4	0.097488195
153	0xbf170474	-0.5899117
154	0xbdaef480	-0.085427284
155	0x3ca8ca00	0.020604134
156	0xbda260ea	-0.07928641
157	0x3da67f78	0.081297815
158	0xbe5dd0eb	-0.21661727
159	0xbdd9630d	-0.106145956
160	0xbeb1b4b5	-0.3470818
161	0xbd0cbe99	-0.034361456
162	0x3dbecaa0	0.093159914
163	0x3de2ee22	0.110805765
164	0x3da2e92c	0.0795463
165	0xbeda829b	-0.4267777
166	0xbe27e015	-0.16394074
167	0xbdeaac92	-0.114586964
168	0xbde93926	-0.11387853
169	0xbe298bc2	-0.1655722
170	0xbd4ea7c9	-0.05045298
171	0xbd322eba	-0.043501593
172	0x3c221a01	0.009893895
173	0xbe184102	-0.14868549
174	0x3d54406c	0.05181925
175	0xbe57040e	-0.2099764
176	0x3e0cee6b	0.13762824
177	0x3c89807b	0.016784897
178	0xbe35f8e1	-0.17770721
179	0x3cbc5d42	0.022993688
180	0x3e881578	0.2657888
181	0x3db58725	0.088636674
182	0xbeac1ff7	-0.33618137
183	0x3d0e1ee3	0.034697425
184	0x3e370ff8	0.17877185
185	0x3d8302cf	0.0639702
186	0x3cba0ba8	0.022710636
187	0x3e049b38	0.12949836
188	0xbdb0c89a	-0.08632012
189	0xbdae60b3	-0.08514538
190	0xbcd0c6fe	-0.025485512
191	0x3e8b9f94	0.27270186
192	0xbf11b154	-0.56911206
193	0x3e417520	0.18892336
194	0x3d5f3285	0.05449154
195	0xbc298848	-0.010347433
196	0x3da68408	0.08130652
197	0x3ee5dc48	0.44894624
198	0xbd3bc3ab	-0.0458409
199	0x3d926038	0.071472585
200	0x3da69557	0.08133953
201	0xbe1ad4d0	-0.15120244
202	0x3d5029a6	0.05082097
203	0xbe6aef3a	-0.2294282
204	0x3d303967	0.043023493
205	0xbd5b450d	-0.05353265
206	0x3d78a24a	0.060701646
207	0x3e46009c	0.1933617
208	0x3e882f02	0.26598364
209	0xbb2830d3	-0.0025663867
210	0x3d844f41	0.06460429
211	0xbe866163	-0.26246175
212	0x3c90fbb7	0.017698152
213	0xbc79639e	-0.0152215045
214	0x3ce7b2fe	0.028283592
215	0xbf1210c6	-0.57056844
216	0xbe2944ce	-0.16530153
217	0x3e4ba5c6	0.19887456
218	0xbe6b6745	-0.22988613
219	0xbd2ee1bf	-0.042695757
220	0x3d033360	0.032031417
221	0x3e12cb3a	0.14335337
222	0xbcbbec3a	-0.02293979
223	0xbe76c7bc	-0.2409963
224	0x3dcde637	0.100536756
225	0x3e5b0390	0.21388078
226	0xbd045330	-0.032305896
227	0xbd69d454	-0.057087258
228	0x3e2976c9	0.16549219
229	0x3cd71b6a	0.02625819
230	0xbd94142c	-0.0723041
231	0x3e28dc2f	0.16490243
232	0x3e350967	0.17679368
233	0xbe0b3bd1	-0.13597037
234	0xbc62a541	-0.013833345
235	0x3e26c464	0.16285855
236	0xbdf52f3f	-0.11971902
237	0xbdde3e5c	-0.10851738
238	0xbe15c454	-0.14625674
239	0x3b3b4394	0.0028574215
240	0x3c3633d7	0.011120758
241	0xbd5586da	-0.052130558
242	0x3b7a08dd	0.0038152256
243	0xbd9a2206	-0.07526021
244	0xbd3bcef2	-0.045851655
245	0x3beddb1e	0.007258787
246	0xbd8de88e	-0.06929122
247	0xbd0c1224	-0.034196988
248	0xbd62dfc9	-0.0553892
249	0xbc83690d	-0.016041303
250	0xbdbfa96e	-0.09358488
251	0x3d611676	0.05495306
252	0xbd1d4bd6	-0.0384024
253	0xbe2af902	-0.16696551
254	0xbda22955	-0.0791804
255	0xbd4748a0	-0.048653245

fc2.bias f4 [84]
0	0xbcb68b63	-0.022283262
1	0xbe801d7e	-0.250225
2	0xbe05b46f	-0.13057111
3	0xbd80246f	-0.06256949
4	0x3cd70707	0.026248468
5	0x3ea19d61	0.31565383
6	0x3de61131	0.11233748
7	0xbddba69a	-0.10725136
8	0x3edc3f76	0.43017167
9	0xbb736550	-0.0037139244
10	0x3e5587a6	0.20852527
11	0xbc8f19a1	-0.017468276
12	0x3e1e9397	0.15485989
13	0x3df3d1d0	0.11905253
14	0x3dffb972	0.12486543
15	0x3db07bff	0.086174004
16	0x3e12aa0b	0.14322679
17	0x3e0f732f	0.14008783
18	0x3cfbc9d4	0.030735888
19	0x3e9688f2	0.29401356
20	0xbe8e188f	-0.27753112
21	0xbd0c61dc	-0.034273013
22	0xbdc78c66	-0.09743576
23	0x3dab34c0	0.08359671
24	0x3dee0dd6	0.11623733
25	0x3c8adbbe	0.016950484
26	0xbd1ac0e2	-0.037781604
27	0x3dddee98	0.10836524
28	0x3e166cfc	0.14690012
29	0xbe20d97d	-0.15707965
30	0xbbe06e16	-0.0068490608
31	0xbe1fcc86	-0.15605363
32	0x3e38f9d7	0.18064056
33	0xbe88d4d8	-0.26724887
34	0xbe04264d	-0.12905236
35	0x3c6ff213	0.014645117
36	0xbe5160e9	-0.20447125
37	0x3e3acb49	0.1824161
38	0x3e503399	0.20332183
39	0x3d5f9b55	0.054591496
40	0x3e66e892	0.22549656
41	0x3e28114e	0.16412851
42	0xbe27b53c	-0.16377729
43	0xbe53f1bc	-0.20697683
44	0xbd81441b	-0.06311818
45	0xbe561b47	-0.20908843
46	0x3e2372c1	0.15961744
47	0xbddbe808	-0.10737616
48	0x3ec9eb8c	0.3943752
49	0xbdc785e4	-0.097423345
50	0x3e232f48	0.15936005
51	0xbd2eb46f	-0.042652544
52	0x3d3ac938	0.045602053
53	0xbd8457e3	-0.064620756
54	0x3e8be7c8	0.27325273
55	0xbcd0b4db	-0.025476864
56	0x3dc895e8	0.09794217
57	0x3de84a55	0.11342303
58	0xbd9db9ed	-0.07701478
59	0xbdae92f8	-0.08524126
60	0x3d5cc924	0.05390276
61	0x3df1a415	0.11798874
62	0xbdaac09f	-0.08337521
63	0xbe1a7966	-0.15085372
64	0x3da89dc8	0.082332194
65	0xbe99c687	-0.30034277
66	0x3d9b7154	0.07589975
67	0x3e06232c	0.13099355
68	0xbe3c7cbc	-0.18406957
69	0xbe4b6767	-0.19863664
70	0x3e0ca24c	0.13733786
71	0x3d2e907d	0.042618264
72	0xbe5d0c26	-0.21586666
73	0x3e1a3774	0.15060216
74	0x3dd29fc2	0.10284378
75	0x3e6966f1	0.22793175
76	0x3ce9231c	0.028459124
77	0x3cd37d7f	0.025816677
78	0x3d613052	0.054977722
79	0x3da455ec	0.08024201
80	0xbd754458	-0.05987963
81	0x3e69963c	0.22811216
82	0xbca1b842	-0.019741181
83	0xbdf0a77b	-0.11750694

fc3.weight f4 [10, 84]
0	0x3e194cf9	0.14970769
1	0xb921191d	-0.00015363512
2	0xbe0b908a	-0.13629356
3	0x3dd2a85a	0.10286017
4	0xbe46c172	-0.19409731
5	0xbf0f4c53	-0.55975837
6	0xbe7d703a	-0.24749842
7	0xbecd9a8a	-0.40156966
8	0xbde52bea	-0.111900166
9	0x3deee8fd	0.11665533
10	0xbe036a12	-0.12833431
11	0x3e181809	0.14852919
12	0xbd792b31	-0.060832206
13	0xbdb7588e	-0.08952437
14	0x3e2afff5	0.16699202
15	0xbeb1ccc5	-0.3472654
16	0xbe8756fd	-0.26433554
17	0xbeaf953b	-0.3429354
18	0xbe8f4538	-0.27982497
19	0xbd93615e	-0.07196306
20	0xbe83b922	-0.25727183
21	0x3e81fda5	0.25388828
22	0xbe26f85e	-0.16305682
23	0x3d73aa83	0.059488785
24	0x3c63e2b6	0.013909033
25	0x3e41fc6b	0.18943946
26	0x3e25cd90	0.16191697
27	0x3dee5807	0.11637884
28	0xbed3dd56	-0.41379803
29	0x3dcc876c	0.09986767
30	0xbd220ea7	-0.039564755
31	0xbc82a669	-0.015948491
32	0xbecf2918	-0.4046104
33	0xbdcbc9a8	-0.09950572
34	0x3c060edb	0.008182253
35	0x3d8633b8	0.06552833
36	0xbe123325	-0.14277323
37	0x3e1e4e37	0.15459524
38	0xbdff3a81	-0.124623306
39	0x3e31949d	0.17341848
40	0xbc23b2ca	-0.009991357
41	0xbe982866	-0.29718322
42	0xbf38a522	-0.7212697
43	0x3c4ff837	0.012693456
44	0xbd2ac894	-0.041695192
45	0x3d1012a6	0.035174035
46	0xbefb7827	-0.49115106
47	0x3dfb300e	0.12265025
48	0xbea3c236	-0.3198411
49	0x3d8dfe35	0.06933252
50	0x3d884d36	0.06655352
51	0xbdcf1dc9	-0.10113103
52	0x3de99019	0.114044376
53	0xbd0679d4	-0.032831028
54	0xbeb7151d	-0.35758296
55	0x3e98c899	0.29840544
56	0x3d2c4225	0.042055268
57	0xbf091e3d	-0.53561765
58	0x3d2f0376	0.04272791
59	0x3d3c07f0	0.045906007
60	0x3e1b2013	0.15148954
61	0x3e26da4c	0.16294211
62	0x3e06bed8	0.13158739
63	0xbe7e9a44	-0.24863535
64	0xbe97bdaa	-0.2963689
65	0xbd30b160	-0.043137908
66	0x3e1665d9	0.1468729
67	0x3e30db55	0.17271169
68	0x3b8fa6ba	0.004383889
69	0xbd58e039	-0.05294821
70	0xbe22330b	-0.15839784
71	0xbdd7e7c8	-0.10542256
72	0xbd0b6bcf	-0.03403836
73	0xbef2ebae	-0.47445434
74	0xbe9083b9	-0.28225496
75	0x3c511442	0.0127611775
76	0xbe7644d9	-0.24049701
77	0xbe8b64b6	-0.27225274
78	0xbe4fbf25	-0.2028776
79	0xbe8ef7cd	-0.27923432
80	0x3df2c7dd	0.11854527
81	0xbc5fbc12	-0.013655679
82	0xbd084ed1	-0.03327829
83	0xbf6667c3	-0.9000208
84	0xbf1568fb	-0.5836331
85	0x3e9b9e05	0.30393997
86	0xbe16895e	-0.14700839
87	0x3e3c1b0a	0.1836969
88	0xbe610037	-0.21972738
89	0x3cf000be	0.029297229
90	0x3e441cf0	0.19151664
91	0x3ed84f4c	0.42248
92	0xbe0a33f1	-0.13496377
93	0xbed07b83	-0.40719232
94	0xbf1ca79f	-0.6119327
95	0x3c842d7f	0.016134975
96	0xbded6703	-0.115919136
97	0xbe95e177	-0.2927358
98	0xbd91db73	-0.07121935
99	0x3d77979f	0.06044733
100	0xbebe40d8	-0.37158847
101	0x3e112a70	0.14176345
102	0xbf17ad36	-0.59248674
103	0xbea933cb	-0.33047327
104	0xbea4c5cc	-0.32182157
105	0xbe1a7055	-0.15081914
106	0x3e393b8b	0.1808912
107	0x3df10191	0.11767877
108	0xbe4c5f32	-0.19958189
109	0x3e0a57b2	0.13510016
110	0x3e962d10	0.29331255
111	0x3e3f294d	0.18668099
112	0xbe6ade22	-0.229363
113	0xbef8b0e2	-0.4857245
114	0x3ee81285	0.4532663
115	0xbc76bb46	-0.015059298
116	0x3e1e0580	0.15431786
117	0xbe8dde4c	-0.27708662
118	0xbe1f3928	-0.15549147
119	0xbed25dd9	-0.41087225
120	0xbec9e7a7	-0.3943455
121	0xbe2da451	-0.16957213
122	0x3d263445	0.04057719
123	0xbef4a94f	-0.47785422
124	0xbed16939	-0.4090059
125	0xbefc73c4	-0.49307072
126	0xbe532a25	-0.20621546
127	0xbda77862	-0.08177258
128	0xbd1388de	-0.0360192
129	0xbdfa4ce3	-0.12221696
130	0xbeec5303	-0.46157083
131	0x3d979c1c	0.074028224
132	0xbccabf05	-0.024749288
133	0xbf08d635	-0.53451854
134	0x3e0dec81	0.1385975
135	0xbc28d856	-0.010305485
136	0xbf080cba	-0.5314442
137	0xbcd6330f	-0.026147394
138	0x3dc2336f	0.094824664
139	0x3d9178bb	0.07103106
140	0xbee55ee3	-0.44798955
141	0x3eae9d1d	0.34104243
142	0xbd0df3a5	-0.034656186
143	0xbe412776	-0.1886271
144	0xbf900539	-1.1251594
145	0x3e5bc1f1	0.21460702
146	0xbec20e41	-0.379015
147	0x3e4cadd0	0.19988179
148	0x3e9b2bff	0.30307004
149	0xbe6ae766	-0.22939834
150	0xbec57c61	-0.38571456
151	0xbf235a75	-0.638099
152	0x3e4162b1	0.18885304
153	0xbe9208e4	-0.28522408
154	0xbe3ef810	-0.18649316
155	0x3e092c97	0.13395916
156	0xbdcb2584	-0.09919265
157	0x3cec1c50	0.028822094
158	0xbed5ad84	-0.41733944
159	0xbd99fe63	-0.075192235
160	0xbf3ad2c2	-0.7297784
161	0xbe5fc35b	-0.21851866
162	0xbe8291e0	-0.2550192
163	0x3de4a98d	0.11165152
164	0xbe24e1c8	-0.16101754
165	0xbf28cbee	-0.6593617
166	0xbe2507b8	-0.16116226
167	0xbf30e14a	-0.69093764
168	0xbda7d923	-0.081957124
169	0xbe876c8a	-0.26449996
170	0xbd0e10cb	-0.034683984
171	0x3d833056	0.06405704
172	0x3dcd96fa	0.10038562
173	0x3e3dd074	0.1853655
174	0xbd27cf32	-0.04096908
175	0xbe11c6da	-0.14236012
176	0xbedd196b	-0.43183455
177	0xbefa24af	-0.48856112
178	0x3e2943b6	0.16529736
179	0xbdd12008	-0.102111876
180	0x3e22c528	0.15895522
181	0xbcb699ce	-0.022290137
182	0xbb3b37c9	-0.0028567186
183	0xbdf43a1a	-0.119251445
184	0x3cab3464	0.020899005
185	0xbea2c030	-0.31787252
186	0xbe8eb8c7	-0.2787535
187	0x3e0b7f38	0.13622749
188	0xbe60138e	-0.2188246
189	0x3e0e6f45	0.13909633
190	0x3d276e02	0.040876396
191	0x3dee9d32	0.116510764
192	0xbee0ce48	-0.4390738
193	0xbe8d08ec	-0.2754587
194	0xbeb52593	-0.3538023
195	0xbebe342c	-0.3714918
196	0xbdd287b4	-0.102797896
197	0xbe660825	-0.22464044
198	0xbe9bdfbd	-0.30444136
199	0xbd48cac1	-0.049021486
200	0xbe3bbcf7	-0.18333803
201	0xbf04ac84	-0.5182574
202	0x3cfe4f46	0.03104366
203	0xbd2e6d12	-0.042584486
204	0xbeb7bbcd	-0.35885468
205	0xbd4b851e	-0.049687497
206	0xbee5fbf7	-0.44918796
207	0x3e8f26bf	0.27959248
208	0xbe7869a7	-0.24259053
209	0xbdabc10e	-0.08386432
210	0xbd1ed4d0	-0.038777173
211	0xbe041b4d	-0.1290104
212	0xbf1224a4	-0.5708716
213	0xbbb04f02	-0.005380512
214	0xbf20d810	-0.62829685
215	0x3d1245de	0.03571116
216	0x3dbae957	0.09126537
217	0xbd24af0a	-0.040205993
218	0xbe59e312	-0.21278027
219	0xbec9855b	-0.39359555
220	0xbd42f75f	-0.047599193
221	0xbc88be3d	-0.016692275
222	0xbf0b11de	-0.5432414
223	0xbe641c75	-0.2227648
224	0x3d54a609	0.051916156
225	0x3df79804	0.120895416
226	0xbe189fbc	-0.14904684
227	0xbdb74013	-0.08947768
228	0x3e12f43d	0.14350982
229	0x3e39e3c1	0.18153287
230	0x3e48f805	0.19625862
231	0x3de1f904	0.11033824
232	0xbe1d6788	-0.15371525
233	0xbdbe61a4	-0.09295967
234	0xbe16fa78	-0.14743984
235	0xbdaf3556	-0.08555095
236	0xbebaf30a	-0.3651355
237	0xbcb44348	-0.022004738
238	0x3bda8b68	0.0066694506
239	0xbab6c355	-0.0013943712
240	0xbe67a54e	-0.22621652
241	0x3e9354fa	0.2877577
242	0x3d00a220	0.031404614
243	0x3ce38958	0.027775452
244	0xbee4033d	-0.4453372
245	0x3dfc545d	0.123207785
246	0x3e2c0952	0.1680043
247	0xbd80b61b	-0.06284734
248	0x3e3b9800	0.18319702
249	0x3c2fd97d	0.010733006
250	0x3d1d59e3	0.0384158
251	0xbf0aaa64	-0.54166245
252	0xbe07bc33	-0.13255386
253	0x3db72ad3	0.08943715
254	0xbcaeb16e	-0.02132484
255	0x3e07aa88	0.13248646

fc3.bias f4 [10]
0	0xbe192a87	-0.14957629
1	0xbe80627a	-0.25075132
2	0xbd291cca	-0.04128722
3	0x3e66dd5d	0.22545381
4	0xbd8ba688	-0.06818873
5	0xbe86ad41	-0.26304057
6	0x3dbe0272	0.0927781
7	0x3e1cb60a	0.15303817
8	0x3dc11b55	0.09429041
9	0xbe3ab0a4	-0.18231446
