HW1_Split_nb/checkpoints/model_weightdecay_2.pt (torch, 250656 bytes, 10 tensors)

conv1.weight f4 [6, 1, 5, 5]
00000000: 991e ab3e 7358 af3b f65d 2bbe 5045 053d
00000010: 01b9 7c3d 9a46 af3e 6fd5 873d 1347 6cbe
00000020: 5b94 8c3e 8ae0 0d3e 23f9 3a3e ec54 05bd
00000030: e20d b2be 1dff 383e 28f4 333e 2c4b c2bd
00000040: 09fa c1be f445 06bf f8c9 8d3e 2e68 733e
00000050: 374c e8bd e917 c7be 1630 25bf d931 81bc
00000060: 3858 e73e 4b1e c33a bbd9 d9bc 6cf4 a5bc
00000070: e1da 873c 356d 2cbe ffb0 e13b 652a 363e
00000080: dde2 c2bd 561c 6e3e e462 d53c 44e2 f4bd
00000090: 5740 4e3e 34e2 8e3e 8ee3 933e 6998 3f3d
000000a0: 9ec2 60be bd94 deba fce7 273e a7e5 873e
000000b0: 6680 3c3e 9a37 88bd 3689 283e 75bd 973d
000000c0: c4d9 7f3d 9ed5 273e d195 6b3e 4e73 1f3e
000000d0: e2e6 50be bdf7 2abe 74ce 9ebe aa25 c1bd
000000e0: 778c 6b3d afe0 e03d 008e e3bd e907 94be
000000f0: 3138 1e3e d82e 613e 928b 173e 240c 58bd
00000100: 4fc1 7b3c 61b2 783e acab c63e 1c98 653e
00000110: 32f5 2e3d 1e97 96be c89d e03d 6d90 bf3d
00000120: d242 633b d4f2 643d 5aaa 66be 0e3a 1abf
00000130: 928c 19bf 1ec5 21bf 573a 15bf 3765 19be
00000140: 1ce5 9cbe 5b27 45bf a42c 3cbf c937 fcbd
00000150: 4036 633e 9a55 723d bee0 89be a30c 6dbe
00000160: 82fe 113e 63d8 143c 20f7 a03e 33d7 f73d
00000170: 76f9 76bd ec16 363e a528 453d d3f5 af3e
00000180: 776e 9d3e 136c 373e fadb 1ebd 2c51 673d
00000190: e5fa c2bd 79bb e73c 6098 d1bd b452 7fbe
000001a0: cc11 1fbe c16e 8c3b 6b98 35bd 8e04 163b
000001b0: c10c f0bc 68d6 83be 1a62 433e 9b7d 853e
000001c0: e825 81bd df4c 1dbe 8b2a 70be 09cf 583e
000001d0: 73f2 9d3c b9a4 133e 966f 283e 5b06 3e3d
000001e0: 5275 fd3c c472 573e 9031 7f3d 90d6 c7bd
000001f0: 335b efbc 7e03 bd3d 6b4d c03c 7647 98be
00000200: 4b2c b1be c6e7 23be ed2b 9fbd fcfd 0bbf
00000210: 999a d2be 3afc 0ebf 670c f63b bc79 aebe
00000220: 9e0b eebe 14af 1dbf e15a 06bf a7ae 3b3d
00000230: 75eb fbbd 04e6 c9be 5ea7 d6be fd91 50be
00000240: 12ba 3fbd a67a 593e 60b8 5cbd e941 8bbe
00000250: 6254 25be 0960 5d3e
0.33421782 0.00535112 -0.16735062 0.032536805 0.06169987 0.34233552 0.06632506 -0.23073988
0.27456936 0.13855186 0.182591 -0.03255169 -0.34776217 0.18066068 0.17573607 -0.09486994
-0.37886074 -0.5245049 0.27693152 0.2377021 -0.11342662 -0.3888543 -0.645265 -0.01577084
0.45184493 0.0014886347 -0.02659308 -0.020258151 0.016583862 -0.16838534 0.0068875547 0.1778961
-0.09515927 0.23252997 0.026048131 -0.11957219 0.20141731 0.27906954 0.28884548 0.04677621
-0.2194924 -0.0016981583 0.16397089 0.26542398 0.18408355 -0.0665123 0.16458592 0.07409183
0.062463537 0.16390082 0.23006369 0.15571329 -0.20400575 -0.16696067 -0.31016886 -0.09431012
0.057507005 0.10980355 -0.11111069 -0.28912285 0.15451123 0.21990526 0.14799336 -0.052745953
0.015365913 0.24286796 0.3880285 0.22421306 0.042714305 -0.29412168 0.109675944 0.09353719
0.003467728 0.05589564 -0.22525921 -0.60244834 -0.5998012 -0.631914 -0.58292145 -0.14980017
-0.30643547 -0.77013177 -0.73505616 -0.12315328 0.22188663 0.059163667 -0.26929277 -0.23149352
0.14257243 0.009084794 0.3143854 0.12101593 -0.0602965 0.17782182 0.048134465 0.34367236
0.3074834 0.17912321 -0.038784005 0.056473896 -0.095205106 0.028287636 -0.10234141 -0.24933892
-0.15534133 0.004285664 -0.04433481 0.0022890898 -0.029302957 -0.25749516 0.19080392 0.26072392
-0.06306058 -0.15361355 -0.23453729 0.21172728 0.019280648 0.14418305 0.16448817 0.04639278
0.030939732 0.21039873 0.062303126 -0.097577214 -0.029218292 0.09229182 0.023474416 -0.2974202
-0.34604105 -0.16006383 -0.0777205 -0.54684424 -0.41133574 -0.5585362 0.0075088027 -0.3407725
-0.46493238 -0.61595273 -0.5248242 0.04582086 -0.12300769 -0.394333 -0.41924566 -0.2036819
-0.04680831 0.21238193 -0.05388677 -0.27198723 -0.1614547 0.21618666

conv1.bias f4 [6]
00000000: 2ba1 9b3d a542 59bc b99c d53a 4c10 413e
00000010: bd38 6d3e d39b ba3e
0.075991 -0.013260518 0.0016297317 0.18853873 0.23166175 0.3644701

conv2.weight f4 [16, 6, 5, 5]
00000000: f46f 9b3d e9c4 bcbc 2723 ae3c 3b0a bc3d
00000010: cc71 ca3e baa8 8e3e b852 043e af1d b03d
00000020: a723 52bd f7d7 f23d 6c66 903e 8be4 b33d
00000030: 2b48 3c3d 5496 46be e657 92be a9fd 4d3e
00000040: 579e 203e 7a32 0b3e 69de f0bc b76d 79be
00000050: 2e6b 4e3d e1b7 0c3e 6fb9 a63d e331 683d
00000060: 4334 79be eed6 8b3d db54 f03c f657 2cbe
00000070: 2df9 b0bd 189c 3abe 6fde d3bc 8b1c 053c
00000080: c992 f83a 3a90 f8bd 7101 51be 39d3 353d
00000090: 12c7 a9bc 0bb4 d7bd 1e89 14be 06a5 06be
000000a0: e00f a1bd daea 173d 9c09 89bd 8e31 973a
000000b0: b397 ec3c 8c7e b6bd 60ff 4bbc 6401 33bd
000000c0: b2b3 f63c b191 963d 340d c0bd d0be bdbb
000000d0: 06c7 e5bc 146e efbd e40c 04bd f213 b7bd
000000e0: 9a85 bcbc 752e d93c ad83 1abd a475 9bbd
000000f0: fe28 9fbd 821b dc3c 54cf abbb a717 063d
00000100: d01c c7bd f7ee 5ebd 7d4f 2e3d 278c 633d
00000110: f8a3 463d f893 853c dee7 fbbd 1726 00be
00000120: 86a5 a4bd b847 b3bd b69a f73c 195b 963c
00000130: ad19 633e 3222 af3e 38cb d13e fe6d a93e
00000140: 28b2 0e3e 746c ef3d 5b05 863e 6a64 b93e
00000150: 2111 dc3e 51ba 81bd 0907 3abd 6637 583d
00000160: 1515 363e d4b2 973e 1c03 813d 7f7f aa3c
00000170: 3e54 043e 8588 3c3e ed25 9b3e 9758 74bd
00000180: 54fd f7bc a09c 91bd 2693 c3bd 12e4 5b3d
00000190: a6d3 0abd 7fdc b23d 1bae 53bd 8f17 8abd
000001a0: 1236 59bd 1da6 cabb 6ad2 5cbc b8c4 323d
000001b0: 0914 2a3d e16d 533c 7e61 afbd 4250 a1bd
000001c0: bd97 8a3c bb39 123d 6be7 70bd 8217 313c
000001d0: 9a8f f8bc bb61 903c edec 9f3d 33c2 3b3d
000001e0: 769d d3bc 9c58 98bd 310f 2ebd d9ff bcbd
000001f0: b11b fd3d d63e 913d bb7f 963d 1a47 213e
00000200: 8d25 823e fcf0 983e 3e14 963d 371f 843d
00000210: 7685 133e 4726 623e 4d75 673e 979b 09bd
00000220: e0bf 87bc 3486 4e3c 9aae 8f3e e680 483e
00000230: 6f9f 11be 221e 2fbd 9804 e1bd 68e3 0e3d
00000240: 9257 fbbb 6326 19be ad78 c8bd 1b28 c4bd
00000250: aa0f 30bb 596c 20bd db44 493d 346a c53d
00000260: d75f e0bc 4c3f acbd d556 973d 08a0 03bd
00000270: 9d7c d6bd bf0b 92bd d6ff a3bd fc92 0ebd
00000280: 7ca1 363d 4cc6 2abe b67f 53be ce9b abbd
00000290: 75c9 533d e88a 2a3d 8f6f 6ebe 3123 97be
000002a0: 035f f4bd 9d14 94bc e78f 203e 148c d7bd
000002b0: 655c 43be b11e 13be ba77 fb3c 2a2e eabd
000002c0: ac58 4b3d 2854 a43d 4f67 083c 256b 58bd
000002d0: 2271 6bbc 9017 883c 5ebd 3dbd f454 81bd
000002e0: 88bd 03bd 2375 a3bd d3a1 19bd 9c92 5b3d
000002f0: 0c15 93bc 785c 73bc 68bc 923d 5713 f33d
00000300: 8c48 a63d d561 3fbd 740d 9fbd 99c7 0ebb
00000310: f565 e43d 95a3 873d 6082 cebc e0ab 103d
00000320: b414 78bd 5312 09be ed6a 30bd 4eb4 643d
00000330: faca 91bc 798a a1bd 623e 16be c953 393d
00000340: 3861 6bbd f4c9 0ebd eee0 9bbd e289 3bbc
00000350: ffe6 67bd 8734 c93c 4319 9dbd 980d 8abd
00000360: fc0c 8abd e944 ef3b cc93 bf3b c6ee ae3c
00000370: 6ee2 10be b985 a8bd 8dfb 1dbc 20b5 6e3d
00000380: 3cef a1bd 8599 833e e354 9d3d 43d5 afbd
00000390: abb3 50bc 5c0b 1c3d f749 8d3d 7af5 1c3d
000003a0: c19e 29bd 98d6 64bd f9ee ea3c ae7a 133e
000003b0: d7ac 833c 90d3 a1bd 2adf 07bb f617 c03d
000003c0: 27ea ec3c 1694 dfbd 714f 84bd 9901 bebb
000003d0: 2d5a a33c 071e cdbd b0dc 1bbe eab0 1ebd
000003e0: f577 34bd edb2 c0bc b37d ca3d e1f4 c73b
000003f0: 75ea 3f3d cee7 2b3e 0c9d 823c 7de7 a03d
0.07589713 -0.023043113 0.021256996 0.09181639 0.39539945 0.27863103 0.1292218 0.08599412
-0.051303532 0.11857598 0.28203142 0.087838255 0.045967262 -0.19393283 -0.28582686 0.20116295
0.15685402 0.13593474 -0.029402928 -0.24358259 0.050395183 0.13742019 0.081408374 0.0566882
-0.24336343 0.06828104 0.029337337 -0.1683043 -0.086412765 -0.18223608 -0.0258629 0.008124481
0.0018964644 -0.12136884 -0.20410706 0.04439089 -0.020724807 -0.10532387 -0.14505431 -0.13148889
-0.07864356 0.037089206 -0.06691286 0.0011535154 0.02888093 -0.08910856 -0.012451023 -0.043702498
0.030114982 0.07352007 -0.09377518 -0.005790569 -0.028049003 -0.116909176 -0.032238856 -0.08939351
-0.023012925 0.02651141 -0.037723232 -0.075907975 -0.077714905 0.026868585 -0.0052432213 0.0327374
-0.097222924 -0.054427113 0.042556275 0.05555358 0.048496217 0.016305909 -0.123000845 -0.1251453
-0.080393836 -0.08753914 0.03022514 0.018353986 0.22177763 0.34205776 0.40975356 0.3309173
0.13935149 0.11690608 0.2617596 0.36209422 0.42981818 -0.06334365 -0.045416865 0.052787207
0.1778148 0.29628623 0.06299421 0.020812748 0.12922761 0.18411453 0.30302373 -0.0596548
-0.030272163 -0.07109952 -0.09549551 0.0536843 -0.03389325 0.087334625 -0.05167971 -0.06742775
-0.05303008 -0.006184353 -0.013477901 0.043644637 0.041523013 0.012904615 -0.08563517 -0.07876636
0.016918058 0.035699587 -0.058814447 0.010808827 -0.030341912 0.017624727 0.07808862 0.0458395
-0.02583192 -0.07438776 -0.042494956 -0.092284866 0.12358797 0.07092063 0.073485814 0.1574978
0.25419274 0.29871356 0.0732808 0.06451266 0.1440638 0.22084914 0.2260334 -0.033595648
-0.016570985 0.012605239 0.28062898 0.19580421 -0.14220975 -0.042753346 -0.10987204 0.03488484
-0.0076703513 -0.1495605 -0.09788642 -0.09577962 -0.0026864805 -0.03916583 0.04913793 0.09639397
-0.02738945 -0.084105104 0.07389609 -0.03213504 -0.10472987 -0.07131147 -0.08007781 -0.034808144
0.044587597 -0.16677207 -0.20654187 -0.08379327 0.051705796 0.041636378 -0.23284744 -0.29519036
-0.119321845 -0.018076235 0.15679894 -0.10524765 -0.19078214 -0.14367177 0.030696739 -0.11434586
0.04964511 0.08023864 0.008325412 -0.052836556 -0.014370235 0.016612798 -0.046323173 -0.06315032
-0.032163173 -0.079813264 -0.037507843 0.053606614 -0.017954372 -0.014853589 0.07164842 0.11868923
0.08119306 -0.04672416 -0.07766238 -0.002178645 0.11152259 0.06622998 -0.025208652 0.035320163
-0.06056662 -0.13385896 -0.043070722 0.055836014 -0.017796982 -0.0788774 -0.14672235 0.04524592
-0.057465762 -0.034860566 -0.07611261 -0.011446448 -0.05661678 0.02456118 -0.07670834 -0.06740874
-0.06740758 0.007301916 0.005846476 0.02135409 -0.14148876 -0.082286306 -0.009642494 0.058278203
-0.079069585 0.25703064 0.076822065 -0.08585598 -0.012738149 0.03809677 0.06898873 0.038320042
-0.041411165 -0.055868715 0.028678404 0.14402267 0.016073627 -0.079016805 -0.0020732381 0.0937957
0.028920246 -0.10916917 -0.06460465 -0.0057985303 0.01994046 -0.10015493 -0.15220904 -0.038742937
-0.044059712 -0.023522818 0.098872565 0.00610219 0.046854455 0.16787645 0.015944026 0.07856653

conv2.bias f4 [16]
00000000: f23c 71bd d8ad d53d 7d28 753d e7b4 643d
00000010: a4c0 5c3d 7b00 793d 3f4c 1cb9 76b0 5d3e
00000020: b1f8 c53c 5ede a73d af91 273d e5ba d93d
00000030: d6b1 7f3e 5c40 a3bb 5e23 d1bb 846c a1bd
-0.058896013 0.10433549 0.059853066 0.055836584 0.053894654 0.060791474 -0.00014905723 0.21649346
0.024166437 0.0819671 0.04091042 0.106313504 0.24970183 -0.0049820375 -0.00638239 -0.07882026

fc1.weight f4 [120, 400]
00000000: a3a1 2bb7 c0a7 d3b6 5b3f d2b6 8365 4ab8
00000010: 362e d4b9 cddc aab6 00c9 fdb5 5f29 74b4
00000020: 7a32 f7b6 f64f 06b9 e521 b0b6 02b3 21b1
00000030: 10d8 2d91 7bcd 67ad ff1b 0cb7 180b 81af
00000040: bef2 4998 5db3 7594 1853 c91c a2c9 48b5
00000050: 417b a0a9 b8b0 85a4 2659 04a5 9a39 5aab
00000060: 4ab6 5db6 5065 a0ad b148 64b7 82a2 e8b8
00000070: 0f89 8db9 5ab1 ffb7 13d9 cb31 b587 5ab8
00000080: 1a35 a4b9 f703 4eba fa47 82b9 7435 21b6
00000090: dc36 3db9 ad5c e6b9 d2b4 2fba 4408 82b9
000000a0: 7bad 5bb4 8d08 7bb8 6dfa ceb8 9826 01b9
000000b0: da13 06b8 8b9d 81ad 46e6 a0b5 4a04 84b6
000000c0: 8575 b7b6 d585 01b5 2962 0cb9 e966 8db7
000000d0: 39da 9cb7 ddcf c9b7 ef3e 08ba 93b8 55b8
000000e0: 498b 78b7 f349 8db7 52d8 c0b6 262e b4b9
000000f0: a63a a7b8 5f68 b2b6 02c7 c0b3 b94d bdb3
00000100: 1b15 66b8 93a9 9fb7 7c3b f2b3 bbae e6b1
00000110: a8a2 abaf 82f1 eeb5 1198 bcb4 94c9 b9af
00000120: a571 bab0 8184 ebb0 735f 79b6 d512 ccb4
00000130: c3c2 10b6 e320 a0b6 5260 f7b9 876d 33bb
00000140: 6211 b4b4 b373 1ab4 80a9 bcb1 0f46 1db9
00000150: 469b 17bb 7c15 93b2 3389 a3ad 4d31 e0a8
00000160: fa3a e1b6 d372 a6ba a6a8 ca9f 33b6 9fa8
00000170: 60aa 02ab 78b2 ceb4 fc70 3aba 5581 d3a7
00000180: 63ea b3af 450f 47b1 da9f aab5 e9c0 0cba
00000190: 8454 b0b9 7d14 6cba 1209 c5b9 6a85 ceb9
000001a0: 9f49 3ab5 0cc5 43ba ad23 c8ba 9851 96ba
000001b0: 3579 7aba 4450 f9b6 4b01 ecba ca3f 1fbb
000001c0: c692 2bba 96b4 47b9 1af8 f7b4 25b9 a5ba
000001d0: 6ea7 2eba baba f8b6 fcdc 0cb6 c783 86b0
000001e0: 5464 b9b9 2913 4db8 03ab 33b2 9654 1ab0
000001f0: 2b8e 96aa 0c83 1eb8 b243 13ba 6fd0 82ba
00000200: 817d 07ba c4b4 feb4 5501 24b9 ad83 a4ba
00000210: 9e6d 25bb abc8 e5ba 8b2e 4cb8 6998 17ba
00000220: 2e7f 18bb 4614 3bbb 702a ddba e81d b7b8
00000230: 4ca1 bfb9 c849 84ba 2d6b 43ba 1277 cfb9
00000240: 9465 04b6 bbc3 83b8 a2e9 09b9 bfb9 b0b8
00000250: dd70 dcb7 550f 70af 6844 0000 c837 0100
00000260: 6745 0080 e252 0080 6647 0000 9857 0000
00000270: e950 0080 81f5 0080 9f44 0000 c353 0000
00000280: e349 0000 6399 0100 d54d 0000 2656 0000
00000290: d957 0080 f54c 0080 d350 0080 564a 0080
000002a0: 4d46 0080 5a46 0080 d255 0080 6c44 0000
000002b0: b548 0000 4249 0000 a9b6 0000 d103 3fb8
000002c0: 92ea 53b9 57b7 2eb9 bff9 48b8 cf78 0d23
000002d0: 6904 8eb9 4328 fcb9 2059 88b9 b2a4 f2b9
000002e0: a76c 2eb5 e782 a1b9 43db 24ba 6792 57ba
000002f0: b78f 92ba 2da1 9ab8 9508 a4ba 3e0c cbba
00000300: 31b0 99ba 4bd5 bfba d1ca c6b9 9137 ffb9
00000310: 3f2d 4dba a4e4 fbb9 7a0e 08ba abb1 c4b8
00000320: 032f 15b4 45e3 16b9 8324 a2b9 5a9c 3db9
00000330: 6f66 1eb2 8e4c 8cb6 2ac7 e6b9 5ad0 86ba
00000340: 9626 85ba 20cf 3eb8 7337 ddb7 c8f9 6eba
00000350: 13c9 e5ba 37a0 c8ba 4515 6fb9 2883 38b8
00000360: 3665 32ba d802 59ba 1966 23ba 904d 64b8
00000370: 079a 11b6 37db 0eb9 722d 0db9 8411 79b8
00000380: c24e 16b5 414e caba 2a29 b4ba 9731 a5ba
00000390: fb01 92ba 2274 3fb9 c9fd 06bb 75d0 02bb
000003a0: f2a1 a7ba 66b8 06ba c29c 83b8 fefc 31bb
000003b0: 5f38 9bba 9bc7 88b8 f68e ceb5 b4c0 ddb1
000003c0: 3343 6bba 6aa6 13b8 5d0d 3baf c822 8cad
000003d0: b889 99a4 26f1 1db9 2f1c dfb5 85ca 1da3
000003e0: c803 04a7 c698 b5a5 20a3 8cb6 69a2 e3b5
000003f0: 867f feb5 9bcb 3ab8 c83c 70b9 a0f0 fcb5
-1.0230028e-05 -6.3078187e-06 -6.2658632e-06 -4.8255093e-05 -0.0004047022 -5.0920994e-06 -1.8908468e-06 -2.2739322e-07
-7.36705e-06 -0.00012809024 -5.2491546e-06 -2.3530338e-09 -1.3713873e-28 -1.3176456e-11 -8.351169e-06 -2.3472846e-10
-2.6101195e-24 -1.2404712e-26 1.3322543e-21 -7.479922e-07 -7.1268085e-14 -5.797893e-17 -1.147938e-16 -7.7529096e-13
-3.3037672e-06 -1.8234886e-11 -1.3606784e-05 -0.000110928915 -0.00026995732 -3.0480955e-05 5.932756e-09 -5.2101637e-05
-0.0003132008 -0.0007858867 -0.0002484916 -2.4021983e-06 -0.00018044881 -0.00043938067 -0.00067026645 -0.0002480169
-2.0459076e-07 -5.9851027e-05 -9.869491e-05 -0.00012316776 -3.1966578e-05 -1.4735565e-11 -1.1987947e-06 -3.934406e-06
-5.467506e-06 -4.8250996e-07 -0.00013388008 -1.6856431e-05 -1.8698267e-05 -2.4057861e-05 -0.0005197366 -5.0955055e-05
-1.4814382e-05 -1.6842945e-05 -5.747229e-06 -0.0003436666 -7.974105e-05 -5.316964e-06 -8.976896e-08 -8.815136e-08
-5.485593e-05 -1.9033241e-05 -1.1279823e-07 -6.7137456e-09 -3.1220293e-10 -1.780267e-06 -3.5128372e-07 -3.3794534e-10
-1.3565581e-09 -1.713616e-09 -3.715945e-06 -3.8011663e-07 -2.1571038e-06 -4.7722e-06 -0.00047183275 -0.0027378516
-3.354026e-07 -1.4384459e-07 -5.49079e-09 -0.00014998786 -0.0023133322 -1.7122822e-08 -1.8591883e-11 -2.4890377e-14
-6.7123883e-06 -0.0012699015 -8.582933e-20 -1.7731562e-14 -4.642172e-13 -3.8500343e-07 -0.0007112173 -5.8704487e-15
-3.2726452e-10 -2.896699e-09 -1.271251e-06 -0.0005369322 -0.00033632305 -0.00090057385 -0.00037581526 -0.00039390783
-6.939753e-07 -0.0007468022 -0.0015269421 -0.0011468409 -0.00095548044 -7.4301224e-06 -0.0018005756 -0.0024299496
-0.0006545003 -0.00019045392 -4.6187853e-07 -0.0012643678 -0.0006662522 -7.412714e-06 -2.0990256e-06 -9.787237e-10
-0.000353607 -4.8893653e-05 -1.0458055e-08 -5.614508e-10 -2.6744001e-13 -3.7792182e-05 -0.00056176924 -0.0009980331
-0.0005168543 -4.744271e-07 -0.00015640755 -0.001255145 -0.002524234 -0.0017531117 -4.8680737e-05 -0.0005782904
-0.0023269164 -0.002854602 -0.0016873609 -8.7316905e-05 -0.00036550534 -0.0010092789 -0.000745463 -0.0003957083
-1.972866e-06 -6.2830244e-05 -0.00013152373 -8.426932e-05 -2.62786e-05 -2.183332e-10 2.454e-41 1.11846e-40
-2.4897e-41 -2.9733e-41 2.5613e-41 3.1423e-41 -2.9025e-41 -8.807e-41 2.4617e-41 3.0048e-41
2.6506e-41 1.4686e-40 2.7921e-41 3.0904e-41 -3.1514e-41 -2.7607e-41 -2.8994e-41 -2.6667e-41
-2.5219e-41 -2.5237e-41 -3.0787e-41 2.4545e-41 2.6082e-41 2.628e-41 6.5526e-41 -4.5541503e-05
-0.00020209912 -0.00016662233 -4.791631e-05 7.6692075e-18 -0.00027087636 -0.00048095183 -0.00026006345 -0.00046280544
-6.497816e-07 -0.00030805843 -0.0006288776 -0.0008223415 -0.0011181746 -7.3733136e-05 -0.0012514765 -0.0015491319
-0.0011725483 -0.001463571 -0.00037916613 -0.0004867879 -0.00078268716 -0.000480448 -0.00051901455 -9.3791015e-05
-1.3893809e-07 -0.00014389779 -0.0003092625 -0.0001808269 -9.220101e-09 -4.1812373e-06 -0.00044017407 -0.0010285482
-0.0010158594 -4.549243e-05 -2.6371074e-05 -0.00091162 -0.0017531238 -0.0015306537 -0.0002280074 -4.3991167e-05
-0.0006805243 -0.0008278317 -0.000623317 -5.443167e-05 -2.169634e-06 -0.00013623839 -0.00013463738 -5.938254e-05
-5.599396e-07 -0.0015434698 -0.0013745178 -0.001260328 -0.0011139506 -0.00018258442 -0.0020598045 -0.0019960676
-0.0012789352 -0.0005139172 -6.275765e-05 -0.0027158852 -0.0011842361 -6.522165e-05 -1.5389803e-06 -6.4538543e-09
-0.0008974552 -3.5202516e-05 -1.7012299e-10 -1.5931603e-11 -6.658648e-17 -0.00015062522 -1.6622997e-06 -8.553872e-18
-1.832073e-15 -3.1502018e-16 -4.1913154e-06 -1.6960086e-06 -1.8961589e-06 -4.4535478e-05 -0.00022910826 -1.8845494e-06

fc1.bias f4 [120]
00000000: c7e0 1db9 038f 6a3d eaa6 3db8 09e2 b33c
00000010: ebaa e2bc 38a6 20bd c4d9 4c3c 8830 b2ba
00000020: 9b51 39bc b140 d73c 1634 c53d caa9 5cbc
00000030: 1be5 94b9 feee 13bc 2185 49b9 1b7f 3e3d
00000040: 7b61 15b8 cc5e d13d f191 eb3d 9c83 aabc
00000050: f9d6 ae3d 42ca f9b7 ef2f db3d 40db 1da9
00000060: efe8 453c 5550 893d 0d99 12bc a9dd 38a9
00000070: 85a6 733d 3feb 30b6 c00c 16bd 73e5 31b8
00000080: 8503 fdbb 1521 3a3d 69e2 1fbc 6427 09ba
00000090: eaf8 833d 1b46 41bc ab1b a83c 1bfa 2bbc
000000a0: f147 0e3d b7ec a4bc a4ba b6aa 8beb 09b8
000000b0: a550 e23d eb2e 72bb 543d 3d3d a022 263d
000000c0: 2b49 4d3d 514e c7b9 2da6 a7a7 8584 1dbc
000000d0: 379f d9bc 805f f73c 0b81 1abd af45 e83b
000000e0: 29d4 39bd 873a 9bb8 8e3b 66b4 9a3f 1c1b
000000f0: 3610 bda0 4d06 b13d 5472 a6bc bb35 9f3d
00000100: 15cc 8314 25cc a13d 6c2e ae3d 414b 6696
00000110: 7c2e fab9 b99f d63d 76fd 893c 830d cfb7
00000120: 5aef 93b3 e5c2 dc3d ec7c d3bc 4ab5 10ab
00000130: a575 09ba bf6d 4f3d 1ca3 22b8 47e9 0eb8
00000140: 3091 b9ba 5a88 5cbd daf6 d2bc 32e5 813d
00000150: 93df 8a3d 2859 c73d c9a5 ad3d 4915 41bd
00000160: 45c6 b53d f581 4cb9 b9c7 67bd ce1b e6ba
00000170: 442b 49bd a240 c809 32f1 5fbd b14e a4a9
00000180: a0fb 53bd c534 86bd e32e 3d3d 3c89 ba3d
00000190: 5a75 feb3 ecbb 67bb 32d2 123b 87c8 e8ba
000001a0: 5229 1d3d 85cb 10ac a983 9bb0 8d10 a53d
000001b0: b974 bdb7 f4cd 8e3d 3055 2dbb 4ae2 72ba
000001c0: c8c3 b4b1 cae1 193e f985 86bb 3f29 0abd
000001d0: d494 bab9 df6f bb3d caad 4cbd 46de 63b5
-0.00015056423 0.057265293 -4.5216562e-05 0.021958368 -0.02766939 -0.03922102 0.012503091 -0.0013594786
-0.01131096 0.026275964 0.09629075 -0.013468215 -0.00028399457 -0.009029148 -0.00019218448 0.046507936
-3.5615154e-05 0.10223159 0.115024455 -0.02081471 0.085370965 -2.9777297e-05 0.10702502 -3.5051172e-14
0.0120794615 0.06704775 -0.008947623 -4.1048467e-14 0.059484977 -2.6362975e-06 -0.036633253 -4.241378e-05
-0.007721367 0.045441706 -0.00975857 -0.0005232005 0.06443961 -0.0117965 0.020521006 -0.0104966415
0.034736577 -0.020132406 -3.2459202e-13 -3.2882712e-05 0.11050538 -0.0036954235 0.046201065 0.040560365
0.050118607 -0.00038014588 -4.653198e-15 -0.009614115 -0.026565177 0.030196905 -0.03772072 0.007088385
-0.045368347 -7.4018775e-05 -2.1442085e-07 1.2924568e-22 -3.2028573e-19 0.0864378 -0.020318188 0.0777392
1.3308116e-26 0.079002656 0.08504948 -1.8602998e-25 -0.0004771835 0.104796834 0.016844492 -2.4682615e-05
-6.888759e-08 0.10779361 -0.025816403 -5.1410666e-13 -0.00052436657 0.05064177 -3.8775717e-05 -3.4072695e-05
-0.0014157649 -0.053840972 -0.025752474 0.06342544 0.06780925 0.09733802 0.08478887 -0.04713944
0.088757075 -0.00019503369 -0.056586955 -0.0017555894 -0.049113527 4.820903e-33 -0.05467338 -7.296714e-14
-0.05175364 -0.06553034 0.046187293 0.09108207 -1.1849143e-07 -0.0035359813 0.0022403118 -0.0017759957
0.038369484 -2.0576607e-12 -1.1315154e-09 0.080597974 -2.2584909e-05 0.06972876 -0.002644848 -0.0009265287
-5.2609472e-09 0.15027538 -0.0041053263 -0.03373074 -0.0003558757 0.09152197 -0.049970426 -8.488754e-07

fc2.weight f4 [84, 120]
00000000: 2a80 13bd 0f6c 363d 9caf 72bb 02e1 c5bc
00000010: 118e a6bd 859a 04be aa49 e73d 5e87 10bb
00000020: 926e b53a 5f2b 143e ee20 503d 7b6c b33d
00000030: b446 0080 7338 20bd b7fe 173b 7fb3 063d
00000040: 2271 a33a 89a5 edbd 994b c3bc f3a2 9e3c
00000050: eb24 ca3d 0df2 b408 bd96 21bd 6e48 0080
00000060: df10 9cbc 1e4f 3fbd cbb0 533d 5ad3 7186
00000070: 5114 223c 7b45 0080 9dbd ff3d bc2c b03b
00000080: a74f 2cbc 4bb8 083e b92a 3f3d b9be b4bb
00000090: 896e cdbb 6939 c73d 685b 93bd 300d 623d
000000a0: f664 1abd d460 203e 1f46 0080 572b b738
000000b0: d699 15bd 60e5 083e 1750 693d 0b86 043d
000000c0: 1458 4c3d b3b2 79bd c64a 0000 c044 90bd
000000d0: 0a13 8dbd c529 b33d 0004 8c3d 9504 74be
000000e0: f758 273e ad6b a13a 8e1a c72f f453 0000
000000f0: c709 04ad c4cc 393e 3e9b 093d 177a 99bc
00000100: a346 0080 35b9 013e 4b57 0a3c a2fd 8f2f
00000110: 1f46 8638 0b5f d83c f715 1d3d 572f 2bbb
00000120: a049 0000 9c13 203e f47e 473d 7745 0000
00000130: 2193 74bb 9ef5 68be 77a9 88bb 05c1 b225
00000140: e145 0080 c439 7abd 0c75 9bbc 0148 793e
00000150: a47e 2cbd 6e57 4a3e 0813 a1bd a7d7 103c
00000160: d6c3 4e3d dc48 0080 42c4 093e 064c 8dbb
00000170: 7215 0cbd 4f58 5e80 c8cb 0e3e a147 0000
00000180: 673c 673e 99d6 3f3e 3ae8 e03d fde2 b3bc
00000190: e224 773b ed2f 68bc 25b0 08be 9062 bc3b
000001a0: ffd2 ebbd 9853 2498 923a 0080 08a0 52bd
000001b0: 2e26 0000 0b0c ba3d 690b 3c3e bff9 cd3b
000001c0: e446 0080 0e93 503d cde7 373e a921 5cbd
000001d0: 3548 0000 ac4f b8bd bd00 263d b047 0080
000001e0: 5957 0000 dbf7 323b ff47 0000 2187 61bc
000001f0: 2ad5 9292 efd9 93bd 6a80 40bb 90d5 0f80
00000200: 004d 0080 5dbd cc3c 86d0 ddbc 4899 3d30
00000210: 4349 0080 7a93 5c83 ec4a 0080 f964 6db6
00000220: 193e 0830 ae9f 4abd 31ee 833a 5188 4ea0
00000230: 297b 4dbd 6867 1101 7d26 a3bb c256 0080
00000240: f34b 88bc 6c2b 3d3b 5cb1 85bc f851 0080
00000250: 1eae d53c c747 0000 8fb2 46bc c555 0080
00000260: fe07 b781 4517 58bc 2d30 868f 184c 0000
00000270: 9995 76bb e629 a6b2 6d97 24bc 99b1 eebb
00000280: 77b1 dfba fdf0 0cbd 133f 0000 fd0a c980
00000290: fbd0 213c 46e0 6438 5669 34bb 6f5e e4bc
000002a0: 2b25 553c 7e98 2dbb 5c48 0080 9e0f 8613
000002b0: 9add 1fba 8bbf 90bc 03fb febb 03ff d6bb
000002c0: 07bc eb3a a250 0000 c353 0080 5045 0000
000002d0: 004e 0080 5062 38bb 6163 87bc ab35 a735
000002e0: cf99 0100 958f 35bc f959 d7bb 57f4 018b
000002f0: 464d 0080 71c0 3ebb 6856 3d3c 104a 0080
00000300: 8646 0000 73b5 2ebc 3f23 953c 8853 0080
00000310: b24e 0080 781c 6339 4613 0000 7846 0000
00000320: 2545 0000 50f9 0fb8 37d6 953c a6ca 35bc
00000330: b4d5 183d 6020 293d 76a5 fc3c 76d7 95bc
00000340: 2eca 84bb f24e 0080 92c0 a2bb 7432 ae0e
00000350: 8c35 2a2f 6744 0000 7040 3fb8 4b4e 0000
00000360: 0ab2 25b9 3e6e 9aba c555 72bb 1d9b f4bc
00000370: 3c01 2c3a b079 0703 7883 4dbd cc76 ba07
00000380: e7b3 a03c 2e6f 0e8d 724c 0000 5422 d0bc
00000390: 4c46 0000 d35e 2d3d c73b 3a3c 4b9a 2503
000003a0: c444 0080 e5ea c7bc 3ffa 8f3c 9404 64bd
000003b0: 4949 0080 1d52 53bd 4b5b d8b4 7d4f 0000
000003c0: c444 0000 49b2 e4bc ff4c 0080 8c00 34bd
000003d0: 914c 0000 2eb6 3cbd ae87 32bb c557 0100
000003e0: 1346 0080 0c4d 93bc 2577 41bd 7796 8cba
000003f0: 4f46 0080 c244 0080 5c4b 0000 4541 73bc
-0.0360109 0.044536646 -0.003703094 -0.024155144 -0.08132566 -0.1294957 0.11293347 -0.0022053341
0.0013842157 0.1446967 0.050812654 0.087609254 -2.5364e-41 -0.039116334 0.0023192593 0.032886025
0.0012469629 -0.11603839 -0.023839759 0.01936481 0.09870323 1.0890262e-33 -0.039450396 -2.5983e-41
-0.019051014 -0.04670631 0.051682275 -4.548234e-35 0.009892539 -2.4925e-41 0.12487338 0.0053764265
-0.0105170375 0.13351552 0.046671603 -0.0055159 -0.0062692803 0.09727747 -0.07195169 0.055188358
-0.03769394 0.15661937 -2.5155e-41 8.734193e-05 -0.036523663 0.1336875 0.056961145 0.032354396
0.049888685 -0.060961436 2.6824e-41 -0.07044363 -0.06888397 0.08748201 0.068367004 -0.23829873
0.16342531 0.0012315415 3.6216757e-10 3.0117e-41 -7.505502e-12 0.18144518 0.033595316 -0.018734975
-2.534e-41 0.12668307 0.008443664 2.6191765e-10 6.402679e-05 0.026412508 0.038351025 -0.0026120746
2.6412e-41 0.1563248 0.048705056 2.4919e-41 -0.003731914 -0.22749946 -0.0041705924 3.1008873e-16
-2.5068e-41 -0.061090246 -0.01897671 0.24343874 -0.04211296 0.19759914 -0.07864958 0.008840478
0.050479732 -2.6137e-41 0.13453773 -0.004312041 -0.03420014 -8.664216e-39 0.13944924 2.5696e-41
0.22581635 0.18734206 0.10981794 -0.021958822 0.0037711193 -0.014171583 -0.13348444 0.0057490543
-0.11514854 -2.1238707e-24 -2.1011e-41 -0.05142215 1.3696e-41 0.09084328 0.18363728 0.0062858756
-2.5431e-41 0.050921492 0.17959519 -0.05374304 2.5903e-41 -0.08999571 0.040528048 -2.5717e-41
3.1334e-41 0.0027308378 2.5827e-41 -0.013765127 -9.266444e-28 -0.07219302 -0.0029373416 -1.454144e-39
-2.7622e-41 0.02499264 -0.02707697 6.8975625e-10 -2.6281e-41 -6.4821484e-37 -2.6877e-41 -3.5374526e-06
4.956476e-10 -0.04946869 0.0010065493 -1.7493982e-19 -0.050166283 2.6706484e-38 -0.0049789534 -3.1123e-41
-0.016637778 0.0028864993 -0.016319923 -2.9405e-41 0.026084002 2.5749e-41 -0.012127533 -3.0768e-41
-6.723505e-38 -0.013189142 -1.3231977e-29 2.7297e-41 -0.0037625788 -1.9343997e-08 -0.010045868 -0.007284355
-0.0017066438 -0.03440951 2.2627e-41 -1.8462877e-38 0.009876485 5.4568307e-05 -0.0027528605 -0.02787706
0.01300935 -0.0026488598 -2.5958e-41 3.3841755e-27 -0.000609839 -0.01766946 -0.007781388 -0.0065611615
0.0017985114 2.8926e-41 -3.0048e-41 2.4865e-41 -2.7981e-41 -0.002813477 -0.01652688 1.2458089e-06
1.47012e-40 -0.011081596 -0.006572005 -2.5028317e-32 -2.772e-41 -0.0029106403 0.011556245 -2.6569e-41
2.5299e-41 -0.010663378 0.018205283 -2.9965e-41 -2.823e-41 0.00021659012 6.914e-42 2.528e-41
2.4804e-41 -3.4326047e-05 0.018290622 -0.011095678 0.03731318 0.04129064 0.030840617 -0.018291216
-0.004052422 -2.832e-41 -0.004966804 4.2942896e-30 1.5480434e-10 2.4538e-41 -4.559796e-05 2.8086e-41
-0.00015801951 -0.0011782122 -0.0036977392 -0.02985912 0.0006561463 3.9812625e-37 -0.050174206 2.8055992e-34
0.019617034 -4.3890956e-31 2.7423e-41 -0.025406994 2.5218e-41 0.04232676 0.011366791 4.866626e-37
-2.4668e-41 -0.024403999 0.017575381 -0.05566843 -2.629e-41 -0.05159198 -4.029956e-07 2.8515e-41
2.4668e-41 -0.027917044 -2.7621e-41 -0.043945834 2.7467e-41 -0.046072178 -0.0027241516 1.23321e-40
-2.5138e-41 -0.017981075 -0.047232766 -0.0010725994 -2.5222e-41 -2.4666e-41 2.7034e-41 -0.014847104

fc2.bias f4 [84]
00000000: 4d49 ce3c fa14 0dbc a7e0 dcbc b338 943d
00000010: dfd5 943d 775d b1b7 1517 15bc 5eb4 b83d
00000020: 6102 c23d 84de 04b9 53a1 543c 3241 743d
00000030: 6a95 7abc f407 adba cece 91b5 8d42 54bd
00000040: 48c5 67bd 63ea acbc 54a4 9a3b b1c2 883d
00000050: c028 de3d 44bc 0a3e 0c19 0d3e 518a 1ebd
00000060: 32b0 29a2 5dd1 9fbc 5338 fe3c aa94 ea3d
00000070: 5072 c0b6 2b63 2d3b 6a99 4dbb bbaa 253d
00000080: dc02 aaba ca23 2b3d 56f3 9d3d 3d36 033e
00000090: 4ab0 0e3e ecb3 0a3e 1ad2 24be 75b4 691c
000000a0: 54e8 bd3d c614 1f3c e597 a03b 5a74 153e
000000b0: ad48 08ae dbc3 29bc b0f8 bc3c 6844 1c3d
000000c0: 0454 3b3d 909b d73c 0732 34bb e16f 11bc
000000d0: 3e0a 183e bf87 a7bc b352 a23d 712d 2a3b
000000e0: e477 0dbd ff70 69bd 86ae 153d 9344 033d
000000f0: faf2 bbba 5130 3e3d 2f60 d63d bfde 023e
00000100: d301 2c3d 4c73 b4bd ba5e 95ba 9b53 8d3d
00000110: f2be 103e fd45 96bc 1c01 2dbc bf8e a4bc
00000120: 2b41 4a3d d57f 223e f633 d83d 6661 28ba
00000130: 6e14 8c3d 89af 093d 1572 7b3d e726 ee3c
00000140: 6657 1c3d a3b4 683c cab1 4b3e fb9e 453d
0.025181437 -0.008610958 -0.026962591 0.07237377 0.07267355 -2.1143567e-05 -0.0090997415 0.09018777
0.0947311 -0.00012671395 0.012977916 0.059632488 -0.015294412 -0.0013201223 -1.086353e-06 -0.05182128
-0.056584626 -0.021107858 0.0047192965 0.066777594 0.10847616 0.1354838 0.13779086 -0.038706128
-2.2997048e-18 -0.019509012 0.031032717 0.11454137 -5.7353536e-06 0.0026456814 -0.003137196 0.040446024
-0.0012970823 0.041782178 0.07712428 0.12813659 0.13934436 0.13545197 -0.16095772 7.732647e-22
0.09272829 0.009709543 0.0049009197 0.14595166 -3.098737e-11 -0.010361637 0.023067802 0.038151175
0.04573442 0.026319295 -0.002749564 -0.008876772 0.14847657 -0.020450471 0.0792593 0.0025967027
-0.034538165 -0.056992527 0.03654339 0.03204782 -0.001433938 0.046432797 0.10467564 0.12780283
0.041993927 -0.08811054 -0.0011396029 0.06900712 0.1413534 -0.01834392 -0.0105593465 -0.020087598
0.049378555 0.15869077 0.10556786 -0.0006423205 0.06839834 0.03361467 0.061388094 0.029071284
0.038169287 0.014203223 0.1989204 0.04824732

fc3.weight f4 [10, 84]
00000000: 6a37 b43d 36f0 e43c b24c bc3c 2a7f 003e
00000010: 3847 afbd c1f6 3ebb f3a4 1fbe 46dd f0bd
00000020: f829 9e3d 7444 0080 d56e a6b9 a65f 37bb
00000030: e562 1e3d 6470 b089 04e4 ab3b 5daa 3bbe
00000040: 8c2f 35be e1bb 46bd 23ab 20ba 7266 cd3b
00000050: 4b7e dcbd e0d9 4d3d e602 16bc 31a3 7a3d
00000060: 174f 0000 762a 0cbe e960 ddbc 0510 903d
00000070: 97be 4ebc 6290 9bb9 50e8 153c 9f8d 98bd
00000080: 187a a4bd f71d 92bd 3841 2a3d 4e02 00be
00000090: 36d0 60bd b15c a73d 096d aebd e047 0000
000000a0: 64b9 943d 3c9f e6b9 ab59 39bc 0452 4a3d
000000b0: 7055 0080 6f8a 99bd 07cc 263e 18ef 633d
000000c0: b04d 58bd df55 30be b936 b1bd 8bd2 f93c
000000d0: fc2b c6bd e657 24be 3ef6 5d3d c983 10be
000000e0: 508f 44bd fd23 ac3d 7f29 bc3d 9b76 bc3d
000000f0: a9be fcbb c334 acbe 238d 803c 3356 183d
00000100: 23d1 c33d 5b5a 883c bb1e 6fb7 f47c 723d
00000110: 68c0 3c3e 1d64 ffbc ee10 0cbc 633e 0f3d
00000120: 4036 f13b aa0e 50be 8d25 333d 9ef6 1cbd
00000130: a9cc 2b3d 56da 033d 57ac b5ba 1192 48bc
00000140: a6f6 bb3d 445c a6be 778e 91bd 035c 6dbe
00000150: ee2f b73d 5f57 953c 31b5 debd 61b4 82bd
00000160: cb27 6abd 42d0 bfbb ce51 083e 8645 09be
00000170: 53a9 8d3d ef48 0000 cf0e 1032 d5a7 edbd
00000180: 1471 2abc d594 b503 8029 3a3b d770 70be
00000190: 3915 54bd f747 aabc 867d 4a3c b420 9dbe
000001a0: e918 90bc acd4 82bc ffcd 57be 16ee 533d
000001b0: 6e47 0000 3769 49bd 18cb d93d fcfe 57be
000001c0: 7358 873b c47a 5836 71a3 91ba d7d9 003d
000001d0: 6d16 b63d d625 f83d 702f f53b 39da 4abc
000001e0: ed71 95bd 7fcd 6bbe 00bc 47bd 6e47 0080
000001f0: 17e2 37be 2d7d 23b4 c112 89ba 8095 023e
00000200: cd48 0080 df44 453e edeb e2bd cfeb 623d
00000210: f97b 58be dbae 41be f072 c03c bf0d 543b
00000220: 1dc9 b4be f43a 5cbe e628 093d 699d 4abe
00000230: 0326 47bd 498a a4bb 315c d0bd 3720 3a3e
00000240: 975c 88bc 87bd 89be 2e88 f03d f7a5 12be
00000250: 7315 4dbe aa78 c1bd 3ae3 c2b9 c418 80bd
00000260: 7e08 61be 54a1 ae3d 841b d23b 96dc 88b4
00000270: 7b7c 4f3d 306e f83d e711 64bc 0f91 8b3b
00000280: 08a8 41be 85ee 2f3e 98fd 553e 5c69 87bd
00000290: e044 2bbd 7651 6c3d c3b7 63bd d589 fb3d
000002a0: c3d2 abbd 9c93 22bc b285 f73c 6d92 823d
000002b0: 97a6 8d3c 2fee 1f37 cd76 48be 3179 733d
000002c0: c744 c53d 0b3c 6f8b e158 0435 9a37 b1bd
000002d0: d456 473c 6baa 4608 6147 713c 4f3d 01bd
000002e0: 5f1b e8bd afe3 1d3d 72fb 6e3b f837 c7bc
000002f0: 0769 e4bd b2fb 55be 7bdb 083c ed91 9b3d
00000300: 1646 0080 4d54 bebd fd11 833c 31f0 cd3d
00000310: c47d 153b 0fe6 e9b9 78ef bdb7 424e ebbd
00000320: 17f2 a03e df91 0ebe 732b c63d abf4 01bd
00000330: a803 473d 9c82 6fbe d2a2 82be 6248 0080
00000340: c023 8fbd 0e68 04b3 3c23 3fbb 3a1c fa3c
00000350: 8548 3180 e30e 1a3e dcf5 edbc f266 0abe
00000360: 0adb f1bc d5ce 883d f300 9ebd 09d1 9a3a
00000370: bdc1 58bd deb5 27be 93c1 203d 5f84 9d3d
00000380: 45be 893d 9e28 063d a581 e9bd 4bdc f0be
00000390: 5da7 ca3b bcf9 673d 4c4b ec3d 3574 9a3d
000003a0: 4a8a ccbd 31b5 03be 6612 51b7 fd42 163e
000003b0: 7efc dfbc fe84 e43d 773f 35bc 30be b3bb
000003c0: 911c aebd 6210 ccbc d2bd 6abe 276a dabb
000003d0: ba09 103e 2c87 d03d 048a e0be 8bf0 413d
000003e0: 5eda 853d 4506 a2bb ba96 04bc 0a4e a23c
000003f0: 5653 2fbc 2eee e9bc 5fa3 35bd 1c49 03bc
0.08799632 0.027946573 0.02298579 0.12548509 -0.08558506 -0.0029138776 -0.15590267 -0.117609546
0.07722849 -2.4556e-41 -0.00031744564 -0.0027980595 0.038668532 -4.247615e-33 0.0052456874 -0.18326707
-0.17693919 -0.04851902 -0.0006129017 0.006268316 -0.10766276 0.05025661 -0.0091559645 0.061190788
2.8372e-41 -0.13688073 -0.02702375 0.070343055 -0.012618682 -0.00029671477 0.009149626 -0.07448887
-0.080311 -0.071346216 0.041566104 -0.12500879 -0.054886065 0.08171976 -0.085168906 2.5784e-41
0.07261923 -0.00043987657 -0.011312882 0.049394622 -3.0649e-41 -0.07497107 0.16288768 0.05564794
-0.052808464 -0.17220257 -0.08653016 0.030495903 -0.09676358 -0.16049156 0.054189913 -0.14112772
-0.047988236 0.08405302 0.09187602 0.0920231 -0.007713158 -0.33634004 0.0156923 0.03719158
0.09561374 0.016644647 -1.4252665e-05 0.059201196 0.18432772 -0.031175667 -0.008548958 0.034971606
0.0073612034 -0.20318094 0.043736983 -0.03832113 0.041943226 0.032190643 -0.0013860565 -0.012241856
0.09177904 -0.32492268 -0.07107251 -0.23179631 0.08944689 0.018230138 -0.10874403 -0.06382061
-0.057166856 -0.0058536837 0.13312456 -0.13405427 0.06917062 2.6164e-41 8.38527e-09 -0.11604277
-0.0104029365 1.0672394e-36 0.0028406084 -0.23480545 -0.051778052 -0.020786269 0.012359029 -0.30689013
-0.017590003 -0.01597055 -0.21074675 0.05174073 2.5624e-41 -0.049172606 0.1063444 -0.21093363
0.004130417 3.2257967e-06 -0.0011111331 0.03145775 0.08890996 0.12116592 0.0074824616 -0.01238113
-0.0729712 -0.2302761 -0.048763275 -2.5624e-41 -0.1795734 -1.5226097e-07 -0.001045786 0.12752342
-2.6116e-41 0.19264553 -0.110801555 0.055400666 -0.21141042 -0.18914358 0.023492306 0.0032356826
-0.35309687 -0.21506864 0.03348627 -0.1978661 -0.048620235 -0.0050213677 -0.10173834 0.18176351
-0.016645713 -0.2690241 0.11744724 -0.14321123 -0.20027713 -0.09446843 -0.0003717186 -0.06254724
-0.21975896 0.08526865 0.0064119715 -2.5492471e-07 0.050655823 0.121303916 -0.013920284 0.0042592357
-0.18911755 0.17180832 0.2089752 -0.066118926 -0.04181373 0.057694875 -0.05559517 0.12282149
-0.08389809 -0.009922888 0.030215118 0.06375585 0.01729135 9.532595e-06 -0.19576569 0.05944175
0.09632259 -4.6074897e-32 4.930317e-07 -0.08653183 0.0121666975 5.9783783e-34 0.014726491 -0.03155261
-0.113333456 0.038547214 0.003646579 -0.02431868 -0.11152845 -0.20896795 0.0083531095 0.075961925
-2.5142e-41 -0.09293423 0.015999788 0.100555785 0.0022810558 -0.0004461263 -2.2642067e-05 -0.11489536
0.314347 -0.13922833 0.09676256 -0.031727474 0.04858747 -0.23389667 -0.25514847 -2.5966e-41
-0.06989241 -3.0828282e-08 -0.0029165288 0.030531038 -4.525954e-39 0.15044741 -0.029047899 -0.13515833
-0.029523391 0.06680075 -0.07715025 0.0011811565 -0.05291914 -0.1637797 0.039247107 0.076912634
0.06725744 0.03275358 -0.11401681 -0.4704307 0.006184502 0.05663465 0.11537799 0.07541696
-0.09987314 -0.12862088 -1.24616545e-05 0.14673992 -0.027342077 0.11158179 -0.0110624945 -0.0054853186
-0.08501542 -0.024910156 -0.22923973 -0.0066654864 0.1406621 0.10182032 -0.43855298 0.04734854
0.06535791 -0.004944595 -0.008092577 0.019812603 -0.010701021 -0.028555956 -0.044345256 -0.008013036

fc3.bias f4 [10]
00000000: d0b6 9fbd e236 00be 4dcb a33d 0d09 f4bb
00000010: e24d 42be fa9f e93c a8fd 173e 664a 003d
00000020: aef7 4b3d 61ca 26be
-0.077985406 -0.12520936 0.07997761 -0.007447368 -0.18975022 0.028518666 0.14842856 0.031320952
0.049796753 -0.16288139
