HW1_Split_nb/checkpoints/model_batchnorm_8.pt (torch, 253706 bytes, 18 tensors)

conv1.weight f4 [6, 1, 5, 5]
000000 3c 05 4d be 7f 6e 46 3e 69 67 17 3d e0 fd 6d 3e
       -0.20021528 0.19378088 0.036963854 0.23241377
000010 90 f8 0f be 27 c3 8e bd 5f 9c 38 3e 28 97 7d bd
       -0.14059663 -0.06970816 0.18028401 -0.061911732
000020 3b c0 97 3e 7f 88 b0 be 78 8d 42 be 5f 7d 82 3e
       0.29638848 -0.34479138 -0.18999279 0.25486276
000030 c7 c2 60 3e 4e 2a 0d 3f 76 92 3e be 84 20 cb bd
       0.21949302 0.55142677 -0.18610558 -0.09918311
000040 04 b1 4a 3e 8a 9c 82 3e d8 d5 1c 3f 05 12 ea 3d
       0.19794089 0.25510055 0.612638 0.11429218
000050 fc b4 72 bd 69 9c 2c be b9 64 c6 bd ae a6 2a 3e
       -0.05925463 -0.1685654 -0.0968718 0.16665146
000060 e9 9b d2 bd 13 fa 9e 3e 0c 82 36 3e 7b 41 6c be
       -0.10283644 0.31050166 0.17823046 -0.23071854
000070 cc 5b 7b be b7 85 80 be 70 8c 8f 3d 3d 2d a4 3e
       -0.24546736 -0.25102016 0.07009208 0.32065764
000080 b0 37 82 3e 85 ea 85 be 31 e4 ae 3d 99 bd e9 3a
       0.2543311 -0.26155487 0.08539618 0.0017832994
000090 56 c1 c1 bd 35 c5 6c 3e 29 54 4a bd fe fd 08 3e
       -0.09460704 0.23122104 -0.049396668 0.1337814
0000a0 25 0d 89 be 93 53 ac bd 46 e4 e6 3c 4f cb 76 3e
       -0.2676784 -0.08414378 0.028185021 0.24100994
0000b0 28 5c fc 3d dc 6d cc bd 3a 0e b5 be 2d 49 6b be
       0.12322265 -0.099818915 -0.35362417 -0.22977133
0000c0 54 01 89 3e c4 a5 14 bd 5e 23 ef 3d 65 df 4d be
       0.26758826 -0.0362909 0.11676668 -0.2010475
0000d0 63 63 aa bd cd b4 be bd ea 37 c0 3d 84 e4 46 3e
       -0.08319738 -0.09311829 0.09385665 0.1942311
0000e0 73 5b 15 be 6a 92 1e be 61 c3 fc 3d 92 b7 b6 3d
       -0.14585666 -0.1548554 0.12341953 0.08921732
0000f0 3c cb f8 bd f3 d5 09 bf 93 5d 0d 3d 9e ce a1 3e
       -0.12148139 -0.53842086 0.034513067 0.3160295
000100 94 f3 c1 3d 2f ff b1 be 91 31 0f bf 50 7d 76 3c
       0.09470287 -0.34765002 -0.5593501 0.015044525
000110 8e 34 a2 3d e8 fd 71 3e 45 3d 44 3c e4 18 81 be
       0.0792018 0.23632014 0.011977498 -0.25214303
000120 39 c7 22 be 31 eb 20 be af 3c 34 be ee 3f 3f bd
       -0.1589631 -0.15714718 -0.17601274 -0.046691827
000130 40 16 9d be 04 cb 1f 3e 05 5e 34 3e 81 31 61 3d
       -0.30681038 0.15604788 0.1761399 0.05497885
000140 3e 3f a0 3d 03 40 a0 be 06 40 82 3e c3 aa 5c 3d
       0.078245625 -0.31298837 0.2543947 0.05387379
000150 59 60 9e bd 18 86 5f 3e 92 cd 31 be 8a 79 f4 bd
       -0.077332206 0.21828496 -0.17363575 -0.11937244
000160 db 62 f6 3d ee 94 eb bc 7b f7 7d 3e 97 ee 33 bd
       0.12030574 -0.028757539 0.24801438 -0.04392871
000170 ca 92 1c be 9a 75 92 be 33 d0 6d 3e cb 99 92 3e
       -0.1529037 -0.28605348 0.23223953 0.2863296
000180 d3 05 37 be a3 17 dd 3d 39 13 34 bd 67 fc 28 be
       -0.17873316 0.10795524 -0.043963645 -0.16502534
000190 61 3e 9d 3d 4b e0 45 3e 5d 48 9b 3e 14 d5 89 3d
       0.076779135 0.19323842 0.30328646 0.067300946
0001a0 28 37 72 bd c6 5d 16 be 41 d6 9c bd 0a 4f 5a bc
       -0.059134632 -0.14684209 -0.07658053 -0.013324508
0001b0 9a 66 bb bd 6e c1 df bd 9b 99 f1 bd 00 f7 4e bf
       -0.09150429 -0.10925566 -0.11796876 -0.8084564
0001c0 9a 11 80 bf ec a7 ef bd a3 9c e3 3d a5 c4 02 3e
       -1.0005372 -0.117019504 0.111138605 0.12770326
0001d0 1c 86 29 bd a6 0b 98 be 92 fc de bd 65 d2 34 3d
       -0.041387662 -0.29696387 -0.10888018 0.04414596
0001e0 5b f8 db 3d f4 31 ae 3e e8 7a 50 3a b6 ee 7e 3d
       0.107407294 0.34022486 0.0007952885 0.06223937
0001f0 71 13 29 bc a0 0f 3d 3e 81 17 1c 3d 27 05 d5 3d
       -0.010319577 0.18462992 0.038108353 0.10401373
000200 dd 6e 1f bd 61 f9 50 be 5b 3c 7a 3d 82 2c 89 bd
       -0.038924087 -0.2040763 0.061092716 -0.06697942
000210 95 d8 45 3e bd f2 99 be 35 f3 be 3d 21 46 6f 3e
       0.193209 -0.30068007 0.09323732 0.23366596
000220 ae f6 f9 3d 5b 8f 10 3e 87 9b 84 be ff 7c 4d be
       0.122052535 0.14117186 -0.25899908 -0.20067213
000230 64 5e 09 3e ae 1f 2f 3d 04 3c 67 3e d3 96 b2 be
       0.13414913 0.04275482 0.22581488 -0.34880695
000240 38 95 69 bd d0 3e 29 3e 56 b8 01 3e f3 9a 86 3e
       -0.05702707 0.16527867 0.12667975 0.26290092
000250 b0 24 98 be 09 60 69 be
       -0.2971549 -0.22790541

conv1.bias f4 [6]
000000 e1 1d 06 be d7 7c ab bd 80 71 f9 3c e3 1e 58 3d
       -0.13097335 -0.08373421 0.030449629 0.05276383
000010 ba 84 b1 3d 19 4a b9 bc
       0.08667894 -0.02261834

conv2.weight f4 [16, 6, 5, 5]
000000 84 51 23 be 00 41 05 bc a4 f5 b0 bc 05 ad f8 3d
       -0.15949064 -0.008133173 -0.021601506 0.12142376
000010 f8 07 21 3e ba 1a 45 be 8b cf 00 bd 66 d6 db bb
       0.15725696 -0.19248477 -0.03144793 -0.006708908
000020 01 59 e7 3d 6d 9e ca 3d 6b 13 c5 bd 4e 1e 2d be
       0.11296273 0.098934986 -0.09622844 -0.16906092
000030 a1 c0 0e be 0a 37 1f 3e 67 13 45 bd 6f 9c 27 bd
       -0.1394067 0.1554834 -0.048114207 -0.04092067
000040 96 37 7f bd 10 94 81 be 77 04 4c 3d ae 70 85 bb
       -0.06230887 -0.25308275 0.049808946 -0.0040722704
000050 f8 0a 7d 3d 9a dd fa bd b5 20 9b be 1e 31 ba bd
       0.06177804 -0.122492984 -0.3029839 -0.090913996
000060 22 52 12 be 9d ed 6e be 69 d1 81 be a5 e1 96 be
       -0.14289144 -0.2333283 -0.2535508 -0.29469028
000070 2a 7d 09 bd d4 9d 89 3e f3 f8 02 3e e1 30 5e bd
       -0.03356663 0.26878226 0.12790279 -0.054245833
000080 be ca c1 be d4 b7 d3 bc f7 de a0 bd de 31 97 bd
       -0.37849993 -0.025844492 -0.07855027 -0.07382558
000090 0a 08 5b be 00 f1 34 3e 62 1a fc 3d 86 11 ee 3c
       -0.21389785 0.17670059 0.123097196 0.02906109
0000a0 cd 65 4e 3d de dc a7 bd 24 d0 11 bd 1c d4 51 3e
       0.050390054 -0.08196424 -0.03559889 0.2049107
0000b0 ce a1 11 3e c4 55 d7 bc ef bf de 3d f2 92 0a 3d
       0.1422188 -0.026286013 0.10876452 0.033831544
0000c0 14 02 1d 3e e4 6a 9c 3d 1c 3c 5d 3e b4 53 5b 3e
       0.15332824 0.07637575 0.21604961 0.21418649
0000d0 b5 b9 3f 3d ab 7b 1f 3d e6 65 77 bc b0 a6 43 bc
       0.046807963 0.0389363 -0.015099978 -0.011941597
0000e0 66 b5 9e bc 0d cc de be ed 15 4e be 0e 93 01 bd
       -0.019373607 -0.43515053 -0.20125552 -0.031634383
0000f0 3a 3b 6a 3d d5 f1 81 be b3 77 1c bf a4 7d b0 be
       0.05718539 -0.25379816 -0.61120147 -0.34470856
000100 57 e2 af be 94 87 fe 3c 2e c4 b8 be 30 0a fe bd
       -0.3435237 0.031070508 -0.36087173 -0.12404287
000110 47 85 16 3e 9c c6 b7 bd eb bb da bd 18 0a 5e be
       0.14699279 -0.089734286 -0.10680374 -0.21683538
000120 58 41 51 3d 49 0b 94 3e 3f 47 f4 3d 4f 16 6b 3e
       0.051087707 0.2891486 0.119276516 0.22957729
000130 31 0f 13 3e 35 2f da 3d 47 05 12 be 93 3a 9a 3d
       0.14361264 0.10653535 -0.14259826 0.075307034
000140 6a 7e 2b be db 2e 05 be 19 d1 a4 3d ae b5 49 be
       -0.16747442 -0.13006155 0.08047695 -0.19698212
000150 a8 7a 42 bd c5 1b 2e 3d 66 96 db bd 0d 20 a1 be
       -0.047480255 0.04250695 -0.107220456 -0.31469765
000160 c7 5f 9d bd f8 45 45 3e 99 58 05 3d fc dd 05 bd
       -0.07684284 0.19264972 0.032555196 -0.032682404
000170 a1 fb 8f be 3a a9 f2 bd e7 f0 67 3d 2a a0 bc 3c
       -0.28121665 -0.11848684 0.056626227 0.02302559
000180 ed e1 f8 3d f2 e4 cd bd a8 81 01 3e 29 12 9d bd
       0.12152467 -0.100534335 0.12647116 -0.076694794
000190 6f af 0a 3f 21 97 19 3f d4 df a7 3e 89 1e df 3c
       0.5417394 0.5999623 0.32787955 0.02723624
0001a0 f3 e1 a4 be bd cf 34 3e 24 10 83 bd dd 88 0b 3d
       -0.32203636 0.17657371 -0.06399563 0.03406607
0001b0 3f dd 19 3e e7 32 82 be 6c 90 f7 3c 27 a0 0a 3b
       0.15025805 -0.2542946 0.030220233 0.0021152587
0001c0 34 8a 4e bd cf 8f d6 bd 6e 1e 06 3d 37 7d 64 be
       -0.05042477 -0.10476648 0.032743864 -0.2231339
0001d0 89 00 88 be 91 28 bf bd d6 ce f2 bd a5 a5 a4 3c
       -0.26562908 -0.09333909 -0.11855857 0.020098517
0001e0 22 7a 24 be 9c f6 5a bc f0 40 20 3d e7 8a 19 3e
       -0.16062215 -0.01336446 0.03912443 0.14994393
0001f0 f1 7f a4 3e b0 72 f0 bd 62 0d 8e 3d 1b 84 1f 3d
       0.32128862 -0.11740625 0.06936146 0.038944345
000200 23 1f 92 be b4 43 b9 bc 7c 63 85 be 09 cf b3 bd
       -0.2853938 -0.022615291 -0.26052463 -0.08779723
000210 6c 8d 1f be 47 fb 95 bd 51 fb 90 3c 7f ba e5 bd
       -0.15581292 -0.07323318 0.017697962 -0.11217212
000220 b2 18 59 bd 6b 91 f2 bd b8 d8 5a bd b4 ef e6 3d
       -0.053002067 -0.118441425 -0.053429335 0.112761885
000230 ab 25 ec bb 19 0f 70 3e 2d 3c 43 3e b7 0b 8e 3d
       -0.007206639 0.2344326 0.19065924 0.06935828
000240 a3 64 f1 3c 13 bf 88 bb 5b dd ae 3e 95 16 99 3e
       0.029466933 -0.0041731684 0.34153256 0.2990004
000250 36 99 1d 3e 69 0b 7e bd ce 0a a6 be be 98 93 be
       0.15390477 -0.0620226 -0.32430118 -0.2882747
000260 b8 d1 43 3d 4a 2f 2c bd 11 8f 69 3e 15 ab e0 be
       0.047807425 -0.042037286 0.22808482 -0.43880525
000270 cc 3b 91 bd 1f d6 2f 3e 2b 4a 1d 3d b4 cd 45 bd
       -0.070914835 0.17171524 0.03840081 -0.048291877
000280 12 98 51 be b0 a7 82 bd 1e 4c 3f 3d a5 73 b6 3d
       -0.20468166 -0.0637964 0.04670345 0.08908776
000290 7b 8f 53 bd 4a 75 fd bd 3f 97 a5 3d 6b 16 89 3d
       -0.051650506 -0.12375887 0.080854885 0.06693729
0002a0 d4 45 fe 3d 91 00 1e be a2 ff a9 bd ec 2e 29 be
       0.124156624 -0.15429904 -0.08300711 -0.16521806
0002b0 72 7f f3 bb c0 65 c7 bb 0c e5 ab bd 90 de e2 be
       -0.007430964 -0.0060851276 -0.083932966 -0.44310427
0002c0 1b 0f 06 be 61 cf 1e be 5e 89 04 3e b2 c5 bb 3d
       -0.130917 -0.15508796 0.12943026 0.09168567
0002d0 c3 bd 43 3d e1 ab 80 bd a9 44 2b be c8 cc 95 3e
       0.047788393 -0.06282783 -0.1672541 0.29257798
0002e0 15 78 ca bb fe 8f 7a be 68 33 85 be e4 44 5d be
       -0.0061788657 -0.24468991 -0.26015782 -0.21608311
0002f0 48 49 1d 3e 12 b3 16 3e a2 45 07 3e 37 9b 99 3c
       0.15359986 0.14716747 0.13210157 0.01875077
000300 ba a9 7e be 2a c1 ec 3d 55 30 3e 3d 0c 82 d5 3d
       -0.24869433 0.115602806 0.04643281 0.10425195
000310 4b 75 0f 3c 5c e6 94 be d5 eb 27 bd 7a 80 16 3e
       0.008755992 -0.29082 -0.04099639 0.14697447
000320 85 64 8d bd d9 ed 26 bc 2f 71 a5 bd 6a 5e 5e be
       -0.06903938 -0.010188543 -0.08078229 -0.21715704
000330 f2 77 87 3e 58 df af 3b 4f 7b 6a 3d 8f ae 93 bc
       0.264587 0.005367201 0.057246502 -0.018027572
000340 b5 7c 6d be fc 96 ea 3d 88 91 b7 3c dc 1c 9e 3d
       -0.23192103 0.11454579 0.022408262 0.07720348
000350 41 07 36 bd 80 ac bf be e4 a0 76 bd fa 20 ee 3d
       -0.04444051 -0.37436295 -0.06021203 0.116273835
000360 4b 34 59 3c 72 6d 39 be 6d 83 61 be f0 28 b5 bd
       0.0132570965 -0.18108156 -0.22022791 -0.08845699
000370 18 aa bc 3d 7a c5 ec bc 4d bc 9e be 8a 70 78 be
       0.0921213 -0.028902758 -0.31003037 -0.2426168
000380 66 11 d2 3d 60 08 e2 be 17 2d 87 be 01 cf 89 3e
       0.10257225 -0.44147015 -0.26401588 0.26915744
000390 0c 82 a1 3e c2 d5 85 3d 19 7b 58 3e 9b 7a b1 3d
       0.3154453 0.06534912 0.21140708 0.08665963
0003a0 ee d8 8c bd 3d 4d 11 be 5b 40 27 3d d8 15 84 bd
       -0.068773136 -0.1418962 0.04083286 -0.06449479
0003b0 70 cf 98 3d b7 4b bf 3d 63 12 ff bd a5 94 9e 3d
       0.074614406 0.09340613 -0.12454679 0.077431954
0003c0 a2 80 8b 3d ee 63 b0 3e d2 95 41 bc ac 1a b2 be
       0.06811644 0.3445124 -0.011815505 -0.34785974
0003d0 90 b1 d3 bd 93 02 16 3e 12 b3 88 3d 99 e1 28 be
       -0.10336602 0.1464942 0.0667478 -0.16492309
0003e0 cb d4 10 be ac 93 e0 bd df 37 14 3f 71 6b c3 3d
       -0.14143674 -0.10965666 0.5789775 0.09541977
0003f0 1d 41 c1 be 82 2e 41 be 8b 3b 03 3f 62 04 7b 3d
       -0.3774499 -0.18865398 0.5126273 0.061283477

conv2.bias f4 [16]
000000 6a ed 29 3e db 89 29 be 0e cc 32 be 66 f2 ac 3d
       0.16594473 -0.16556494 -0.17460653 0.08444671
000010 a5 aa 7a bb ae 46 28 bd 48 d1 e4 3c dc 36 36 3c
       -0.0038248685 -0.04108303 0.027931824 0.011121478
000020 ab 65 ab 3d 03 e1 03 3d f2 a2 cb 3c 1b db e5 bd
       0.08369001 0.03219701 0.024857972 -0.11223432
000030 2b f7 66 bc b1 92 34 3c cd 9c 94 bc 24 24 06 bd
       -0.014097015 0.011021302 -0.018141175 -0.03274931

bn1.weight f4 [6]
000000 27 e1 09 3f be 59 77 3f c7 11 8f 3f 37 7c 85 3f
       0.5385918 0.9662131 1.11773 1.0428532
000010 56 9c af 3f 30 1c 2c 3f
       1.3719585 0.6723051

bn1.bias f4 [6]
000000 12 b8 d7 be 1f 72 c2 bd b0 be 88 be 14 53 df bd
       -0.42132622 -0.09494423 -0.26707983 -0.10904518
000010 29 4d 09 bf b5 ba 6d 3d
       -0.5363336 0.058039386

bn1.running_mean f4 [6]
000000 3d 15 aa 3e cd 40 89 bd 3f 69 c3 be a1 25 4d 3d
       0.3321933 -0.06701813 -0.38166234 0.050084714
000010 b3 e2 c0 be bc 48 e9 bb
       -0.37672958 -0.0071192663

bn1.running_var f4 [6]
000000 60 c0 b7 3e 96 6f 03 3d a2 a7 a1 3e fc 56 c5 3c
       0.35888958 0.03208884 0.31573206 0.024089329
000010 07 24 b3 3e 89 19 10 3e
       0.34988424 0.14072241

bn2.weight f4 [16]
000000 0f ac 91 3f 9a a5 8d 3f 37 dd 88 3f 67 bc 72 3f
       1.1380633 1.1066163 1.069251 0.9481873
000010 95 0d 8d 3f ff 8d 80 3f 9e 0d 78 3f b7 c3 77 3f
       1.101977 1.0043334 0.9689578 0.9678301
000020 fa 70 7b 3f a0 53 90 3f 44 79 95 3f cd 95 8a 3f
       0.98219264 1.127552 1.1677632 1.0826966
000030 87 88 77 3f 79 28 5a 3f f3 f5 85 3f 54 12 82 3f
       0.966927 0.85218006 1.0465683 1.0161843

bn2.bias f4 [16]
000000 66 16 ea be 51 51 cd be 34 f9 ac be cf 2a cf be
       -0.45720214 -0.40101102 -0.33783877 -0.40462348
000010 79 0d ee be 8c 8e bc be b3 a4 cd be 12 a9 9e be
       -0.46494654 -0.36827505 -0.40164718 -0.30988365
000020 c4 b5 d2 be b2 50 c4 be bf 1b e4 be b1 a1 1c bf
       -0.411543 -0.38342816 -0.4455242 -0.6118422
000030 88 36 ff be b6 84 ed be 8b d8 ac be 65 eb ff be
       -0.49846292 -0.46390313 -0.3375896 -0.4998428

bn2.running_mean f4 [16]
000000 3d a9 cc be ee 33 0e bf ce 3a 14 bf df dd cd be
       -0.3997287 -0.5554799 -0.5790223 -0.40208337
000010 f2 32 d6 3b c7 24 77 bf 4f da 07 bf 8d 4d 8d bf
       0.006536835 -0.9654049 -0.5306749 -1.1039292
000020 de 06 e9 3e fd a0 79 bf a6 93 8e bf 5b 50 a1 bf
       0.45513052 -0.97511274 -1.1138809 -1.2602648
000030 96 0e a9 3e 2e 48 88 3f 69 17 25 bf 20 fb b9 3e
       0.3301894 1.0647027 -0.64488846 0.36324406

bn2.running_var f4 [16]
000000 0c 9f 63 3f c6 42 8d 3f 6b 15 8d 3f e2 d7 2e 3f
       0.8891456 1.1036003 1.1022161 0.6829816
000010 7f b4 f4 3f 66 33 b3 3f bc 41 46 3f cc be d1 3f
       1.9117583 1.400006 0.7744405 1.6386352
000020 65 ae 5f 3f f1 b8 f0 3f af ee 0e 40 7f 5f 7e 3f
       0.8737548 1.880644 2.233318 0.99364465
000030 d3 4a bb 3f 78 86 e4 3f fe 26 5e 3f aa 49 8c 3f
       1.463221 1.7853537 0.8677825 1.095998

fc1.weight f4 [120, 400]
000000 5a 9d 1f 3d e0 2c 13 3e a4 04 b0 3c fc 3f 44 be
       0.03896842 0.14372587 0.021486588 -0.19165033
000010 b4 ef b5 3b ab 61 9e bd 0e 09 92 bb dc 66 3c bc
       0.0055522565 -0.077334724 -0.004456646 -0.011499133
000020 d3 df 91 bc f1 ff 95 bd fa 03 0f be f2 7b bb bd
       -0.017806923 -0.073242076 -0.1396636 -0.091545
000030 91 ef cc bd 43 d1 63 3d 55 e7 2a be 2a 74 83 3d
       -0.10006631 0.05561949 -0.16689809 0.06418641
000040 8c b3 b8 bc 23 da 30 3d 93 a1 a0 3d c5 39 8c bd
       -0.022546552 0.04317678 0.07843318 -0.06846956
000050 84 55 32 3e c8 42 62 be 96 b3 3e bc cd 6a 47 be
       0.17415434 -0.22095788 -0.011639496 -0.19474335
000060 c0 a9 5a bd 21 21 43 be 65 80 8b bc 7b 63 5f 3e
       -0.053384542 -0.19055606 -0.017028997 0.21815293
000070 2c cd 24 be 68 68 5e be 9b 20 c9 bd 04 13 05 3d
       -0.16093892 -0.21719515 -0.09820672 0.032488838
000080 b3 7a 30 be ca f2 1f 3d 42 47 b9 bd 05 f3 d4 bd
       -0.17234306 0.0390499 -0.090467945 -0.10397915
000090 0f 75 08 bd 4d 64 d7 bd 5b 39 d4 3d 97 af 18 3d
       -0.03331476 -0.10517178 0.10362502 0.03727683
0000a0 61 a6 88 3c fc 1e 71 bd 72 32 82 3d de 8d 18 bd
       0.016680898 -0.05886744 0.06357278 -0.03724467
0000b0 51 e7 93 bd e5 73 63 39 db 55 22 be e5 4b cb bd
       -0.072218545 0.00021691581 -0.15853064 -0.09926585
0000c0 91 62 26 be 22 f2 76 3d 08 af 05 3e 98 95 04 3e
       -0.16248538 0.06028951 0.1305505 0.1294769
0000d0 18 55 bd bc 42 0a c4 3d 30 3a 39 3d 46 75 12 3e
       -0.023111865 0.09572269 0.045221508 0.14302549
0000e0 17 5c 9f 3c 6f 4c 2e 3e 18 08 ca 3a 1b fa b2 3d
       0.019453092 0.17021345 0.0015413789 0.0873911
0000f0 e2 3e be bb 43 94 11 bc fa b4 8c bd 09 78 75 be
       -0.005805836 -0.008885446 -0.06870456 -0.23971571
000100 d2 90 e3 3d c5 06 19 be 17 cf 32 bd b9 81 c3 bd
       0.11111607 -0.14943989 -0.043654528 -0.09546227
000110 16 43 48 be 6a 82 bb 3d 4d 23 6f 3d 28 60 50 3d
       -0.19556841 0.09155734 0.058383275 0.05087295
000120 76 17 e7 bd 5c e4 6f bd 89 ca b3 bd cc c7 09 be
       -0.11283772 -0.05856739 -0.08778865 -0.13455123
000130 b4 73 98 3e c2 a0 04 bd b5 6f 03 be 59 6f 0d be
       0.29775774 -0.032379873 -0.12835582 -0.13812007
000140 ff 54 30 be 60 1c 36 bd 8b 4e 3a be d0 6d 4e be
       -0.17219923 -0.044460654 -0.18194024 -0.20159078
000150 71 10 b2 bd ae be 78 3d 7c 26 64 be dd e1 12 be
       -0.08694542 0.06072872 -0.22280306 -0.14343973
000160 82 3b 95 bd ad ce 7c b9 13 1f 22 3e 52 77 26 3c
       -0.07286741 -0.00024109586 0.15832166 0.010160284
000170 9a ec 46 be ee 7a 10 be a4 07 e1 3d ab d5 85 3d
       -0.19426194 -0.14109394 0.109877855 0.065348946
000180 80 63 28 be 76 03 28 3e 48 cc ef bd e5 d1 57 bd
       -0.16444206 0.1640757 -0.117088854 -0.052690405
000190 a1 54 f0 bd ee ee d9 3d 7b ea f2 3d 41 28 84 bd
       -0.11734892 0.10641275 0.1186113 -0.0645299
0001a0 53 71 c8 3d 89 51 54 3d 43 e7 06 be d9 a7 09 3e
       0.0978724 0.05183557 -0.13174157 0.13442935
0001b0 8c b2 0c be 6f 80 78 bb b1 67 0f 3e 67 2b 90 be
       -0.13739985 -0.003791835 0.14004399 -0.28158113
0001c0 10 b9 a1 be 40 4f 7d bd d2 6e 28 3d 00 91 42 3e
       -0.31586504 -0.061843157 0.04112131 0.19000626
0001d0 6b 69 49 be 99 cc f1 bc b3 71 4b 3e bc 58 0b bd
       -0.1966912 -0.029516505 0.19867592 -0.03402017
0001e0 6f cc 3b 3d b8 82 7c 3d d2 75 85 be 60 b3 52 3d
       0.04584926 0.0616481 -0.26066452 0.051440597
0001f0 f7 2c ea bd 29 cb ca bc 7f bb 6e bd 21 27 8c bd
       -0.114343576 -0.024755077 -0.05828428 -0.06843401
000200 92 01 5a bd 8d 48 e1 3c 34 5e 9a bd ee 5c 02 be
       -0.053224154 0.027500415 -0.07537499 -0.12730762
000210 8f 81 b3 bd 7a 35 5e be 8d d8 c1 bc 55 79 7e bc
       -0.08764946 -0.21700087 -0.02366283 -0.0155318575
000220 31 68 b0 bd bf 96 fb 3a f0 65 c4 3c a6 93 d1 bd
       -0.08613623 0.0019194706 0.023974389 -0.1023324
000230 cb be 2c bd f0 12 91 bc 03 37 34 3e e4 01 6e 3d
       -0.04217414 -0.017709225 0.1759911 0.05810727
000240 fa 0d 7e be bf 36 01 bd 4d ff d2 3d 23 08 c4 3b
       -0.24810019 -0.03154635 0.10302601 0.0059824153
000250 8d 75 d6 bd 69 cf 61 be 0e f7 a0 bd 18 d6 8d bd
       -0.1047164 -0.22051777 -0.07859622 -0.06925601
000260 d7 ca 40 3b 84 dc 8f be 4c e8 16 3d 44 6a 46 be
       0.0029417777 -0.28097928 0.03684263 -0.19376475
000270 13 90 22 be 37 06 e7 3d fe d7 16 be 58 4b 86 3b
       -0.15875272 0.11280482 -0.14730832 0.004098337
000280 de eb 4b 3d 96 3a 5b be b2 7c 9a be 36 f6 66 be
       0.049785487 -0.21409068 -0.3017326 -0.2255486
000290 f0 24 15 be 55 c8 c4 bd 54 8e 0d be 6c be d1 bd
       -0.14564872 -0.09608523 -0.13823825 -0.10241398
0002a0 60 8a 2e be 7d ca 80 bd 05 cd b2 bd 73 54 c5 bd
       -0.17044973 -0.062886216 -0.087305106 -0.09635248
0002b0 fb 59 bf 3d c6 41 db 3c 58 93 ef bd 82 de a0 3c
       0.09343334 0.026764762 -0.116980255 0.01963735
0002c0 19 2c ae be e5 0f 34 be 4c 53 59 ba 87 e9 e3 bd
       -0.3401802 -0.17584188 -0.0008290305 -0.11128526
0002d0 59 10 f5 bd aa 95 05 be e0 40 22 be 59 cd 9a 3d
       -0.11966009 -0.13045374 -0.1584506 0.07558698
0002e0 d1 df c3 bd 5b 8c 5a bd 62 d9 5f bc 2e 5f 69 3c
       -0.09564174 -0.05335651 -0.013662668 0.014243884
0002f0 8e 92 bf ba 82 df 1f 3d 5f 33 48 3c b9 d6 3d bd
       -0.001461582 0.039031513 0.012219279 -0.046347354
000300 9c c0 1c bc 0f 3c 00 be cf 23 3d b9 c8 e7 45 3e
       -0.009567406 -0.1252291 -0.00018037784 0.19326699
000310 ab 81 d5 3d dc 08 ae 3c 3f e4 17 be 8d 4d 27 3d
       0.10425123 0.021244459 -0.14833163 0.040845443
000320 04 bb df 3c 33 76 8c bc d3 6c d4 bd de 06 47 be
       0.027310856 -0.017146206 -0.10372319 -0.19436213
000330 59 bd 41 be c0 a3 16 3e 99 b1 28 3d 67 e1 08 be
       -0.18919887 0.14710903 0.041184995 -0.13367234
000340 67 f5 6b be c1 24 a7 be 2c f7 6c 3d dc af 54 bd
       -0.23042832 -0.32645229 0.05785291 -0.051925525
000350 a6 08 f2 ba da ce f0 bb 28 c5 88 bd 9e 91 9f bd
       -0.0018465712 -0.0073488774 -0.066782296 -0.07791446
000360 60 c5 86 bc 31 1b 03 3e 51 2b c2 3d 7d b6 1f 3d
       -0.016451538 0.12803341 0.09480918 0.038992394
000370 67 16 3c 3e 2d 86 69 bd 70 a6 2a be bb d1 f6 bd
       0.18367921 -0.057012726 -0.16665053 -0.12051722
000380 02 e1 89 bc ab e8 19 3e c4 b0 3d 3d dc 37 11 bc
       -0.016830925 0.15030162 0.046311155 -0.008863416
000390 9d a8 2e 3e 76 8e 2e bd f2 84 a8 bc 79 3d 37 bc
       0.17056508 -0.04261633 -0.020571206 -0.01118409
0003a0 7d 7a 38 be 0d d1 27 be 0b 5f 7a be 6b c2 10 be
       -0.18015476 -0.1638834 -0.24450319 -0.14136665
0003b0 28 1e df 3c 62 13 82 3d 00 58 ad bc 4a e3 3d be
       0.02723606 0.06351353 -0.021160126 -0.18543735
0003c0 2f 78 5a be 8f 2d f7 3d f4 60 87 3c 1b 32 4e 3e
       -0.21334909 0.120692365 0.016525723 0.20136301
0003d0 53 48 71 bd b9 1d 62 bd 70 f1 44 bd aa ce 48 bd
       -0.058906864 -0.055204127 -0.048081815 -0.049025215
0003e0 07 bb 27 be 85 1a 2a be 7b 8f a7 be a5 6a 88 be
       -0.16379939 -0.16611679 -0.32726654 -0.26643863
0003f0 3b c9 0b bd 6d 2b a4 be f6 1d 55 be c0 75 a1 3c
       -0.034127455 -0.3206438 -0.2081221 0.019709468

fc1.bias f4 [120]
000000 a4 19 da bd 68 f2 eb 3b cf 98 1b 3d 37 9b 69 bd
       -0.10649422 0.007200528 0.037987527 -0.05703279
000010 79 c7 28 bd fe f6 a6 ba e4 be af 3c e8 26 60 bd
       -0.041205857 -0.0012738404 0.021453328 -0.054724604
000020 76 65 08 3e 62 39 05 bd 83 40 08 3e 97 03 8e 3c
       0.13319954 -0.032525428 0.1330586 0.017335696
000030 0b 50 27 3d e4 3d 1e 3e 46 da 7a bc ef 10 77 3c
       0.04084782 0.15453297 -0.0153108295 0.015079721
000040 2a b5 cb 3c d5 95 87 3c 60 61 de 3c b2 47 f4 bc
       0.02486666 0.016550938 0.027146041 -0.029819343
000050 ec bc 81 bd ec 63 33 bd 3c 5d 15 bd 09 a5 09 3d
       -0.06334862 -0.043796465 -0.03646587 0.033604655
000060 37 d8 8d bc 59 79 90 3c e7 94 23 3e ed 65 1e bc
       -0.017315013 0.017635988 0.1597477 -0.009667856
000070 2e 8c 5c 3a 95 2e 67 3d c0 e0 67 bd 7c b3 20 3d
       0.00084132224 0.05644091 -0.056610823 0.03923367
000080 37 15 12 bd 9d 73 66 bc d8 ca 88 3b 53 06 47 3d
       -0.035664763 -0.01406565 0.0041745715 0.048590016
000090 19 cf f5 ba a9 2f 4c 3c 6c be de 3d 37 93 9c bd
       -0.0018753737 0.012462535 0.10876164 -0.076452665
0000a0 66 a1 ea 3d d5 f0 88 bd 9a e9 97 3d c6 17 be 3d
       0.114565656 -0.0668656 0.07417603 0.09281878
0000b0 5b ce 13 bd d0 89 22 3d 41 2d 51 3d 4b fc d3 3c
       -0.036085468 0.03968221 0.051068548 0.025877139
0000c0 7d 07 d6 3c 69 74 89 3b da aa 6d bd 18 43 5b bd
       0.026126618 0.0041947854 -0.058024265 -0.053530782
0000d0 a8 e8 42 bc 04 85 31 3e 76 9b f1 bd f8 62 d5 bc
       -0.01189629 0.17335898 -0.1179723 -0.026048169
0000e0 e4 da fb bc 64 99 16 3d 7c 06 08 3e 45 ee 97 3d
       -0.030744024 0.03676738 0.13283724 0.07418493
0000f0 43 80 b5 3d ba 77 88 bd 53 a3 a3 3d 92 4e 98 3c
       0.088623546 -0.06663461 0.07990136 0.018592153
000100 01 45 a8 bd 0e 05 f9 bc 36 40 4d bd 40 33 3c 3d
       -0.082162865 -0.030397918 -0.050110064 0.045947313
000110 b6 76 d3 3d c9 c0 81 3d 74 ff e3 3b ff 00 05 3e
       0.10325377 0.06335599 0.0069579426 0.12988661
000120 00 39 e3 bc 6e 09 f4 bd 36 7e 4f 3c 4f b6 5a bd
       -0.02773714 -0.11915861 0.012664368 -0.05339652
000130 95 8b 82 bd 6e bf e6 b9 0b d0 f3 3b 05 c1 83 bc
       -0.063742794 -0.00044011645 0.007440572 -0.01608325
000140 f0 d8 b8 3c 2e 37 ff 3d f7 3f 7b bd 47 e8 84 3d
       0.022564381 0.124616966 -0.0613403 0.06489616
000150 23 bf 33 bd 0f 59 e4 bc 06 1f 3c 3c 20 31 a4 bb
       -0.043883454 -0.027874498 0.011482006 -0.005010739
000160 22 60 e2 3d 2a 36 2e 3d 17 73 19 bd 4f c8 2f bc
       0.11053492 0.042532124 -0.037463274 -0.01072891
000170 7c b4 1d 3d 5f 20 29 3b 26 c6 a3 bd 19 80 f8 bb
       0.0385022 0.0025806648 -0.07996778 -0.00758363
000180 8f 03 cd 3d 7d 5a 02 be 44 b1 00 3e ff fb ef 3b
       0.100104444 -0.12729831 0.12567621 0.0073237414
000190 65 5f f9 3d 83 e3 9d 3b 62 50 39 bd d7 d0 90 3d
       0.12176398 0.0048183813 -0.045242675 0.07071083
0001a0 bd c9 a0 3d 1c 30 0c 3c b3 df 4e 3d 88 54 56 3c
       0.078509785 0.008556392 0.050506305 0.013081677
0001b0 00 92 25 3d bb b3 b2 bb 3d 76 9b bc 0a bd 17 bd
       0.04042244 -0.0054535544 -0.018977279 -0.037045516
0001c0 3a 8a 74 3d f7 80 7a 3d 66 d5 7a 3d 0e 23 15 3e
       0.059702136 0.061158147 0.06123867 0.14564154
0001d0 b8 76 0c 3d 63 96 9e bd 4c c6 5e 3d b0 d9 3b bd
       0.034292907 -0.07743528 0.05438833 -0.0458619

fc2.weight f4 [84, 120]
000000 7c e0 9b bd 4f a2 2c bc 01 e9 e8 bd c1 54 94 bd
       -0.07611176 -0.010536744 -0.11372567 -0.07242728
000010 df dd 6d bc 5a be 90 bd d7 09 32 3e c0 fb a2 3d
       -0.01451823 -0.07067557 0.17386566 0.07958174
000020 12 c9 b4 be 09 99 11 3e 29 fc bf bd 6d 1b 21 3d
       -0.35309654 0.14218535 -0.093742676 0.039332796
000030 63 c6 9a 3d 35 cb 53 bd e1 d4 2c bc a5 41 87 3e
       0.075573705 -0.051707465 -0.010548801 0.2641727
000040 cb 5b 80 3d 75 13 fe bd bf d7 c4 3d ef d0 66 3d
       0.06267508 -0.12406055 0.09611463 0.0563516
000050 4d 4b e0 3c af 3d 53 3e b7 63 57 bd ae 98 88 be
       0.027379656 0.20628999 -0.05258533 -0.26678985
000060 a7 00 1e 3e ca 32 2e 3e cb 5a d7 bc b1 f2 b2 be
       0.15429936 0.17011562 -0.02628841 -0.34950784
000070 bb e0 a8 bc 09 9f d7 bd 13 26 60 bd ce 6c d3 3d
       -0.020614972 -0.105283804 -0.05472381 0.10323487
000080 7c 78 a0 bd 05 8c 2b 3e b5 4b 15 be 01 e2 b1 bd
       -0.078354806 0.16752632 -0.14579661 -0.08685685
000090 62 92 3b 3d a2 22 44 3d 90 c0 78 bd fc 3f 29 3e
       0.0457939 0.04788459 -0.060730517 0.16528314
0000a0 45 14 3b bd 83 fc d9 3d 70 15 30 bc 17 54 4f 3e
       -0.045673627 0.10643866 -0.010747299 0.20246921
0000b0 c8 dd 6d 3b 2f 5d 72 3e f9 e2 19 bd ad a3 11 3d
       0.0036295522 0.23668359 -0.037569974 0.035556484
0000c0 c3 74 5b be 14 36 87 3e f0 fb 81 3d 08 81 84 3e
       -0.2143126 0.26408446 0.063468814 0.25879693
0000d0 10 4d 23 bc 00 33 20 3c 54 bd d3 3d fa 87 a9 3c
       -0.009967104 0.009777784 0.10338846 0.020694721
0000e0 b2 ce 12 3e f0 39 96 bd 51 51 24 3e 16 d5 d2 3d
       0.1433666 -0.073352695 0.16046645 0.10294549
0000f0 fc 35 8f be 7f bb 95 bd 0c fb fd bc 98 d5 11 bd
       -0.27970874 -0.07311153 -0.031003498 -0.03560409
000100 25 f5 51 be 01 8c 3a 3c 7b e0 b9 3d 5e c0 16 3c
       -0.20503671 0.011385919 0.090760194 0.009201137
000110 93 de 49 3e db 18 e4 3c 43 dc 11 3d ae 80 8a bb
       0.19713812 0.027843883 0.03561045 -0.0042267656
000120 00 c0 22 3e 5c d8 11 be 77 b2 e7 3d c9 53 18 bb
       0.15893555 -0.14242691 0.11313336 -0.00232433
000130 52 7c 43 be 2c 0e c4 3d 42 11 bc bc 00 67 93 3c
       -0.19090393 0.095730156 -0.022957448 0.01799345
000140 c9 16 98 bd 42 78 d1 bd 1b 80 03 be 08 06 95 3d
       -0.07426221 -0.102280155 -0.12841837 0.07276541
000150 e0 08 52 bd c3 2d 61 bd ad ae 70 bd e8 88 f9 3b
       -0.051277995 -0.054975282 -0.058760334 0.0076151974
000160 9a ff 23 be 1d 50 22 be 04 71 2a 3d 86 77 c0 3d
       -0.16015473 -0.15850873 0.041611686 0.09397797
000170 7f 5b 39 be 3f 60 18 bc 51 dc 9f bd 86 59 67 3e
       -0.18101309 -0.009300291 -0.07805694 0.22592744
000180 47 e8 8a be 48 ec 6c 3e f7 5b 7c bd 96 0b 8f bb
       -0.2713034 0.23137009 -0.061611142 -0.004365395
000190 b5 04 53 3e ea 58 8a bd 18 f9 cf bc 15 22 52 bd
       0.20607264 -0.0675524 -0.025387332 -0.051302034
0001a0 46 95 b5 bd 6b cc 26 be d4 31 62 3e 40 32 f1 bc
       -0.08866362 -0.16288917 0.2208932 -0.029442906
0001b0 5b 9f 88 be eb 16 9a ba 18 65 27 3d cf 59 1a be
       -0.2668408 -0.0011756098 0.040867895 -0.15073322
0001c0 b8 ed 20 3e 7d 88 0e be fc 3f 4a 3d f5 f6 07 be
       0.15715683 -0.13919254 0.049377427 -0.132778
0001d0 c6 45 a5 3e 66 9f b9 bc ac aa 33 3e af b3 10 3e
       0.32279795 -0.022659015 0.17545575 0.14131044
0001e0 bc 94 b0 bd 0d a6 bd be 0e b0 14 3d d5 37 ee bb
       -0.08622119 -0.3704075 0.03630071 -0.0072698393
0001f0 b9 4b d1 bd c7 46 cb 3d 1b bc 64 3c 9a 7f 8b 3e
       -0.10219521 0.09925609 0.013960863 0.2724579
000200 5e f6 27 3e 0f 63 3e 3d de d2 42 be 03 71 29 3d
       0.16402575 0.04648119 -0.19025752 0.041367542
000210 a9 ee 21 bd d4 91 06 be 7c d6 69 3c be 17 b6 be
       -0.039534245 -0.13141567 0.0142723285 -0.3556499
000220 7c a4 d4 bc b4 7c da 3d 01 99 19 3e fd de cb 3a
       -0.025957339 0.106683165 0.14999773 0.0015554127
000230 27 a9 1a 3c b0 62 1a bd 13 e8 82 3d d3 67 39 3e
       0.009439743 -0.037691772 0.06391921 0.18106012
000240 33 07 85 3e c6 df aa bc dc f9 72 be 05 cc 5d 3e
       0.25982055 -0.020858657 -0.23728126 0.21659859
000250 16 70 5a bd f2 9a 63 3e 19 4a aa 3d eb 4e 6c be
       -0.05332955 0.22227076 0.08314914 -0.2307698
000260 e4 a7 c7 3d 9f 89 ed be 55 ef 3d bd fc 4d f2 3c
       0.097488195 -0.4639406 -0.046370823 0.029578201
000270 ea 60 a2 bd 78 7f a6 3d c9 9d 25 be 32 04 4e bb
       -0.07928641 0.081297815 -0.16173472 -0.0031435606
000280 d8 ff 82 be 99 be 0c bd 1f 7d 23 3e e5 e4 0a 3e
       -0.25585818 -0.034361456 0.15965699 0.13563879
000290 2c e9 a2 3d d0 5a b3 be 0c b6 ea bd f0 c9 84 bd
       0.0795463 -0.35030222 -0.11460504 -0.06483829
0002a0 1f eb 14 be 09 fe 0d be c9 a7 4e bd ec 6f f9 3d
       -0.14542817 -0.13866438 -0.05045298 0.121795505
0002b0 01 1a 22 3c 5e 0d aa 3b 7d 3d e6 3d 5d 62 3f be
       0.009893895 0.005189582 0.11242197 -0.18689866
0002c0 9b a8 02 3e 7b 80 89 3c 75 90 de bd 5d 66 90 bd
       0.1275963 0.016784897 -0.10867397 -0.07050774
0002d0 f5 75 6e 3e 66 63 59 3d b7 61 16 be 63 d7 9d bc
       0.23287185 0.05307331 -0.14685713 -0.019267743
0002e0 7e 6a 33 3e cf 02 83 3d a8 0b ba 3c 88 1a 64 3e
       0.17521092 0.0639702 0.022710636 0.22275746
0002f0 1a 18 d9 bd d8 de 72 3c b0 33 8d 3b 76 c4 74 3e
       -0.106003 0.014823638 0.00430914 0.23903069
000300 69 28 e1 be b2 2e 64 3e eb 19 f8 3d 64 83 0f 3d
       -0.43976143 0.22283438 0.121143185 0.035037413
000310 d0 ea 06 3e f3 32 9e 3e 0e ac f0 bc 38 60 92 3d
       0.13175511 0.30898246 -0.029378917 0.071472585
000320 57 95 a6 3d ae 35 47 bd d0 fd ca 3c 18 a5 50 be
       0.08133953 -0.048635177 0.02477923 -0.20375478
000330 67 39 30 3d 0d 45 5b bd 4a a2 78 3d bf ba 3d 3e
       0.043023493 -0.05353265 0.060701646 0.18528269
000340 9d f0 9a 3e 5b 97 d8 bc 71 d3 e7 bc 4c 3b 27 be
       0.30261698 -0.02643936 -0.028299065 -0.16331214
000350 3b 01 7b 3d 46 29 72 3b fe b2 e7 3c 25 e3 9a be
       0.06128047 0.003695087 0.028283592 -0.30251423
000360 fe 00 22 be f1 5d 68 3e 3e 5f 20 be 25 80 41 3d
       -0.15820691 0.22692086 -0.15661332 0.04724135
000370 07 5b 66 3d b1 0d da 3d c7 c1 c6 bd 9a 04 4e be
       0.056239154 0.10647143 -0.09704929 -0.20118943
000380 34 fd e3 3d e6 28 4c 3e 4e 06 ce 3b 54 d4 69 bd
       0.11132279 0.19937477 0.0062873727 -0.057087258
000390 82 fa 2c 3e 6a 1b d7 3c b0 b8 64 3d de 97 2f 3e
       0.16892436 0.02625819 0.055840194 0.17147776
0003a0 d8 88 27 3e fa e3 c3 bd e0 67 55 bb b9 85 16 3e
       0.16360795 -0.095649675 -0.0032563135 0.14699449
0003b0 6e d2 6e be 14 c6 3a bb 37 9d e6 bd 96 37 4a 3d
       -0.2332246 -0.0028499411 -0.11260455 0.049369417
0003c0 d7 33 36 3c da 86 55 bd dd 08 7a 3b 06 22 9a bd
       0.011120758 -0.052130558 0.0038152256 -0.07526021
0003d0 f2 ce 3b bd 1e db ed 3b 8e e8 8d bd 24 12 0c bd
       -0.045851655 0.007258787 -0.06929122 -0.034196988
0003e0 c9 df 62 bd 0d 69 83 bc 6e a9 bf bd 76 16 61 3d
       -0.0553892 -0.016041303 -0.09358488 0.05495306
0003f0 d6 4b 1d bd 02 f9 2a be 55 29 a2 bd a0 48 47 bd
       -0.0384024 -0.16696551 -0.0791804 -0.048653245

fc2.bias f4 [84]
000000 2b cf 1d 3d 60 b0 2f be 6f b4 05 be c9 a7 58 bd
       0.03852765 -0.17157125 -0.13057111 -0.052894387
000010 ca b9 44 3d f4 a1 84 3e 09 ac 0c 3e 98 df f7 bd
       0.048028745 0.2590481 0.13737501 -0.12103194
000020 02 37 a8 3e 7b 04 40 bd 60 ce 06 3e 62 0a cf 3c
       0.32854468 -0.046879273 0.13164663 0.025273506
000030 22 6b 08 3e 2f 4f 73 3d b6 19 94 3d cf 34 ad 3d
       0.13322118 0.059401687 0.072314665 0.08457338
000040 79 e5 ec 3d 07 10 d7 3d a0 b5 f8 bb 9a 2f 79 3e
       0.11567206 0.10501104 -0.0075900108 0.24334565
000050 3c 0d 48 be 22 fc 94 bc 24 d1 92 bd 01 12 81 bb
       -0.19536299 -0.018186633 -0.07168797 -0.003938914
000060 e0 9d a2 3d 37 e7 cf bb 5a 2d fb 3b 4f d0 a5 3d
       0.079402685 -0.0063447016 0.0076653184 0.08096372
000070 d1 f0 c7 3d c4 a1 c2 bd 8d 97 b2 bc 86 cc 1f be
       0.09762729 -0.095035106 -0.02180078 -0.15605363
000080 ef b4 22 3e 36 f7 67 be 78 c4 b1 bd 6a 4e 91 bc
       0.15889333 -0.22652897 -0.086800516 -0.017737586
000090 90 f0 35 be 44 6c 29 3e b1 80 4e 3e 4f db b3 bc
       -0.17767549 0.16545206 0.2016628 -0.02195516
0000a0 7c 4d 37 3e 96 a7 15 3e 13 c5 4b be a6 99 e3 bd
       0.17900652 0.1461471 -0.19899397 -0.111132905
0000b0 ab 97 08 bd 47 1b 56 be e9 c0 08 3e f2 10 91 bd
       -0.033347767 -0.20908843 0.1335484 -0.0708331
0000c0 a8 49 b7 3e d6 d2 07 be 91 8a d7 3d 3b 0a ca bc
       0.35798383 -0.13264021 0.10524476 -0.024663081
0000d0 a5 7f a5 3d e3 57 84 bd e9 57 60 3e 1e 8e 90 bc
       0.08080987 -0.064620756 0.21908535 -0.017645892
0000e0 79 47 a3 3d 32 6f 2b 3d 6c 4d 92 bd 93 01 80 bd
       0.07972617 0.04185409 -0.07143673 -0.062503
0000f0 20 93 54 3d 8a bd b7 3d 3a e4 92 bd 8a f4 04 be
       0.05189812 0.089716986 -0.07172437 -0.12983909
000100 79 7f bb 3d 80 7c 4d be 8e fb 8d 3d 9a eb 1e 3e
       0.09155173 -0.20067024 0.06932746 0.15519562
000110 3f e4 3b be ec 50 1d be f1 61 92 3d 1d 3b c6 3c
       -0.18348788 -0.153629 0.07147587 0.02419811
000120 e0 c2 3c be 7b 75 ea 3d 81 bc 41 3d 4f df 33 3e
       -0.18433714 0.11448189 0.047298912 0.17565654
000130 97 d7 9c bc 31 43 f9 3c e2 2c b9 3c 72 9d b4 3d
       -0.01914577 0.030427547 0.02260441 0.08819093
000140 3a 31 80 bd bf b4 47 3e 42 b8 a1 bc f9 39 05 be
       -0.06259389 0.19502543 -0.019741181 -0.13010396

fc3.weight f4 [10, 84]
000000 c8 40 1c 3e d3 d2 05 bd 8a 90 0b be 21 6c cc 3d
       0.15259087 -0.03267176 -0.13629356 0.099815615
000010 b5 67 5f be e9 91 ee be a1 bd 5b be 3b c9 93 be
       -0.21816905 -0.46595696 -0.21459056 -0.28864464
000020 72 95 d4 bd e1 54 cb 3d 43 f1 08 be c3 36 06 3e
       -0.10380067 0.09928299 -0.13373284 0.13106827
000030 a6 a2 29 bd fb 3e 5a bd 46 86 26 3e 3c 76 a5 be
       -0.04141488 -0.05328272 0.16262159 -0.32316768
000040 44 e1 27 be 3b 86 87 be 34 01 85 be 24 ac 91 bd
       -0.16394526 -0.26469597 -0.2597748 -0.07112911
000050 a8 74 47 be 3c 87 73 3e 78 f5 cc bd 11 51 b6 3c
       -0.19478095 0.23782057 -0.10007757 0.022255452
000060 16 f2 4e 3c c4 b4 34 3e 1a c5 11 3e fb 02 da 3d
       0.01263096 0.17647082 0.14235345 0.106451
000070 4e 20 b2 be 18 45 38 3d ca 7f c2 bd 69 a6 82 bc
       -0.34790272 0.044987768 -0.0949703 -0.015948491
000080 d6 74 8c be 6f f0 2d bc 4a 11 21 3d 26 e9 39 3d
       -0.2743289 -0.010616406 0.03932313 0.045388363
000090 fe cb 35 bd 54 f5 0e 3e 3b bc 02 be 1a b3 1b 3e
       -0.044383995 0.13960773 -0.12767117 0.1520504
0000a0 66 5a 12 bc f5 97 65 be 64 83 cf be 1c aa f6 bb
       -0.0089326855 -0.22421248 -0.4052993 -0.007527603
0000b0 e3 ed bb 3c a6 12 10 3d c3 90 c4 be a0 a0 13 3e
       0.022940582 0.035174035 -0.38391694 0.14416742
0000c0 b5 e6 78 be 47 3a 7f 3d 6f 3d 93 3d 6e c5 37 bd
       -0.24306758 0.062311437 0.07189452 -0.044866018
0000d0 ef 92 92 3d d4 79 06 bd 5a 41 85 be 86 cf a2 3e
       0.071569316 -0.032831028 -0.26026422 0.31798953
0000e0 24 09 83 3d e6 5d bd be 7f a6 36 3d c6 93 a3 3d
       0.06398228 -0.369857 0.044592377 0.0798717
0000f0 b2 ed 13 3e 37 c8 1d 3e 77 9d 00 3e c5 8a 09 be
       0.14446142 0.15408407 0.12560068 -0.13431843
000100 87 a8 19 be 78 a5 88 3d 8e 51 0c 3e c1 98 cb 3d
       -0.15005694 0.06672186 0.13702986 0.09941245
000110 6f 59 91 3c 4c 7b 58 bd 08 b4 db bd ea e0 ad bd
       0.01774284 -0.05285196 -0.107276976 -0.084901646
000120 14 3a 02 bd 69 69 c6 be f9 60 4d be 78 81 6c 3c
       -0.03179367 -0.38752297 -0.20056523 0.014435165
000130 08 bb 2d be e0 6e 79 be ec 1f 2f be 17 49 3b be
       -0.16965878 -0.24358702 -0.17102021 -0.182896
000140 92 71 ce 3d 93 59 2c bd d1 4e 08 bd 0d 27 20 bf
       0.100802556 -0.042077612 -0.03327829 -0.62559587
000150 38 40 f1 be ff ab 80 3e 5e 89 16 be 8a 3a 2a 3e
       -0.47119308 0.25131223 -0.14700839 0.16623893
000160 77 43 04 be 92 cc 77 3d 4f 3d 0c 3e 41 85 c3 3e
       -0.12916361 0.060497828 0.13695262 0.38187602
000170 bd f4 f4 bd bb 0a a7 be b4 8a d6 be 92 04 83 3a
       -0.119607426 -0.32625374 -0.41902697 0.0009995869
000180 59 1d 1c be de 1f 4f be 3b 3a 4c bd 78 6e bf 3c
       -0.1524557 -0.20227 -0.04986022 0.023368105
000190 e3 d7 ac be 47 cd b3 3d d2 b1 f4 be 29 fa 88 be
       -0.33758458 0.08779388 -0.47791916 -0.26753357
0001a0 bc 67 ba be 1d 7a c9 bd 6f c9 3c 3e 44 58 e3 3d
       -0.36407268 -0.098377444 0.18436216 0.1110082
0001b0 7e 85 15 be be c3 1e 3e 62 f3 6f 3e 28 80 25 3e
       -0.14601704 0.15504357 0.23432687 0.16162169
0001c0 60 3d 29 be b3 ee c9 be 72 8d a5 3e 46 bb 76 bc
       -0.16527319 -0.39439926 0.32334477 -0.015059298
0001d0 e8 09 1d 3e 25 e6 57 be 7a b9 aa bd fb 28 bf be
       0.1533581 -0.21083887 -0.08336158 -0.37335953
0001e0 62 66 46 be 8f 66 07 be 8b de 57 3d 02 5e 90 be
       -0.19374993 -0.13222717 0.052702468 -0.28196722
0001f0 65 b2 bd be d7 7e c6 be 87 b9 52 be a4 a6 13 bb
       -0.37050167 -0.38768646 -0.20578586 -0.0022529745
000200 f3 1e 40 be e3 4c fa bd b9 1f d9 be d6 cc be 3d
       -0.18761806 -0.12221696 -0.42407015 0.09316413
000210 02 b3 f4 bc 33 05 97 be 5d 53 04 3e 1e 58 c7 bd
       -0.029870514 -0.29496154 0.12922426 -0.09733604
000220 9a a0 da be 0f 33 d6 bc 02 a2 be 3d c2 ab e7 3d
       -0.42700654 -0.026147394 0.09308244 0.11312057
000230 56 95 bd be bb 97 8e 3e db 29 0b bd 64 31 a8 bd
       -0.37027997 0.27850136 -0.033975463 -0.082125455
000240 d2 36 67 bf 05 3d 50 3e b6 0f ce be 9e b0 49 3d
       -0.90318024 0.20335777 -0.40246361 0.0492407
000250 04 4e 41 3e 7c b7 a5 be 5b c6 86 be 75 f5 dc be
       0.18877417 -0.3236655 -0.26323208 -0.4315602
000260 46 be 1c 3e 71 05 92 be 8a 3e 0f be ce e2 ef 3d
       0.15306959 -0.28519776 -0.139887 0.117131814
000270 74 a4 eb bd a5 b1 10 3d 71 0c 8d be ff 95 ee b8
       -0.11505976 0.035325665 -0.27548555 -0.00011376663
000280 17 4c 1a bf a0 83 4e be b8 c7 3b be f5 75 e9 3d
       -0.60272354 -0.20167398 -0.18337905 0.11399452
000290 27 61 0b be f8 2f d6 be b8 07 25 be bb 8a 17 bf
       -0.1361128 -0.41833472 -0.16116226 -0.5919606
0002a0 b6 e9 be bd 72 c5 41 be cb 10 0e bd 1f 21 9e 3d
       -0.093219206 -0.18922976 -0.034683984 0.07721161
0002b0 76 6f 87 3d 0f 56 33 3e 7d 94 e9 bd 75 2f 1d be
       0.06613056 0.17513297 -0.11405275 -0.15350135
0002c0 ec a4 98 be 41 5a c5 be 84 0b 12 3e d4 2c d6 bd
       -0.29813325 -0.3854542 0.14262205 -0.10457769
0002d0 34 14 21 3e b4 33 63 bd 3f 6b 1d bc 3c b0 39 be
       0.15730363 -0.05546923 -0.009608089 -0.18133634
0002e0 25 f6 fb 3b d5 84 8f be a5 d9 6d be 7d 8b e2 3d
       0.007689255 -0.2803103 -0.23227556 0.110617615
0002f0 cf a5 1f be 92 8e d9 3d b5 b5 d1 3c a3 cb fa 3d
       -0.15590595 0.10622896 0.02559934 0.12245872
000300 57 bd d0 be ee 21 71 be 27 46 83 be 3d 15 88 be
       -0.40769455 -0.235481 -0.2563946 -0.26578704
000310 06 0f 6a bd 47 1c fe bd 2e ef 9e be c1 ca 48 bd
       -0.057143234 -0.12407737 -0.31041855 -0.049021486
000320 08 41 2b be 1d d0 a1 be 5d 7a 4d 3d 43 49 55 bd
       -0.16724026 -0.3160409 0.050165523 -0.05207182
000330 de f3 bf be 15 d4 c6 bc 23 26 b6 be 62 9d 75 3e
       -0.37490743 -0.02427105 -0.3557597 0.23985818
000340 7b 9c 34 be 4c c3 b0 bd cb 4d 6a 3c 36 58 c5 bd
       -0.17637818 -0.08631 0.014300774 -0.096359655
000350 9b 82 ec be 02 4f b0 bb 14 c7 fd be 76 e5 93 3c
       -0.46193394 -0.005380512 -0.49565947 0.018053751
000360 d2 c7 b6 3d e8 be 91 bd 40 bc 5b be 05 6a 82 be
       0.089248314 -0.071164906 -0.2145853 -0.2547151
000370 62 34 52 bc 3d be 88 bc 61 61 e5 be 92 4d 38 be
       -0.012829872 -0.016692275 -0.44800857 -0.1799834
000380 91 a9 06 3d 35 a6 c7 3d da e1 00 be 41 a7 4c 3d
       0.032876555 0.09748498 -0.12586156 0.049964193
000390 9f 67 08 3e 93 de 17 3e f5 00 29 3e 41 34 d3 3d
       0.13320778 0.14830999 0.16504271 0.10312701
0003a0 88 61 56 bd 10 ce ec bd d5 4a b7 bd de 69 b5 bd
       -0.052339107 -0.11562741 -0.0894982 -0.08858083
0003b0 26 a2 8a be 0b 11 b4 bc 6c cf 8c 3c cb 31 2f bd
       -0.27076834 -0.021980783 0.01718875 -0.042772096
0003c0 93 21 67 be 53 98 8c 3e ea 37 32 bd cd 02 2d 3c
       -0.22571401 0.27459964 -0.043510355 0.01055975
0003d0 9c 79 b0 be 11 2c fd 3d 75 9e 20 3e 7d 6b b8 bd
       -0.3446778 0.123619206 0.15685447 -0.09004877
0003e0 fc 09 11 3e 10 82 06 bc e3 59 1d 3d d1 de a6 be
       0.14163965 -0.00820972 0.0384158 -0.3259187
0003f0 16 79 9c bd 8a 79 b0 3d 6e b1 ae bc 15 6f 98 3d
       -0.07640283 0.08616932 -0.02132484 0.07443062

fc3.bias f4 [10]
000000 bf 42 1d be 3c 1a 73 be 33 91 69 bd 05 cb 38 3e
       -0.15357493 -0.23740476 -0.05702324 0.18046196
000010 9f 6f 3c bd ca 1e 4b be 84 9a e5 3d 8c f5 00 3e
       -0.046004888 -0.19835964 0.11211112 0.12593669
000020 d9 b4 6e 3d 65 54 30 be
       0.05827794 -0.17219694
