HW1_Split_nb/checkpoints/model_origin_1.pt (torch, 250586 bytes, 10 tensors)

conv1.weight f4 [6, 1, 5, 5]
0	0xbe54cb8e	-0.20780775
1	0x3e538472	0.20655993
2	0xbddb2330	-0.10700071
3	0x3e82ddd6	0.25559872
4	0x3da8e6f1	0.082471736
5	0xbdc2398a	-0.09483631
6	0x3e1795d1	0.14803244
7	0x3da37a64	0.079823285
8	0x3df43da4	0.119258195
9	0x3e0d9d80	0.13829613
10	0xbe246b25	-0.16056497
11	0x3dbfc400	0.09363556
12	0xbe138306	-0.1440545
13	0x3e01533c	0.12629408
14	0x3e2673a1	0.16255046
15	0xbd2786f2	-0.04090018
16	0xbdc912bf	-0.09818029
17	0xbe0cd624	-0.13753563
18	0x3e1ca39f	0.15296791
19	0xb9b304ef	-0.00034145216
20	0xbe0ddec3	-0.13854508
21	0xbe4032d5	-0.18769391
22	0xbe7f853c	-0.24953169
23	0x3e0b158e	0.13582441
24	0xbe214236	-0.15747914
25	0x3e78050a	0.24220672
26	0x3dfe9b1f	0.12431931
27	0xbd2e2f61	-0.042525653
28	0xbea8b1fa	-0.32948285
29	0xbeecf669	-0.46281746
30	0xbc2f2ac4	-0.010691348
31	0x3dc7c81a	0.09754963
32	0x3e1f8748	0.1557895
33	0xbdef2c58	-0.1167838
34	0xbee83aa1	-0.4535723
35	0x3e5cb89c	0.21554798
36	0x3b7dbb67	0.0038716437
37	0xbd928707	-0.07154661
38	0xbdc1a266	-0.09454803
39	0xbe822838	-0.2542131
40	0xbd7b1f69	-0.061309252
41	0x3ec462bb	0.38356575
42	0x3e1473b0	0.14497256
43	0xbdbec81e	-0.09315513
44	0xbe5fb40b	-0.21846025
45	0x3e171691	0.14754702
46	0x3e8e3d56	0.2778117
47	0x3e89ba8b	0.26900133
48	0xbbe651f4	-0.0070288125
49	0x3d32bbf9	0.043636296
50	0xbd555df4	-0.052091554
51	0x3dab77e4	0.08372477
52	0xbd851d8f	-0.064997785
53	0xbdb3371d	-0.087507464
54	0xbc58d7d7	-0.013235054
55	0x3c1b8187	0.009491331
56	0x3e857105	0.2606279
57	0x3e852c80	0.26010513
58	0x3d1ad3e3	0.037799727
59	0xbdadb151	-0.08481086
60	0x3e029388	0.12751591
61	0x3e5d1ebb	0.21593754
62	0x3e474d15	0.19462998
63	0x3e2eeb47	0.17081939
64	0xbd8c25f6	-0.06843178
65	0x3e1bafd7	0.15203796
66	0x3cccad67	0.024985028
67	0x3e40068a	0.18752494
68	0x3e1ec754	0.15505725
69	0xbdb9c1ef	-0.09070193
70	0x3d68cac4	0.056833997
71	0xbcfe7bc9	-0.031064885
72	0x3e06d75f	0.13168095
73	0xbe264631	-0.16237713
74	0x3d266c68	0.040630728
75	0xbe0fa5e8	-0.14028132
76	0x3e671470	0.2256639
77	0xbd79e994	-0.061013773
78	0x3df2701b	0.11837789
79	0xbe400510	-0.18751931
80	0x3db6ddcd	0.08929024
81	0xbcc3427e	-0.023835417
82	0x3e3ec4fe	0.18629834
83	0x3d43457b	0.047673684
84	0xbdc6be92	-0.09704317
85	0x3d9bd424	0.07608822
86	0x3e657380	0.22407341
87	0x3e07f1db	0.13275854
88	0x3e81b49b	0.25333104
89	0xbce57cf5	-0.028013686
90	0x3e1ca0f2	0.15295771
91	0x3ea0ee18	0.3143165
92	0xbd3312bc	-0.04371904
93	0xbd7b5dd7	-0.06136879
94	0x3e14e5f3	0.14540844
95	0x3e509e3a	0.20372859
96	0x3e8a9d5b	0.27073178
97	0x3dea428b	0.11438473
98	0xbdbb74c7	-0.09153133
99	0x3d606a62	0.054788955
100	0x3e6d1669	0.2315308
101	0x3c97aa61	0.01851386
102	0x3b9d5ceb	0.0048023365
103	0xbe176296	-0.14783701
104	0xbdff6bb3	-0.12471714
105	0x3e0a253c	0.13490766
106	0x3e2452f1	0.16047265
107	0x3cedd793	0.029033458
108	0xbde68e82	-0.1125765
109	0xbe340ae0	-0.17582273
110	0x3e37c15c	0.17944854
111	0x3e94b39d	0.29043284
112	0x3e894bfb	0.2681578
113	0x3d3750ef	0.04475492
114	0xbe20c4f4	-0.15700132
115	0x3c183cea	0.009291867
116	0x3e1c01e1	0.15235092
117	0xbc12950e	-0.00894667
118	0x3df0f1e1	0.11764885
119	0xbe9c0cf8	-0.30478644
120	0x3de2c904	0.11073497
121	0xbdc27ff6	-0.09497063
122	0x3dec5ca5	0.11541108
123	0xbe1115a1	-0.14168407
124	0xbc818552	-0.015810642
125	0xbe0e9727	-0.13924848
126	0xbe7ceba9	-0.24699272
127	0xbcc21d9b	-0.023695758
128	0xbe8c4517	-0.2739646
129	0xbe81ed4f	-0.25376365
130	0x3e1f86bf	0.15578745
131	0x3d802fc1	0.06259108
132	0xbeb38552	-0.35062653
133	0xbeb607ff	-0.35552976
134	0xbe1f057f	-0.1552944
135	0xbc3122d3	-0.010811525
136	0xbea065af	-0.31327578
137	0xbf130f7b	-0.57445496
138	0xbee2f685	-0.44328704
139	0xbcc152f5	-0.023599127
140	0x3e89a0c9	0.26880482
141	0x3e010689	0.12600149
142	0xbd90a054	-0.0706183
143	0xbda92d4e	-0.08260594
144	0x3e2abaaf	0.16672777
145	0x3e7402df	0.2382922
146	0x3d1784d4	0.03699191
147	0x3dd7b655	0.10532824
148	0xbd9ce127	-0.07660132
149	0x3d064135	0.03277703

conv1.bias f4 [6]
0	0x3d35233c	0.044223055
1	0x3d165e49	0.03671101
2	0x3bf55733	0.0074872016
3	0xba8140ab	-0.0009861192
4	0x3e739954	0.23788959
5	0x3e289ae9	0.16465344

conv2.weight f4 [16, 6, 5, 5]
0	0xbe4ba74e	-0.1988804
1	0xbdb390ec	-0.08767876
2	0xbe3abd96	-0.18236384
3	0xbdbf03ff	-0.09326934
4	0x3d6695a1	0.05629504
5	0xbe37e2c4	-0.17957598
6	0xbc2be9fd	-0.010492799
7	0xbbd79326	-0.0065788208
8	0xbe1e834a	-0.1547977
9	0xbdfc46d8	-0.123182
10	0xbe40c636	-0.18825611
11	0x3c31432a	0.010819236
12	0xbdbd2cdc	-0.09237072
13	0xbd140649	-0.036138806
14	0xbdfeb12d	-0.12436137
15	0xbe44116d	-0.19147272
16	0xbdd41eb0	-0.10357416
17	0xbe034e8c	-0.12822932
18	0xbdfe611e	-0.124208674
19	0xbe500083	-0.20312695
20	0xbd85beee	-0.065305576
21	0x3d8059bd	0.06267116
22	0x3c82a6e4	0.01594872
23	0xb9717963	-0.00023028771
24	0xbdeb2bac	-0.11482939
25	0x3dbc38f8	0.091905534
26	0xbeafc13b	-0.3432711
27	0xbeff6339	-0.49880388
28	0x3cad2d29	0.021139698
29	0x3e876889	0.26446941
30	0xbce3dd3b	-0.027815452
31	0xbee23df2	-0.44187886
32	0xbeacf5c8	-0.33781266
33	0xbdaf243f	-0.08551835
34	0x3e52e294	0.20594245
35	0xbd3cf1b9	-0.046128962
36	0xbec5a30f	-0.38600966
37	0xbe8e04ba	-0.2773798
38	0xbc83ff5d	-0.016112978
39	0x3e20e578	0.15712535
40	0x3dfd96fd	0.12382314
41	0xbe42548e	-0.18977568
42	0xbdab6f3a	-0.08370824
43	0x3d848af3	0.06471815
44	0x3e162ee9	0.14666332
45	0xbd9304bc	-0.071786374
46	0xbedcef9f	-0.43151566
47	0xbdfb6891	-0.12275804
48	0xbde7f4db	-0.11325999
49	0x3d75698e	0.059915118
50	0xbe384c54	-0.17997867
51	0xbe2688d8	-0.16263139
52	0xbd988443	-0.07447102
53	0x3d684a4f	0.05671149
54	0x3d88677d	0.06660364
55	0xbc4cb674	-0.012494672
56	0xbe0c7e2c	-0.13720006
57	0x3d182ab9	0.03715012
58	0x3e0069c2	0.12540343
59	0x3d97d51a	0.07413693
60	0xbe012445	-0.12611492
61	0xbccae170	-0.0247657
62	0x3c8daf8d	0.017295623
63	0x3d3aa1cc	0.045564458
64	0x3d13dbef	0.036098417
65	0xbcfe24e3	-0.031023448
66	0x3cfd1fe7	0.030899001
67	0x3d3ef4e9	0.046620283
68	0x3cc269a1	0.023732008
69	0x3d0da26e	0.034578733
70	0x3d0be682	0.034155376
71	0x3daba1a6	0.08380441
72	0x3e0a2c6b	0.13493507
73	0x3e0c1309	0.13679136
74	0xbd3be921	-0.045876626
75	0xbe4ab583	-0.19795804
76	0xbe075ea8	-0.13219702
77	0x3d0304ff	0.031987187
78	0x3d09e168	0.03366223
79	0x3cec9844	0.0288812
80	0xbe0da228	-0.13831389
81	0xbd0ea834	-0.03482838
82	0x3d6e289d	0.0581442
83	0x3d96c6ef	0.07362162
84	0x3ccc8cd4	0.024969496
85	0xbd336869	-0.043800745
86	0xbd24d766	-0.040244482
87	0x3de33cd8	0.110955894
88	0x3cbe6a38	0.023244008
89	0x3d162fee	0.036666803
90	0xbc91f1e1	-0.017815532
91	0x3d895b90	0.06706917
92	0x3e01d728	0.12679732
93	0x3ce190a2	0.027534787
94	0x3d717af1	0.058955137
95	0xbd002075	-0.031280953
96	0x3d473e1c	0.048643216
97	0x3e24a38a	0.1607801
98	0x3dfb3e7e	0.12267779
99	0x3d27d263	0.040972125
100	0xbd8d9693	-0.069134854
101	0xbe397fac	-0.18115109
102	0xbd70d039	-0.058792327
103	0x3cf6312c	0.030052744
104	0x3e216634	0.15761644
105	0x3c715663	0.014730069
106	0xbe072993	-0.13199453
107	0x3d390ddf	0.045179244
108	0x3dd6a110	0.10479939
109	0x3d7e58d4	0.06209643
110	0xbcd9a6b6	-0.026568752
111	0xbd050c77	-0.03248259
112	0xbcec8e2b	-0.028876385
113	0x3e0efbc8	0.13963234
114	0x3de9f08a	0.11422832
115	0x3dce595d	0.100756384
116	0xbd2209eb	-0.03956024
117	0x3dacf562	0.084452406
118	0x3df6c6aa	0.12049611
119	0x3d834d7d	0.06411264
120	0x3d1e9fe1	0.03872669
121	0x3d175696	0.03694781
122	0x3d85a3e3	0.065253995
123	0x3d5343a6	0.051578186
124	0x3e0e35af	0.13887666
125	0x3f0db58a	0.5535513
126	0x3e86c37f	0.26321027
127	0xbe64e8d0	-0.22354436
128	0xbedae98f	-0.42756316
129	0xbdec35b3	-0.1153368
130	0x3eaa783e	0.33294863
131	0x3dcc70af	0.0998243
132	0xbe22ae75	-0.15886863
133	0xbe95802f	-0.2919936
134	0xbe2ce452	-0.16883972
135	0x3ebf7217	0.3739173
136	0xbd02d9d2	-0.03194601
137	0xbe66bfcf	-0.22534107
138	0xbe9131af	-0.28358218
139	0xbdf32bca	-0.118735865
140	0x3e259099	0.16168441
141	0x3c0bb04c	0.008525919
142	0xbdc6fff3	-0.09716787
143	0xbe7ff4e3	-0.2499576
144	0xbe45e2da	-0.19324818
145	0x3dee4f8c	0.11636266
146	0xbe262aff	-0.16227339
147	0xbdc4b418	-0.09604663
148	0xbd3aad4c	-0.045575425
149	0xbd5f4bf5	-0.054515798
150	0x3d6979b3	0.057000827
151	0x3dd3dad2	0.10344471
152	0x3e9496a2	0.29021174
153	0x3e5d696a	0.21622244
154	0xbd7d2e50	-0.061811745
155	0x3d659677	0.056051698
156	0x3e0d8606	0.13820657
157	0x3e6d9e77	0.23204981
158	0x3ea859d5	0.32881036
159	0x3e0fed22	0.14055303
160	0x3d13b34a	0.036059655
161	0xbd8ea7f5	-0.06965629
162	0x3e18401c	0.14868206
163	0x3ec84d9c	0.3912171
164	0x3e8c0240	0.27345467
165	0xbd7f4bd7	-0.062328186
166	0xbe0d82a2	-0.13819364
167	0x3e3abbb0	0.1823566
168	0x3eaf8aed	0.3428568
169	0x3e168533	0.14699249
170	0x3c0e9197	0.0087017035
171	0xbdd740ca	-0.105104044
172	0x3df78c51	0.1208731
173	0x3e7686c3	0.24074845
174	0x3e27e17d	0.1639461
175	0x3e296537	0.16542517
176	0xbe1e33a4	-0.15449387
177	0xbd872ed1	-0.066007264
178	0x3d822faa	0.063567474
179	0x3e98c06e	0.29834312
180	0x3d5428ca	0.051796712
181	0x3dabac96	0.083825275
182	0x3c75318a	0.014965424
183	0x3d40ce84	0.04707195
184	0x3e38e685	0.18056686
185	0x3d9c1c7d	0.07622621
186	0x3ea257a6	0.31707495
187	0x3e16fbfe	0.14744565
188	0x3d27a3b1	0.040927593
189	0x3e3776b2	0.17916372
190	0x3e2135b1	0.15743138
191	0x3ea84017	0.32861397
192	0x3e5d7419	0.21626319
193	0x3e3918a5	0.18075807
194	0x3e4fb205	0.20282753
195	0xbce7ee61	-0.02831191
196	0x3eaa415e	0.33252996
197	0x3e889c03	0.26681527
198	0x3d1a29da	0.03763757
199	0x3db5a035	0.08868448
200	0xbd08ede3	-0.03342999
201	0xbdda07a2	-0.10645987
202	0xbc9c8bdb	-0.019109657
203	0x3d54c838	0.051948756
204	0x3d72a8b8	0.059242934
205	0x3caf4630	0.021395773
206	0xbe09670c	-0.13418216
207	0xbcf9acc0	-0.030477881
208	0xbd1352fe	-0.03596782
209	0x3d21644d	0.039402295
210	0xbd8c2d81	-0.06844617
211	0xbd9f226e	-0.07770239
212	0xbca2961b	-0.019846966
213	0x3d4f91dd	0.050676215
214	0xbd537df5	-0.051633794
215	0x3bc90b4c	0.00613538
216	0x3cf7e884	0.03026224
217	0xbdb3d1c1	-0.08780242
218	0xbdbc76c3	-0.092023395
219	0xbd9174f0	-0.07102382
220	0x3e209070	0.15680099
221	0x3dd23706	0.10264401
222	0xbd15a861	-0.03653753
223	0x3befe558	0.007321041
224	0x3da1d7a9	0.07902462
225	0xbd2213ca	-0.039569654
226	0xbe1ab37b	-0.15107529
227	0xbb9efdaa	-0.0048520165
228	0x3d90fad4	0.07079092
229	0x3d903776	0.07041828
230	0xbdfa28c6	-0.12214808
231	0xbd5f5b0d	-0.054530192
232	0xbdda991f	-0.10673737
233	0x3d086368	0.033297926
234	0x3dca8b9b	0.09889909
235	0xbda56678	-0.08076185
236	0x3cac06b9	0.0209993
237	0xbe06c74f	-0.13161968
238	0xbd2adf64	-0.04171695
239	0x3c660351	0.014038877
240	0x3d35e6f6	0.044409715
241	0x3dd56239	0.10419125
242	0xbbc8dc14	-0.006129751
243	0xbdc520b3	-0.096253775
244	0x3cfe42f5	0.031037787
245	0x3df7ef32	0.1210617
246	0x3d0ddacc	0.03463249
247	0xbd2e887c	-0.04261063
248	0xbde37231	-0.11105765
249	0xbc14b096	-0.0090753045
250	0x3c9f85e9	0.019473033
251	0xbde75091	-0.11294664
252	0x3cffa483	0.031206375
253	0x3e013000	0.12615967
254	0x3db3bdc3	0.087764286
255	0xbdc73799	-0.09727401

conv2.bias f4 [16]
0	0x3d7486f3	0.05969901
1	0x3ca1c409	0.019746797
2	0xbd6a7d8f	-0.05724865
3	0x3e589ef3	0.21154384
4	0x3dd5034d	0.1040102
5	0x3d634828	0.055488735
6	0x3e18ddd0	0.14928365
7	0x3da89376	0.08231251
8	0xbddd61fe	-0.10809706
9	0x3dea67fd	0.114456154
10	0x3d6f7227	0.058458474
11	0x3de6e428	0.11273986
12	0xbd4f98bf	-0.05068278
13	0xbdbee087	-0.09320169
14	0x3ce72445	0.028215537
15	0x3d874af5	0.06606094

fc1.weight f4 [120, 400]
0	0x3de123a4	0.10993126
1	0xbd85c937	-0.06532519
2	0xbdb80d7b	-0.08986946
3	0x3e0e7f21	0.13915683
4	0xbd988587	-0.07447343
5	0x3d6d7189	0.057969604
6	0xbdade309	-0.08490569
7	0xbd502951	-0.050820652
8	0x3ddb0f88	0.10696322
9	0xbd6de95f	-0.05808389
10	0x3cab6585	0.020922432
11	0xbd51a766	-0.051185034
12	0x3beeb15d	0.007284327
13	0xbc3154d3	-0.010823446
14	0xbe34d6c5	-0.17660053
15	0x3cf9e730	0.030505747
16	0xba80691c	-0.000979695
17	0x3d69c454	0.057072
18	0x3cdcf2c9	0.026971238
19	0xbda9509d	-0.08267329
20	0x3d9ab750	0.07554495
21	0x3dcd4bbf	0.10024213
22	0x3e210640	0.1572504
23	0x3dbed1be	0.09317349
24	0xbd69bc3a	-0.057064272
25	0x3e36dcbb	0.1785764
26	0x3d8d1c77	0.06890195
27	0x3dc3dda8	0.09563762
28	0x3da00ced	0.078149654
29	0xbced0881	-0.028934719
30	0x3d935efd	0.07195852
31	0x3d67b999	0.056573484
32	0x3da0e007	0.0785523
33	0x3d925244	0.07144597
34	0xbc505250	-0.012714937
35	0x3d52c4fc	0.05145739
36	0x3ca4e80f	0.020130185
37	0x3db5c222	0.088749185
38	0x3dd55763	0.10417058
39	0x3d1193d1	0.03554136
40	0x3da63fa4	0.08117607
41	0xbd9534c5	-0.072854556
42	0xbdb405b0	-0.08790147
43	0x3d998e1d	0.07497809
44	0x3db27255	0.08713213
45	0x3d328d57	0.043591823
46	0xbdb1dd92	-0.08684839
47	0xbe395d45	-0.18101986
48	0x3e07ee41	0.1327448
49	0x3d8d7e5a	0.06908865
50	0xbcf2c2d1	-0.029633911
51	0x3bbcae7a	0.005758104
52	0x3d5b0515	0.053471643
53	0x3d241698	0.04006061
54	0xbd676df7	-0.056501355
55	0xbbef9f48	-0.007312689
56	0x3c6fb18c	0.014629733
57	0x3b634bb7	0.003468258
58	0xbd8051d8	-0.062656105
59	0xbd685532	-0.056721874
60	0xbaed7cb9	-0.0018118835
61	0x3d474aa4	0.048655167
62	0xbd338fa8	-0.043838173
63	0xbd3555c0	-0.04427123
64	0xbcc2ce08	-0.023779884
65	0x3d9557b3	0.07292118
66	0x3d95b834	0.073105246
67	0x3d882ec0	0.06649542
68	0xbd772f29	-0.06034771
69	0xbd2c7a0e	-0.042108588
70	0x3c5a64f6	0.013329735
71	0x3c5ebca7	0.013594783
72	0x3c51beed	0.012801868
73	0xbc863140	-0.016380906
74	0xbd01e1e2	-0.03170956
75	0x3e33c3c6	0.1755515
76	0x3da1f5d0	0.07908213
77	0xbd0996a2	-0.03359092
78	0x3dd10c9e	0.10207485
79	0x3db5aa61	0.08870388
80	0x3dd5d8df	0.104417555
81	0xbc9adafc	-0.018903248
82	0xb93ade39	-0.00017821127
83	0xbc89721e	-0.016778048
84	0x3ca5f022	0.020256106
85	0x3d524891	0.051338736
86	0xbcec2c75	-0.028829793
87	0x3d5080f8	0.050904244
88	0x3cc4d438	0.024026975
89	0x3c317d8e	0.010833157
90	0x3c81f88b	0.015865585
91	0x3c78e6f3	0.015191781
92	0x3d306215	0.04306229
93	0x3d352cf3	0.04423232
94	0x3d05349b	0.03252087
95	0xbca657f0	-0.020305604
96	0x3d53302e	0.05155962
97	0xbcbb2cb8	-0.022848472
98	0x3d6ae58d	0.057347823
99	0xbbd57692	-0.006514379
100	0x3dc6bf87	0.097045
101	0x3bf6536d	0.0075172693
102	0x3d4bde1f	0.049772378
103	0xbd9e2b92	-0.07723154
104	0xbcfaef69	-0.030631738
105	0xbc15f18b	-0.009151827
106	0xbdd3f2b2	-0.10349025
107	0xbd53f18d	-0.051744033
108	0xbd3cfb5a	-0.046138145
109	0xbd639176	-0.055558644
110	0xbda858b4	-0.08220044
111	0x3baa0898	0.0051890127
112	0x3d3f02dd	0.04663359
113	0x3c07ca79	0.008288019
114	0x3c08209b	0.008308555
115	0xbdbe4e09	-0.09292228
116	0x3cbc68cc	0.02299919
117	0x3d692b3e	0.056926005
118	0x3da8047c	0.0820398
119	0x3d3270df	0.043564674
120	0xbdf985e5	-0.121837415
121	0x3d883f79	0.066527314
122	0x3db67b45	0.089102305
123	0x3e14e531	0.14540555
124	0x3e397ade	0.18113276
125	0x3dd22286	0.10260491
126	0x3bf743ab	0.0075459084
127	0xbd87b8d2	-0.066270486
128	0x3d9317b0	0.071822524
129	0x3d740fda	0.05958543
130	0x3d2db0ff	0.042405125
131	0x3d56e64c	0.052465722
132	0xbd1a1311	-0.03761584
133	0xbc18547d	-0.009297487
134	0xbce0f9c3	-0.027462846
135	0xbc354ea1	-0.01106611
136	0x3b948cf7	0.004533406
137	0x3c7c03bd	0.015381751
138	0xbc99fb51	-0.018796595
139	0xbda57f2a	-0.08080895
140	0xbd9937bf	-0.07481336
141	0x3c410d64	0.011782978
142	0xbbca92fa	-0.0061820718
143	0x3d0e844e	0.034794144
144	0xbd8d81fd	-0.06909559
145	0x3cba32a0	0.022729218
146	0x3d2ccd50	0.04218799
147	0x3d931e3e	0.071835026
148	0x3d97b1f9	0.074069925
149	0xbe041b5c	-0.12901062
150	0x3dd3f8e2	0.10350205
151	0x3d91aec0	0.07113409
152	0xbb5da1e8	-0.0033818427
153	0x3c75c8d6	0.015001496
154	0x3dd174ed	0.1022738
155	0x3ce2a3be	0.027665969
156	0xbbfc8fc4	-0.007707568
157	0xbcedd62d	-0.029032791
158	0xbd395114	-0.045243338
159	0xbc96444f	-0.018343119
160	0x3ce8a4b1	0.028398843
161	0x3d29dc85	0.04147007
162	0xbb563b92	-0.0032689315
163	0xbc9557c8	-0.018230334
164	0xbdc536c7	-0.096295886
165	0xbc11da07	-0.008902079
166	0xbcb6985f	-0.022289453
167	0x3cb05d77	0.021528943
168	0x3c7bfdab	0.015380303
169	0xbde2b5b6	-0.11069815
170	0xbcd600e2	-0.026123468
171	0x3c52bc8e	0.012862338
172	0x3c8d2bfa	0.017232884
173	0x3d9d1bda	0.07671328
174	0xbe1e6e04	-0.15471655
175	0x3e23010e	0.15918371
176	0x3e1a1106	0.15045556
177	0x3e042578	0.12904918
178	0xbc10f121	-0.008846552
179	0x3db3e3c2	0.08783676
180	0x3d4c1eca	0.04983405
181	0x3d1669d6	0.036722027
182	0x3d4c829a	0.04992924
183	0x3d27fb85	0.041011352
184	0xbb6aae9c	-0.0035809642
185	0x3da29639	0.07938809
186	0x3d48fa50	0.04906684
187	0xbcfb5dc1	-0.030684354
188	0x3d118903	0.035531055
189	0xbd22eaba	-0.039774634
190	0xbd2ce19e	-0.042207353
191	0xbd58b0ba	-0.052902915
192	0xbdb1d74d	-0.086836435
193	0xbbcb5742	-0.0062054703
194	0xbc583bee	-0.013197882
195	0xbe13e912	-0.14444378
196	0xbe01c16f	-0.12671445
197	0x3c0d64e5	0.008630012
198	0xbdb4c0b4	-0.08825818
199	0xbda7a436	-0.081856176
200	0x3ceec5f3	0.029147124
201	0xbcc09860	-0.023510158
202	0x3b929e40	0.0044744313
203	0xbc1f046d	-0.009705645
204	0xbd4f2783	-0.05057479
205	0xbc7cd867	-0.015432454
206	0xbd3f64c2	-0.04672695
207	0x3ccb2bbd	0.02480113
208	0x3ce2a603	0.027667051
209	0xbd3dd70f	-0.046347674
210	0x3be48b0d	0.006974584
211	0x3c5c345a	0.013440216
212	0x3d1136c7	0.03545263
213	0xbc7402e5	-0.014893268
214	0xbcdd613d	-0.027023906
215	0xbd1e580a	-0.03865818
216	0x3d2a7efa	0.041625
217	0xbd0988cf	-0.033577736
218	0xbbf14dc0	-0.007364005
219	0x3d1970d0	0.037461102
220	0xbcfc1d1d	-0.030775601
221	0x3c6d1813	0.014471072
222	0xbc844b0a	-0.016149063
223	0xbd422bc5	-0.047405023
224	0xbc94dff3	-0.018173194
225	0x3ce8080e	0.028324153
226	0xbd54d34a	-0.051959313
227	0x3c4552e5	0.012043689
228	0x3d4ff5dd	0.050771583
229	0xbbf35680	-0.007426083
230	0x3d437c4c	0.04772596
231	0x3d916566	0.07099418
232	0x39efb6bc	0.0004572178
233	0x3d44ef92	0.048080035
234	0xbda057f5	-0.078292765
235	0x3d69b225	0.057054657
236	0x3dee1447	0.11624961
237	0x3ccb68b1	0.024830194
238	0x3d6767f5	0.056495626
239	0x3d4be266	0.049776457
240	0x3da2a1ca	0.07941015
241	0x3d54378c	0.051810786
242	0xbdf31a30	-0.11870229
243	0x3ddfcd65	0.10927848
244	0xbd1e58c5	-0.038658876
245	0x3e03c9cf	0.12869953
246	0xbd58890c	-0.052865073
247	0xbe1e5d55	-0.15465291
248	0x3cadacd5	0.021200577
249	0xbe2bf1da	-0.16791478
250	0x3d541195	0.05177458
251	0x3e2f07fd	0.17092891
252	0xbc882631	-0.016619774
253	0xbda98b5f	-0.08278536
254	0x3ce1db38	0.027570352
255	0x3d4225cb	0.047399323

fc1.bias f4 [120]
0	0x3debace7	0.11507588
1	0xbc88df05	-0.016707906
2	0x3dc303d2	0.09522213
3	0x3c1ad0c6	0.0094491895
4	0xbd73bf4b	-0.059508603
5	0xbd4caaae	-0.04996746
6	0xbcfd750b	-0.0309396
7	0xbcaa33c1	-0.020776631
8	0xbd674335	-0.056460578
9	0xbc8efc8e	-0.017454412
10	0xbcd07432	-0.025446031
11	0xbd44cd63	-0.048047435
12	0x3d3cc408	0.046085387
13	0x3df3937c	0.11893365
14	0x3d933902	0.07188608
15	0xbc951dbf	-0.01820266
16	0xba608265	-0.0008564352
17	0x3e159367	0.14607011
18	0x3cdb2488	0.026750818
19	0xbd27c271	-0.04095692
20	0xbd5fe101	-0.05465794
21	0xbd2fd6ec	-0.042929575
22	0xbd03e7b2	-0.032203384
23	0x3d203c9d	0.039120305
24	0xbca4091f	-0.02002388
25	0x3afafcff	0.0019148885
26	0x3ca9d8aa	0.020733196
27	0x3db9fff7	0.090820245
28	0xbbb19d2d	-0.005420348
29	0x3dab3fe5	0.08361796
30	0xbd7256cd	-0.05916481
31	0xbd3bbaa5	-0.045832295
32	0x3e04a18e	0.12952253
33	0xbd7937b7	-0.06084415
34	0xbd7f7192	-0.06236417
35	0xbd647298	-0.055773348
36	0xbababe2c	-0.001424735
37	0x3c714784	0.014726523
38	0xbcc20c55	-0.023687521
39	0x3b8b88cd	0.0042582513
40	0xbcf12a2c	-0.029439054
41	0x3d8b9586	0.06815629
42	0x3d945f9a	0.07244797
43	0x3d85398a	0.06505115
44	0xbccd699b	-0.02507477
45	0xbd3ed5f2	-0.046590753
46	0xbd60affe	-0.05485534
47	0xbd908bf0	-0.07057941
48	0x39515c5e	0.00019966203
49	0x3c2b45c7	0.010453648
50	0x3dc00e68	0.09377748
51	0xbd5890a8	-0.05287233
52	0x3c1c84b2	0.009553121
53	0x3d86c8af	0.06581246
54	0xb9a055c9	-0.00030581493
55	0x3d02a387	0.031894233
56	0x3b512b24	0.0031916583
57	0x3d7cc158	0.061707824
58	0x3cd4747b	0.025934448
59	0xbd05fbd9	-0.032710884
60	0x3d3047db	0.043037277
61	0xbc1309d6	-0.008974513
62	0x3cbc536a	0.022988994
63	0xbc220e31	-0.009891079
64	0xbc83ce22	-0.016089503
65	0xbd67b82c	-0.056572124
66	0x3bf0ef8f	0.0073527764
67	0x3d884c6b	0.066552006
68	0x3db98967	0.090594105
69	0x3d3fb310	0.046801627
70	0x3daecfbf	0.08535718
71	0x3db36435	0.08759347
72	0x3e048fd9	0.12945499
73	0x3c074e0b	0.008258353
74	0xbcb5e362	-0.022203151
75	0x3d130a68	0.035898596
76	0x3b98d56b	0.0046641133
77	0x3d8b44eb	0.068002544
78	0xbc819407	-0.015817655
79	0xbc231cc5	-0.00995559
80	0xbc458f59	-0.0120581025
81	0xbd0126a4	-0.03153099
82	0x3ce2dd50	0.02769342
83	0x3e1ab947	0.1510974
84	0x3de56beb	0.11202224
85	0x3a83df6a	0.0010061089
86	0x3b9ed795	0.0048474767
87	0xbda5951b	-0.0808508
88	0x3d479b52	0.04873211
89	0xbd8b64db	-0.06806346
90	0x3e0adc5b	0.13560621
91	0xbd81d051	-0.06338561
92	0xbc3dee69	-0.011592486
93	0x3de286fe	0.11060904
94	0xbc43edbd	-0.011958537
95	0x3dbde6c1	0.092725284
96	0xbd5d3c93	-0.054012846
97	0x3db9415b	0.09045669
98	0xbc2796c1	-0.010228814
99	0xbca18340	-0.019715905
100	0x3d137d6c	0.036008283
101	0x3d6d33b2	0.05791063
102	0xbc4fdad3	-0.012686449
103	0x3d3860c5	0.04501416
104	0xbd878449	-0.06617028
105	0xbac3f31c	-0.0014949772
106	0x3d8c319f	0.06845402
107	0x3d85d03f	0.065338604
108	0x3e000027	0.12500058
109	0xbd0eaee8	-0.034834772
110	0x3e02fcb0	0.12791705
111	0x3c0f1f57	0.008735499
112	0x3db6e1fa	0.0892982
113	0x3da3384b	0.079697214
114	0x3d843848	0.06456047
115	0x3dbb761f	0.09153389
116	0xbc9be5eb	-0.019030532
117	0xbd3b17fd	-0.045677174
118	0x3d2dffc7	0.042480256
119	0x3d8f30e9	0.06991751

fc2.weight f4 [84, 120]
0	0xbb0ee09f	-0.0021801365
1	0x3d9b2629	0.07575638
2	0xbe152d30	-0.14568019
3	0x3e05e714	0.1307643
4	0xbd568d55	-0.05238088
5	0xbd14d545	-0.036336202
6	0xbccf33bc	-0.025293224
7	0x3c123af7	0.008925191
8	0xba034ca3	-0.0005008673
9	0xbc944021	-0.018096985
10	0xbdba392a	-0.090929344
11	0xbd510c5c	-0.051037177
12	0x3cef7cba	0.029234279
13	0xbc3c7d19	-0.011504435
14	0xbd215e02	-0.039396293
15	0xbc93206a	-0.017959792
16	0xbd853ed7	-0.065061264
17	0xbd91ecc5	-0.07125238
18	0x3e6bea73	0.23038654
19	0x3e9aa397	0.30202934
20	0x3b7303ca	0.0037081116
21	0xbd6e5bf7	-0.058193173
22	0x3d8f14b2	0.06986369
23	0xbdbb8206	-0.091556594
24	0xbd48210b	-0.048859637
25	0x3c7a2c0e	0.0152692925
26	0xbe3822f5	-0.17982085
27	0x3e4eea5a	0.20206586
28	0x3e01432a	0.12623277
29	0x3de73448	0.11289269
30	0x3e07b6ef	0.13253377
31	0x3cfc5911	0.030804189
32	0x3e044588	0.12917149
33	0x3c198912	0.009371059
34	0x3df1aea0	0.11800885
35	0xbda8a93b	-0.08235403
36	0xbd1ace17	-0.0377942
37	0xbe0c7a77	-0.13718592
38	0x3e1e8733	0.15481262
39	0x3d35df56	0.044402443
40	0xbd871568	-0.0659588
41	0x3d868824	0.065689355
42	0xbdc1b035	-0.09457437
43	0x3db11dbf	0.08648252
44	0xbdb84a39	-0.08998532
45	0xbe905521	-0.28189948
46	0x3d39e736	0.045386516
47	0x3d65b5fb	0.056081753
48	0x3d7904d5	0.060795624
49	0xbe8845f0	-0.26615858
50	0xbd8cda5e	-0.06877588
51	0x3d65e4fe	0.056126587
52	0x3b56f786	0.0032801344
53	0xbd2b10af	-0.041763958
54	0xbe13f8da	-0.14450398
55	0xbdabee38	-0.08395046
56	0x3e6b75aa	0.22994104
57	0x3d52b5c4	0.051442876
58	0x3e1323ed	0.14369173
59	0x3d128858	0.03577456
60	0xbdadc4da	-0.08484812
61	0x3d8c840a	0.06861122
62	0xbe13bb31	-0.14426877
63	0x3c94bb29	0.018155651
64	0x3dc90107	0.09814649
65	0x3d928a62	0.07155301
66	0x3dfb333c	0.122656316
67	0x3e4be7f4	0.19912702
68	0xbd60d6d7	-0.054892387
69	0xbe068b70	-0.13139129
70	0xbd58bed2	-0.052916355
71	0x3ddfc6fb	0.109266244
72	0xbdc8309e	-0.09774898
73	0xbd11c986	-0.03559258
74	0xbc59b745	-0.013288324
75	0xbd2cfac0	-0.04223132
76	0xbdc24237	-0.09485286
77	0xbd476d76	-0.048688374
78	0xbd60adcf	-0.054853257
79	0x3e1e49d5	0.15457852
80	0xbd9a0350	-0.07520163
81	0xbd98154a	-0.074259356
82	0x3e2d0288	0.16895497
83	0xbe156ef5	-0.14593108
84	0xbd90849d	-0.07056544
85	0x3d271301	0.040789608
86	0xbda79478	-0.08182615
87	0xbe62ea44	-0.22159678
88	0x391be6dd	0.00014867955
89	0x3d5efcef	0.054440435
90	0x3c907b6a	0.017636973
91	0x3d813a6b	0.063099705
92	0x3d3681b4	0.04455729
93	0x3e7edf3a	0.24889842
94	0xbe19d141	-0.1502123
95	0xbe070861	-0.1318679
96	0x3db75ce8	0.08953267
97	0xbd8187e1	-0.06324745
98	0xbcb3a2c3	-0.021928197
99	0xbd1cc8c4	-0.038277403
100	0xbd409a95	-0.04702242
101	0xbe609f61	-0.21935798
102	0x3dab084d	0.083511926
103	0xbe261549	-0.16219057
104	0xbd6424e9	-0.055699263
105	0xbe1242ee	-0.14283344
106	0x3df62f93	0.12020793
107	0xbdbabfe6	-0.09118633
108	0xbe0bbc5d	-0.13646074
109	0xbc58b871	-0.013227568
110	0xbe588889	-0.21145834
111	0xbd5c9758	-0.05385527
112	0x3e32307a	0.17401305
113	0x3dda5897	0.106614284
114	0x3d7c5792	0.06160695
115	0x3ccf6b62	0.025319759
116	0xbd70cb0f	-0.0587874
117	0x3e07a417	0.13246189
118	0x3e0cf094	0.13763648
119	0xbde1987c	-0.11015412
120	0x3de4405e	0.111450896
121	0x3db171a2	0.08664252
122	0xbcb3866f	-0.021914689
123	0x3cc900df	0.024536548
124	0xbb2b5a30	-0.0026146285
125	0x3ca0ee77	0.019644959
126	0x3cd8d689	0.026469486
127	0x3d2f3121	0.042771462
128	0xbd0f74e8	-0.0350236
129	0x3d974f35	0.073881544
130	0xbda0b11d	-0.07846282
131	0x3d173e9e	0.03692495
132	0x3d9e5652	0.07731308
133	0x3cf0594b	0.029339453
134	0x3da4e551	0.08051551
135	0xbd3f3bca	-0.04668788
136	0xbd4298ba	-0.047508933
137	0x3e0b05a3	0.13576369
138	0x3db3f28c	0.087864965
139	0xbe2ffc95	-0.17186196
140	0xbda7e176	-0.081973
141	0x3d631800	0.05544281
142	0x3d5a8948	0.053353578
143	0x3d41066f	0.047125276
144	0xbda3099b	-0.079608165
145	0xbd98919b	-0.07449647
146	0x3d937e65	0.07201842
147	0x3e81a981	0.25324634
148	0xbe6b71a4	-0.22992569
149	0x3d52cd12	0.0514651
150	0xbd1f4e72	-0.03889317
151	0x3d24b140	0.0402081
152	0x3daa262e	0.083080634
153	0x3be412a3	0.0069602295
154	0x3dbefd27	0.09325629
155	0x3dbd9ca1	0.0925839
156	0xbcf030bc	-0.029320113
157	0x3d0e2368	0.034701735
158	0x3d1643c8	0.036685735
159	0xbdae9360	-0.08524203
160	0x3db53df1	0.08849705
161	0x3cc3ccc9	0.02390136
162	0x3cc9b8fd	0.024624342
163	0x3dd889cd	0.105731584
164	0xbd9feb74	-0.07808581
165	0x3d3f266f	0.046667513
166	0xbd096996	-0.03354796
167	0x3d518d82	0.051160343
168	0x3d1e6bd3	0.038677048
169	0xbbb4b66c	-0.0055149104
170	0xbe39a588	-0.18129551
171	0x3cb900ba	0.022583354
172	0xbdc70c44	-0.09719136
173	0xbe33f7bc	-0.17574972
174	0xbddcb5e9	-0.10776884
175	0x3db53b78	0.088492334
176	0xbdec561d	-0.11539862
177	0xbdb46001	-0.08807374
178	0x3da1d7be	0.07902478
179	0x3d7d8415	0.06189354
180	0x3ca417cd	0.02003088
181	0xbc1cf1aa	-0.009579102
182	0xbdb5f4c4	-0.08884576
183	0xbdc1b53b	-0.09458395
184	0x3c9b39f1	0.018948527
185	0x3d1bff47	0.03808525
186	0xbd8c151f	-0.06839966
187	0x3df4a8f0	0.11946285
188	0xbd276357	-0.040866222
189	0xbdb1df1e	-0.08685134
190	0xbd81d020	-0.06338525
191	0x3c6ca477	0.014443508
192	0x3db57299	0.088597484
193	0x3df52dbc	0.11971614
194	0xbe39326d	-0.18085642
195	0x3dbb62ad	0.0914968
196	0x3df67bd4	0.12035337
197	0xbd31a24b	-0.043367665
198	0xbd5666c7	-0.05234411
199	0xbdb7caf9	-0.08974261
200	0xbc65813f	-0.014007865
201	0x3db379b6	0.08763449
202	0x3e56b47a	0.20967284
203	0xbe0dde2a	-0.1385428
204	0xbd6540ec	-0.055970117
205	0xbca4fe63	-0.020140832
206	0xbd22b60c	-0.039724395
207	0x3d7690ea	0.060196795
208	0x3a90ae60	0.0011038296
209	0xbd90a070	-0.07061851
210	0xbd1f82b9	-0.038943026
211	0xbcfcdd0f	-0.030867128
212	0x3c58572c	0.013204377
213	0x3d36ea1a	0.04465685
214	0x3cf66ece	0.030082133
215	0xbdd2ef97	-0.102996044
216	0x3da162fe	0.078802094
217	0x3d500f4d	0.050795842
218	0xbd8b6ed8	-0.06808251
219	0xbd1dee36	-0.038557254
220	0xbe0c516d	-0.13702936
221	0x3dd2eac2	0.10298683
222	0x3d234ab6	0.03986617
223	0xbd889134	-0.0666832
224	0x3da16ae7	0.07881718
225	0x3d8c2a56	0.068440124
226	0x3d82f183	0.06393721
227	0x3e07e667	0.13271485
228	0x3dd78f84	0.1052542
229	0xbe359365	-0.17732008
230	0x3d01ff55	0.031737644
231	0x3d4b7cbd	0.049679507
232	0xbce6cdb7	-0.028174264
233	0x3bbb2277	0.0057108956
234	0xbcb29da4	-0.021803685
235	0x3d33e134	0.043915942
236	0xbd9b6893	-0.07588305
237	0xbc910dc3	-0.017706757
238	0x3bc4e2e4	0.006008493
239	0xbbe0ce03	-0.006860496
240	0xbdf6c155	-0.12048594
241	0xbd4330af	-0.04765385
242	0xbdc29741	-0.09501506
243	0xbd1a71be	-0.03770613
244	0x3d13e08e	0.036102824
245	0x3cc6eddb	0.02428334
246	0xbcb633f1	-0.022241564
247	0x3a3cb169	0.0007198067
248	0xbd408686	-0.04700329
249	0x3d89fb0a	0.06737335
250	0xbd666a01	-0.056253437
251	0x3ce79f56	0.02827422
252	0x3d748173	0.059693765
253	0xbe2d86b2	-0.16945913
254	0xbdf03fb4	-0.117309004
255	0xbd7541bc	-0.059877142

fc2.bias f4 [84]
0	0x3d32e647	0.04367664
1	0x3db4b621	0.08823801
2	0x3c77d1c9	0.0151257
3	0x3c91594f	0.017742781
4	0x3e00e054	0.12585574
5	0x3e1aef83	0.15130429
6	0xbdde17d0	-0.108443856
7	0xbcc25fc5	-0.023727307
8	0x3d344ae3	0.04401673
9	0xbd0774d6	-0.033070408
10	0x3e2b9752	0.16756943
11	0x3e3d68cb	0.18497007
12	0xbd8fbd92	-0.070185795
13	0xbdaa2f15	-0.083097614
14	0xbdceb7e9	-0.10093672
15	0x3cb6accd	0.022299195
16	0xbdc8c95e	-0.09804033
17	0x3d79a068	0.06094399
18	0xbc811d53	-0.015761053
19	0xbd907830	-0.07054174
20	0xbdc02170	-0.09381378
21	0xbbefb289	-0.007314984
22	0x3d832ad5	0.06404654
23	0x3d983d57	0.07433575
24	0x3e0ebe26	0.13939723
25	0x3e1c5dae	0.15270111
26	0x3e26580a	0.16244522
27	0xbd9c4590	-0.076304555
28	0xbcdf424f	-0.027253298
29	0xbd81b80e	-0.06333934
30	0xbdd7675a	-0.105177596
31	0x3cce1dad	0.025160635
32	0x3b9fefd9	0.004880887
33	0x3d0fca55	0.03510507
34	0x3e2114f5	0.1573065
35	0x3cffd4c4	0.031229384
36	0xbddd1d53	-0.10796609
37	0xbdc20592	-0.09473719
38	0x3d50d2c4	0.05098225
39	0x3dd1bcc8	0.10241085
40	0x3db31216	0.08743684
41	0x3db22183	0.08697798
42	0x3d9407d9	0.07228059
43	0x3df08178	0.11743444
44	0x3d5f087a	0.054451443
45	0xbd3fffa0	-0.046874642
46	0x3db577ee	0.088607654
47	0x3d9be0ea	0.07611258
48	0xbd9c9dd4	-0.07647291
49	0x3cb40bd0	0.021978289
50	0xbde3e250	-0.1112715
51	0xbd9bd13f	-0.0760827
52	0xbc266ca1	-0.010157735
53	0xbdd461b1	-0.10370196
54	0x3db0528f	0.08609497
55	0x3d9213c5	0.07132677
56	0x3def99bc	0.116992444
57	0x3e0e9fd5	0.13928159
58	0xbd98143b	-0.07425734
59	0xbc017957	-0.007902465
60	0xbc9d83df	-0.01922792
61	0x3d032236	0.032015048
62	0x3d69eb76	0.05710932
63	0xbdeae9aa	-0.11470349
64	0x3d0e3f8d	0.034728575
65	0x3d6faca1	0.05851424
66	0xbb01a55f	-0.0019782407
67	0xbca4e3fe	-0.020128246
68	0x3d8969d9	0.06709642
69	0x3d6eb925	0.058282036
70	0x3dc52666	0.096264645
71	0xbdc5e135	-0.096620955
72	0xbdc3f430	-0.095680594
73	0x3d1f1064	0.03883399
74	0x3e319ce4	0.17345005
75	0x3c519c29	0.012793579
76	0x3dcab748	0.098982394
77	0xbd1e6e0c	-0.038679168
78	0x3db6fff5	0.08935539
79	0xbd06ddcc	-0.032926366
80	0xbd115b96	-0.035487734
81	0x3d229c4c	0.039699838
82	0xbd856cf1	-0.065149195
83	0x3d8123c9	0.063056536

fc3.weight f4 [10, 84]
0	0xbd2118d1	-0.039330307
1	0x3e20c373	0.15699558
2	0xbd959b70	-0.07305038
3	0x3dc65836	0.09684794
4	0xbd845930	-0.06462324
5	0x3dd7a8c7	0.105302386
6	0x3d6c3af8	0.057673424
7	0x3dd879ad	0.10570083
8	0xbda6acb4	-0.08138409
9	0x3b201b8e	0.0024430486
10	0x3e03f1ca	0.12885204
11	0x3d855f92	0.06512369
12	0xbd623ee6	-0.055235766
13	0xbb9c4857	-0.004769366
14	0x3dadff94	0.08496013
15	0xbb67c8a6	-0.0035367399
16	0xbd8804e0	-0.06641555
17	0xbe1ba772	-0.15200594
18	0xbc953b66	-0.0182168
19	0xbcf1d635	-0.029521087
20	0xbc47bbdc	-0.012190785
21	0xbb443536	-0.0029938943
22	0xbcea608b	-0.028610488
23	0xbdc0e1f1	-0.09418095
24	0xbda1ab16	-0.0789396
25	0xbdfb6f32	-0.12277068
26	0x3dd5e1e6	0.10443477
27	0x3c546d80	0.01296556
28	0xbe299bed	-0.16563387
29	0xbc133ca7	-0.008986629
30	0xbdb24c4b	-0.08705958
31	0x3d8b9405	0.06815342
32	0xbd12cf0f	-0.035841998
33	0xbe010c71	-0.12602402
34	0x3de5da19	0.112232395
35	0xbdc0569f	-0.09391522
36	0x3d8d6a72	0.069050685
37	0xbc9cef8a	-0.01915719
38	0x3d2c22e3	0.042025458
39	0x3d4e1c91	0.05032021
40	0x3d8ed8c8	0.069749415
41	0x3dd6219b	0.104556285
42	0x3da2309b	0.07919427
43	0xbe49b4ef	-0.19697927
44	0xbd09f820	-0.033683896
45	0xbdae9efc	-0.085264176
46	0x3da64f65	0.08120612
47	0xbdacecb3	-0.08443584
48	0xbd698ce0	-0.057019114
49	0x3cac035b	0.020997694
50	0xbda4bba5	-0.08043603
51	0x3b57497e	0.0032850201
52	0xbe596e68	-0.21233523
53	0x3aa81f76	0.0012826759
54	0xbcd2ac64	-0.025716968
55	0x3d2e0a5e	0.042490356
56	0x3d649f1d	0.055815805
57	0x3e0393c3	0.12849335
58	0xbdeb9da1	-0.11504675
59	0x3e31baf8	0.17356479
60	0x3d387e27	0.045042183
61	0xbd112a96	-0.035441004
62	0x3d7125a3	0.058873784
63	0x3d8cfee0	0.06884551
64	0x3e18dab7	0.14927183
65	0x3df23162	0.11825825
66	0xbd312d4d	-0.043256093
67	0xba83bff7	-0.0010051717
68	0xbdf42142	-0.11920406
69	0xbe0065d9	-0.12538852
70	0xbdccc945	-0.099993266
71	0xbdc6513e	-0.096834645
72	0xbd29b615	-0.041433413
73	0xbd8b5e5a	-0.068051055
74	0xbb51822f	-0.0031968465
75	0xbd484500	-0.04889393
76	0xbe0c35b7	-0.13692366
77	0xbdc63fed	-0.096801616
78	0xbdae6fcb	-0.085174166
79	0xbe645fdc	-0.22302192
80	0xbd81656e	-0.06318174
81	0x3df474fd	0.11936376
82	0x3db459b6	0.088061735
83	0x3d53a44d	0.05167036
84	0x3e839d4a	0.2570594
85	0xbdeab879	-0.114609666
86	0xbe68c5e4	-0.2273174
87	0x3db1f64a	0.08689554
88	0x3c4caf51	0.012492971
89	0xbe3d6d73	-0.18498783
90	0x3d316cee	0.043316774
91	0xbd9e4e5d	-0.0772979
92	0xbdd72cfa	-0.105066255
93	0x3d29a61c	0.04141818
94	0xbe0106cf	-0.12600254
95	0x3d810933	0.06300583
96	0xbd818dab	-0.06325849
97	0xbdd93f2a	-0.10607751
98	0x3cca2876	0.024677496
99	0x3d94da72	0.07268228
100	0xbdc47492	-0.095925465
101	0x3d297620	0.04137242
102	0xbde25c05	-0.110527076
103	0xbe00dd6e	-0.12584469
104	0xbcbbf05d	-0.022941763
105	0x3de3e017	0.11126726
106	0x3e606b53	0.21915941
107	0xbe05df44	-0.1307345
108	0xbe071f6f	-0.13195585
109	0xbd99b072	-0.075043574
110	0xbdbfa79d	-0.093581416
111	0xbd58b2fd	-0.05290507
112	0xbdbbcc0c	-0.09169778
113	0xbe0b583a	-0.13607875
114	0xbc77953e	-0.015111266
115	0x3d31274c	0.043250367
116	0xbe19d863	-0.15023951
117	0xbdcdbd41	-0.10045863
118	0xbe1a87d9	-0.15090884
119	0x3d98122b	0.0742534
120	0xbdc2e430	-0.095161796
121	0xbe04e47d	-0.12977786
122	0x3db22c58	0.08699864
123	0xbd3c43f3	-0.04596324
124	0x3dde2c20	0.1084826
125	0x3dc2f1cd	0.09518776
126	0xbddcfa38	-0.10789913
127	0x3ab9afa7	0.0014166728
128	0xbe54c948	-0.20779908
129	0xbd2417a8	-0.040061623
130	0xbd8850a9	-0.0665601
131	0xbe9675a0	-0.29386616
132	0x3dd249e3	0.10267999
133	0x3dac1303	0.08402064
134	0x3d801a5d	0.062550284
135	0x3c9099eb	0.017651519
136	0x3dc2a91a	0.0950491
137	0x3daa06b7	0.08302062
138	0xbd306f28	-0.043074757
139	0x3da3b8ba	0.07994218
140	0x3d8fa5c8	0.07014042
141	0xbe032543	-0.12807183
142	0xbdf27e88	-0.1184054
143	0xbd4a9df5	-0.049467046
144	0xbd89ee6d	-0.06734929
145	0xbd2a2583	-0.04153968
146	0xbe2eaab3	-0.17057304
147	0xbd0115a7	-0.03151479
148	0xbdc27c82	-0.09496404
149	0xbdef302a	-0.116791084
150	0x3e06a92a	0.13150468
151	0xbd26b7b3	-0.040702533
152	0xbe4168ee	-0.18887684
153	0x3d40325f	0.046923038
154	0xbc3ded06	-0.011592155
155	0xbe4805d8	-0.19533479
156	0xbdb26421	-0.08710504
157	0x3df5879a	0.119887546
158	0x3d9cb54e	0.076517686
159	0x3e172995	0.14761956
160	0x3dc407a1	0.095717676
161	0xbcea6762	-0.02861375
162	0xbd9f5794	-0.07780376
163	0x3c300799	0.010743999
164	0x3b9b16ac	0.0047329273
165	0xbe001d57	-0.12511192
166	0xbc3154cc	-0.01082344
167	0xbe0eca9e	-0.1394448
168	0xbcc6d5e0	-0.024271905
169	0xbe897c90	-0.26852846
170	0xbdd616db	-0.10453578
171	0xbdaf1546	-0.085489795
172	0x3ddc3b4c	0.107534975
173	0x3db73dfb	0.08947369
174	0x3d532a8b	0.051554244
175	0x3d24f52f	0.040272888
176	0xbe205b60	-0.15659857
177	0xbe661c1f	-0.22471665
178	0x3e16b9b7	0.14719282
179	0xbebe9318	-0.372216
180	0xbdcfa966	-0.10139732
181	0xbdf1c56d	-0.11805234
182	0x3d406547	0.046971586
183	0x3e01171c	0.12606472
184	0xbe137d81	-0.14403345
185	0x3d203318	0.039111227
186	0x3d01a1fd	0.031648625
187	0x3d3551c4	0.04426743
188	0x3c58c35f	0.013230174
189	0xbe0c325c	-0.13691086
190	0xbd09d196	-0.033647142
191	0xbcd2bc84	-0.025724657
192	0x3dc65717	0.0968458
193	0xbc897ea1	-0.016784014
194	0x3d53f7ae	0.051749878
195	0x3d9d9dab	0.076960884
196	0x3d9998b7	0.07499831
197	0x3e4dfc22	0.20115712
198	0x3d8c079d	0.068373896
199	0x3d52d87c	0.051475987
200	0xbdd7c83c	-0.105362386
201	0x3ddbf270	0.10739601
202	0x3cf0dacc	0.029401205
203	0x3c8c1932	0.017101858
204	0xbd600b2f	-0.054698166
205	0x3d0e477f	0.034736153
206	0xbdca0343	-0.098639034
207	0xbdbc30b6	-0.091889784
208	0x3db812d1	0.08987964
209	0xbdcc9b25	-0.09990529
210	0xbdc4a5b2	-0.096019164
211	0x3ca7692c	0.020435892
212	0x3d73fbb2	0.059566207
213	0xbdd5bbfe	-0.10436247
214	0x3de9a599	0.11408538
215	0xbd54d010	-0.051956236
216	0xbba6864c	-0.0050819274
217	0xbe03ad9f	-0.128592
218	0xbd4f67ab	-0.050635975
219	0x3b871b9f	0.0041231657
220	0x3bbebf93	0.0058211773
221	0xbe08ae1f	-0.13347672
222	0xbdbf362a	-0.09336503
223	0x3dd86e2a	0.10567887
224	0x3d8c8791	0.06861795
225	0x3d925074	0.071442515
226	0x3d53f629	0.05174843
227	0xbe177720	-0.14791536
228	0x3c9f0ac5	0.019414315
229	0x3d8a016e	0.06738554
230	0xbdb94365	-0.090460576
231	0xbcad918f	-0.021187572
232	0xbca247e7	-0.019809676
233	0x3e0b765c	0.1361937
234	0xbd5a3796	-0.053275667
235	0xbd2265ff	-0.039648052
236	0x3bed3e52	0.007240095
237	0x3c0036bb	0.007825549
238	0xbda723a9	-0.081610985
239	0x3c4500c1	0.0120241055
240	0xbdb1ca3d	-0.08681152
241	0xbe11bdca	-0.14232555
242	0xbd0c9324	-0.03432001
243	0xbe135ce8	-0.1439091
244	0x3bd8e5ff	0.0066192145
245	0x3ca6e45f	0.020372568
246	0xbcbaf948	-0.022823945
247	0xbdb2f9e4	-0.08739069
248	0xbd087a3d	-0.0333197
249	0x3cab141d	0.020883614
250	0xbde23672	-0.11045541
251	0xbd42ef59	-0.04759154
252	0xbc5ba36f	-0.013405665
253	0x3d37f855	0.044914562
254	0xbdbd0593	-0.09229579
255	0xbda1a47e	-0.078927025

fc3.bias f4 [10]
0	0xbb86d01e	-0.004114165
1	0xbdeef7a1	-0.11668325
2	0xbd1ba0c5	-0.03799512
3	0xbc55e757	-0.013055644
4	0xbe0ab51e	-0.13545653
5	0xbd051fd4	-0.032501057
6	0x3db269ac	0.087115616
7	0xbcc84948	-0.024449006
8	0xbd7154b1	-0.05891866
9	0xbb67c04f	-0.0035362428
