HW1_Split_nb/checkpoints/model_origin_9.pt (torch, 250586 bytes, 10 tensors)

conv1.weight f4 [6, 1, 5, 5]
0	0xbce42de6	-0.027853917
1	0x3e9eb009	0.3099368
2	0xbe56c8a9	-0.20974983
3	0x3e9cb1be	0.30604357
4	0x3d642075	0.055695016
5	0x3d60a87e	0.054848187
6	0x3e97190b	0.29511294
7	0x3ddcddcc	0.10784492
8	0x3e7b39de	0.24533793
9	0x3e3c4240	0.18384647
10	0xbe4ce490	-0.20009065
11	0x3ce63ccb	0.02810516
12	0xbe7991d3	-0.24372034
13	0x3e83961a	0.25700456
14	0x3e99ed13	0.30063686
15	0xbe3aef9c	-0.18255466
16	0xbeb79c58	-0.35861468
17	0xbedcc58c	-0.43119466
18	0x3e39a100	0.18127823
19	0x3da6aa79	0.08137984
20	0xbe1282c0	-0.1430769
21	0xbebfd027	-0.37463495
22	0xbef53ee9	-0.4789956
23	0x3e46dcc3	0.19420151
24	0xbdd0325f	-0.101658575
25	0x3e1f3b05	0.15549858
26	0x3e84f997	0.25971672
27	0x3e4babea	0.19889799
28	0xbeffe61c	-0.49980247
29	0xbebe778d	-0.37200585
30	0xbe2b84e2	-0.1674991
31	0x3e8de677	0.27714893
32	0x3f08221d	0.5317705
33	0xbe891bdc	-0.26779068
34	0xbf00f689	-0.5037618
35	0x3d42b00a	0.047531165
36	0x3deb2c2d	0.11483035
37	0x3e740b7e	0.23832509
38	0xbe641b2d	-0.22275992
39	0xbe7e757f	-0.24849509
40	0xbe9ad2f1	-0.3023906
41	0x3ec94fba	0.3931864
42	0x3ec5af6a	0.38610393
43	0xbe56ec23	-0.20988517
44	0xbe41becb	-0.18920438
45	0xbdd45d54	-0.103693634
46	0x3e5a40ef	0.21313833
47	0x3ec759ce	0.38935703
48	0xbe1be37f	-0.15223502
49	0x3d80267b	0.062573396
50	0xbe9662d9	-0.2937229
51	0xbc6423f0	-0.013924584
52	0xbe8ff62a	-0.28117496
53	0xbe6cba62	-0.23117974
54	0xbe11ad81	-0.14226343
55	0xbe48f4d3	-0.19624643
56	0x3e5d1bb5	0.215926
57	0x3e4cd7c4	0.20004183
58	0x3e2ca9fd	0.1686172
59	0x3db7f8da	0.089830115
60	0x3e2b4b25	0.16727884
61	0x3eaadafe	0.33370203
62	0x3e848330	0.25881338
63	0x3ea6b658	0.32560992
64	0x3bb4ceca	0.0055178152
65	0x3e90d6f2	0.2828899
66	0x3dc57d64	0.09643057
67	0x3d533d6f	0.05157226
68	0x3d7c41ed	0.06158631
69	0xbe7cf055	-0.24701054
70	0x3d5f5f42	0.054534204
71	0xbe15dc31	-0.14634778
72	0xbe12f991	-0.14353015
73	0xbeccc683	-0.39995202
74	0xbe3a2556	-0.18178305
75	0xbe86cc6b	-0.26327834
76	0x3e3314b6	0.1748837
77	0xbe3245c2	-0.17409423
78	0x3d95dc99	0.07317466
79	0xbe73d2cf	-0.23810886
80	0xbd954b58	-0.07289761
81	0xbd485de5	-0.04891767
82	0x3da4c7d3	0.08045926
83	0x3ca8b9ee	0.02059647
84	0xbdc6ea42	-0.0971265
85	0xbc8288b3	-0.015934324
86	0x3e731488	0.23738301
87	0x3d15ad45	0.036542196
88	0x3e810c83	0.25204858
89	0xbcb9eea4	-0.0226968
90	0x3e001897	0.1250938
91	0x3ec2455a	0.37943536
92	0xbdda7eb1	-0.10668696
93	0xbd88630b	-0.06659516
94	0x3d598a8f	0.053110655
95	0x3e66ee04	0.22551733
96	0x3e962866	0.29327697
97	0xbcbc6dbc	-0.023001544
98	0xbe25b286	-0.16181383
99	0xbdb0f729	-0.08640892
100	0x3dbbde2d	0.09173236
101	0xbd01d1eb	-0.031694334
102	0xbdf28600	-0.11841965
103	0xbe206eed	-0.15667315
104	0xbe1bca94	-0.15213996
105	0x3db9abb5	0.09065954
106	0x3e479e59	0.19493999
107	0xbcea878d	-0.028629089
108	0xbd8e7be4	-0.06957224
109	0xbe0503cf	-0.12989734
110	0x3e7e24d8	0.24818742
111	0x3eccd316	0.40004796
112	0x3e408420	0.18800402
113	0xbce10bf9	-0.02747153
114	0xbe571845	-0.21005352
115	0x3e22ade5	0.15886648
116	0x3e9409a2	0.289136
117	0xbdda4d03	-0.1065922
118	0xbc8fcb27	-0.017552925
119	0xbee48e9a	-0.44640046
120	0x3e3e37c9	0.18575968
121	0xbda202ae	-0.07910667
122	0xbd9b4255	-0.07581011
123	0xbe903cdf	-0.2817144
124	0xbe2a5a7e	-0.16636083
125	0xbdd90693	-0.10596957
126	0xbeca972f	-0.3956847
127	0xbe1dbd37	-0.15404211
128	0xbf41609d	-0.75538045
129	0xbeef97e5	-0.46795574
130	0x3e560d7b	0.2090358
131	0xbebcb536	-0.36857003
132	0xc0217260	-2.522606
133	0xc02d95be	-2.7122645
134	0xbe91b30e	-0.2845692
135	0x3e536747	0.20644866
136	0xbe6fc565	-0.23415144
137	0xbfe2cbdf	-1.7718467
138	0xbfa5cd69	-1.2953311
139	0x3ec71903	0.3888627
140	0x3ebb3291	0.36562017
141	0x3e9e2df1	0.30894426
142	0x3c879857	0.016552133
143	0xbd27d56b	-0.040975016
144	0x3e9ef907	0.31049368
145	0x3ea4edb8	0.32212615
146	0x3e4d2d3d	0.20036788
147	0x3e56c506	0.20973596
148	0xbd0bb5ff	-0.034109112
149	0x3dbd5ddc	0.09246418

conv1.bias f4 [6]
0	0x3d98a56a	0.07453425
1	0xbcd24017	-0.025665326
2	0xbd841939	-0.06450123
3	0xbdfb5691	-0.122723706
4	0x3e6eb8ff	0.23312758
5	0x3ec8d7c6	0.39227122

conv2.weight f4 [16, 6, 5, 5]
0	0x3d3f4d0b	0.046704333
1	0xbe3b5d63	-0.18297343
2	0xbf15885e	-0.58411205
3	0xbe9bd7bd	-0.30438033
4	0x3e734597	0.23757015
5	0xbd9d7888	-0.07689005
6	0xbe8a758c	-0.27042806
7	0xbe7cb272	-0.24677446
8	0xbe6c4b90	-0.230757
9	0x3d733dda	0.059385158
10	0xbdd2e750	-0.102980256
11	0xbe08dbe9	-0.13365139
12	0xbd70d028	-0.058792263
13	0x3df6e06b	0.12054523
14	0x3e9784dd	0.29593554
15	0xbdfb5cf2	-0.12273587
16	0xbe49c376	-0.19703469
17	0xbe59a071	-0.2125261
18	0x3c6713eb	0.01410387
19	0x3e4cdc7b	0.20005982
20	0xbda9a959	-0.082842536
21	0x3dacba54	0.08433977
22	0xbc843963	-0.016140645
23	0x3d1c8e39	0.03822157
24	0x3da17091	0.078827985
25	0x3ef2ca59	0.47420004
26	0xbf599ba1	-0.85003096
27	0xbf38ec2a	-0.7223536
28	0xbdbe53d1	-0.092933305
29	0x3df37a08	0.1188851
30	0xbdbd87da	-0.09254427
31	0xbf229f17	-0.63524
32	0xbf37ac25	-0.71747047
33	0xbd0cf331	-0.034411613
34	0x3e4dd09f	0.20099114
35	0xbef9b2bc	-0.48769176
36	0xbf0cad81	-0.54952246
37	0xbf4efdfb	-0.80856293
38	0x3cfd2e94	0.030906
39	0x3e3df066	0.18548736
40	0xbe86d70e	-0.2633595
41	0xbf1adf3e	-0.6049689
42	0xbf734c9e	-0.95038784
43	0xbd783e4d	-0.06060629
44	0x3db20021	0.08691431
45	0xbe703ebd	-0.23461433
46	0xbf12cdc3	-0.5734522
47	0xbf37ee77	-0.71848243
48	0xbe841ec2	-0.25804716
49	0xbd39f7dd	-0.045402396
50	0xbe68666f	-0.22695325
51	0xbe8c82b2	-0.27443463
52	0xbe128d33	-0.14311676
53	0x3d9ecc02	0.07753755
54	0x3d91e0f8	0.071229875
55	0xbe12358c	-0.14278239
56	0xbe2f9fbb	-0.17150776
57	0x3c974675	0.018466214
58	0x3e3549a7	0.17703877
59	0x3d6551c9	0.0559862
60	0xbe82f580	-0.25577927
61	0x3dd393b1	0.10330904
62	0x3c6c59ca	0.014425704
63	0x3e197924	0.14987618
64	0x3dbe2621	0.09284616
65	0xbd845b7c	-0.06462762
66	0x3d1e2539	0.038609717
67	0x3ce38931	0.027775379
68	0x3de4aaa2	0.11165358
69	0xbabac473	-0.001424922
70	0x3ddc63db	0.107612334
71	0x3e0df2a3	0.1386209
72	0x3e2e2e97	0.1700996
73	0x3e3b0b36	0.18265995
74	0xbe8b1326	-0.27163047
75	0xbea15e33	-0.3151718
76	0xbe6c3c0c	-0.23069781
77	0x3d070e5b	0.032972675
78	0x3dc1ef6b	0.094694935
79	0x3da830cd	0.08212433
80	0xbe7096ad	-0.23494978
81	0xbdbd8bf4	-0.092552096
82	0x3dc2adec	0.09505829
83	0x3e10d71b	0.14144556
84	0x3dd05213	0.101719044
85	0xbd9ddd51	-0.077082284
86	0xbccb7219	-0.02483468
87	0x3db63ba6	0.08898096
88	0x3dbab5cb	0.091167055
89	0x3df678bc	0.12034747
90	0xbb7526a8	-0.0037407074
91	0x3d8d2d36	0.06893389
92	0x3dc96bb0	0.09834993
93	0x3d7623d3	0.06009276
94	0x3ca47566	0.020075511
95	0x3cdfe047	0.027328623
96	0x3dfb6241	0.122746
97	0x3e0a29f5	0.13492568
98	0x3d677024	0.05650343
99	0xbe2b5170	-0.16730285
100	0x3e1b899f	0.15189217
101	0xbdeca78f	-0.11555397
102	0xbb19b96e	-0.0023456472
103	0x3db89cd6	0.09014289
104	0xb9fe8942	-0.0004854892
105	0x3dc3d4e8	0.09562093
106	0xbc17a770	-0.009256229
107	0x3d27d2c4	0.040972486
108	0x3e551231	0.2080772
109	0x3bcf87ce	0.006333328
110	0xbe0ece1f	-0.13945816
111	0xbd92164d	-0.0713316
112	0xbe91f585	-0.2850763
113	0x3e30c53a	0.17262736
114	0x3e1eddc2	0.15514281
115	0xbc6990a2	-0.014255675
116	0xbe9d1eec	-0.30687654
117	0xbe689993	-0.22714834
118	0x3e31f86c	0.17379922
119	0x3df4c32f	0.11951291
120	0x3d97440b	0.07386025
121	0xbd54d96b	-0.05196516
122	0x3d3ae460	0.04562795
123	0x3e7f7e7c	0.24950594
124	0x3e277b30	0.16355586
125	0x3f6b4efa	0.91917384
126	0x3ebf9b0b	0.37422976
127	0xbf0da779	-0.5533367
128	0xbf0c2c90	-0.54755497
129	0xbe1d2717	-0.15346943
130	0x3ed4d7cf	0.415709
131	0x3e0ba1f8	0.13636005
132	0xbe9c7e13	-0.30564937
133	0xbe88ce5e	-0.26719946
134	0xbd996b29	-0.07491142
135	0x3ee3b30d	0.44472542
136	0x3d1a1181	0.03761435
137	0xbe0ca2c7	-0.1373397
138	0xbe63ead0	-0.22257543
139	0x3d82e65f	0.06391596
140	0x3e58d5bc	0.21175283
141	0x3dd9f196	0.10641782
142	0xbc13f35d	-0.00903019
143	0xbea72302	-0.32643896
144	0xbdf91d3d	-0.1216378
145	0xbe0e55fe	-0.13899991
146	0xbf1f6c05	-0.622742
147	0xbeb2f759	-0.34954336
148	0x3ebe74b2	0.37198406
149	0x3e1acc80	0.15117073
150	0xbb303edd	-0.0026892938
151	0x3cc7c4cf	0.024385838
152	0x3db81258	0.08987874
153	0x3d843f53	0.06457391
154	0xbe921999	-0.28535154
155	0xbe1dc500	-0.15407181
156	0x3daa2c0b	0.08309182
157	0x3e807d1c	0.2509545
158	0x3ee6f2c1	0.45107082
159	0xbde03ba0	-0.109488726
160	0xbe56ef92	-0.20989826
161	0xbee81da2	-0.45335108
162	0xbd565f37	-0.052336898
163	0x3f01a277	0.50638527
164	0x3ed6dd10	0.41965532
165	0xbdeca57e	-0.11555003
166	0xbeae184b	-0.3400291
167	0xbdcc74ef	-0.09983241
168	0x3e18bf4b	0.14916722
169	0xbd932873	-0.071854495
170	0x3e3a2a9f	0.18180321
171	0x3c1895aa	0.009313026
172	0x3d488407	0.048954036
173	0x3dd97647	0.10618263
174	0xbe4bdbe8	-0.19908106
175	0xbe2d72ff	-0.16938399
176	0xbf330ae6	-0.69938505
177	0xbd81c4e5	-0.06336383
178	0xbd1a7c8f	-0.037716445
179	0x3d938884	0.07203773
180	0xbe758e0b	-0.23979966
181	0xbe8ad64b	-0.27116618
182	0x3cfeb426	0.03109176
183	0x3cecdb24	0.028913088
184	0x3d90b024	0.07064846
185	0xbc9bb755	-0.019008318
186	0x3e95db01	0.2926865
187	0x3ea5bd96	0.32371205
188	0x3ca2ee36	0.019888978
189	0x3dc3c939	0.095598646
190	0x3de05661	0.109539755
191	0x3ee78d77	0.45225117
192	0x3f01bd56	0.5067953
193	0x3e490ae3	0.19633059
194	0x3df7617e	0.12079142
195	0xbe18f73b	-0.14938061
196	0x3eb1da18	0.34736705
197	0x3f1f9ec9	0.6235166
198	0xbdd7112b	-0.105013214
199	0xbd696538	-0.056981295
200	0x3c973118	0.018456027
201	0xbd779723	-0.06044687
202	0x3ce37495	0.027765552
203	0xbe0331b4	-0.12811929
204	0xbdd4cd79	-0.10390753
205	0x3ebeecf2	0.3729015
206	0xbaae062b	-0.0013276985
207	0xbd39a048	-0.04531887
208	0xbd851185	-0.06497482
209	0x3d9aca9c	0.07558176
210	0x3d9466ce	0.07246171
211	0xbd8837fa	-0.06651302
212	0xbd9620ef	-0.073305
213	0xbcb7e8c9	-0.022449868
214	0xbd16fa04	-0.036859527
215	0x3dff9b56	0.124808
216	0x3dcdebef	0.100547664
217	0xbd893623	-0.06699779
218	0xbe27cb2e	-0.163861
219	0xbe3315c8	-0.17488778
220	0x3eae0ac4	0.3399259
221	0x3e44e871	0.19229294
222	0xbd2876ca	-0.04112891
223	0xbd0c30a5	-0.03422608
224	0x3d2a043e	0.041507952
225	0xbe0a36a9	-0.13497414
226	0xbe6c2322	-0.23060277
227	0xbd93783a	-0.07200666
228	0xbd15950a	-0.036519088
229	0x3cd1078c	0.025516294
230	0xbe0872bd	-0.13325019
231	0xbe11aeca	-0.14226833
232	0xbe6fe697	-0.23427807
233	0xbd2f9f5f	-0.042876597
234	0x3dddb97f	0.10826396
235	0xbdeab38c	-0.11460027
236	0xbc5f45ca	-0.013627479
237	0xbe63e1f8	-0.22254169
238	0xbdb0e2a7	-0.086369805
239	0xbd0bc9f8	-0.03412816
240	0x3cfc562b	0.030802807
241	0x3e1a8f52	0.15093735
242	0x3c10a807	0.008829123
243	0xbd6bfa32	-0.05761165
244	0xbca186bd	-0.019717569
245	0x3de2ff8f	0.110839
246	0x3db21148	0.086947024
247	0x3b82f0c3	0.003995986
248	0xbd8f433e	-0.06995247
249	0xbd97dac3	-0.07414772
250	0xbc8af8c5	-0.016964326
251	0xbe7e7d6f	-0.24852537
252	0xbd4c955d	-0.04994713
253	0x3d283868	0.04106942
254	0xbd86cd19	-0.06582088
255	0xbc90c98f	-0.017674236

conv2.bias f4 [16]
0	0x3e7e8f0c	0.24859256
1	0xbd978447	-0.07398277
2	0xbd6a7d8f	-0.05724865
3	0x3e1dd8a3	0.15414672
4	0x3e417056	0.18890509
5	0x3e43daf2	0.1912649
6	0x3e72ae1a	0.23699227
7	0x3de05b28	0.10954887
8	0xbddd61fe	-0.10809706
9	0x3cf127de	0.029437955
10	0xbdbfb6b2	-0.09361018
11	0x3eaa4873	0.332584
12	0xbd4f98bf	-0.05068278
13	0xbdbee087	-0.09320169
14	0x3e5fb9b5	0.21848185
15	0x3ea93265	0.3304626

fc1.weight f4 [120, 400]
0	0xbd204e91	-0.039137427
1	0xbe268158	-0.16260278
2	0xbdbd3068	-0.092377484
3	0x3cb97db1	0.022642942
4	0x3e2a04a0	0.16603327
5	0xbdfa640c	-0.12226114
6	0x3d2d91d9	0.04237542
7	0xbe148854	-0.1450513
8	0x3d22842b	0.039676826
9	0xbbd99e60	-0.006641194
10	0xbdaabe3c	-0.083370656
11	0x3d872436	0.065987036
12	0xbddcfb1f	-0.10790085
13	0x3da204cc	0.07911071
14	0xbeb063be	-0.34451097
15	0x3d0b5503	0.03401662
16	0xbd100e5e	-0.03516995
17	0xbcc4d15a	-0.024025608
18	0x3d9885c4	0.07447389
19	0xbe81d45c	-0.2535733
20	0x3e5b6ce5	0.21428259
21	0xbdd7617e	-0.10516642
22	0xb982fab9	-0.00024982335
23	0xbdcdc313	-0.10046973
24	0xbeae8af8	-0.340904
25	0x3d7b74aa	0.061390556
26	0x3cd81b51	0.026380213
27	0x3ecdd341	0.40200236
28	0x3de750d8	0.112947166
29	0xbe85d37d	-0.26137915
30	0xbdda62d8	-0.10663384
31	0x3da5e038	0.08099407
32	0x3e7f9c10	0.24961877
33	0x3df43b97	0.11925428
34	0xbd72557f	-0.059163567
35	0xbd9fff76	-0.07812397
36	0xbd8313d2	-0.06400265
37	0x3e8706d5	0.263724
38	0x3d9f34ba	0.07773729
39	0x3df9e0de	0.12201093
40	0x3dcefcba	0.101067975
41	0xbda58cee	-0.08083521
42	0x3a47546d	0.0007603828
43	0xbb7550c6	-0.0037432178
44	0xbe4754b6	-0.19465908
45	0x3dd29be0	0.10283637
46	0x3c608220	0.013702899
47	0x3e1071d3	0.1410592
48	0x3d9fbc52	0.07799591
49	0xbdaa2cac	-0.08309302
50	0xbcf2c2d1	-0.029633911
51	0x3bbcae7a	0.005758104
52	0x3d5b0515	0.053471643
53	0x3d241698	0.04006061
54	0xbd676df7	-0.056501355
55	0xbbef9f48	-0.007312689
56	0x3c6fb18c	0.014629733
57	0x3b634bb7	0.003468258
58	0xbd8051d8	-0.062656105
59	0xbd685532	-0.056721874
60	0xbaed7cb9	-0.0018118835
61	0x3d474aa4	0.048655167
62	0xbd338fa8	-0.043838173
63	0xbd3555c0	-0.04427123
64	0xbcc2ce08	-0.023779884
65	0x3d9557b3	0.07292118
66	0x3d95b834	0.073105246
67	0x3d882ec0	0.06649542
68	0xbd772f29	-0.06034771
69	0xbd2c7a0e	-0.042108588
70	0x3c5a64f6	0.013329735
71	0x3c5ebca7	0.013594783
72	0x3c51beed	0.012801868
73	0xbc863140	-0.016380906
74	0xbd01e1e2	-0.03170956
75	0x3e2e68a9	0.17032112
76	0x3e097c72	0.13426378
77	0x3d5cac92	0.053875513
78	0x3d5b2c1c	0.053508863
79	0x3e90189c	0.28143775
80	0xbd4ca455	-0.049961407
81	0x3e2f3d35	0.17113192
82	0x3d703b41	0.05865026
83	0xbe10af79	-0.14129438
84	0x3db291f3	0.08719244
85	0xbd7d33cd	-0.06181698
86	0x3e2013c8	0.15632546
87	0x3c38519e	0.011249928
88	0xbd956230	-0.072941184
89	0x3d469d3a	0.048489787
90	0x3cb1801e	0.021667536
91	0x3dc05b91	0.09392465
92	0x3dc61b9e	0.09673236
93	0x3d981568	0.07425958
94	0x3e0108a9	0.1260096
95	0x3d913720	0.070905924
96	0x3c6f1af3	0.014593828
97	0xbb711d7e	-0.003679126
98	0x3c14f61f	0.009091883
99	0xbc65395d	-0.013990727
100	0xbcc4bd46	-0.024016034
101	0x3d751978	0.059838742
102	0x3d413cdc	0.04717718
103	0xbe3abab2	-0.18235281
104	0xbdd50b8e	-0.104025945
105	0xbdeb2108	-0.114809096
106	0xbd847924	-0.06468418
107	0xbd6d1b8a	-0.05788759
108	0xbdcdebb1	-0.1005472
109	0xbea8ad8f	-0.32944915
110	0xbe90533b	-0.281885
111	0xbc2f3cc1	-0.010695637
112	0x3e4776f7	0.19478975
113	0x3e836be9	0.25668266
114	0xbe226001	-0.15856935
115	0xbea1db4b	-0.3161262
116	0xbc5fae95	-0.013652463
117	0x3d7f808b	0.062378448
118	0x3e1f6876	0.15567192
119	0xbe29bd5d	-0.16576143
120	0xbf1aff66	-0.6054596
121	0x3e1c61cd	0.15271683
122	0xbe8eb210	-0.27870226
123	0xbe2634a8	-0.16231024
124	0x3da33f47	0.079710536
125	0x3dd04d20	0.101709604
126	0xbe5f739b	-0.21821444
127	0xbdacf7b7	-0.08445685
128	0xbe2c9341	-0.16853048
129	0xbd229e83	-0.03970195
130	0xbc34e82c	-0.011041682
131	0xbda3005b	-0.07959052
132	0x3db43417	0.08798998
133	0x3c8100df	0.015747486
134	0xbdeec9cb	-0.11659583
135	0xbdb8f26c	-0.09030613
136	0xbc95d5f2	-0.018290494
137	0x3e0513a7	0.12995778
138	0x3dc650ed	0.09683404
139	0xbe3a3520	-0.18184328
140	0xbe987cce	-0.29782718
141	0xbe2adf42	-0.16686729
142	0x3cfdf073	0.030998444
143	0x3e3c44cb	0.18385617
144	0xbda824a2	-0.08210112
145	0xbd88b0c3	-0.066743396
146	0xbe21ca9c	-0.15799946
147	0xbdefbb8f	-0.11705696
148	0x3e77f0d5	0.24212964
149	0xbebba173	-0.36646613
150	0x3e0a9b75	0.13535865
151	0x3dce9130	0.10086286
152	0xbe00940d	-0.12556477
153	0x3d18d7b9	0.037315104
154	0xbcfffbff	-0.03124809
155	0xbd201e53	-0.03909142
156	0xbd8dee13	-0.06930175
157	0xbe631c2b	-0.22178714
158	0xbda8c78d	-0.08241186
159	0xbe6ac233	-0.22925644
160	0xbe3769dd	-0.17911477
161	0x3c13884f	0.0090046665
162	0xbe2a9952	-0.1666005
163	0xbcf4135a	-0.029794384
164	0xbe91d934	-0.28486025
165	0xbe1ea0fc	-0.15491098
166	0xbda33450	-0.07968962
167	0x3da31720	0.07963395
168	0x3dfa00e9	0.12207205
169	0xbe97277e	-0.29522318
170	0xbdb5dcc1	-0.08879996
171	0xbd78ccd4	-0.060742214
172	0x3d86406b	0.065552555
173	0x3e68cfb4	0.22735482
174	0xbe5f520e	-0.21808645
175	0x3dd31737	0.10307162
176	0xbd833f63	-0.064085744
177	0x3d158913	0.036507677
178	0xbdbb915d	-0.09158585
179	0xbdf81b23	-0.12114551
180	0xbe769910	-0.24081826
181	0x3dce3e73	0.10070505
182	0xbdc354ac	-0.09537634
183	0x3d04a1d9	0.032380912
184	0x3d45ad5f	0.048261043
185	0xbd36e0c6	-0.044647954
186	0x3e181459	0.14851512
187	0xbdb30640	-0.087414265
188	0xbde1a138	-0.11017078
189	0x3d45fef2	0.048338838
190	0xbda2dcc4	-0.07952264
191	0xbdec4489	-0.115365095
192	0xbd2cc89d	-0.042183507
193	0xbe16346a	-0.14668432
194	0xbd790e2a	-0.060804524
195	0xbeffbe9f	-0.4995012
196	0xbe9c28ed	-0.30499974
197	0x3d99c007	0.075073294
198	0xbe0a2118	-0.13489187
199	0xbe8db81d	-0.2767953
200	0x3ceec5f3	0.029147124
201	0xbcc09860	-0.023510158
202	0x3b929e40	0.0044744313
203	0xbc1f046d	-0.009705645
204	0xbd4f2783	-0.05057479
205	0xbc7cd867	-0.015432454
206	0xbd3f64c2	-0.04672695
207	0x3ccb2bbd	0.02480113
208	0x3ce2a603	0.027667051
209	0xbd3dd70f	-0.046347674
210	0x3be48b0d	0.006974584
211	0x3c5c345a	0.013440216
212	0x3d1136c7	0.03545263
213	0xbc7402e5	-0.014893268
214	0xbcdd613d	-0.027023906
215	0xbd1e580a	-0.03865818
216	0x3d2a7efa	0.041625
217	0xbd0988cf	-0.033577736
218	0xbbf14dc0	-0.007364005
219	0x3d1970d0	0.037461102
220	0xbcfc1d1d	-0.030775601
221	0x3c6d1813	0.014471072
222	0xbc844b0a	-0.016149063
223	0xbd422bc5	-0.047405023
224	0xbc94dff3	-0.018173194
225	0xbd7ec58e	-0.06220012
226	0x3e06b199	0.13153686
227	0xbddb7589	-0.107157774
228	0x3e463cfe	0.19359204
229	0x3c39c306	0.011338001
230	0x3d0a7b39	0.03380892
231	0x3e2692d2	0.16266945
232	0xbdd2b2a8	-0.10287982
233	0x3e207922	0.15671209
234	0xbe304ccc	-0.17216796
235	0x3e1f06e5	0.15529974
236	0xbcc20243	-0.02368272
237	0xbbf7aaaa	-0.0075581865
238	0xbd9190f5	-0.071077265
239	0xbdf0159e	-0.11722873
240	0x3e4a8124	0.19775826
241	0xbe4b0a13	-0.19828062
242	0xbe831bc1	-0.25607112
243	0xbe05dbc4	-0.13072115
244	0xbe0e78d4	-0.1391328
245	0x3e83ad3b	0.25718102
246	0xbe8e09e7	-0.2774193
247	0xbec3072d	-0.38091412
248	0x3d8f4043	0.06994679
249	0xbe675e1e	-0.22594497
250	0x3ce54195	0.027985374
251	0x3ea10bd4	0.31454337
252	0xbdd9ad5d	-0.106287695
253	0xbe3eeeeb	-0.18645827
254	0xbe3fcd19	-0.18730582
255	0x3dd58e51	0.10427535

fc1.bias f4 [120]
0	0x3d3397ba	0.04384587
1	0x3e0d69f0	0.13809943
2	0x3e0bcf16	0.13653216
3	0x3d1d64d4	0.038426235
4	0xbd73bf4b	-0.059508603
5	0xbd4caaae	-0.04996746
6	0xbcfd750b	-0.0309396
7	0xbcaa33c1	-0.020776631
8	0xbd8ad2ff	-0.067785256
9	0xbc8efc8e	-0.017454412
10	0xbcd29cdd	-0.025709564
11	0xbd44cd63	-0.048047435
12	0x3e036a53	0.12833528
13	0x3e60901c	0.21929973
14	0x3cfb4717	0.030673547
15	0xbc951dbf	-0.01820266
16	0x3ad6e60b	0.0016395462
17	0x3dffb650	0.12485945
18	0x3e0f6ebc	0.14007086
19	0x3d9de319	0.07709331
20	0xbd5fe101	-0.05465794
21	0xbd302fd6	-0.04301437
22	0xbda6b0c2	-0.081391826
23	0x3d91723b	0.07101866
24	0xbd8ac8ec	-0.06776604
25	0x3afafcff	0.0019148885
26	0x3da1c98e	0.07899772
27	0x3db5435c	0.088507384
28	0x3c799482	0.015233161
29	0x3e1e4d18	0.15459096
30	0xbdb73d34	-0.089472204
31	0xbd3bbaa5	-0.045832295
32	0x3e7b9ff1	0.24572732
33	0xbd7937b7	-0.06084415
34	0xbd7f7192	-0.06236417
35	0xbd647298	-0.055773348
36	0xbb4685c9	-0.0030292145
37	0x3c1b13e1	0.009465189
38	0x3da1aca8	0.0789426
39	0x3da9e1a2	0.08294989
40	0xbcf12a2c	-0.029439054
41	0x3df0e053	0.117615364
42	0x3dfff0f7	0.12497132
43	0x3db4caa6	0.088277146
44	0xbcd97fea	-0.026550252
45	0xbe36194e	-0.1778309
46	0xbd60affe	-0.05485534
47	0xbd908bf0	-0.07057941
48	0x3d9ba579	0.07599921
49	0xbce2235c	-0.027604751
50	0x3e0edb89	0.13950934
51	0xbd9b477c	-0.07581994
52	0x3e289f07	0.16466914
53	0x3dadeaf0	0.084920764
54	0x3c3bb9e7	0.011457897
55	0x3caf1bc2	0.02137554
56	0xbc77a257	-0.015114388
57	0x3c85b2fa	0.016320694
58	0x3d71641d	0.058933366
59	0xbd05fbd9	-0.032710884
60	0x3d4901f1	0.049074117
61	0xbc793bb8	-0.015211992
62	0x3dccaed3	0.099942826
63	0xbdb23368	-0.08701211
64	0xbd49fbd4	-0.049312428
65	0xbd97b2bd	-0.074071385
66	0xbd9e0842	-0.07716419
67	0x3e668842	0.22512916
68	0x3da0cc9a	0.07851525
69	0x3e0a962c	0.13533849
70	0xbbf8e098	-0.007595133
71	0x3dcf7529	0.101297684
72	0x3e0da670	0.13833022
73	0x3dc052ff	0.0939083
74	0x3c888c9b	0.016668608
75	0x3e0a2d6e	0.13493893
76	0x3e0a95de	0.13533732
77	0x3d40dbef	0.047084745
78	0xbdbc540b	-0.091957174
79	0x3cd19b53	0.02558676
80	0xbc458f59	-0.0120581025
81	0xbd0126a4	-0.03153099
82	0xbca178bb	-0.01971089
83	0x3e505cb2	0.2034786
84	0x3e835e1e	0.25657743
85	0xbd820956	-0.06349437
86	0xbcc318f7	-0.023815615
87	0xbd2aa0ab	-0.04165713
88	0x3d3b3f75	0.045714814
89	0xbd8b64db	-0.06806346
90	0x3e4f791e	0.20261046
91	0xbdf81720	-0.12113786
92	0x3dd9b591	0.10630334
93	0x3e371501	0.17879106
94	0xbd18c951	-0.037301365
95	0x3e744748	0.23855317
96	0xbd5d3c93	-0.054012846
97	0x3deee3e7	0.11664563
98	0xbc2796c1	-0.010228814
99	0xbca18340	-0.019715905
100	0xbbc90653	-0.006134787
101	0x3e02dc6f	0.12779401
102	0xbc4fdad3	-0.012686449
103	0xbc897a6c	-0.016782008
104	0xbd878449	-0.06617028
105	0x3db8febb	0.09032961
106	0x3df3a589	0.11896808
107	0x3dbcdcdd	0.09221814
108	0x3e47eb67	0.19523393
109	0xbdeb381e	-0.11485313
110	0x3e1c83b3	0.15284614
111	0x3d1a4ea4	0.037672654
112	0x3e338964	0.17532879
113	0x3e5728bc	0.21011633
114	0x3e3d372f	0.18478082
115	0x3e1c6af1	0.1527517
116	0xbd7aa7ef	-0.06119531
117	0xbd53bccc	-0.051693723
118	0x3da741ae	0.08166824
119	0x3e5e8174	0.2172907

fc2.weight f4 [84, 120]
0	0xbdae67da	-0.08515902
1	0x3e9eca17	0.31013557
2	0xbcbedb2c	-0.023297869
3	0x3e9eeda6	0.31040686
4	0xbd568d55	-0.05238088
5	0xbd14d545	-0.036336202
6	0xbccf33bc	-0.025293224
7	0x3c123af7	0.008925191
8	0xba034ca3	-0.0005008673
9	0xbc944021	-0.018096985
10	0xbdab58ed	-0.083665706
11	0xbd510c5c	-0.051037177
12	0x3dec7041	0.11544848
13	0x3e40c717	0.18825947
14	0xbee57cec	-0.4482187
15	0xbc93206a	-0.017959792
16	0xbea08468	-0.31351018
17	0xbf3fbfa6	-0.7490181
18	0x3df0904a	0.11746271
19	0x3ef21023	0.47277936
20	0x3b7303ca	0.0037081116
21	0xbd6e5bf7	-0.058193173
22	0x3be37c73	0.0069423257
23	0xbe8d93e1	-0.27651885
24	0xbdd75d0c	-0.10515794
25	0x3c7a2c0e	0.0152692925
26	0xbdd3d00f	-0.103424184
27	0x3dfc03f4	0.123054415
28	0x3e3a2710	0.18178964
29	0x3e8fdc44	0.28097737
30	0x3e2ad10f	0.16681312
31	0x3cfc5911	0.030804189
32	0x3d18affe	0.037277214
33	0x3c198912	0.009371059
34	0x3df1aea0	0.11800885
35	0xbda8a93b	-0.08235403
36	0xbd1ace17	-0.0377942
37	0xbe5e9add	-0.21738763
38	0x3ee25e9f	0.44212815
39	0x3e8927b9	0.26788118
40	0xbd871568	-0.0659588
41	0x3e05c0b8	0.13061798
42	0xbe38b97e	-0.1803951
43	0xbe36e932	-0.17862394
44	0xbdb84a39	-0.08998532
45	0xbefcf244	-0.49403584
46	0x3d39e736	0.045386516
47	0x3d65b5fb	0.056081753
48	0xbdeb977f	-0.11503505
49	0xbe34ea0f	-0.17667411
50	0xbd94d501	-0.0726719
51	0x3dda33fa	0.10654445
52	0x3e7e12f3	0.24811916
53	0xbd256131	-0.040375892
54	0xbef53512	-0.47892052
55	0x3e1c0ef3	0.15240078
56	0x3ece5c21	0.40304664
57	0x3e50a82f	0.20376657
58	0x3daa3d04	0.08312419
59	0x3d128858	0.03577456
60	0xbeb297f5	-0.3488156
61	0x3c8b723b	0.017022243
62	0x3e0b7e10	0.13622308
63	0xbc23b27b	-0.0099912835
64	0x3d685c68	0.05672875
65	0x3e081987	0.13290988
66	0xbd98decb	-0.074643694
67	0x3e98270f	0.297173
68	0xbd7a756a	-0.06114713
69	0xbe233f21	-0.1594205
70	0xbebb2cbc	-0.36557567
71	0x3d6d21ff	0.05789375
72	0xbf00757e	-0.5017928
73	0x3d0ca63a	0.034338214
74	0x3d303060	0.043014884
75	0xbdae4154	-0.08508554
76	0xbdd7d5be	-0.10538815
77	0xbd6cb997	-0.05779418
78	0xbc35a65b	-0.0110870255
79	0x3ed1241e	0.40847868
80	0xbd9a0350	-0.07520163
81	0xbd98154a	-0.074259356
82	0x3e15dc18	0.1463474
83	0xbd5d2774	-0.053992704
84	0x3d66402e	0.05621355
85	0x3dc24a46	0.09486823
86	0xbe8071f7	-0.25086948
87	0xbf1dd122	-0.61647236
88	0x3e2a36da	0.16622487
89	0x3d5efcef	0.054440435
90	0xbe401c79	-0.18760861
91	0x3cbfc702	0.023410324
92	0x3d67a5ec	0.05655472
93	0x3eb6ab12	0.3567739
94	0xbdee2253	-0.116276406
95	0xbdf1aa4d	-0.118000604
96	0x3db75ce8	0.08953267
97	0x3befd2b4	0.007318819
98	0xbcb3a2c3	-0.021928197
99	0xbd1cc8c4	-0.038277403
100	0xbe05720f	-0.13031791
101	0xbece9134	-0.40345156
102	0x3dab084d	0.083511926
103	0xbe81cf8e	-0.25353664
104	0xbd6424e9	-0.055699263
105	0x3e678457	0.22609077
106	0x3e378bb0	0.1792438
107	0xbe4dfe62	-0.2011657
108	0xbedcafba	-0.4310282
109	0xbc450b2f	-0.012026592
110	0xbedf4612	-0.43608147
111	0x3dcd030b	0.10010346
112	0x3eb31f86	0.34984988
113	0x3ec924b1	0.39285806
114	0x3e9bdc73	0.30441627
115	0x3e105302	0.14094165
116	0x3ac3c285	0.0014935291
117	0x3dd08724	0.10182026
118	0x3e5dbd65	0.2165428
119	0xbf09e632	-0.53866875
120	0x3e27140b	0.1631624
121	0x3cf0ee7b	0.029410591
122	0xbe3b4f33	-0.18291931
123	0xbe25fcd9	-0.16209735
124	0xbb2b5a30	-0.0026146285
125	0x3ca0ee77	0.019644959
126	0x3cd8d689	0.026469486
127	0x3d2f3121	0.042771462
128	0xbd0f74e8	-0.0350236
129	0x3d974f35	0.073881544
130	0xbda1d1c4	-0.07901338
131	0x3d173e9e	0.03692495
132	0x3bb1ba18	0.0054237954
133	0xbce8783a	-0.028377641
134	0x3e17f038	0.1483773
135	0xbd3f3bca	-0.04668788
136	0x3dbac5b9	0.09119744
137	0x3ec88eed	0.39171544
138	0x3e814cca	0.25253898
139	0xbef4d518	-0.47818828
140	0xbda7e176	-0.081973
141	0x3d631800	0.05544281
142	0xbb664593	-0.0035136684
143	0x3e902e45	0.281603
144	0xbda3099b	-0.079608165
145	0xbd98919b	-0.07449647
146	0x3e2ea199	0.17053832
147	0x3ebbf2d2	0.36708695
148	0xbea54982	-0.32282645
149	0x3e577064	0.21038967
150	0xbd35567d	-0.044271935
151	0x3d24b140	0.0402081
152	0x3e05969b	0.13045733
153	0x3be412a3	0.0069602295
154	0x3dbefd27	0.09325629
155	0x3dbd9ca1	0.0925839
156	0xbd3006e0	-0.042975307
157	0x3cd4a7a1	0.025958838
158	0xbe44750d	-0.19185276
159	0xbe19fb99	-0.15037383
160	0x3db53df1	0.08849705
161	0x3dcdb672	0.10044564
162	0x3e74b105	0.23895653
163	0x3e809bc7	0.2511885
164	0xbd8a6d4f	-0.0675913
165	0x3e681f87	0.22668277
166	0xbd096996	-0.03354796
167	0x3d518d82	0.051160343
168	0x3e00c912	0.12576702
169	0x3e637f47	0.22216521
170	0xbe166d8a	-0.14690223
171	0x3bd3728b	0.0064528636
172	0xbe4ef6ee	-0.20211384
173	0xbe971075	-0.29504743
174	0xbe507d99	-0.20360412
175	0x3daefa08	0.085437834
176	0xbdd2e16f	-0.10296904
177	0xbe5443b3	-0.2072895
178	0x3e7c6200	0.24646759
179	0x3d7d8415	0.06189354
180	0xbe07eb97	-0.13273464
181	0xbc1cf1aa	-0.009579102
182	0xbdc039bf	-0.09386014
183	0x3dce3b40	0.10069895
184	0xbe960737	-0.2930238
185	0x3d5ee159	0.054414127
186	0xbdaa84dc	-0.08326122
187	0x3e1195e0	0.14217329
188	0xbe885b04	-0.2663194
189	0xbdb20e5a	-0.086941436
190	0x3bf64d42	0.007516534
191	0x3e6508bc	0.22366613
192	0x3e552b0a	0.208172
193	0x3dfb49c9	0.12269933
194	0xbedbd81d	-0.4293832
195	0x3db991cc	0.09061012
196	0x3d928d12	0.07155813
197	0xbe55be4d	-0.20873375
198	0xbd98ecb9	-0.07467026
199	0x3d5151ad	0.051103283
200	0xbc65813f	-0.014007865
201	0x3db379b6	0.08763449
202	0x3e28033e	0.16407487
203	0xbe82648d	-0.2546734
204	0xbd870208	-0.06592184
205	0xbe8f111c	-0.2794274
206	0x3e26f074	0.16302663
207	0x3e114753	0.14187364
208	0xbd429d39	-0.04751322
209	0xbd90a070	-0.07061851
210	0xbe3c26a0	-0.1837411
211	0xbe0b9706	-0.1363183
212	0x3e8fd754	0.2809397
213	0x3d073afc	0.033015236
214	0xbc8cf8df	-0.017208515
215	0xbd713faf	-0.058898624
216	0x3da162fe	0.078802094
217	0xbdeb6876	-0.11494534
218	0xbd8b6ed8	-0.06808251
219	0xbd1dee36	-0.038557254
220	0xbf3d91c0	-0.7405052
221	0x3e17b830	0.14816356
222	0x3d234ab6	0.03986617
223	0xbe5b1ffa	-0.21398917
224	0x3da16ae7	0.07881718
225	0x3e5fcd18	0.21855581
226	0x3d38544a	0.04500226
227	0x3e1cd80b	0.15316789
228	0x3e00de2e	0.12584755
229	0xbe6f44bf	-0.23366068
230	0xbcadb269	-0.021203237
231	0xbd832123	-0.06402805
232	0x3d70d6df	0.058798667
233	0xbd60b001	-0.05485535
234	0xbd3a0533	-0.045415115
235	0xbd2042d3	-0.03912623
236	0xbe08ef4e	-0.13372537
237	0xbc6f2917	-0.014597199
238	0x3e54b610	0.20772576
239	0xbe09fac5	-0.13474567
240	0xbe48b5d6	-0.19600615
241	0x3cd8022f	0.026368229
242	0xbe571413	-0.21003751
243	0xbd9812ff	-0.07425498
244	0x3d13e08e	0.036102824
245	0x3cc6eddb	0.02428334
246	0xbcb633f1	-0.022241564
247	0x3a3cb169	0.0007198067
248	0x3c1e9e09	0.009681233
249	0x3d89fb0a	0.06737335
250	0xbd666a01	-0.056253437
251	0x3ce79f56	0.02827422
252	0x3cc6f1b2	0.024285171
253	0xbe8765ea	-0.26444942
254	0xbe68e6c0	-0.22744274
255	0xbd7541bc	-0.059877142

fc2.bias f4 [84]
0	0x3ea0927a	0.31361753
1	0x3dbe9879	0.093064256
2	0x3e39e79c	0.18154758
3	0x3ca8ce6c	0.020606242
4	0x3ead03c1	0.33791927
5	0x3e48b428	0.19599974
6	0xbe641a1e	-0.22275588
7	0xbde35ba4	-0.111014634
8	0x3e0dc4f3	0.13844661
9	0x3cac47cb	0.021030327
10	0x3e4e4563	0.20143656
11	0x3ea611dd	0.32435504
12	0xbdfbb680	-0.122906685
13	0xbe13c79b	-0.14431612
14	0xbdf825f6	-0.121166155
15	0x3d0fe3b5	0.035129268
16	0x3d502f8e	0.0508266
17	0x3e1d76f9	0.15377416
18	0xbdbf314f	-0.09335577
19	0xbdf70bb9	-0.12062783
20	0xbe3f249a	-0.18666306
21	0xbda5bbcd	-0.08092461
22	0x3cc4e28c	0.024033807
23	0x3e9b770d	0.30364266
24	0x3e943e74	0.28953898
25	0x3e92ad19	0.28647688
26	0x3eae8c60	0.34091473
27	0xbe18b399	-0.14912261
28	0x3d039043	0.03212
29	0xbe92ce4c	-0.28673017
30	0xbe177b4a	-0.14793125
31	0x3dba4446	0.090950534
32	0x3dcb86ee	0.09937845
33	0x3d31f648	0.043447763
34	0x3e936c03	0.28793344
35	0x3e81f087	0.2537882
36	0xbddd1d53	-0.10796609
37	0xbe341d24	-0.17589241
38	0x3db8111f	0.089876406
39	0x3e50989f	0.2037072
40	0xbd03200a	-0.032012977
41	0x3dbcfc7a	0.092278436
42	0x3e46dbf7	0.19419847
43	0x3e177370	0.1479013
44	0x3eae8396	0.34084767
45	0xbe00422c	-0.12525243
46	0x3db71a57	0.08940571
47	0x3e9e1a25	0.30879322
48	0xbdbc85e2	-0.092052236
49	0x3cdbbe8d	0.02682426
50	0xbe145265	-0.14484556
51	0xbe0cd1c4	-0.13751894
52	0xbbd4a0ec	-0.00648891
53	0xbe69a1b1	-0.22815587
54	0x3eacac9f	0.3372545
55	0xbda9bc4e	-0.082878694
56	0x3e48495b	0.19559233
57	0x3e6512fd	0.22370525
58	0xbdca06f4	-0.098646075
59	0x3cfbb465	0.030725667
60	0xbdfa6ca3	-0.12227752
61	0x3e5c7a3b	0.21531002
62	0x3e944c6e	0.2896456
63	0xbe2d1146	-0.1690112
64	0x3e21ed3a	0.15813151
65	0x3de572ff	0.112035744
66	0x3d02b5a5	0.03191151
67	0xbde3c9cf	-0.11122476
68	0x3d913057	0.07089298
69	0x3e2af15c	0.16693634
70	0x3e5bd5d2	0.21468285
71	0xbe3a210f	-0.18176673
72	0xbe1b3c64	-0.15159756
73	0xba123d64	-0.0005578606
74	0x3e6db9d5	0.2321542
75	0x3dd602a5	0.10449723
76	0x3dd48b04	0.103780776
77	0xbd7e0daa	-0.06202475
78	0x3e5c97de	0.21542308
79	0x3e0dc603	0.13845067
80	0xbdb161e3	-0.086612485
81	0x3cf17b68	0.02947779
82	0xbe2e0948	-0.16995728
83	0x3e472b49	0.19450106

fc3.weight f4 [10, 84]
0	0xbddea5d1	-0.10871471
1	0x3e4e7deb	0.20165221
2	0xbcaf8130	-0.021423906
3	0x3e09bd43	0.13451104
4	0xbd8c0211	-0.06836332
5	0x3e4976c6	0.19674215
6	0x3c8a2fe5	0.016868541
7	0xbdfc6252	-0.123234406
8	0xbd5d5759	-0.05403838
9	0xbd0f99de	-0.03505885
10	0x3e1e6479	0.15468015
11	0x3dd4078f	0.10353004
12	0xbc8e9816	-0.017406505
13	0xbd35e79d	-0.044410337
14	0x3e5e72f4	0.21723539
15	0x3cb314b2	0.021860454
16	0x3bccd7a3	0.006251292
17	0xbe995fa8	-0.29955792
18	0xbca6893f	-0.020329116
19	0xbd5a825c	-0.053346977
20	0xbc04ebfe	-0.008112906
21	0xbc464fa9	-0.012103953
22	0xbda411dc	-0.08011219
23	0xbdf36418	-0.11884326
24	0xbe208f75	-0.15679725
25	0xbe58841b	-0.21144144
26	0x3e1f8b32	0.15580443
27	0x3d2e2748	0.04251793
28	0xbf52488a	-0.82141936
29	0x3d361b86	0.044459842
30	0xbdb27dad	-0.08715377
31	0x3da8bee1	0.08239532
32	0xbe9ef141	-0.31043437
33	0xbe994781	-0.29937366
34	0x3dfa6766	0.12226753
35	0xbe403420	-0.18769884
36	0x3d8d6a72	0.069050685
37	0xbe222654	-0.15834934
38	0x3de52af7	0.111898355
39	0x3daa2bf2	0.08309163
40	0x3dacea63	0.08443143
41	0x3dd2710c	0.10275468
42	0x3e20bcb5	0.15696986
43	0xbf15ee91	-0.5856715
44	0x3c3f4d5c	0.011676159
45	0xbd36e0b6	-0.044647895
46	0x3d91d082	0.07119848
47	0xbe343cff	-0.17601393
48	0xbdf35faa	-0.11883481
49	0x3d8ef795	0.06980816
50	0xbde9bb71	-0.11412705
51	0xbd70685e	-0.058693282
52	0xbe99f203	-0.30067453
53	0xbe9fa765	-0.311824
54	0xbe387566	-0.18013534
55	0x3d6a481f	0.057197686
56	0x3d8a222b	0.06744798
57	0x3e27cf9a	0.16387787
58	0x3adce5d5	0.0016853163
59	0xbd831297	-0.0640003
60	0x3dfd323f	0.12363099
61	0xbd83a6bd	-0.06428287
62	0x3e07a049	0.13244738
63	0xbd952a77	-0.0728349
64	0x3e86b832	0.26312405
65	0x3e1deeee	0.15423176
66	0xbceaae8c	-0.028647684
67	0x3d5e67a9	0.054298077
68	0xbe9b81e7	-0.30372545
69	0xbe9b1ea9	-0.3029683
70	0xbe83f9fd	-0.25776663
71	0xbdc7ee68	-0.09762269
72	0xbd2a0aa6	-0.04151406
73	0xbddd6906	-0.10811047
74	0xbe5523f6	-0.208145
75	0xbdaf6d64	-0.085657865
76	0xbed4f292	-0.41591316
77	0xbecc54b1	-0.39908364
78	0xbe9c5400	-0.30532837
79	0xbed3653d	-0.41288176
80	0xbdddadc9	-0.108241625
81	0x3e2ff44d	0.17183037
82	0xbbcb7c53	-0.006209889
83	0x3d9e729f	0.07736706
84	0x3f06c820	0.52649117
85	0xbe937588	-0.28800607
86	0xbea82075	-0.32837263
87	0x3e884f56	0.2662303
88	0xbe25c655	-0.16188939
89	0xbf1542fb	-0.5830533
90	0xbf3d481c	-0.73938155
91	0xbe8fe3c1	-0.2810345
92	0xbe1a493f	-0.15067004
93	0x3d5b63c5	0.053561945
94	0xbd9bc2cd	-0.07605515
95	0x3e16883e	0.1470041
96	0xbde5a933	-0.11213913
97	0xbd37c85c	-0.044868812
98	0xbe999236	-0.29994363
99	0x3d09bd93	0.033628058
100	0x3c403666	0.01173172
101	0x3d6159e0	0.055017352
102	0xbde5bc01	-0.112174995
103	0xbeea5e7d	-0.45775214
104	0xbb174f60	-0.0023088083
105	0x3e82a7ea	0.25518733
106	0x3ee4ffc3	0.4472638
107	0xbee1aa07	-0.44075033
108	0xbee8e77e	-0.45489115
109	0xbe77d82b	-0.24203555
110	0xbef89704	-0.48552716
111	0x3ab136ff	0.0013520418
112	0xbefeff78	-0.49804282
113	0xbe2322e5	-0.1593128
114	0xbc77afdb	-0.015117611
115	0x3c512d95	0.012767215
116	0xbee3ae8d	-0.4446911
117	0xbee83d75	-0.45359388
118	0xbe9d7842	-0.30755812
119	0x3d235ba1	0.039882306
120	0xbdc2e430	-0.095161796
121	0xbe02a0d7	-0.12756668
122	0x3e3121e2	0.17298082
123	0xbe588cf6	-0.21147522
124	0x3dc76e3b	0.09737822
125	0x3e0343f5	0.12818892
126	0xbe6bed24	-0.2303968
127	0xbdce530a	-0.10074432
128	0xbee2661b	-0.44218525
129	0xbe699baf	-0.22813295
130	0xbede3aa9	-0.4340413
131	0xbf36210c	-0.71144176
132	0x3e77ff23	0.2421842
133	0x3e150b7a	0.14555159
134	0x39129950	0.00013980758
135	0xbd2209a2	-0.039559968
136	0x3d0e4655	0.034735043
137	0xbaef7d9d	-0.0018271689
138	0xbca30ed4	-0.019904532
139	0x3dab4785	0.08363251
140	0x3c813441	0.015771987
141	0xbf042629	-0.5162073
142	0xbe195aee	-0.14976093
143	0xbe4cab06	-0.19987115
144	0xbedb2363	-0.42800435
145	0xbe83f120	-0.257699
146	0xbec0d844	-0.37664998
147	0xbe6d09c5	-0.23148258
148	0xbf069034	-0.52563787
149	0xbf042345	-0.5161632
150	0x3e38cbef	0.18046544
151	0xbdb8b961	-0.09019733
152	0xbf2a325c	-0.6648309
153	0xbe6699b3	-0.22519569
154	0xbcb5eff1	-0.02220914
155	0xbe53c8c0	-0.20682049
156	0xbdb2656a	-0.087107494
157	0x3e77fbb3	0.2421711
158	0x3e3cc7d9	0.18435611
159	0x3e9f0943	0.31061754
160	0x3dcaf379	0.0990972
161	0xbe9042e9	-0.28176048
162	0xbe1c610d	-0.15271397
163	0xbbf7cf1f	-0.0075625326
164	0xbd31c9ba	-0.043405272
165	0xbeae3dbc	-0.34031475
166	0xb977a9a4	-0.00023618952
167	0xbe95cc51	-0.29257444
168	0xbcf88026	-0.030334543
169	0xbedcaf8d	-0.43102685
170	0xbd6cc3c9	-0.057803903
171	0xbe61a8aa	-0.22036996
172	0x3df2923e	0.118443
173	0x3e0da45e	0.13832232
174	0xbea879d8	-0.3290546
175	0x3db93c16	0.090446636
176	0xbe862c2d	-0.26205578
177	0xbeca1009	-0.3946536
178	0x3e68ca5b	0.22733442
179	0xbf38479d	-0.71984273
180	0xbe4c310e	-0.19940588
181	0xbe2155b1	-0.15755345
182	0xbea7de10	-0.32786608
183	0x3e2f5931	0.17123868
184	0xbe9e2644	-0.3088857
185	0x3da5db51	0.08098472
186	0xba9c4508	-0.0011922428
187	0x3d92b56f	0.07163512
188	0xbcde03fa	-0.027101506
189	0xbf18335b	-0.5945336
190	0xbc74e97b	-0.014948244
191	0xbcec1755	-0.02881972
192	0x3e0a6ada	0.13517323
193	0xbd8a99e7	-0.06767636
194	0x3c9f2d02	0.019430641
195	0x3d6c1918	0.05764112
196	0xbddcfd50	-0.10790503
197	0x3f07de7e	0.5307387
198	0x3d8bdf99	0.06829757
199	0x3d2afa1d	0.041742433
200	0xbe1c270b	-0.15249269
201	0x3e391675	0.18074973
202	0x3d98c1d5	0.074588455
203	0x3d47c5de	0.048772685
204	0xbd600b2f	-0.054698166
205	0x3c8a64c0	0.016893744
206	0xbe385aaf	-0.18003343
207	0xbe3ddc69	-0.18541111
208	0x3de182ce	0.11011277
209	0xbe1992cb	-0.14997403
210	0xbe4ddc79	-0.20103635
211	0x3da4d764	0.08048895
212	0x3ca3ff96	0.020019334
213	0xbde82ce1	-0.11336685
214	0x3e2c2a33	0.16812973
215	0xbda8f964	-0.082506925
216	0xbe1691e9	-0.14704098
217	0xbebfed6e	-0.37485832
218	0xbd75c64a	-0.060003556
219	0xbcd05336	-0.025430303
220	0xbe5f8f03	-0.21831898
221	0xbea56662	-0.32304674
222	0xbccbad91	-0.024863036
223	0x3e281d84	0.1641751
224	0x3df17623	0.11790111
225	0x3deff073	0.11715784
226	0xbc5c3de5	-0.013442491
227	0xbe198393	-0.14991598
228	0xbe94992d	-0.29023114
229	0x3de1d00e	0.110260114
230	0xbea0e67f	-0.31425855
231	0xbd86ad9d	-0.06576083
232	0xbcd71ea5	-0.02625973
233	0x3e53c4cb	0.2068054
234	0xbd9b8a35	-0.0759472
235	0xbdf50062	-0.11962964
236	0xbd7fffc2	-0.06249977
237	0xbdf3e605	-0.11909107
238	0xbe0d9e28	-0.13829863
239	0x3c43cce2	0.011950703
240	0xbdb20c41	-0.086937435
241	0xbed2cadd	-0.41170397
242	0x3c8b6db1	0.017020078
243	0xbea02e00	-0.31285095
244	0x3d5dd5b0	0.054158866
245	0xbea0bc29	-0.31393555
246	0xbdcb2acc	-0.09920272
247	0xbe74b4c7	-0.23897086
248	0xbda4f941	-0.08055354
249	0x3d98a8bb	0.07454058
250	0xbe0e2f9e	-0.13885352
251	0xbd5ed572	-0.054402776
252	0xbe281940	-0.16415882
253	0x3d206c9d	0.03916608
254	0xbf1f4f06	-0.62229955
255	0xbe0b7403	-0.13618474

fc3.bias f4 [10]
0	0xbe20a74c	-0.15688819
1	0xbecd424d	-0.40089646
2	0xbd95db69	-0.0731724
3	0x3e18d21a	0.14923897
4	0xbe32ba77	-0.17453943
5	0x3c2dd248	0.010609217
6	0x3e32f090	0.1747458
7	0x3d53716f	0.05162185
8	0x3e1e6e1c	0.15471691
9	0xbe19f348	-0.1503421
